exomy/config/best_run_no_obstacles405k/checkpoints/105000_policy.pt (torch, 723582 bytes, 13 tensors)

log_std_parameter f4 [2]
-0.8174807 -0.5833859
00000000: 6a46 51bf c758 15bf

network.0.conv.0.weight f4 [512, 5]
0.26905283 -0.17896569 0.00015232504 -0.06658693 0.16602008 0.13165987 0.10133917 0.14914382
-0.052881468 -0.011493034 -0.030762857 -0.0038633212 -0.0005047396 -0.25415552 0.057578485 0.015597234
-0.08248374 0.27235278 0.033671103 0.1700941 0.05215973 -0.012371635 0.082452394 0.19275008
0.12581505 0.15593942 0.3256318 -0.007153393 -0.19569626 -0.027814725 -0.28245208 -0.00546671
0.047981285 -0.023575302 -0.060733583 0.0064151688 -0.033481836 0.048419155 0.095090486 -0.073632
0.087055385 -0.2660114 -0.036148876 -0.008874833 -0.020454518 -0.12421358 -0.07305433 -0.24502109
0.06483043 -0.1882414 -0.04344575 0.3521319 0.065711714 0.16043888 0.0029541685 -0.081167564
0.1581628 -0.06317799 0.13457343 -0.07041405 0.22830132 -0.044155985 0.08452015 0.027716948
0.12752973 0.19250838 -0.22732975 0.018394621 0.21743274 0.008031695 -0.11250359 0.047103267
0.111010425 0.087230906 0.15233283 -0.16527677 0.25341105 0.043635853 0.14699744 -0.033174805
0.15317708 0.4982419 0.0198714 -0.16311476 0.1479129 -0.1271027 0.04672069 0.095655605
-0.12479716 0.048407566 0.13312197 0.16911037 -0.10815062 -0.029347036 0.036050748 -0.33709577
-0.27800822 -0.009507578 0.08871695 -0.037449095 -0.12730712 0.018169986 -0.1546099 -0.00906042
0.078033246 -0.28939933 0.1356236 -0.082667165 -0.2646548 0.22361313 -0.0410712 -0.088538386
0.043028582 0.04703897 -0.008841028 -0.14841478 0.24993902 0.0005021746 -0.009082551 -0.042142436
0.307107 0.03776203 0.10984316 -0.028678207 -0.114848815 -0.09630667 -0.27268407 -0.040183056
0.12511441 -0.06718121 -0.2453958 0.043897666 0.15652049 -0.039145328 -0.016568763 -0.36883447
0.29581755 -0.08304308 -0.10734301 -0.07044875 0.15216981 0.09071337 -0.017016746 0.15549041
-0.014895785 0.0048355674 0.2644767 0.07798414 0.06385816 -0.037817843 -0.12689887 0.13322474
0.058720343 -0.1575034 -0.20488887 -0.2001142 -0.18517125 0.13973163 0.052155104 -0.13136673
-0.20300639 -0.17183928 0.012223605 -0.16289307 0.09714167 -0.16395222 -0.010862794 -0.02733518
0.016114768 -0.091203235 -0.008782142 0.33250186 0.01715177 -0.058931626 -0.030052891 0.2518586
0.076294124 0.049641028 -0.06893776 -0.06972628 -0.27146143 0.348795 -0.0821993 -0.15344164
0.21988826 0.260673 0.025512414 -0.07493156 0.044728126 0.01617409 -0.09499286 -0.12516822
0.08279352 -0.039228763 0.031024693 -0.043474242 -0.52638865 -0.06392117 -0.0071700322 0.12857871
0.056894824 0.19153795 0.052745357 0.124792315 0.022049593 -0.12746137 -0.25916335 -0.0020395042
-0.09004617 -0.07639931 -0.0984336 -0.18762246 -0.04047449 -0.018434621 -0.20591998 0.2355129
0.3920494 -0.00025822746 -0.096282184 0.11002427 -0.25061598 -0.04144712 0.12828293 0.07679307
-0.18027902 0.122596554 0.053358596 0.029024202 -0.05450726 0.07980679 0.27387062 -0.122729756
-0.06637605 -0.06355115 -0.12229297 0.18891518 -0.04242375 -0.048689067 -0.07893198 0.07488472
-0.06430883 0.11482069 0.028168162 -0.14167015 -0.064583145 -0.22209974 -0.3264224 0.023305291
-0.04350451 -0.045598876 0.1480534 0.32221928 0.13487591 -0.18013015 -0.22218166 0.17260835
00000000: 4bc1 893e c842 37be 71b9 1f39 ba5e 88bd
00000010: 2b01 2a3e d8d1 063e e98a cf3d 28b9 183e
00000020: 3d9a 58bd 474d 3cbc 6302 fcbc c62f 7dbb
00000030: 8050 04ba ac20 82be 6bd7 6b3d 8a8b 7f3c
00000040: 3ced a8bd d371 8b3e b6ea 093d 262d 2e3e
00000050: 71a5 553d 66b2 4abc cddc a83d 4760 453e
00000060: a9d5 003e 95ae 1f3e 36b9 a63e 0267 eabb
00000070: 9a64 48be b5db e3bc 8f9d 90be 1622 b3bb
00000080: 0688 443d fe20 c1bc c7c3 78bd 5636 d23b
00000090: 4024 09bd 2a53 463d cdbe c23d 60cc 96bd
000000a0: 184a b23d a532 88be d810 14bd bf67 11bc
000000b0: 3c90 a7bc b063 febd 829d 95bd cfe6 7abe
000000c0: d1c5 843d 5bc2 40be 2cf4 31bd a24a b43e
000000d0: dd93 863d 174a 243e b99a 413b 2e3b a6bd
000000e0: 6ef5 213e 7663 81bd 9ecd 093e 3e35 90bd
000000f0: d2c7 693e e8dc 34bd e718 ad3d a70e e33c
00000100: 2797 023e eb20 453e 21c9 68be 51b0 963c
00000110: b0a6 5e3e 5f97 033c 4868 e6bd 5bef 403d
00000120: 6f59 e33d 1ea6 b23d 23fd 1b3e 503e 29be
00000130: 18bf 813e 82bb 323d 7f86 163e 4ee2 07bd
00000140: 74da 1c3e 9019 ff3e 59c9 a23c 8e07 27be
00000150: 7b76 173e 3627 02be 325e 3f3d 16e7 c33d
00000160: a795 ffbd 0347 463d 2051 083e 452b 2d3e
00000170: 127e ddbd 3269 f0bc f3a9 133d d197 acbe
00000180: 1857 8ebe acc5 1bbc 3bb1 b53d 3964 19bd
00000190: cc5c 02be 39d9 943c 0f52 1ebe 2872 14bc
000001a0: e5cf 9f3d 262c 94be eae0 0a3e 674d a9bd
000001b0: d580 87be d7fa 643e 463a 28bd 9d53 b5bd
000001c0: bd3e 303d efab 403d f6d9 10bc 0bfa 17be
000001d0: 04f0 7f3e 5ea4 033a fbce 14bc 8c9d 2cbd
000001e0: 213d 9d3e 5cac 1a3d 73f5 e03d 8fee eabc
000001f0: db35 ebbd 6e3c c5bd 3f9d 8bbe fd96 24bd
00000200: fe1d 003e 4d96 89bd 0949 7bbe 0ace 333d
00000210: e846 203e da56 20bd 37bb 87bc dfd7 bcbe
00000220: 6675 973e 7e12 aabd a7d6 dbbd 6f47 90bd
00000230: 67d2 1b3e eec7 b93d b466 8bbc e138 1f3e
00000240: 730d 74bc ae73 9e3b 7d69 873e 26b6 9f3d
00000250: 11c8 823d e2e6 1abd c7f1 01be 116c 083e
00000260: be84 703d 9248 21be 63ce 51be bdea 4cbe
00000270: 889d 3dbe cf15 0f3e 97a0 553d 0085 06be
00000280: e8e0 4fbe a3f6 2fbe 8445 483c 71cd 26be
00000290: 36f2 c63d 17e3 27be dcf9 31bc 07ee dfbc
000002a0: 1e03 843c c3c8 babd f9e2 0fbc af3d aa3e
000002b0: de81 8c3c 4a62 71bd 7b31 f6bc 9cf3 803e
000002c0: 1840 9c3d 6454 4b3d 3e2f 8dbd a7cc 8ebd
000002d0: fefc 8abe 4295 b23e 1b58 a8bd ce1f 1dbe
000002e0: 632a 613e ee76 853e 69ff d03c b875 99bd
000002f0: d734 373d 867f 843c 9e8b c2bd 192c 00be
00000300: a68f a93d 57ae 20bd 7f27 fe3c 0c12 32bd
00000310: 68c1 06bf 1ae9 82bd 97f2 eabb 23aa 033e
00000320: 8c0a 693d 8622 443e 840b 583d 1d93 ff3d
00000330: 59a1 b43c 3c85 02be 0fb1 84be 34a9 05bb
00000340: 206a b8bd 3e77 9cbd 8e97 c9bd 1a20 40be
00000350: 94c8 25bd 3404 97bc b0dc 52be 4b2a 713e
00000360: b3ba c83e b462 87b9 982f c5bd 6854 e13d
00000370: bd50 80be 75c4 29bd 9a5c 033e af45 9d3d
00000380: 109b 38be e713 fb3d 8b8e 5a3d 2ac4 ed3c
00000390: 0143 5fbd be71 a33d c538 8c3e bd59 fbbd
000003a0: 2bf0 87bd 1b27 82bd bd74 fabd fb72 413e
000003b0: 87c4 2dbd 306e 47bd 17a7 a1bd 295d 993d
000003c0: 59b4 83bd 1c27 eb3d ebc0 e63c fb11 11be
000003d0: 2b44 84bd 1d6e 63be d620 a7be bdea be3c
000003e0: c931 32bd e3c5 3abd 4f9b 173e edf9 a43e
000003f0: e91c 0a3e 0a74 38be 9783 63be 3ec0 303e

network.0.conv.0.bias f4 [512]
0.10046975 -0.1650504 -0.062184624 0.021083506 -0.31124783 0.005239706 -0.15182996 -0.19898914
0.13144372 0.0098606385 -0.06007742 0.0024249954 -0.087034725 0.02044914 -0.0125495 0.085768916
0.00042260316 -0.1108902 0.0075072316 0.054907355 0.18386441 0.055866193 -0.15463537 0.059079815
0.1667024 0.08383266 0.051338423 0.04557459 -0.15937197 -0.08778553 0.026612878 -0.10540023
0.14714025 0.037227783 0.05573562 0.012666182 -0.0042351806 -0.00613193 -0.0009922789 0.029034331
0.10278078 0.13610247 -0.07739574 0.031204712 -0.17831649 0.16872242 0.021312857 -0.03966066
0.077727735 0.08228996 -0.043746304 0.018862762 0.06408432 0.14356369 0.077449605 0.14130896
0.022067511 0.02713179 0.015107066 -0.16873996 0.077392824 0.015213906 0.20731981 0.11527072
0.24645469 -0.0036158047 0.079978436 0.0606008 -0.04543499 0.10665131 0.015418619 0.011611344
-0.06923951 -0.027142769 -0.07120343 0.011749858 -0.15841617 -0.019225234 -0.04601974 -0.21788475
0.15715455 0.07598309 -0.05514868 0.19901577 0.16750203 0.024452208 0.09053822 -0.03419413
-0.02500958 -0.15394653 0.022742804 -0.10930632 0.044367097 -0.22487694 -0.015851587 0.11727539
0.18418832 0.12222709 -0.041767422 7.8496625e-05 0.10805068 0.08189774 0.14985396 -0.1477197
0.03417101 0.028387373 -0.073562816 0.0033338142 -0.060029957 -0.076100715 0.026293414 0.014529034
-0.0650304 0.10753568 0.06516925 -0.122638956 0.10035827 -0.030668987 0.028738482 0.04300792
-0.08687634 0.017051456 0.078925796 -0.018288927 -0.1171264 -0.13468176 -0.1419094 0.0979156
-0.061537463 0.11779557 0.03106133 -0.092720225 -0.020945968 0.028448153 0.06384242 0.024929123
0.00010112498 0.010112414 0.035349615 -0.0034965873 -0.16110824 -0.16709091 0.085349865 -0.074233405
0.019406931 0.04558106 -0.05313892 -0.11563415 0.05693288 -0.0009407852 0.019661425 -0.0042539896
-0.20127861 -0.041401263 -0.11046172 0.1273035 0.01680359 0.06940104 -0.0689807 -0.08893865
-0.050693713 0.050365288 -0.08202399 0.21380569 -0.041554138 0.043634422 0.06738356 0.22043139
-0.00029565668 -0.23471184 -0.06287112 -0.13989475 0.22836918 -0.18291777 -0.099872544 -0.07114484
-0.018100584 0.0028762035 0.0019687298 -0.014254118 -0.024369339 0.107289046 -0.07678591 -0.19717188
-0.15825 0.065155804 -0.028020954 -0.15746394 0.1273537 -0.1681793 0.09527857 -0.085327394
-0.1267498 -0.13969435 -0.048912846 0.16594929 -0.1728815 0.050712656 0.027204376 -0.019922588
0.037546072 -0.24523138 0.017882818 -0.02806199 -0.005160731 0.0471547 0.09250215 -0.07641335
-0.11832008 -0.095993824 -0.25502577 -0.14598761 -0.04541988 -0.025769928 0.095118225 0.12235248
0.13749744 0.12844886 0.07936369 -0.101130664 -0.074070916 -0.034891896 -0.17071952 -0.20748343
-0.17113622 0.06367075 -0.043776326 -0.10446104 -0.14322288 0.079943135 -0.16342938 0.032941386
-0.23806953 0.124127865 -0.14628017 -0.20145492 0.112620994 -0.007719548 -0.117571905 0.06252747
0.06531646 0.11000548 -0.16592677 0.0029257329 0.020619761 -0.0015438589 0.052399453 0.0749942
0.055890087 -0.14129905 -0.003268095 -0.089719705 -0.026128618 0.023530733 -0.14334394 -0.11599525
00000000: 16c3 cd3d f902 29be 4eb5 7ebd 51b7 ac3c
00000010: e05b 9fbe d7b1 ab3b 5079 1bbe cfc3 4bbe
00000020: 2f99 063e 848e 213c be13 76bd acec 1e3b
00000030: 433f b2bd f484 a73c 6b9c 4dbc 9da7 af3d
00000040: d690 dd39 671a e3bd 39ff f53b 89e6 603d
00000050: f446 3c3e f3d3 643d bc58 1ebe adfd 713d
00000060: 09b4 2a3e 75b0 ab3d 3d48 523d 6cac 3a3d
00000070: 6832 23be e6c8 b3bd 4003 da3c 13dc d7bd
00000080: efab 163e 297c 183d 094b 643d d185 4f3c
00000090: 45c7 8abb 5bee c8bb 5b0f 82ba 68d9 ed3c
000000a0: bb7e d23d 725e 0b3e a881 9ebd 06a1 ff3c
000000b0: 9998 36be 92c5 2c3e 4d98 ae3c 3773 22bd
000000c0: b82f 9f3d a387 a83d 532f 33bd 1486 9a3c
000000d0: a43e 833d 5c02 133e e69d 9e3d 4cb3 103e
000000e0: edc6 b43c 7d43 de3c a183 773c 2bca 2cbe
000000f0: 2180 9e3d bf43 793c a54b 543e 0e13 ec3d
00000100: 9e5e 7c3e 23f7 6cbb bccb a33d 8b38 783d
00000110: 0a1a 3abd 016c da3d 609e 7c3c 823d 3e3c
00000120: 72cd 8dbd 835a debc 1bd3 91bd 7a82 403c
00000130: d937 22be 3d7e 9dbc 327f 3cbd 2e1d 5fbe
00000140: 1fed 203e 069d 9b3d 95e3 61bd caca 4b3e
00000150: a785 2b3e ff4f c83c 1a6c b93d 250f 0cbd
00000160: e4e0 ccbc 29a4 1dbe 1e4f ba3c fedb dfbd
00000170: 46ba 353d 2446 66be 30db 81bc 142e f03d
00000180: dd9b 3c3e 3252 fa3d 5114 2bbd 8e9e a438
00000190: ad49 dd3d 01ba a73d 5173 193e d543 17be
000001a0: e7f6 0b3d a38c e83c 1aa8 96bd 1f7c 5a3b
000001b0: f9e1 75bd b1da 9bbd 4965 d73c 2f0b 6e3c
000001c0: a92e 85bd ab3b dc3d 7577 853d 222a fbbd
000001d0: a388 cd3d 873d fbbc f76c eb3c 1329 303d
000001e0: 39ec b1bd 7faf 8b3c d9a3 a13d a9d2 95bc
000001f0: f7df efbd 04ea 09be b350 11be f987 c83d
00000200: b50e 7cbd ce3e f13d 5574 fe3c 1ae4 bdbd
00000210: e196 abbc 1a0c e93c d1bf 823d 2938 cc3c
00000220: 0f13 d438 8aae 253c c2ca 103d 0027 65bb
00000230: 8ff9 24be e119 2bbe e9cb ae3d af07 98bd
00000240: 49fb 9e3c 35b3 3a3d 32a8 59bd 99d1 ecbd
00000250: 7432 693d 079f 76ba ff10 a13c 0d65 8bbb
00000260: fb1b 4ebe 5f94 29bd c139 e2bd d95b 023e
00000270: afa7 893c 2222 8e3d c145 8dbd 7825 b6bd
00000280: 36a4 4fbd d54b 4e3d 32fc a7bd e1ef 5a3e
00000290: ac34 2abd 02ba 323d 6400 8a3d c4b8 613e
000002a0: 5e02 9bb9 4d58 70be 93c2 80bd 9240 0fbe
000002b0: 9cd9 693e cc4e 3bbe fa89 ccbd 63b4 91bd
000002c0: ad47 94bc b07e 3c3b ce05 013b 1b8a 69bc
000002d0: 35a2 c7bc 5cba db3d ee41 9dbd 6de7 49be
000002e0: 4a0c 22be 6870 853d 338c e5bc 3a3e 21be
000002f0: 0269 023e 3237 2cbe 6921 c33d 21c0 aebd
00000300: b3ca 01be 090c 0fbe d658 48bd 9cee 293e
00000310: d907 31be 13b8 4f3d b6db de3c b234 a3bc
00000320: e9c9 193d ef1d 7bbe fd7e 923c 42e2 e5bc
00000330: 591b a9bb 4925 413d c471 bd3d 9a7e 9cbd
00000340: cc51 f2bd 6998 c4bd bd92 82be c77d 15be
00000350: 320a 3abd 751b d3bc 58cd c23d f093 fa3d
00000360: 21cc 0c3e 1988 033e 6e89 a23d 981d cfbd
00000370: 7eb2 97bd ceea 0ebd 19d1 2ebe 8976 54be
00000380: 553e 2fbe cf65 823d ce4e 33bd abef d5bd
00000390: 05a9 12be 3ab9 a33d 085a 27be 8ced 063d
000003a0: 80c8 73be c036 fe3d 78ca 15be 334a 4ebe
000003b0: d6a5 e63d 43f4 fcbb 8ac9 f0bd 670e 803d
000003c0: a3c4 853d 8e4a e13d b5e8 29be a7bd 3f3b
000003d0: c6ea a83c 4f5b caba cfa0 563d 8f96 993d
000003e0: 01ed 643d b3b0 10be 892d 56bb f7be b7bd
000003f0: af0b d6bc 86c3 c03c c1c8 12be eb8e edbd

network.1.conv.0.weight f4 [256, 512]
0.05763684 -0.18007034 -0.06069476 0.026337402 -0.0017343158 -0.11276099 -0.10062814 -0.044690985
0.006777713 -0.08108208 -0.15772556 0.04788574 0.14230834 -0.038708575 -0.09859351 0.3282241
-0.21988006 0.021406468 0.022025373 0.19271305 0.106543414 0.25861838 0.09383421 -0.011745761
0.16558549 -0.051169362 0.18981665 0.10344095 -0.1475354 -0.015634768 -0.1555995 -0.026582828
0.116033286 0.016821194 -0.0027257432 0.06421163 -0.10120927 -0.18672404 -0.035232373 -0.18221559
0.023789674 0.29750592 0.1368409 -0.36083153 0.103034936 -0.05691259 -0.047210645 -0.09460119
0.02615845 0.005702729 0.033520665 -0.0900818 0.10110738 0.078477144 0.27145898 -0.045523282
-0.27434772 -0.20640957 -0.18316247 -0.17741828 -0.037024267 0.0892242 -0.019781088 -0.039139953
0.0189158 -0.2601707 -0.022336757 0.060444813 -0.03800579 0.03603587 0.10265119 -0.05923926
0.060138833 0.25199544 0.04554869 -0.19847172 -0.1713936 -0.0025721667 0.087818265 0.12937675
0.019063758 -0.09492319 -0.21955582 0.1327847 -0.122849494 0.113454655 -0.24876554 -0.039410528
0.1340686 0.28825006 0.18119116 0.079026334 0.30718687 -0.18357866 0.05155775 0.0015362162
-0.07702123 0.13825695 0.00034472463 -0.1649264 0.1110934 -0.02230358 0.07601206 -0.09977403
0.20115018 -0.0123703005 -0.11935148 0.011554664 0.24097301 0.11802666 0.21580203 0.008046807
0.021448089 0.10140225 0.24335636 -0.032785818 0.09075522 -0.17124815 -0.072710566 0.033549543
-0.039762024 0.2369119 -0.100726694 -0.03798188 -0.10557209 -0.26822686 -0.25684562 0.012004935
0.028345063 -0.014748259 0.19304329 -0.0061938185 -0.0056710658 -0.046760406 -0.11430126 0.030624442
0.0442716 0.051013995 0.03356704 0.016091524 0.019235859 0.020112116 -0.22865437 0.108551085
0.064536445 -0.10454142 -0.09331191 -0.025079876 0.15332964 -0.024908287 -0.0025043602 -0.06301871
0.059523445 0.13433862 0.011495682 0.037198804 0.17899697 0.107133 -0.118851304 -0.0066356226
-0.017355194 -0.034086213 0.019957215 0.06408768 -0.12526017 0.17526034 0.091124356 0.11292212
-0.043930296 -0.08905736 0.0056337407 -0.106108956 0.1579526 -0.08629579 0.07191981 -0.13029926
-0.078503236 0.15244989 0.10949082 -0.013403776 -0.09102413 -0.014093908 0.044762213 -0.108018555
-0.15178488 0.0996189 0.074796915 -0.05370389 -0.00698931 0.08619579 0.06960131 -0.17917559
-0.15844554 0.05695294 0.056620944 0.030539732 0.09926002 -0.038992427 0.1143977 -0.04934099
-0.033397317 -0.12091381 0.010737076 -0.0916296 0.07346731 0.084822744 0.1664481 -0.35724005
0.03287924 -0.20701446 0.0049830833 -0.015392549 0.06607008 0.019497499 -0.02562283 0.057627488
0.066535994 0.1317007 0.074397124 0.01820969 0.10488916 0.0278838 -0.11548442 0.036791068
-0.19067381 -0.016851626 0.08296492 -0.16941373 -0.17349674 -0.10359484 -0.017422065 0.08402973
-0.00023237105 0.020389462 -0.030738778 -0.00563336 0.024507033 0.011776351 -0.097034805 0.03468807
0.036460668 0.12837519 -0.08543685 0.0789303 -0.02848236 -0.099043116 0.050383165 -0.11553998
-0.0233654 -0.28515077 -0.0033060892 -0.12752748 0.18315804 -0.13875777 -0.05168268 0.0074605774
00000000: 9b14 6c3d 5c64 38be 129b 78bd 89c1 d73c
00000010: fb51 e3ba 3cef e6bd 2016 cebd e50d 37bd
00000020: 9417 de3b 5d0e a6bd cf82 21be d623 443d
00000030: 47b9 113e e28c 1ebd 65eb c9bd fd0c a83e
00000040: 3d28 61be 9e5c af3c 8e6e b43c 9256 453e
00000050: 6f33 da3d a169 843e 262c c03d 4b71 40bc
00000060: 3e8f 293e f796 51bd 4c5f 423e d9d8 d33d
00000070: 8513 17be 7c14 80bc 7a55 1fbe 3bc4 d9bc
00000080: dca2 ed3d 9acc 893c 62a2 32bb 6381 833d
00000090: ce46 cfbd 9634 3fbe d24f 10bd b996 3abe
000000a0: 90e2 c23c b252 983e 0520 0c3e e9be b8be
000000b0: fb03 d33d 2d1d 69bd f35f 41bd 45be c1bd
000000c0: 3f4a d63c f5dd ba3b f74c 093d cf7c b8bd
000000d0: 6311 cf3d a0b8 a03d acfc 8a3e 9f76 3abd
000000e0: 4e77 8cbe 085d 53be f18e 3bbe 23ad 35be
000000f0: c2a6 17bd 2dbb b63d f30b a2bc 3751 20bd
00000100: 4ff5 9a3c 1835 85be 93fb b6bc fb94 773d
00000110: f6ab 1bbd 599a 133d c93a d23d dea4 72bd
00000120: 2354 763d 8c05 813e 4391 3a3d 2c3c 4bbe
00000130: ce81 2fbe cc91 28bb 10da b33d 577b 043e
00000140: 992b 9c3c 1767 c2bd 3ed3 60be b6f8 073e
00000150: 8498 fbbd ea5a e83d 65bc 7ebe ef6c 21bd
00000160: 4749 093e 8395 933e 2d8a 393e 8fd8 a13d
00000170: 9947 9d3e 0bfc 3bbe 382e 533d dd5a c93a
00000180: 4ebd 9dbd 3b93 0d3e 28bc b439 77e2 28be
00000190: f084 e33d ffb5 b6bc 36ac 9b3d 5456 ccbd
000001a0: 50fa 4d3e cdac 4abc 8c6e f4bd c64f 3d3c
000001b0: a1c1 763e f6b7 f13d 35fb 5c3e c1d6 033c
000001c0: e7b3 af3c fcab cf3d 6932 793e 6c4a 06bd
000001d0: dfdd b93d ad5b 2fbe 47e9 94bd 3f6b 093d
000001e0: 81dd 22bd 0899 723e cc49 cebd e392 1bbd
000001f0: 2e36 d8bd 0855 89be 4581 83be 59b0 443c
00000200: e833 e83c afa2 71bc 24ad 453e 84f5 cabb
00000210: 59d4 b9bb d787 3fbd c716 eabd 1ce0 fa3c
00000220: 2356 353d 0df4 503d 987d 093d 5fd2 833c
00000230: 8594 9d3c 2ac2 a43c 5f24 6abe 0850 de3d
00000240: af2b 843d d019 d6bd 511a bfbd 5074 cdbc
00000250: 7202 1d3e 770c ccbc 3120 24bb f40f 81bd
00000260: dbce 733d 1090 093e 6358 3c3c c65d 183d
00000270: fb4a 373e 8c68 db3d 5068 f3bd a36f d9bb
00000280: 7b2c 8ebc fc9d 0bbd 507d a33c 6740 833d
00000290: 3444 00be 7277 333e 689f ba3d b643 e73d
000002a0: 41f0 33bd b563 b6bd 3e9b b83b a74f d9bd
000002b0: 54be 213e d9bb b0bd b14a 933d 2b6d 05be
000002c0: 4ec6 a0bd d31b 1c3e b93c e03d 839b 5bbc
000002d0: dc6a babd 22ea 66bc 9558 373d d538 ddbd
000002e0: 7f6d 1bbe fe04 cc3d 202f 993d 9cf8 5bbd
000002f0: 9506 e5bb 6b87 b03d 228b 8e3d ce79 37be
00000300: 8c3f 22be 7c47 693d 5deb 673d 762e fa3c
00000310: d648 cb3d 86b6 1fbd 5749 ea3d c719 4abd
00000320: a0cb 08bd a9a1 f7bd 90ea 2f3c 4da8 bbbd
00000330: 0776 963d 8cb7 ad3d 5f71 2a3e 2be8 b6be
00000340: 62ac 063d 99fb 53be 2249 a33b 0831 7cbc
00000350: c04f 873d 38b9 9f3c f8e6 d1bc cd0a 6c3d
00000360: 0644 883d 8cdc 063e 855d 983d 7d2c 953c
00000370: 21d0 d63d 916c e43c 1883 ecbd 3bb2 163d
00000380: ff3f 43be 6c0c 8abc 83e9 a93d cb7a 2dbe
00000390: 21a9 31be 8829 d4bd b8b8 8ebc c717 ac3d
000003a0: a1a8 73b9 cd07 a73c e4cf fbbc 0c98 b8bb
000003b0: f9c2 c83c 99f1 403c 2fba c6bd 1415 0e3d
000003c0: c857 153d c974 033e 84f9 aebd 36a6 a13d
000003d0: d753 e9bc 1ed7 cabd 945e 4e3d 3aa0 ecbd
000003e0: cc68 bfbc 48ff 91be f9aa 58bb 9096 02be
000003f0: c88d 3b3e 8416 0ebe 38b1 53bd dc77 f43b

network.1.conv.0.bias f4 [256]
-0.048710007 0.0030022343 0.040054806 0.013296086 -0.0075565483 0.09411019 0.047310114 0.065634176
-0.035402317 0.05294518 -0.014617669 -0.15206864 0.09072718 -0.102220014 -0.09323915 -0.10075459
-0.04576097 -0.0008453769 0.06366168 -0.19140124 -0.08672046 0.20032634 -0.07246064 -0.03753668
-0.07630903 0.0076285363 -0.17001925 0.023997225 -0.14258672 -0.0033356699 -0.13468388 0.015429209
-0.07181512 -0.19947934 0.23435435 -0.05303626 -0.19958167 -0.009046437 0.011088874 -0.044047594
-0.09898892 -0.13118729 -0.21529448 0.08474611 0.022648606 0.043226995 -0.0832982 -0.019464208
-0.078096814 0.073842876 -0.051692147 0.104426794 -0.06828044 -0.0042027202 -0.06089577 0.03625474
0.030397791 0.06255267 0.040162627 0.15225671 -0.13830684 -0.06036299 -0.013657776 0.051555246
0.0324906 0.032720532 0.15342563 -0.027402634 -0.01919336 -0.05600043 -0.007955505 -0.08790975
0.061267912 -0.11035256 -0.13562526 -0.0010041153 0.02973703 0.04060876 -0.0046280907 0.24056832
-0.123514645 0.04107632 -0.15361233 0.07463812 -0.17614405 -0.085312665 -0.0643134 -0.069338664
0.07016067 0.026523639 0.00016044699 0.16397154 0.09430878 0.13205926 0.015578579 -0.0081292
-0.16304132 -0.01999309 -0.004029344 0.32581767 0.04611167 -0.049532082 0.062841386 -0.16557644
-0.23370098 -0.05753561 0.11610718 -0.17275156 0.04232103 -0.018869719 0.13325018 -0.17246978
0.07431741 0.12566271 -0.10048829 0.11450228 0.08465704 -0.021824278 -0.03695976 0.1527226
0.029563177 -0.028446287 0.12517655 0.090949856 -0.08737345 -0.032815974 0.13891841 -0.22839835
-0.033894107 -0.063334055 -0.16611731 0.046621457 -0.04818843 0.024169397 0.013605247 -0.013627492
0.041572656 -0.015424646 -0.059742637 0.012220513 -0.01117584 0.04245743 -0.022067653 0.035742953
0.054405473 0.029370937 -0.1659947 0.094068155 0.1445752 -0.08327089 -0.047906734 -0.08155248
0.11668075 0.32469988 0.069960035 -0.07063587 0.0029069434 0.086587064 0.019826636 -0.012883721
-0.011898269 -0.085843466 0.02487096 0.19422081 -0.023914248 0.121249795 -0.00542064 -0.012913209
0.094598524 0.12623063 0.075131 -0.09933506 0.018540157 -0.17516807 0.046523616 -0.14441751
-0.037821822 -0.08932526 -0.016237907 0.055328954 0.0055634393 -0.015959078 0.025776131 -0.12640612
-0.01663547 -0.08401558 0.054798078 -0.24721222 -0.065557964 0.12493472 -0.098865315 0.008081678
-0.051183984 -0.1177762 -0.15641212 0.07183806 -0.07981701 0.080213 0.10770944 -0.08429381
-0.08922736 0.118945755 -0.14908561 0.14954387 -0.024931287 -0.01793361 -0.18895541 -0.1285969
-0.026539065 0.007634836 0.04300724 -0.030903507 -0.15267855 0.0026555785 0.069732465 0.11892041
-0.15051694 0.030770041 -0.19975565 -0.062643364 0.004684256 -0.14311707 -0.20844053 -0.0846399
0.011655633 0.010105484 0.07047376 -0.12664573 0.05272681 0.16095 0.13663845 -0.15237439
-0.02092521 0.13954607 -0.064234145 -0.014595291 -0.023494722 0.078674674 -0.0504291 0.20693412
-0.13819374 0.05770248 -0.12693201 0.015627488 0.21402091 0.043572556 0.054342207 0.0011252684
-0.08300614 -0.022211071 -0.25734267 -0.020021304 0.092352815 0.13923436 -0.07223866 -0.095168434
00000000: 2584 47bd 22c1 443b 8210 243d d4d7 593c
00000010: ec9c f7bb d8bc c03d 40c8 413d 366b 863d
00000020: 0502 11bd 0cdd 583d f37e 6fbc e2b7 1bbe
00000030: 2ccf b93d ba58 d1bd 2bf4 bebd 6c58 cebd
00000040: db6f 3bbd 499c 5dba 0e61 823d b0fe 43be
00000050: 7f9a b1bd 5922 4d3e 3e66 94bd 10c0 19bd
00000060: e947 9cbd cdf8 f93b 8719 2ebe d495 c43c
00000070: 4102 12be 419b 5abb 92ea 09be cbca 7c3c
00000080: ce13 93bd 5044 4cbe 96fa 6f3e 8d3c 59bd
00000090: 235f 4cbe 8237 14bc 1cae 353c 406b 34bd
000000a0: b4ba cabd f655 06be 2876 5cbe 5e8f ad3d
000000b0: 9289 b93c ca0e 313d 3f98 aabd 6773 9fbc
000000c0: 39f1 9fbd ef3a 973d 25bb 53bd b7dd d53d
000000d0: 9ed6 8bbd f9b6 89bb d86d 79bd da7f 143d
000000e0: ca04 f93c 9d1b 803d 9181 243d 2fe9 1b3e
000000f0: 4fa0 0dbe 2f3f 77bd ddc4 5fbc 982b 533d
00000100: dd14 053d f705 063d 9c1b 1d3e 7d7b e0bc
00000110: 653b 9dbc b560 65bd ce57 02bc 070a b4bd
00000120: 10f4 7a3d 8600 e2bd 59e1 0abe 859c 83ba
00000130: 129b f33c 5f55 263d 3da7 97bb 8b57 763e
00000140: 3ff5 fcbd a53f 283d 8d4c 1dbe dfdb 983d
00000150: 1b5f 34be 68b8 aebd beb6 83bd 6e01 8ebd
00000160: 66b0 8f3d 1a48 d93c a93d 2839 28e8 273e
00000170: f624 c13d 8b3a 073e 4c3d 7f3c 5630 05bc
00000180: 4ef4 26be 8cc8 a3bc 9608 84bb 93d1 a63e
00000190: 97df 3c3d 27e2 4abd fcb2 803d df8c 29be
000001a0: 4f4f 6fbe 76aa 6bbd 9ac9 ed3d c9e5 30be
000001b0: d158 2d3d ab94 9abc bc72 083e eb9b 30be
000001c0: ba33 983d baad 003e cecc cdbd 2c80 ea3d
000001d0: ac60 ad3d d4c8 b2bc 1e63 17bd 5063 1c3e
000001e0: 7a2e f23c 3008 e9bc 482e 003e eb43 ba3d
000001f0: daf0 b2bd 0b6a 06bd a140 0e3e 42e1 69be
00000200: 8cd4 0abd 49b5 81bd a81a 2abe 24f6 3e3d
00000210: 3b61 45bd e6fe c53c 8be8 5e3c d845 5fbc
00000220: 1748 2a3d a8b7 7cbc b2b4 74bd 8c38 483c
00000230: df1a 37bc d8e7 2d3d 39c7 b4bc 3467 123d
00000240: 46d8 5e3d 529b f03c 84fa 29be cea6 c03d
00000250: 850b 143e ee89 aabd da39 44bd fd04 a7bd
00000260: 51f6 ee3d 103f a63e 3547 8f3d 8aa9 90bd
00000270: 6b82 3e3b 8f54 b13d 786b a23c 3e16 53bc
00000280: f5f0 42bc b3ce afbd 2fbe cb3c d2e1 463e
00000290: d0e7 c3bc d051 f83d a09f b1bb ed91 53bc
000002a0: dfbc c13d 9a42 013e 48de 993d 2e70 cbbd
000002b0: 87e1 973c 425f 33be 8c8f 3e3d 2fe2 13be
000002c0: 0eeb 1abd 29f0 b6bd 5c05 85bc 9da0 623d
000002d0: 834d b63b 9dbc 82bc 7728 d33c 9b70 01be
000002e0: 1c47 88bc 5c10 acbd f373 603d 3325 7dbe
000002f0: 4143 86bd c6dd ff3d e679 cabd 0469 043c
00000300: 4ca6 51bd a634 f1bd 802a 20be d51f 933d
00000310: 1a77 a3bd b746 a43d c496 dc3d 3ca2 acbd
00000320: d6bc b6bd d599 f33d e6a9 18be 0722 193e
00000330: b33c ccbc 82e9 92bc 877d 41be e8ae 03be
00000340: 7468 d9bc a52d fa3b 5c28 303d 5a29 fdbc
00000350: c457 1cbe 3709 2e3b e5cf 8e3d 8b8c f33d
00000360: 1d21 1abe 7411 fc3c bf8c 4cbe 2a4b 80bd
00000370: 637e 993b 488d 12be 6f71 55be af57 adbd
00000380: 45f7 3e3c 7991 253c 8c54 903d 6baf 01be
00000390: 11f8 573d 14d0 243e f3ea 0b3e 0808 1cbe
000003a0: 596b abbc 2ae5 0e3e 318d 83bd 1621 6fbc
000003b0: 0178 c0bc 3020 a13d be8e 4ebd 8ae6 533e
000003c0: a982 0dbe 7059 6c3d 77fa 01be 3805 803c
000003d0: 4c28 5b3e 2379 323d ef95 5e3d be7d 933a
000003e0: 20ff a9bd fef3 b5bc 6bc2 83be b803 a4bc
000003f0: 7923 bd3d 7493 0e3e ddf1 93bd abe7 c2bd

network.2.conv.0.weight f4 [128, 256]
0.07112983 0.034776427 -0.017928163 0.028617147 -0.05258537 0.08945276 0.22610858 0.17742783
-0.0917486 -0.0045460844 -0.10983157 -0.050843414 0.012001447 0.10040974 0.09164072 -0.09584192
0.33060074 -0.11255219 -0.06121554 0.07097617 0.09224849 -0.037968725 0.06215543 0.11419871
-0.17255421 0.26742917 -0.13340299 0.078071 0.17636628 -0.10768961 0.047557518 -0.210954
-0.14563556 -0.16066682 0.06048513 -0.08992305 -0.098772064 0.01020261 0.11641244 -0.051598843
0.07193303 -0.083196215 0.00885939 0.09204589 -0.12006744 -0.07488649 0.18629526 0.030486066
-0.20395733 0.10966072 -0.18499124 -0.055386167 -0.023034865 -0.022115327 0.019058583 -0.033373084
-0.039148167 -0.052550368 -0.2120038 -0.16914217 0.06017812 -0.082673796 0.16909935 -0.10250677
0.0002363306 0.10533274 -0.07905003 -0.014682308 -0.21431348 -0.047498003 -0.067240536 0.09774368
-0.07449879 -0.009423477 -0.11030413 -0.045035046 0.03400716 0.04446491 0.17167477 -0.12830321
-0.2701629 0.14641158 -0.029119644 -0.004877909 -0.044242114 0.1084725 -0.043411527 0.036611393
-0.076537244 -0.03732653 0.03845273 0.074877724 -0.1293974 0.007694372 -0.07801877 0.05950199
-0.0021551088 0.028972654 0.039784625 0.16733344 0.08701589 0.09996611 -0.021956693 0.043110143
0.068499945 0.09318964 0.02130712 0.052826732 0.031995147 -0.18364754 -0.07505327 0.09597492
-0.10975784 0.011244733 0.06789187 -0.041222714 0.0064021503 -0.2635919 0.023692384 -0.017809203
-0.10392908 -0.18499887 -0.15358202 -0.072346434 0.051273745 0.006942313 -0.07132467 0.09159564
0.08226577 0.121312946 0.17040932 -0.14134263 -0.08744147 0.11478278 -0.07412192 0.07118867
0.033956263 -0.008417671 -0.0075514535 0.053695116 0.045916904 0.01794537 -0.055776194 -0.13530283
0.024322715 -0.16759048 0.046034485 -0.029699063 -0.12566967 -0.0045948494 -0.0036775894 -0.17556511
-0.057975203 -0.083946586 0.054243393 0.08377792 0.1568538 -0.085588396 0.02936082 -0.16473791
0.17661719 0.002171355 0.16808131 -0.050576545 -0.066051096 -0.11238788 0.08283664 -0.13902673
-0.03594128 -0.12033632 -0.06314157 -0.0695492 0.025897704 -0.080437034 0.1228184 -0.027360126
-0.12469335 -0.12536418 0.12974647 0.05847082 0.051417965 -0.10475855 0.08542452 -0.06154437
-0.04447387 -0.07907232 -0.108534686 -0.074783705 -0.039824653 0.03623587 0.09941173 -0.07996761
0.15965158 -0.19845933 -0.22166368 -0.16944234 0.117322624 0.08505843 0.117348194 -0.0976471
0.13618834 0.035437457 0.1014873 0.0023090777 0.017337583 -0.061325274 0.02119269 0.14563422
-0.07749181 -0.029063229 -0.189816 -0.08284893 0.006457774 -0.104011595 -0.13663712 0.05663578
-0.17471997 0.05549499 -0.23744018 0.13548355 -0.09630269 -0.1217994 0.07613581 -0.28315583
-0.18987851 -0.025396163 0.002351472 -0.13002557 -0.0365406 -0.043860313 -0.050664894 -0.12824072
0.024978358 0.07948943 0.056674395 -0.040567826 -0.019048452 -0.17453818 0.30751342 -0.09048297
-0.11615854 -0.06414715 -0.19559687 -0.05056179 -0.08736745 0.097997084 -0.028988266 -0.020380314
-0.018311072 0.1862385 0.18129918 -0.13941298 0.035253428 0.01981789 0.046570186 -0.071847685
00000000: 84ac 913d ba71 0e3d 15de 92bc 826e ea3c
00000010: c263 57bd 0233 b73d 0289 673e a4af 353e
00000020: b1e6 bbbd 52f7 94bb 60ef e0bd 2f41 50bd
00000030: b8a1 443c 9fa3 cd3d 21ae bb3d c548 c4bd
00000040: 8044 a93e c381 e6bd 25bd 7abd f45b 913d
00000050: c7ec bc3d 1885 1bbd b196 7e3d 03e1 e93d
00000060: 0db2 30be 7aec 883e cb9a 08be b0e3 9f3d
00000070: 5d99 343e 5f8c dcbd accb 423d 5304 58be
00000080: 7d21 15be d885 24be 41bf 773d 9329 b8bd
00000090: 0249 cabd d928 273c a569 ee3d 4f59 53bd
000000a0: a051 933d c762 aabd fa26 113c 8e82 bc3d
000000b0: ebe5 f5bd 175e 99bd 2fc4 3e3e eabd f93c
000000c0: 31da 50be cd95 e03d 586e 3dbe 9bdc 62bd
000000d0: 9db3 bcbc 342b b5bc bf20 9c3c 37b2 08bd
000000e0: d459 20bd 0e3f 57bd 8617 59be 9b33 2dbe
000000f0: 557d 763d e150 a9bd 6128 2d3e 12ef d1bd
00000100: 83cf 7739 b1b8 d73d fbe4 a1bd 108e 70bc
00000110: fe74 5bbe 448d 42bd 68b5 89bd d72d c83d
00000120: d292 98bd ed64 1abc 22e7 e1bd ab76 38bd
00000130: 184b 0b3d d620 363d 83cb 2f3e eb61 03be
00000140: cb52 8abe ebec 153e 528c eebc ded6 9fbb
00000150: 3837 35bd d526 de3d 49d0 31bd d4f5 153d
00000160: 8fbf 9cbd b4e3 18bd 9c80 1d3d 7e59 993d
00000170: c180 04be 1221 fc3b 4ec8 9fbd 5cb8 733d
00000180: ba3c 0dbb 0f58 ed3c 34f5 223d 7559 2b3e
00000190: 6335 b23d 08bb cc3d 86de b3bc 4394 303d
000001a0: b349 8c3d 36da be3d 458c ae3c d860 583d
000001b0: 580d 033d 1a0e 3cbe 87b5 99bd 808e c43d
000001c0: b8c8 e0bd d43b 383c e50a 8b3d 26d9 28bd
000001d0: 21c9 d13b 84f5 86be 8816 c23c 9be4 91bc
000001e0: c5d8 d4bd 5870 3dbe 9b44 1dbe 5e2a 94bd
000001f0: 6b04 523d 587c e33b ab12 92bd 7f96 bb3d
00000200: f57a a83d ec72 f83d c87f 2e3e 1fbc 10be
00000210: 8314 b3bd 3c13 eb3d 3ccd 97bd 5ecb 913d
00000220: b915 0b3d 45ea 09bc 2f72 f7bb 69ef 5b3d
00000230: 5d13 3c3d 2b02 933c 9475 64bd d38c 0abe
00000240: 6e40 c73c d79c 2bbe a88e 3c3d 734b f3bc
00000250: 8daf 00be 6490 96bb b603 71bb 57c7 33be
00000260: 6877 6dbd 30ec abbd 522e 5e3d c293 ab3d
00000270: 489e 203e f848 afbd 1a86 f03c 0eb1 28be
00000280: 23db 343e 4b4d 0e3b 821d 2c3e 5a29 4fbd
00000290: cc45 87bd 9e2b e6bd 42a6 a93d 065d 0ebe
000002a0: 2a37 13bd e372 f6bd 5e50 81bd d06f 8ebd
000002b0: 6c27 d43c 2cbc a4bd 3788 fb3d 5822 e0bc
000002c0: 3a5f ffbd 785f 00be 42dc 043e 197f 6f3d
000002d0: a59b 523d a78b d6bd 0df3 ae3d f315 7cbd
000002e0: 3c2a 36bd abf0 a1bd 6f47 debd 3328 99bd
000002f0: 2d1f 23bd 106c 143d 6198 cb3d 0fc6 a3bd
00000300: b47b 233e ec38 4bbe cefb 62be 4b82 2dbe
00000310: d846 f03d 1d33 ae3d 4054 f03d 34fb c7bd
00000320: f574 0b3e de26 113d 93d8 cf3d e553 173b
00000330: 8c07 8e3c 3630 7bbd 4b9c ad3c 2321 153e
00000340: 07b4 9ebd 0216 eebc 205f 42be b3ac a9bd
00000350: bc9b d33b 0804 d5bd 9aea 0bbe ebfa 673d
00000360: cbe9 32be b74e 633d 8523 73be 33bc 0a3e
00000370: 583a c5bd f771 f9bd 17ed 9b3d cdf9 90be
00000380: 836f 42be 9d0b d0bc 271b 1a3b 6c25 05be
00000390: 99ab 15bd dfa6 33bd fe85 4fbd 8951 03be
000003a0: 6a9f cc3c 5bcb a23d 6923 683d 732a 26bd
000003b0: 800b 9cbc 23ba 32be 6672 9d3e 234f b9bd
000003c0: 87e4 edbd 955f 83bd 8c4a 48be e119 4fbd
000003d0: b5ed b2bd b2b2 c83d cd78 edbc 9ef4 a6bc
000003e0: 1a01 96bc 4eb5 3e3e 7ea6 393e 47c2 0ebe
000003f0: e665 103d 2159 a23c 61c0 3e3d e124 93bd

network.2.conv.0.bias f4 [128]
-0.18698345 0.025229163 -0.134013 0.1253758 -0.13879287 -0.16133797 0.14710023 0.049468596
-0.031220952 0.03345667 0.029206302 0.09379513 0.042871155 0.17400971 -0.021379858 0.07707954
0.07452915 -0.020878192 -0.07739322 -0.2525243 -0.06482714 0.013322167 0.024975775 -0.07028877
-0.008304416 -0.1146079 0.036066614 -0.07806418 -0.041858435 -0.0024277272 0.15847744 -0.15323912
-0.04068664 -0.2076715 -0.047101673 0.018594928 -0.040422764 -0.19275579 0.04317751 -0.036637317
-0.07281911 0.0017292942 0.02582901 -0.09428501 -0.11137302 0.06952535 0.09720215 -0.08737692
-0.18190232 0.05335123 -0.008494624 0.058662068 -0.06644629 0.108272426 -0.005293172 0.10382733
0.035287336 0.00038701814 -0.14476514 -0.27202067 -0.26961508 0.0059768483 -0.08306658 0.17517596
0.058515105 0.16370863 -0.17001498 0.20681344 -0.023196897 0.014451339 -0.052805655 -0.09838347
0.19696386 0.027020503 0.08927378 0.03633091 -0.109182864 0.09653347 0.106848545 0.07955858
-0.006875724 -0.16041476 -0.017959133 0.17604566 -0.021961354 0.034687303 -0.09424531 0.09427998
0.047490608 0.10759598 -0.015253837 -0.22675115 -0.11379833 -0.09070801 0.027696481 -0.036385436
-0.02815436 -0.12590244 0.11346505 0.11748154 -0.10190311 -0.07577536 0.004278976 0.09998124
-0.0033633239 0.0653815 -0.09226 0.029095484 -0.21122664 -0.1439985 -0.19141504 0.040574744
2.2942855e-05 0.034198683 -0.0040425113 -0.1030434 -0.20053047 -0.12897101 -0.069127016 -0.013279665
0.02023695 -0.27610558 0.016188024 -0.18893054 -0.07068932 -0.19608554 0.04060753 -0.04568745
00000000: 9778 3fbe 64ad ce3c b43a 09be 8462 003e
00000010: b81f 0ebe c835 25be 71a1 163e 959f 4a3d
00000020: 15c3 ffbc dc09 093d 0e42 ef3c a917 c03d
00000030: aa99 2f3d 9a2f 323e d024 afbc e1db 9d3d
00000040: bda2 983d be08 abbc 5680 9ebd dd4a 81be
00000050: 17c4 84bd 3845 5a3c ff99 cc3c 8ff3 8fbd
00000060: 3f0f 08bc 8cb7 eabd 96ba 133d 1de0 9fbd
00000070: c073 2bbd 811a 1fbb e947 223e b7ea 1cbe
00000080: 09a7 26bd d6a7 54be afed 40bd 6454 983c
00000090: 5792 25bd c661 45be e7da 303d 0311 16bd
000000a0: 2f22 95bd 7ca9 e23a 5c97 d33c 8018 c1bd
000000b0: 8a17 e4bd 4f63 8e3d ec11 c73d acf2 b2bd
000000c0: 9a44 3abe d286 5a3d 092d 0bbc a347 703d
000000d0: fe14 88bd efbd dd3d 5872 adbb 6ca3 d43d
000000e0: 7489 103d b2e8 ca39 503d 14be 4b46 8bbe
000000f0: fd0a 8abe 70d9 c33b d01e aabd 5461 333e
00000100: 89ad 6f3d 3ca3 273e 6818 2ebe e7c6 533e
00000110: 6b07 bebc 4fc5 6c3c be4a 58bd 467d c9bd
00000120: e5b0 493e 1a5a dd3c 2cd5 b63d b8cf 143d
00000130: 449b dfbd 57b3 c53d 69d3 da3d 9cef a23d
00000140: c14d e1bb c443 24be 081f 93bc 5045 343e
00000150: 4ce8 b3bc 4614 0e3d af03 c1bd dd15 c13d
00000160: 8385 423d 485b dc3d 3beb 79bc 7431 68be
00000170: 190f e9bd 1fc5 b9bd bbe3 e23c e508 15bd
00000180: f9a3 e6bc 92ec 00be 5d60 e83d 299a f03d
00000190: 94b2 d0bd 1d30 9bbd a736 8c3b f7c2 cc3d
000001a0: 366b 5cbb bce6 853d d0f2 bcbd a759 ee3c
000001b0: cc4b 58be 5874 13be 4e02 44be b431 263d
000001c0: 6875 c037 eb13 0c3d 0b77 84bb 6b08 d3bd
000001d0: dc57 4dbe fa10 04be 7792 8dbd f492 59bc
000001e0: f6c7 a53c b65d 8dbe bf9c 843c 0277 41be
000001f0: 90c5 90bd a6ca 48be 1554 263d c322 3bbd

network.3.weight f4 [2, 128]
-0.04152449 0.036495354 -0.12947486 0.06158946 0.023299737 -0.16098714 0.20326188 -0.060118005
0.071181126 0.068460815 0.020772465 -0.061324958 0.095715046 -0.06679709 0.026430441 -0.013784415
-0.14263877 0.010531787 -0.12501219 0.15745832 0.0078453 0.0030693528 0.019422865 -0.11357827
0.19425672 -0.1387399 0.023877084 0.035868905 -0.012154242 0.10899212 0.025086667 0.08224887
0.12319447 -0.18854098 0.04625578 0.18132265 0.03571722 -0.2450243 -0.20848319 -0.12827049
0.14911689 0.071414046 0.0215532 -0.0043197083 0.09729467 -0.09375146 0.12145356 0.057725627
-0.16738139 -0.066417545 0.05418004 0.10385843 0.12602407 -0.058140527 -0.029685056 -0.1786179
0.043113336 -0.020159546 0.12015767 -0.043554638 -0.021299796 0.1383121 -0.034127977 -0.13451418
0.21852142 -0.04012088 0.1564726 -0.1943424 0.046781298 0.1355825 -0.13263653 0.010395962
0.06261753 -0.14678377 0.023796696 0.19648997 -0.09792724 -0.01824324 -0.03409101 0.043077927
-0.03617023 -0.030807815 0.046329647 -0.02354546 0.13350168 0.06499281 0.058039743 -0.17329146
-0.0037055972 0.11296191 0.052156553 0.058400765 -0.15706982 -0.12402848 -0.044906765 -0.009203842
-0.0064966413 0.026651675 -0.057545587 -0.0008436871 0.14234774 -0.029778581 0.23042805 0.006248604
0.12840964 0.20283191 -0.00492937 -0.07927437 -0.0037565432 -0.07673804 -0.056466974 0.09387021
0.08847235 0.16942833 0.19315134 -0.14685753 0.017738719 0.08090666 -0.05190977 0.095011614
0.12731959 -0.18773808 0.2600557 -0.07556414 0.15541416 -0.19452325 -0.016581932 0.010176537
-0.16704816 0.06516088 0.029520202 -0.13426559 0.05770444 -0.20124695 -0.058192294 -0.019127091
-0.013212928 0.044307485 0.07420983 -0.14392592 0.083610155 -0.023658613 0.0033913185 0.01095865
-0.012845495 0.07195425 -0.12188769 0.10825834 -0.1592562 0.089219965 0.0032508578 0.085254334
0.16707362 0.09117493 -0.11804251 -0.12458625 0.12482244 0.030861579 0.004252366 -0.07689625
-0.1110076 0.11949125 0.11403866 -0.09362762 0.06001649 0.0403266 0.038192883 -0.113634095
-0.15504682 0.030167677 -0.04328975 -0.008591017 -0.01218155 0.117945984 0.24049708 -0.0339598
-0.08259747 -0.09568637 0.051056817 0.041177846 0.10395092 0.16526416 -0.0040804627 0.13666224
0.06318106 0.020362465 0.10345429 -0.17950015 -0.03547347 -0.13217083 0.07038749 -0.27357674
-0.10045315 0.1070863 0.02910747 0.0062834513 0.08494205 -0.25653586 0.124970056 -0.017735887
0.0899354 -0.048333567 -0.07158798 -0.0874958 0.08864577 0.11461727 0.13931662 -0.10167669
0.24752839 -0.013381335 0.011863785 0.06526088 0.0034367414 -0.0747002 -0.13541642 0.02259739
-0.13760228 -0.1489379 0.06485561 0.027418485 0.0018557882 0.0979227 0.12024343 -0.028871214
0.078020185 0.17268172 0.07942786 -0.0630875 0.047189824 0.06134416 -0.037093606 0.04736081
0.045470055 -0.110399865 0.17884725 0.08115895 0.035937704 0.05956397 0.05717159 -0.03950543
-0.093505524 -0.19189721 0.035143115 -0.12965518 -0.009958663 0.09710907 0.12725626 0.058237668
0.08952435 0.11025175 -0.2476465 -0.13607903 -0.040759392 -0.14289856 -0.023023287 0.10883002
00000000: 9515 2abd 277c 153d 0f95 04be 3b45 7c3d
00000010: 17df be3c d0d9 24be e223 503e 4c3e 76bd
00000020: 69c7 913d 2f35 8c3d 042b aa3c e12f 7bbd
00000030: 4006 c43d eacc 88bd a784 d83c 07d8 61bc
00000040: e60f 12be 848d 2c3c 3203 00be c13c 213e
00000050: 9389 003c 3227 493b b31c 9f3c b99b e8bd
00000060: 3ceb 463e d511 0ebe e099 c33c 46eb 123d
00000070: 9622 47bc 4337 df3d 8e82 cd3c 1872 a83d
00000080: 624d fc3d e310 41be b376 3d3d a5ac 393e
00000090: 384c 123d a6e7 7abe 9e7c 55be 5759 03be
000000a0: 19b2 183e 8741 923d 5690 b03c 578c 8dbb
000000b0: 6e42 c73d c400 c0bd a5bc f83d b571 6c3d
000000c0: 0766 2bbe ec05 88bd e4eb 5d3d bbb3 d43d
000000d0: 740c 013e c324 6ebd 132e f3bc 9ce7 36be
000000e0: 9c97 303d a225 a5bc 3915 f63d 5966 32bd
000000f0: e97c aebc b0a1 0d3e c7c9 0bbd 16be 09be
00000100: 14c4 5f3e cb55 24bd 5a3a 203e b201 47be
00000110: bf9d 3f3d 24d6 0a3e dfd1 07be d353 2a3c
00000120: 9f3d 803d 7c4e 16be 4af1 c23c ab34 493e
00000130: 148e c8bd d972 95bc 04a3 0bbd 7b72 303d
00000140: 3c27 14bd ac60 fcbc 28c4 3d3d 69e2 c0bc
00000150: aab4 083e f31a 853d 15bb 6d3d 5173 31be
00000160: 9bd9 72bb 9358 e73d 1ca2 553d a435 6f3d
00000170: e9d6 20be a502 febd 28f0 37bd b6cb 16bc
00000180: c7e1 d4bb 9d54 da3c ecb4 6bbd e22a 5dba
00000190: 9bc3 113e 36f2 f3bc 55f5 6b3e 17c1 cc3b
000001a0: d17d 033e 2bb3 4f3e 8d86 a1bb 9a5a a2bd
000001b0: 5630 76bb d528 9dbd ea49 67bd 063f c03d
000001c0: fe30 b53d 9f7e 2d3e 77c9 453e d261 16be
000001d0: ca50 913c 64b2 a53d 579f 54bd 7395 c23d
000001e0: 1160 023e 693e 40be 0526 853e 5fc1 9abd
000001f0: e424 1f3e 1a31 47be d5d6 87bc 7dbb 263c
00000200: ac0e 2bbe 1173 853d 5ad4 f13c eb7c 09be
00000210: 7e5b 6c3d ae13 4ebe 0b5b 6ebd 6bb0 9cbc
00000220: 097b 58bc c47b 353d 53fb 973d 5161 13be
00000230: cd3b ab3d b5cf c1bc e240 5e3b e98b 333c
00000240: e975 52bc c05c 933d 41a0 f9bd 8cb6 dd3d
00000250: 0f14 23be f5b8 b63d 580c 553b d399 ae3d
00000260: 5915 2b3e ecb9 ba3d 45c0 f1bd 1327 ffbd
00000270: e8a2 ff3d 6cd1 fc3c 6e57 8b3b c87b 9dbd
00000280: f457 e3bd d4b7 f43d 1a8d e93d d6bf bfbd
00000290: dad3 753d 812d 253d 2470 1c3d feb8 e8bd
000002a0: 98c4 1ebe 3422 f73c 9850 31bd 56c1 0cbc
000002b0: 2095 47bc aa8d f13d de44 763e 6e19 0bbd
000002c0: dd28 a9bd 37f7 c3bd f420 513d 1aaa 283d
000002d0: 38e4 d43d 023b 293e 67b5 85bb 30f1 0b3e
000002e0: 1265 813d 2fcf a63c d8df d33d e3ce 37be
000002f0: a14c 11bd ca57 07be 5127 903d 4012 8cbe
00000300: 62ba cdbd 1050 db3d ca72 ee3c 69e5 cd3b
00000310: 19f6 ad3d ab58 83be 4df0 ff3d da4a 91bc
00000320: 0d30 b83d 6bf9 45bd b89c 92bd ff30 b3bd
00000330: ea8b b53d 76bc ea3d 04a9 0e3e de3b d0bd
00000340: 1578 7d3e 633d 5bbc 5260 423c 7fa7 853d
00000350: f43a 613b 6bfc 98bd 9aaa 0abe 291e b93c
00000360: 9de7 0cbe 2d83 18be 05d3 843d bb9c e03c
00000370: eb3d f33a b28b c83d 3042 f63d 5383 ecbc
00000380: 0cc9 9f3d 7ad3 303e 13ab a23d 0534 81bd
00000390: 1e4a 413d 0444 7b3d 77ef 17bd 69fd 413d
000003a0: cf3e 3a3d 5319 e2bd bc23 373e aa36 a63d
000003b0: 6a33 133d 59f9 733d c22c 6a3d 72d0 21bd
000003c0: d37f bfbd b480 44be 3af2 0f3d 54c4 04be
000003d0: a929 23bc 1fe1 c63d 774f 023e 9f8a 6e3d
000003e0: 8b58 b73d abcb e13d 0b97 7dbe 4d58 0bbe
000003f0: 52f3 26bd 0054 12be 559b bcbc 46e2 de3d

network.3.bias f4 [2]
-0.05970446 0.20908196
00000000: aa8c 74bd 9519 563e

encoder.0.conv.0.weight f4 [80, 150]
0.07569734 -0.15919994 0.114197016 0.043303724 -0.023474613 0.027222525 0.031803735 0.040395077
-0.15259413 -0.04334229 -0.023602726 0.029453086 -0.022275204 0.10309019 0.086463444 -0.03290153
-0.06535668 0.073556855 0.051668324 0.013920353 -0.13360631 0.047665764 -0.14498822 0.16665189
0.0050972556 -0.09273123 -0.04128104 -0.009666557 0.06711388 0.019902043 -0.105523996 -0.01893895
0.053527303 -0.009836547 -0.10299444 -0.039781224 0.07762464 -0.054054406 -0.11515911 -0.014799049
0.015795395 -0.06565566 0.041495208 0.04741338 -0.06967387 -0.0120302765 0.037824813 -0.06640615
-0.060254294 0.016002972 -0.03744443 -0.04509354 -0.14712656 0.050344057 -0.06171162 0.09389066
-0.11584654 0.093532614 -0.080220476 -0.11878015 -0.13626824 0.045426287 -0.046873 0.16546021
0.037807833 0.032138467 0.05830402 -0.08613105 -0.09829503 0.07552639 -0.028960072 -0.25450575
-0.08218582 -0.22956948 0.059497435 0.039914157 -0.02995474 -0.03343794 0.11712692 -0.010776705
-0.17232144 -0.12552744 0.06422457 0.10528964 0.08748349 0.045543212 0.19340707 -0.073417604
0.14922144 -0.0809136 0.002120758 -0.01416054 -0.0588136 0.11763685 -0.011190268 -0.21198098
-0.090760075 -0.09020187 0.008687204 -0.21081583 0.073234804 0.014338125 0.13388042 -0.1413305
0.012120468 -0.04738403 0.1777211 0.011876026 -0.055355806 -0.111537874 0.055283625 0.23296009
-0.014557487 -0.09306999 -0.039293338 0.060619343 -0.061864395 -0.004746518 0.06899617 -0.08609165
0.102143146 -0.18533245 0.24102475 -0.14611526 0.24885847 -0.22514616 -0.07555801 0.18392937
-0.1142558 -0.15620612 -0.09594495 -0.020608464 0.055239987 -0.03814916 -0.08908331 0.06713182
0.041251674 -0.026352057 -0.16521558 0.06825614 -0.012141658 -0.16752365 0.1286333 -0.107685685
0.041560348 -0.043799274 -0.1632497 0.107590996 0.028420653 0.028803036 -0.05052617 -0.08748564
0.06298635 0.19085392 -0.100303665 0.06813139 -0.20211348 -0.06810647 0.030144686 0.059016977
0.17352909 -0.18754064 -0.0877802 0.064597346 -0.042459123 0.020248704 -0.13540284 0.045530453
0.06575057 0.023001779 0.1299375 0.13617495 -0.07831695 -0.12528387 0.00076746877 0.018877463
0.05138232 0.07992007 0.16155037 0.14833699 -0.06744219 -0.0019475777 0.052396357 -0.031322703
-0.12468069 0.083250545 -0.18919423 -0.13668296 0.045688093 -0.083302215 -0.21358587 -0.038181216
-0.034349363 0.03607159 0.09680196 -0.07869481 -0.027573703 0.049206294 -0.0054868143 0.01891364
0.014871725 -0.0670053 -0.046715025 -0.03180909 -0.18944615 0.09552102 -0.021450661 0.13723576
0.17567678 0.051778518 -0.19851506 -0.030255495 -0.04993638 -0.030469159 -0.10015985 0.10328258
0.09196843 0.08014586 -0.10354361 0.084219895 -0.013856371 -0.07829354 0.03629857 0.0013735556
0.077667415 0.016863784 -0.09404998 -0.05660855 -0.03625936 -0.112454504 -0.08105644 -0.1518917
0.050068907 -0.03905687 -0.09054138 0.0025845624 0.008156244 0.1295649 0.17413305 0.17682317
0.2676738 0.08650664 -0.06774401 0.13045995 0.099403106 0.136414 -0.08539748 -0.039105497
0.046593215 0.046469286 0.03878966 -0.18090834 -0.058007535 -0.18524362 0.19026956 -0.13270748
00000000: 3507 9b3d 4f05 23be 20e0 e93d 3f5f 313d
00000010: d54d c0bc c601 df3c a244 023d 4f75 253d
00000020: a341 1cbe af87 31bd 815a c1bc 9947 f13c
00000030: 7d7a b6bc f320 d33d bf13 b13d c1c3 06bd
00000040: b9d9 85bd faa4 963d 2aa2 533d 3112 643c
00000050: 18d0 08be 2d3d 433d cb77 14be cba6 2a3e
00000060: e106 a73b dfe9 bdbd 4f16 29bd 7b60 1ebc
00000070: 0073 893d 9c09 a33c f71c d8bd db25 9bbc
00000080: 723f 5b3d 7829 21bc c0ee d2bd a3f1 22bd
00000090: abf9 9e3d 2768 5dbd 8ad8 ebbd b677 72bc
000000a0: 5865 813c 7a76 86bd e1f6 293d 8834 423d
000000b0: 2db1 8ebd a31a 45bc 31ee 1a3d f3ff 87bd
000000c0: 35cd 76bd aa18 833c 555f 19bd 01b4 38bd
000000d0: 58a8 16be 9235 4e3d 53c5 7cbd bf49 c03d
000000e0: f340 edbd 078e bf3d a24a a4bd 0243 f3bd
000000f0: e789 0bbe ea10 3a3d e7fd 3fbd 676e 293e
00000100: 63dc 1a3d a0a3 033d 32d0 6e3d 7a65 b0bd
00000110: e84e c9bd 94ad 9a3d ac3d edbc 944e 82be
00000120: 0a51 a8bd 4314 6bbe 95b3 733d 077d 233d
00000130: a563 f5bc 39f6 08bd 3de0 ef3d c790 30bc
00000140: 0875 30be 448a 00be 2c88 833d 18a2 d73d
00000150: 8b2a b33d 858b 3a3d 810c 463e f85b 96bd
00000160: 81cd 183e 08b6 a5bd 6afc 0a3b 9c01 68bc
00000170: 88e6 70bd 97eb f03d 6357 37bc 8b11 59be
00000180: 6be0 b9bd c2bb b8bd c654 0e3c 1be0 57be
00000190: 21fc 953d 74ea 6a3c f317 093e f1b8 10be
000001a0: ed94 463c c215 42bd 85fc 353e aa93 423c
000001b0: c5bc 62bd f86d e4bd 1571 623d 178d 6e3e
000001c0: 8782 6ebc 7b9b bebd 0df2 20bd fd4b 783d
000001d0: 8565 7dbd ae88 9bbb dd4d 8d3d d250 b0bd
000001e0: 6d30 d13d cac7 3dbe 31cf 763e 3d9f 15be
000001f0: c1d4 7e3e b78c 66be 28be 9abd fb57 3c3e
00000200: f2fe e9bd 7ff4 1fbe c97e c4bd 15d3 a8bc
00000210: 5343 623d 4b42 1cbd 4f71 b6bd 687c 893d
00000220: 84f7 283d 45e0 d7bc 462e 29be e0c9 8b3d
00000230: ceed 46bc 528b 2bbe 73b8 033e 508a dcbd
00000240: 2f3b 2a3d de66 33bd ee2a 27be ab58 dc3d
00000250: 6ed2 e83c 58f4 eb3c 87f4 4ebd ac2b b3bd
00000260: fdfe 803d 366f 433e 026c cdbd 7888 8b3d
00000270: d6f6 4ebe 687b 8bbd fdf1 f63c c9bb 713d
00000280: 9cb1 313e a70a 40be 1bc6 b3bd 9d4b 843d
00000290: 9ee9 2dbd 9ce0 a53c 0ba7 0abe 247e 3a3d
000002a0: 3ca8 863d 3a6e bc3c 560e 053e 7271 0b3e
000002b0: a364 a0bd 6a4a 00be f52f 493a e9a4 9a3c
000002c0: 4476 523d 22ad a33d 766d 253e a7e5 173e
000002d0: 221f 8abd dd45 ffba 909d 563d 3c4c 00bd
000002e0: 9758 ffbd 437f aa3d 22bc 41be 9ef6 0bbe
000002f0: 7023 3b3d 5a9a aabd 41b6 5abe e863 1cbd
00000300: ebb1 0cbd cebf 133d 1b40 c63d bf2a a1bd
00000310: 3fe2 e1bc 8a8c 493d bcca b3bb c7f0 9a3c
00000320: 89a8 733c 133a 89bd 4158 3fbd 404a 02bd
00000330: 2cfe 41be 86a0 c33d 4cb9 afbc 8887 0c3e
00000340: 9de4 333e b615 543d 8847 4bbe 5fda f7bc
00000350: 178a 4cbd 759a f9bc 9c20 cdbd d185 d33d
00000360: f259 bc3d 8323 a43d ac0e d4bd 7b7b ac3d
00000370: d505 63bc 5d58 a0bd cfad 143d e108 b43a
00000380: 1810 9f3d eb25 8a3c 479d c0bd 5ede 67bd
00000390: b284 14bd 8c4e e6bd eb00 a6bd 7f89 1bbe
000003a0: 0e15 4d3d 19fa 1fbd c26d b9bd c361 293b
000003b0: c4a1 053c a9ac 043e ef4f 323e 2211 353e
000003c0: 8a0c 893e 652a b13d 5fbd 8abd 4b97 053e
000003d0: db93 cb3d 1db0 0b3e e0e4 aebd 162d 20bd
000003e0: 87d8 3e3d 9456 3e3d e8e1 1e3d 0940 39be
000003f0: 4f99 6dbd 81b0 3dbe 06d6 423e 78e4 07be

encoder.0.conv.0.bias f4 [80]
0.008537128 0.044815876 0.09312388 -0.12103529 0.07265773 0.018857306 -0.00917805 0.19120999
-0.13707684 0.021461893 -0.0005222416 0.03346197 -0.1344267 -0.1329267 0.033569433 -0.22318618
0.04341501 -0.0017446952 -0.20139007 0.031093648 -0.048795257 0.12005456 0.19506039 -0.118064806
0.17401147 0.078171514 0.031384286 0.019630441 -0.061867084 -0.14075305 0.016101984 -0.02546888
-0.080694236 0.024390846 0.12052398 -0.060432 -0.1341273 -0.21978796 0.086658515 0.091399625
0.00651634 -0.05064842 -0.07543033 0.19374652 0.056199316 -0.052900493 0.05892024 -0.11666284
0.096622676 0.16818628 0.0723853 0.1519888 -0.118944965 0.046990108 0.0059564104 0.07305555
-0.07036217 0.21182951 -0.021651711 0.20025422 0.16848288 0.009758646 -0.043145854 0.009652481
-0.056701224 0.20349672 0.038317095 0.08808091 0.04209669 -0.15963274 -0.12170319 -0.10719059
0.07062448 0.15702033 -0.09533554 0.10269425 0.08524565 -0.08301516 0.06101143 0.03407121
00000000: 4fdf 0b3c da90 373d bcb7 be3d 5ae1 f7bd
00000010: 93cd 943d a37a 9a3c 885f 16bc 8dcc 433e
00000020: df5d 0cbe dad0 af3c 0ae7 08ba 6b0f 093d
00000030: 27a7 09be f01d 08be 1a80 093d eb8a 64be
00000040: f0d3 313d 42ae e4ba 3339 4ebe 1bb8 fe3c
00000050: 89dd 47bd 2adf f53d e9bd 473e f6cb f1bd
00000060: 1030 323e 6318 a03d cf8c 003d 05d0 a03c
00000070: 5768 7dbd 9121 10be 4fe8 833c 1da4 d0bc
00000080: 0543 a5bd 50cf c73c 47d5 f63d 8b87 77bd
00000090: ab58 09be 1810 61be 057a b13d ba2f bb3d
000000a0: 0687 d53b b874 4fbd 387b 9abd 7d65 463e
000000b0: 4131 663d 30ae 58bd 5956 713d edec eebd
000000c0: 1ce2 c53d 0639 2c3e bf3e 943d f4a2 1b3e
000000d0: 6b99 f3bd b378 403d fe2d c33b 269e 953d
000000e0: 0b1a 90bd d6e9 583e ee5e b1bc 710f 4d3e
000000f0: c786 2c3e bae2 1f3c b5b9 30bd 7125 1e3c
00000100: 8b3f 68bd 7261 503e 63f2 1c3d c463 b43d
00000110: 946d 2c3d c476 23be 863f f9bd bd86 dbbd
00000120: 91a3 903d f0c9 203e 483f c3bd 5d51 d23d
00000130: 4595 ae3d da03 aabd 1fe7 793d 418e 0b3d
