exomy/config/best_run_no_obstacles405k/checkpoints/114000_policy.pt (torch, 723582 bytes, 13 tensors)

log_std_parameter f4 [2]
000000 82 18 5c bf e8 a4 16 bf
       -0.85974896 -0.58845377

network.0.conv.0.weight f4 [512, 5]
000000 b3 cd 8f 3e e7 a3 2e be 94 d7 40 bb ba 5e 88 bd
       0.28086624 -0.17054711 -0.002942537 -0.06658693
000010 2b 01 2a 3e 1d 08 07 3e 24 1d db 3d c5 31 18 3e
       0.16602008 0.13186689 0.106989175 0.14862736
000020 3d 9a 58 bd 47 4d 3c bc 63 02 fc bc c6 2f 7d bb
       -0.052881468 -0.011493034 -0.030762857 -0.0038633212
000030 80 50 04 ba ac 20 82 be 6b d7 6b 3d 71 58 99 3c
       -0.0005047396 -0.25415552 0.057578485 0.01871893
000040 b2 eb ae bd bd c3 86 3e b6 ea 09 3d 26 2d 2e 3e
       -0.08541049 0.2632121 0.033671103 0.1700941
000050 71 a5 55 3d 66 b2 4a bc cd dc a8 3d 47 60 45 3e
       0.05215973 -0.012371635 0.082452394 0.19275008
000060 a9 d5 00 3e fa 20 24 3e 2d d1 a8 3e 5b c3 8b 3a
       0.12581505 0.16028205 0.32972088 0.0010663079
000070 9a 64 48 be b5 db e3 bc 4f 1b 92 be 1a 44 dd bb
       -0.19569626 -0.027814725 -0.2853646 -0.006752503
000080 8d 86 43 3d fe 20 c1 bc c7 c3 78 bd 56 36 d2 3b
       0.04773574 -0.023575302 -0.060733583 0.0064151688
000090 40 24 09 bd 2a 53 46 3d cd be c2 3d 60 cc 96 bd
       -0.033481836 0.048419155 0.095090486 -0.073632
0000a0 27 97 ab 3d 04 de 89 be 6c e9 1f bd bf 67 11 bc
       0.083784394 -0.26927197 -0.039040968 -0.008874833
0000b0 3c 90 a7 bc 99 a5 08 be e1 8d 9b bd 28 d3 78 be
       -0.020454518 -0.1334442 -0.07595421 -0.242993
0000c0 d1 c5 84 3d 5b c2 40 be 5f 73 32 bd 07 e8 b7 3e
       0.06483043 -0.1882414 -0.043567058 0.3591921
0000d0 8f 61 84 3d 17 4a 24 3e b9 9a 41 3b e7 5c ad bd
       0.0646392 0.16043888 0.0029541685 -0.08464985
0000e0 0a 68 1f 3e 99 d7 72 bd 9e cd 09 3e 3e 35 90 bd
       0.15567032 -0.05928764 0.13457343 -0.07041405
0000f0 83 55 6e 3e 3e d7 46 bd e6 06 b1 3d a7 0e e3 3c
       0.23274808 -0.048545115 0.08643894 0.027716948
000100 27 97 02 3e 90 72 4c 3e d2 72 61 be 22 5a 99 3c
       0.12752973 0.19965577 -0.22016457 0.018719736
000110 b0 a6 5e 3e 5f 97 03 3c 93 6b ec bd ce 5c 3d 3d
       0.21743274 0.008031695 -0.11543956 0.046231084
000120 d1 c2 cc 3d 1e a6 b2 3d 23 fd 1b 3e 77 1f 30 be
       0.09998096 0.087230906 0.15233283 -0.17199503
000130 f4 1a 8c 3e 54 f2 0e 3d 7f 86 16 3e 4e e2 07 bd
       0.27364314 0.03489907 0.14699744 -0.033174805
000140 87 d0 21 3e f7 9e ff 3e 14 a4 bf 3c 8e 07 27 be
       0.15802203 0.49925968 0.023393668 -0.16311476
000150 7b 76 17 3e 64 29 00 be 73 d2 53 3d 47 f6 be 3d
       0.1479129 -0.1251579 0.051714372 0.093243174
000160 a7 95 ff bd 03 47 46 3d 63 6e 0e 3e c0 95 24 3e
       -0.12479716 0.048407566 0.13909297 0.1607275
000170 78 1e d4 bd 32 69 f0 bc f3 a9 13 3d ba 95 b0 be
       -0.10357374 -0.029347036 0.036050748 -0.34489232
000180 df 95 8d be 6a 46 2a bc 3b b1 b5 3d 39 64 19 bd
       -0.27653405 -0.010392765 0.08871695 -0.037449095
000190 d9 2a 0a be f0 76 6f 3c 0a 48 1a be 28 72 14 bc
       -0.13492908 0.014615759 -0.15066543 -0.00906042
0001a0 e5 cf 9f 3d 22 ca 99 be 31 09 0f 3e ea b1 9d bd
       0.078033246 -0.30037028 0.1396835 -0.0769995
0001b0 d5 80 87 be d7 fa 64 3e ba 5b 27 bd 71 0a ad bd
       -0.2646548 0.22361313 -0.04085896 -0.08449257
0001c0 de c3 22 3d ef ab 40 3d f6 d9 10 bc f2 5f 26 be
       0.039737575 0.04703897 -0.008841028 -0.16247538
0001d0 5c af 7b 3e f5 96 85 3b fb ce 14 bc 8c 9d 2c bd
       0.24578613 0.0040768334 -0.009082551 -0.042142436
0001e0 f2 85 a1 3e a9 5d 40 3d aa ea d5 3d 8f ee ea bc
       0.31547505 0.04696432 0.10445149 -0.028678207
0001f0 db 35 eb bd b6 0d dd bd 3a b4 8b be 52 c1 1d bd
       -0.114848815 -0.10793631 -0.2728594 -0.038514443
000200 fe 1d 00 3e 4d 96 89 bd 00 88 84 be 90 06 23 3d
       0.12511441 -0.06718121 -0.2588501 0.03980118
000210 33 71 21 3e da 56 20 bd 37 bb 87 bc c9 69 c3 be
       0.15765838 -0.039145328 -0.016568763 -0.38166645
000220 8a ac 94 3e 13 b4 9f bd a7 d6 db bd 6f 47 90 bd
       0.29037887 -0.07798018 -0.10734301 -0.07044875
000230 a2 20 1e 3e 04 33 c3 3d 90 90 92 bc e1 38 1f 3e
       0.15442136 0.09531215 -0.017891198 0.15549041
000240 73 0d 74 bc 0f 1f 48 3b b6 02 8b 3e 16 d4 99 3d
       -0.014895785 0.003053609 0.27150506 0.07511155
000250 11 c8 82 3d e2 e6 1a bd bb 42 02 be 3a 59 ff 3d
       0.06385816 -0.037817843 -0.12720768 0.124681905
000260 0e 11 6f 3d 92 48 21 be 63 ce 51 be db c1 4e be
       0.058365874 -0.1575034 -0.20488887 -0.20191137
000270 fd 90 49 be ae 78 14 3e 97 a0 55 3d 00 85 06 be
       -0.19684215 0.1449916 0.052155104 -0.13136673
000280 23 fb 56 be 45 46 2e be 36 2e 40 3c 71 cd 26 be
       -0.20994239 -0.17018993 0.011729768 -0.16289307
000290 36 f2 c6 3d 81 2c 37 be d5 a0 f7 bb 40 e2 bd bc
       0.09714167 -0.1788807 -0.0075570145 -0.023179173
0002a0 1e 03 84 3c c3 c8 ba bd 1b 09 3d bc c4 63 b0 3e
       0.016114768 -0.091203235 -0.011537815 0.34451115
0002b0 59 6f d2 3c 4a 62 71 bd 7b 31 f6 bc 86 9b 86 3e
       0.02568786 -0.058931626 -0.030052891 0.2629053
0002c0 d3 c1 a3 3d 9a e4 41 3d 3e 2f 8d bd a7 cc 8e bd
       0.079959534 0.047337152 -0.06893776 -0.06972628
0002d0 a7 9b 90 be 6a aa af 3e 3a f2 a1 bd ce 1f 1d be
       -0.28243753 0.34309703 -0.07907529 -0.15344164
0002e0 63 2a 61 3e d6 c8 8c 3e ab 92 81 3c ba c9 89 bd
       0.21988826 0.27496976 0.015817007 -0.067279294
0002f0 d7 34 37 3d 86 7f 84 3c cc 3f d1 bd f1 5e 04 be
       0.044728126 0.01617409 -0.102172464 -0.12926842
000300 61 e1 a5 3d 57 ae 20 bd 7f 27 fe 3c 39 6c 1d bd
       0.08099628 -0.039228763 0.031024693 -0.038433287
000310 08 1d 06 bf 6e 99 83 bd 97 f2 ea bb 23 aa 03 3e
       -0.5238805 -0.06425749 -0.0071700322 0.12857871
000320 23 ae 60 3d c3 fe 57 3e 88 7f 1b 3d 1d 93 ff 3d
       0.05485357 0.21093278 0.03796342 0.124792315
000330 59 a1 b4 3c a3 b8 07 be 17 eb 84 be 45 c9 d7 bb
       0.022049593 -0.13254027 -0.2596061 -0.0065852725
000340 20 6a b8 bd 3e 77 9c bd 74 6c b4 bd 3c 91 39 be
       -0.09004617 -0.07639931 -0.08809748 -0.18121809
000350 ae e7 39 bd 34 04 97 bc b0 dc 52 be ce f5 76 3e
       -0.045386963 -0.018434621 -0.20591998 0.24117205
000360 a1 30 ce 3e 12 f3 80 3b 98 2f c5 bd 68 54 e1 3d
       0.40271476 0.0039352262 -0.096282184 0.11002427
000370 f8 1c 82 be ba a2 3f bd ac e3 06 3e af 45 9d 3d
       -0.25412726 -0.046786048 0.13172787 0.07679307
000380 10 9b 38 be 4a 89 eb 3d 58 32 60 3d 41 2d fa 3c
       -0.18027902 0.11500795 0.05473551 0.030539157
000390 01 43 5f bd be 71 a3 3d d0 d2 95 3e d3 f4 01 be
       -0.05450726 0.07980679 0.292624 -0.1269105
0003a0 95 eb 81 bd 1b 27 82 bd bd 74 fa bd f7 56 56 3e
       -0.06343762 -0.06355115 -0.12229297 0.20931612
0003b0 e3 a1 5a bd 20 b2 28 bd 17 a7 a1 bd 29 5d 99 3d
       -0.053377043 -0.0411855 -0.07893198 0.07488472
0003c0 71 a0 a0 bd 2c 33 f5 3d c1 68 08 3d fb 11 11 be
       -0.07843102 0.11972651 0.033303026 -0.14167015
0003d0 2b 44 84 bd 1d d8 6a be 8a 82 a5 be 06 b5 9b 3c
       -0.064583145 -0.22934003 -0.32326156 0.019007217
0003e0 c9 31 32 bd e3 c5 3a bd 2d 8b 1e 3e a7 79 a6 3e
       -0.04350451 -0.045598876 0.15482779 0.32514688
0003f0 c1 43 08 3e 0a 74 38 be 97 83 63 be a9 8e 31 3e
       0.13307096 -0.18013015 -0.22218166 0.17339577

network.0.conv.0.bias f4 [512]
000000 cd 9f da 3d fe 0c 2a be 4e b5 7e bd 68 8b 7e 3c
       0.10675011 -0.16606519 -0.062184624 0.015536167
000010 e0 5b 9f be 66 f9 8d 3b 9c 33 1b be cf c3 4b be
       -0.31124783 0.004332709 -0.15156406 -0.19898914
000020 d6 39 07 3e fa 7d 9d 3b 05 cf 78 bd a1 e9 07 3a
       0.13205656 0.0048062773 -0.060744304 0.0005184655
000030 83 c4 b2 bd 26 85 b9 3c 60 f1 bb bc da 27 b6 3d
       -0.08728888 0.022646498 -0.022942245 0.0889432
000040 63 cb 78 bb 73 4e e9 bd 1d 2c 2f 3b 39 d0 78 3d
       -0.0037963025 -0.11391916 0.0026729174 0.06074545
000050 36 49 3a 3e bb 91 72 3d 36 96 21 be ce f4 5d 3d
       0.1819199 0.05922101 -0.15779957 0.054188542
000060 b4 eb 2d 3e d4 93 b7 3d 5e ab 3d 3d f5 49 37 3d
       0.16984445 0.08963743 0.046306007 0.044748265
000070 8b 40 20 be 0d b2 b9 bd 85 1e ae 3c a6 21 ca bd
       -0.15649621 -0.090671636 0.021254787 -0.09869699
000080 d0 7d 18 3e ab 78 19 3d 9d c7 5e 3d 8f 9c 38 3c
       0.14891744 0.037468594 0.054389585 0.011267795
000090 e9 50 1c bc 1e 2a e9 bb ea a3 57 bb aa b9 05 3d
       -0.009540775 -0.0071156165 -0.0032904097 0.032647766
0000a0 f6 3b df 3d 88 c7 13 3e b1 0f 95 bd 03 c6 c5 3c
       0.109001085 0.14431584 -0.072783835 0.02414227
0000b0 e8 14 33 be f2 9d 2d 3e b5 fe c9 3c d0 29 36 bd
       -0.17488444 0.16954783 0.024657587 -0.04447347
0000c0 cc 76 a1 3d 38 5e b0 3d 97 62 23 bd da 01 9a 3c
       0.07883987 0.08611721 -0.039888944 0.018799711
0000d0 94 9f 72 3d 7a bb 13 3e d4 c3 a0 3d a8 34 1b 3e
       0.059234217 0.14426985 0.07849851 0.15156806
0000e0 89 3f 7e 3c 17 a5 83 3c f8 4d 72 3c 1b ca 2f be
       0.015518078 0.016069932 0.014789097 -0.17166941
0000f0 6f 27 a0 3d a1 cf 82 3c 8f ef 56 3e 83 4d f2 3d
       0.07820021 0.015968146 0.20989822 0.118311904
000100 87 84 7d 3e 88 6e f8 ba dc c4 ad 3d 8b a3 85 3d
       0.24757586 -0.0018953839 0.084848136 0.06525334
000110 53 a3 42 bd f8 67 e3 3d 11 f5 8c 3c 8f 40 45 3c
       -0.04751904 0.11103815 0.0172067 0.012039318
000120 e2 b9 86 bd 6e a4 e6 bc 7c 2a 9c bd d0 46 0d 3c
       -0.06578423 -0.028154578 -0.07625291 0.00862284
000130 83 8e 22 be 2b e2 b4 bc eb 5c 46 bd 2e 1d 5f be
       -0.15874676 -0.022080502 -0.048428457 -0.21788475
000140 b2 13 1a 3e 99 ff 97 3d 9b 1e 64 bd c2 f0 50 3e
       0.15046576 0.07421798 -0.05569325 0.20404342
000150 30 01 2c 3e 9e 6c da 3c 4b ac b1 3d 0a 3a 11 bd
       0.16797328 0.02666312 0.086754404 -0.03545574
000160 e6 db cb bc cc ef 1a be 29 d3 de 3c 47 a3 e5 bd
       -0.02488513 -0.15130538 0.027200298 -0.11212783
000170 2c d0 3d 3d 01 e3 69 be 70 b6 4a bc 47 77 f1 3d
       0.046341106 -0.22840501 -0.012372598 0.117903285
000180 49 20 36 3e 0f 22 00 3e fe 38 2c bd 37 a6 2d 3b
       0.17785753 0.12512992 -0.04204654 0.0026496777
000190 85 c5 df 3d 0c 14 ac 3d 98 0b 18 3e 34 96 22 be
       0.10926346 0.08402261 0.14848173 -0.1587761
0001a0 0c 0b 11 3d be 94 12 3d 07 cb 91 bd 88 d0 a4 3a
       0.035410926 0.035786383 -0.071188025 0.0012574354
0001b0 a4 46 83 bd 41 10 a0 bd ef 4a c2 3c 95 20 15 3c
       -0.06409958 -0.078156 0.023717372 0.009102006
0001c0 6f 07 84 bd 76 b8 e1 3d 6e e7 8b 3d 84 91 f4 bd
       -0.0644673 0.11021511 0.06831251 -0.119418174
0001d0 e3 5e d1 3d 23 a7 04 bd 20 0e d4 3c b4 9d 30 3d
       0.10223176 -0.032385956 0.025885642 0.043119147
0001e0 b4 58 b8 bd 5f c5 8a 3c 38 a0 99 3d 87 bb b5 bc
       -0.09001294 0.016939817 0.075012624 -0.022184147
0001f0 ac 27 f7 bd 42 df 0a be 9a e9 11 be 0d 5b c7 3d
       -0.12068114 -0.13561729 -0.14249268 0.097341634
000200 4b 2c 86 bd bc 75 e2 3d 5d 6a 08 3d c8 03 c1 bd
       -0.06551417 0.11057612 0.03330456 -0.09424549
000210 e0 97 b9 bc 1e 47 ac 3c 90 bd 82 3d e2 ae b2 3c
       -0.022655427 0.021030005 0.063838124 0.021811906
000220 e9 04 fd ba 9f f4 59 3c 13 44 25 3d 6c a8 d9 bb
       -0.0019303832 0.013302951 0.040348124 -0.006642392
000230 3b 40 29 be 09 1a 2e be 6a 8f a6 3d ff 27 95 bd
       -0.16528408 -0.17002119 0.08132823 -0.07283019
000240 25 db b8 3c fa 7b 1d 3d bd 28 63 bd 4e 5e ea bd
       0.022565434 0.03844831 -0.055458773 -0.114437684
000250 fa cf 64 3d 23 fd 14 bb 2b 58 bf 3c a3 06 33 bc
       0.055862404 -0.002273389 0.023357471 -0.010926875
000260 fb 1b 4e be be 31 2e bd a6 e1 e3 bd 6c e0 04 3e
       -0.20127861 -0.042527907 -0.111270234 0.12976235
000270 3a e9 9c 3c 07 46 98 3d 73 51 91 bd 78 25 b6 bd
       0.01915418 0.07435232 -0.07095613 -0.08893865
000280 81 0d 5e bd 12 67 1e 3d 26 b1 b1 bd 6d 06 59 3e
       -0.054212097 0.038672514 -0.086763665 0.21193857
000290 7b 8f 18 bd 04 ca 27 3d eb 9f 91 3d 77 5c 63 3e
       -0.03724621 0.04096414 0.0711058 0.22203241
0002a0 02 ad 98 bb a7 c6 70 be 9e 09 84 bd 1e 1d 0c be
       -0.004659296 -0.2351328 -0.06447147 -0.13682982
0002b0 6c 82 6c 3e 09 c3 3f be 83 24 c1 bd 08 01 90 bd
       0.23096627 -0.18726744 -0.09430792 -0.07031447
0002c0 a5 ca 9e bc f9 3a 86 3b ab 9a 52 3b fd ef 80 bc
       -0.019383738 0.0040963856 0.0032135646 -0.015739435
0002d0 d2 59 d5 bc fd 0d d3 3d 2c 84 96 bd 82 9f 4a be
       -0.026043806 0.103054024 -0.073494285 -0.1978741
0002e0 4a 0c 22 be a9 51 88 3d ca ee eb bc d4 03 22 be
       -0.15825 0.066562004 -0.028800387 -0.15821773
0002f0 e0 c1 03 3e ae 89 2a be 03 9e c5 3d e3 1d bd bd
       0.12866926 -0.16654083 0.09649279 -0.09234216
000300 ad 41 f4 bd 38 cf 12 be f1 3b 48 bd 0f 3a 25 3e
       -0.11926589 -0.1433686 -0.04888529 0.16135429
000310 6e c7 39 be 38 15 46 3d de 2b e1 3c a4 08 90 bc
       -0.18142483 0.04836008 0.027486738 -0.017582245
000320 22 03 30 3d 01 ba 78 be 6c d4 87 3c f5 59 03 bd
       0.042971738 -0.24289705 0.016580783 -0.03206821
000330 51 e5 d6 bb 84 b6 38 3d ed 42 c5 3d e0 90 a8 bd
       -0.0065580984 0.045095935 0.09631906 -0.08230758
000340 41 83 f4 bd c2 0e c3 bd e4 62 82 be d9 89 18 be
       -0.11939097 -0.09524299 -0.25466073 -0.14896335
000350 53 27 52 bd 0b a7 fa bc cb 07 bf 3d 07 83 f8 3d
       -0.051307034 -0.03059723 0.09327658 0.121343665
000360 bc 53 0c 3e 76 da 04 3e 88 57 a8 3d bc c8 d4 bd
       0.13703817 0.12973961 0.0821982 -0.103898495
000370 45 35 9d bd ce b5 0c bd 19 d1 2e be 70 48 57 be
       -0.07676176 -0.03435307 -0.17071952 -0.21023726
000380 3e 91 32 be 5f 2a 62 3d 2d 91 38 bd 4b 5c d4 bd
       -0.17438218 0.05521619 -0.045060325 -0.10369166
000390 99 fa 13 be bb 25 a2 3d 08 5a 27 be 46 1b f3 3c
       -0.14451064 0.07917353 -0.16342938 0.02967609
0003a0 e0 ca 74 be e8 22 03 3e f3 33 17 be c6 76 49 be
       -0.23905516 0.12806284 -0.14765911 -0.19674215
0003b0 9d cf ef 3d 0e 35 cb bb 11 ca f4 bd 0f a1 73 3d
       0.11709521 -0.006201393 -0.119526036 0.05947977
0003c0 77 a8 83 3d ee 0d d6 3d dd 47 2a be b5 f2 a8 3b
       0.064286165 0.104518756 -0.16628976 0.005155886
0003d0 64 1b b3 3c 6a 69 7e bb 2e 04 35 3d 5a 58 94 3d
       0.021863647 -0.0038820156 0.04419344 0.07243414
0003e0 97 88 7d 3d 5d f9 10 be d9 7b a7 bb 3b 97 bc bd
       0.06189784 -0.14157625 -0.0051111993 -0.092085324
0003f0 05 d0 d7 bc cc 2d 9d 3c 16 2b 12 be 9c 4e fb bd
       -0.026344309 0.019186877 -0.14274248 -0.12270853

network.1.conv.0.weight f4 [256, 512]
000000 74 2d 79 3d 1a fb 34 be 12 9b 78 bd ad d3 e1 3c
       0.060834363 -0.17673913 -0.06069476 0.027566755
000010 fb 51 e3 ba c8 7e d9 bd 36 a9 d4 bd e5 0d 37 bd
       -0.0017343158 -0.10619885 -0.10383837 -0.044690985
000020 a7 2f 3f 3c 25 9f 9a bd e4 5f 25 be fd 21 6a 3d
       0.011669076 -0.07549886 -0.1614986 0.05716132
000030 e6 69 16 3e f0 42 1c bd 3b e3 c7 bd 90 eb aa 3e
       0.14688835 -0.038149774 -0.09760138 0.33382845
000040 ef 62 61 be 18 c0 bf 3c 77 46 e8 3c 33 0a 4b 3e
       -0.22010396 0.023407027 0.028353913 0.1982811
000050 46 66 ea 3d 46 c1 89 3e e1 4e c0 3d c4 92 68 bb
       0.11445288 0.26905268 0.09390045 -0.003548787
000060 14 f6 2c 3e 3c e6 3e bd 39 5f 44 3e 19 4b ec 3d
       0.16890746 -0.046606287 0.1917695 0.11537761
000070 b6 ea 11 be 46 61 92 bc 6e 9e 1d be 60 28 b9 bc
       -0.14249691 -0.01786865 -0.15392467 -0.02260226
000080 c3 62 f8 3d 3e 09 d6 3c 4c 61 69 3b 5c 5d 87 3d
       0.12128212 0.026127454 0.0035610972 0.06609604
000090 5b 6a b5 bd 51 12 3d be 39 52 0c bd 31 ac 3e be
       -0.08858176 -0.18464018 -0.0342581 -0.18620373
0000a0 5b aa e7 3c f8 dd 9a 3e 38 35 fe 3d 0c f2 b5 be
       0.028279474 0.30247474 0.124124944 -0.3553623
0000b0 ec b6 d4 3d 78 99 54 bd a9 e6 40 bd db 28 ca bd
       0.10386452 -0.05190417 -0.047094975 -0.09871074
0000c0 df 8f 00 3d d2 83 20 3c 25 65 0c 3d 4f a8 ae bd
       0.031387206 0.009797053 0.034276146 -0.08528196
0000d0 b0 6e df 3d 57 ec a8 3d 40 1e 8e 3e 0b 66 27 bd
       0.10909784 0.08248203 0.27757454 -0.0408688
0000e0 8d 99 8a be 8a f7 4e be a5 ff 37 be 72 ba 35 be
       -0.27070275 -0.20211616 -0.17968614 -0.17746904
0000f0 cb f1 09 bd 5c 1e d2 3d b9 ae 70 bc 49 d7 0b bd
       -0.033677857 0.10259697 -0.014690095 -0.03414086
000100 48 4f c9 3c 2a ab 84 be 45 54 a3 bc 06 77 7e 3d
       0.024573937 -0.25911838 -0.019937644 0.06212523
000110 c7 5f 2a bd 6c a3 21 3d 8e a8 d5 3d 3c 3b 63 bd
       -0.041595247 0.039462492 0.1043254 -0.055476412
000120 37 6a 80 3d 69 1b 82 3e ce 6c 27 3d 91 55 4a be
       0.06270259 0.25411537 0.04087525 -0.19759203
000130 1e 11 32 be a7 bf a9 3b 91 55 bc 3d 57 7b 04 3e
       -0.17389342 0.0051803174 0.09196008 0.12937675
000140 8e 3d b2 3c fb 5e b8 bd ef 64 5a be 2a 63 0c 3e
       0.021757867 -0.09002491 -0.21327566 0.13709703
000150 d1 4c f3 bd 8f 90 ec 3d 5f 7d 76 be e8 b5 2d bd
       -0.11879886 0.1155101 -0.24071263 -0.042409807
000160 a6 25 13 3e 17 55 89 3e 68 d2 46 3e e8 c9 ab 3d
       0.1436983 0.2682273 0.19416201 0.0838812
000170 b3 76 a3 3e 31 c2 34 be 73 a2 57 3d 17 69 ff 3b
       0.31926498 -0.17652203 0.052645158 0.00779451
000180 b5 6b 90 bd b1 f0 11 3e ad 62 33 bc c6 3f 28 be
       -0.070517935 0.14251973 -0.010948819 -0.16430578
000190 7c 2b f2 3d 8e 9a 86 bc be 1a aa 3d cd 01 c1 bd
       0.118247 -0.01643112 0.08305882 -0.094241716
0001a0 5a 83 59 3e c5 30 14 bc 3c e8 f7 bd 10 bf 92 3c
       0.21241513 -0.009044831 -0.12104842 0.017913371
0001b0 4c 02 7a 3e cc 78 fa 3d f3 d1 5e 3e 33 c1 a6 3c
       0.24414939 0.122300714 0.21759777 0.020355796
0001c0 c6 4f 9b 3c d5 09 da 3d 59 87 7b 3e de 75 03 bd
       0.018958937 0.106464066 0.2456335 -0.03209483
0001d0 e0 43 c6 3d 34 66 2c be 1e 4d 8c bd a8 4e 29 3d
       0.09680915 -0.16835862 -0.068506464 0.041334778
0001e0 de d8 27 bd e9 ff 78 3e 78 6f c8 bd bc e1 09 bd
       -0.040978305 0.24316372 -0.09786886 -0.033662543
0001f0 b9 9a cb bd 9a fb 8c be 98 93 84 be 24 66 a1 3c
       -0.099416204 -0.27535707 -0.25893855 0.019702025
000200 99 c4 f7 3c 30 fb bf bb 92 6f 4e 3e b9 cc 72 bb
       0.030245112 -0.0058588013 0.20159748 -0.0037048294
000210 c5 60 7a bb 07 fc 25 bd 98 69 e4 bd 9c 94 11 3d
       -0.0038204652 -0.040523555 -0.11152953 0.035542116
000220 b6 3b 4f 3d 2f 6c 5a 3d 02 39 08 3d 55 3b a9 3c
       0.050594054 0.05332583 0.033257492 0.020658175
000230 48 ac b2 3c 1f d9 a4 3c 63 d6 62 be a1 ce dd 3d
       0.021810666 0.020123063 -0.22152095 0.10830427
000240 88 eb 90 3d f0 94 d2 bd 3d 62 b8 bd 12 1a e1 bc
       0.07076174 -0.10282314 -0.090031125 -0.027478252
000250 c6 00 23 3e d7 b9 bb bc f9 94 90 ba 22 b9 4b bd
       0.15918264 -0.022915764 -0.0011030725 -0.049737103
000260 db ce 73 3d 4b dc 0b 3e 87 b6 3c 3c a2 4c 33 3d
       0.059523445 0.13658254 0.011518127 0.043774255
000270 80 c9 39 3e 5c 46 e1 3d 86 89 ee bd a3 6f d9 bb
       0.18143272 0.10999748 -0.11647324 -0.0066356226
000280 62 88 59 bc ed 1d d6 bc 71 39 c4 3c dc 4c 8f 3d
       -0.013277145 -0.026137317 0.023953171 0.06997082
000290 26 44 fe bd a9 1e 35 3e 6c a7 bf 3d b5 6e f1 3d
       -0.12415342 0.17687477 0.09358105 0.11788694
0002a0 36 89 0a bd 44 e9 90 bd ce 6f f1 ba f3 9d d1 bd
       -0.03382226 -0.07075742 -0.0018420161 -0.102352045
0002b0 10 bb 27 3e 4d 33 8d bd bd 81 8d 3d 83 d0 08 be
       0.16379952 -0.068945505 0.06909511 -0.13360791
0002c0 19 f9 92 bd d3 6b 1d 3e 13 07 e5 3d cf 16 dc bb
       -0.07176418 0.15373163 0.1118299 -0.006716586
0002d0 14 35 c3 bd e1 7a 22 bc ba 6b 2f 3d bb 95 c7 bd
       -0.09531608 -0.009916992 0.042827345 -0.09745356
0002e0 7f 6d 1b be 67 f3 d9 3d 2d eb 9a 3d 6d 04 77 bd
       -0.15178488 0.106421284 0.075643875 -0.060306955
0002f0 58 ac 45 ba 0d f9 af 3d d5 66 94 3d 0c a8 32 be
       -0.0007540635 0.085924245 0.07246176 -0.17446917
000300 b7 6b 20 be 4f 53 61 3d 0a ee 7e 3d 22 8e 17 3d
       -0.1566609 0.05501109 0.06223873 0.037000783
000310 bc ba c7 3d f9 5d fe bc 8a d5 ee 3d 6b 88 46 bd
       0.09752414 -0.031050669 0.11661823 -0.048469942
000320 d9 b1 00 bd 62 71 ef bd 2a 96 65 3c e0 8a ad bd
       -0.03141961 -0.11691548 0.014012853 -0.08473754
000330 c3 05 93 3d 8e 66 c1 3d 44 7d 30 3e 38 af b8 be
       0.07178833 0.09443389 0.17235285 -0.3607118
000340 f5 ad 0c 3d d7 60 56 be 22 49 a3 3b 8a ae 81 bc
       0.034345586 -0.20935379 0.0049830833 -0.015830297
000350 2a 27 98 3d 6e 60 d8 3c 97 e8 af bc 60 6d 80 3d
       0.07429345 0.026413169 -0.021473212 0.062708616
000360 bc 86 9b 3d 15 85 0e 3e af 6e a0 3d 65 f3 9c 3c
       0.07594058 0.13917954 0.07833611 0.019159028
000370 40 67 c7 3d c7 e9 ee 3c 18 83 ec bd ce 94 00 3d
       0.0973649 0.029164208 -0.11548442 0.03139191
000380 b2 1e 31 be a2 e7 07 bc 26 ec a5 3d be 61 36 be
       -0.17296866 -0.008294972 0.08101682 -0.17810723
000390 28 38 31 be e5 f4 cd bd b8 b8 8e bc 77 27 bd 3d
       -0.17306578 -0.100564755 -0.017422065 0.09236043
0003a0 fc 3c d3 39 18 d1 bc 3c 60 7e f6 bc fc f2 35 bb
       0.00040290493 0.023048922 -0.030089557 -0.0027763238
0003b0 20 f0 e9 3c 06 99 a2 3c a3 ba c2 bd f2 4b 17 3d
       0.028556883 0.019848358 -0.095082544 0.03693766
0003c0 fd 57 1e 3d 43 ac 0a 3e ab d1 b0 bd b4 0f a4 3d
       0.03865813 0.13542275 -0.08633741 0.08010808
0003d0 56 61 e1 bc f2 d5 cc bd 7c 8f 71 3d 38 b9 de bd
       -0.027512234 -0.10001744 0.058974728 -0.108751714
0003e0 13 ea a8 bc 6d e6 94 be b5 08 dd 3b 41 a7 fc bd
       -0.020619428 -0.2908205 0.0067454227 -0.12336589
0003f0 ba 2b 46 3e c7 23 07 be 7e ef 53 bd 96 ce a7 3c
       0.19352618 -0.13197242 -0.05174207 0.02048425

network.1.conv.0.bias f4 [256]
000000 81 14 2f bd 90 d1 87 3b 82 10 24 3d d4 d7 59 3c
       -0.042744163 0.004144855 0.040054806 0.013296086
000010 ec 9c f7 bb a1 b7 b9 3d 40 c8 41 3d 80 58 81 3d
       -0.0075565483 0.090682276 0.047310114 0.06315708
000020 c2 cc e9 bc 18 7c 40 3d f3 7e 6f bc e2 b7 1b be
       -0.028540019 0.046993345 -0.014617669 -0.15206864
000030 20 d6 b5 3d d9 d3 c5 bd df 21 c3 bd 6c 58 ce bd
       0.08878732 -0.09659547 -0.09527945 -0.10075459
000040 b1 6a 20 bd 49 9c 5d ba 57 00 81 3d ee 3a 41 be
       -0.03916425 -0.0008453769 0.06298893 -0.18870136
000050 7f 9a b1 bd c9 bc 4d 3e 64 01 a2 bd 10 c0 19 bd
       -0.08672046 0.20091547 -0.079104215 -0.03753668
000060 e7 51 9e bd cd f8 f9 3b 87 19 2e be d4 95 c4 3c
       -0.077304654 0.0076285363 -0.17001925 0.023997225
000070 41 02 12 be 86 5c a0 bb 92 ea 09 be cb ca 7c 3c
       -0.14258672 -0.004893842 -0.13468388 0.015429209
000080 9a e0 8d bd dc 75 4d be 81 08 6d 3e cf 43 6c bd
       -0.06927605 -0.20064491 0.23147775 -0.057681855
000090 5e 00 4a be 7c ef 14 3b 1c ae 35 3c 40 6b 34 bd
       -0.19726703 0.0022725752 0.011088874 -0.044047594
0000a0 40 24 d6 bd 1b 87 07 be 28 76 5c be 5e 8f ad 3d
       -0.10456133 -0.13235132 -0.21529448 0.08474611
0000b0 92 89 b9 3c 22 d3 17 3d 4c 1b a9 bd 26 ee 3a bc
       0.022648606 0.037066586 -0.082571596 -0.011409318
0000c0 c4 20 9d bd 58 d0 96 3d 25 bb 53 bd 2f 54 dd 3d
       -0.07672265 0.07363957 -0.051692147 0.10807072
0000d0 70 fd 8d bd f9 b6 89 bb 3b 87 7b bd 2d b4 16 3d
       -0.06933105 -0.0042027202 -0.061408263 0.036792923
0000e0 1e f6 15 3d 22 05 6e 3d 99 08 0a 3d 8d 65 1c 3e
       0.03661167 0.058110364 0.033699606 0.15273114
0000f0 4f a0 0d be 2f 3f 77 bd dd c4 5f bc d2 f3 56 3d
       -0.13830684 -0.06036299 -0.013657776 0.05247862
000100 dd 14 05 3d f7 05 06 3d 9c 1b 1d 3e 6b 7e e6 bc
       0.0324906 0.032720532 0.15342563 -0.028136453
000110 e7 73 b5 bc 68 10 62 bd 66 b2 22 3b 07 0a b4 bd
       -0.022149993 -0.055191427 0.0024825572 -0.08790975
000120 02 19 7e 3d 78 bf f2 bd 12 f1 04 be 85 9c 83 ba
       0.062035568 -0.11852926 -0.12982586 -0.0010041153
000130 d9 e1 03 3d c4 2b 16 3d 3d a7 97 bb 77 aa 7b 3e
       0.032197807 0.036662832 -0.0046280907 0.24576746
000140 46 5d 01 be a5 3f 28 3d 8d 4c 1d be e0 b9 98 3d
       -0.12633237 0.04107632 -0.15361233 0.07457328
000150 1b 5f 34 be 01 22 b5 bd 22 d8 74 bd 5b 86 89 bd
       -0.17614405 -0.08844376 -0.059776433 -0.067150794
000160 e2 fd 8a 3d f8 7a a3 3c a9 3d 28 39 91 36 23 3e
       0.067867056 0.019956097 0.00016044699 0.15938784
000170 5a 92 c2 3d 6d fd 0d 3e 73 c0 57 3c 56 30 05 bc
       0.095005706 0.13866206 0.013168442 -0.0081292
000180 ca 00 2c be f6 26 ac bc 3d d8 5d bc 93 d1 a6 3e
       -0.16797176 -0.021014672 -0.013540325 0.32581767
000190 02 f0 18 3d ee 4a 29 bd ba 49 92 3d df 8c 29 be
       0.037338264 -0.041331224 0.071429685 -0.16557644
0001a0 25 e5 70 be 76 aa 6b bd f0 2d d1 3d c9 e5 30 be
       -0.23524912 -0.05753561 0.1021384 -0.17275156
0001b0 c7 d4 0f 3d a2 6f 97 bc 53 55 0e 3e eb 9b 30 be
       0.03511503 -0.018485848 0.13899736 -0.17246978
0001c0 ba 33 98 3d 2a 3e 02 3e 07 2e bc bd 43 5a e7 3d
       0.07431741 0.12719026 -0.091884665 0.11296513
0001d0 b3 66 a3 3d 50 3a f4 bc 63 8f 29 bd 1d 5f 1d 3e
       0.07978573 -0.029812962 -0.04139651 0.15368314
0001e0 63 7c e5 3c 30 08 e9 bc 48 2e 00 3e 1b 7f cb 3d
       0.028013414 -0.028446287 0.12517655 0.09936353
0001f0 97 80 cb bd 5b f2 04 bd 7f 60 08 3e 18 46 6b be
       -0.09936636 -0.03245769 0.1331806 -0.22975957
000200 9c d0 1c bd b9 bb 8d bd a8 1a 2a be cc 32 25 3d
       -0.038284883 -0.06920571 -0.16611731 0.040331647
000210 47 ca 37 bd 04 b2 fc 3c 6a 33 68 3c d8 45 5f bc
       -0.04487064 0.030846603 0.014172414 -0.013627492
000220 17 48 2a 3d a8 b7 7c bc b2 b4 74 bd 1c a8 fd 3b
       0.041572656 -0.015424646 -0.059742637 0.0077409875
000230 12 a4 9a bb 72 ad 41 3d 42 b9 a8 bc 66 13 24 3d
       -0.0047192657 0.04728455 -0.02059615 0.040057562
000240 a1 fd 62 3d be 06 f4 3c d9 cf 27 be ce a6 c0 3d
       0.05541766 0.029788371 -0.16387881 0.094068155
000250 f6 77 11 3e ee 89 aa bd da 39 44 bd 87 a3 ab bd
       0.14205918 -0.08327089 -0.047906734 -0.083808
000260 a1 fa f4 3d 29 08 a4 3e 9b 54 9e 3d 8a a9 90 bd
       0.11961866 0.32037476 0.07730981 -0.07063587
000270 5e 80 8d bb 42 a6 aa 3d 78 6b a2 3c fe 7d 86 bc
       -0.004318281 0.083324924 0.019826636 -0.0164175
000280 4e f5 26 bc 16 66 ae bd 2f be cb 3c 29 90 4b 3e
       -0.010190321 -0.08515565 0.02487096 0.19879211
000290 d0 e7 c3 bc 55 60 f7 3d a0 9f b1 bb fc cc 10 bc
       -0.023914248 0.12078921 -0.00542064 -0.008837935
0002a0 f5 94 bb 3d d4 62 05 3e 7a af a3 3d e8 81 ca bd
       0.09159271 0.13025981 0.07992454 -0.09888059
0002b0 8b 53 95 3c c4 29 30 be 8c 8f 3e 3d e0 f6 15 be
       0.018228313 -0.17203432 0.046523616 -0.14644957
0002c0 38 11 ef bc 29 f0 b6 bd 5c 05 85 bc 2f 5e 63 3d
       -0.029183015 -0.08932526 -0.016237907 0.055509742
0002d0 83 4d b6 3b 1c 64 a1 bc e8 8b ae 3c 9b 70 01 be
       0.0055634393 -0.019701056 0.021306947 -0.12640612
0002e0 1c 47 88 bc 31 98 a9 bd f3 73 60 3d ce 45 79 be
       -0.01663547 -0.08280981 0.054798078 -0.24343035
0002f0 c5 3d 6f bd 23 bd 00 3e e6 79 ca bd 04 69 04 3c
       -0.058408517 0.1257215 -0.098865315 0.008081678
000300 4c a6 51 bd a6 34 f1 bd 80 2a 20 be dd 1a 8f 3d
       -0.051183984 -0.1177762 -0.15641212 0.06987546
000310 45 56 9f bd 45 15 a0 3d 99 61 dc 3d 3c a2 ac bd
       -0.077801265 0.07816557 0.10760803 -0.08429381
000320 d6 bc b6 bd 88 87 ee 3d 6e 67 1e be 5b 63 16 3e
       -0.08922736 0.11646944 -0.15469143 0.14686339
000330 b3 3c cc bc 82 e9 92 bc 87 7d 41 be e8 ae 03 be
       -0.024931287 -0.01793361 -0.18895541 -0.1285969
000340 74 68 d9 bc a5 2d fa 3b 79 40 14 3d 7d 04 c6 bc
       -0.026539065 0.007634836 0.0361943 -0.024172062
000350 6f b9 20 be 25 e9 77 3b 8a ee 8e 3d 9c 3e f4 3d
       -0.15695737 0.0037828174 0.069790915 0.11926004
000360 03 89 1c be 8f 5f 04 3d f1 c9 4e be 96 65 71 bd
       -0.15286641 0.032317694 -0.20194222 -0.05893477
000370 63 7e 99 3b bb 49 13 be 6f 71 55 be c6 5c ad bd
       0.004684256 -0.14383595 -0.20844053 -0.08464961
000380 45 f7 3e 3c c9 f9 22 3c 74 61 83 3d 6b af 01 be
       0.011655633 0.009947249 0.06415072 -0.12664573
000390 11 f8 57 3d a9 83 2f 3e f3 ea 0b 3e 53 c1 1f be
       0.05272681 0.17140068 0.13663845 -0.15601091
0003a0 24 3c 93 bc 5a 9d 0b 3e c2 61 8c bd 16 21 6f bc
       -0.017973013 0.13634244 -0.06854583 -0.014595291
0003b0 01 78 c0 bc cd a2 9e 3d be 8e 4e bd c4 0d 52 3e
       -0.023494722 0.077458955 -0.0504291 0.20513064
0003c0 a9 82 0d be 57 8a 79 3d 6b 10 07 be 73 06 4f 3c
       -0.13819374 0.060922947 -0.13189857 0.012635815
0003d0 9c c8 5c 3e 23 79 32 3d 3c 04 65 3d be 7d 93 3a
       0.21560901 0.043572556 0.05591224 0.0011252684
0003e0 10 b9 b9 bd 8e b0 e2 bc 6b c2 83 be d3 04 c1 bc
       -0.09068501 -0.027672078 -0.25734267 -0.02356187
0003f0 ee c4 b2 3d 52 b2 03 3e 60 37 9f bd ab e7 c2 bd
       0.087289676 0.12860993 -0.07774234 -0.095168434

network.2.conv.0.weight f4 [128, 256]
000000 84 ac 91 3d ba 71 0e 3d 15 de 92 bc 82 6e ea 3c
       0.07112983 0.034776427 -0.017928163 0.028617147
000010 c2 63 57 bd 02 33 b7 3d 02 89 67 3e 62 ad 34 3e
       -0.05258537 0.08945276 0.22610858 0.17644265
000020 b1 e6 bb bd 52 f7 94 bb 60 ef e0 bd 2f 41 50 bd
       -0.0917486 -0.0045460844 -0.10983157 -0.050843414
000030 dc aa 31 3c 9f a3 cd 3d 21 ae bb 3d c5 48 c4 bd
       0.010843959 0.10040974 0.09164072 -0.09584192
000040 26 88 a8 3e c3 81 e6 bd 25 bd 7a bd f4 5b 91 3d
       0.32916373 -0.11255219 -0.06121554 0.07097617
000050 c7 ec bc 3d 9b c7 24 bd c7 f0 70 3d 03 e1 e9 3d
       0.09224849 -0.04022942 0.058823373 0.11419871
000060 15 f0 32 be 7a ec 88 3e cb 9a 08 be b0 e3 9f 3d
       -0.17474397 0.26742917 -0.13340299 0.078071
000070 5d 99 34 3e 5f 8c dc bd ac cb 42 3d 53 04 58 be
       0.17636628 -0.10768961 0.047557518 -0.210954
000080 7d 21 15 be a4 a8 2c be df 32 75 3d 38 7d c6 bd
       -0.14563556 -0.16861206 0.059862968 -0.09691852
000090 55 2c ce bd d9 28 27 3c a5 69 ee 3d 4f 59 53 bd
       -0.100670494 0.01020261 0.11641244 -0.051598843
0000a0 87 b9 8f 3d c7 62 aa bd fa 26 11 3c 8e 82 bc 3d
       0.070178084 -0.083196215 0.00885939 0.09204589
0000b0 eb e5 f5 bd 17 5e 99 bd 47 64 3d 3e 4d d6 f4 3c
       -0.12006744 -0.07488649 0.18495284 0.029887343
0000c0 31 da 50 be 42 5f e0 3d 58 6e 3d be 0c d5 63 bd
       -0.20395733 0.10955669 -0.18499124 -0.0556231
0000d0 9d b3 bc bc 34 2b b5 bc 3b 6c 9a 3c 37 b2 08 bd
       -0.023034865 -0.022115327 0.018850436 -0.033373084
0000e0 d4 59 20 bd 7d 8c 61 bd fb 69 5b be 9b 33 2d be
       -0.039148167 -0.05506562 -0.21427147 -0.16914217
0000f0 55 7d 76 3d e1 50 a9 bd 61 28 2d 3e 29 16 d6 bd
       0.06017812 -0.082673796 0.16909935 -0.104534455
000100 83 cf 77 39 b1 b8 d7 3d fb e4 a1 bd 43 80 9c bc
       0.0002363306 0.10533274 -0.07905003 -0.019104129
000110 33 99 5b be 50 36 48 bd 68 b5 89 bd d7 2d c8 3d
       -0.2144516 -0.04887992 -0.067240536 0.09774368
000120 d2 92 98 bd 30 e3 25 bc 22 e7 e1 bd ab 76 38 bd
       -0.07449879 -0.0101249665 -0.11030413 -0.045035046
000130 18 4b 0b 3d d6 20 36 3d 83 cb 2f 3e eb 61 03 be
       0.03400716 0.04446491 0.17167477 -0.12830321
000140 cb 52 8a be eb ec 15 3e 52 8c ee bc de d6 9f bb
       -0.2701629 0.14641158 -0.029119644 -0.004877909
000150 38 37 35 bd d5 26 de 3d 49 d0 31 bd d4 f5 15 3d
       -0.044242114 0.1084725 -0.043411527 0.036611393
000160 8f bf 9c bd b4 e3 18 bd 9c 80 1d 3d 7e 59 99 3d
       -0.076537244 -0.03732653 0.03845273 0.074877724
000170 c1 80 04 be 12 21 fc 3b 4e c8 9f bd 5c b8 73 3d
       -0.1293974 0.007694372 -0.07801877 0.05950199
000180 2f 35 36 bb d5 14 da 3c 34 f5 22 3d 75 59 2b 3e
       -0.0027802696 0.026621262 0.039784625 0.16733344
000190 63 35 b2 3d 08 bb cc 3d 86 de b3 bc 43 94 30 3d
       0.08701589 0.09996611 -0.021956693 0.043110143
0001a0 b3 49 8c 3d 36 da be 3d 45 8c ae 3c d8 60 58 3d
       0.068499945 0.09318964 0.02130712 0.052826732
0001b0 0d 71 ec 3c 1a 0e 3c be 87 b5 99 bd 80 8e c4 3d
       0.0288625 -0.18364754 -0.07505327 0.09597492
0001c0 b8 c8 e0 bd d4 3b 38 3c 9c 85 7b 3d 26 d9 28 bd
       -0.10975784 0.011244733 0.061406717 -0.041222714
0001d0 21 c9 d1 3b 84 f5 86 be 8e c0 c1 3c 99 98 a4 bc
       0.0064021503 -0.2635919 0.023651388 -0.020092295
0001e0 c5 d8 d4 bd 58 70 3d be 9b 44 1d be 5e 2a 94 bd
       -0.10392908 -0.18499887 -0.15358202 -0.072346434
0001f0 3e 7a 4f 3d 58 7c e3 3b ab 12 92 bd 36 be b7 3d
       0.05065369 0.006942313 -0.07132467 0.08971827
000200 1e 4b a6 3d a9 51 f4 3d c8 7f 2e 3e 1f bc 10 be
       0.08119796 0.11929638 0.17040932 -0.14134263
000210 89 17 b5 bd 5d 7a ea 3d 3c cd 97 bd 5e cb 91 3d
       -0.088423796 0.1144912 -0.07412192 0.07118867
000220 b9 15 0b 3d 45 ea 09 bc 2f 72 f7 bb 30 7c 49 3d
       0.033956263 -0.008417671 -0.0075514535 0.0491907
000230 d6 3d 21 3d 2b 02 93 3c 94 75 64 bd a3 f6 0a be
       0.039365612 0.01794537 -0.055776194 -0.13570647
000240 6e 40 c7 3c d7 9c 2b be 80 94 2b 3d 73 4b f3 bc
       0.024322715 -0.16759048 0.041889668 -0.029699063
000250 f2 fc 04 be 64 90 96 bb b6 03 71 bb 47 d3 37 be
       -0.12987116 -0.0045948494 -0.0036775894 -0.1795169
000260 68 77 6d bd 30 ec ab bd 52 2e 5e 3d c2 93 ab 3d
       -0.057975203 -0.083946586 0.054243393 0.08377792
000270 7c 39 20 3e dc 5f af bd 1a 86 f0 3c de 74 29 be
       0.15646929 -0.085632056 0.02936082 -0.16548488
000280 90 79 34 3e 97 a2 87 bb 82 1d 2c 3e 5a 29 4f bd
       0.17624497 -0.0041392553 0.16808131 -0.050576545
000290 cc 45 87 bd e7 86 e6 bd 42 a6 a9 3d 00 98 0e be
       -0.066051096 -0.11256199 0.08283664 -0.13925171
0002a0 1c d5 16 bd e3 72 f6 bd 5e 50 81 bd 33 07 92 bd
       -0.03682433 -0.12033632 -0.06314157 -0.071302794
0002b0 6c 27 d4 3c 2c bc a4 bd 37 88 fb 3d 58 22 e0 bc
       0.025897704 -0.080437034 0.1228184 -0.027360126
0002c0 87 ad ff bd 78 5f 00 be 42 dc 04 3e 73 93 6d 3d
       -0.124842696 -0.12536418 0.12974647 0.058001947
0002d0 a5 9b 52 3d 9c a2 da bd 0d f3 ae 3d f3 15 7c bd
       0.051417965 -0.106755465 0.08542452 -0.06154437
0002e0 3c 2a 36 bd cf 06 a2 bd 6f 47 de bd ac dc 9c bd
       -0.04447387 -0.07911455 -0.108534686 -0.07659277
0002f0 2d 1f 23 bd f9 26 11 3d 61 98 cb 3d 0f c6 a3 bd
       -0.039824653 0.035437558 0.09941173 -0.07996761
000300 b4 7b 23 3e ec 38 4b be ce fb 62 be 4b 82 2d be
       0.15965158 -0.19845933 -0.22166368 -0.16944234
000310 d8 46 f0 3d e8 7f ad 3d 40 54 f0 3d 34 fb c7 bd
       0.117322624 0.08471662 0.117348194 -0.0976471
000320 f5 74 0b 3e 3d 7d 0b 3d cf 2d cc 3d 92 a1 8f b9
       0.13618834 0.034054983 0.09969675 -0.00027395465
000330 8c 07 8e 3c 36 30 7b bd 4b 9c ad 3c 23 21 15 3e
       0.017337583 -0.061325274 0.02119269 0.14563422
000340 07 b4 9e bd 02 16 ee bc 7e 90 44 be b3 ac a9 bd
       -0.07749181 -0.029063229 -0.19195744 -0.08284893
000350 fd f1 9c 3b 08 04 d5 bd 9a ea 0b be eb fa 67 3d
       0.0047895894 -0.104011595 -0.13663712 0.05663578
000360 cb e9 32 be b7 4e 63 3d 2a 6f 73 be 33 bc 0a 3e
       -0.17471997 0.05549499 -0.23772874 0.13548355
000370 58 3a c5 bd f7 71 f9 bd 17 ed 9b 3d cd f9 90 be
       -0.09630269 -0.1217994 0.07613581 -0.28315583
000380 83 6f 42 be 9d 0b d0 bc 27 1b 1a 3b 6c 25 05 be
       -0.18987851 -0.025396163 0.002351472 -0.13002557
000390 99 ab 15 bd df a6 33 bd fe 85 4f bd 84 a5 04 be
       -0.0365406 -0.043860313 -0.050664894 -0.12953764
0003a0 6a 9f cc 3c 5b cb a2 3d 7f e5 60 3d 73 2a 26 bd
       0.024978358 0.07948943 0.054906365 -0.040567826
0003b0 80 0b 9c bc 97 8c 33 be 66 72 9d 3e 23 4f b9 bd
       -0.019048452 -0.175341 0.30751342 -0.09048297
0003c0 87 e4 ed bd 95 5f 83 bd 8c 4a 48 be e1 19 4f bd
       -0.11615854 -0.06414715 -0.19559687 -0.05056179
0003d0 b5 ed b2 bd b2 b2 c8 3d cd 78 ed bc 9e f4 a6 bc
       -0.08736745 0.097997084 -0.028988266 -0.020380314
0003e0 77 1c a3 bc 6d 5e 3d 3e 7e a6 39 3e 47 c2 0e be
       -0.019911034 0.18493052 0.18129918 -0.13941298
0003f0 e3 7f 0a 3d 72 e7 a1 3c 05 d2 3b 3d e1 24 93 bd
       0.03381337 0.019763682 0.045854587 -0.071847685

network.2.conv.0.bias f4 [128]
000000 aa 11 41 be ff 24 eb 3c b4 3a 09 be 15 42 fc 3d
       -0.18854395 0.028704165 -0.134013 0.12317292
000010 cc c5 0d be c8 35 25 be dc f0 1b 3e 6f 43 49 3d
       -0.13844985 -0.16133797 0.152286 0.049136575
000020 ca 38 d0 bc dc 09 09 3d 1f 40 f3 3c 54 d7 a4 3d
       -0.025417704 0.03345667 0.029693661 0.08048883
000030 12 9f 38 3d 84 b0 2e 3e f0 a5 b2 bc 41 54 9d 3d
       0.045073576 0.17059523 -0.02180764 0.07682086
000040 bd a2 98 3d b7 8b ab bc 56 80 9e bd 75 db 84 be
       0.07452915 -0.020940645 -0.07739322 -0.25948682
000050 6d 72 8b bd 18 ab b4 3c 63 e9 ec 3c 8f f3 8f bd
       -0.06808934 0.02205424 0.028919881 -0.07028877
000060 b5 44 89 bc 8c b7 ea bd eb 20 19 3d 94 2d a3 bd
       -0.016756395 -0.1146079 0.03738491 -0.07967678
000070 76 c9 05 bd 4c 9e 04 bc 41 46 1b 3e 03 03 23 be
       -0.03266283 -0.008094382 0.15163518 -0.15919118
000080 ce 88 29 bd d6 a7 54 be aa 14 49 bd 6f d1 a2 3c
       -0.041390233 -0.2076715 -0.049091972 0.019875256
000090 2b eb 28 bd c6 61 45 be e7 da 30 3d f9 ae 19 bd
       -0.0412399 -0.19275579 0.04317751 -0.037520383
0000a0 b4 36 96 bd bb 42 6b 3b 61 a9 ee 3c f9 da c1 bd
       -0.073346525 0.0035897929 0.0291335 -0.09465594
0000b0 56 9b de bd 27 e4 92 3d f3 7f db 3d 80 a1 b6 bd
       -0.10869472 0.07172423 0.10717764 -0.089175224
0000c0 b3 0f 41 be 07 af 68 3d d7 a7 85 bc 15 a4 74 3d
       -0.18853645 0.056807544 -0.016315384 0.059726793
0000d0 12 04 84 bd 21 63 e4 3d 58 72 ad bb 04 ff d5 3d
       -0.06446089 0.1115172 -0.005293172 0.10449031
0000e0 d2 84 22 3d 85 c8 d3 bb 5c dc 15 be 4b 46 8b be
       0.03967745 -0.006463113 -0.14634842 -0.27202067
0000f0 fd 0a 8a be ec 55 a7 3b 59 5a aa bd aa 0e 2e 3e
       -0.26961508 0.005106678 -0.08318014 0.16997781
000100 94 62 6d 3d 25 4f 2b 3e 1c 0f 2c be 8d c2 52 3e
       0.05795534 0.1672941 -0.16802639 0.20582028
000110 b0 24 a3 bc 56 c1 29 3c be 4a 58 bd 2e 41 ca bd
       -0.019914955 0.010361036 -0.052805655 -0.09875713
000120 74 40 4f 3e 1a 5a dd 3c 55 5b ba 3d f8 44 18 3d
       0.2023943 0.027020503 0.090994515 0.03717515
000130 6a ba dd bd 0c 85 cf 3d 44 fa f3 3d a0 fc 98 3d
       -0.10826571 0.101327986 0.11912969 0.074700594
000140 60 84 9b bc c4 43 24 be ec 60 21 bc d0 4d 37 3e
       -0.01898402 -0.16041476 -0.009849768 0.17900777
000150 74 84 e5 bc 41 f1 0c 3d e7 f6 bd bd d3 9a b7 3d
       -0.02801726 0.034409765 -0.092756085 0.08965077
000160 c9 13 2b 3d 13 8f e6 3d 3e be 19 bc 29 8f 67 be
       0.041766915 0.11257758 -0.009383736 -0.22613205
000170 85 69 ec bd 1f c5 b9 bd 00 be fe 3c e5 08 15 bd
       -0.11543564 -0.09070801 0.031096458 -0.036385436
000180 f9 a3 e6 bc 28 7e f8 bd af f0 eb 3d 29 9a f0 3d
       -0.02815436 -0.121334374 0.11520516 0.11748154
000190 f8 c3 df bd 1d 30 9b bd a9 a7 c7 3b 22 09 d8 3d
       -0.1092605 -0.07577536 0.0060929847 0.10548617
0001a0 04 53 4a bb 32 f8 86 3d 5b 70 b6 bd a7 59 ee 3c
       -0.0030872235 0.06590308 -0.08908149 0.029095484
0001b0 b0 fc 50 be 58 74 13 be 4e 02 44 be 7d 62 07 3d
       -0.20408893 -0.1439985 -0.19141504 0.03305291
0001c0 ea 5f 9e bb f3 6a ec 3c 45 aa 1f ba c2 ba cd bd
       -0.004833211 0.028859591 -0.0006090741 -0.10045387
0001d0 62 37 4f be ab 1f 00 be 1f ab 86 bd 1b 2b 18 bc
       -0.2023597 -0.1251208 -0.065756075 -0.009287621
0001e0 f6 c7 a5 3c b6 5d 8d be 45 00 72 3c 02 77 41 be
       0.02023695 -0.27610558 0.014770572 -0.18893054
0001f0 03 76 8b bd c4 d0 48 be e1 ce 24 3d d5 28 27 bd
       -0.06809618 -0.19610888 0.040236358 -0.040810425

network.3.weight f4 [2, 128]
000000 c5 1e 2a bd 5d 24 0f 3d 0f 95 04 be 62 f2 70 3d
       -0.04153325 0.034946788 -0.12947486 0.058824904
000010 ef 5f a9 3c d0 d9 24 be 50 af 52 3e 34 3e 76 bd
       0.020675628 -0.16098714 0.20574689 -0.060117915
000020 d9 23 95 3d 2f 35 8c 3d 6a e9 9b 3c b2 71 6e bd
       0.07282228 0.068460815 0.019032199 -0.058213897
000030 31 4c c1 3d bf f6 82 bd 4b e2 dd 3c b7 fb 60 bc
       0.094383605 -0.06394719 0.027085444 -0.0137318885
000040 e6 0f 12 be 00 78 1f 3c 32 03 00 be 38 58 1e 3e
       -0.14263877 0.0097332 -0.12501219 0.1546334
000050 14 d7 12 3c 91 c0 8b 3a 8a e9 8b 3c b9 9b e8 bd
       0.008962411 0.0010662248 0.017079134 -0.11357827
000060 a0 c5 43 3e d5 11 0e be 15 23 ae 3c 21 ab 06 3d
       0.19118357 -0.1387399 0.021256963 0.032878045
000070 6e ba 26 bc bc df db 3d 6c 39 98 3c bc cd a3 3d
       -0.010176284 0.10736033 0.018582068 0.07998225
000080 a1 ae f6 3d e3 10 41 be b4 24 3e 3d f3 6d 38 3e
       0.120450266 -0.18854098 0.04642172 0.18010692
000090 96 6c fe 3c a6 e7 7a be 9e 7c 55 be bb cc 02 be
       0.031057637 -0.2450243 -0.20848319 -0.12773411
0000a0 49 59 17 3e e6 67 90 3d a3 28 79 3c 3c b3 25 bb
       0.14780153 0.07051067 0.015207442 -0.0025283834
0000b0 85 95 cd 3d 07 a8 c0 bd ff 79 fb 3d 6a 2e 6f 3d
       0.10038284 -0.09407049 0.12279128 0.058393873
0000c0 1f 27 2a be 73 b3 87 bd 2d f2 5c 3d f7 67 d4 3d
       -0.16616486 -0.06626024 0.053941894 0.10371392
0000d0 38 d1 f2 3d 26 51 70 bd 13 2e f3 bc 1f 26 35 be
       0.118563116 -0.05867114 -0.029685056 -0.17690323
0000e0 e3 d4 2c 3d 08 b2 dd bb 47 bd f5 3d 59 66 32 bd
       0.042195212 -0.0067656077 0.119989924 -0.043554638
0000f0 e9 7c ae bc 3c 8d 10 3e 5a c8 0b bd c2 82 03 be
       -0.021299796 0.14116377 -0.034126617 -0.12842849
000100 44 51 60 3e 2a 18 22 bd 64 2b 20 3e c5 9a 44 be
       0.21906 -0.039573826 0.15641552 -0.19199665
000110 23 2c 2d 3d 58 1e 0f 3e df d1 07 be 63 6c 2a 3c
       0.04227842 0.13976419 -0.13263653 0.010401818
000120 5f 01 77 3d 7c 4e 16 be 9f 50 d5 3c b6 f2 4b 3e
       0.060304042 -0.14678377 0.02603942 0.19916806
000130 d8 43 c6 bd a9 93 90 bc 27 18 0c bd dd 00 17 3d
       -0.09680909 -0.017648535 -0.03420272 0.036866058
000140 c5 ac f7 bc ac 60 fc bc 54 88 33 3d 9b 6b c2 bc
       -0.03023375 -0.030807815 0.043831185 -0.02373295
000150 90 25 06 3e d5 02 87 3d 62 8a 6d 3d be 02 30 be
       0.13100266 0.06592337 0.0579933 -0.17188546
000160 77 82 da ba b3 5e e8 3d 22 87 3b 3d 10 02 67 3d
       -0.0016670962 0.113461874 0.04578317 0.05639845
000170 6e ce 22 be a5 02 fe bd 74 7c 34 bd b6 cb 16 bc
       -0.15899059 -0.12402848 -0.044064 -0.009203842
000180 c7 e1 d4 bb 07 54 cd 3c 8b 57 63 bd e2 2a 5d ba
       -0.0064966413 0.025064481 -0.05550341 -0.0008436871
000190 7f 44 0d 3e 36 f2 f3 bc 71 ee 6d 3e 67 89 ad 3b
       0.1379566 -0.029778581 0.2323549 0.0052959207
0001a0 ca 23 01 3e a9 1a 51 3e 94 f3 1d bc 9a 5a a2 bd
       0.12611309 0.20420326 -0.009640593 -0.07927437
0001b0 a7 02 08 bc d5 28 9d bd ea 49 67 bd 93 be b6 3d
       -0.008301414 -0.07673804 -0.056466974 0.08923068
0001c0 34 7e bb 3d 42 d8 2d 3e 46 1a 40 3e f5 19 16 be
       0.09154931 0.16977027 0.18760023 -0.1465834
0001d0 67 2a 7f 3c fa 46 9d 3d 28 a3 69 bd 26 d7 c0 3d
       0.015574074 0.07679553 -0.057040364 0.09416036
0001e0 11 60 02 3e 69 3e 40 be df 5a 83 3e 5f c1 9a bd
       0.12731959 -0.18773808 0.25655267 -0.07556414
0001f0 56 dc 20 3e f4 30 47 be 57 d3 87 bc bc f0 1a 3c
       0.15709051 -0.19452268 -0.016580267 0.00945681
000200 4f 09 2b be 66 66 84 3d 5a d4 f1 3c d3 bf 0b be
       -0.1670277 0.064648435 0.029520202 -0.13647394
000210 f8 24 69 3d ae 13 4e be c9 b8 61 bd 6b b0 9c bc
       0.05692002 -0.20124695 -0.055107865 -0.019127091
000220 4b e1 26 bc c4 7b 35 3d ca 44 9c 3d d7 4a 07 be
       -0.01018555 0.044307485 0.07630308 -0.13212143
000230 a5 f7 ac 3d 71 f3 c0 bc 46 b5 58 3b 1c eb 2e 3c
       0.08445672 -0.023553582 0.0033067032 0.010676172
000240 e9 75 52 bc 52 c8 94 3d 41 a0 f9 bd 46 05 d1 3d
       -0.012845495 0.072647706 -0.12188769 0.10206084
000250 0d 3c 26 be 8c 07 bc 3d 21 11 e8 3a d3 99 ae 3d
       -0.16233845 0.09181127 0.00177053 0.085254334
000260 ea b7 25 3e ec b9 ba 3d 65 a6 01 be 34 07 0b be
       0.16183439 0.09117493 -0.1266113 -0.13576967
000270 51 81 02 3e 38 1c e2 3c 3c dd 63 bb 3c b7 aa bd
       0.12744643 0.027601346 -0.0034769317 -0.083357304
000280 88 11 f9 bd d4 b7 f4 3d 63 d2 f3 3d 22 c8 c3 bd
       -0.12161547 0.11949125 0.119053625 -0.09559657
000290 b8 41 73 3d 81 2d 25 3d 24 70 1c 3d b3 c0 ea bd
       0.059388846 0.0403266 0.038192883 -0.11462536
0002a0 03 e6 20 be c7 ae c4 3c 47 f6 09 bd 7d 3d f4 bb
       -0.15712743 0.024009122 -0.033682134 -0.007453619
0002b0 f3 0e 14 bc 00 b9 ed 3d 15 0d 7c 3e 17 54 0a bd
       -0.009036767 0.116075516 0.24614365 -0.0337716
0002c0 6c 08 a9 bd e5 19 bb bd 6b 8f 51 3d 83 06 40 3d
       -0.082535595 -0.09135798 0.051162165 0.04688121
0002d0 ca 30 d4 3d cf d3 2b 3e 67 b5 85 bb 8e cb 0e 3e
       0.10360868 0.16780017 -0.0040804627 0.13944837
0002e0 d7 69 87 3d 1d 27 76 3b 9e 1d d4 3d e3 ce 37 be
       0.06611984 0.0037559934 0.103572115 -0.17950015
0002f0 a1 4c 11 bd 2c 8e 01 be 16 23 90 3d 97 7f 88 be
       -0.03547347 -0.1265189 0.07037942 -0.26659843
000300 9f d5 c1 bd e6 7b d8 3d c1 56 e1 3c 49 eb 28 3c
       -0.09464573 0.10570507 0.027507188 0.010310003
000310 c5 fb a0 3d c2 4a 82 be 4d f0 ff 3d 57 4a 91 bc
       0.07860521 -0.2544766 0.124970056 -0.017735643
000320 9c 41 b8 3d 6b f9 45 bd f9 cd 91 bd 40 c2 a5 bd
       0.08996889 -0.048333567 -0.07119364 -0.08093691
000330 9b ec b3 3d 69 b3 eb 3d 31 38 1e 3e de b1 d3 bd
       0.08785363 0.11508829 0.15451123 -0.1033666
000340 67 5d 80 3e 63 3d 5b bc 57 7d 20 3c 52 77 83 3d
       0.2507126 -0.013381335 0.009795508 0.06419243
000350 e0 26 47 bb 9e 77 8f bd fe 96 0d be 0b 18 be 3c
       -0.0030388162 -0.07005237 -0.1382713 0.023204824
000360 de a5 0f be 5e ff 18 be d0 b2 93 3d a5 42 c3 3c
       -0.14028117 -0.14941165 0.0721184 0.02383549
000370 1a fc 97 3b b2 8b c8 3d aa 5c f2 3d 53 83 ec bc
       0.004638207 0.0979227 0.118340805 -0.028871214
000380 0c c9 9f 3d a2 f9 2f 3e d6 11 aa 3d 05 34 81 bd
       0.078020185 0.17185071 0.08304183 -0.0630875
000390 de ab 23 3d 04 44 7b 3d 3c b8 03 bd 9a f5 3f 3d
       0.039958827 0.06134416 -0.03215812 0.046865083
0003a0 8d 0b 2e 3d 1c 03 d9 bd 9e d3 41 3e aa 36 a6 3d
       0.042491484 -0.10596296 0.18928382 0.08115895
0003b0 82 8b 1f 3d 59 f9 73 3d c2 2c 6a 3d f9 9e 36 bd
       0.038951404 0.05956397 0.05717159 -0.044585202
0003c0 99 df ba bd a0 a9 43 be 17 3f 1f 3d bb 01 11 be
       -0.09124679 -0.19107676 0.038878527 -0.14160816
0003d0 ca 75 68 bc 70 38 c3 3d b4 0d 07 3e 45 41 78 3d
       -0.014188239 0.09532249 0.13188821 0.06060912
0003e0 8b 58 b7 3d ab cb e1 3d 22 fb 82 be 4d 58 0b be
       0.08952435 0.11025175 -0.25582224 -0.13607903
0003f0 1e 50 21 bd fe 53 12 be 94 9c bc bc c9 f3 de 3d
       -0.039383046 -0.14289853 -0.023023881 0.10886342

network.3.bias f4 [2]
000000 ec ae 6e bd 43 fa 5a 3e
       -0.058272287 0.2138453
