exomy/config/best_run_no_obstacles405k/checkpoints/123000_policy.pt (torch, 723582 bytes, 13 tensors)

log_std_parameter f4 [2]
000000 14 c8 6a bf d8 5e 1b bf
       -0.91711545 -0.60691595

network.0.conv.0.weight f4 [512, 5]
000000 20 e0 91 3e 1b db 33 be 83 41 d3 b9 ba 5e 88 bd
       0.28491306 -0.17564051 -0.00040293866 -0.06658693
000010 2b 01 2a 3e c8 96 08 3e ee 6d fd 3d 41 ba 15 3e
       0.16602008 0.13338768 0.12374483 0.14621831
000020 3d 9a 58 bd 47 4d 3c bc 63 02 fc bc c6 2f 7d bb
       -0.052881468 -0.011493034 -0.030762857 -0.0038633212
000030 80 50 04 ba ac 20 82 be 6b d7 6b 3d 56 54 b7 3c
       -0.0005047396 -0.25415552 0.057578485 0.022379082
000040 91 7f 8e bd 1c 6c 81 3e b6 ea 09 3d 26 2d 2e 3e
       -0.06957925 0.25277793 0.033671103 0.1700941
000050 71 a5 55 3d 66 b2 4a bc cd dc a8 3d 47 60 45 3e
       0.05215973 -0.012371635 0.082452394 0.19275008
000060 a9 d5 00 3e 4d d2 21 3e 78 27 ad 3e 54 45 97 ba
       0.12581505 0.1580288 0.33819175 -0.0011541047
000070 9a 64 48 be b5 db e3 bc a8 a7 90 be 37 4d 3d bc
       -0.19569626 -0.027814725 -0.28252912 -0.011554054
000080 5c c5 32 3d fe 20 c1 bc c7 c3 78 bd 56 36 d2 3b
       0.043645248 -0.023575302 -0.060733583 0.0064151688
000090 40 24 09 bd 2a 53 46 3d cd be c2 3d 60 cc 96 bd
       -0.033481836 0.048419155 0.095090486 -0.073632
0000a0 4d e6 b2 3d 4b 39 91 be 6d e3 06 bd bf 67 11 bc
       0.08735333 -0.28364024 -0.032931734 -0.008874833
0000b0 3c 90 a7 bc ca ff 0e be 87 4d aa bd 6d 47 71 be
       -0.020454518 -0.13964763 -0.083155684 -0.23562403
0000c0 d1 c5 84 3d 5b c2 40 be 8b 0f 30 bd 8f 8c bb 3e
       0.06483043 -0.1882414 -0.042983573 0.36630675
0000d0 5c 4f 90 3d 17 4a 24 3e b9 9a 41 3b 75 e7 ac bd
       0.070463866 0.16043888 0.0029541685 -0.084425844
0000e0 89 a4 15 3e 7d fb 86 bd 9e cd 09 3e 3e 35 90 bd
       0.14613546 -0.06590936 0.13457343 -0.07041405
0000f0 50 a3 72 3e f9 40 08 bd d6 62 ac 3d a7 0e e3 3c
       0.23695111 -0.033265088 0.08417289 0.027716948
000100 27 97 02 3e ae 96 4a 3e b9 f0 5f be da 28 ce 3c
       0.12752973 0.19784042 -0.21869172 0.025165964
000110 b0 a6 5e 3e 5f 97 03 3c 43 de ea bd 2a 03 42 3d
       0.21743274 0.008031695 -0.11468174 0.0473663
000120 41 54 cc 3d 1e a6 b2 3d 23 fd 1b 3e d0 5e 30 be
       0.09977008 0.087230906 0.15233283 -0.17223668
000130 b3 4b 8b 3e 97 7d 09 3d 7f 86 16 3e 4e e2 07 bd
       0.2720619 0.033567037 0.14699744 -0.033174805
000140 34 37 24 3e d9 ba ff 3e 92 0c e7 3c 8e 07 27 be
       0.16036683 0.4994724 0.028204236 -0.16311476
000150 7b 76 17 3e 63 28 03 be b6 df 71 3d ba 51 b2 3d
       0.1479129 -0.12808375 0.059051238 0.08706994
000160 a7 95 ff bd 03 47 46 3d e9 06 19 3e e6 a4 28 3e
       -0.12479716 0.048407566 0.14944042 0.16469154
000170 98 01 cc bd 32 69 f0 bc f3 a9 13 3d fe 8b b4 be
       -0.099612415 -0.029347036 0.036050748 -0.35263056
000180 b0 bb 93 be 5a 0d 57 bc 3b b1 b5 3d 39 64 19 bd
       -0.28854132 -0.013125742 0.08871695 -0.037449095
000190 91 6f 15 be 82 ba 09 3c 48 26 1a be 28 72 14 bc
       -0.1459334 0.008406283 -0.15053666 -0.00906042
0001a0 e5 cf 9f 3d 61 c8 9c be 04 b8 17 3e 79 96 ac bd
       0.078033246 -0.30621627 0.1481629 -0.08427138
0001b0 d5 80 87 be d7 fa 64 3e ba 5b 27 bd 71 0a ad bd
       -0.2646548 0.22361313 -0.04085896 -0.08449257
0001c0 de c3 22 3d ef ab 40 3d f6 d9 10 bc 8a 51 2d be
       0.039737575 0.04703897 -0.008841028 -0.16925636
0001d0 62 59 80 3e 16 e2 cd bb fb ce 14 bc 8c 9d 2c bd
       0.25068194 -0.006283055 -0.009082551 -0.042142436
0001e0 28 b0 a3 3e 55 4c 7a 3d 05 fc dc 3d 8f ee ea bc
       0.31970334 0.061107952 0.107902564 -0.028678207
0001f0 db 35 eb bd c5 9a ec bd 33 c8 91 be 23 7e 11 bd
       -0.114848815 -0.115529574 -0.28473052 -0.035520684
000200 fe 1d 00 3e 4d 96 89 bd db 1e 89 be d9 ec 20 3d
       0.12511441 -0.06718121 -0.26781353 0.039288376
000210 ee 23 1b 3e da 56 20 bd 37 bb 87 bc 59 11 c7 be
       0.15150425 -0.039145328 -0.016568763 -0.38880423
000220 fb 70 99 3e c9 ac a5 bd a7 d6 db bd 6f 47 90 bd
       0.2996901 -0.08089597 -0.10734301 -0.07044875
000230 37 47 1a 3e 59 bf d2 3d d1 93 5d bc e1 38 1f 3e
       0.15066229 0.10290403 -0.013524012 0.15549041
000240 73 0d 74 bc db 58 a5 3b 02 de 8e 3e e3 54 99 3d
       -0.014895785 0.005045993 0.27903754 0.07486894
000250 11 c8 82 3d e2 e6 1a bd 68 27 02 be 4f 44 0a 3e
       0.06385816 -0.037817843 -0.12710345 0.1350262
000260 8f 87 57 3d 92 48 21 be 63 ce 51 be 59 06 4e be
       0.052619513 -0.1575034 -0.20488887 -0.20119609
000270 e7 83 56 be 03 85 0d 3e 97 a0 55 3d 00 85 06 be
       -0.20948754 0.13820271 0.052155104 -0.13136673
000280 57 20 59 be bb 8d 33 be c8 3d 1b 3c 71 cd 26 be
       -0.21203743 -0.17534535 0.009475179 -0.16289307
000290 36 f2 c6 3d 81 62 3d be 0d f7 8d 3a 84 1c d6 bc
       0.09714167 -0.18494608 0.0010831073 -0.026136644
0002a0 1e 03 84 3c c3 c8 ba bd 4d a0 52 bc f5 48 b1 3e
       0.016114768 -0.091203235 -0.0128556015 0.34625974
0002b0 17 bb a5 3c 4a 62 71 bd 7b 31 f6 bc 93 c2 87 3e
       0.020230813 -0.058931626 -0.030052891 0.26515636
0002c0 0f 4e b8 3d 75 56 4b 3d 3e 2f 8d bd a7 cc 8e bd
       0.089992635 0.049643 -0.06893776 -0.06972628
0002d0 31 27 94 be e9 07 b0 3e 28 37 a4 bd ce 1f 1d be
       -0.2893615 0.34381035 -0.08018333 -0.15344164
0002e0 63 2a 61 3e 94 57 93 3e 21 19 97 3c ab 41 81 bd
       0.21988826 0.28777754 0.0184446 -0.06311353
0002f0 d7 34 37 3d 86 7f 84 3c f4 f0 d6 bd 4a 78 04 be
       0.044728126 0.01617409 -0.10495177 -0.12936512
000300 c1 e0 99 3d 57 ae 20 bd 7f 27 fe 3c 5a 85 1a bd
       0.075135715 -0.039228763 0.031024693 -0.03772483
000310 1a a3 07 bf f5 ac 86 bd 97 f2 ea bb 23 aa 03 3e
       -0.5298325 -0.06575958 -0.0071700322 0.12857871
000320 a2 a0 5c 3d 50 74 57 3e 45 12 09 3d 1d 93 ff 3d
       0.05386413 0.21040463 0.03346469 0.124792315
000330 59 a1 b4 3c 5f ff 03 be 92 76 8c be 9f 67 ff bb
       0.022049593 -0.12890385 -0.27434212 -0.007794335
000340 20 6a b8 bd 3e 77 9c bd ed 18 9c bd 58 42 38 be
       -0.09004617 -0.07639931 -0.07621942 -0.17994058
000350 f8 88 1c bd 34 04 97 bc b0 dc 52 be e8 2d 76 3e
       -0.03821656 -0.018434621 -0.20591998 0.2404095
000360 50 3e d0 3e b7 fc c2 ba 98 2f c5 bd 68 54 e1 3d
       0.4067254 -0.001487634 -0.096282184 0.11002427
000370 7b 8e 84 be 82 02 88 bd 98 cb 02 3e af 45 9d 3d
       -0.25889954 -0.06641103 0.12772977 0.07679307
000380 10 9b 38 be 06 60 f4 3d 01 eb 4a 3d 75 fd fc 3c
       -0.18027902 0.119323775 0.049540523 0.030882576
000390 01 43 5f bd be 71 a3 3d 02 3b 9a 3e 65 28 0b be
       -0.05450726 0.07980679 0.30123144 -0.13589628
0003a0 2e fe 6c bd 1b 27 82 bd bd 74 fa bd 59 8f 66 3e
       -0.057859592 -0.06355115 -0.12229297 0.2251562
0003b0 6b 75 49 bd 2d 46 1b bd 17 a7 a1 bd 29 5d 99 3d
       -0.049184244 -0.03790872 -0.07893198 0.07488472
0003c0 58 ad aa bd 9f 11 f5 3d 29 a2 db 3c fb 11 11 be
       -0.08333844 0.119662516 0.026810722 -0.14167015
0003d0 2b 44 84 bd 8e a1 76 be 59 79 a9 be e2 2e 8c 3c
       -0.064583145 -0.24085066 -0.33100393 0.0171122
0003e0 c9 31 32 bd e3 c5 3a bd 83 21 25 3e 0d 3f aa 3e
       -0.04350451 -0.045598876 0.16126065 0.3325123
0003f0 3b e3 0b 3e 0a 74 38 be 97 83 63 be c0 79 31 3e
       0.136609 -0.18013015 -0.22218166 0.173316

network.0.conv.0.bias f4 [512]
000000 6e 78 de 3d 4f a5 2b be 4e b5 7e bd b3 a7 0d bb
       0.10862814 -0.16762279 -0.062184624 -0.002161485
000010 e0 5b 9f be f5 ab a4 3c 56 5e 1e be cf c3 4b be
       -0.31124783 0.020101527 -0.15465674 -0.19898914
000020 24 74 00 3e 01 b0 97 ba fb a8 4c bd 21 23 c2 36
       0.12544304 -0.0011572839 -0.04996584 5.78574e-06
000030 0a 4c bf bd 02 22 9d 3c 6d 15 c1 bc c7 d8 bd 3d
       -0.09340675 0.019181255 -0.023569787 0.092698626
000040 25 37 2f bb 6d 87 f6 bd 86 63 2f 3b e8 75 6d 3d
       -0.002673575 -0.12037549 0.0026762201 0.057973772
000050 d8 53 39 3e a2 30 8b 3d 36 96 21 be 41 f0 69 3d
       0.1809839 0.06796385 -0.15779957 0.05711389
000060 70 b5 2f 3e bb fa a2 3d ea 7b 21 3d ed c8 57 3d
       0.17159057 0.07957979 0.039424814 0.052681852
000070 8f ae 22 be c7 ba b9 bd 24 e0 66 3c ec 17 e3 bd
       -0.15886901 -0.09068828 0.014091525 -0.11088547
000080 87 9d 13 3e 5e 2d 12 3d ec 6f 80 3d c8 fb 2d 3c
       0.1441556 0.035687797 0.062713474 0.010619111
000090 bb 1b fa bb 61 07 18 bc 78 6e ed bb 41 ef 02 3d
       -0.0076327003 -0.009279103 -0.007245835 0.03196645
0000a0 5f 86 e2 3d 7e cb 10 3e 17 bb a4 bd 6c c9 17 3d
       0.110607855 0.14140126 -0.08043497 0.037057325
0000b0 08 71 37 be 84 7d 32 3e dc 7a 88 3c 88 48 47 bd
       -0.17914212 0.17430693 0.016660146 -0.048653156
0000c0 c4 4d a1 3d 88 22 aa 3d b8 25 2b bd ff 89 03 3d
       0.07876161 0.083073676 -0.04178402 0.032114025
0000d0 66 c4 88 3d 9f 02 16 3e 9f 65 a7 3d 13 43 20 3e
       0.06678085 0.14649437 0.081736796 0.15650587
0000e0 fe 6d 5b 3c 50 eb 05 3c a7 63 cb 3c aa 15 37 be
       0.013392923 0.008173779 0.024827791 -0.17879358
0000f0 f1 76 9c 3d da 62 c2 3c 4b 14 5c 3e 5a 51 f4 3d
       0.07639874 0.023728777 0.21492116 0.11929579
000100 d3 a1 81 3e ef d5 a1 bb ba bf af 3d 8b e8 7e 3d
       0.25318775 -0.004938833 0.08581491 0.06223349
000110 88 a2 46 bd cd a1 d8 3d 4a c9 70 3c d9 63 97 3c
       -0.048494846 0.10577736 0.014696429 0.018480228
000120 90 d8 8b bd 70 6d 1d bd 3b c9 a7 bd 53 c9 0d 3c
       -0.068284154 -0.038434446 -0.081926785 0.008653956
000130 0a 31 24 be a4 8b 97 bc 31 fe 64 bd 2e 1d 5f be
       -0.16034332 -0.018499203 -0.05590648 -0.21788475
000140 f1 3c 15 3e 38 a5 a0 3d 3f 37 35 bd 42 7b 54 3e
       0.14574029 0.07844013 -0.04424214 0.20750144
000150 ee 76 2d 3e 02 6d d0 3c c8 16 c0 3d 1c f9 c2 bc
       0.169399 0.025442604 0.09379345 -0.023800425
000160 e3 d4 b7 bc 57 1c 1f be 1d 0e e9 3c a4 2f f2 bd
       -0.02244038 -0.15538155 0.028449113 -0.11825493
000170 ce d2 5d 3d 1b 94 6b be 58 22 a3 bc 51 65 ed 3d
       0.054156117 -0.23005717 -0.019913837 0.1159159
000180 9e 4c 36 3e 34 4c f7 3d 3e be 29 bd 4c 75 f5 3a
       0.17802665 0.120750815 -0.041441195 0.0018726974
000190 61 0d dd 3d 47 90 ac 3d bd 49 14 3e de a6 21 be
       0.107935674 0.08425956 0.14481254 -0.15786311
0001a0 06 fe 3d 3d 56 22 e5 3c 1c eb 9a bd a5 7c 47 bb
       0.046384834 0.027970474 -0.07564375 -0.0030439284
0001b0 9e 35 91 bd 95 8a b1 bd 7c 26 bb 3c c7 96 b6 3c
       -0.07090305 -0.086690105 0.0228455 0.022288693
0001c0 1e a9 6c bd 43 8a ea 3d 27 5f 6a 3d 99 69 01 be
       -0.05777847 0.114521526 0.05721965 -0.12637939
0001d0 d3 82 c5 3d 0c 98 39 bd fc aa e9 3c 50 0f 20 3d
       0.09644093 -0.04531102 0.028523915 0.039077103
0001e0 c3 c0 b9 bd b4 a4 88 3c 7c 59 a5 3d 2f 9a d7 bc
       -0.090699695 0.0166801 0.080737084 -0.026318638
0001f0 c4 20 fc bd 68 5a 0a be bb c1 11 be aa 9a b9 3d
       -0.12310937 -0.1351105 -0.14234059 0.09062703
000200 a9 b7 97 bd 40 e7 de 3d 8e 2a ee 3c 51 90 bf bd
       -0.07408077 0.10883951 0.029073026 -0.09353698
000210 d6 2d 13 bd ca 95 f9 3c bb 1f 80 3d ec 73 e6 3c
       -0.035932384 0.030466933 0.06256052 0.028131448
000220 df 34 a7 bb 9c de 13 3c 23 1b 1f 3d e3 44 3a bc
       -0.0051027383 0.009025242 0.03884424 -0.011368963
000230 a5 96 24 be 09 1a 2e be b4 da a9 3d 34 7c 90 bd
       -0.16073091 -0.17002119 0.082936674 -0.0705494
000240 00 5f a8 3c 32 68 26 3d ba 55 6d bd 38 f1 e8 bd
       0.020553112 0.040626712 -0.057943083 -0.11374134
000250 7e 58 66 3d 07 2c 6f bc fb a2 98 3c 9b 31 f3 bb
       0.056236736 -0.014597899 0.018632403 -0.007421685
000260 fb 1b 4e be bd c2 60 bd 51 e6 e1 bd 61 59 03 3e
       -0.20127861 -0.054873217 -0.110302575 0.12827064
000270 30 bd b2 3c 3e 65 95 3d 85 48 81 bd 78 25 b6 bd
       0.021818727 0.07294701 -0.0631266 -0.08893865
000280 e9 dd 58 bd 2e cf 18 3d 9f 7c ac bd 60 16 56 3e
       -0.052946005 0.037306957 -0.08422207 0.20906973
000290 25 c6 3d bd ff bc 11 3d 75 8d 8a 3d 72 0c 64 3e
       -0.046331543 0.03558063 0.06765262 0.22270373
0002a0 d1 54 df bb 61 bb 6f be 95 6c 71 bd f2 74 12 be
       -0.006815531 -0.23411323 -0.058941443 -0.14302424
0002b0 71 81 6e 3e 1b 4a 40 be 7b 8a c2 bd 41 d7 87 bd
       0.23291565 -0.18778269 -0.09499069 -0.06632853
0002c0 1f 7a ab bc 32 27 76 3a a7 37 26 bb b8 41 85 bc
       -0.020932255 0.0009389996 -0.0025362761 -0.016266689
0002d0 63 1c b4 bc e0 98 cc 3d be 14 8d bd 50 d4 4b be
       -0.021986192 0.09990096 -0.06888722 -0.1990521
0002e0 4a 0c 22 be 42 1d 85 3d c9 ca 13 bd 0e 90 20 be
       -0.15825 0.06499721 -0.036082063 -0.15679953
0002f0 31 21 08 3e 54 8f 2b be 3a 3f bb 3d 86 d0 ca bd
       0.13293912 -0.16753894 0.09142919 -0.09903054
000300 c7 33 f6 bd 79 e8 15 be d5 33 5e bd c7 b9 29 3e
       -0.120215945 -0.14639463 -0.05424865 0.16574775
000310 00 90 3b be 9e 37 77 3d 2f 4c e6 3c f2 c6 9d bc
       -0.1831665 0.060355775 0.028112499 -0.019259904
000320 90 42 23 3d aa 1e 77 be 69 ff 93 3c 48 7d 06 bd
       0.0398584 -0.24132791 0.018066125 -0.03283432
000330 3d 81 19 bb d7 2e 5b 3d 17 97 cc 3d 52 ac 9d bd
       -0.002342298 0.053511467 0.099897556 -0.07698883
000340 36 7b f4 bd 3d b2 c7 bd 24 fb 82 be e3 7e 21 be
       -0.11937563 -0.09750793 -0.2558223 -0.1577106
000350 a6 0f 62 bd 97 85 12 bd c4 b3 db 3d b3 ea f5 3d
       -0.055190705 -0.035771932 0.10727647 0.12007656
000360 d7 91 0a 3e 77 18 0b 3e f0 d3 b0 3d e6 9b d4 bd
       0.13532196 0.13583551 0.08634174 -0.10381298
000370 0f 69 9a bd e8 5a 23 bd 19 d1 2e be 49 9e 58 be
       -0.075395696 -0.039881617 -0.17071952 -0.21154131
000380 bf af 32 be 6a 30 6f 3d 28 0c 15 bd 3c c0 cb bd
       -0.17449854 0.05839578 -0.036388546 -0.09948775
000390 6b e4 11 be 84 e8 a3 3d 08 5a 27 be 54 51 e1 3c
       -0.14247291 0.08003333 -0.16342938 0.0275046
0003a0 af da 70 be 8d 1f f9 3d 14 27 1a be 19 61 4c be
       -0.23520921 0.12164221 -0.1505397 -0.19958915
0003b0 3b e6 f5 3d d6 b3 0b bc 79 a7 f6 bd 88 b0 6b 3d
       0.120068036 -0.008526763 -0.120436616 0.0575414
0003c0 89 17 47 3d 72 56 d4 3d 81 e2 2c be 65 8c f4 3b
       0.04860643 0.10368051 -0.1688328 0.0074630254
0003d0 5e 90 a4 3c fd 3d 7c bb 19 92 4d 3d 59 34 98 3d
       0.02008837 -0.0038489096 0.050188158 0.074318595
0003e0 47 06 6a 3d 2c b8 0b be 29 d0 a2 3b 35 32 be bd
       0.057134893 -0.13644475 0.0049686623 -0.0928692
0003f0 97 e2 b7 bc 5a f6 ca 3c 20 07 10 be 79 61 fa bd
       -0.022446914 0.024775673 -0.14065218 -0.12225623

network.1.conv.0.weight f4 [256, 512]
000000 2e f8 72 3d 47 f9 2f be 12 9b 78 bd a1 7c c6 3c
       0.059318714 -0.17184936 -0.06069476 0.02422935
000010 fb 51 e3 ba 42 18 cc bd ee 5f d0 bd e5 0d 37 bd
       -0.0017343158 -0.09965564 -0.10174547 -0.044690985
000020 06 40 24 3c 9f 93 a6 bd 0e 72 26 be 73 18 57 3d
       0.01002503 -0.08133625 -0.16254446 0.05251355
000030 05 7d 1a 3e 85 a9 21 bd df 8a d0 bd 0d 4f ab 3e
       0.15086754 -0.039468307 -0.101827376 0.33458748
000040 d1 4c 5e be 86 9a d3 3c 32 dc bb 3c b2 86 49 3e
       -0.2170899 0.025830518 0.022932146 0.19680288
000050 1d 8e e9 3d 26 9d 89 3e e1 4e c0 3d 9e a4 30 bb
       0.11404059 0.26877707 0.09390045 -0.0026953588
000060 69 4c 2c 3e 63 39 47 bd 29 66 41 3e 87 c2 ec 3d
       0.16826023 -0.048638713 0.18886627 0.11560541
000070 90 b1 0b be ed 89 89 bc d6 8a 1f be 52 22 b4 bc
       -0.13641953 -0.016789401 -0.15580305 -0.021989021
000080 bb 9f f6 3d 6e be d7 3c 43 73 b3 3b 57 14 83 3d
       0.12042185 0.026335921 0.0054763868 0.06400364
000090 8e db ba bd fc 1b 45 be 3b 6d 1d bd 69 15 44 be
       -0.09123908 -0.19248956 -0.03843425 -0.19148792
0000a0 a0 d4 e7 3c 1d 39 9a 3e 22 d6 00 3e d2 f4 b3 be
       0.02829963 0.301217 0.12581685 -0.3514772
0000b0 a4 6b db 3d 08 ca 55 bd 42 be 5b bd 54 94 d3 bd
       0.1071389 -0.052194625 -0.05364824 -0.10331026
0000c0 f0 cf fe 3c c1 c6 14 3c 26 b8 f6 3c 0e e3 a6 bd
       0.031105012 0.00908059 0.030117106 -0.08148776
0000d0 81 ba e3 3d 7d bc a6 3d 0d db 8e 3e c4 4f 27 bd
       0.11119557 0.0814142 0.27901497 -0.040847555
0000e0 8e ee 8d be 64 33 55 be eb 1d 34 be 29 f8 3e be
       -0.27721065 -0.20820385 -0.17589538 -0.18649353
0000f0 f8 3c 0d bd 48 99 d3 3d ab 86 7b bc be 12 0d bd
       -0.034481972 0.103319705 -0.015351932 -0.034441702
000100 ea dd bf 3c 9b 18 86 be f5 dc ad bc c1 1c 77 3d
       0.023421247 -0.26190647 -0.021223525 0.060330156
000110 45 f2 2e bd 6b 3c 1e 3d 59 31 ce 3d 05 3d 4d bd
       -0.042711515 0.038631838 0.10068006 -0.05010702
000120 1e 25 8e 3d a4 36 81 3e 0e 27 2f 3d 6d 1f 47 be
       0.06940673 0.25237 0.042761855 -0.19445582
000130 cb 71 34 be e8 97 8d b9 02 f9 c0 3d 57 7b 04 3e
       -0.17621534 -0.00027006795 0.094224945 0.12937675
000140 8a 7b a3 3c 85 8e b9 bd cd 41 61 be 8e 0b 0c 3e
       0.019956369 -0.090603866 -0.21997757 0.13676283
000150 53 cd f2 bd 6d e9 e9 3d 99 e3 76 be 22 0e 39 bd
       -0.11855569 0.114214756 -0.24110259 -0.045179494
000160 79 f5 0d 3e 90 78 8f 3e 66 3f 49 3e 8d e9 b4 3d
       0.13863172 0.2802167 0.19653091 0.08833609
000170 20 a6 a3 3e b8 53 2f be f8 02 47 3d 46 59 f1 3b
       0.3196268 -0.1712178 0.048586816 0.0073653786
000180 16 c1 92 bd 20 79 11 3e e0 0e 98 bb 89 30 2a be
       -0.071657345 0.14206362 -0.004640445 -0.16620077
000190 1e 6f f0 3d 85 07 79 bc 34 b4 a8 3d 65 e2 bb bd
       0.11739944 -0.015199547 0.08237496 -0.09174041
0001a0 b5 59 59 3e f2 88 3b bc 1f 5f f9 bd 76 bf 4f 3c
       0.21225627 -0.0114462245 -0.12176346 0.012679925
0001b0 eb a6 7c 3e 42 d9 00 3e b6 54 5b 3e dc 5d 99 3c
       0.24673049 0.12582877 0.21419033 0.018721513
0001c0 d4 89 8f 3c 73 85 db 3d 6e cc 78 3e 18 cc 02 bd
       0.017521776 0.10718813 0.24296734 -0.03193292
0001d0 66 01 c3 3d 74 6f 2b be cf 11 8e bd 05 7d 28 3d
       0.09521751 -0.16741735 -0.069369905 0.041134853
0001e0 a8 b3 22 bd 7f 60 74 3e 69 cc c9 bd ae f1 13 bd
       -0.039722115 0.23864935 -0.09853441 -0.036119156
0001f0 6a f3 da bd c7 2c 89 be 16 c3 89 be 02 2b 95 3c
       -0.10690959 -0.26791975 -0.2690665 0.018208984
000200 b2 97 e7 3c ad 0b c9 bb 32 b9 4e 3e 2b 6b 94 bb
       0.028270576 -0.006135425 0.20187834 -0.004529377
000210 cf 19 8c bb c0 53 1b bd 62 0c e8 bd 3b 3b 1a 3d
       -0.0042755376 -0.037921667 -0.11330487 0.037654143
000220 b9 fb 3f 3d 86 a5 50 3d 8c 14 00 3d 2c 62 5c 3c
       0.04687092 0.050939105 0.031269595 0.01345114
000230 4b 38 bf 3c 1f d9 a4 3c 7d 39 63 be 5b 0a e7 3d
       0.023342272 0.020123063 -0.22189899 0.11281272
000240 e0 7d 86 3d 9d 95 d8 bd 74 7c c4 bd 1b 31 d0 bc
       0.065669775 -0.105754115 -0.0959405 -0.02541404
000250 62 f5 24 3e ed f2 de bc 21 5a 9a bb c2 25 56 bd
       0.16109231 -0.027215445 -0.0047104512 -0.052282102
000260 db ce 73 3d d3 11 0a 3e ee 2c 41 3c cc 96 2d 3d
       0.059523445 0.13483362 0.011790497 0.04238014
000270 0b 3b 38 3e ca 01 e0 3d 00 54 eb bd a3 6f d9 bb
       0.17991273 0.10937841 -0.11490631 -0.0066356226
000280 73 7c 0f bc 35 0d c5 bc 0b 2f 7b 3c d0 b1 8c 3d
       -0.008757698 -0.02405415 0.01533104 0.068698525
000290 98 dd 03 be cd 03 32 3e f8 dd bb 3d 5b 29 f0 3d
       -0.128775 0.17384262 0.091731966 0.11726638
0002a0 83 ae 1c bd c7 c1 78 bd f5 fa e8 ba 7f 67 c9 bd
       -0.038252365 -0.060731675 -0.0017774986 -0.098341934
0002b0 08 b6 26 3e 8a b7 61 bd 59 2e 92 3d fa 2f 0a be
       0.16280377 -0.055106677 0.07137746 -0.13494864
0002c0 bc 75 9d bd bf 45 19 3e fc fc da 3d f5 9c 08 bc
       -0.07688472 0.14968012 0.10692784 -0.008338203
0002d0 43 14 c8 bd 64 dc 26 bc 78 ab 36 3d f1 e8 b7 bd
       -0.097694896 -0.010184381 0.04459712 -0.08979977
0002e0 7f 6d 1b be 0b f0 d6 3d 1e 81 94 3d 77 c3 55 bd
       -0.15178488 0.10495003 0.0725119 -0.052188363
0002f0 4e 46 e1 ba a2 28 b4 3d 94 c4 90 3d 97 4e 3a be
       -0.001718709 0.087968126 0.07068744 -0.18194042
000300 4d ae 28 be f7 e8 60 3d a1 e0 60 3d 1d d1 13 3d
       -0.1647274 0.054909673 0.054901723 0.036088098
000310 7b 9c cf 3d 5e 07 11 bd 6c eb e8 3d e3 e6 57 bd
       0.10137268 -0.035407417 0.11373028 -0.052710425
000320 f5 d8 07 bd 28 b0 e6 bd b4 ce 6f 3c 3f 74 b2 bd
       -0.03316589 -0.11264068 0.014636684 -0.087135784
000330 8a 91 98 3d e6 c7 be 3d 6e 2e 2f 3e 33 a3 bc be
       0.074496344 0.09315471 0.17107555 -0.3684326
000340 73 59 17 3d cb 8b 60 be 22 49 a3 3b 5a e0 9b bc
       0.03695054 -0.21928327 0.0049830833 -0.019027878
000350 c1 e5 8d 3d ef 1b af 3c 55 db b1 bc ec 92 7a 3d
       0.06928588 0.021375624 -0.021711031 0.061175272
000360 cf fb 9b 3d 67 ed 0d 3e cd 19 a0 3d b0 85 9e 3c
       0.07616388 0.13860093 0.07817421 0.019350857
000370 26 bb c2 3d 1f a5 db 3c 18 83 ec bd 44 a1 fb 3c
       0.09508352 0.026812134 -0.11548442 0.030716546
000380 6e 39 23 be 82 48 dd bb 7a 7a a4 3d ea ac 32 be
       -0.15939876 -0.0067530284 0.08031173 -0.17448774
000390 59 ed 2e be 5c 37 d1 bd b8 b8 8e bc c5 a9 b3 3d
       -0.17082728 -0.10215637 -0.017422065 0.08772615
0003a0 00 eb 29 ba d2 c4 ae 3c de b3 ee bc 19 e6 b1 ba
       -0.0006481856 0.021334086 -0.029138502 -0.0013572603
0003b0 e3 02 e3 3c f4 e3 7e 3c 5b 0d bb bd b2 7f 0d 3d
       0.027711337 0.015557278 -0.09133407 0.034545608
0003c0 bd 2e 14 3d 15 17 0a 3e 30 cc ab bd 78 a2 9d 3d
       0.036177386 0.13485368 -0.08388555 0.07697004
0003d0 a9 38 01 bd c0 6f cb bd a1 a5 6a 3d cd 30 df bd
       -0.031548176 -0.09933424 0.057286862 -0.1089798
0003e0 e4 cf b4 bc d9 1c 9a be 57 c6 36 3c a9 34 07 be
       -0.022071786 -0.30100134 0.011155686 -0.13203682
0003f0 0b 7a 41 3e fb 52 0c be f0 ac 5e bd df e0 c6 3c
       0.18894212 -0.1370353 -0.054364145 0.024277149

network.1.conv.0.bias f4 [256]
000000 f4 d6 31 bd 62 be 3a 3b 82 10 24 3d d4 d7 59 3c
       -0.043417886 0.0028494825 0.040054806 0.013296086
000010 ec 9c f7 bb bf ce ac 3d 40 c8 41 3d c2 1f 83 3d
       -0.0075565483 0.08437871 0.047310114 0.06402542
000020 cd 0b 1f bd 3a c0 48 3d f3 7e 6f bc e2 b7 1b be
       -0.038829613 0.049011447 -0.014617669 -0.15206864
000030 0c 0d b2 3d 1b fc ca bd 41 1a d3 bd 6c 58 ce bd
       0.08693895 -0.099113666 -0.10307742 -0.10075459
000040 21 5e 20 bd 49 9c 5d ba fa e2 86 3d f1 37 4a be
       -0.03915227 -0.0008453769 0.06586261 -0.19747902
000050 7f 9a b1 bd 9d 87 4f 3e d7 37 9f bd 10 c0 19 bd
       -0.08672046 0.20266576 -0.077743225 -0.03753668
000060 16 5b 89 bd cd f8 f9 3b 87 19 2e be d4 95 c4 3c
       -0.067068264 0.0076285363 -0.17001925 0.023997225
000070 41 02 12 be 0f ab 0e bb 92 ea 09 be cb ca 7c 3c
       -0.14258672 -0.002176944 -0.13468388 0.015429209
000080 64 67 a5 bd f5 9d 4d be 29 07 6f 3e aa 68 68 bd
       -0.08076361 -0.20079787 0.23342575 -0.05674044
000090 bd cc 45 be 3e 82 5c 3b 1c ae 35 3c 40 6b 34 bd
       -0.19316383 0.0033646966 0.011088874 -0.044047594
0000a0 d2 2a dc bd 7b f5 fc bd 28 76 5c be 5e 8f ad 3d
       -0.10750355 -0.12351509 -0.21529448 0.08474611
0000b0 92 89 b9 3c 09 ed f6 3c 08 5b a9 bd 62 be 26 bc
       0.022648606 0.030142324 -0.08269316 -0.010177227
0000c0 3a 8d a6 bd 47 1f 96 3d 25 bb 53 bd 4b 36 e0 3d
       -0.081324056 0.073301844 -0.051692147 0.109478556
0000d0 e8 a1 8c bd f9 b6 89 bb 6e cf 8b bd 21 ca ff 3c
       -0.06866819 -0.0042027202 -0.068266734 0.031224312
0000e0 94 60 d0 3c 04 0f 66 3d d0 55 12 3d 9f 5b 1d 3e
       0.025436677 0.056166664 0.03572637 0.15366982
0000f0 4f a0 0d be 2f 3f 77 bd dd c4 5f bc 92 ab 56 3d
       -0.13830684 -0.06036299 -0.013657776 0.052409716
000100 dd 14 05 3d f7 05 06 3d 9c 1b 1d 3e 9f ef ef bc
       0.0324906 0.032720532 0.15342563 -0.029289065
000110 15 bf a6 bc 00 d9 3d bd 5e cf ce 39 07 0a b4 bd
       -0.020354787 -0.046349525 0.00039445882 -0.08790975
000120 a3 38 77 3d 73 c7 e8 bd d3 58 03 be 85 9c 83 ba
       0.060356747 -0.11366167 -0.12826853 -0.0010041153
000130 0a 43 d3 3c e8 33 0f 3d 3d a7 97 bb a6 c2 7e 3e
       0.025788803 0.03496161 -0.0046280907 0.2487894
000140 27 42 06 be a5 3f 28 3d 8d 4c 1d be 3a 5e 95 3d
       -0.13111173 0.04107632 -0.15361233 0.07293363
000150 1b 5f 34 be be 57 c2 bd d7 f6 88 bd 3b 4a 89 bd
       -0.17614405 -0.09489392 -0.06687706 -0.067036115
000160 cc d5 86 3d a9 8a 92 3c a9 3d 28 39 a4 53 2e 3e
       0.06583747 0.017888384 0.00016044699 0.17024094
000170 61 c3 bc 3d 6e a2 0c 3e 5e ec d0 3b 56 30 05 bc
       0.09216953 0.13733837 0.0063758334 -0.0081292
000180 1e 60 27 be d5 51 a9 bc 17 88 7f bc 93 d1 a6 3e
       -0.1634526 -0.020668903 -0.015596411 0.32581767
000190 16 41 10 3d 3d b1 37 bd fa 85 a3 3d df 8c 29 be
       0.03521832 -0.044846762 0.079845384 -0.16557644
0001a0 f9 fa 6e be 76 aa 6b bd f3 ba c8 3d c9 e5 30 be
       -0.23337926 -0.05753561 0.09801283 -0.17275156
0001b0 07 f5 0a 3d da 7e 96 bc 00 72 0e 3e eb 9b 30 be
       0.033925083 -0.018371034 0.13910675 -0.17246978
0001c0 ba 33 98 3d 69 e6 02 3e 9c 5a cc bd 27 c6 e4 3d
       0.07431741 0.12783207 -0.0997822 0.11170607
0001d0 9b 8d 92 3d 0b a1 fe bc a3 97 1f bd 76 a6 26 3e
       0.07155915 -0.03108265 -0.03896297 0.16274437
0001e0 9a 35 e0 3c 30 08 e9 bc 48 2e 00 3e 0b 52 c8 3d
       0.02736931 -0.028446287 0.12517655 0.097812735
0001f0 5e 0d ce bd 7a 99 06 bd 71 26 02 3e 39 15 6e be
       -0.10061143 -0.03286121 0.12709977 -0.23250283
000200 cb f3 23 bd de e0 86 bd a8 1a 2a be cc 32 25 3d
       -0.04002742 -0.06585859 -0.16611731 0.040331647
000210 07 c0 10 bd 85 5c 07 3d ad 70 5b 3c d8 45 5f bc
       -0.03533938 0.033047218 0.013393563 -0.013627492
000220 17 48 2a 3d a8 b7 7c bc b2 b4 74 bd 7f 70 c4 39
       0.041572656 -0.015424646 -0.059742637 0.0003746785
000230 7b ec 34 bc 99 bc 5b 3d c6 87 d9 bc 2d a9 05 3d
       -0.011042709 0.053646658 -0.026554 0.03263204
000240 e3 6e 5e 3d 02 85 9b 3c b1 5d 2e be ce a6 c0 3d
       0.05430497 0.018984322 -0.17027928 0.094068155
000250 f0 a9 12 3e ee 89 aa bd da 39 44 bd 9a 5b a9 bd
       0.14322639 -0.08327089 -0.047906734 -0.08269425
000260 6e 45 f9 3d 03 ba a4 3e 51 f3 97 3d 8a a9 90 bd
       0.12171446 0.32173166 0.07419456 -0.07063587
000270 a8 7e 81 bb b5 23 a5 3d 78 6b a2 3c 3f cc c9 bc
       -0.003951866 0.08063451 0.019826636 -0.024633525
000280 df 80 4a bc 3b ac a4 bd 2f be cb 3c 84 bf 46 3e
       -0.012359827 -0.08040663 0.02487096 0.19408995
000290 d0 e7 c3 bc b9 d8 f8 3d a0 9f b1 bb a0 f8 7e bb
       -0.023914248 0.121507116 -0.00542064 -0.0038905516
0002a0 cd 23 ae 3d 23 76 00 3e bd fa a9 3d 29 2f c7 bd
       0.08502922 0.12545066 0.08299778 -0.09725792
0002b0 c1 bd b1 3c 77 37 34 be 8c 8f 3e 3d bd 40 10 be
       0.021696927 -0.17599283 0.046523616 -0.14087196
0002c0 2a 8f 9e bc 39 93 bb bd 39 df 87 bc d0 39 81 3d
       -0.019355375 -0.0915894 -0.016585933 0.06309855
0002d0 83 4d b6 3b 2b 90 98 bc f0 b8 8e 3c 9b 70 01 be
       0.0055634393 -0.018623432 0.01742217 -0.12640612
0002e0 1c 47 88 bc 6c 60 b0 bd f3 73 60 3d ba 43 76 be
       -0.01663547 -0.08612141 0.054798078 -0.24049273
0002f0 c7 02 89 bd dd 49 04 3e e6 79 ca bd 04 69 04 3c
       -0.06689983 0.12918802 -0.098865315 0.008081678
000300 4c a6 51 bd a6 34 f1 bd 80 2a 20 be dc ef 99 3d
       -0.051183984 -0.1177762 -0.15641212 0.07516453
000310 60 12 a6 bd 25 ab ab 3d 00 f0 db 3d 3c a2 ac bd
       -0.081089735 0.083822526 0.10739136 -0.08429381
000320 d6 bc b6 bd f3 1c f0 3d b1 4a 1c be 7e 9d 17 3e
       -0.08922736 0.117242716 -0.15262868 0.14806172
000330 b3 3c cc bc 82 e9 92 bc 87 7d 41 be e8 ae 03 be
       -0.024931287 -0.01793361 -0.18895541 -0.1285969
000340 74 68 d9 bc a5 2d fa 3b 2c ad e6 3c 0d ef ed bc
       -0.026539065 0.007634836 0.028158747 -0.029044652
000350 52 05 1d be 99 42 9e 3b 80 ac 8f 3d 80 ae f3 3d
       -0.15334061 0.0048297164 0.07015324 0.118985176
000360 0d 73 1d be 73 28 09 3d dd 95 51 be 25 49 8f bd
       -0.1537592 0.03348584 -0.20467325 -0.06996373
000370 63 7e 99 3b f5 52 17 be 6f 71 55 be c6 5c ad bd
       0.004684256 -0.1477774 -0.20844053 -0.08464961
000380 45 f7 3e 3c 2c 57 2b 3a 41 b7 7a 3d 6b af 01 be
       0.011655633 0.0006536122 0.06120992 -0.12664573
000390 11 f8 57 3d 47 a9 34 3e f3 ea 0b 3e 7e 2a 1e be
       0.05272681 0.17642699 0.13663845 -0.15445897
0003a0 87 78 ce bc c6 2f 0a 3e 50 5f 9a bd 16 21 6f bc
       -0.025203956 0.13494787 -0.07537711 -0.014595291
0003b0 01 78 c0 bc fe cf 98 3d be 8e 4e bd e1 b3 4e 3e
       -0.023494722 0.07461546 -0.0504291 0.20185806
0003c0 a9 82 0d be a6 be 80 3d 67 da 05 be 8b 63 3e 3c
       -0.13819374 0.06286363 -0.13071595 0.011620413
0003d0 92 52 5c 3e 23 79 32 3d 0b 54 6a 3d be 7d 93 3a
       0.21515873 0.043572556 0.057209056 0.0011252684
0003e0 14 8a b3 bd 5d 86 8a bc 6b c2 83 be e0 6b dc bc
       -0.08766571 -0.016909773 -0.25734267 -0.026906908
0003f0 08 b3 a8 3d 80 2b 01 3e 8a f1 a0 bd ab e7 c2 bd
       0.082372725 0.1261425 -0.0785857 -0.095168434

network.2.conv.0.weight f4 [128, 256]
000000 b1 57 4d 3d 45 b9 78 3c 15 de 92 bc 82 6e ea 3c
       0.050132457 0.01518089 -0.017928163 0.028617147
000010 c2 63 57 bd 02 33 b7 3d 02 89 67 3e c9 95 4c 3e
       -0.05258537 0.08945276 0.22610858 0.19979014
000020 22 0b b7 bd 52 f7 94 bb 60 ef e0 bd 2f 41 50 bd
       -0.0893767 -0.0045460844 -0.10983157 -0.050843414
000030 26 0d 09 3d 9f a3 cd 3d 21 ae bb 3d c5 48 c4 bd
       0.033459805 0.10040974 0.09164072 -0.09584192
000040 a5 c3 b4 3e c3 81 e6 bd 67 28 5b bd f4 5b 91 3d
       0.35305515 -0.11255219 -0.053505328 0.07097617
000050 c7 ec bc 3d 5d 19 b4 bc 2f 3b a1 3d 03 e1 e9 3d
       0.09224849 -0.02198475 0.078726165 0.11419871
000060 3e 77 3e be 7a ec 88 3e cb 9a 08 be b0 e3 9f 3d
       -0.18600175 0.26742917 -0.13340299 0.078071
000070 5d 99 34 3e ec 27 fa bd ac cb 42 3d 53 04 58 be
       0.17636628 -0.12214646 0.047557518 -0.210954
000080 7d 21 15 be be 75 2b be a4 f1 9a 3d 67 7d 9e bd
       -0.14563556 -0.16744134 0.075656205 -0.07738762
000090 b6 9c a5 bd d9 28 27 3c a5 69 ee 3d 4f 59 53 bd
       -0.08086531 0.01020261 0.11641244 -0.051598843
0000a0 ac d0 b9 3d 65 06 9f bd fa 26 11 3c 8e 82 bc 3d
       0.09073004 -0.077648915 0.00885939 0.09204589
0000b0 eb e5 f5 bd ae 05 bb bd e4 db 4f 3e 6d f4 31 3d
       -0.12006744 -0.09131943 0.20298725 0.043445993
0000c0 31 da 50 be 06 99 f6 3d 58 6e 3d be 18 30 16 bd
       -0.20395733 0.12040906 -0.18499124 -0.03666696
0000d0 9d b3 bc bc 34 2b b5 bc 0a b4 9d 3c 65 bf 0a bd
       -0.023034865 -0.022115327 0.019250888 -0.033873934
0000e0 d4 59 20 bd 3d b0 43 bd 7e da 55 be d3 a8 1b be
       -0.039148167 -0.047775496 -0.2088413 -0.1520112
0000f0 55 7d 76 3d e1 50 a9 bd 61 28 2d 3e e7 b5 ad bd
       0.06017812 -0.082673796 0.16909935 -0.08481961
000100 83 cf 77 39 b1 b8 d7 3d fb e4 a1 bd e0 dc c3 bc
       0.0002363306 0.10533274 -0.07905003 -0.023909032
000110 d6 5e 4d be e7 7a fa bc 89 1d ca bd d7 2d c8 3d
       -0.20055708 -0.030576183 -0.09868915 0.09774368
000120 d2 92 98 bd 93 6e d7 ba 22 e7 e1 bd ab 76 38 bd
       -0.07449879 -0.0016436152 -0.11030413 -0.045035046
000130 54 11 07 3d ca fc 5e 3d 83 cb 2f 3e 20 f2 e6 bd
       0.03297551 0.054440297 0.17167477 -0.112766504
000140 f1 29 8b be eb ec 15 3e 52 8c ee bc ab 05 94 3b
       -0.27180436 0.14641158 -0.029119644 0.0045172772
000150 38 37 35 bd d5 26 de 3d 98 51 3f bd d4 f5 15 3d
       -0.044242114 0.1084725 -0.046708673 0.036611393
000160 a2 8b 97 bd cd e9 17 bd 9c 80 1d 3d a2 8a a4 3d
       -0.0739968 -0.037088204 0.03845273 0.080342546
000170 c1 80 04 be bf ab b8 bb 6d 4e 91 bd 5c b8 73 3d
       -0.1293974 -0.005635708 -0.07095037 0.05950199
000180 da bc ab bb 18 78 03 3a 5d ff 18 3d 75 59 2b 3e
       -0.0052410187 0.0005015149 0.03735291 0.16733344
000190 81 39 b2 3d 7a 83 ec 3d 9f e0 52 bd 43 94 30 3d
       0.08702374 0.11548515 -0.051483747 0.043110143
0001a0 06 62 89 3d 36 da be 3d a3 3e ae 3c d8 60 58 3d
       0.067081496 0.09318964 0.021270102 0.052826732
0001b0 d1 d2 1b 3d 1a 0e 3c be b2 e1 aa bd 80 8e c4 3d
       0.038042847 -0.18364754 -0.08343829 0.09597492
0001c0 b8 c8 e0 bd bd 94 7f 3b 2c 14 95 3d 9a 9c 6d bd
       -0.10975784 0.0038998567 0.07279238 -0.058010675
0001d0 21 c9 d1 3b 84 f5 86 be 62 bf e2 3c 34 5b c9 bb
       0.0064021503 -0.2635919 0.027679149 -0.0061449055
0001e0 ad 60 d0 bd 58 70 3d be 9b 44 1d be 5e 2a 94 bd
       -0.101746894 -0.18499887 -0.15358202 -0.072346434
0001f0 8f 46 bf 3c 58 7c e3 3b ab 12 92 bd 82 c2 de 3d
       0.023349075 0.006942313 -0.07132467 0.10876943
000200 f1 6d bc 3d 5a 7f 0a 3e c8 7f 2e 3e 1f bc 10 be
       0.09200657 0.13525143 0.17040932 -0.14134263
000210 07 a1 9c bd 57 96 05 3e cb 33 a5 bd 5e cb 91 3d
       -0.07647901 0.13045631 -0.08066519 0.07118867
000220 b9 15 0b 3d 45 ea 09 bc 2f 72 f7 bb a5 91 7f 3d
       0.033956263 -0.008417671 -0.0075514535 0.062394757
000230 ba 00 50 3d e4 c4 ce 37 94 75 64 bd c3 e9 fd bd
       0.050781943 2.4648798e-05 -0.055776194 -0.12398102
000240 b7 5c a4 3c d7 9c 2b be fb 4b 81 3d 73 4b f3 bc
       0.020063741 -0.16759048 0.0631332 -0.029699063
000250 39 a4 e8 bd 64 90 96 bb b6 03 71 bb a1 0d 26 be
       -0.11359448 -0.0045948494 -0.0036775894 -0.16216137
000260 68 77 6d bd c9 c4 be bd 52 2e 5e 3d c2 93 ab 3d
       -0.057975203 -0.093148775 0.054243393 0.08377792
000270 21 f1 2e 3e 40 e9 b6 bd 1a 86 f0 3c 0d f0 15 be
       0.17084171 -0.08931208 0.02936082 -0.14642353
000280 b0 58 4d 3e 03 d4 f1 39 82 1d 2c 3e bd f5 54 bd
       0.20053363 0.00046125063 0.16808131 -0.051992167
000290 cc 45 87 bd 18 06 d7 bd 42 a6 a9 3d 0a c1 ee bd
       -0.066051096 -0.10499209 0.08283664 -0.11657913
0002a0 c5 88 6f bc e3 72 f6 bd 5e 50 81 bd 69 1d a9 bd
       -0.014620011 -0.12033632 -0.06314157 -0.08257563
0002b0 6c 27 d4 3c 93 be a4 bd 37 88 fb 3d 4c 17 2d bd
       0.025897704 -0.08044162 0.1228184 -0.042258546
0002c0 0d 8a dd bd 78 5f 00 be 42 dc 04 3e 68 c2 94 3d
       -0.10817347 -0.12536418 0.12974647 0.072636425
0002d0 a5 9b 52 3d 7c d7 cf bd 0d f3 ae 3d f3 15 7c bd
       0.051417965 -0.10148522 0.08542452 -0.06154437
0002e0 3c 2a 36 bd 41 0a 89 bd 6f 47 de bd 45 12 65 bd
       -0.04447387 -0.06691409 -0.108534686 -0.055925626
0002f0 2d 1f 23 bd 45 a2 32 3d 61 98 cb 3d 0f c6 a3 bd
       -0.039824653 0.043611784 0.09941173 -0.07996761
000300 b4 7b 23 3e ec 38 4b be ce fb 62 be 4b 82 2d be
       0.15965158 -0.19845933 -0.22166368 -0.16944234
000310 d8 46 f0 3d d2 64 a8 3d 40 54 f0 3d 34 fb c7 bd
       0.117322624 0.08222355 0.117348194 -0.0976471
000320 f5 74 0b 3e 78 8e 4e 3d e6 13 da 3d 41 e2 98 3c
       0.13618834 0.050428838 0.106483266 0.018662574
000330 8c 07 8e 3c 36 30 7b bd 4b 9c ad 3c 23 21 15 3e
       0.017337583 -0.061325274 0.02119269 0.14563422
000340 07 b4 9e bd 02 16 ee bc ec 62 33 be 26 b6 a9 bd
       -0.07749181 -0.029063229 -0.17518204 -0.08286695
000350 4c 59 c8 3c 08 04 d5 bd ce 55 09 be 8f 50 6f 3d
       0.024456643 -0.104011595 -0.13411638 0.058426436
000360 c1 fd 34 be 47 87 6a 3d 2e 71 76 be 64 e5 05 3e
       -0.17674924 0.057257917 -0.24066612 0.13075787
000370 58 3a c5 bd ba cb f4 bd 17 ed 9b 3d cd f9 90 be
       -0.09630269 -0.1195292 0.07613581 -0.28315583
000380 83 6f 42 be 09 0f ce bc ac 9c 06 bc 6c 25 05 be
       -0.18987851 -0.025153654 -0.008216064 -0.13002557
000390 99 ab 15 bd f5 d0 c4 bd fe 85 4f bd 56 f1 fb bd
       -0.0365406 -0.09610168 -0.050664894 -0.123018906
0003a0 6a 9f cc 3c 5b cb a2 3d 56 95 85 3d 73 2a 26 bd
       0.024978358 0.07948943 0.06522624 -0.040567826
0003b0 80 0b 9c bc 1b 4a 1c be 66 72 9d 3e 3f 90 b9 bd
       -0.019048452 -0.15262644 0.30751342 -0.09060716
0003c0 87 e4 ed bd 95 5f 83 bd 8c 4a 48 be cc 67 b9 bd
       -0.11615854 -0.06414715 -0.19559687 -0.09053001
0003d0 91 cc 8f bd b2 b2 c8 3d 04 f9 6b bd 9e f4 a6 bc
       -0.0702144 0.097997084 -0.057610527 -0.020380314
0003e0 83 ac 94 bb 7c 0f 51 3e 7e a6 39 3e 18 1f 05 be
       -0.0045371666 0.20416063 0.18129918 -0.13000143
0003f0 d4 92 50 3d 48 af 36 3b e5 aa 4a 3d e1 24 93 bd
       0.050921276 0.0027875472 0.049479384 -0.071847685

network.2.conv.0.bias f4 [128]
000000 e0 f8 2d be 8f ed 0f 3d b4 3a 09 be 83 01 03 3e
       -0.1698947 0.035138663 -0.134013 0.12793545
000010 73 3b 0e be c8 35 25 be a6 91 1a 3e 6f 43 49 3d
       -0.13889866 -0.16133797 0.15094623 0.049136575
000020 d0 81 c0 bc 9e a1 01 3d a7 7c 17 3d 79 17 a1 3d
       -0.0234994 0.03164827 0.036984112 0.07865805
000030 99 0f 3a 3d cf 58 2a 3e 71 8b d3 bc d3 53 9a 3d
       0.04542503 0.1663544 -0.025823327 0.075355195
000040 bd a2 98 3d 95 af 5c bc 56 80 9e bd 63 28 82 be
       0.07452915 -0.013469596 -0.07739322 -0.25421438
000050 a6 6d 98 bd 6f ef af 3c ea d9 0f 3d 8f f3 8f bd
       -0.07442789 0.021476476 0.03511993 -0.07028877
000060 89 b3 8a bc 3f fa ec bd cc b5 ed 3c 18 54 b0 bd
       -0.016931312 -0.11571168 0.029017352 -0.086097896
000070 68 e4 12 bd 7c b7 df bb c7 46 1e 3e 3d af 25 be
       -0.035862356 -0.006827293 0.15456687 -0.1618013
000080 5d 3c 3d bd 52 77 5b be 37 b1 34 bd d0 b9 ba 3c
       -0.046200145 -0.21432236 -0.044114318 0.02279368
000090 f2 76 5c bd c6 61 45 be e7 da 30 3d 41 72 17 bd
       -0.053824373 -0.19275579 0.04317751 -0.036974195
0000a0 bd d4 8b bd 85 ef b6 3b 81 a8 ec 3c c4 e3 c1 bd
       -0.06827686 0.005582752 0.028888943 -0.09467271
0000b0 27 90 d4 bd 15 7d 97 3d 99 c9 ec 3d 12 74 b6 bd
       -0.103790574 0.073969044 0.11561889 -0.089088574
0000c0 b3 0f 41 be 5e cc 5f 3d d7 a7 85 bc 89 d0 83 3d
       -0.18853645 0.05463826 -0.016315384 0.06436259
0000d0 7c 96 70 bd a0 e1 ed 3d 58 72 ad bb 9e 64 d8 3d
       -0.058737263 0.116153 -0.005293172 0.10566066
0000e0 3f 27 2a 3d a2 b4 17 bc e8 9f 1a be 4b 46 8b be
       0.041541334 -0.009259375 -0.15100062 -0.27202067
0000f0 fd 0a 8a be 31 cc f8 3b 59 5a aa bd 18 a8 26 3e
       -0.26961508 0.007592701 -0.08318014 0.1627506
000100 70 1a 6c 3d 41 65 2f 3e b0 af 2e be 0a ee 50 3e
       0.0576424 0.17128469 -0.17059207 0.20403305
000110 9f 62 9a bc bd db 0d 3c be 4a 58 bd c3 80 da bd
       -0.018845854 0.008658347 -0.052805655 -0.106690906
000120 0d 6c 52 3e 1a 5a dd 3c 64 ff b3 3d af 6f 1a 3d
       0.2054903 0.027020503 0.08788946 0.037704166
000130 10 af da bd cf 26 da 3d 75 41 06 3e 22 b7 8f 3d
       -0.10677922 0.106519334 0.13110907 0.07017352
000140 82 49 ef bb c4 43 24 be 2e 03 1f bc 94 df 3b 3e
       -0.007302464 -0.16041476 -0.009705348 0.18347007
000150 26 78 bd bc 03 ab 02 3d 63 9d c9 bd 14 25 b1 3d
       -0.02312858 0.03190137 -0.09844472 0.0864965
000160 8f 30 11 3d c1 ce e0 3d f0 41 b0 bc 90 96 66 be
       0.0354467 0.10976935 -0.021515816 -0.22518373
000170 0c c9 f5 bd 1f c5 b9 bd e7 60 2e 3d e5 08 15 bd
       -0.12001237 -0.09070801 0.042572882 -0.036385436
000180 13 eb e8 bc 69 8a e9 bd 34 15 f2 3d 29 9a f0 3d
       -0.028432405 -0.11403353 0.118204504 0.11748154
000190 3c bc dd bd 1d 30 9b bd ca 93 09 3c c2 dc e1 3d
       -0.108269185 -0.07577536 0.008397052 0.11028434
0001a0 2c 80 08 ba eb 1d 8d 3d 54 17 d5 bd a7 59 ee 3c
       -0.00052070874 0.06890472 -0.1040484 0.029095484
0001b0 79 f4 55 be 58 74 13 be 4e 02 44 be c1 32 fe 3c
       -0.2089404 -0.1439985 -0.19141504 0.03103006
0001c0 8a 1f 22 bb 3d 58 bd 3c 65 ef 88 bb 40 50 d6 bd
       -0.0024738037 0.023113364 -0.0041789287 -0.10464525
0001d0 15 cf 59 be 9c 78 f5 bd d6 12 7f bd 97 17 31 bc
       -0.21270402 -0.11985895 -0.062273823 -0.010808847
0001e0 f6 c7 a5 3c b6 5d 8d be ce 4b 55 3c 02 77 41 be
       0.02023695 -0.27610558 0.0130185615 -0.18893054
0001f0 c5 a4 86 bd c4 d0 48 be d8 ce 24 3d 7e b1 0a bd
       -0.06574396 -0.19610888 0.040236324 -0.033860676

network.3.weight f4 [2, 128]
000000 b9 41 1f bd 4d 73 17 3d 0f 95 04 be 07 8f 8f 3d
       -0.038881037 0.036975194 -0.12947486 0.07009702
000010 c2 2e 60 3c d0 d9 24 be 24 cf 57 3e 34 3e 76 bd
       0.013683023 -0.16098714 0.21075112 -0.060117915
000020 09 3e 9d 3d 77 b6 3d 3d 16 42 67 3c 9c 99 66 bd
       0.07677848 0.04631659 0.014114877 -0.056298837
000030 57 44 bf 3d e3 96 72 bd 09 37 d8 3c 98 6d 3a bc
       0.09339207 -0.059225928 0.02639343 -0.011378668
000040 e6 0f 12 be bb d3 2d 3c 32 03 00 be 7a 30 22 3e
       -0.14263877 0.0106095625 -0.12501219 0.15838805
000050 1f b4 4a 3c 10 b1 9e 3b b0 e3 cb 3c b9 9b e8 bd
       0.012372046 0.004842885 0.024888843 -0.11357827
000060 14 41 4b 3e 20 42 f5 bd 11 b3 ea 3c 3c d2 26 3d
       0.19849044 -0.11975503 0.028649839 0.04072784
000070 63 9e 3a bc c1 35 e5 3d cd a6 c1 3c 8b 4f b4 3d
       -0.011390301 0.11191893 0.023639107 0.08804234
000080 eb 65 04 3e 0c 09 35 be ff e5 35 3d 0d c6 41 3e
       0.12929504 -0.17679232 0.044408794 0.18923207
000090 81 6d a0 3c a6 e7 7a be 9e 7c 55 be 77 79 02 be
       0.019583466 -0.2450243 -0.20848319 -0.12741648
0000a0 56 3a 20 3e 73 bc 93 3d ed d0 96 3c da a5 4f 39
       0.15647253 0.07213678 0.01841017 0.00019802843
0000b0 62 7b d8 3d a5 dd bd bd f3 7f fa 3d f0 84 82 3d
       0.105704084 -0.09270791 0.122314356 0.06373012
0000c0 1f 27 2a be 72 89 74 bd 2d f2 5c 3d 24 bd d2 3d
       -0.16616486 -0.05970139 0.053941894 0.10289982
0000d0 e3 c7 f5 3d 6d 7f 6d bd 13 2e f3 bc e0 e6 32 be
       0.12001016 -0.05798285 -0.029685056 -0.17470884
0000e0 b2 b4 2d 3d ee be e1 bb a6 4f f5 3d 59 66 32 bd
       0.042408653 -0.0068892157 0.11978082 -0.043554638
0000f0 e9 7c ae bc 5f 32 16 3e 5a c8 0b bd a4 3d fb bd
       -0.021299796 0.14667653 -0.034126617 -0.122676164
000100 d2 cb 65 3e 11 cf 1e bd a3 09 23 3e 92 0e 41 be
       0.22441033 -0.038771693 0.15921645 -0.18853214
000110 12 e2 10 3d 4c ce 15 3e df d1 07 be 4c 3e 1c 3c
       0.035371847 0.14629477 -0.13263653 0.009536337
000120 8f f4 74 3d 7c 4e 16 be 8b 54 0d 3d 4e 11 50 3e
       0.05980354 -0.14678377 0.034504455 0.20319101
000130 c8 9d bf bd 93 eb 6a bc cf e7 03 bd 20 57 16 3d
       -0.09356266 -0.014338392 -0.03220349 0.036704183
000140 08 58 fe bc ac 60 fc bc a2 b4 35 3d 4e 46 a3 bc
       -0.031047836 -0.030807815 0.044361718 -0.019930985
000150 bb 90 0f 3e c6 64 95 3d 94 74 8c 3d ba 84 2f be
       0.14020054 0.07294612 0.06858173 -0.17140475
000160 ce 98 fd 3b fb 88 fd 3d 76 d1 0c 3d 32 1f 63 3d
       0.007739163 0.123796426 0.034379445 0.055449672
000170 03 34 1e be a5 02 fe bd 08 f0 37 bd b6 cb 16 bc
       -0.15449528 -0.12402848 -0.044906646 -0.009203842
000180 db 3d d7 bb 24 91 ce 3c 18 8f 5b bd e2 2a 5d ba
       -0.006568653 0.025215693 -0.05360326 -0.0008436871
000190 82 65 14 3e 36 f2 f3 bc 32 4a 71 3e 65 bc 09 3c
       0.14491847 -0.029778581 0.2356346 0.008406733
0001a0 ef 7f 07 3e 2f 8b 58 3e e0 f6 9c bc 9a 5a a2 bd
       0.13232397 0.21146844 -0.019160688 -0.07927437
0001b0 9b db a0 bb d5 28 9d bd ea 49 67 bd 8c a8 c9 3d
       -0.0049089915 -0.07673804 -0.056466974 0.09846601
0001c0 c5 de cf 3d e2 12 34 3e c8 d5 3d 3e f8 15 11 be
       0.10149912 0.17585328 0.18538582 -0.14168537
0001d0 45 2f bd 3c 51 cc 9d 3d 9d f2 82 bd 98 f3 c3 3d
       0.023093829 0.07704986 -0.06393931 0.09567946
0001e0 11 60 02 3e 69 3e 40 be 5c c9 86 3e 5f c1 9a bd
       0.12731959 -0.18773808 0.263255 -0.07556414
0001f0 bc 20 23 3e f4 30 47 be 57 d3 87 bc c4 a8 41 3c
       0.15930456 -0.19452268 -0.016580267 0.011820022
000200 75 1f 1f be b7 df 8f 3d 5a d4 f1 3c 19 0e 08 be
       -0.15539344 0.07025092 0.029520202 -0.13286628
000210 ed e0 5d 3d ae 13 4e be 59 52 58 bd 6b b0 9c bc
       0.054169584 -0.20124695 -0.052812908 -0.019127091
000220 b7 77 fc bb 7c 36 a3 3d bc a5 9e 3d c4 12 fc bd
       -0.007704701 0.079693764 0.07746455 -0.12308267
000230 de 62 aa 3d 0c 9f 99 bc 63 54 15 3b 69 d4 00 3c
       0.08319639 -0.018752597 0.0022785894 0.0078631425
000240 e9 75 52 bc 1d 37 9b 3d 41 a0 f9 bd b1 b8 d2 3d
       -0.012845495 0.075788714 -0.12188769 0.10289133
000250 8b 09 1d be aa 7e b8 3d 81 07 72 3c d3 99 ae 3d
       -0.15335672 0.09008534 0.014772297 0.085254334
000260 3c 8e 20 3e dd 02 a3 3d e4 df e2 bd f9 6e 00 be
       0.15679258 0.079595305 -0.1107786 -0.12542333
000270 bd af fc 3d 09 0a e4 3c 9c 1e 10 bb 0f 2b 9d bd
       0.12338207 0.027836816 -0.00219909 -0.076742284
000280 6a d1 e5 bd 58 c8 fc 3d 7a 5e 07 3e 67 b6 ab bd
       -0.11221583 0.123429 0.13219634 -0.083844
000290 14 d5 75 3d 81 2d 25 3d 24 70 1c 3d b2 76 eb bd
       0.06001766 0.0403266 0.038192883 -0.11497249
0002a0 85 f2 1f be 14 b3 8d 3c d7 5d ee bc 07 23 ee bb
       -0.15619858 0.017297305 -0.02909748 -0.007267359
0002b0 52 28 c9 ba 3b 0d f9 3d b4 0b 7c 3e 25 a3 09 bd
       -0.0015347099 0.12160727 0.2461384 -0.033602852
0002c0 6c 08 a9 bd c7 62 cb bd 6b 8f 51 3d 0f 89 4e 3d
       -0.082535595 -0.0993095 0.051162165 0.050423678
0002d0 4a a0 dd 3d 8d 1c 2f 3e 67 b5 85 bb 2b 08 11 3e
       0.10821588 0.17100735 -0.0040804627 0.14163272
0002e0 16 ba 86 3d cf 12 23 3b e4 e9 d3 3d e3 ce 37 be
       0.06578462 0.0024883037 0.103473455 -0.17950015
0002f0 a1 4c 11 bd 67 fe f7 bd 16 23 90 3d 5c 46 85 be
       -0.03547347 -0.1210907 0.07037942 -0.26030242
000300 c9 84 a6 bd 2f b8 d6 3d ae 2b c1 3c e3 b7 7a 3c
       -0.081307955 0.10484349 0.023580398 0.015302631
000310 fa 50 8f 3d e8 61 7e be 4d f0 ff 3d 9b 55 87 bc
       0.06997867 -0.24842036 0.124970056 -0.016520312
000320 35 06 b6 3d 6b f9 45 bd 27 6e 82 bd 36 69 9e bd
       0.08887903 -0.048333567 -0.06368666 -0.07734911
000330 74 67 be 3d ae d7 fa 3d db 98 2a 3e 96 12 cb bd
       0.09297076 0.12248169 0.16659872 -0.09915654
000340 d0 20 84 3e 63 3d 5b bc 82 8d 8a 3c 24 dd 8e 3d
       0.25806284 -0.013381335 0.01691318 0.06975773
000350 c9 0a ad 3b f8 64 72 bd 3e 07 0a be 11 1c bc 3c
       0.0052808267 -0.059178323 -0.13479325 0.022962602
000360 48 68 01 be a5 8a 10 be 73 c9 9c 3d 5d ce be 3c
       -0.12637436 -0.14115389 0.07655611 0.023291761
000370 d1 56 bd 3b b2 8b c8 3d 68 a7 02 3e 53 83 ec bc
       0.0057781716 0.0979227 0.12759173 -0.028871214
000380 57 9b 9f 3d 4a 30 31 3e 00 01 ae 3d 05 34 81 bd
       0.077933006 0.17303577 0.084962845 -0.0630875
000390 e5 6e 33 3d 04 44 7b 3d 4c 3d d7 bc bf 4c 42 3d
       0.04380693 0.06134416 -0.026274346 0.047436472
0003a0 28 c7 3e 3d fb 03 cc bd 05 a1 46 3e aa 36 a6 3d
       0.04657665 -0.09961697 0.19397362 0.08115895
0003b0 32 41 23 3d 59 f9 73 3d c2 2c 6a 3d b6 13 28 bd
       0.039857097 0.05956397 0.05717159 -0.041034423
0003c0 6d 9a b2 bd c5 dd 3c be f3 17 3f 3d c1 f9 06 be
       -0.08720861 -0.18443973 0.0466537 -0.13181211
0003d0 d5 30 4e bc 30 c4 c8 3d 9a 17 0e 3e 59 13 82 3d
       -0.012584885 0.09803045 0.13876191 0.063513465
0003e0 8b 58 b7 3d ab cb e1 3d a8 ce 7b be 4d 58 0b be
       0.08952435 0.11025175 -0.24590552 -0.13607903
0003f0 d6 1a 31 bd fe 53 12 be 94 9c bc bc 1a ed ea 3d
       -0.043238483 -0.14289853 -0.023023881 0.11471005

network.3.bias f4 [2]
000000 20 d4 63 bd da 8d 62 3e
       -0.05562222 0.22124425
