exomy/config/best_run_no_obstacles405k/checkpoints/15000_policy.pt (torch, 723582 bytes, 13 tensors)

log_std_parameter f4 [2]
0	0xbe84c877	-0.25934193
1	0xbee68a10	-0.45027208

network.0.conv.0.weight f4 [512, 5]
0	0x3e4a0ad6	0.19730696
1	0x3c2e19c4	0.01062626
2	0xbcf46f7a	-0.029838312
3	0xbd885eba	-0.06658693
4	0x3e2a012b	0.16602008
5	0x3db9c615	0.09070984
6	0x3ce960a8	0.028488472
7	0x3e36970c	0.17831057
8	0xbd589a3d	-0.052881468
9	0xbc3c4d47	-0.011493034
10	0xbcfc0263	-0.030762857
11	0xbb7d2fc6	-0.0038633212
12	0xba045080	-0.0005047396
13	0xbe8220ac	-0.25415552
14	0x3d6bd76b	0.057578485
15	0xbcdcd85b	-0.026958635
16	0xbcbe3f80	-0.023223639
17	0x3e9a389b	0.30121312
18	0x3d09eab6	0.033671103
19	0x3e2e2d26	0.1700941
20	0x3d55a571	0.05215973
21	0xbc4ab266	-0.012371635
22	0x3da8dccd	0.082452394
23	0x3e456047	0.19275008
24	0x3e00d5a9	0.12581505
25	0x3dc519da	0.096240714
26	0x3e53ee11	0.20696284
27	0xbca92898	-0.02064924
28	0xbe48649a	-0.19569626
29	0xbce3dbb5	-0.027814725
30	0xbe960094	-0.29297316
31	0xbd518188	-0.05114892
32	0x3d9b3485	0.07578377
33	0xbcc120fe	-0.023575302
34	0xbd78c3c7	-0.060733583
35	0x3bd23656	0.0064151688
36	0xbd092440	-0.033481836
37	0x3d46532a	0.048419155
38	0x3dc2becd	0.095090486
39	0xbd96cc60	-0.073632
40	0x3db994cb	0.09061583
41	0xbdb59143	-0.08865597
42	0xbd5527e4	-0.052039996
43	0xbc1167bf	-0.008874833
44	0xbca7903c	-0.020454518
45	0xbd3ce876	-0.04612013
46	0x3d87ad82	0.06624891
47	0xbe91ca26	-0.2847454
48	0x3d84c5d1	0.06483043
49	0xbe40c25b	-0.1882414
50	0xbcef34b4	-0.029199935
51	0x3e6ebf10	0.23315072
52	0x3c9a6f99	0.018852042
53	0x3e244a17	0.16043888
54	0x3b419ab9	0.0029541685
55	0xbd781bda	-0.060573436
56	0x3d046c15	0.032329638
57	0xbdc72d52	-0.09725441
58	0x3e09cd9e	0.13457343
59	0xbd90353e	-0.07041405
60	0x3de2e73f	0.11079263
61	0xbcf6f78d	-0.030147338
62	0x3d998be8	0.07497388
63	0x3ce30ea7	0.027716948
64	0x3e029727	0.12752973
65	0x3decec65	0.11568526
66	0xbdc4e23e	-0.09613465
67	0xbca1b97f	-0.019741772
68	0x3e5ea6b0	0.21743274
69	0x3c03975f	0.008031695
70	0xbdc6198f	-0.09672844
71	0x3d11f783	0.035636436
72	0x3df5fff8	0.12011713
73	0x3db2a61e	0.087230906
74	0x3e1bfd23	0.15233283
75	0xbdb7ffc8	-0.08984333
76	0x3d9179df	0.07103323
77	0x3cc123ce	0.023576643
78	0x3e16867f	0.14699744
79	0xbd07e24e	-0.033174805
80	0x3e092683	0.13393597
81	0x3ec3909c	0.38196266
82	0x3c04f894	0.008115906
83	0xbe27078e	-0.16311476
84	0x3e17767b	0.1479129
85	0xbdf59990	-0.1199218
86	0xbc4c351f	-0.012463837
87	0x3df356ec	0.118818134
88	0xbdff95a7	-0.12479716
89	0x3d464703	0.048407566
90	0x3be13a75	0.0068734237
91	0x3dbbd1f5	0.091709055
92	0xbdf9029f	-0.12158703
93	0xbcf06932	-0.029347036
94	0x3d13a9f3	0.036050748
95	0xbe5101fb	-0.20410912
96	0xbe5ce1ec	-0.21570557
97	0x3d3ab242	0.045580156
98	0x3db5b13b	0.08871695
99	0xbd196439	-0.037449095
100	0xbcf37098	-0.029716775
101	0x3bc12e42	0.005895407
102	0xbe3a6976	-0.18204293
103	0xbc147228	-0.00906042
104	0x3d9fcfe5	0.078033246
105	0xbe220932	-0.1582382
106	0x3c034cc8	0.008013912
107	0xbde83c03	-0.11339571
108	0xbe8780d5	-0.2646548
109	0x3e64fad7	0.22361313
110	0xbd08b801	-0.033378605
111	0xbde59ee5	-0.11211947
112	0x3d906ac3	0.07051613
113	0x3d40abef	0.04703897
114	0xbc10d9f6	-0.008841028
115	0xbe0d8bb2	-0.13822821
116	0x3e408cf9	0.18803777
117	0x3ba8ef75	0.0051554986
118	0xbc14cefb	-0.009082551
119	0xbd2c9d8c	-0.042142436
120	0x3e710806	0.23538217
121	0x3c7caf71	0.015422688
122	0x3de08e69	0.109646626
123	0xbceaee8f	-0.028678207
124	0xbdeb35db	-0.114848815
125	0xbd45e85c	-0.0483173
126	0xbe13ca00	-0.14432526
127	0xbdc48e52	-0.09597458
128	0x3e001dfe	0.12511441
129	0xbd89964d	-0.06718121
130	0xbddfa34b	-0.109198175
131	0x3d2e0193	0.04248197
132	0x3e28aec4	0.16472918
133	0xbd2056da	-0.039145328
134	0xbc87bb37	-0.016568763
135	0xbe776a3a	-0.24161616
136	0x3ddb39d9	0.10704393
137	0xbdcf5c19	-0.10124988
138	0xbddbd6a7	-0.10734301
139	0xbd90476f	-0.07044875
140	0x3e132b14	0.14371902
141	0x3e11a4a8	0.14222968
142	0xbcdeb65c	-0.027186565
143	0x3e1f38e1	0.15549041
144	0xbc740d73	-0.014895785
145	0xbcc68915	-0.024235288
146	0x3e20abc6	0.15690526
147	0x3d8e74f1	0.069558986
148	0x3d82c811	0.06385816
149	0xbd1ae6e2	-0.037817843
150	0xbc95305e	-0.01821154
151	0x3e1a5b0e	0.15073797
152	0x3d4a495f	0.04938638
153	0xbe214892	-0.1575034
154	0xbe51ce63	-0.20488887
155	0xbe18e6ed	-0.14931841
156	0xbe4613aa	-0.19343439
157	0x3e1fb2a1	0.15595485
158	0x3d55a097	0.052155104
159	0xbe068500	-0.13136673
160	0xbe0b3092	-0.13592747
161	0xbdd204e3	-0.10254838
162	0x3c06e792	0.008233922
163	0xbe26cd71	-0.16289307
164	0x3dc6f236	0.09714167
165	0xbdd8c4c2	-0.105844036
166	0xbd4c1d2d	-0.04983251
167	0xbd6e8a5d	-0.058237422
168	0x3c84031e	0.016114768
169	0xbdbac8c3	-0.091203235
170	0xbd016038	-0.031585902
171	0x3e31b53a	0.17354289
172	0x3bb5ce29	0.005548258
173	0xbd71624a	-0.058931626
174	0xbcf6317b	-0.030052891
175	0x3e05e09f	0.13073967
176	0x3d68f11c	0.056870565
177	0x3d5e42a2	0.054262765
178	0xbd8d2f3e	-0.06893776
179	0xbd8ecca7	-0.06972628
180	0xbe5b8beb	-0.21440093
181	0x3e71c103	0.23608784
182	0xbdb32949	-0.08748109
183	0xbe1d1fce	-0.15344164
184	0x3e612a63	0.21988826
185	0x3e11c28b	0.14234369
186	0x3d832594	0.06403652
187	0xbdbe3823	-0.09288051
188	0x3d3734d7	0.044728126
189	0x3c847f86	0.01617409
190	0xbd82657f	-0.06367015
191	0xbcd7c793	-0.026340282
192	0x3da99380	0.082800865
193	0xbd20ae57	-0.039228763
194	0x3cfe277f	0.031024693
195	0xbc91c7be	-0.01779544
196	0xbe8e3298	-0.27772975
197	0xbda25d20	-0.079279184
198	0xbbeaf297	-0.0071700322
199	0x3e03aa23	0.12857871
200	0x3dafec21	0.0858996
201	0x3e037c7b	0.12840454
202	0x3d469526	0.048482083
203	0x3dff931d	0.124792315
204	0x3cb4a159	0.022049593
205	0xbd961975	-0.07329074
206	0xbe0af1a2	-0.13568738
207	0xbc9d6d2d	-0.019217098
208	0xbdb86a20	-0.09004617
209	0xbd9c773e	-0.07639931
210	0xbd67cbbb	-0.056590777
211	0xbde7ef54	-0.11324945
212	0xbc9469b4	-0.01811681
213	0xbc970434	-0.018434621
214	0xbe52dcb0	-0.20591998
215	0x3e08fec7	0.1337844
216	0x3e6da09a	0.23205796
217	0xbd02ce60	-0.031935096
218	0xbdc52f98	-0.096282184
219	0x3de15468	0.11002427
220	0xbe847a66	-0.25874633
221	0xbdb6c211	-0.08923734
222	0x3e23ad45	0.15984066
223	0x3d9d45af	0.07679307
224	0xbe389b10	-0.18027902
225	0x3dbcb491	0.09214128
226	0x3da4dc8c	0.080498785
227	0xbb9325e7	-0.0044906023
228	0xbd5f4301	-0.05450726
229	0x3da371be	0.07980679
230	0x3e28b731	0.16476132
231	0xbce76fcf	-0.028251557
232	0xbda8af49	-0.08236558
233	0xbd82271b	-0.06355115
234	0xbdfa74bd	-0.12229297
235	0x3d591972	0.053002782
236	0x3ccd801e	0.025085505
237	0xbda81dcf	-0.082088105
238	0xbda1a717	-0.07893198
239	0x3d995d29	0.07488472
240	0xbd839a5f	-0.06425928
241	0x3d42bd5b	0.047543865
242	0xbaeb58ab	-0.0017955502
243	0xbe1111fb	-0.14167015
244	0xbd84442b	-0.064583145
245	0xbe0a19b7	-0.13486372
246	0xbe5e7375	-0.21723731
247	0x3d9b4883	0.0758219
248	0xbd3231c9	-0.04350451
249	0xbd3ac5e3	-0.045598876
250	0x3d8ccc0e	0.06874858
251	0x3e6fae58	0.2340635
252	0x3e19df7b	0.15026657
253	0xbe38740a	-0.18013015
254	0xbe638397	-0.22218166
255	0x3dc0f7f4	0.09422293

network.0.conv.0.bias f4 [512]
0	0x3dca899f	0.098895304
1	0xbdee87c6	-0.116469905
2	0xbd7eb54e	-0.062184624
3	0x3da5a02c	0.08087191
4	0xbe9f5be0	-0.31124783
5	0x3c0cd059	0.008594596
6	0xbdde4dbb	-0.1085467
7	0xbe4bc3cf	-0.19898914
8	0x3dbf84dd	0.093515135
9	0x3d3ab36a	0.04558126
10	0xbe07595b	-0.1321768
11	0xbc49373b	-0.012281234
12	0xbdcc2f95	-0.09970013
13	0x3b367145	0.002783851
14	0x3d7aa2da	0.061190464
15	0x3dad24d6	0.084542915
16	0x3bf832b2	0.0075744027
17	0xbda2721e	-0.079319224
18	0x3d5eee80	0.05442667
19	0x3cc93e3a	0.024565805
20	0x3e45babe	0.19309518
21	0x3d76f370	0.060290754
22	0xbdfbb93f	-0.12291192
23	0x3d85f412	0.06540693
24	0x3e41c8ee	0.18924305
25	0x3de9d6e7	0.114179425
26	0x3da89bbf	0.08232831
27	0x3ce8994e	0.028393414
28	0xbe0e3ea2	-0.1389108
29	0xbda1ca42	-0.07899906
30	0x3d8093a1	0.06278158
31	0xbd9acd48	-0.075586855
32	0x3e379aba	0.17930117
33	0x3d7939e1	0.060846213
34	0x3db28c20	0.08718133
35	0x3d59a575	0.053136308
36	0xbcd84d20	-0.026403964
37	0x3d6928ee	0.0569238
38	0x3d3ee352	0.04660351
39	0xbda356f4	-0.07975569
40	0x3e10c7f0	0.1413877
41	0x3e072123	0.13196234
42	0xbd85b308	-0.06528288
43	0x3d2441be	0.04010176
44	0xbe09b888	-0.134493
45	0x3e509b9f	0.20371865
46	0x3d82f58d	0.06394491
47	0x3cd4f9d9	0.025998043
48	0x3e07af70	0.13250518
49	0x3d5113fc	0.05104445
50	0x3a651a59	0.0008739583
51	0x3d56ad44	0.052411333
52	0x3db27123	0.08712985
53	0x3e165844	0.14682108
54	0x3d3ff115	0.046860773
55	0x3e1cb125	0.1530195
56	0x3d071144	0.03297545
57	0x3d3972ca	0.045275487
58	0x3c752eca	0.014964769
59	0xbe023332	-0.12714842
60	0x3d953fbd	0.07287548
61	0x3c81660d	0.015795732
62	0x3e5acee6	0.21367988
63	0x3de6e5c8	0.11274296
64	0x3e845c70	0.25851774
65	0xbb9a9f0b	-0.0047186664
66	0x3d963dd1	0.07336009
67	0x3d2feb1b	0.042948823
68	0x3bc06d60	0.0058724135
69	0x3dc7a814	0.09748855
70	0x3d91da04	0.07121661
71	0x3ce34847	0.027744425
72	0xbd095071	-0.03352398
73	0xbc82d19b	-0.015969088
74	0xbd8f6c75	-0.070031084
75	0x3c9b8910	0.018986255
76	0xbe088ee8	-0.13335764
77	0x3d111a62	0.03542555
78	0xbd7454bc	-0.05965112
79	0xbe5f1d2e	-0.21788475
80	0x3e676e9d	0.2260079
81	0x3e03a7bd	0.12856956
82	0xbce060e3	-0.02738995
83	0x3e640165	0.22266157
84	0x3e52d007	0.20587169
85	0x3d22d459	0.03975329
86	0x3db5db45	0.08879713
87	0xbcf5bd9d	-0.029997641
88	0xbd18094e	-0.03711825
89	0xbe1a0148	-0.15039551
90	0x3cfdb982	0.030972246
91	0xbdcb2616	-0.09919374
92	0x3d5e064e	0.05420523
93	0xbe094770	-0.13406157
94	0x3d803de1	0.062618025
95	0x3e0e86b2	0.1391857
96	0x3e661ee3	0.2247272
97	0x3dfa8aa0	0.12233472
98	0xbd44fc2d	-0.048092056
99	0xbcd4a1e1	-0.025956096
100	0x3e09e046	0.1346446
101	0x3d83dac6	0.06438212
102	0x3e339961	0.17538978
103	0xbd8edc6f	-0.06975638
104	0x3cf7b698	0.030238435
105	0x3d5bd869	0.05367318
106	0xbd6f4fd6	-0.058425747
107	0x3d44dd5b	0.048062664
108	0xbda7565c	-0.081707686
109	0xbdc820d2	-0.09771885
110	0x3d19693a	0.037453867
111	0xbb56bee0	-0.003276758
112	0xbc504a10	-0.01271297
113	0x3de09fdf	0.10967993
114	0x3e040db7	0.12895857
115	0xbe0daad7	-0.13834701
116	0x3dd8b663	0.105816625
117	0x3c4bb6ee	0.012433751
118	0x3ce771b3	0.028252458
119	0x3c88393f	0.01662886
120	0xbd55106c	-0.052017614
121	0x3d02459a	0.03180466
122	0x3dd05dd1	0.10174144
123	0x3b9c1a2f	0.0047638635
124	0xbd438730	-0.047736347
125	0xbdbb2a6e	-0.09138952
126	0xbdd9ed9a	-0.10641022
127	0x3e0aa17a	0.13538161
128	0xbc1b5145	-0.009479825
129	0x3e23a65d	0.15981431
130	0x3d09834b	0.033572476
131	0xbd8039bf	-0.06261014
132	0x3d06804b	0.032837193
133	0x3d9825e4	0.07429102
134	0x3de808d9	0.113298126
135	0x3d1faf52	0.038985558
136	0x3ba59a90	0.0050538257
137	0x3d56ed51	0.052472416
138	0x3d43fbd4	0.047847584
139	0x3da4f9db	0.08055469
140	0xbdc69a2a	-0.09697373
141	0xbe21140f	-0.15730308
142	0x3de8b184	0.113619834
143	0xbd83bf47	-0.06432968
144	0x3bdcda36	0.00673988
145	0x3dbda7c9	0.09260518
146	0xbd7f9493	-0.06239755
147	0xbda02ee1	-0.078214414
148	0x3c7558e0	0.014974803
149	0x3c91797b	0.017758122
150	0x3cc10b78	0.023565039
151	0xbccea63b	-0.02522575
152	0xbe4e1bfb	-0.20127861
153	0xbbcd0e50	-0.0062578097
154	0xbd960441	-0.0732503
155	0x3e1cfbc9	0.15330423
156	0x3d31cc95	0.043407995
157	0x3d87f1e4	0.06637934
158	0xbc7f6d6e	-0.015590055
159	0xbd4da0f7	-0.050202336
160	0xbd7f8fc8	-0.06239298
161	0x3dc59c29	0.09648926
162	0xbdaa0871	-0.08302391
163	0x3e523975	0.2052973
164	0x3c0507e2	0.008119555
165	0x3d9c6451	0.07636321
166	0x3dee6d74	0.1164197
167	0x3e62ee53	0.22161226
168	0xbb7a3847	-0.0038180517
169	0xbe543f38	-0.20727241
170	0xbd484d32	-0.048901744
171	0xbd8be095	-0.06829945
172	0x3e7455b0	0.23860812
173	0xbe3c42e3	-0.1838489
174	0xbd7f58ff	-0.062340733
175	0xbc889cce	-0.016676333
176	0x3c25904e	0.010105206
177	0x3cd1641d	0.025560433
178	0x3bdd5f73	0.006755763
179	0xbb922454	-0.004459897
180	0x3c43c60c	0.0119490735
181	0x3e02bbef	0.12767003
182	0xbd71140a	-0.058857
183	0xbe1d0ed8	-0.15337694
184	0xbdff8819	-0.124771304
185	0x3db75f7e	0.089537606
186	0xbc990db3	-0.01868329
187	0xbe34d165	-0.17658003
188	0x3e2da90d	0.16959019
189	0xbe00e63d	-0.12587829
190	0x3d851283	0.064976715
191	0xbc875d12	-0.016523872
192	0xbe06e860	-0.13174582
193	0xbdeb4143	-0.11487057
194	0xbc86475d	-0.01639145
195	0x3e0776f1	0.13228966
196	0xbe292d53	-0.16521196
197	0x3d194e39	0.037428115
198	0x3d34bf56	0.044127785
199	0xbb34e6e6	-0.0027603447
200	0x3d16ce7b	0.03681801
201	0xbe61bcd8	-0.22044694
202	0x3cc396dd	0.023875648
203	0xbb66735b	-0.0035163972
204	0x38f0bad1	0.00011478889
205	0x3db5ddf4	0.08880225
206	0x3dc0c1b2	0.094119444
207	0xbd5ca778	-0.05387065
208	0xbd7c2acc	-0.06156425
209	0xbdbe2ece	-0.09286271
210	0xbe67a79e	-0.22622535
211	0xbd9decfb	-0.07711216
212	0xbbc8b795	-0.0061254003
213	0x3c298a0a	0.0103478525
214	0x3e3dcbd4	0.18534786
215	0x3dfc64ce	0.123239145
216	0x3e0f1e2c	0.13976353
217	0x3e132201	0.1436844
218	0x3de3fa47	0.11131721
219	0xbdba5805	-0.0909882
220	0xbdcdcdb6	-0.10049002
221	0xbcb7d0a4	-0.022438355
222	0xbe2ed119	-0.17071952
223	0xbe388b60	-0.18021917
224	0xbe01b360	-0.12666082
225	0x3d9c32ee	0.076269016
226	0xbc66d63f	-0.014089166
227	0xbdf49a07	-0.11943441
228	0xbe2538e9	-0.16134991
229	0x3e097dfa	0.13426962
230	0xbe20c2ca	-0.15699306
231	0x3d3727fb	0.044715863
232	0xbe43e012	-0.19128445
233	0x3e2a6059	0.16638316
234	0xbe1584d3	-0.1460145
235	0xbe051b8e	-0.12998793
236	0x3de4954b	0.11161288
237	0xbbcf9ccc	-0.0063358303
238	0xbdda2a19	-0.10652561
239	0x3dc6a605	0.096996345
240	0x3dd9603a	0.10614057
241	0x3e1cd270	0.1531465
242	0xbe0f006c	-0.13965005
243	0x3d9a5378	0.07535452
244	0x3c540cdb	0.012942518
245	0x3bab7a70	0.0052331015
246	0x3d988af7	0.074483804
247	0x3da16984	0.07881454
248	0x3db3c18b	0.0877715
249	0xbdc657c1	-0.096847065
250	0x3d0d21ac	0.03445594
251	0xbda5e301	-0.08099938
252	0xbba3dd60	-0.005000755
253	0x3ce75c3b	0.028242221
254	0xbdf2b1ed	-0.11850343
255	0xbde61dfd	-0.112361886

network.1.conv.0.weight f4 [256, 512]
0	0x3d927ad2	0.07152332
1	0xbe4c4561	-0.19948341
2	0xbd789b12	-0.06069476
3	0x3c7a651d	0.015282896
4	0xbae351fb	-0.0017343158
5	0xbdcb12f3	-0.09915724
6	0xbdc09ae1	-0.09404541
7	0xbd370de5	-0.044690985
8	0x388e0829	6.7726076e-05
9	0xbdde827e	-0.10864733
10	0xbdae1a2e	-0.08501087
11	0x3bc665da	0.006054622
12	0x3dc6f0a1	0.09713865
13	0xbb8ef2f2	-0.0043624574
14	0xbddd6846	-0.10810904
15	0x3ea0f544	0.31437123
16	0xbe274d27	-0.16338025
17	0x3c3cebe7	0.011530853
18	0xbba8dab6	-0.0051530255
19	0x3e20b47b	0.15693848
20	0x3dad4d72	0.08462037
21	0x3e5799f5	0.21054824
22	0x3db2bae3	0.08727052
23	0xbcc595ba	-0.024119247
24	0x3e3101b4	0.17285806
25	0xbd84454f	-0.06458532
26	0x3e3af671	0.18258072
27	0x3cee3d5b	0.029081991
28	0xbe16ea07	-0.14737712
29	0x3cdaf2e4	0.026727147
30	0xbe13bb97	-0.14427029
31	0xbd4d9e98	-0.050200075
32	0x3dcb918a	0.09939869
33	0xbcb57e27	-0.02215488
34	0xbbe3f6e4	-0.006956922
35	0x3d8ce97a	0.068804696
36	0xbe2873d8	-0.16450441
37	0xbe2eff20	-0.1708951
38	0xbd64de76	-0.055876218
39	0xbe0220fd	-0.12707897
40	0x3d040f40	0.032241106
41	0x3e915fe1	0.28393462
42	0x3e17f042	0.14837745
43	0xbeb32d97	-0.3499572
44	0x3db5a73f	0.0886979
45	0xbd72f584	-0.059316173
46	0xbc9a08cb	-0.018803021
47	0xbda3169d	-0.079632975
48	0x3c90886a	0.017643172
49	0xbcb29e3f	-0.021803973
50	0x3d1ed609	0.03877834
51	0xbdab97a0	-0.083785295
52	0x3db48b49	0.08815629
53	0x3db4a88a	0.08821209
54	0x3e8b9c82	0.27267843
55	0xbd32bcae	-0.04363697
56	0xbe8bd67c	-0.27312076
57	0xbe4afa1a	-0.19821969
58	0xbe1b8ff9	-0.1519164
59	0xbe019ada	-0.12656727
60	0xbd20cbde	-0.039256923
61	0x3cbcd10a	0.023048896
62	0xbcdf2047	-0.02723707
63	0xbd54ad96	-0.051923357
64	0x3c33ac12	0.010966318
65	0xbe87b139	-0.26502398
66	0xbae04c7e	-0.001711264
67	0x3d7f8ba8	0.062389046
68	0xbc565f83	-0.013084295
69	0x3d29df5c	0.041472778
70	0x3d970d03	0.07375529
71	0xbd51e718	-0.05124578
72	0x3d37cd09	0.04487327
73	0x3e500e8d	0.2031805
74	0x3d7809ad	0.060556103
75	0xbe15058f	-0.14552902
76	0xbe3e57d3	-0.1858819
77	0xbd2682cb	-0.040652078
78	0x3ccc7866	0.024959754
79	0x3e047b57	0.12937675
80	0x3caa53c3	0.020791894
81	0xbdb2b6b5	-0.08726255
82	0xbe801d99	-0.2502258
83	0x3e0d41a6	0.13794574
84	0xbe066d74	-0.1312769
85	0x3df3a612	0.1189691
86	0xbe8344ce	-0.2563843
87	0xbb97ea37	-0.004636075
88	0x3d93e933	0.072222136
89	0x3e925f8e	0.28588527
90	0x3e0f9cb0	0.14024615
91	0x3d437501	0.047719005
92	0x3e6f6150	0.23376966
93	0xbddeb7a7	-0.10874873
94	0x3d30dbda	0.043178417
95	0xbc7497ee	-0.014928801
96	0xbdb4538f	-0.08805
97	0x3e00a83d	0.12564178
98	0x3dec04a5	0.115243234
99	0xbe24a4d7	-0.16078506
100	0x3db95499	0.09049339
101	0xbd074a87	-0.03303006
102	0x3d5c92b1	0.053850833
103	0xbd8a0f77	-0.06741231
104	0x3e0a8763	0.13528208
105	0xbd549aa3	-0.051905286
106	0xbded154c	-0.11576328
107	0xbce5ecb7	-0.028066976
108	0x3e583a9a	0.21116105
109	0x3d183055	0.037155468
110	0x3e4b6d0e	0.1986582
111	0xbd884c9d	-0.06655238
112	0x3cb79298	0.022408769
113	0x3dd2ce1a	0.10293217
114	0x3e6bf713	0.2304347
115	0xbabb2a92	-0.0014279655
116	0x3d8ce23c	0.06879088
117	0xbe4de79c	-0.20107883
118	0xbd15dd18	-0.036587805
119	0xbd04ff35	-0.032469947
120	0xbd201cd5	-0.039089996
121	0x3e4f3ddb	0.2023844
122	0xbdb5bf4f	-0.0887438
123	0xbdc47cc0	-0.09594107
124	0xbdccacd8	-0.09993905
125	0xbe36dfe8	-0.17858851
126	0xbe20885c	-0.15677017
127	0xbc29e53c	-0.010369595
128	0x3cb2b683	0.021815544
129	0xbd467a93	-0.04845674
130	0x3ddaf4d8	0.106912315
131	0xbc38f93f	-0.011289894
132	0xbc5d6299	-0.013512277
133	0xbd42af7b	-0.047530632
134	0xbe0746b4	-0.13210565
135	0x3d30ac0a	0.04313282
136	0xbc2b813a	-0.010467822
137	0xb7e03c9b	-2.6731102e-05
138	0x3d1a7c1f	0.037716027
139	0x3c77f635	0.015134384
140	0x3c3813e1	0.011235208
141	0x3cf9a9c6	0.030476462
142	0xbe6e7ab3	-0.23288994
143	0x3df82894	0.12117115
144	0x3d274012	0.040832587
145	0xbde7ee7b	-0.113247834
146	0xbd9475d0	-0.072490335
147	0xbcc55f03	-0.024093157
148	0x3e1542d3	0.14576273
149	0xbd48c84b	-0.04901914
150	0xbc839a45	-0.016064772
151	0xbdaeb730	-0.08531034
152	0x3d73cedb	0.059523445
153	0x3dc7b385	0.097510375
154	0x3c6c6467	0.014428235
155	0x3c888af7	0.016667826
156	0x3e0e8040	0.13916111
157	0x3ddf3f37	0.10900729
158	0xbe0bbb8d	-0.13645764
159	0xbbfd7ff4	-0.0077362005
160	0xbd0fbab4	-0.035090163
161	0xbd4ecb74	-0.050486997
162	0x3d1d560d	0.038412143
163	0x3d728009	0.059204135
164	0xbe09b289	-0.13447012
165	0x3e2aed22	0.16692021
166	0x3d9e99b9	0.07744164
167	0x3dd625df	0.10456442
168	0xbdba9825	-0.091110505
169	0xbd02c4d9	-0.03192601
170	0x3c985474	0.018594958
171	0xbdfa6af4	-0.12227431
172	0x3e1ed341	0.15510274
173	0xbd16c7c6	-0.036811613
174	0x3d9729a8	0.07380992
175	0xbe0af3af	-0.1356952
176	0xbe00b238	-0.12567985
177	0x3e039e76	0.12853417
178	0x3dc3ede1	0.09566856
179	0xbda2775c	-0.07932922
180	0xbd59bcc7	-0.053158548
181	0xbce18b7c	-0.027532332
182	0x3d003ce5	0.031308074
183	0xbcaedd97	-0.021345897
184	0xbe314248	-0.1731044
185	0x3da1c953	0.07899728
186	0x3d9c8101	0.07641793
187	0x3ceffce2	0.029295389
188	0x3a59c591	0.0008307333
189	0x3d9fdcd7	0.07805794
190	0x3d9a7422	0.07541682
191	0xbe40d703	-0.1883202
192	0xbdd4ea59	-0.10396261
193	0x3d671948	0.056420594
194	0x3d141dff	0.03616142
195	0x3c9adaf3	0.018903231
196	0x3d9842ca	0.07434614
197	0xbda59347	-0.080847315
198	0x3d98aa79	0.0745439
199	0xbd71f2ff	-0.05906963
200	0xbd298887	-0.04138997
201	0xbe09fc81	-0.13475229
202	0x3cb8925e	0.02253073
203	0xbe24ca3d	-0.16092773
204	0x3e01df86	0.12682924
205	0x3d3d76cb	0.046255868
206	0x3e229212	0.15876034
207	0xbe7e1b07	-0.24814998
208	0x3d00210f	0.031281527
209	0xbe0377e9	-0.12838711
210	0x3c128512	0.008942859
211	0x3d59d8c3	0.053185236
212	0x3d170f2e	0.03687971
213	0xbcc01ef1	-0.023452254
214	0xbcedf55a	-0.029047657
215	0x3d5ba6a5	0.05362572
216	0x3ca10879	0.01965736
217	0x3ded46c5	0.11585764
218	0x3da12e05	0.07870106
219	0x3c416e14	0.01180603
220	0x3df8f142	0.12155391
221	0x3ce57cd3	0.028013622
222	0xbdec8318	-0.11548442
223	0x3d91588e	0.070969686
224	0xbe374657	-0.17897926
225	0xbca8dd29	-0.02061327
226	0x3dd3a695	0.103345074
227	0xbda29b58	-0.07939786
228	0xbe0f5db1	-0.14000584
229	0xbdc557b3	-0.09635868
230	0xbc8eb8b8	-0.017422065
231	0x3d3a381f	0.045463677
232	0xbba4e4d9	-0.0050321636
233	0x3c8a5a60	0.016888797
234	0xbce756d2	-0.028239641
235	0xbc75df9f	-0.015006929
236	0x3d0f3140	0.034959078
237	0xbd158ae9	-0.03650943
238	0xbdc8f43b	-0.09812208
239	0x3cf934b5	0.03042064
240	0x3cac4f46	0.021033894
241	0x3dd6cb30	0.10487974
242	0xbdb3511c	-0.08755705
243	0x3d9b260d	0.07575617
244	0xbc6ba556	-0.014382681
245	0xbd99338a	-0.074805334
246	0x3c9566cf	0.0182375
247	0xbdf4bc82	-0.119500175
248	0xbcdfcec5	-0.027320275
249	0xbe6c36f3	-0.23067836
250	0xbd34ab56	-0.04410871
251	0xbda5cab3	-0.080953024
252	0x3ded8cbd	0.11599109
253	0xbe2885c9	-0.16457285
254	0xbd81f28a	-0.06345089
255	0xbb71a1b1	-0.0036870057

network.1.conv.0.bias f4 [256]
0	0xbd6b236e	-0.057406835
1	0x3d182e9d	0.03715383
2	0x3d2a64c8	0.04160002
3	0x3cb45934	0.022015192
4	0xbb9de064	-0.004818009
5	0x3e22738f	0.15864395
6	0x3d41c840	0.047310114
7	0x3d82469a	0.063611224
8	0xbbcd242b	-0.006260415
9	0x3d3a62e0	0.04550445
10	0xbc4a0dd9	-0.012332403
11	0xbe178659	-0.14797343
12	0x3e138e15	0.14409669
13	0xbdf7f272	-0.1210679
14	0xbdb420a4	-0.08795288
15	0xbdc7ca0a	-0.09755333
16	0x3c83a322	0.016068999
17	0x3b802531	0.0039106836
18	0x3dc3b00e	0.09555064
19	0xbe3302cf	-0.1748154
20	0xbdb19a7f	-0.08672046
21	0x3e6852ff	0.2268791
22	0xbd50372e	-0.050833873
23	0xbcf23812	-0.029567752
24	0xbdb67145	-0.08908323
25	0x3c613ba4	0.01374713
26	0xbe2b4b3a	-0.16727915
27	0x3d58649d	0.052830327
28	0xbe120241	-0.14258672
29	0xbbd1427e	-0.0063861003
30	0xbe07ca96	-0.13260874
31	0x3c90a26f	0.01765558
32	0xbd886466	-0.066597745
33	0xbe41bcd1	-0.18919684
34	0x3e789725	0.24276407
35	0xbc005006	-0.007831579
36	0xbe518a17	-0.20462833
37	0xbca505be	-0.02014434
38	0x3c35ae1c	0.011088874
39	0xbd1a9b5d	-0.037745822
40	0xbdd76726	-0.10517721
41	0xbdea9d31	-0.11455763
42	0xbe5c7628	-0.21529448
43	0x3db283d6	0.08716552
44	0x3cb98992	0.022648606
45	0x3d5e7cd4	0.054318264
46	0xbd10c4ab	-0.035343807
47	0x3c113df1	0.008864866
48	0xbd52729b	-0.051378828
49	0x3e01f7a7	0.12692128
50	0xbd50194b	-0.05080537
51	0x3debb62a	0.115093544
52	0xbd7d873c	-0.061896548
53	0xb7b6b10e	-2.1778538e-05
54	0xbce28433	-0.027650928
55	0x3dab4d5d	0.08364365
56	0x3c873981	0.016506912
57	0x3d4e9bc9	0.050441537
58	0x3ce0b380	0.027429342
59	0x3e32b39d	0.1745133
60	0xbe0da04f	-0.13830684
61	0xbd773f2f	-0.06036299
62	0xbc0fd8a5	-0.008779679
63	0x3d720c62	0.05909384
64	0x3d0514dd	0.0324906
65	0x3d0605f7	0.032720532
66	0x3e2f2fe5	0.17108114
67	0xbc979c18	-0.018507048
68	0x3cbaa6b4	0.022784568
69	0xbd7d6e00	-0.061872482
70	0xbb783919	-0.003787583
71	0xbdb40a07	-0.08790975
72	0x3dc7f361	0.09763218
73	0xbd9e4b44	-0.077291995
74	0xbdcd8741	-0.10035563
75	0x3b9a5745	0.0047101104
76	0x3dba2e8c	0.09090909
77	0xbc315573	-0.010823595
78	0xbb7d5811	-0.0038657228
79	0x3e6c1ed1	0.2305863
80	0xbe18d957	-0.14926659
81	0x3d476fe7	0.048690703
82	0xbe108a4e	-0.14115259
83	0x3d9156c4	0.07096627
84	0xbe345f1b	-0.17614405
85	0xbd75c9a2	-0.060006745
86	0xbc9d7ce8	-0.019224599
87	0xbd869800	-0.065719604
88	0x3d322bc3	0.043498766
89	0x3d8112e0	0.06302428
90	0x3bd4a886	0.006489816
91	0x3e48cd23	0.19609503
92	0x3e02a471	0.12758042
93	0x3e182d4a	0.14861026
94	0x3d520698	0.05127582
95	0xbae97fe1	-0.00178146
96	0xbe294cb8	-0.16533172
97	0x3c80e4a8	0.015734032
98	0x3c882fd0	0.016624361
99	0x3eae5a4c	0.34053266
100	0x3da76247	0.08173042
101	0xbd1fb1da	-0.03898797
102	0x3d455aad	0.04818218
103	0xbe27d604	-0.16390234
104	0xbe4dfe98	-0.20116651
105	0xbd54147a	-0.05177734
106	0x3deed6cb	0.11662062
107	0xbe288a57	-0.16459022
108	0x3d7f36d6	0.062308155
109	0xbc91b11e	-0.017784651
110	0x3de95685	0.113934554
111	0xbe309beb	-0.17246978
112	0x3da1f779	0.0790853
113	0x3e1ec791	0.15505816
114	0xbdc48e6d	-0.09597478
115	0x3e245da6	0.16051349
116	0x3e08a9a1	0.13345958
117	0xbd76972c	-0.060202762
118	0xbd052334	-0.032504275
119	0x3ddaef1e	0.10690139
120	0x3d3c11cc	0.04591541
121	0xbcc55b3d	-0.024091357
122	0x3e087b8f	0.13328384
123	0x3de3a423	0.11115291
124	0xbdbfaf81	-0.093596466
125	0xbcc9d355	-0.024636904
126	0x3e15b7a1	0.1462083
127	0xbe34aca6	-0.17643985
128	0x39b83044	0.00035131176
129	0xbcee0a8a	-0.02905776
130	0xbe2a1aa8	-0.16611731
131	0x3d51214b	0.05105714
132	0xb7f01668	-2.8620663e-05
133	0x3c787b67	0.01516614
134	0x3d12eb51	0.035868946
135	0xba9bf8bd	-0.0011899691
136	0x3d2a4817	0.041572656
137	0xbbc73eae	-0.00608047
138	0xbd74b4b2	-0.059742637
139	0x3bda9f01	0.006671787
140	0xbc8d857f	-0.01727557
141	0x3d105a1a	0.035242178
142	0xbc395ea0	-0.011314064
143	0x3d341bb3	0.04397173
144	0x3d6c3d8c	0.057675883
145	0x3da4a4a7	0.080392174
146	0xbe14810c	-0.14502352
147	0x3dc0a6ce	0.094068155
148	0x3e00b45b	0.125688
149	0xbdaa89ee	-0.08327089
150	0xbcedaf5d	-0.029014284
151	0xbd68a4f2	-0.05679793
152	0x3df22132	0.11822738
153	0x3ec197c7	0.3781111
154	0x3d69e786	0.057105564
155	0xbd90a98a	-0.07063587
156	0x3d0844ef	0.033268865
157	0x3de7cc67	0.113182835
158	0x3ca26b78	0.019826636
159	0x3d13e2c8	0.036104947
160	0x3cf37bd7	0.029722137
161	0xbd82b8c1	-0.06382895
162	0x3d09003e	0.033447497
163	0x3e72a8a8	0.2369715
164	0xbc86ff67	-0.016479207
165	0x3e22631b	0.15858118
166	0xbb33102f	-0.0027322879
167	0x3c855c22	0.016279284
168	0x3e09724d	0.13422509
169	0x3e016e21	0.12639667
170	0x3dc2ba46	0.09508185
171	0xbd19778a	-0.037467517
172	0x3d02d815	0.031944353
173	0xbe0db1de	-0.13837382
174	0x3d42c003	0.047546398
175	0xbe054355	-0.13013966
176	0xbd675130	-0.05647391
177	0xbdb595eb	-0.08866485
178	0x3c4c921b	0.012486006
179	0x3db76f66	0.089567944
180	0x3bb64d83	0.0055634393
181	0xbca72749	-0.020404475
182	0x3c88d378	0.016702399
183	0xbe01709b	-0.12640612
184	0xbbece28e	-0.007229156
185	0xbd5af63d	-0.053457487
186	0x3d6073f3	0.054798078
187	0xbe7cb0e1	-0.24676849
188	0xbd2fca8b	-0.04291777
189	0x3db0de53	0.08636155
190	0xbdb71257	-0.08939045
191	0x3c046904	0.008081678
192	0xbd51a64c	-0.051183984
193	0xbdf134a6	-0.1177762
194	0xbe202a80	-0.15641212
195	0x3dad0cf9	0.0844974
196	0xbcf10349	-0.029420512
197	0x3dc22adb	0.0948083
198	0x3de02a38	0.109455526
199	0xbd8511cf	-0.06497537
200	0xbdb6bcd6	-0.08922736
201	0x3dc8bd32	0.09801711
202	0xbdd0d00b	-0.10195931
203	0x3e19faa5	0.1503702
204	0xbccc3cb3	-0.024931287
205	0x3b22d184	0.002484412
206	0xbe417d87	-0.18895541
207	0xbdfd9b2d	-0.12383113
208	0xbcd96874	-0.026539065
209	0x3c03011e	0.007995872
210	0x3c550c23	0.013003382
211	0x3bd813a5	0.0065941387
212	0xbe0c539e	-0.13703772
213	0x3c2ea14c	0.010658573
214	0x3dbb82c2	0.091557994
215	0x3e28f64f	0.1650021
216	0xbde0b5cc	-0.10972175
217	0x3c3a5a07	0.011374003
218	0xbe6905f3	-0.22756176
219	0xbd83a091	-0.0642711
220	0x3c8d1018	0.017219588
221	0xbe085bad	-0.13316222
222	0xbe4afeec	-0.19823807
223	0xbdaaa96b	-0.08333095
224	0x3c3ef745	0.011655633
225	0x3c82f75a	0.015987087
226	0x3d5b5bdb	0.053554397
227	0xbdeb7f35	-0.11498872
228	0x3d57f811	0.05272681
229	0x3e13c922	0.14432195
230	0x3e21ec02	0.15812686
231	0xbdc455f3	-0.09586706
232	0x3cd466e7	0.025927974
233	0x3e0906ee	0.1338155
234	0xbd609a4e	-0.054834656
235	0xbc6f2116	-0.014595291
236	0xbc4cc886	-0.01249898
237	0x3e11b976	0.14230904
238	0xbd3a0eeb	-0.045424383
239	0x3e77a95c	0.24185699
240	0xbe088a98	-0.1333412
241	0x3dd191ac	0.10232863
242	0xbddad12f	-0.1068443
243	0xbbe45aef	-0.006968848
244	0x3e611c2d	0.21983404
245	0x3d4d6c14	0.0501519
246	0x3d84f07c	0.06491181
247	0x3bcfe377	0.0063442546
248	0xbce017a5	-0.027355025
249	0xbaf92888	-0.0019009272
250	0xbe83c26b	-0.25734267
251	0xbcb4ad3e	-0.022055265
252	0x3df35ff3	0.11883535
253	0x3e2fe04e	0.17175409
254	0xbd69a15e	-0.057038657
255	0xbda56653	-0.080761574

network.2.conv.0.weight f4 [128, 256]
0	0x3d91ac84	0.07112983
1	0x3d5a6e28	0.05332771
2	0xbc92de15	-0.017928163
3	0x3cea6e82	0.028617147
4	0xbd5763c2	-0.05258537
5	0x3dbc4966	0.09193687
6	0x3e678902	0.22610858
7	0x3e3abb8f	0.1823561
8	0xbdb6cf89	-0.08926303
9	0xbb2542f2	-0.0025216904
10	0xbde0ef60	-0.10983157
11	0xbd50412f	-0.050843414
12	0x3c8b0d18	0.016974017
13	0x3dcbe1d4	0.09955183
14	0x3dbbae21	0.09164072
15	0xbdc448c5	-0.09584192
16	0x3ead061b	0.3379372
17	0xbde681c3	-0.11255219
18	0xbd7462b2	-0.059664436
19	0x3d94cb4e	0.0726534
20	0x3dbcecc7	0.09224849
21	0xbcf58b0f	-0.029973535
22	0x3d97f74f	0.07420217
23	0x3de9e103	0.11419871
24	0xbe30dacf	-0.17270969
25	0x3e88ec7a	0.26742917
26	0xbe089acb	-0.13340299
27	0x3da6db4f	0.081472985
28	0x3e34995d	0.17636628
29	0xbddae614	-0.10688415
30	0x3d42cbac	0.047557518
31	0xbe580453	-0.210954
32	0xbe17757a	-0.14790908
33	0xbe0c1a52	-0.13681915
34	0x3d837dc4	0.06420472
35	0xbdb8225b	-0.08990928
36	0xbdbe78fd	-0.093004204
37	0x3c42451d	0.011857298
38	0x3dee69a5	0.11641244
39	0xbd53594f	-0.051598843
40	0x3d9e3eb3	0.07726803
41	0xbdaa62c7	-0.083196215
42	0x3c1126fa	0.00885939
43	0x3dbc828e	0.09204589
44	0xbdf5e5eb	-0.12006744
45	0xbd868386	-0.06568055
46	0x3e41d14e	0.189275
47	0x3d0b4f13	0.034010958
48	0xbe509935	-0.20370944
49	0x3dead9ab	0.11467298
50	0xbe3d6e58	-0.18499124
51	0xbd5686f6	-0.052374803
52	0xbcbcb39d	-0.023034865
53	0xbcb52b34	-0.022115327
54	0x3cb20ce8	0.02173467
55	0xbceb8e7a	-0.028754462
56	0xbd2059d4	-0.039148167
57	0xbd055060	-0.032547355
58	0xbe4f9d74	-0.20274907
59	0xbe2d339b	-0.16914217
60	0x3d767d55	0.06017812
61	0xbda950e1	-0.082673796
62	0x3e2d2861	0.16909935
63	0xbdc66e44	-0.09689
64	0x3977cf83	0.0002363306
65	0x3dd7b8b1	0.10533274
66	0xbda1e4fb	-0.07905003
67	0xbb6802c1	-0.0035402032
68	0xbe57a1ed	-0.21057864
69	0xbd398e95	-0.045301992
70	0xbd89b568	-0.067240536
71	0x3dc82dd7	0.09774368
72	0xbd93ceed	-0.07217202
73	0xbbb65560	-0.0055643767
74	0xbde1e722	-0.11030413
75	0xbd3876ab	-0.045035046
76	0x3d152545	0.036412496
77	0x3d33ac68	0.04386559
78	0x3e2fcb83	0.17167477
79	0xbe02e0f4	-0.12781125
80	0xbe8a52cb	-0.2701629
81	0x3e15e7ac	0.14639157
82	0xbced4765	-0.028964708
83	0xbb4ca34e	-0.0031225267
84	0xbd353738	-0.044242114
85	0x3de249f8	0.11049265
86	0xbd26dca4	-0.040737763
87	0x3d173cbc	0.036923155
88	0xbd8d8fb8	-0.06912178
89	0xbd09ab91	-0.033610884
90	0x3d1d809c	0.03845273
91	0x3d9f0176	0.077639505
92	0xbe0480c1	-0.1293974
93	0x3c37b240	0.011211932
94	0xbd9a6df1	-0.07540501
95	0x3d73b85c	0.05950199
96	0xbb0d3cba	-0.0021551088
97	0x3d107d4d	0.035275746
98	0x3d2d3c11	0.042293612
99	0x3e2ca898	0.16861188
100	0x3db6e10e	0.089296445
101	0x3dd5190f	0.1040517
102	0xbcb3de86	-0.021956693
103	0x3d309443	0.043110143
104	0x3d8c49b3	0.068499945
105	0x3dbeda36	0.09318964
106	0x3caf8a58	0.021428272
107	0x3d5860d8	0.052826732
108	0x3d1dad63	0.038495433
109	0xbe3c4249	-0.18384661
110	0xbd99b587	-0.07505327
111	0x3dc48e80	0.09597492
112	0xbde0c8b8	-0.10975784
113	0x3c530bc1	0.01288122
114	0x3d986ba4	0.07442406
115	0xbd140010	-0.036132872
116	0x3c2e9f2f	0.0106580695
117	0xbe86f584	-0.2635919
118	0x3cd0cfb9	0.025489675
119	0xbc214206	-0.009842401
120	0xbdce4881	-0.10072423
121	0xbe3d7058	-0.18499887
122	0xbe1d449b	-0.15358202
123	0xbd876d9f	-0.066127054
124	0x3d78c2b5	0.060732562
125	0x3be37c58	0.006942313
126	0xbd9212ab	-0.07132467
127	0x3dc6af0c	0.09701356
128	0x3db3f5df	0.087871306
129	0x3e03f2ac	0.1288554
130	0x3e2e7fc8	0.17040932
131	0xbe10bc1f	-0.14134263
132	0xbda9ef54	-0.08297601
133	0x3decef7e	0.11569117
134	0xbd49e302	-0.049288757
135	0x3d91cb5e	0.07118867
136	0x3d0b15b9	0.033956263
137	0xbc09ea45	-0.008417671
138	0xbbf7722f	-0.0075514535
139	0x3d793988	0.06084588
140	0x3d41aa3d	0.047281493
141	0x3c8290a7	0.015938116
142	0xbd570812	-0.05249793
143	0xbe08aada	-0.13346425
144	0x3cc7406e	0.024322715
145	0xbe2b99d0	-0.16757894
146	0x3d7e9ec7	0.06216314
147	0xbcf34b73	-0.029699063
148	0xbdeb4bb0	-0.114890456
149	0xbb969064	-0.0045948494
150	0xbc613fb3	-0.013748097
151	0xbe28659e	-0.16445014
152	0xbd6d7768	-0.057975203
153	0xbda4375f	-0.08018374
154	0x3d5e2e52	0.054243393
155	0x3dab93c2	0.08377792
156	0x3e221e62	0.15831903
157	0xbda78b3c	-0.08180854
158	0x3cf0861a	0.02936082
159	0xbe2626a1	-0.16225673
160	0x3e35f8d0	0.17770696
161	0x3b0e4d4b	0.002171355
162	0x3e2c1d82	0.16808131
163	0xbd46d0cc	-0.048538968
164	0xbd8745cc	-0.066051096
165	0xbde105fb	-0.10987469
166	0x3da9a642	0.08283664
167	0xbe08d26f	-0.13361524
168	0xbd014be8	-0.03156653
169	0xbdf672e3	-0.12033632
170	0xbd814c2a	-0.06313355
171	0xbd7ce873	-0.06174512
172	0x3cd4276c	0.025897704
173	0xbda4bc2c	-0.080437034
174	0x3dfb8837	0.1228184
175	0xbbb65676	-0.005564506
176	0xbdff5f3a	-0.12469335
177	0xbe005f78	-0.12536418
178	0x3e06066d	0.13088389
179	0x3d857ffd	0.065185525
180	0x3d529ba5	0.051417965
181	0xbdcce40f	-0.10004436
182	0x3dd125b7	0.10212272
183	0xbd7c15f3	-0.06154437
184	0xbd362a3c	-0.04447387
185	0xbd9e1e64	-0.0772064
186	0xbdde476f	-0.108534686
187	0xbd8a8895	-0.06764332
188	0xbd17257e	-0.03690099
189	0x3d149f83	0.036284935
190	0x3dcb9861	0.09941173
191	0xbda3c60f	-0.07996761
192	0x3e237bb4	0.15965158
193	0xbe4b38ec	-0.19845933
194	0xbe62fbce	-0.22166368
195	0xbe2cc48d	-0.16871853
196	0x3df49b80	0.11943722
197	0x3db48b59	0.08815641
198	0x3df05440	0.117348194
199	0xbdc7fb34	-0.0976471
200	0x3e0b74f5	0.13618834
201	0x3d2e9e15	0.042631228
202	0x3dddf4d9	0.108377166
203	0x3c2557c1	0.010091723
204	0x3c8e078c	0.017337583
205	0xbd7b3036	-0.061325274
206	0x3cad9c4b	0.02119269
207	0x3e152123	0.14563422
208	0xbd9eb407	-0.07749181
209	0xbcee1602	-0.029063229
210	0xbe28d7e2	-0.16488603
211	0xbda3dede	-0.08001493
212	0x3c331d4d	0.010932279
213	0xbdd4f5d2	-0.10398449
214	0xbe0bea9a	-0.13663712
215	0x3d676418	0.05649194
216	0xbe327e00	-0.17430878
217	0x3d632fbc	0.055465445
218	0xbe6f9a95	-0.23398812
219	0x3e0b7f27	0.13622724
220	0xbdc53a58	-0.09630269
221	0xbdf971f7	-0.1217994
222	0x3d9be6f5	0.07612411
223	0xbe90f9cd	-0.28315583
224	0xbe426f83	-0.18987851
225	0xbcd00b9d	-0.025396163
226	0x3c24275f	0.010019152
227	0xbe048be2	-0.12943986
228	0xbd15ab99	-0.0365406
229	0xbd33b6e0	-0.043875575
230	0xbd4f85fe	-0.050664894
231	0xbdfd2f62	-0.12362553
232	0x3cdf1e56	0.027236145
233	0x3da2ca15	0.079487
234	0x3d81d339	0.06339116
235	0xbd262a73	-0.040567826
236	0xbc91e390	-0.017808706
237	0xbe2f608c	-0.17126673
238	0x3e9d7266	0.30751342
239	0xbdae403e	-0.08508347
240	0xbdede487	-0.11615854
241	0xbd835f95	-0.06414715
242	0xbe484a8c	-0.19559687
243	0xbd235d49	-0.039883886
244	0xbdaaa69f	-0.08332562
245	0x3dc8b2b2	0.097997084
246	0xbcbdd6f2	-0.023173783
247	0xbca6f49e	-0.020380314
248	0xbc336281	-0.010948778
249	0x3e431542	0.19051078
250	0x3e39a67e	0.18129918
251	0xbe0bd0e6	-0.13653907
252	0x3d1c3798	0.038138956
253	0x3cb31f60	0.021865547
254	0x3d4ad244	0.04951693
255	0xbd9324e1	-0.071847685

network.2.conv.0.bias f4 [128]
0	0xbe3a3397	-0.18183742
1	0x3d2f5e93	0.042814802
2	0xbdcfe9ca	-0.101520136
3	0x3e15e856	0.1463941
4	0xbdbe6713	-0.092970036
5	0xbe2535c8	-0.16133797
6	0x3e22fb29	0.15916122
7	0x3d87bf37	0.06628268
8	0xbd4ec674	-0.05048223
9	0x3d85c9d5	0.06532637
10	0x3d37216f	0.04470962
11	0x3dd0a575	0.101878084
12	0x3d64a3ff	0.05582046
13	0x3e1c00eb	0.15234725
14	0xbc3c3330	-0.011486813
15	0x3dba0e34	0.0908474
16	0x3db110ef	0.08645808
17	0xbc8ae76a	-0.01695605
18	0xbd61d983	-0.055139076
19	0xbe5affa3	-0.2138658
20	0xbdb1df45	-0.086851634
21	0x3caa3eea	0.020781953
22	0x3da3c075	0.07995693
23	0xbd87de6b	-0.0663422
24	0xbc66816a	-0.014068941
25	0xbddb5b8f	-0.10710823
26	0x3d49a7c9	0.049232278
27	0xbdb976dd	-0.090558745
28	0xbd6734d4	-0.056446865
29	0x3d843757	0.06455868
30	0x3e5047ee	0.20339939
31	0xbe133d88	-0.14378941
32	0xbd03aaef	-0.032145437
33	0xbe4b0f7e	-0.19830129
34	0xbc7c92b2	-0.015415834
35	0x3d0e3fe0	0.034728885
36	0x3b542148	0.003236847
37	0xbe37c18c	-0.17944926
38	0x3d5660ef	0.052338537
39	0xbc74ccdc	-0.01494142
40	0xbda73ff4	-0.08166495
41	0x3d53d1a8	0.051713616
42	0x3d68d331	0.056842033
43	0xbd9de5d5	-0.077098526
44	0xbdaa11d4	-0.08304182
45	0x3d07c448	0.033146173
46	0x3da9dd11	0.08294118
47	0xbd027b56	-0.031855904
48	0xbe169f84	-0.14709288
49	0x3d3ecbc5	0.04658105
50	0x3afe8b63	0.0019420203
51	0x3d7b79bb	0.061395388
52	0xbd89bd5b	-0.0672557
53	0x3db72d5e	0.089442
54	0x3b852906	0.0040637283
55	0x3d661f6e	0.056182317
56	0x3d35a694	0.044348314
57	0x3d088627	0.033331063
58	0xbe10c10f	-0.14136146
59	0xbe78b937	-0.24289404
60	0xbe85cf1b	-0.2613457
61	0xbac28a8c	-0.0014842316
62	0xbd80f90a	-0.062975004
63	0x3e2ab3da	0.1667017
64	0x3d84ffd8	0.06494111
65	0x3e298c6d	0.16557474
66	0xbdee4dfb	-0.11635967
67	0x3e238854	0.15969974
68	0xba2e8199	-0.0006656885
69	0x3c7548a2	0.01497093
70	0xbd4bbfb4	-0.04974337
71	0xbdbbd1a1	-0.09170843
72	0x3e4bd990	0.19907212
73	0x3d32cdc8	0.04365328
74	0x3dc8763e	0.09788178
75	0x3d00d4d3	0.031452965
76	0xbe0c875c	-0.1372351
77	0x3d91c682	0.071179405
78	0x3dc361a0	0.09540105
79	0x3d954a38	0.07289547
80	0x3b7335bd	0.0037110888
81	0xbe2443c4	-0.16041476
82	0x3c4497e2	0.011999102
83	0x3e2f2e87	0.17107593
84	0x3c09bc0a	0.008406648
85	0x3d0fdca2	0.03512252
86	0xbdad2650	-0.08454573
87	0x3e0cd3e4	0.13752705
88	0x3d200935	0.03907128
89	0x3df04187	0.11731248
90	0x3d0b69ed	0.034036566
91	0xbe4e7148	-0.20160401
92	0xbe33c14b	-0.17554204
93	0xbd97509c	-0.07388422
94	0x3c49d63d	0.012319145
95	0xbce0b930	-0.027432054
96	0x3c1d926b	0.009617428
97	0xbe02e42b	-0.12782352
98	0x3dbfd4ee	0.09366785
99	0x3e02f8b3	0.12790184
100	0xbd8f21dc	-0.0698888
101	0xbd76d8f9	-0.060265515
102	0xbd029144	-0.031876817
103	0x3dd9cabf	0.10634374
104	0x3c0b3280	0.008495927
105	0x3d43c450	0.04779464
106	0xbda4e708	-0.08051878
107	0x3d14eb66	0.036357306
108	0xbe681f4b	-0.22668187
109	0xbdf8e0de	-0.12152265
110	0xbe3db841	-0.18527319
111	0x3d9c4884	0.07631019
112	0xbc36bd38	-0.011153512
113	0x3d1502cf	0.03637963
114	0x3d32d7ed	0.043662954
115	0xbe0b88bd	-0.1362638
116	0xbe41cd2e	-0.18925926
117	0xbdf822b4	-0.12115994
118	0xbd6c5b06	-0.057703994
119	0x3c20d87f	0.009817242
120	0x3d1874a1	0.0372206
121	0xbe8d5db6	-0.27610558
122	0x3d0c1755	0.03420194
123	0xbe37be42	-0.17943671
124	0xbd4a6562	-0.049413092
125	0xbe2a1ae7	-0.16611825
126	0x3d5a694c	0.053323075
127	0xbd2fc6c6	-0.042914174

network.3.weight f4 [2, 128]
0	0xbd30bc96	-0.0431486
1	0x3d80b907	0.06285291
2	0xbe20a42f	-0.15687631
3	0x3b67a0fb	0.0035343755
4	0x3cba057a	0.02270769
5	0xbe24d9d0	-0.16098714
6	0x3e0799d1	0.1324227
7	0xbd01b2fb	-0.03166483
8	0x3d62c555	0.05536397
9	0x3dc96a8a	0.09834774
10	0x3d6022fb	0.05472086
11	0xbca4d576	-0.020121317
12	0x3ddfa83d	0.10920761
13	0xbc48b14c	-0.012249302
14	0x3ab194a5	0.0013548328
15	0xbd1eef9d	-0.03880273
16	0xbe12b831	-0.14328076
17	0x3d42bd81	0.047544006
18	0xbe0b4eb2	-0.13604239
19	0x3e189e96	0.14904246
20	0x3c2b31dd	0.0104489
21	0x3c850de2	0.016241971
22	0x3c9ecf99	0.0193861
23	0xbde9e8e0	-0.114213705
24	0x3e3b241a	0.1827549
25	0xbe0dd291	-0.13849856
26	0xbb10a0af	-0.002206843
27	0x3ccde02b	0.025131306
28	0xbc4e0db2	-0.012576507
29	0x3da9aa79	0.08284468
30	0x3d02b034	0.03190632
31	0x3d7aeeb0	0.061262786
32	0x3de24618	0.110485256
33	0xbe46b159	-0.1940359
34	0x3d81e8a3	0.063432
35	0x3e36f42a	0.17866579
36	0x3d689c1b	0.0567895
37	0xbe884203	-0.26612863
38	0xbe5b2c08	-0.21403515
39	0xbdf26ff7	-0.11837762
40	0x3decd1e9	0.11563475
41	0x3c6a746d	0.014309985
42	0x3c1fbfb7	0.009750298
43	0x3c247967	0.01003871
44	0x3d8e29e3	0.06941583
45	0xbd382382	-0.044955738
46	0x3dadd4b1	0.08487833
47	0x3d31bc9d	0.043392766
48	0xbe324bb7	-0.17411695
49	0xbd3fc05b	-0.046814304
50	0x3d84af3d	0.064787365
51	0x3de507f3	0.11183157
52	0x3e107cf1	0.14110161
53	0xbd1e39be	-0.038629286
54	0xbd1e5ff2	-0.03866572
55	0xbe09ccc3	-0.13457017
56	0x3d59561b	0.053060632
57	0xbd46c953	-0.04853184
58	0x3de8cac5	0.113668
59	0xbcfdcfa3	-0.030982798
60	0xbcb39ec9	-0.0219263
61	0x3d464cad	0.048412967
62	0xbd0b8f24	-0.034072056
63	0xbddb06d8	-0.10694665
64	0x3e48d5de	0.19612834
65	0xbd8f36dd	-0.06992886
66	0x3d1a7249	0.037706647
67	0xbda75ca1	-0.081719644
68	0x3d4aa21d	0.04947101
69	0x3dbafaad	0.09129844
70	0xbe07c265	-0.1325775
71	0x3c0c8141	0.008575738
72	0x3daab08a	0.083344534
73	0xbe1982a9	-0.14991249
74	0x3bb3ebb7	0.005490746
75	0x3df1848a	0.11792858
76	0xbd60cf50	-0.05488521
77	0xbc8ed601	-0.01743603
78	0x3964574e	0.00021776298
79	0x3d1372e6	0.035998248
80	0xbd184e43	-0.03718401
81	0xbcfc60ac	-0.030807815
82	0x3d294f24	0.04133524
83	0x3ccf77d1	0.025325688
84	0x3df46922	0.11934115
85	0x3d213e2a	0.039365925
86	0x3d0b4f81	0.034011368
87	0xbe389ed6	-0.18029341
88	0xbd02c196	-0.0319229
89	0x3d3a1770	0.045432508
90	0x3d898f29	0.06716759
91	0x3d138546	0.03601577
92	0xbd36eb90	-0.044658244
93	0xbdc105b5	-0.09424917
94	0x3ab57dff	0.0013846754
95	0xbc115964	-0.00887141
96	0xbcbf17b7	-0.023326738
97	0x3d71cea7	0.05903497
98	0xbcff116f	-0.031136243
99	0xbb1fb454	-0.0024368959
100	0x3e0f02cf	0.13965915
101	0xbcf66dcf	-0.030081658
102	0x3e123eb1	0.14281727
103	0x3cfd26bb	0.030902257
104	0x3de8578e	0.11344825
105	0x3e0ea798	0.1393112
106	0xbd457f4b	-0.0482171
107	0xbdb9f096	-0.09079091
108	0x3ca15417	0.019693417
109	0xbdba0289	-0.09082515
110	0xbd676cf3	-0.056500386
111	0x3d3e4b3a	0.04645846
112	0xbd4900f1	-0.049073163
113	0x3e15337b	0.1457042
114	0x3e40b688	0.1881963
115	0xbda04775	-0.07826129
116	0x3c22d504	0.009938482
117	0x3dd111a1	0.102084406
118	0xbd3e85b3	-0.046514224
119	0x3dca9dce	0.0989338
120	0x3e08edb3	0.13371925
121	0xbe403e69	-0.18773808
122	0x3e837358	0.25673938
123	0xbd8b4775	-0.06800739
124	0x3ddad8d5	0.10685889
125	0xbe5b3476	-0.21406731
126	0xbc990b14	-0.01868204
127	0x3d46c8de	0.048531406
128	0xbe2aa242	-0.16663459
129	0x3d8cb6e9	0.06870825
130	0x3d122053	0.035675358
131	0xbdf1b1fc	-0.11801526
132	0x3cfda058	0.030960247
133	0xbe4e13ae	-0.20124695
134	0xbd7dda98	-0.061976045
135	0xbce2abbc	-0.02766978
136	0xbc66af94	-0.014079947
137	0x3d56c8b7	0.05243751
138	0x3dc2827d	0.09497545
139	0xbe23292d	-0.15933676
140	0x3db66bb6	0.08907263
141	0xbd1eebfa	-0.038799264
142	0x3cfd3251	0.030907782
143	0x3cd47574	0.025934912
144	0xbc99dfe1	-0.018783512
145	0x3da87412	0.08225264
146	0xbdffe60d	-0.124950506
147	0x3dcdf5c5	0.100566424
148	0xbe016a42	-0.1263819
149	0x3d9a8113	0.0754415
150	0x3bbc7a7e	0.005751907
151	0x3dafc3af	0.085822456
152	0x3e1a9b32	0.15098265
153	0x3dc35bd8	0.09539002
154	0xbe17378e	-0.14767286
155	0xbdc58c13	-0.09645858
156	0x3d84035d	0.06445954
157	0x3caa0eba	0.020758975
158	0xbb918d86	-0.0044419197
159	0xbda35a6c	-0.07976231
160	0xbdf20149	-0.118166514
161	0x3e094cee	0.13408253
162	0x3dfd8f81	0.12380887
163	0xbdcf6c95	-0.10128132
164	0x3d66a874	0.056312993
165	0x3cc78043	0.024353152
166	0x3d0456bf	0.03230929
167	0xbdc1b2fa	-0.09457965
168	0xbe0d5ff3	-0.13806133
169	0x3c39313d	0.011303243
170	0xbd167083	-0.036728393
171	0xbcbcb70b	-0.0230365
172	0xbc9a54e5	-0.018839309
173	0x3ddc451c	0.10755369
174	0x3e6c2fec	0.23065156
175	0xbd510114	-0.05102642
176	0xbdb53a67	-0.0884903
177	0xbddbb069	-0.10727007
178	0x3d8b55e7	0.06803494
179	0x3d18774d	0.03722315
180	0x3dd8471b	0.10560437
181	0x3e355446	0.17707929
182	0xba91c3ec	-0.0011121011
183	0x3e099442	0.13435462
184	0x3d7879c7	0.06066301
185	0x3d2bb38a	0.04191927
186	0x3dee3b2a	0.116323784
187	0xbe55b189	-0.20868506
188	0xbd155824	-0.03646101
189	0xbdfcd7ea	-0.1234587
190	0x3d92307c	0.07138154
191	0xbe96ac6d	-0.29428425
192	0xbdcddcee	-0.100519046
193	0x3db16389	0.08661563
194	0x3bd6ff42	0.006561191
195	0xbc81c81a	-0.015842486
196	0x3d9123d3	0.07086911
197	0xbe7d7be5	-0.24754293
198	0x3e0017ff	0.12509154
199	0xbcacfb57	-0.021115942
200	0x3dbad85d	0.09123299
201	0xbd3f0e24	-0.046644345
202	0xbd4711d7	-0.048600998
203	0xbda2e4e9	-0.079538174
204	0x3dc41e45	0.09576086
205	0x3e042fcd	0.1290886
206	0x3e2121d2	0.15735558
207	0xbdc73959	-0.09727735
208	0x3e6e6a3f	0.23282717
209	0xbc5b3d63	-0.013381335
210	0x3a916c1c	0.0011094841
211	0x3d7fde4c	0.06246786
212	0x3b57620b	0.0032864835
213	0xbdaca722	-0.084303156
214	0xbe0e0ec0	-0.13872814
215	0x3c942fbf	0.018089173
216	0xbe02b5b5	-0.12764628
217	0xbe01de04	-0.12682348
218	0x3d3d081f	0.046150323
219	0x3c698d4a	0.014254877
220	0x39816067	0.00024676623
221	0x3ddb9805	0.10722355
222	0x3dd0fd65	0.10204581
223	0xbcee05ff	-0.029055594
224	0x3dc2a4ec	0.095041126
225	0x3e394312	0.18091992
226	0x3da68f24	0.08132771
227	0xbd9d611d	-0.076845385
228	0x3d2a3a51	0.04155952
229	0x3d8005b2	0.06251086
230	0xbc819438	-0.015817747
231	0x3d670ff1	0.056411687
232	0x3d2327de	0.039832942
233	0xbdc73b75	-0.097281374
234	0x3e083e75	0.13305075
235	0x3dbc9bf4	0.09209433
236	0xba858cc6	-0.0010189048
237	0x3dad7761	0.08470035
238	0x3d6a3273	0.05717702
239	0xbd300940	-0.04297757
240	0xbd256f1c	-0.040389165
241	0xbe48d506	-0.19612512
242	0x3d048235	0.032350738
243	0xbd80ada0	-0.06283116
244	0x3c2feef3	0.010738122
245	0x3dcd1748	0.10014206
246	0x3e125688	0.14290822
247	0x3d649a25	0.055811066
248	0x3db3085f	0.08741831
249	0x3de1cbab	0.11025175
250	0xbe7db213	-0.24774961
251	0xbe1506df	-0.14553402
252	0xbd887d1f	-0.0666449
253	0xbe0a8713	-0.13528089
254	0xbd556d80	-0.05210638
255	0x3df1fe2c	0.118160576

network.3.bias f4 [2]
0	0xbc917b43	-0.017758971
1	0x3e47802b	0.19482486
