exomy/config/best_run_no_obstacles405k/checkpoints/150000_policy.pt (torch, 723582 bytes, 13 tensors)

log_std_parameter f4 [2]
000000 32 88 76 bf 0a 6f 1d bf
       -0.9630157 -0.6149756

network.0.conv.0.weight f4 [512, 5]
000000 fa ce 85 3e 51 6b 3f be 43 6a 88 bb ba 5e 88 bd
       0.26134473 -0.18693282 -0.004163058 -0.06658693
000010 2b 01 2a 3e d2 44 09 3e 3e 45 dc 3d 80 27 12 3e
       0.16602008 0.13405159 0.107553944 0.1427288
000020 3d 9a 58 bd 47 4d 3c bc 63 02 fc bc c6 2f 7d bb
       -0.052881468 -0.011493034 -0.030762857 -0.0038633212
000030 80 50 04 ba ac 20 82 be 6b d7 6b 3d f9 26 b2 3c
       -0.0005047396 -0.25415552 0.057578485 0.0217471
000040 8c b8 76 bd f0 29 85 3e b6 ea 09 3d 26 2d 2e 3e
       -0.06023459 0.26008558 0.033671103 0.1700941
000050 71 a5 55 3d 66 b2 4a bc cd dc a8 3d 47 60 45 3e
       0.05215973 -0.012371635 0.082452394 0.19275008
000060 a9 d5 00 3e c1 e1 44 3e 07 34 a6 3e d4 df 04 bc
       0.12581505 0.19226743 0.3246157 -0.008110005
000070 9a 64 48 be b5 db e3 bc d0 19 8e be 56 fd 25 bc
       -0.19569626 -0.027814725 -0.27754068 -0.010131201
000080 c5 c8 35 3d fe 20 c1 bc c7 c3 78 bd 56 36 d2 3b
       0.044380922 -0.023575302 -0.060733583 0.0064151688
000090 40 24 09 bd 2a 53 46 3d cd be c2 3d 60 cc 96 bd
       -0.033481836 0.048419155 0.095090486 -0.073632
0000a0 a4 ef 55 3d 3b 1e 99 be 05 ef de bc bf 67 11 bc
       0.052230492 -0.29905877 -0.027213583 -0.008874833
0000b0 3c 90 a7 bc 1f 12 23 be 7b c8 a1 bd 68 ae 64 be
       -0.020454518 -0.15924881 -0.07899567 -0.22332156
0000c0 d1 c5 84 3d 5b c2 40 be b2 9a ee bc f8 29 b9 3e
       0.06483043 -0.1882414 -0.029126499 0.36164832
0000d0 a2 da 88 3d 17 4a 24 3e b9 9a 41 3b 63 cf 41 bc
       0.06682326 0.16043888 0.0029541685 -0.01182923
0000e0 23 67 4f 3e 77 e6 7f bd 9e cd 09 3e 3e 35 90 bd
       0.20254187 -0.062475648 0.13457343 -0.07041405
0000f0 1b 25 70 3e e8 f5 6a bd 35 7e b1 3d a7 0e e3 3c
       0.23451655 -0.05736342 0.0866665 0.027716948
000100 27 97 02 3e ee 79 38 3e cf c7 69 be 95 b7 18 3d
       0.12752973 0.18015262 -0.22830127 0.037284452
000110 b0 a6 5e 3e 5f 97 03 3c ee 7b 00 be 72 34 3a 3d
       0.21743274 0.008031695 -0.12547275 0.045460172
000120 f7 2b b1 3d 1e a6 b2 3d 23 fd 1b 3e 7c 38 22 be
       0.08650964 0.087230906 0.15233283 -0.1584186
000130 2f 2a 98 3e 29 c4 24 3d 7f 86 16 3e 4e e2 07 bd
       0.29719684 0.040226135 0.14699744 -0.033174805
000140 86 3a 21 3e 75 c3 fb 3e 15 60 cb 3c 8e 07 27 be
       0.15744981 0.4917256 0.024826089 -0.16311476
000150 7b 76 17 3e 09 73 f4 bd 2b 90 7e 3d 0f d6 a2 3d
       0.1479129 -0.11936004 0.062149208 0.07950985
000160 a7 95 ff bd 03 47 46 3d fe 09 4f 3e e2 e2 25 3e
       -0.12479716 0.048407566 0.20218655 0.1619983
000170 58 13 dc bd 32 69 f0 bc f3 a9 13 3d 25 63 bf be
       -0.10745877 -0.029347036 0.036050748 -0.3738033
000180 96 16 92 be e9 da 9b bb 3b b1 b5 3d 39 64 19 bd
       -0.28532857 -0.0047563207 0.08871695 -0.037449095
000190 ff 21 fa bd c7 a2 52 3d b3 ff 0e be 28 72 14 bc
       -0.122135155 0.051424768 -0.13964729 -0.00906042
0001a0 e5 cf 9f 3d 6c 5d 91 be 99 50 40 3e e9 ae 93 bd
       0.078033246 -0.28391588 0.18780746 -0.07211096
0001b0 d5 80 87 be d7 fa 64 3e 7b 0b 24 bd a6 aa a9 bd
       -0.2646548 0.22361313 -0.04005001 -0.08284502
0001c0 d2 81 1d 3d ef ab 40 3d f6 d9 10 bc 8c 42 03 be
       0.038453884 0.04703897 -0.008841028 -0.12818354
0001d0 cb b7 89 3e a4 d2 44 bc fb ce 14 bc 8c 9d 2c bd
       0.26898035 -0.012013111 -0.009082551 -0.042142436
0001e0 88 db a0 3e 8b 53 86 3d bd 66 ee 3d 8f ee ea bc
       0.3141749 0.06558903 0.116406895 -0.028678207
0001f0 db 35 eb bd e8 ec 2d be 54 fd 99 be 45 83 92 bc
       -0.114848815 -0.16984904 -0.30076087 -0.01788486
000200 fe 1d 00 3e 4d 96 89 bd fa dd 92 be 68 b3 42 3d
       0.12511441 -0.06718121 -0.2868498 0.047534376
000210 ba 50 0b 3e da 56 20 bd 37 bb 87 bc ac 4b b6 be
       0.13605013 -0.039145328 -0.016568763 -0.35604608
000220 9b da ad 3e 6e 3e a2 bd a7 d6 db bd 6f 47 90 bd
       0.33955845 -0.07922064 -0.10734301 -0.07044875
000230 fd 6e 11 3e cc 83 df 3d fc 52 29 bc e1 38 1f 3e
       0.14202495 0.1091381 -0.010334726 0.15549041
000240 73 0d 74 bc 7c 4c 49 3c 21 ce 8d 3e 4e 57 99 3d
       -0.014895785 0.012286302 0.27696326 0.07487355
000250 11 c8 82 3d e2 e6 1a bd c1 8f ff bd 9f 5a 0d 3e
       0.06385816 -0.037817843 -0.12478591 0.138041
000260 93 b5 ee 3c 92 48 21 be 63 ce 51 be 18 2f 69 be
       0.029139316 -0.1575034 -0.20488887 -0.22771871
000270 f5 c4 57 be 5f 85 02 3e 97 a0 55 3d 00 85 06 be
       -0.21071227 0.1274619 0.052155104 -0.13136673
000280 b2 d5 6c be fa 95 2b be 3f a8 a6 3c 71 cd 26 be
       -0.23128393 -0.1675643 0.020343898 -0.16289307
000290 36 f2 c6 3d 5d 09 54 be c2 2e 11 3c ff 70 a0 bc
       0.09714167 -0.20706697 0.008861246 -0.01958513
0002a0 1e 03 84 3c c3 c8 ba bd 3c 95 ab 3c c5 fa b1 3e
       0.016114768 -0.091203235 0.020945184 0.34761634
0002b0 36 48 8e 3c 4a 62 71 bd 7b 31 f6 bc b1 68 81 3e
       0.017368417 -0.058931626 -0.030052891 0.25275186
0002c0 d2 a8 ac 3d 51 33 6a 3d 3e 2f 8d bd a7 cc 8e bd
       0.084306374 0.057177845 -0.06893776 -0.06972628
0002d0 49 3d 85 be 4c b7 bc 3e f5 9a a5 bd ce 1f 1d be
       -0.2602332 0.36858594 -0.08086196 -0.15344164
0002e0 63 2a 61 3e 0f 60 9f 3e d6 cb 26 bc 09 e7 a6 bd
       0.21988826 0.31127974 -0.010180434 -0.08149535
0002f0 d7 34 37 3d 86 7f 84 3c 54 d2 ff bd a8 f3 13 be
       0.044728126 0.01617409 -0.12491289 -0.14448416
000300 c1 a3 8f 3d 57 ae 20 bd 7f 27 fe 3c ce d8 8a bd
       0.070136555 -0.039228763 0.031024693 -0.067796335
000310 5d 94 0c bf ef 9a 55 bd 97 f2 ea bb 23 aa 03 3e
       -0.54913884 -0.05214971 -0.0071700322 0.12857871
000320 ad 1b 83 3d 0f d0 61 3e 62 bd 3a 3d 1d 93 ff 3d
       0.06401763 0.22052024 0.045590766 0.124792315
000330 59 a1 b4 3c 84 be 22 be 40 83 8c be 04 ab be 3a
       0.022049593 -0.15892988 -0.27443886 0.0014546816
000340 20 6a b8 bd 3e 77 9c bd 8b b8 ed bd 23 20 60 be
       -0.09004617 -0.07639931 -0.116074644 -0.21887259
000350 f5 93 1b bd 34 04 97 bc b0 dc 52 be c9 36 8a 3e
       -0.0379829 -0.018434621 -0.20591998 0.26994923
000360 4a 6f cc 3e e9 cd 9d bb 98 2f c5 bd 68 54 e1 3d
       0.39928657 -0.004815806 -0.096282184 0.11002427
000370 72 85 8e be f4 cf 98 bd 07 57 ff 3d af 45 9d 3d
       -0.27836186 -0.07461539 0.12467771 0.07679307
000380 10 9b 38 be 34 9d e7 3d 1d 26 80 3d 3b a4 03 3d
       -0.18027902 0.11309281 0.062572695 0.032139044
000390 01 43 5f bd be 71 a3 3d 6c 7d 93 3e bd f9 36 be
       -0.05450726 0.07980679 0.28806627 -0.17868705
0003a0 d1 09 74 bd 1b 27 82 bd bd 74 fa bd 6a 96 8c 3e
       -0.059579674 -0.06355115 -0.12229297 0.27458507
0003b0 f2 27 c2 bd dc 41 57 bd 17 a7 a1 bd 29 5d 99 3d
       -0.09480275 -0.052553043 -0.07893198 0.07488472
0003c0 51 37 70 bd 4e 7c 00 3e 79 bc 06 3d fb 11 11 be
       -0.058646504 0.12547418 0.032894585 -0.14167015
0003d0 2b 44 84 bd 6a ee 8a be d4 8e a2 be be 81 e5 3c
       -0.064583145 -0.2713502 -0.31749594 0.028015967
0003e0 c9 31 32 bd e3 c5 3a bd b4 dd 2d 3e 13 2e a9 3e
       -0.04350451 -0.045598876 0.16979104 0.33042964
0003f0 7f 4a 04 3e 0a 74 38 be 97 83 63 be 84 58 5f 3e
       0.12919043 -0.18013015 -0.22218166 0.2181111

network.0.conv.0.bias f4 [512]
000000 37 c6 e6 3d f4 e7 2f be 4e b5 7e bd c5 9f 21 3c
       0.11268275 -0.17178327 -0.062184624 0.009864752
000010 e0 5b 9f be b5 af 9e 3c 6c 1a 1d be cf c3 4b be
       -0.31124783 0.019370893 -0.1534211 -0.19898914
000020 25 12 00 3e ab ef f9 bb 12 f6 7b bd 94 99 eb 3c
       0.12506922 -0.0076274476 -0.061513968 0.028759755
000030 cf e6 bb bd 5d 7c 89 3c 76 24 f5 bc 4e 26 bf 3d
       -0.091748826 0.016782934 -0.029924612 0.09333478
000040 0d 50 6b bc 61 16 06 be 56 29 c4 3c 27 a3 87 3d
       -0.014362347 -0.13094474 0.023945492 0.06622916
000050 f2 99 43 3e 2d b2 a2 3d f7 d3 22 be 9e 32 81 3d
       0.19101694 0.079441406 -0.1590117 0.063084826
000060 00 8e 2c 3e bd 0e a4 3d 07 51 f1 3c 56 84 6e 3d
       0.16851044 0.080106236 0.029457582 0.058231674
000070 15 35 26 be 56 e6 bb bd 3c 5a 13 3c 5e 7a fc bd
       -0.16231187 -0.091747925 0.0089936815 -0.12328027
000080 58 9e 1b 3e 67 c7 15 3d 11 63 5e 3d 67 c4 9d ba
       0.15197122 0.036567118 0.054293696 -0.0012036682
000090 aa 3e dc bb 9f 35 91 bb 37 d2 8c bc fc 1e 09 3d
       -0.0067213373 -0.004431441 -0.017190082 0.033476815
0000a0 03 68 d0 3d 1b 92 12 3e 84 38 99 bd c8 05 ba 3c
       0.10176089 0.14313547 -0.074814826 0.022707835
0000b0 15 92 38 be 42 99 33 3e a1 31 5b 3c 69 08 10 bd
       -0.18024476 0.17538932 0.013378532 -0.03516427
0000c0 23 45 a8 3d b6 4b ad 3d 5f 2f 54 bd 0f f7 d1 3c
       0.08216312 0.08461706 -0.05180299 0.025630502
0000d0 9f 2d 85 3d 47 27 1b 3e 16 bf 93 3d 8a b7 1a 3e
       0.06502842 0.15151702 0.07214181 0.15109077
0000e0 5a 62 97 3b de cd 69 3c 1f 14 60 3c 66 3b 28 be
       0.0046198787 0.014270274 0.013676672 -0.16428909
0000f0 3b df a4 3d 11 ea d7 3c 1b 6b 5e 3e b7 70 ff 3d
       0.0805039 0.026356729 0.21720545 0.124726705
000100 06 a3 87 3e 06 b5 8c bc 87 4a 9b 3d cd 62 71 3d
       0.26491565 -0.017176162 0.07582574 0.058932114
000110 5a 44 81 bd f1 73 c2 3d ef ca 5e 3c f4 63 91 3c
       -0.06311865 0.0949477 0.013598188 0.017747857
000120 3b 22 85 bd e0 8c 1e bd 6e c1 8c bd b9 bd 4d ba
       -0.065006696 -0.038708568 -0.06872831 -0.00078484
000130 02 9d 25 be 75 1a a4 3a a1 cd 65 bd 2e 1d 5f be
       -0.16173175 0.0012520092 -0.056104306 -0.21788475
000140 8c 0f 00 3e 2c 3b 9a 3d 6f 2e c8 bc bf 3a 56 3e
       0.1250593 0.075308174 -0.024436204 0.20920847
000150 3a ff 32 3e 46 87 c9 3c 6d 22 ad 3d e1 fd 0f bd
       0.17480174 0.024600636 0.08453832 -0.035154227
000160 e3 2d 06 ba 4b 9a 0e be 41 33 dd 3c 34 15 e9 bd
       -0.0005118532 -0.13926046 0.027001979 -0.11380997
000170 f5 6e 7f 3d 88 de 57 be 7e 52 ed bc 4e 89 fa 3d
       0.062361676 -0.21080983 -0.02897 0.1223322
000180 e1 78 34 3e c4 16 0a 3e 5a 42 f8 bc 1b de 62 bc
       0.17624237 0.13485247 -0.030305076 -0.013846899
000190 13 bc f6 3d 7b cc 9f 3d db 9a 28 3e 73 f3 0b be
       0.12047591 0.078026734 0.16465323 -0.13667087
0001a0 de 0a 64 3d a0 93 fa 3c 37 e8 8e bd 74 ee 9c 3b
       0.055674426 0.030587971 -0.06977885 0.004789168
0001b0 84 b1 87 bd 95 41 b7 bd f9 14 9c 3c fe 42 0d 3d
       -0.06625655 -0.08948056 0.01905297 0.034487717
0001c0 da 03 59 bd a6 a0 e8 3d 1d bb 91 3d 78 8c f6 bd
       -0.05298219 0.11358766 0.07115767 -0.12038511
0001d0 43 79 d7 3d 3e d0 52 bd e9 b3 d6 3c a2 62 3d 3d
       0.10521176 -0.051468126 0.026208835 0.04623664
0001e0 46 74 b6 bd ce 1a 5a 3c 74 45 8b 3d aa 1c a2 bc
       -0.08908896 0.013312055 0.068003565 -0.019789059
0001f0 88 20 fa bd 27 e7 02 be 8d a2 0b be c8 e0 b8 3d
       -0.12213236 -0.1278349 -0.13636227 0.090272486
000200 9e d0 b9 bd b9 83 f1 3d 49 fc e4 3c 09 87 d4 bd
       -0.09072994 0.11792702 0.02795233 -0.103773184
000210 c5 44 0e bd c7 b4 7d 3c 1c f0 72 3d ae c5 a7 3c
       -0.034733552 0.015484995 0.059311017 0.020480003
000220 6e fe b4 ba 94 0a 2f 3b e3 31 b1 3c 63 42 c2 3b
       -0.0013808736 0.0026709186 0.021630233 0.005928324
000230 3f 6a 27 be bc e0 32 be 50 08 9a 3d 61 7b 8d bd
       -0.16349123 -0.17468542 0.07521117 -0.06908298
000240 85 c4 80 3c b0 3f c1 3c 9c b7 73 bd b5 72 e4 bd
       0.015718708 0.023589939 -0.059501275 -0.11154691
000250 33 26 57 3d 3e 20 29 bc 8c 3b d3 3c 36 2a 8a 3b
       0.052526664 -0.010322629 0.02578523 0.0042164577
000260 fb 1b 4e be 84 cb 65 bd 2a df e8 bd 0e 43 09 3e
       -0.20127861 -0.05610229 -0.1137069 0.13404486
000270 4d 49 86 3c 21 0d 82 3d b7 f7 8e bd 8b 63 b3 bd
       0.016392374 0.063501604 -0.069808416 -0.08759221
000280 a7 6a 36 bd cd 51 33 3d e7 12 99 bd 6d 14 62 3e
       -0.044535305 0.043779183 -0.074743085 0.22078104
000290 80 42 40 bd 07 93 06 3d f3 4e 90 3d 5f 17 65 3e
       -0.04693842 0.03285506 0.07046308 0.22372197
0002a0 15 38 af 3c 8d 1e 73 be f6 40 45 bd 14 f7 15 be
       0.021389047 -0.23742123 -0.048157655 -0.14645034
0002b0 e6 5f 78 3e 91 a2 38 be a3 02 db bd 04 a7 9a bd
       0.24255332 -0.18030764 -0.10693862 -0.07551387
0002c0 89 9c 63 bb b3 ed f2 bb d4 95 e3 3a db 5c 7b bc
       -0.0034730753 -0.00741359 0.0017363378 -0.015341963
0002d0 d0 09 d2 bc 84 50 c0 3d 29 6d 15 bd b9 2f 34 be
       -0.025639445 0.09390357 -0.036481056 -0.1759633
0002e0 22 76 22 be b9 70 85 3d 5c 3e 1a bd b9 0b 18 be
       -0.15865377 0.06515641 -0.037657127 -0.14848222
0002f0 79 6b 02 3e 34 d3 27 be 9c fe b2 3d 06 a2 b8 bd
       0.1273631 -0.16389161 0.08739969 -0.090152785
000300 f7 1e f1 bd 63 01 12 be c9 6c 58 bd 8a 8a 32 3e
       -0.11773484 -0.14258341 -0.05283812 0.17435661
000310 10 37 2b be 2b b9 9b 3d 17 ac d4 3c 4e b0 ff bc
       -0.16720223 0.07603677 0.025960965 -0.031211998
000320 ac 3f 2e 3d c3 92 7d be d8 83 6c 3c f9 d1 20 bd
       0.04254119 -0.24763016 0.014435731 -0.039262746
000330 92 46 a1 bc 4f 71 8a 3d f9 36 d7 3d 16 51 95 bd
       -0.01968697 0.06759893 0.10508532 -0.072908565
000340 6e 91 05 be 18 bb d7 bd e9 2f 85 be 4e fc 11 be
       -0.13043758 -0.10533732 -0.26013115 -0.14256403
000350 fc 73 35 bd 4b 27 0d bd 05 97 d3 3d c6 1d fc 3d
       -0.044300064 -0.0344613 0.10331539 0.12310366
000360 19 4d 18 3e 65 cf 07 3e 0d 49 a0 3d 3f fa dd bd
       0.1487316 0.13262708 0.07826433 -0.10838746
000370 15 07 87 bd b0 ea 5a bd 19 d1 2e be 0a 40 45 be
       -0.06593148 -0.05344647 -0.17071952 -0.1926271
000380 d9 6d 2e be 05 23 4d 3d a8 54 45 bd c4 c6 ba bd
       -0.17034091 0.050082225 -0.048176438 -0.09119943
000390 85 24 0e be e5 a4 97 3d 08 5a 27 be c3 e5 35 3d
       -0.13881119 0.07404498 -0.16342938 0.04440857
0003a0 76 b3 41 be 2d 80 04 3e 6e e7 25 be 07 61 56 be
       -0.18916115 0.1293952 -0.16201565 -0.2093545
0003b0 a2 fa e3 3d 88 99 21 3c 9d be f4 bd cd c7 50 3d
       0.11131789 0.009863265 -0.11950419 0.050971795
0003c0 6a b9 60 3d 19 01 c0 3d e3 8a 32 be b8 3e db b9
       0.054864325 0.09375209 -0.17435794 -0.00041817664
0003d0 37 67 9b 3c 1d 8c be bc 57 6f 78 3d c1 19 72 3d
       0.018970115 -0.02326017 0.060653057 0.059106592
0003e0 0a c8 45 3d 8e dc 09 be db 21 ce 3b f1 0d b1 bd
       0.048286475 -0.13463041 0.006290657 -0.08645237
0003f0 54 5a b6 3b 45 6c f8 3c c9 e7 0a be 0e f7 03 be
       0.005564967 0.030325064 -0.13564982 -0.12887213

network.1.conv.0.weight f4 [256, 512]
000000 4c 74 96 3d b7 3a 2f be 12 9b 78 bd ff a6 07 3d
       0.073464006 -0.17112242 -0.06069476 0.033118244
000010 fb 51 e3 ba ff 33 92 bd ca 24 c0 bd e5 0d 37 bd
       -0.0017343158 -0.07138824 -0.09382017 -0.044690985
000020 d9 f6 8a 3c 63 66 b9 bd 24 1a 21 be b6 c4 66 3d
       0.01696341 -0.09052732 -0.15732628 0.056339942
000030 a9 5a 17 3e 28 6e cb bc f5 b0 be bd fc f8 b3 3e
       0.14780678 -0.0248328 -0.093110956 0.35150898
000040 17 27 50 be fa be bf 3c 4f 77 ea 3c 1f e6 45 3e
       -0.20327412 0.023406494 0.028621344 0.19326065
000050 67 f4 ed 3d 85 6e 88 3e 02 9f c0 3d 21 d2 31 3c
       0.11618882 0.2664682 0.09405328 0.010853321
000060 c4 01 3f 3e a9 9d 43 bd 81 dd 4a 3e 7a be e9 3d
       0.18653017 -0.04775778 0.1981106 0.11413284
000070 03 68 12 be 8a 83 84 bc e9 78 15 be 16 e7 86 bc
       -0.1429749 -0.016176004 -0.14596905 -0.016467612
000080 d0 76 04 3e f5 7d bf 3c ec 07 da 3c 3e e9 a2 3d
       0.12935948 0.02337549 0.026615106 0.07954644
000090 89 9e c4 bd b5 55 37 be db e0 f8 bc c5 2b 51 be
       -0.09600551 -0.17903788 -0.030380657 -0.20426853
0000a0 be ef 3f 3d a1 ad 9d 3e 58 d3 b4 3d 8d cb a6 be
       0.046859495 0.3079653 0.08829373 -0.32577172
0000b0 02 6b d5 3d a3 48 10 bd 1b 7b 43 bd a6 1b b5 bd
       0.10420801 -0.03522552 -0.047724824 -0.08843164
0000c0 8f 0e 42 3d 11 90 6a 3c 55 05 20 3d 7e f6 60 bd
       0.047377165 0.014316575 0.039067585 -0.054922573
0000d0 a2 d8 06 3e 0f 38 cb 3d 2c a8 97 3e 51 39 b9 bc
       0.13168576 0.09922802 0.29620492 -0.022610338
0000e0 8e d0 92 be 50 e8 51 be 71 82 18 be b1 9e 65 be
       -0.2867474 -0.20498776 -0.1489351 -0.22423817
0000f0 17 b3 c5 bc 29 4d d4 3d fd 4b 9c ba 6d b1 ab bc
       -0.024133248 0.1036628 -0.0011924502 -0.020958627
000100 76 32 0f 3d bb 6d 7e be fd 3d 8a bb f2 0b 89 3d
       0.034960233 -0.24846546 -0.0042188154 0.066917315
000110 35 01 38 bd f0 d4 58 3d 23 5f df 3d 09 0a b7 bc
       -0.044923026 0.052937448 0.10906818 -0.022343652
000120 78 b7 8c 3d 32 cb 86 3e c0 ff 03 3d 19 07 36 be
       0.068709314 0.263269 0.032226324 -0.17776145
000130 f9 bd 34 be a7 99 86 3a 2f ac c0 3d 57 7b 04 3e
       -0.17650594 0.0010269181 0.094078414 0.12937675
000140 ca c0 07 3d c8 f5 8b bd 57 16 63 be 35 10 1e 3e
       0.033142842 -0.068339884 -0.2217649 0.1543587
000150 e8 ca d4 bd 08 9d 07 3e ba 35 66 be 02 35 19 bd
       -0.10390264 0.13243496 -0.22481433 -0.037404068
000160 ed 37 20 3e 5c ae 8c 3e 20 86 4f 3e 7e e2 b4 3d
       0.15646334 0.27476776 0.20266008 0.088322625
000170 fd 8e a3 3e 27 c2 31 be 13 cd 6a 3d 94 4f 95 3c
       0.3194503 -0.1735922 0.05732448 0.018226422
000180 49 61 81 bd 46 d4 1c 3e 4c 86 16 3c 5f 75 19 be
       -0.06317384 0.15315351 0.009187292 -0.1498618
000190 02 0a f7 3d 93 53 df b9 dc 10 a4 3d 78 70 bf bd
       0.12062456 -0.00042596142 0.08011028 -0.093476236
0001a0 38 df 5b 3e 43 cf 82 bc af de 07 be c5 66 4e 3b
       0.2147187 -0.01596797 -0.13268541 0.003149436
0001b0 62 b2 7b 3e c0 6a fd 3d e0 97 67 3e f0 43 fb 3c
       0.24579766 0.123738766 0.2261653 0.030672044
0001c0 95 91 81 3c 7a 9f 01 3e 3f a3 81 3e 6e 62 81 bd
       0.01581649 0.12658492 0.2531986 -0.06317602
0001d0 dd e9 c5 3d 15 c6 2c be 5e b8 3e bd 0c f4 22 3d
       0.096637465 -0.16872437 -0.046562545 0.039783522
0001e0 8d e6 2f bd 40 b1 66 3e 92 34 ac bd 8d 95 44 bd
       -0.04294448 0.22528553 -0.084084645 -0.047994185
0001f0 c8 85 ec bd e4 ac 80 be 06 e4 93 be 6f 91 76 3c
       -0.11548954 -0.25131905 -0.28884906 0.0150493225
000200 3f 9d 07 3d e8 fe 00 bc 53 a6 4f 3e 82 b2 26 3b
       0.033108946 -0.007873274 0.20278291 0.0025435989
000210 fc 2a 91 bb 32 de 50 bc 74 ff d0 bd 1b 80 7b 3d
       -0.004430173 -0.012748288 -0.10204974 0.061401468
000220 7b ba 02 3d 39 16 7e 3d e1 e8 17 3d dd c4 f9 3c
       0.031916123 0.062032912 0.037087325 0.03048938
000230 71 98 c2 3c 91 6e b0 3c 22 fe 51 be 9e 61 e2 3d
       0.02375433 0.021537097 -0.205071 0.11053775
000240 de c7 68 3d 71 b1 ca bd 66 8e ea bd ee 42 f4 bc
       0.056831233 -0.098971255 -0.114529416 -0.02981707
000250 2a 4f 35 3e ef fd 48 bd 65 8f 37 3b a6 e9 b3 bc
       0.1770598 -0.049070295 0.0028009054 -0.021961998
000260 db ce 73 3d 50 85 13 3e 5e 78 83 37 8c 7a 3a 3d
       0.059523445 0.14406323 1.5672467e-05 0.045527026
000270 fe 68 44 3e 46 f4 ff 3d 08 11 e8 bd 73 67 dd bb
       0.19180676 0.12497763 -0.113313735 -0.006756717
000280 52 f2 a4 3a 9e b8 a4 bb 96 5f 01 3d 9a f4 a1 3d
       0.0012584424 -0.005026891 0.0315853 0.07907982
000290 da ec f6 bd 69 19 3a 3e a8 f7 d1 3d 2b 37 05 3e
       -0.120568946 0.18173756 0.10252315 0.13009326
0002a0 3b 25 08 bd 4a 77 86 bd 66 fe 0b 3d 2a 96 ce bd
       -0.03323863 -0.06565721 0.03417816 -0.10087235
0002b0 96 dd 34 3e 4b 4b 70 bd b6 c3 ae 3d b0 9d 09 be
       0.17662653 -0.058665555 0.08533423 -0.1343906
0002c0 59 b1 54 bd 03 29 22 3e ba 12 b6 3d 44 ba 88 bc
       -0.051926944 0.15835957 0.088902906 -0.01669038
0002d0 45 7f b3 bd 90 9d 06 3a 9d bd 2e 3d 8e 66 c0 bd
       -0.08764509 0.0005135173 0.042661298 -0.09394561
0002e0 7f 6d 1b be 79 f4 d6 3d 26 b5 ad 3d 2c 01 48 bd
       -0.15178488 0.10495848 0.08481817 -0.048829243
0002f0 fb 09 4d 3c 1a 3d ab 3d b8 49 a0 3d ec a3 45 be
       0.012514587 0.083612636 0.07826561 -0.19300812
000300 48 67 3c be 30 d7 56 3d 4d c5 6f 3d c5 39 32 3d
       -0.18398774 0.052451313 0.05853777 0.043512125
000310 3a 31 ee 3d 29 fb 25 bd f1 ba 00 3e 00 e1 30 bd
       0.11630483 -0.040522728 0.12571312 -0.043183327
000320 2b 5f 95 bc 74 b7 fc bd fd 86 16 3d 70 dd b9 bd
       -0.018233856 -0.123396784 0.03674983 -0.09075439
000330 31 b7 b0 3d 98 7d c3 3d 13 50 39 3e e6 eb c8 be
       0.08628691 0.095454395 0.18096952 -0.39242476
000340 c4 a7 1e 3d 9b 10 71 be 22 49 a3 3b 55 e0 42 bd
       0.038734213 -0.2354149 0.0049830833 -0.04757722
000350 ad 00 ab 3d c2 cb 2e 3c dd 18 6d bb 86 5f 92 3d
       0.08349738 0.010668697 -0.003617815 0.07147126
000360 3c 60 9a 3d 96 66 19 3e d5 ea c2 3d 75 2b e4 3c
       0.075378865 0.1498054 0.09517447 0.027852753
000370 01 6a c5 3d 6f 15 0f 3d 18 83 ec bd 86 4e 45 3c
       0.09639359 0.03493255 -0.11548442 0.012042647
000380 c8 bf 22 be 45 e4 67 3c e2 88 ad 3d c9 24 23 be
       -0.15893471 0.014153545 0.08473374 -0.15932001
000390 f8 80 2f be db b0 b1 bd b8 b8 8e bc e0 d4 a9 3d
       -0.17139041 -0.08676311 -0.017422065 0.08292556
0003a0 15 6d 2b bd 57 ad 13 3d b5 ad e6 bc 73 b5 c0 b8
       -0.041852076 0.03605398 -0.028159002 -9.189071e-05
0003b0 27 41 3a 3d c4 86 32 3c 58 09 b9 bd 0f 0c 3c 3d
       0.04547229 0.010896388 -0.09034985 0.045909937
0003c0 09 3e 3a 3d 67 b6 10 3e 41 96 b3 bd 25 e3 b5 3d
       0.045469318 0.14132081 -0.08768893 0.08881215
0003d0 ab cf 3f bd 01 fe b3 bd 4a b5 53 3d 0b 31 bc bd
       -0.046828907 -0.08788682 0.051686563 -0.09189042
0003e0 e2 20 c0 bb 75 8f 9b be 30 d4 4d 3d 95 3e fe bd
       -0.005863295 -0.30382887 0.050251186 -0.1241428
0003f0 00 a6 46 3e 82 77 12 be 5a 30 7a bd 19 b6 02 3d
       0.19399261 -0.14303401 -0.061081268 0.031911943

network.1.conv.0.bias f4 [256]
000000 37 54 f2 bc c3 46 2c 3c 82 10 24 3d d4 d7 59 3c
       -0.029581172 0.010514918 0.040054806 0.013296086
000010 ec 9c f7 bb aa 1a 9c 3d 40 c8 41 3d 90 bb a6 3d
       -0.0075565483 0.07622273 0.047310114 0.081412435
000020 c6 85 32 bd 76 54 49 3d f3 7e 6f bc f9 60 25 be
       -0.043584608 0.049152814 -0.014617669 -0.16150273
000030 78 e1 a0 3d 21 49 c1 bd 02 8e c3 bd 6c 58 ce bd
       0.07855505 -0.09437776 -0.0954857 -0.10075459
000040 6e f0 2c bd 49 9c 5d ba a1 70 34 3d 9c f9 48 be
       -0.04222148 -0.0008453769 0.044052724 -0.19626468
000050 7f 9a b1 bd 9d 71 57 3e 6d ce 82 bd 10 c0 19 bd
       -0.08672046 0.21039434 -0.06387029 -0.03753668
000060 fa 22 8d bd cd f8 f9 3b 87 19 2e be d4 95 c4 3c
       -0.06891437 0.0076285363 -0.17001925 0.023997225
000070 41 02 12 be 9f 78 44 bc 92 ea 09 be cb ca 7c 3c
       -0.14258672 -0.011991649 -0.13468388 0.015429209
000080 b1 61 99 bd 6b fd 51 be c1 b6 70 3e 83 aa 8f bd
       -0.07489336 -0.20506828 0.23507215 -0.070149444
000090 34 27 3a be c5 58 ce 3c 1c ae 35 3c 40 6b 34 bd
       -0.18179017 0.025188813 0.011088874 -0.044047594
0000a0 13 88 c6 bd c4 d8 07 be 28 76 5c be 66 ea a6 3d
       -0.09693923 -0.13266283 -0.21529448 0.08150177
0000b0 92 89 b9 3c eb a1 c5 3c b1 67 ad bd ff fa 0b bc
       0.022648606 0.02412506 -0.08467043 -0.008543729
0000c0 52 66 ad bd b6 80 82 3d 25 bb 53 bd 16 0c fe 3d
       -0.08466782 0.06372206 -0.051692147 0.12404649
0000d0 00 42 9e bd f9 b6 89 bb 8f 9f a1 bd c9 84 91 3c
       -0.07727432 -0.0042027202 -0.078917615 0.017763512
0000e0 40 55 e2 3c 7f 21 78 3d 13 cb 38 3d c1 64 16 3e
       0.027628541 0.06057882 0.04511554 0.14686872
0000f0 4f a0 0d be 2f 3f 77 bd dd c4 5f bc fe 2b 6d 3d
       -0.13830684 -0.06036299 -0.013657776 0.057903282
000100 5d 61 bc 3c f7 05 06 3d 9c 1b 1d 3e 37 43 33 bd
       0.022995645 0.032720532 0.15342563 -0.043765273
000110 8b 97 ac bc 5b d2 50 bd 6e fa f2 bb 07 0a b4 bd
       -0.021068355 -0.05098186 -0.0074151075 -0.08790975
000120 08 35 67 3d 05 aa dc bd 9b 6e 13 be ba e5 19 bb
       0.05644706 -0.10774616 -0.14397661 -0.0023482875
000130 7f 52 05 3d dc fb 41 3d 3d a7 97 bb 91 90 75 3e
       0.032549378 0.047359332 -0.0046280907 0.23980929
000140 c0 2c 02 be 5f 4a 37 3d 8d 4c 1d be f0 11 b2 3d
       -0.12712383 0.04474866 -0.15361233 0.086948276
000150 1b 5f 34 be 26 d3 48 bd c1 51 87 bd 7b 30 92 bd
       -0.17614405 -0.04902949 -0.0660739 -0.07138153
000160 27 e1 95 3d c8 06 03 3c a9 3d 28 39 62 6b 23 3e
       0.07318335 0.007997222 0.00016044699 0.15958932
000170 c2 bf a5 3d 4f ca 17 3e 24 a6 b2 ba 56 30 05 bc
       0.080932155 0.14823268 -0.0013629836 -0.0081292
000180 76 6d 3a be d5 87 2f bd 3e 42 7a bc c9 4e a3 3e
       -0.18205819 -0.04285415 -0.015274582 0.31896046
000190 67 77 ab 3c c3 c8 c2 bc 5f f7 9e 3d d9 80 2a be
       0.020930959 -0.023777371 0.07762026 -0.16650714
0001a0 92 d7 66 be 76 aa 6b bd 96 ac c2 3d c9 e5 30 be
       -0.22543171 -0.05753561 0.095055744 -0.17275156
0001b0 ea 54 f0 3c e5 d4 c8 bc e1 7d 10 3e eb 9b 30 be
       0.029337365 -0.024515579 0.14110519 -0.17246978
0001c0 ba 33 98 3d ff 99 f5 3d ec 89 d7 bd d0 ba b3 3d
       0.07431741 0.11992263 -0.105243534 0.08775866
0001d0 7f 0d 87 3d e0 e5 1b bd ac a5 32 bd 5a a5 2b 3e
       0.06594371 -0.038061023 -0.04361503 0.16762295
0001e0 9a 3f d7 3c 30 08 e9 bc 4f 27 f6 3d 3a e2 cb 3d
       0.026275445 -0.028446287 0.12019216 0.09955259
0001f0 7c bc dc bd e7 e6 10 bd 62 a4 0b 3e 73 a5 6e be
       -0.10778138 -0.035376456 0.13636926 -0.23305301
000200 20 58 2f bd de 4c 7e bd a8 1a 2a be cc 32 25 3d
       -0.042808652 -0.062085025 -0.16611731 0.040331647
000210 21 ad 1f bd d4 f5 27 3d 3f 4b 37 3c d8 45 5f bc
       -0.038983468 0.041005924 0.011187374 -0.013627492
000220 17 48 2a 3d a8 b7 7c bc b2 b4 74 bd 3a 28 8f bb
       0.041572656 -0.015424646 -0.059742637 -0.004368809
000230 6e 3b 9a bc d6 86 58 3d 6c dc e5 bc e4 f3 95 3c
       -0.018827166 0.052862965 -0.028059207 0.018304773
000240 22 84 45 3d 53 92 29 3c 72 dc 0e be ce a6 c0 3d
       0.048221715 0.010349828 -0.1395128 0.094068155
000250 2f 38 18 3e ee 89 aa bd da 39 44 bd e0 34 cf bd
       0.14865182 -0.08327089 -0.047906734 -0.10117507
000260 23 bd 07 3e 19 b0 9d 3e c5 af 9c 3d 8a a9 90 bd
       0.13255744 0.30798414 0.07650713 -0.07063587
000270 66 a8 e8 ba 32 79 a5 3d 78 6b a2 3c 93 b6 c3 bc
       -0.0017750382 0.08079757 0.019826636 -0.02389077
000280 f6 25 7c bc b6 c4 a5 bd 2f be cb 3c e3 ec 60 3e
       -0.01538991 -0.0809416 0.02487096 0.21965365
000290 d0 e7 c3 bc 6d 21 e7 3d a0 9f b1 bb 26 f8 30 3c
       -0.023914248 0.11285672 -0.00542064 0.010801351
0002a0 44 16 c4 3d e6 a7 08 3e 84 87 91 3d 53 bd d0 bd
       0.09574559 0.13345298 0.07105926 -0.10192361
0002b0 ff 3e 7e 3c a7 6d 36 be 8c 8f 3e 3d 6d e4 23 be
       0.015517949 -0.17815267 0.046523616 -0.16005106
0002c0 41 1a 4c bc 39 93 bb bd 39 df 87 bc f6 37 84 3d
       -0.012457431 -0.0915894 -0.016585933 0.06455986
0002d0 29 13 4b bb 40 87 bb bc 7e c9 c1 3b 9b 70 01 be
       -0.0030986762 -0.02289164 0.0059139123 -0.12640612
0002e0 1c 47 88 bc 22 5d aa bd 04 67 3f 3d 18 9a 70 be
       -0.01663547 -0.08318545 0.046729103 -0.23496282
0002f0 1e 7b 96 bd a2 db 13 3e e6 79 ca bd 04 69 04 3c
       -0.073477015 0.14439252 -0.098865315 0.008081678
000300 4c a6 51 bd a6 34 f1 bd 80 2a 20 be 3f 38 81 3d
       -0.051183984 -0.1177762 -0.15641212 0.06309556
000310 00 45 c9 bd 47 5c b7 3d 00 f0 db 3d 61 25 bb bd
       -0.09827614 0.089531474 0.10739136 -0.09137989
000320 d6 bc b6 bd ce 78 f6 3d 34 c9 1a be 67 b4 26 3e
       -0.08922736 0.120347604 -0.15115815 0.16279756
000330 39 71 11 bd 82 e9 92 bc 87 7d 41 be e8 ae 03 be
       -0.03550837 -0.01793361 -0.18895541 -0.1285969
000340 74 68 d9 bc a5 2d fa 3b 32 61 d8 3c 81 34 fc bc
       -0.026539065 0.007634836 0.026413534 -0.030786755
000350 71 01 1b be 58 7a 8b 3b 8b 69 95 3d c1 5d e2 3d
       -0.15137269 0.004256528 0.07295521 0.110530384
000360 92 d7 19 be 1c a6 28 3d 14 26 57 be 08 92 7d bd
       -0.1502364 0.04117404 -0.2101062 -0.061906844
000370 63 7e 99 3b 1d aa 1a be 6f 71 55 be c6 5c ad bd
       0.004684256 -0.15103956 -0.20844053 -0.08464961
000380 45 f7 3e 3c 37 2b 24 3b 65 59 4a 3d 6b af 01 be
       0.011655633 0.0025050172 0.04940166 -0.12664573
000390 11 f8 57 3d 47 c2 3c 3e f3 ea 0b 3e 68 18 1f be
       0.05272681 0.18433486 0.13663845 -0.15536654
0003a0 a4 53 2e bd fc 34 06 3e a5 4e 9a bd fa 39 a9 bc
       -0.042560235 0.1310615 -0.075345315 -0.020657528
0003b0 01 78 c0 bc e3 a7 ab 3d be 8e 4e bd bb 28 48 3e
       -0.023494722 0.08381631 -0.0504291 0.19546787
0003c0 a9 82 0d be 90 0c 6e 3d b3 a4 0c be a9 5a 5b 3c
       -0.13819374 0.05811745 -0.13734703 0.013388314
0003d0 3f d3 60 3e 23 79 32 3d f4 d1 3d 3d be 7d 93 3a
       0.21955584 0.043572556 0.046342805 0.0011252684
0003e0 eb 14 b8 bd 3a a8 d8 bb 6b c2 83 be d1 92 80 bc
       -0.08988365 -0.006611851 -0.25734267 -0.015695008
0003f0 ee 13 9f 3d a9 11 f2 3d dc 88 aa bd ab e7 c2 bd
       0.07767473 0.11819775 -0.08326885 -0.095168434

network.2.conv.0.weight f4 [128, 256]
000000 23 5d 43 3d 08 be ef bb 15 de 92 bc 82 6e ea 3c
       0.047696244 -0.0073163547 -0.017928163 0.028617147
000010 c2 63 57 bd 02 33 b7 3d 02 89 67 3e c1 ab 41 3e
       -0.05258537 0.08945276 0.22610858 0.18913175
000020 08 0f b0 bd 52 f7 94 bb 60 ef e0 bd 2f 41 50 bd
       -0.08596617 -0.0045460844 -0.10983157 -0.050843414
000030 f4 cc ec 3c 9f a3 cd 3d 21 ae bb 3d c5 48 c4 bd
       0.028906323 0.10040974 0.09164072 -0.09584192
000040 57 f9 ae 3e c3 81 e6 bd f3 67 5a bd f4 5b 91 3d
       0.34174606 -0.11255219 -0.05332179 0.07097617
000050 c7 ec bc 3d 94 0e 0e bd 5b 17 87 3d 03 e1 e9 3d
       0.09224849 -0.03468187 0.065962516 0.11419871
000060 3c 5b 3f be 7a ec 88 3e cb 9a 08 be b0 e3 9f 3d
       -0.18687147 0.26742917 -0.13340299 0.078071
000070 5d 99 34 3e ef 5c fc bd ac cb 42 3d 53 04 58 be
       0.17636628 -0.12322413 0.047557518 -0.210954
000080 7d 21 15 be 29 96 39 be cb 34 87 3d f3 85 97 bd
       -0.14563556 -0.18123688 0.06601866 -0.07398596
000090 ed 4a bb bd d9 28 27 3c a5 69 ee 3d 4f 59 53 bd
       -0.0914515 0.01020261 0.11641244 -0.051598843
0000a0 f3 a8 a3 3d 1e 69 a6 bd fa 26 11 3c 8e 82 bc 3d
       0.07991209 -0.08125518 0.00885939 0.09204589
0000b0 eb e5 f5 bd 86 c2 bc bd b2 d9 47 3e 61 9d 0e 3d
       -0.12006744 -0.0921679 0.19516638 0.034818057
0000c0 31 da 50 be 7a d8 fc 3d 58 6e 3d be c1 ed 3f bd
       -0.20395733 0.12345977 -0.18499124 -0.0468576
0000d0 9d b3 bc bc 34 2b b5 bc be 63 a5 3c ac 8a 0a bd
       -0.023034865 -0.022115327 0.020189162 -0.033823654
0000e0 d4 59 20 bd 07 ac 7b bd f7 4f 61 be bc 98 1c be
       -0.039148167 -0.061443355 -0.2200316 -0.15292639
0000f0 55 7d 76 3d e1 50 a9 bd 61 28 2d 3e e2 0f c3 bd
       0.06017812 -0.082673796 0.16909935 -0.09524514
000100 83 cf 77 39 b1 b8 d7 3d fb e4 a1 bd dc a4 19 bd
       0.0002363306 0.10533274 -0.07905003 -0.037510738
000110 77 0c 54 be 9f 10 28 bd 89 1d ca bd d7 2d c8 3d
       -0.2070788 -0.041031476 -0.09868915 0.09774368
000120 d2 92 98 bd 60 c0 70 bc 22 e7 e1 bd ab 76 38 bd
       -0.07449879 -0.014694303 -0.11030413 -0.045035046
000130 2a ed 0f 3d 8d 9f 4b 3d 83 cb 2f 3e f5 49 fa bd
       0.035138287 0.049712706 0.17167477 -0.122211374
000140 0e fe 8a be eb ec 15 3e 52 8c ee bc 58 a1 87 bb
       -0.27146953 0.14641158 -0.029119644 -0.0041391067
000150 38 37 35 bd d5 26 de 3d 0d 3d 3b bd d4 f5 15 3d
       -0.044242114 0.1084725 -0.04571252 0.036611393
000160 4a 58 92 bd cd e9 17 bd 9c 80 1d 3d 13 e0 88 3d
       -0.07145746 -0.037088204 0.03845273 0.06683364
000170 c1 80 04 be 92 09 03 bb 20 64 64 bd 5c b8 73 3d
       -0.1293974 -0.0019994718 -0.05575955 0.05950199
000180 5a f8 49 3b e8 3c cc 3b e0 a8 fc 3c bf 51 2b 3e
       0.0030818195 0.0062328465 0.030842245 0.16730402
000190 81 39 b2 3d c3 15 ec 3d 2f f6 66 bd 30 74 0c 3d
       0.08702374 0.11527588 -0.056387123 0.034290493
0001a0 c4 1d 91 3d 36 da be 3d 2d 46 6a 3c d8 60 58 3d
       0.070857555 0.09318964 0.014298958 0.052826732
0001b0 b5 9f 23 3d 1a 0e 3c be b2 e1 aa bd 80 8e c4 3d
       0.03994723 -0.18364754 -0.08343829 0.09597492
0001c0 b8 c8 e0 bd 59 75 57 3b 96 2b 99 3d 71 9e 7d bd
       -0.10975784 0.003287634 0.074790165 -0.06191868
0001d0 21 c9 d1 3b 84 f5 86 be 48 62 d5 3c cc f6 24 bc
       0.0064021503 -0.2635919 0.02604784 -0.010068607
0001e0 d1 34 ad bd 58 70 3d be 71 e3 24 be 5e 2a 94 bd
       -0.084573396 -0.18499887 -0.16102387 -0.072346434
0001f0 77 da 0e 3c 58 7c e3 3b ab 12 92 bd 76 a6 ce 3d
       0.008719078 0.006942313 -0.07132467 0.10090344
000200 be 61 b9 3d 37 7b fb 3d c8 7f 2e 3e 1f bc 10 be
       0.09051846 0.12279361 0.17040932 -0.14134263
000210 af 83 b4 bd f8 de 00 3e 03 e2 c8 bd 5e cb 91 3d
       -0.08814179 0.12585056 -0.09808733 0.07118867
000220 b9 15 0b 3d 45 ea 09 bc 2f 72 f7 bb ff cc 75 3d
       0.033956263 -0.008417671 -0.0075514535 0.060009953
000230 02 8c 18 3d 36 09 54 bb 94 75 64 bd a5 28 03 be
       0.037242897 -0.0032354123 -0.055776194 -0.12808473
000240 95 9a aa 3c d7 9c 2b be 51 25 53 3d 73 4b f3 bc
       0.020825664 -0.16759048 0.05154926 -0.029699063
000250 fe 4c ff bd 64 90 96 bb b6 03 71 bb 66 f6 2f be
       -0.12465857 -0.0045948494 -0.0036775894 -0.17183837
000260 68 77 6d bd 67 78 be bd 52 2e 5e 3d c2 93 ab 3d
       -0.057975203 -0.09300309 0.054243393 0.08377792
000270 4d 13 27 3e d3 63 b2 bd 1a 86 f0 3c 63 56 19 be
       0.16315956 -0.08710446 0.02936082 -0.1497436
000280 dc e5 3f 3e bf 61 59 bc 82 1d 2c 3e 5a bc 55 bd
       0.18740028 -0.013267933 0.16808131 -0.05218158
000290 cc 45 87 bd be 82 e9 bd 42 a6 a9 3d db 0d 06 be
       -0.066051096 -0.1140189 0.08283664 -0.13091223
0002a0 b0 2b ca bc e3 72 f6 bd 5e 50 81 bd 96 f1 c4 bd
       -0.024679035 -0.12033632 -0.06314157 -0.09616391
0002b0 6c 27 d4 3c 93 be a4 bd 37 88 fb 3d 99 28 2f bd
       0.025897704 -0.08044162 0.1228184 -0.042763326
0002c0 2e 90 ed bd 78 5f 00 be 42 dc 04 3e af 0c 8e 3d
       -0.11599766 -0.12536418 0.12974647 0.06936013
0002d0 a5 9b 52 3d af 65 d1 bd 0d f3 ae 3d f3 15 7c bd
       0.051417965 -0.10224473 0.08542452 -0.06154437
0002e0 3c 2a 36 bd 09 07 8e bd 6f 47 de bd f6 42 8a bd
       -0.04447387 -0.069349356 -0.108534686 -0.06751053
0002f0 2d 1f 23 bd ec de 1e 3d 61 98 cb 3d 0f c6 a3 bd
       -0.039824653 0.038786814 0.09941173 -0.07996761
000300 b4 7b 23 3e ec 38 4b be ce fb 62 be 4b 82 2d be
       0.15965158 -0.19845933 -0.22166368 -0.16944234
000310 d8 46 f0 3d 02 86 8f 3d 40 54 f0 3d 36 64 b7 bd
       0.117322624 0.07007982 0.117348194 -0.089546606
000320 f5 74 0b 3e 4e 0e 1f 3d e7 71 c3 3d e7 10 d4 3b
       0.13618834 0.038832 0.095432095 0.0064717415
000330 8c 07 8e 3c 36 30 7b bd 4b 9c ad 3c 23 21 15 3e
       0.017337583 -0.061325274 0.02119269 0.14563422
000340 07 b4 9e bd 02 16 ee bc 74 c5 40 be 26 b6 a9 bd
       -0.07749181 -0.029063229 -0.18825322 -0.08286695
000350 50 61 48 3c 08 04 d5 bd 9e ff 07 be 17 07 12 3d
       0.012230232 -0.104011595 -0.13281104 0.035651293
000360 a0 ef 30 be 73 4b 54 3d 79 e2 75 be 64 e5 05 3e
       -0.1727891 0.051829766 -0.24012174 0.13075787
000370 58 3a c5 bd ba cb f4 bd 17 ed 9b 3d cd f9 90 be
       -0.09630269 -0.1195292 0.07613581 -0.28315583
000380 83 6f 42 be 79 15 ce bc ac 7c 93 bc 6c 25 05 be
       -0.18987851 -0.025156723 -0.018003784 -0.13002557
000390 99 ab 15 bd ef dc b6 bd fe 85 4f bd 05 4f 02 be
       -0.0365406 -0.089288585 -0.050664894 -0.12725456
0003a0 6a 9f cc 3c 5b cb a2 3d 3c 87 7f 3d 73 2a 26 bd
       0.024978358 0.07948943 0.06238483 -0.040567826
0003b0 80 0b 9c bc bc cb 2a be 66 72 9d 3e 1e d1 b7 bd
       -0.019048452 -0.16679281 0.30751342 -0.08975433
0003c0 87 e4 ed bd 95 5f 83 bd 8c 4a 48 be 42 09 bd bd
       -0.11615854 -0.06414715 -0.19559687 -0.092302814
0003d0 73 0e 8f bd b2 b2 c8 3d 88 3c 7e bd 9e f4 a6 bc
       -0.06985178 0.097997084 -0.062069446 -0.020380314
0003e0 8f 85 5a bc 9a 12 44 3e 7e a6 39 3e 3c b5 05 be
       -0.013337507 0.19147721 0.18129918 -0.13057417
0003f0 96 0d 2f 3d 18 e6 54 3b ab 1f 4d 3d e1 24 93 bd
       0.042737566 0.003248578 0.05007903 -0.071847685

network.2.conv.0.bias f4 [128]
000000 d7 9f 38 be fe 2a 4b 3d b4 3a 09 be ef 17 fc 3d
       -0.18029724 0.049601547 -0.134013 0.123092525
000010 2d 39 24 be c8 35 25 be 0b cf 13 3e 25 2b 3d 3d
       -0.16037436 -0.16133797 0.1443445 0.046183724
000020 e8 d2 95 bc 3b 97 01 3d a9 3e 1c 3d 3b ac 91 3d
       -0.018289044 0.031638365 0.038145695 0.071129285
000030 df 6d 61 3d 83 a7 24 3e 71 8b d3 bc d3 53 9a 3d
       0.055036422 0.16079526 -0.025823327 0.075355195
000040 bd a2 98 3d 42 5c 01 3c 56 80 9e bd 43 c1 86 be
       0.07452915 0.007895531 -0.07739322 -0.26319322
000050 b5 85 9d bd f3 fa b0 3c 9b 8e 9c 3c 73 4e a9 bd
       -0.07691518 0.021604037 0.019110968 -0.08266916
000060 52 e2 e9 bc a9 33 f4 bd 2c 11 d6 3c 85 ad b1 bd
       -0.0285503 -0.11923916 0.026131235 -0.08675674
000070 3a 6e c6 bc ce 2f 5e bc 5a 81 20 3e 19 76 2b be
       -0.024222482 -0.013561202 0.15674344 -0.1674427
000080 5b 2e 46 bd 11 13 5c be 59 15 2c 3c 97 eb 46 3c
       -0.04838405 -0.21491648 0.010503137 0.01214113
000090 9e a7 04 bd c6 61 45 be 71 ba 0a 3d 56 be 3b bd
       -0.032386415 -0.19275579 0.03386921 -0.045835815
0000a0 52 35 9f bd 49 f7 c3 3b f6 76 a1 3c bc ad aa bd
       -0.07773842 0.0059804064 0.019710045 -0.083339185
0000b0 7c 32 d9 bd 28 f0 ae 3d 3b 57 fa 3d 25 0e c8 bd
       -0.10605332 0.085419 0.12223669 -0.09768323
0000c0 b3 0f 41 be 56 30 2f 3d d7 a7 85 bc 90 29 8b 3d
       -0.18853645 0.042770706 -0.016315384 0.06795037
0000d0 cf 11 5e bd 77 8a 05 3e 58 72 ad bb 3c d1 e5 3d
       -0.054216202 0.13041101 -0.005293172 0.11221549
0000e0 dc 67 62 3d 52 0b 84 bc 3c a0 20 be 4b 46 8b be
       0.05527483 -0.01611868 -0.15686125 -0.27202067
0000f0 fd 0a 8a be 70 4d f5 3a 59 5a aa bd 4c 1a 1a 3e
       -0.26961508 0.0018715095 -0.08318014 0.15049094
000100 96 f2 5f 3d dc 91 3f 3e c3 bc 28 be 4f 1e 4f 3e
       0.054674707 0.18707985 -0.16478257 0.20226406
000110 e7 86 31 3b d5 97 15 3c be 4a 58 bd c3 80 da bd
       0.0027088465 0.009130438 -0.052805655 -0.106690906
000120 d5 b7 60 3e fc 5a b3 3c f5 a9 bb 3d 86 7a 1a 3d
       0.21945126 0.02189397 0.09163276 0.037714504
000130 07 10 cd bd 8d 5d fc 3d 74 d4 0b 3e 11 6b 8c 3d
       -0.100128226 0.12322531 0.13655263 0.06856359
000140 a2 ee 85 3c f6 fb 2d be 11 c6 a9 ba 0f 74 4d 3e
       0.01634914 -0.16990647 -0.0012952705 0.20063804
000150 29 07 01 bd 27 ac df 3c c8 01 ee bd 14 25 b1 3d
       -0.03150097 0.027303768 -0.116214335 0.0864965
000160 70 75 04 3d a0 87 da 3d 74 8d dd bc 8d f7 54 be
       0.03233856 0.106704 -0.02704499 -0.20797558
000170 cf 3d f9 bd 1f c5 b9 bd 9b fb 73 3d e5 08 15 bd
       -0.12169992 -0.09070801 0.05956612 -0.036385436
000180 7a 79 fe bc 2f 5e c5 bd db bd 02 3e 2c 7a eb 3d
       -0.031063784 -0.09637105 0.12767737 0.11497912
000190 02 1d df bd 1b 50 a6 bd b2 ac 42 3c 69 ae 03 3e
       -0.10894205 -0.08120748 0.011881994 0.12859501
0001a0 6f 8f fc 3b 36 ea 93 3d 7c 76 cc bd 8b 08 a3 3c
       0.0077075283 0.072224066 -0.099835366 0.019901535
0001b0 04 e6 51 be 58 74 13 be a5 97 4d be 58 a6 03 3d
       -0.204979 -0.1439985 -0.20077379 0.03214106
0001c0 8f bf 59 bc 92 e0 88 3c 58 d3 6b bc 88 53 cd bd
       -0.0132903 0.016708646 -0.01439365 -0.10025698
0001d0 83 64 5a be 2f 6f e6 bd 95 02 91 bd c4 49 71 ba
       -0.21327405 -0.11251675 -0.070805706 -0.00092044123
0001e0 f6 c7 a5 3c b6 5d 8d be 10 35 b7 3b 02 77 41 be
       0.02023695 -0.27610558 0.0055910423 -0.18893054
0001f0 cd 09 74 bd 17 48 4c be d8 ce 24 3d b7 49 7f bc
       -0.05957966 -0.19949375 0.040236324 -0.01558154

network.3.weight f4 [2, 128]
000000 40 c1 22 bd 96 1e 20 3d 0f 95 04 be 53 a5 8f 3d
       -0.03973508 0.03909167 -0.12947486 0.07013955
000010 d2 8c 52 3c d0 d9 24 be ab 52 4e 3e e9 d5 75 bd
       0.012850957 -0.16098714 0.20148723 -0.060018454
000020 fb 3d 8b 3d 4d b7 3d 3d 61 3d 35 3c c4 1b 58 bd
       0.06798931 0.046317387 0.011061997 -0.052760854
000030 9b 95 b4 3d 82 f1 63 bd 09 37 d8 3c 98 6d 3a bc
       0.088175975 -0.05565024 0.02639343 -0.011378668
000040 e6 0f 12 be 7c c9 53 3c 32 03 00 be fe e0 2b 3e
       -0.14263877 0.012926456 -0.12501219 0.16785046
000050 a4 8e 62 3c c1 ce 31 3c cc ef e2 3b f5 f1 d5 bd
       0.0138279535 0.010852517 0.0069255587 -0.1044654
000060 5c a2 48 3e 2b 4c f1 bd 96 3c 29 3d d7 cf 22 3d
       0.19593185 -0.11782106 0.041317545 0.039748993
000070 75 95 36 ba 6e 5e fc 3d 4c 2f 19 3d 57 e6 a7 3d
       -0.000696502 0.123226985 0.03739862 0.08198231
000080 a5 29 04 3e 50 04 35 be 77 36 56 3d ca 42 33 3e
       0.12906511 -0.17677426 0.052298035 0.17505947
000090 4c 69 9b 3c a6 e7 7a be 64 c8 4c be ea 66 fd bd
       0.018971108 -0.2450243 -0.19998318 -0.12373145
0000a0 53 36 1a 3e 95 35 b1 3d ee 77 2f 3d 37 c6 1a bd
       0.15059786 0.08652798 0.042838983 -0.03778669
0000b0 c7 0f b8 3d 32 e4 b5 bd b0 b6 04 3e 60 b2 78 3d
       0.08987384 -0.088814154 0.12960315 0.060716987
0000c0 1f 27 2a be fa 45 5a bd 2d f2 5c 3d 9e 58 c9 3d
       -0.16616486 -0.05328939 0.053941894 0.098313555
0000d0 31 d6 ef 3d b7 6b 61 bd 13 2e f3 bc 4a 69 29 be
       0.11710776 -0.055034366 -0.029685056 -0.16544071
0000e0 d2 38 34 3d 1f f6 c7 bb 69 c3 f2 3d 59 66 32 bd
       0.0439995 -0.006102338 0.11853678 -0.043554638
0000f0 e9 7c ae bc 4b 20 14 3e 5a c8 0b bd 65 43 07 be
       -0.021299796 0.14465444 -0.034126617 -0.13209303
000100 e0 4f 5a 3e d5 5b 0b bd 54 d4 2d 3e dd a8 38 be
       0.21319532 -0.034023125 0.16975528 -0.18033166
000110 62 66 45 3d 7a 83 fb 3d df d1 07 be 4c 3e 1c 3c
       0.048193343 0.122809365 -0.13263653 0.009536337
000120 de e5 79 3d 7d 91 15 be 8e ce d8 3c 80 da 51 3e
       0.061010234 -0.1460628 0.02646568 0.20493507
000130 09 6c b7 bd e3 ce a0 bc f5 45 20 bd 5f 9a 15 3d
       -0.08956153 -0.019629901 -0.039129216 0.036524173
000140 4b a1 20 bd 4d 9e b8 bc d5 7c 2e 3d f7 ea a1 bc
       -0.03921632 -0.022536421 0.042599518 -0.01976536
000150 d5 22 0e 3e 82 89 65 3d 31 a9 90 3d ba 84 2f be
       0.13880475 0.05603934 0.07063521 -0.17140475
000160 54 a9 25 bc 6e 1a cd 3d 6b 33 e0 3c 8d c5 93 3d
       -0.010111172 0.10014807 0.027368268 0.07215414
000170 89 b6 2d be a5 02 fe bd de 73 3b bd b6 cb 16 bc
       -0.16964163 -0.12402848 -0.045764796 -0.009203842
000180 ad e4 d7 bb 59 d0 e1 3c 93 cb 41 bd 36 8f ac bb
       -0.0065885396 0.027565168 -0.047313284 -0.0052660955
000190 18 37 18 3e f0 2f ff bc 78 bf 73 3e c5 15 b4 3b
       0.14864767 -0.031150788 0.23803508 0.005495759
0001a0 b5 42 02 3e c9 8e 50 3e e9 b8 71 bc d4 f3 a2 bd
       0.12720759 0.20366968 -0.014753559 -0.07956663
0001b0 0b 37 8a bb d5 28 9d bd 47 b8 80 bd 35 57 bb 3d
       -0.0042179874 -0.07673804 -0.06285148 0.09147493
0001c0 a6 6e b6 3d c7 7c 20 3e 8a f3 33 3e f3 a0 18 be
       0.08907823 0.15672599 0.17573372 -0.14905147
0001d0 e9 e7 ae 3c b9 22 a5 3d 51 4b 4c bd f4 63 ab 3d
       0.021350818 0.080632634 -0.049876515 0.08368674
0001e0 11 60 02 3e 69 3e 40 be 8b 6f 82 3e 5f c1 9a bd
       0.12731959 -0.18773808 0.25475726 -0.07556414
0001f0 20 ff 36 3e 9c f2 46 be 57 d3 87 bc 21 79 63 3c
       0.1787076 -0.19428486 -0.016580267 0.01388386
000200 c4 c1 18 be 49 3b c2 3d 5a d4 f1 3c d8 27 f7 bd
       -0.14917666 0.09483964 0.029520202 -0.120681465
000210 2e bd 66 3d ae 13 4e be 3b 5e 83 bd 2f 3e 9c bc
       0.05633276 -0.20124695 -0.064144574 -0.01907262
000220 0f 3d db bc a1 33 a3 3d 7f f5 8a 3d d5 8a dd bd
       -0.026762513 0.07968832 0.06785106 -0.10817496
000230 13 5c ca 3d 60 c7 19 bb 63 54 15 3b 69 d4 00 3c
       0.09880843 -0.0023464784 0.0022785894 0.0078631425
000240 e9 75 52 bc b5 52 c5 3d 41 a0 f9 bd c7 ed 04 3e
       -0.012845495 0.09634916 -0.12188769 0.1298133
000250 8d 83 1e be 16 00 c9 3d e0 63 f6 3b e6 45 cc 3d
       -0.1547987 0.098144695 0.0075192302 0.099742696
000260 e7 89 2e 3e 1c 8f a0 3d b1 34 d6 bd 81 56 f3 bd
       0.17044793 0.07839796 -0.10459269 -0.11881734
000270 c9 dc ff 3d 45 fd 62 3d 2c 61 aa 3c 13 f5 8f bd
       0.12493283 0.055417318 0.020798288 -0.07029166
000280 67 b9 bf bd e5 e0 fc 3d 73 7d 2e 3e c2 ad a6 bd
       -0.093615346 0.12347583 0.17040043 -0.081386104
000290 94 75 bb 3d 81 2d 25 3d ae 62 3d 3d 08 55 e4 bd
       0.091532856 0.0403266 0.046236686 -0.11149031
0002a0 3c 28 17 be 91 ae 47 3d 99 33 02 bc a6 e4 c9 3b
       -0.14761442 0.048750464 -0.007946872 0.00616129
0002b0 13 97 e3 3b 31 fc 18 3e 7b a3 82 3e f7 37 50 bc
       0.0069454997 0.14939953 0.2551535 -0.012708656
0002c0 6c 08 a9 bd 53 f2 ca bd 6b 8f 51 3d 2b b2 77 3d
       -0.082535595 -0.09909501 0.051162165 0.06047265
0002d0 e2 e7 ee 3d ca b7 45 3e 67 b5 85 bb 47 02 29 3e
       0.11665322 0.19308391 -0.0040804627 0.16504775
0002e0 5c 2a b7 3d f5 8f a8 ba 23 2b d3 3d e3 ce 37 be
       0.08943626 -0.0012860285 0.10310962 -0.17950015
0002f0 a1 4c 11 bd 1a 51 00 be 16 23 90 3d b1 8a 81 be
       -0.03547347 -0.12530938 0.07037942 -0.25301126
000300 63 b4 ce bd 64 06 f7 3d 0f 6b 55 3d f4 6f 18 3d
       -0.10093 0.12061766 0.052104052 0.03721614
000310 65 75 b6 3d 0f 82 88 be 4d f0 ff 3d 9b 55 87 bc
       0.0890911 -0.26661727 0.124970056 -0.016520312
000320 6a ed ef 3d e0 81 2e bc e4 54 9a bd f4 21 a5 bd
       0.11715205 -0.010651082 -0.07535723 -0.08063117
000330 4e 88 dd 3d b8 b3 1a 3e 69 38 31 3e 42 49 d4 bd
       0.10817014 0.1510762 0.17306675 -0.10365535
000340 a2 87 95 3e b1 c0 f9 bb a7 51 9e 3b ea 2e c0 3d
       0.29205042 -0.0076218476 0.004831511 0.09383948
000350 88 2e 96 3c b5 d6 99 bd ea 93 f8 bd 11 1c bc 3c
       0.018332735 -0.07511655 -0.12137587 0.022962602
000360 0c e1 17 be cc f3 33 be b7 43 96 3d 0f 85 66 3d
       -0.14831942 -0.1757347 0.07337134 0.05627924
000370 39 3d 23 3c b2 8b c8 3d be d3 23 3e 53 83 ec bc
       0.009963327 0.0979227 0.15998742 -0.028871214
000380 94 36 9f 3d 13 d8 4c 3e 33 71 cf 3d 80 cb 6a bd
       0.07774082 0.20004301 0.10129013 -0.05732298
000390 c5 8a 8b 3d 80 4b 72 3d 2c 1d e3 bc a3 e5 93 3d
       0.068135776 0.059154034 -0.027723871 0.07221534
0003a0 63 be 8a 3d 07 bd e6 bd 72 60 4b 3e 64 28 96 3d
       0.06774595 -0.11266523 0.1986101 0.07331923
0003b0 cb e7 1b 3d 59 f9 73 3d 8f 5b 4a 3d 65 0f 08 bd
       0.038062852 0.05956397 0.049403723 -0.033217806
0003c0 98 51 b4 bd 7f 7f 43 be 32 2e 2f 3d 53 15 04 be
       -0.08804625 -0.19091605 0.042768665 -0.1289876
0003d0 04 bc 9b bb ed b0 f4 3d 7b 17 12 3e 83 4c ab 3d
       -0.004752638 0.119478084 0.1426677 0.08364203
0003e0 8b 58 b7 3d ab cb e1 3d 66 5a 71 be 4d 58 0b be
       0.08952435 0.11025175 -0.2356964 -0.13607903
0003f0 67 ef b2 bb 82 5f 12 be 94 9c bc bc 5d 5d 10 3e
       -0.005460668 -0.14294246 -0.023023881 0.14098115

network.3.bias f4 [2]
000000 be 67 5d bd 07 66 74 3e
       -0.054054014 0.23867045
