exomy/config/best_run_no_obstacles405k/checkpoints/18000_policy.pt (torch, 723582 bytes, 13 tensors)

log_std_parameter f4 [2]
000000 d0 fa 8c be 72 27 ec be
       -0.27535105 -0.46123844

network.0.conv.0.weight f4 [512, 5]
000000 b2 41 50 3e 94 7b a7 3b 05 d8 dd bc ba 5e 88 bd
       0.20337561 0.005111167 -0.027080545 -0.06658693
000010 2b 01 2a 3e 85 d6 b2 3d 8d 5b 0a 3d 3a 8a 30 3e
       0.16602008 0.087323226 0.033778716 0.17240229
000020 3d 9a 58 bd 47 4d 3c bc 63 02 fc bc c6 2f 7d bb
       -0.052881468 -0.011493034 -0.030762857 -0.0038633212
000030 80 50 04 ba ac 20 82 be 6b d7 6b 3d 73 b3 d3 bc
       -0.0005047396 -0.25415552 0.057578485 -0.025842404
000040 f3 b8 bc bc 2b d5 9a 3e b6 ea 09 3d 26 2d 2e 3e
       -0.02303741 0.3024076 0.033671103 0.1700941
000050 71 a5 55 3d 66 b2 4a bc cd dc a8 3d 47 60 45 3e
       0.05215973 -0.012371635 0.082452394 0.19275008
000060 a9 d5 00 3e 5b 8f c7 3d 6a 66 58 3e 54 18 b6 bc
       0.12581505 0.0974414 0.21132818 -0.022228397
000070 9a 64 48 be b5 db e3 bc f6 be 98 be 97 89 53 bd
       -0.19569626 -0.027814725 -0.29833192 -0.051644888
000080 69 75 9b 3d fe 20 c1 bc c7 c3 78 bd 56 36 d2 3b
       0.075907536 -0.023575302 -0.060733583 0.0064151688
000090 40 24 09 bd 2a 53 46 3d cd be c2 3d 60 cc 96 bd
       -0.033481836 0.048419155 0.095090486 -0.073632
0000a0 0d 3a d2 3d da 7b bd bd 48 5f 3d bd bf 67 11 bc
       0.102649786 -0.092521384 -0.046233445 -0.008874833
0000b0 3c 90 a7 bc a6 01 4b bd 78 30 89 3d bc bf 90 be
       -0.020454518 -0.04956212 0.06698698 -0.28271282
0000c0 d1 c5 84 3d 5b c2 40 be af 2c 04 bd 2b 36 6a 3e
       0.06483043 -0.1882414 -0.032269176 0.22872226
0000d0 3e c7 a6 3c 17 4a 24 3e b9 9a 41 3b 52 01 93 bd
       0.020358678 0.16043888 0.0029541685 -0.07177986
0000e0 68 1a 14 3d b5 ba c7 bd 9e cd 09 3e 3e 35 90 bd
       0.036157995 -0.097524084 0.13457343 -0.07041405
0000f0 2c d1 f9 3d 0c ce ef bc 3b 33 9c 3d a7 0e e3 3c
       0.121980995 -0.029273055 0.07626959 0.027716948
000100 27 97 02 3e a0 b2 07 3e 2e 8b d1 bd f2 00 54 bc
       0.12752973 0.13251734 -0.102316245 -0.0129396785
000110 b0 a6 5e 3e 5f 97 03 3c 7b 86 c6 bd f3 ff 0b 3d
       0.21743274 0.008031695 -0.09693619 0.03417964
000120 36 6e f5 3d 1e a6 b2 3d 23 fd 1b 3e 1b 76 be bd
       0.11983912 0.087230906 0.15233283 -0.092998706
000130 6f 24 9d 3d 02 f5 be 3c 7f 86 16 3e 4e e2 07 bd
       0.07672965 0.023310188 0.14699744 -0.033174805
000140 38 ff 0a 3e 9e 90 c7 3e af f0 5e 3c 8e 07 27 be
       0.1357392 0.38977522 0.013607188 -0.16311476
000150 7b 76 17 3e 61 8b 00 be 03 b0 1f bc 12 14 ef 3d
       0.1479129 -0.12553169 -0.009746554 0.1167375
000160 a7 95 ff bd 03 47 46 3d c8 76 43 ba 6f 31 bc 3d
       -0.12479716 0.048407566 -0.00074563595 0.09189116
000170 da f5 f5 bd 32 69 f0 bc f3 a9 13 3d e5 f5 51 be
       -0.12009783 -0.029347036 0.036050748 -0.20503958
000180 84 0f 5c be 8c 8c 4a 3d 3b b1 b5 3d 39 64 19 bd
       -0.21490294 0.049450442 0.08871695 -0.037449095
000190 70 b9 1c bd 05 86 e5 3b 87 a3 3a be 28 72 14 bc
       -0.038262784 0.0070045018 -0.18226443 -0.00906042
0001a0 e5 cf 9f 3d 6a b0 2b be 96 42 3c 3c 65 e6 ec bd
       0.078033246 -0.16766515 0.011490485 -0.11567382
0001b0 d5 80 87 be d7 fa 64 3e 69 ad 20 bd b4 5a e2 bd
       -0.2646548 0.22361313 -0.039227877 -0.110524565
0001c0 14 4d 90 3d ef ab 40 3d f6 d9 10 bc 08 54 0a be
       0.070459515 0.04703897 -0.008841028 -0.13508618
0001d0 b7 2e 3f 3e 65 af 8e 3b fb ce 14 bc 8c 9d 2c bd
       0.18670164 0.0043544048 -0.009082551 -0.042142436
0001e0 45 5e 79 3e a8 cc 65 3c 0a 17 e3 3d 8f ee ea bc
       0.24352367 0.014025845 0.11088379 -0.028678207
0001f0 db 35 eb bd ad b5 44 bd 92 1b 10 be 87 54 c5 bd
       -0.114848815 -0.048024822 -0.14073017 -0.09635263
000200 fe 1d 00 3e 4d 96 89 bd a3 19 ea bd 2f c5 36 3d
       0.12511441 -0.06718121 -0.11430671 0.044621643
000210 40 0a 29 3e da 56 20 bd 37 bb 87 bc 3e 97 79 be
       0.16507816 -0.039145328 -0.016568763 -0.243741
000220 b2 61 e9 3d a6 41 da bd a7 d6 db bd 6f 47 90 bd
       0.11395587 -0.10657053 -0.10734301 -0.07044875
000230 50 c8 1a 3e c4 64 09 3e 0c 2c 01 bd e1 38 1f 3e
       0.15115476 0.13417345 -0.031536147 0.15549041
000240 73 0d 74 bc b6 7b d5 bc 03 e8 21 3e 8a cc 85 3d
       -0.014895785 -0.026059967 0.15811162 0.06533153
000250 11 c8 82 3d e2 e6 1a bd d1 39 30 bc 78 8b 14 3e
       0.06385816 -0.037817843 -0.010755972 0.14506328
000260 a8 b2 68 3d 92 48 21 be 63 ce 51 be 49 00 21 be
       0.056811005 -0.1575034 -0.20488887 -0.15722765
000270 f7 0d 45 be ef e4 1d 3e 97 a0 55 3d 00 85 06 be
       -0.19243608 0.15419362 0.052155104 -0.13136673
000280 51 c1 0d be 4e 9f cb bd 50 e5 a8 3b 71 cd 26 be
       -0.13843276 -0.09942494 0.0051542893 -0.16289307
000290 36 f2 c6 3d 47 dd e3 bd 25 18 45 bd e9 0d 70 bd
       0.09714167 -0.1112619 -0.04811873 -0.058607016
0002a0 1e 03 84 3c c3 c8 ba bd fe 3f f3 bc 56 93 36 3e
       0.016114768 -0.091203235 -0.0296936 0.17829642
0002b0 f1 43 5a 3b 4a 62 71 bd 7b 31 f6 bc d1 e4 06 3e
       0.0033304656 -0.058931626 -0.030052891 0.13173224
0002c0 4e c8 66 3d e4 f6 60 3d 3e 2f 8d bd a7 cc 8e bd
       0.05634337 0.054922953 -0.06893776 -0.06972628
0002d0 88 cc 64 be 04 00 76 3e 3e e6 bd bd ce 1f 1d be
       -0.22343647 0.24023443 -0.09272431 -0.15344164
0002e0 63 2a 61 3e 43 7a 19 3e 10 47 91 3d d1 95 bc bd
       0.21988826 0.14988045 0.07093632 -0.09208263
0002f0 d7 34 37 3d 86 7f 84 3c 06 3a 84 bd dc 31 ef bc
       0.044728126 0.01617409 -0.064563796 -0.02919858
000300 6c 0e a4 3d 57 ae 20 bd 7f 27 fe 3c 9a bb 8a bc
       0.08010563 -0.039228763 0.031024693 -0.016935159
000310 87 13 90 be ad 58 96 bd 97 f2 ea bb 23 aa 03 3e
       -0.28139898 -0.07341132 -0.0071700322 0.12857871
000320 43 2f bc 3d 01 30 0c 3e 4a 37 2b 3d 1d 93 ff 3d
       0.09188702 0.13690187 0.041800775 0.124792315
000330 59 a1 b4 3c 24 30 a8 bd f5 59 0e be c6 74 8e bc
       0.022049593 -0.08212307 -0.13901503 -0.017389666
000340 20 6a b8 bd 3e 77 9c bd e3 ce 60 bd 4f 4f e7 bd
       -0.09004617 -0.07639931 -0.054884803 -0.11294424
000350 35 93 78 bc 34 04 97 bc b0 dc 52 be e0 76 09 3e
       -0.015171816 -0.018434621 -0.20591998 0.13424253
000360 35 08 75 3e 58 f6 11 bd 98 2f c5 bd 68 54 e1 3d
       0.23928912 -0.035635322 -0.096282184 0.11002427
000370 e7 7b 86 be b3 77 b6 bd a4 9a 26 3e af 45 9d 3d
       -0.26266405 -0.089095496 0.16269928 0.07679307
000380 10 9b 38 be 89 a4 c8 3d 90 b2 a4 3d 50 c0 98 bb
       -0.18027902 0.097970076 0.080418706 -0.0046615973
000390 01 43 5f bd be 71 a3 3d 1e 2b 31 3e 7e 88 dd bc
       -0.05450726 0.07980679 0.17301604 -0.027042624
0003a0 b2 ed b5 bd 1b 27 82 bd bd 74 fa bd 7e ba 49 3d
       -0.088832274 -0.06355115 -0.12229297 0.04925012
0003b0 9b d4 f7 3c da c0 a8 bd 17 a7 a1 bd 29 5d 99 3d
       0.030252745 -0.082399085 -0.07893198 0.07488472
0003c0 c0 99 8d bd 76 20 49 3d 4e 65 3a bb fb 11 11 be
       -0.06914091 0.049103223 -0.002844173 -0.14167015
0003d0 2b 44 84 bd 8d 17 0a be cc 99 5f be 02 97 9b 3d
       -0.064583145 -0.13485546 -0.21836013 0.07597162
0003e0 c9 31 32 bd e3 c5 3a bd b5 10 88 3d 08 82 72 3e
       -0.04350451 -0.045598876 0.066438116 0.23682415
0003f0 99 1f 1e 3e 0a 74 38 be 97 83 63 be 84 07 bb 3d
       0.15441741 -0.18013015 -0.22218166 0.09132293

network.0.conv.0.bias f4 [512]
000000 0a ed d3 3d 7c 60 f6 bd 4e b5 7e bd 9d 72 a4 3d
       0.10347946 -0.12030122 -0.062184624 0.08029673
000010 e0 5b 9f be 6d 55 a8 3c 94 ee dd bd cf c3 4b be
       -0.31124783 0.020548547 -0.10836521 -0.19898914
000020 29 a1 b3 3d 3f 90 3d 3d 26 12 0b be fc 4e b6 bb
       0.08770973 0.046280142 -0.13581142 -0.005563615
000030 a7 0a c9 bd ac a6 9b 3b dc eb 7f 3d 04 33 a8 3d
       -0.09816485 0.0047500934 0.062480792 0.082128555
000040 26 e7 65 3c 30 d3 a5 bd 88 26 5d 3d 85 e3 be 3c
       0.014032161 -0.080969214 0.053991824 0.02330185
000050 dd 85 45 3e 28 74 6a 3d 97 fd fc bd 52 cc 84 3d
       0.19289346 0.05723968 -0.12353056 0.064842835
000060 5f c1 42 3e 9c 79 ed 3d e4 c1 ae 3d 8e 8f 93 3c
       0.19019078 0.11595461 0.085330755 0.018012788
000070 ff ac 0b be 03 58 aa bd 6f 7a 7d 3d 0b 43 a1 bd
       -0.13640212 -0.08317568 0.06188434 -0.078741156
000080 1c ff 35 3e 9f 66 68 3d 49 f6 b9 3d b6 12 62 3d
       0.17773098 0.056738492 0.09080178 0.055193625
000090 8b 73 e3 bc 36 7b 79 3d 5e fc 32 3d 1d a2 a8 bd
       -0.027765056 0.06090852 0.043697707 -0.08234046
0000a0 d4 98 11 3e e7 3a 04 3e b4 8c 8e bd 16 3c 35 3d
       0.14218456 0.12913094 -0.06960431 0.044246756
0000b0 75 89 05 be a8 c0 4e 3e 7b 48 5e 3d 36 53 a7 3c
       -0.13040717 0.2019068 0.05426834 0.02042542
0000c0 44 19 07 3e 25 59 4d 3d 1a ab 87 3c 82 87 71 3d
       0.13193232 0.050133843 0.01656108 0.05896712
0000d0 5d 22 b8 3d 01 af 14 3e cb 98 57 3d e8 92 1a 3e
       0.08990929 0.14519884 0.05263595 0.15095103
0000e0 f8 9c 8b 3c c1 60 27 3d cb 45 9f 3c 01 69 fc bd
       0.017042622 0.040863756 0.01944246 -0.123247154
0000f0 bd 02 8d 3d bb 8c 82 3c 48 e3 5c 3e 3d 41 d9 3d
       0.06885288 0.015936246 0.21571076 0.10608146
000100 1a d4 83 3e 18 ea c6 3b 1c 2b 90 3d 45 4d 13 3d
       0.25747758 0.0060703866 0.070394725 0.03596236
000110 c4 b8 7e 3c 81 4e b9 3d 4f e0 8c 3d f7 07 02 3d
       0.015546981 0.090481766 0.06878721 0.031745877
000120 71 0b 2c bd fe 0b 84 bc 2d 2a 96 bd c7 b5 c0 3c
       -0.0420031 -0.016119 -0.07332263 0.023524178
000130 67 f1 0a be 8d a2 0a 3d d7 9c 6e bd 2e 1d 5f be
       -0.1356865 0.033846427 -0.058255043 -0.21788475
000140 73 aa 66 3e 13 e0 05 3e 4c 4c ed bc e4 4b 66 3e
       0.22525959 0.13073759 -0.028967045 0.22489887
000150 f7 16 53 3e b4 31 28 3d e3 75 c0 3d e7 f4 f9 bc
       0.20614229 0.041063026 0.09397485 -0.030512286
000160 51 a2 16 bd 03 74 1b be 0b 77 07 3d ee 05 ca bd
       -0.03677589 -0.15180974 0.033072513 -0.09864412
000170 5c d5 53 3d 8e 5e 0c be 2f c3 8e 3d 51 f3 0e 3e
       0.051717147 -0.13707945 0.06970822 0.13960005
000180 53 94 65 3e 7f f3 ee 3d 23 1d 46 bd 8d 55 fd bc
       0.22419862 0.11667537 -0.04836763 -0.030924583
000190 af b8 08 3e 0e f0 84 3d 0f ec 2d 3e 06 c1 8b bd
       0.13351701 0.06491099 0.1698458 -0.06823926
0001a0 8e ad f0 3c cd 91 4e 3d 3e 3f 6b bd aa 62 2c 3d
       0.029379632 0.050432015 -0.05743336 0.04208628
0001b0 c4 b2 b1 bd d0 c3 c2 bd 3c 6d 1f 3d e0 c6 92 39
       -0.08676675 -0.095100045 0.038922533 0.00027995463
0001c0 c3 88 ae bb a9 a4 e6 3d 0f 95 fa 3d 66 12 0d be
       -0.005326362 0.11261875 0.12235462 -0.1377655
0001d0 43 ff da 3d 58 11 42 3c 62 ab fa 3c dd 45 a5 3c
       0.106932186 0.011844955 0.0305993 0.020174915
0001e0 1b b5 4a bd 1e 60 11 3d db 6d d2 3d 8f eb ac 3a
       -0.049489122 0.035492055 0.102748595 0.001319276
0001f0 e9 fc 3d bd bf 2d b3 bd 37 32 da bd fc 43 0e 3e
       -0.046383772 -0.0874896 -0.10654109 0.13893121
000200 05 f8 4a bb 1d fe 1e 3e 73 8c 16 3d 4e 32 78 bd
       -0.0030970585 0.15526624 0.036755037 -0.06059485
000210 bc 32 f7 3c 02 c5 a2 3d f0 fe df 3d 1b 3b 35 3d
       0.03017556 0.079477325 0.10937297 0.04424582
000220 a3 8d 43 3b bc 6e 3d 3d 74 32 47 3d 7b dd a2 3d
       0.002983906 0.046248183 0.0486321 0.079524
000230 7e b5 ba bd 62 ca 21 be 5f 4a f4 3d d1 e7 82 bd
       -0.09116648 -0.15799859 0.11928248 -0.06391872
000240 12 47 1c 3c da 3d b5 3d c9 b4 65 bd b8 45 9d bd
       0.009538429 0.08849688 -0.056080613 -0.076793134
000250 ba d9 d6 3c b6 c9 85 3c 72 18 99 3c c2 1a e3 bc
       0.026226867 0.016331535 0.018688414 -0.02772272
000260 fb 1b 4e be 9e e5 1b bc 29 e1 92 bd bb c0 19 3e
       -0.20127861 -0.009515194 -0.07171852 0.15014927
000270 47 68 3f 3d 71 d7 88 3d d9 5c 89 bc ee 88 61 bd
       0.046730306 0.06681717 -0.016767906 -0.055062227
000280 ae 94 7d bd 70 81 c3 3d 7d c8 ae bd 95 89 50 3e
       -0.06190937 0.095461726 -0.08534334 0.20364983
000290 34 e6 38 3c 92 00 9e 3d 56 18 e8 3d 83 6e 60 3e
       0.011285353 0.077149525 0.11332767 0.21917157
0002a0 e4 34 d2 3a b7 a4 4c be 55 91 34 bd c1 48 7d bd
       0.0016037491 -0.19984709 -0.044083912 -0.06183696
0002b0 60 d1 73 3e a1 1a 38 be dd 5d 80 bd e1 7e 11 bc
       0.23810339 -0.17978908 -0.06267903 -0.008880348
0002c0 72 1c 39 3c 0f b3 88 3c ef e7 2c 3a 53 f8 83 bc
       0.011298286 0.016686944 0.000659584 -0.016109621
0002d0 e4 63 a9 3c 6d bf 00 3e ba f7 76 bd 0d 06 21 be
       0.020677514 0.12573023 -0.060294844 -0.15724964
0002e0 42 8a ff bd 4b 16 ab 3d fa 15 89 bc 8f df 32 be
       -0.124775425 0.083538614 -0.016734112 -0.17468093
0002f0 55 7a 33 3e c3 1f fb bd cb 13 70 3d ea 94 9b bc
       0.17527135 -0.122619174 0.058612626 -0.018991906
000300 ae ab 03 be d7 70 ea bd bc 43 59 bc d3 7c 0a 3e
       -0.1285846 -0.11447304 -0.013260778 0.13524179
000310 dd 31 2e be ed ad 21 3d 10 0d 1c 3d df ca 00 bc
       -0.17011209 0.03947251 0.038098395 -0.007860868
000320 63 30 0f 3d 14 3d 61 be 77 79 cd 3c 57 d5 64 3a
       0.034958255 -0.21995956 0.025082333 0.00087293
000330 72 fe 03 3c 6d 34 b0 3d 72 48 be 3d 67 14 69 bd
       0.00805627 0.086037494 0.092911616 -0.056904223
000340 1a 29 74 bd 0a f8 b9 bd 72 e7 6f be 3e 56 a5 bd
       -0.05960951 -0.09080513 -0.23428133 -0.0807309
000350 6d ba 31 bc f9 f6 cb 3b 04 17 40 3e 07 71 f8 3d
       -0.01084767 0.00622451 0.1875878 0.12130933
000360 ad 04 14 3e 33 c9 13 3e 7a 91 e4 3d c8 22 b2 bd
       0.14454909 0.1443222 0.1116056 -0.0869804
000370 b6 cd cd bd a1 39 b0 bc 19 d1 2e be 4b 1d 33 be
       -0.10049002 -0.021511855 -0.17071952 -0.17491643
000380 58 b0 fc bd 8d ed a3 3d 7e 5b 05 bc 84 1f f7 bd
       -0.123383224 0.080042936 -0.008139489 -0.12066558
000390 b4 ef 2a be 51 6e 08 3e ca c2 20 be 11 4d 37 3d
       -0.16693002 0.13323332 -0.15699306 0.04475123
0003a0 fb 3c 46 be 33 13 28 3e 31 4f 14 be 5e d3 05 be
       -0.193592 0.16413574 -0.14483334 -0.13068911
0003b0 cf a8 ed 3d d5 b1 d2 bb 17 c0 d2 bd bf 49 d2 3d
       0.11604463 -0.0064298906 -0.102905445 0.10267972
0003c0 ad d8 cc 3d a6 da 1f 3e 1f f1 0c be 96 e5 a1 3d
       0.10002265 0.15610752 -0.13763855 0.07905118
0003d0 dc ad fc 3b e3 88 41 3c 75 ca 98 3d a5 0f a2 3d
       0.0077111553 0.0118124215 0.074604906 0.0791314
0003e0 b9 6c ae 3d 82 08 d4 bd dd b0 25 3d a8 2d 9e bd
       0.08516831 -0.10353185 0.040451873 -0.07723552
0003f0 48 d8 89 3a 84 b2 dd 3c 9c 4b f2 bd d7 33 d3 bd
       0.0010516727 0.027062662 -0.118308276 -0.10312622

network.1.conv.0.weight f4 [256, 512]
000000 a6 05 8d 3d 1a 72 48 be 12 9b 78 bd 37 10 7b 3c
       0.06885843 -0.19574776 -0.06069476 0.01532369
000010 fb 51 e3 ba 8b d6 e0 bd b5 8c c7 bd e5 0d 37 bd
       -0.0017343158 -0.10978421 -0.097436346 -0.044690985
000020 32 ed f0 3a 07 28 b4 bd 60 4f a8 bd dc d4 07 3d
       0.0018381237 -0.08796697 -0.082182646 0.033161983
000030 da b9 d4 3d 44 86 13 bb 5f 41 de bd ba 11 a1 3e
       0.10387011 -0.0022510448 -0.10852312 0.31458837
000040 54 a4 2e be 3b 79 44 3c a8 ca 09 3c 0b 4c 20 3e
       -0.17054874 0.011991794 0.008410133 0.15654008
000050 2c 8f b8 3d ac 91 65 3e f2 16 ad 3d 52 bd c5 bc
       0.09011683 0.2241885 0.08451642 -0.024138127
000060 44 0d 30 3e e6 07 75 bd 3a 59 3a 3e 00 f6 3c 3d
       0.1719256 -0.059821986 0.181981 0.04613304
000070 34 25 14 be 5b bc da 3c 78 45 15 be be df 4a bd
       -0.14467317 0.026701143 -0.14577281 -0.049529783
000080 fb 72 cd 3d 73 27 6e bc b1 bc 10 bc bc 9a 88 3d
       0.100316964 -0.014535773 -0.00883405 0.06670138
000090 c5 fc 11 be bf 7c 32 be 42 5e 67 bd eb 37 02 be
       -0.1425658 -0.174304 -0.056486376 -0.12716644
0000a0 44 f2 fc 3c aa 01 92 3e 89 18 11 3e 99 b9 b6 be
       0.03087724 0.28516895 0.14169516 -0.35688475
0000b0 5f 8e b3 3d f6 30 74 bd e2 ee 9f bc 03 de 8a bd
       0.087673895 -0.059617005 -0.019523088 -0.067806266
0000c0 90 21 93 3c 14 b8 af bc bd 51 1f 3d ff 05 b4 bd
       0.01796034 -0.02145008 0.03889631 -0.08790206
0000d0 9f 19 b1 3d f0 64 b2 3d 32 62 8b 3e 5e 10 36 bd
       0.08647465 0.087106586 0.27223355 -0.044449203
0000e0 e2 1a 83 be 44 41 40 be 97 4b 25 be 94 c5 0e be
       -0.25606447 -0.18774897 -0.16142116 -0.13942558
0000f0 48 42 21 bd c5 78 0c 3d c4 7b dc bc 72 5f 55 bd
       -0.03936985 0.034294862 -0.026914485 -0.052092977
000100 31 b0 43 3c cd bd 86 be d8 90 51 bb c6 bb 7e 3d
       0.011943863 -0.26316682 -0.0031977203 0.062190793
000110 85 43 62 bc 22 a2 27 3d 46 cf 96 3d 1b 55 78 bd
       -0.013810043 0.040926106 0.07363753 -0.060628038
000120 54 64 42 3d e8 c6 51 3e ad 09 78 3d b4 f2 1b be
       0.04745896 0.20486033 0.060556103 -0.15229303
000130 79 46 41 be fa 19 c2 bc 10 1c e6 3c 57 7b 04 3e
       -0.1887454 -0.023694027 0.028089553 0.12937675
000140 8e e2 a2 3c 2f 1a b7 bd f2 e2 63 be c7 56 0c 3e
       0.01988342 -0.08940541 -0.22254542 0.13704978
000150 15 c6 06 be 01 6b f0 3d ca 54 83 be 3d 9d 7e bb
       -0.131615 0.117391594 -0.25650626 -0.0038851046
000160 cf ee b4 3d 1a 46 9b 3e 0c 87 10 3e c6 02 51 3d
       0.088346116 0.3032692 0.14114016 0.051028036
000170 36 cd 7a 3e 63 27 f3 bd ea c7 31 3d 0d 88 67 bc
       0.24492344 -0.11872747 0.043403544 -0.014131558
000180 00 d9 b1 bd 3c ee 00 3e 55 49 f3 3d 81 bb 22 be
       -0.086839676 0.12590879 0.11879221 -0.1589184
000190 bf 6f c0 3d fd 7c 07 bd 61 46 79 3d a2 41 5c bd
       0.09396314 -0.033078182 0.060858134 -0.05377353
0001a0 10 28 1b 3e 21 b6 4b bd 33 19 f3 bd e9 7b 1f bc
       0.15152001 -0.04973424 -0.11870041 -0.009734132
0001b0 35 26 5e 3e 70 2f 3c 3d 63 0e 4b 3e 29 7c 23 bd
       0.21694262 0.045943677 0.19829707 -0.03991333
0001c0 ea dc be 3c 56 53 ce 3d 97 b3 6b 3e 44 49 04 bc
       0.0232987 0.10074489 0.23017727 -0.0080741085
0001d0 93 c2 95 3d 1d 06 4d be 3f 3f 37 bd 53 2f 03 bd
       0.07312503 -0.20021863 -0.04473805 -0.032027554
0001e0 9f 76 20 bd 65 b4 59 3e 12 f2 b7 bd e6 07 c3 bd
       -0.039175626 0.21260221 -0.08981718 -0.09522991
0001f0 f0 48 a8 bd f4 1c 3a be 79 14 1f be 0e 2b 7e bb
       -0.08217037 -0.18175107 -0.15535153 -0.0038782987
000200 6d 86 b9 3c 34 3e 2c bd 36 3c e3 3d e5 1f 2a bc
       0.022647107 -0.04205151 0.11095469 -0.010383581
000210 12 d8 6a bc 5f 09 50 bd 73 92 07 be db 51 25 3d
       -0.014333742 -0.050790187 -0.1323946 0.040361267
000220 67 9d 0c 3c 41 88 10 3a c1 dd 20 3d bb f8 7b 3c
       0.0085824495 0.00055134675 0.03927398 0.015379126
000230 ca 2f 64 3c 74 e8 bd 3c 0d ba 6f be 47 56 fa 3d
       0.013927409 0.023182131 -0.23410816 0.12223487
000240 54 9e 79 3d 9a 83 e9 bd 72 b1 8f bd de 4f cf bc
       0.06094201 -0.11402054 -0.07016267 -0.025306638
000250 11 ed 15 3e a4 d7 ee bc 47 fa 85 bc e5 a8 af bd
       0.14641215 -0.02915556 -0.016354693 -0.08577136
000260 db ce 73 3d 67 15 cb 3d e4 82 5b 3c c9 f6 b2 3c
       0.059523445 0.099161915 0.013397906 0.021846192
000270 85 8d 0f 3e a8 4e de 3d 4c a2 09 be c4 7a 6f bc
       0.14018829 0.10854846 -0.13440818 -0.014616672
000280 b4 ba 0f bd b7 ad 4e bd b7 2c 28 3d 04 67 74 3d
       -0.035090163 -0.050458636 0.04105827 0.059668556
000290 a1 98 08 be 99 43 2a 3e 3b 14 9e 3d 47 8d d6 3d
       -0.13339473 0.16627349 0.077187024 0.10476165
0002a0 00 17 89 bd 01 f1 14 bd a9 61 ba 3c be d3 f8 bd
       -0.0669384 -0.03636265 0.022751646 -0.121497616
0002b0 bd bd 1e 3e 21 c6 1c bd 4b 1e 93 3d be e1 09 be
       0.15502067 -0.038274888 0.07183512 -0.1346502
0002c0 c5 9d d7 bd d2 d9 03 3e 5e 71 d8 3d 43 c7 a8 bd
       -0.10528139 0.1287606 0.10568498 -0.08241131
0002d0 c5 fb 59 bd 17 b9 df bc bb b2 e9 3c e3 a7 f3 bc
       -0.05321862 -0.027309937 0.028527608 -0.02974314
0002e0 21 4c 31 be f1 16 a6 3d 5a 0c 99 3d 6a 0f 03 3d
       -0.17314197 0.081098445 0.07473059 0.031997122
0002f0 f9 42 ff ba bc ca 9f 3d 14 29 9a 3d 15 5d 28 be
       -0.0019474915 0.078023404 0.07527366 -0.16441758
000300 c5 f5 e4 bd b1 0f 62 3d 52 57 7a 3d b3 1c ba 3c
       -0.11179689 0.055190746 0.06111843 0.022718763
000310 53 85 a8 3d a4 a4 73 bd c2 bb 98 3d a0 7c 6b bd
       0.082285546 -0.059483185 0.07457687 -0.0574919
000320 ee 82 29 bd d4 68 0b be 75 a9 b2 3c 7c a6 06 be
       -0.04138463 -0.13614208 0.021809319 -0.13149446
000330 ac a1 f5 3d 68 8b 6a 3d 4d 0c 24 3e d6 13 79 be
       0.11993727 0.057261854 0.16020317 -0.24323973
000340 d5 bd 09 3d 50 67 f4 bd 12 85 12 3c 33 ae 6a 3d
       0.033628304 -0.11933768 0.008942859 0.057295036
000350 93 86 65 3d 45 54 c8 39 28 a6 ee bc 88 78 5e 3d
       0.056036543 0.00038209758 -0.029131964 0.054314166
000360 a6 f0 ed 3c da eb f1 3d e1 a4 9f 3d f7 0c 86 3c
       0.029045414 0.11812563 0.0779512 0.016363604
000370 42 f1 f8 3d cb be e9 3c 18 83 ec bd 85 85 8b 3d
       0.12155391 0.02853336 -0.11548442 0.06812576
000380 ab 1b 3d be 16 d4 cc bc ee c5 d3 3d 41 5e 94 bd
       -0.18467586 -0.025003474 0.103404865 -0.0724454
000390 0e 3d 0e be 22 91 c7 bd b8 b8 8e bc c5 07 84 3d
       -0.13890478 -0.09744479 -0.017422065 0.064467944
0003a0 e1 c2 e8 bb 00 22 85 3c 9d 46 0f bd 52 c8 59 bc
       -0.0071033095 0.016251564 -0.03497945 -0.013292389
0003b0 53 e7 0b 3d e7 a6 35 bc 01 38 c2 bd f9 ff f2 3c
       0.034156155 -0.011087156 -0.09483338 0.029663073
0003c0 53 a8 a8 3c 03 36 dd 3d 16 c2 b0 bd f9 e9 98 3d
       0.020588076 0.108013175 -0.08630769 0.07466502
0003d0 80 b5 0f bb eb 93 a0 bd b3 84 ed 3c 25 0e f3 bd
       -0.002192825 -0.07840713 0.02899394 -0.11867932
0003e0 28 ea e3 bc 16 da 6c be 85 37 3e bd ab 6f 97 bd
       -0.027821615 -0.23130068 -0.046439666 -0.07394346
0003f0 09 ee 0f 3e aa 65 14 be cb 6b 82 bd 57 35 ab bb
       0.14055647 -0.14491907 -0.06368216 -0.0052248645

network.1.conv.0.bias f4 [256]
000000 6b 80 69 bd d7 c9 43 3d c8 64 2a 3d 34 59 b4 3c
       -0.057007235 0.04779991 0.04160002 0.022015192
000010 64 e0 9d bb 2b 6a 24 3e 40 c8 41 3d 29 2c 84 3d
       -0.004818009 0.16056125 0.047310114 0.064537354
000020 55 30 5f bb c0 2a 32 3d d9 0d 4a bc 59 86 17 be
       -0.0034055908 0.0434978 -0.012332403 -0.14797343
000030 dd 5f 15 3e aa 5d f6 bd 05 6d ba bd b3 58 c9 bd
       0.1458735 -0.12029584 -0.09102825 -0.09831371
000040 4b 27 96 3c 31 25 80 3b 74 16 c8 3d 34 20 35 be
       0.018329283 0.0039106836 0.097699076 -0.17688066
000050 7f 9a b1 bd b1 5d 6c 3e 0b 18 3a bd 12 38 f2 bc
       -0.08672046 0.23082615 -0.045433085 -0.029567752
000060 f9 81 a6 bd a4 3b 61 3c 3a 4b 2b be 07 c9 4b 3d
       -0.08130259 0.01374713 -0.16727915 0.04975226
000070 41 02 12 be 12 cf 53 bb 06 be 08 be 6f a2 90 3c
       -0.14258672 -0.0032319468 -0.13353738 0.01765558
000080 db e1 8e bd 6f c6 44 be c7 a8 71 3e da 80 c7 bb
       -0.06976672 -0.19216321 0.2359954 -0.0060883584
000090 d9 05 58 be 78 32 ab bc 1c ae 35 3c 5d 9b 1a bd
       -0.2109598 -0.020898089 0.011088874 -0.037745822
0000a0 c5 e3 e0 bd 6b 74 d8 bd 28 76 5c be d6 83 b2 3d
       -0.109809436 -0.1056908 -0.21529448 0.08716552
0000b0 92 89 b9 3c 1d a5 73 3d 6b f9 02 bd 67 97 7f 3c
       0.022648606 0.059483636 -0.031976145 0.015600062
0000c0 0b 7d 5a bd 15 64 03 3e 4b 19 50 bd 8e 26 ea 3d
       -0.053341907 0.12831147 -0.05080537 0.11433135
0000d0 d5 85 6b bd 0e b1 b6 b7 6e 06 02 bd 5a b2 af 3d
       -0.05750068 -2.1778538e-05 -0.031744413 0.0857894
0000e0 c2 a9 7b 3c 0d 96 4f 3d 3b 0c d3 3c dd 70 2f 3e
       0.015360298 0.05068021 0.025762668 0.17132898
0000f0 4f a0 0d be 2f 3f 77 bd a5 d8 0f bc e9 d4 6b 3d
       -0.13830684 -0.06036299 -0.008779679 0.057576094
000100 dd 14 05 3d f7 05 06 3d 4f ad 2e 3e 55 b1 8a bc
       0.0324906 0.032720532 0.170583 -0.016930262
000110 44 64 be 3c ce a4 76 bd 39 3a a8 bb 07 0a b4 bd
       0.02324117 -0.060215764 -0.005133894 -0.08790975
000120 38 3e ca 3d b0 02 a2 bd 70 45 c0 bd 2f c6 94 3b
       0.098751485 -0.07910669 -0.09388244 0.004540227
000130 71 ab c0 3d 1b 07 53 bc 25 f9 8a bb e9 a2 6f 3e
       0.094077 -0.012880112 -0.004241126 0.23401989
000140 9d de 1b be 5e 29 44 3d fb fd 10 be 5f cf 92 3d
       -0.15221639 0.047891013 -0.14159386 0.07168459
000150 1b 5f 34 be 94 a8 6c bd bd 4d a5 bc e4 b7 85 bd
       -0.17614405 -0.057777956 -0.02017867 -0.06529215
000160 c3 2b 32 3d 6c 1a 8c 3d 99 f6 c1 3b e0 62 47 3e
       0.043498766 0.06840977 0.0059192893 0.19471312
000170 67 52 01 3e 92 a0 17 3e e1 e7 55 3d 34 aa ff ba
       0.1262909 0.14807346 0.05222309 -0.001950568
000180 79 8b 28 be 22 1d 6d 3c 20 1a 8d 3c 69 93 af 3e
       -0.16459455 0.014472278 0.017224371 0.34292153
000190 6d d6 a6 3d 8a a1 1b bd 80 89 45 3d 04 d6 27 be
       0.08146367 -0.037995853 0.048226833 -0.16390234
0001a0 1f d5 42 be 7a 14 54 bd 95 30 ed 3d 4a 1f 26 be
       -0.19026612 -0.05177734 0.11581532 -0.16222873
0001b0 00 cf 6e 3d 02 79 83 bc 01 40 e9 3d eb 9b 30 be
       0.05830288 -0.016048912 0.11389161 -0.17246978
0001c0 79 f7 a1 3d 96 d7 1f 3e 6d 8e c4 bd 6b 4e 28 3e
       0.0790853 0.15609583 -0.09597478 0.16436164
0001d0 11 d3 07 3e 2c 97 76 bd 35 34 f8 bc 29 16 db 3d
       0.13264109 -0.060202762 -0.030298332 0.10697586
0001e0 58 0b 3d 3d 3d 5b c5 bc fa 48 08 3e dd 19 e1 3d
       0.046153396 -0.024091357 0.13309088 0.10991261
0001f0 03 59 ba bd 55 d3 c9 bc 60 f7 14 3e 4b 1d 34 be
       -0.09099009 -0.024636904 0.14547491 -0.175893
000200 83 01 10 3b 27 e3 f7 bc a8 1a 2a be 4b 21 51 3d
       0.0021973557 -0.030259682 -0.16611731 0.05105714
000210 d7 43 dd ba 4e c0 52 3c a8 36 c7 3c bd f8 9b ba
       -0.001688118 0.012863232 0.024318054 -0.0011899691
000220 17 48 2a 3d ae 3e c7 bb b2 b4 74 bd 3b 56 29 3c
       0.041572656 -0.00608047 -0.059742637 0.0103355
000230 ae 54 3c bc bf 4a f0 3c 08 57 13 bc e0 6e 2d 3d
       -0.011494799 0.029332517 -0.008992918 0.042342067
000240 4a ff 6b 3d 9e 29 9b 3d ca 65 0f be ce a6 c0 3d
       0.05761651 0.07576297 -0.14003673 0.094068155
000250 5b b4 00 3e ee 89 aa bd 15 01 f7 bc cf c3 4c bd
       0.125688 -0.08327089 -0.030151883 -0.049991425
000260 b5 ae ee 3d 05 5b c2 3e b7 5b 73 3d 8a a9 90 bd
       0.116544165 0.37960067 0.059413638 -0.07063587
000270 b8 4f 05 3d e2 74 ea 3d 78 6b a2 3c 38 44 1e 3d
       0.03254673 0.11448075 0.019826636 0.038639277
000280 a2 0a ed 3c 3c 98 7b bd 3e 00 09 3d da 45 72 3e
       0.028935734 -0.06142448 0.033447497 0.23659459
000290 67 ff 86 bc 0f 5b 23 3e 2f 10 33 bb 89 c3 97 3c
       -0.016479207 0.15952705 -0.0027322879 0.018525856
0002a0 9e 78 09 3e b8 01 ff 3d 12 54 c5 3d b9 3e 21 bd
       0.13424918 0.124515 0.09635176 -0.039366458
0002b0 04 b5 01 3d 8f b9 09 be 03 c0 42 3d 89 6d fa bd
       0.03166677 -0.13449691 0.047546398 -0.122279234
0002c0 bc da 6e bd eb 95 b5 bd 6b 0a 54 3c 38 41 b7 3d
       -0.05831407 -0.08866485 0.012941937 0.08947986
0002d0 83 4d b6 3b 98 c1 be bc b8 be 8e 3c 9b 70 01 be
       0.0055634393 -0.023285672 0.017424926 -0.12640612
0002e0 8e e2 ec bb be 09 54 bd f3 73 60 3d da 28 7f be
       -0.007229156 -0.051767103 0.054798078 -0.24917927
0002f0 70 74 13 bd ab 36 aa 3d 2a 31 b7 bd 04 69 04 3c
       -0.035999715 0.08311208 -0.08944924 0.008081678
000300 4c a6 51 bd a6 34 f1 bd 80 2a 20 be 9f 73 ad 3d
       -0.051183984 -0.1177762 -0.15641212 0.084693186
000310 e4 1f fb bc 5c 40 c2 3d 23 83 de 3d 41 41 86 bd
       -0.030654855 0.09484932 0.10864856 -0.06555415
000320 d6 bc b6 bd dc 7a c3 3d ff 08 cc bd f6 15 16 3e
       -0.08922736 0.09544918 -0.09962653 0.14656815
000330 b3 3c cc bc a9 96 7e bb 87 7d 41 be 92 41 fe bd
       -0.024931287 -0.0038847125 -0.18895541 -0.1241485
000340 74 68 d9 bc 1e 01 03 3c 53 a9 8d 3c 6c f1 fa 3b
       -0.026539065 0.007995872 0.017292654 0.0076581743
000350 c3 5d 07 be fd 1f 1f 3c c2 82 bb 3d 99 86 26 3e
       -0.13219361 0.009712216 0.091557994 0.16262282
000360 b5 35 d9 bd c3 a8 83 3c 18 a8 67 be 76 c9 99 bd
       -0.10605947 0.016071683 -0.22622716 -0.07509129
000370 18 10 8d 3c f7 95 07 be 4f 06 4b be 6b a9 aa bd
       0.017219588 -0.13240801 -0.19826625 -0.08333095
000380 45 f7 3e 3c 72 71 81 3c db 5b 5b 3d ba b2 fa bd
       0.011655633 0.015801165 0.053554397 -0.12241121
000390 11 f8 57 3d 75 9a 0e 3e 74 4e 1f 3e a5 e6 bb bd
       0.05272681 0.13926108 0.15557271 -0.09174851
0003a0 6f e3 e3 3c 4f 9e 0a 3e 0a f7 67 bd 16 21 6f bc
       0.02781841 0.13536952 -0.05663208 -0.014595291
0003b0 37 7b 14 bc 0d fd 13 3e eb 0e 3a bd 33 61 79 3e
       -0.00906258 0.14452 -0.045424383 0.24353485
0003c0 98 8a 08 be 10 75 cd 3d c6 7e e0 bd a4 31 c6 bb
       -0.1333412 0.100320935 -0.1096168 -0.006048398
0003d0 64 2a 63 3e a0 ac 4d 3d 89 1d 89 3d e4 8d e1 3b
       0.2218414 0.050213456 0.066950865 0.0068833698
0003e0 e5 5b c6 bc 60 43 8f bb 6b c2 83 be 70 07 b5 bc
       -0.02421374 -0.0043720454 -0.25734267 -0.022098273
0003f0 e3 96 f4 3d 7f f0 31 3e 96 35 70 bd 60 08 a6 bd
       0.11942842 0.17376898 -0.058644854 -0.08107066

network.2.conv.0.weight f4 [128, 256]
000000 84 ac 91 3d 28 6e 5a 3d 15 de 92 bc 82 6e ea 3c
       0.07112983 0.05332771 -0.017928163 0.028617147
000010 c2 63 57 bd 20 26 b9 3d 02 89 67 3e 25 57 39 3e
       -0.05258537 0.09040475 0.22610858 0.18099649
000020 49 63 b8 bd 22 0a 59 bb 60 ef e0 bd 2f 41 50 bd
       -0.09003312 -0.0033117612 -0.10983157 -0.050843414
000030 dc 83 81 3c 9f a3 cd 3d 21 ae bb 3d c5 48 c4 bd
       0.015809946 0.10040974 0.09164072 -0.09584192
000040 71 06 ac 3e c3 81 e6 bd b2 40 75 bd 63 4a 93 3d
       0.33598664 -0.11255219 -0.05987615 0.071919225
000050 c7 ec bc 3d f2 81 03 bd ee f3 97 3d 03 e1 e9 3d
       0.09224849 -0.032106347 0.07419573 0.11419871
000060 0d b2 30 be 7a ec 88 3e cb 9a 08 be 97 74 a2 3d
       -0.17255421 0.26742917 -0.13340299 0.07932394
000070 5d 99 34 3e 8e cf da bd ac cb 42 3d 53 04 58 be
       0.17636628 -0.10684119 0.047557518 -0.210954
000080 7d 21 15 be 52 1a 0c be 8c a4 80 3d 93 29 b8 bd
       -0.14563556 -0.13681915 0.06281385 -0.08992305
000090 d4 15 c1 bd 6f e7 27 3c a5 69 ee 3d 4f 59 53 bd
       -0.094279915 0.010248049 0.11641244 -0.051598843
0000a0 ff d6 9b 3d c7 62 aa bd fa 26 11 3c 8e 82 bc 3d
       0.076093666 -0.083196215 0.00885939 0.09204589
0000b0 eb e5 f5 bd 25 b7 8f bd de 0c 41 3e d2 8a 00 3d
       -0.12006744 -0.07017354 0.18852565 0.03138239
0000c0 35 99 50 be c4 ab e7 3d 58 6e 3d be d8 35 5d bd
       -0.20370944 0.113120586 -0.18499124 -0.054006428
0000d0 9d b3 bc bc 34 2b b5 bc 83 52 aa 3c 8e 85 fa bc
       -0.023034865 -0.022115327 0.020791298 -0.030581262
0000e0 d4 59 20 bd 60 50 05 bd 0c 21 52 be 9b 33 2d be
       -0.039148167 -0.032547355 -0.20520419 -0.16914217
0000f0 55 7d 76 3d e1 50 a9 bd 61 28 2d 3e bc 8d cb bd
       0.06017812 -0.082673796 0.16909935 -0.09939143
000100 83 cf 77 39 b1 b8 d7 3d fb e4 a1 bd c1 02 68 bb
       0.0002363306 0.10533274 -0.07905003 -0.0035402032
000110 4c 36 59 be 0b 72 3d bd 68 b5 89 bd d7 2d c8 3d
       -0.21212119 -0.046251338 -0.067240536 0.09774368
000120 e7 d0 95 bd d8 a6 d8 bb 22 e7 e1 bd ab 76 38 bd
       -0.073152356 -0.006611686 -0.11030413 -0.045035046
000130 20 90 0f 3d 43 21 36 3d 83 cb 2f 3e 5e 41 03 be
       0.035049558 0.044465315 0.17167477 -0.12817904
000140 cb 52 8a be eb ec 15 3e 52 8c ee bc 75 3d 94 bb
       -0.2701629 0.14641158 -0.029119644 -0.004523928
000150 38 37 35 bd e8 a0 df 3d 83 d2 2b bd d4 f5 15 3d
       -0.044242114 0.10919362 -0.041948806 0.036611393
000160 b8 8f 8d bd 29 db 14 bd 9c 80 1d 3d 13 79 9a 3d
       -0.06912178 -0.03634182 0.03845273 0.07542624
000170 c1 80 04 be fd 5f 20 3c 8f e5 9c bd 5c b8 73 3d
       -0.1293974 0.00978851 -0.07660972 0.05950199
000180 ba 3c 0d bb 9a 40 10 3d 9b c5 27 3d 67 9b 2c 3e
       -0.0021551088 0.03521786 0.040959936 0.16856156
000190 28 cf b4 3d 8b 1a d2 3d 86 de b3 bc 43 94 30 3d
       0.088285744 0.10258969 -0.021956693 0.043110143
0001a0 b3 49 8c 3d 36 da be 3d 45 8c ae 3c d8 60 58 3d
       0.068499945 0.09318964 0.02130712 0.052826732
0001b0 63 ad 1d 3d 1a 0e 3c be 87 b5 99 bd 80 8e c4 3d
       0.038495433 -0.18364754 -0.07505327 0.09597492
0001c0 b8 c8 e0 bd 68 07 4b 3c a4 6b 98 3d a2 68 23 bd
       -0.10975784 0.0123919025 0.07442406 -0.039894708
0001d0 f5 02 07 3c 84 f5 86 be 0a 67 d3 3c 06 42 21 bc
       0.008240451 -0.2635919 0.025805969 -0.009842401
0001e0 d1 1c d4 bd 58 70 3d be 9b 44 1d be 33 82 90 bd
       -0.10357059 -0.18499887 -0.15358202 -0.070560835
0001f0 e2 54 78 3d 58 7c e3 3b ab 12 92 bd e0 45 c5 3d
       0.060627826 0.006942313 -0.07132467 0.09632468
000200 ca b4 b0 3d 9a f9 01 3e c8 7f 2e 3e 1f bc 10 be
       0.08628233 0.12692872 0.17040932 -0.14134263
000210 92 21 ac bd c7 59 ed 3d 02 e3 49 bd 5e cb 91 3d
       -0.084048405 0.11589389 -0.049288757 0.07118867
000220 b9 15 0b 3d 45 ea 09 bc 2f 72 f7 bb 88 39 79 3d
       0.033956263 -0.008417671 -0.0075514535 0.06084588
000230 5b d5 43 3d bb 42 93 3c bc 64 5c bd ab d4 09 be
       0.047810894 0.017976156 -0.053807005 -0.13460033
000240 6e 40 c7 3c d7 9c 2b be 7e 1f 72 3d 73 4b f3 bc
       0.024322715 -0.16759048 0.059112065 -0.029699063
000250 b0 4b eb bd 64 90 96 bb ed 35 d3 ba 9e 65 28 be
       -0.114890456 -0.0045948494 -0.0016114094 -0.16445014
000260 68 77 6d bd ed ee a7 bd 52 2e 5e 3d c2 93 ab 3d
       -0.057975203 -0.08199868 0.054243393 0.08377792
000270 d8 77 21 3e ea 63 a9 bd 1a 86 f0 3c 0e 0c 27 be
       0.15768373 -0.0827101 0.02936082 -0.16313192
000280 dd 82 35 3e 4b 4d 0e 3b 82 1d 2c 3e 5d 54 4c bd
       0.17725702 0.002171355 0.16808131 -0.049885143
000290 cc 45 87 bd 3d 41 e3 bd 42 a6 a9 3d 41 35 0b be
       -0.066051096 -0.110964276 0.08283664 -0.13594534
0002a0 4e 03 08 bd e3 72 f6 bd 5e 50 81 bd 6b c6 81 bd
       -0.033206277 -0.12033632 -0.06314157 -0.06336673
0002b0 6c 27 d4 3c 2c bc a4 bd 37 88 fb 3d 76 56 b6 bb
       0.025897704 -0.080437034 0.1228184 -0.005564506
0002c0 3a 5f ff bd 78 5f 00 be cd 98 05 3e a0 9b 80 3d
       -0.12469335 -0.12536418 0.1304657 0.06279683
0002d0 a5 9b 52 3d 0f e4 cc bd b7 25 d1 3d f3 15 7c bd
       0.051417965 -0.10004436 0.10212272 -0.06154437
0002e0 3c 2a 36 bd 4a 4e a0 bd 6f 47 de bd 11 81 8e bd
       -0.04447387 -0.078274325 -0.108534686 -0.06958211
0002f0 d9 28 1c bd be 62 18 3d 61 98 cb 3d 0f c6 a3 bd
       -0.038124893 0.037203543 0.09941173 -0.07996761
000300 b4 7b 23 3e ec 38 4b be ce fb 62 be 4b 82 2d be
       0.15965158 -0.19845933 -0.22166368 -0.16944234
000310 86 fb f0 3d 3b 57 b1 3d 40 54 f0 3d 34 fb c7 bd
       0.11766724 0.08659216 0.117348194 -0.0976471
000320 f5 74 0b 3e 3e 1d 25 3d ce 9a db 3d 07 7a f8 3b
       0.13618834 0.04031109 0.10722886 0.007582906
000330 8c 07 8e 3c 36 30 7b bd 4b 9c ad 3c 23 21 15 3e
       0.017337583 -0.061325274 0.02119269 0.14563422
000340 07 b4 9e bd 02 16 ee bc e2 d7 28 be 85 bb a6 bd
       -0.07749181 -0.029063229 -0.16488603 -0.08141235
000350 d2 24 1c 3c 08 04 d5 bd 9a ea 0b be eb fa 67 3d
       0.009530263 -0.104011595 -0.13663712 0.05663578
000360 cb e9 32 be b7 4e 63 3d 7b 86 6f be d9 11 0f 3e
       -0.17471997 0.05549499 -0.23391144 0.13971652
000370 58 3a c5 bd f7 71 f9 bd cc ee 9b 3d cd f9 90 be
       -0.09630269 -0.1217994 0.07613906 -0.28315583
000380 83 6f 42 be 9d 0b d0 bc 5f 27 24 3c 6c 25 05 be
       -0.18987851 -0.025396163 0.010019152 -0.13002557
000390 99 ab 15 bd df a6 33 bd fe 85 4f bd 0a b5 fe bd
       -0.0365406 -0.043860313 -0.050664894 -0.12436874
0003a0 72 c3 d2 3c 5b cb a2 3d d8 10 7d 3d 73 2a 26 bd
       0.025727961 0.07948943 0.06178364 -0.040567826
0003b0 80 0b 9c bc 8e a8 30 be 66 72 9d 3e 2a 1a b6 bd
       -0.019048452 -0.17251799 0.30751342 -0.08891709
0003c0 87 e4 ed bd 95 5f 83 bd 8c 4a 48 be 49 5d 23 bd
       -0.11615854 -0.06414715 -0.19559687 -0.039883886
0003d0 07 99 b1 bd b2 b2 c8 3d f2 d6 bd bc 9e f4 a6 bc
       -0.08671766 0.097997084 -0.023173783 -0.020380314
0003e0 d1 da 54 bc 7b f1 41 3e 7e a6 39 3e 7f 4c 0b be
       -0.012991623 0.18939774 0.18129918 -0.136034
0003f0 57 df 16 3d 4f 7d a9 3c 6e 5a 47 3d e1 24 93 bd
       0.036834087 0.020689635 0.048670225 -0.071847685

network.2.conv.0.bias f4 [128]
000000 95 ab 3c be 4b 08 32 3d ca e9 cf bd 32 bb 17 3e
       -0.18424828 0.04346494 -0.101520136 0.14817503
000010 f5 c3 be bd c8 35 25 be e4 17 24 3e 77 23 8b 3d
       -0.093147196 -0.16133797 0.16024739 0.06793874
000020 74 c6 4e bd fe 23 65 3d 52 20 37 3d fa eb d4 3d
       -0.05048223 0.055942528 0.044708557 0.103965715
000030 bb 9d 69 3d 44 0d 1f 3e 08 18 43 bc 34 0e ba 3d
       0.05703519 0.15532404 -0.011907585 0.0908474
000040 ef 10 b1 3d b0 63 7f bc 83 d9 61 bd 59 6e 59 be
       0.08645808 -0.015587732 -0.055139076 -0.212335
000050 45 df b1 bd 9a 50 67 3c 09 d6 a6 3d 6b de 87 bd
       -0.086851634 0.014118338 0.08146293 -0.0663422
000060 6a 81 66 bc 8f 5b db bd c9 a7 49 3d dd 76 b9 bd
       -0.014068941 -0.10710823 0.049232278 -0.090558745
000070 02 32 77 bd 65 68 89 3d 90 1e 53 3e 4f 85 10 be
       -0.060350426 0.06709365 0.20617127 -0.14113353
000080 4b 2f f9 bc 7e 0f 4b be 0b 8e 2c bc d3 1d 1c 3d
       -0.030418059 -0.19830129 -0.010531913 0.03811438
000090 5f 37 8c 3b 8c c1 37 be ef 60 56 3d 34 48 7d bc
       0.0042790617 -0.17944926 0.052338537 -0.015459109
0000a0 9f a3 a4 bd 97 ef 4a 3d c2 d4 66 3d 5b 15 9a bd
       -0.08039021 0.049544897 0.056355245 -0.075236045
0000b0 fc 4b a3 bd d1 08 f2 3c 83 74 a8 3d 7a 6b f0 bc
       -0.07973477 0.02954522 0.08225348 -0.029348124
0000c0 52 71 13 be c5 cb 3e 3d 63 8b fe 3a 57 58 82 3d
       -0.14398697 0.04658105 0.0019420203 0.06364506
0000d0 6c e9 84 bd 22 54 b3 3d 06 29 85 3b de 63 6e 3d
       -0.06489834 0.087562814 0.0040637283 0.05820071
0000e0 a8 dc 37 3d 27 86 08 3d 0f c1 10 be 37 b9 78 be
       0.04488817 0.033331063 -0.14136146 -0.24289404
0000f0 1b cf 85 be 6f 44 44 3b 0a f9 80 bd fd 64 2a 3e
       -0.2613457 0.0029948016 -0.062975004 0.16640086
000100 a5 0b 8c 3d ed 97 24 3e fb 4d ee bd 8e 0f 23 3e
       0.068381585 0.1607358 -0.11635967 0.15923902
000110 c3 99 de b9 f8 72 91 3c b4 bf 4b bd a1 d1 bb bd
       -0.000424577 0.017755017 -0.04974337 -0.09170843
000120 14 91 4c 3e c8 cd 32 3d d1 57 d2 3d c4 bb 1b 3d
       0.19977218 0.04365328 0.10270656 0.038020864
000130 b2 97 0e be 82 c6 91 3d a0 61 c3 3d 95 e6 99 3d
       -0.13925055 0.071179405 0.09540105 0.07514683
000140 bd 35 73 3b c4 43 24 be 89 cc 70 3c 0d 52 2f 3e
       0.0037110888 -0.16041476 0.0146972025 0.17121144
000150 e7 d0 3d 3c dd 2c 18 3d 86 ad ad bd ac 95 0b 3e
       0.011585451 0.03715216 -0.084803626 0.13631314
000160 2b e2 24 3d 5b 3d f8 3d 3b d2 12 3d d2 51 4d be
       0.040254753 0.121210776 0.035845023 -0.20050743
000170 31 2c 34 be 9c 50 97 bd b1 3a 3d 3c 30 b9 e0 bc
       -0.17594983 -0.07388422 0.011549638 -0.027432054
000180 6b 92 1d 3c dd 67 03 be dd 0a bb 3d b3 f8 02 3e
       0.009617428 -0.1283259 0.091329314 0.12790184
000190 22 f8 89 bd f9 d8 76 bd 44 91 02 bd 9e 76 d9 3d
       -0.06736781 -0.060265515 -0.031876817 0.106183276
0001a0 65 98 31 3c 97 53 4f 3d de 30 ad bd 66 eb 14 3d
       0.010839556 0.050616827 -0.08456586 0.036357306
0001b0 74 88 69 be de e0 f8 bd 41 b8 3d be 60 ae a2 3d
       -0.22805959 -0.12152265 -0.18527319 0.07943416
0001c0 38 bd 36 bc fe db 1f 3d 95 bb 3e 3d e3 25 0d be
       -0.011153512 0.03902816 0.04656561 -0.13783984
0001d0 40 34 45 be 0a d2 f5 bd 06 5b 6c bd 8c 29 40 3c
       -0.19258213 -0.120029524 -0.057703994 0.011728656
0001e0 a1 74 18 3d b6 5d 8d be c0 6d 18 3d 42 be 37 be
       0.0372206 -0.27610558 0.03721404 -0.17943671
0001f0 62 65 4a bd 35 03 29 be 4c 69 5a 3d 98 30 30 bd
       -0.049413092 -0.1650513 0.053323075 -0.043015093

network.3.weight f4 [2, 128]
000000 a8 d2 2b bd 3f 28 89 3d 2f a4 20 be e9 2e eb 3b
       -0.041948944 0.066971295 -0.15687631 0.007177223
000010 03 c8 dd 3c d0 d9 24 be d1 19 08 3e 19 6f f8 bc
       0.027072912 -0.16098714 0.13291098 -0.030326413
000020 55 c5 62 3d 73 c0 b9 3d d9 f8 72 3d 7c 2e a0 bc
       0.05536397 0.0906991 0.05931935 -0.019553415
000030 7a f6 ea 3d 4b 01 4c bc 90 97 0c 3b 9d ef 1e bd
       0.11472793 -0.01245148 0.0021452643 -0.03880273
000040 31 b8 12 be 51 c4 57 3d b2 4e 0b be ac 20 1d 3e
       -0.14328076 0.052677456 -0.13604239 0.15344495
000050 dd 31 2b 3c b8 ec bc 3c e1 14 c6 3c e0 e8 e9 bd
       0.0104489 0.023062095 0.024179878 -0.114213705
000060 1a 24 3b 3e 91 d2 0d be af a0 10 bb 2b e0 cd 3c
       0.1827549 -0.13849856 -0.002206843 0.025131306
000070 f5 2d 06 bc 4e 80 b3 3d bd 08 0d 3d cc b2 83 3d
       -0.008189668 0.087647066 0.03443216 0.06430587
000080 e9 08 ed 3d 59 b1 46 be ab d4 8b 3d cb 1d 3a 3e
       0.11573965 -0.1940359 0.068276726 0.18175428
000090 8e b8 7c 3d 03 42 88 be 08 2c 5b be fa 5d f2 bd
       0.061699443 -0.26612863 -0.21403515 -0.11834331
0000a0 ab 04 e7 3d 81 76 90 3c 6b d2 35 3c cf b5 26 3c
       0.11280187 0.017634632 0.011097531 0.0101751825
0000b0 30 af 95 3d db 5b 23 bd c7 a1 b7 3d f9 b2 42 3d
       0.07308805 -0.039882522 0.089664035 0.047533963
0000c0 16 2d 31 be 5b c0 3f bd 3d af 84 3d 67 0c ef 3d
       -0.17302355 -0.046814304 0.064787365 0.116722874
0000d0 cf 45 14 3e f8 c8 08 bd f2 5f 1e bd 0e 92 fe bd
       0.14479755 -0.033394784 -0.03866572 -0.124302015
0000e0 6b 72 6c 3d 53 c9 46 bd c5 ca e8 3d a3 cf fd bc
       0.057726305 -0.04853184 0.113668 -0.030982798
0000f0 c9 9e b3 bc 44 a9 50 3d 24 8f 0b bd 2a 31 d6 bd
       -0.0219263 0.050942674 -0.034072056 -0.10458596
000100 ae be 4a 3e 45 cc 84 bd 49 72 1a 3d d2 4c a7 bd
       0.19799301 -0.06484274 0.037706647 -0.08168949
000110 2f 59 5c 3d 2b a7 b6 3d 65 c2 07 be 41 81 0c 3c
       0.05379599 0.089186035 -0.1325775 0.008575738
000120 b3 84 b4 3d a9 82 19 be ca e2 53 3b d6 ad f2 3d
       0.08814373 -0.14991249 0.0032331222 0.11849563
000130 12 1e 49 bd 01 d6 8e bc 4e 57 64 39 d3 83 27 3d
       -0.049100943 -0.01743603 0.00021776298 0.0408972
000140 43 4e 18 bd ac 60 fc bc 17 60 37 3d 91 a5 f0 3c
       -0.03718401 -0.030807815 0.044769373 0.029375823
000150 de 0a fd 3d 26 fe 2f 3d f2 8f 29 3d 50 90 38 be
       0.123555884 0.042966984 0.041397043 -0.18023801
000160 c5 50 0a bd 99 d6 46 3d 11 e4 91 3d ec 35 23 3d
       -0.033768434 0.0485445 0.07123578 0.039846346
000170 7a 85 27 bd b5 05 c1 bd f2 ca 97 3b 64 59 11 bc
       -0.040898778 -0.09424917 0.0046323473 -0.00887141
000180 b7 17 bf bc 00 b5 82 3d 45 ed d2 bc 54 b4 1f bb
       -0.023326738 0.06382179 -0.025747905 -0.0024368959
000190 57 74 13 3e cf 6d f6 bc b1 3e 12 3e bc 11 11 3d
       0.14399849 -0.030081658 0.14281727 0.035417303
0001a0 61 ff f1 3d a0 7d 0f 3e 71 3d 3a bd 96 f0 b9 bd
       0.11816288 0.14012766 -0.04546875 -0.09079091
0001b0 33 de 98 3c 89 02 ba bd f3 6c 67 bd 2f 44 34 3d
       0.01866064 -0.09082515 -0.056500386 0.044010337
0001c0 f1 00 49 bd a4 51 18 3e 66 6b 45 3e 1b db 9e bd
       -0.049073163 0.14874893 0.1927925 -0.07756635
0001d0 9b ee 5d 3c e9 d9 da 3d b3 85 3e bd 04 d4 d1 3d
       0.0135456575 0.10686094 -0.046514224 0.10245517
0001e0 b3 ed 08 3e 69 3e 40 be 7e 48 85 3e 75 47 8b bd
       0.13371925 -0.18773808 0.2603187 -0.06800739
0001f0 d5 d8 da 3d 87 5f 67 be 14 0b 99 bc fe c9 5a 3d
       0.10685889 -0.22595035 -0.01868204 0.05341529
000200 94 5a 2b be 4c 84 86 3d 53 20 12 3d 77 90 fa bd
       -0.16733772 0.065682024 0.035675358 -0.12234586
000210 5c 99 db 3c ae 13 4e be 6a 7c 86 bd 23 b8 ec bc
       0.026806526 -0.20124695 -0.06566699 -0.028896397
000220 94 af 66 bc 8f 28 77 3d 89 c6 ba 3d 82 91 24 be
       -0.014079947 0.060341414 0.09119899 -0.16071132
000230 d8 29 ac 3d cd ce 0b bd c5 41 fa 3c 74 75 d4 3c
       0.084064186 -0.034132767 0.03054894 0.025934912
000240 e1 df 99 bc b6 a0 a0 3d 0d e6 ff bd 8a 2c c6 3d
       -0.018783512 0.07843153 -0.124950506 0.09676464
000250 42 6a 01 be 8f 8f 95 3d 00 88 af 3a af c3 af 3d
       -0.1263819 0.07302772 0.0013391972 0.085822456
000260 32 9b 1a 3e d8 5b c3 3d 8e 37 17 be 13 8c c5 bd
       0.15098265 0.09539002 -0.14767286 -0.09645858
000270 fc 0e 69 3d 9f 54 87 3c 2c 46 0c bc a9 7e a9 bd
       0.056899056 0.016519843 -0.008561652 -0.08276112
000280 14 38 fa bd ee 4c 09 3e 01 2b f1 3d 44 63 d6 bd
       -0.12217727 0.13408253 0.117757805 -0.10468152
000290 5c e3 57 3d 43 80 c7 3c bf 56 04 3d 85 9c c1 bd
       0.05270706 0.024353152 0.03230929 -0.09453682
0002a0 49 01 0e be 80 ad c7 3b 07 b9 1b bd 34 bc c6 bc
       -0.13867678 0.006093681 -0.038018253 -0.024259664
0002b0 cf 90 bb bc b4 ee d6 3d 81 2a 6e 3e aa 98 5d bd
       -0.022896199 0.10494748 0.23258401 -0.05410067
0002c0 2d 7c b8 bd 69 b0 db bd e7 55 8b 3d 70 2b 0a 3d
       -0.0900806 -0.10727007 0.06803494 0.03373283
0002d0 2e 13 d0 3d 99 b7 31 3e ec c3 91 ba b4 a0 07 3e
       0.10159908 0.17355193 -0.0011121011 0.13244897
0002e0 3f d1 69 3d 8a b3 2b 3d 2a 3b ee 3d 89 b1 55 be
       0.05708432 0.04191927 0.116323784 -0.20868506
0002f0 24 58 15 bd 9e d8 03 be 7c 30 92 3d 7d f4 96 be
       -0.03646101 -0.12875602 0.07138154 -0.29483405
000300 33 b2 d2 bd ac 62 b9 3d 42 ff d6 3b b6 40 82 bc
       -0.10287895 0.09052023 0.006561191 -0.015899997
000310 d5 de 89 3d 06 bf 7f be ff 17 00 3e 57 fb ac bc
       0.06731955 -0.24975213 0.12509154 -0.021115942
000320 b4 01 b3 3d 24 0e 3f bd c4 11 4a bd 0b e8 ac bd
       0.08740559 -0.046644345 -0.04933335 -0.08442696
000330 96 41 be 3d cd 2f 04 3e d2 21 21 3e fb 9b c8 bd
       0.09289853 0.1290886 0.15735558 -0.09795376
000340 3f 6a 6e 3e 63 3d 5b bc 1e 86 18 bb af 65 75 3d
       0.23282717 -0.013381335 -0.00232733 0.059911426
000350 cd 5d 35 ba 22 7c b3 bd 42 9c 10 be 7f f3 93 3c
       -0.00069185795 -0.08763911 -0.14122108 0.018060444
000360 ca b1 04 be db 06 09 be ba 9c 2c 3d 76 7c 1c 3c
       -0.12958446 -0.13381521 0.042141654 0.009551158
000370 38 8a d8 b9 05 98 db 3d 17 c0 cc 3d ff 05 ee bc
       -0.00041301711 0.10722355 0.09997576 -0.029055594
000380 ec a4 c2 3d 81 db 35 3e 7e e4 9d 3d 1d 61 9d bd
       0.095041126 0.17759515 0.07709597 -0.076845385
000390 bd 7b 1c 3d b2 05 80 3d 38 94 81 bc 84 31 58 3d
       0.038203944 0.06251086 -0.015817747 0.052781597
0003a0 cf 31 12 3d f8 ac d2 bd ab a2 09 3e f4 9b bc 3d
       0.035692032 -0.102868974 0.13440959 0.09209433
0003b0 2f 0a 24 bb 61 77 ad 3d 73 32 6a 3d 34 9e 34 bd
       -0.0025030484 0.08470035 0.05717702 -0.044096187
0003c0 1c 6f 25 bd b2 a6 4b be 13 ee ec 3c 55 e0 81 bd
       -0.040389165 -0.19887808 0.028922116 -0.06341616
0003d0 b2 41 c1 3b 60 84 c5 3d 88 56 12 3e 08 cb 54 3d
       0.005897724 0.09644389 0.14290822 0.05195144
0003e0 5f 08 b3 3d ab cb e1 3d ee 59 80 be df 06 15 be
       0.08741831 0.11025175 -0.2506861 -0.14553402
0003f0 1f 7d 88 bd f5 15 04 be 80 6d 55 bd cf b6 e9 3d
       -0.0666449 -0.12899001 -0.05210638 0.11411821

network.3.bias f4 [2]
000000 cc d4 6a bc a0 3f 46 3e
       -0.014332961 0.19360209
