exomy/config/best_run_no_obstacles405k/checkpoints/201000_policy.pt (torch, 723582 bytes, 13 tensors)

log_std_parameter f4 [2]
000000 c7 43 8b bf 21 6b 1e bf
       -1.0880059 -0.61882216

network.0.conv.0.weight f4 [512, 5]
000000 85 e3 74 3e a9 a5 4d be 73 c1 0d bc ba 5e 88 bd
       0.23914917 -0.20082726 -0.008652079 -0.06658693
000010 2b 01 2a 3e b1 e4 04 3e c8 b8 07 3e 7c 18 0f 3e
       0.16602008 0.12977864 0.13254082 0.13974184
000020 3d 9a 58 bd 47 4d 3c bc 63 02 fc bc c6 2f 7d bb
       -0.052881468 -0.011493034 -0.030762857 -0.0038633212
000030 80 50 04 ba ac 20 82 be 6b d7 6b 3d 48 ae 91 3a
       -0.0005047396 -0.25415552 0.057578485 0.0011114562
000040 07 1a 5c bd 8d d5 7e 3e b6 ea 09 3d 26 2d 2e 3e
       -0.05373576 0.2488615 0.033671103 0.1700941
000050 71 a5 55 3d 66 b2 4a bc cd dc a8 3d 47 60 45 3e
       0.05215973 -0.012371635 0.082452394 0.19275008
000060 a9 d5 00 3e af f2 5c 3e 1b 9b b9 3e 6e a5 3e bc
       0.12581505 0.21576951 0.3625115 -0.011636121
000070 9a 64 48 be b5 db e3 bc bb bf 90 be d4 33 79 3a
       -0.19569626 -0.027814725 -0.2827128 0.0009506319
000080 6f 71 40 3d fe 20 c1 bc c7 c3 78 bd 56 36 d2 3b
       0.04698318 -0.023575302 -0.060733583 0.0064151688
000090 40 24 09 bd 2a 53 46 3d cd be c2 3d 60 cc 96 bd
       -0.033481836 0.048419155 0.095090486 -0.073632
0000a0 58 77 d1 3c c6 fc aa be ff df f6 bc bf 67 11 bc
       0.025569603 -0.33395976 -0.030136107 -0.008874833
0000b0 3c 90 a7 bc 50 e0 2b be c6 44 da bd ba 07 63 be
       -0.020454518 -0.16784787 -0.10657649 -0.22170916
0000c0 d1 c5 84 3d 5b c2 40 be 84 e7 0c bd 0d b7 bd 3e
       0.06483043 -0.1882414 -0.034400478 0.3705372
0000d0 ad 4f 7e 3d 17 4a 24 3e b9 9a 41 3b dd 80 f0 bb
       0.062087703 0.16043888 0.0029541685 -0.0073395805
0000e0 42 27 62 3e 08 e4 3b bd 9e cd 09 3e 3e 35 90 bd
       0.22085288 -0.045871764 0.13457343 -0.07041405
0000f0 4e 29 74 3e 99 c3 4a bd 3a 77 bb 3d a7 0e e3 3c
       0.23843881 -0.049502943 0.091536 0.027716948
000100 27 97 02 3e 3d 40 3b 3e c1 a3 7b be 99 1d 3d 3c
       0.12752973 0.18286224 -0.24574186 0.011542701
000110 b0 a6 5e 3e 5f 97 03 3c a5 5a 09 be e0 d6 ff 3c
       0.21743274 0.008031695 -0.13413484 0.03123039
000120 c4 06 a3 3d 1e a6 b2 3d 23 fd 1b 3e df e3 32 be
       0.07960275 0.087230906 0.15233283 -0.17469738
000130 f7 9b 9e 3e 64 5b fd 3c 7f 86 16 3e 4e e2 07 bd
       0.30978367 0.030927368 0.14699744 -0.033174805
000140 a5 bc 1d 3e 10 c2 01 3f e7 e4 a2 3c 8e 07 27 be
       0.15403993 0.5068674 0.01988454 -0.16311476
000150 7b 76 17 3e 75 97 0b be 6f 31 a7 3d 52 35 a8 3d
       0.1479129 -0.13631995 0.081637256 0.08213295
000160 a7 95 ff bd 03 47 46 3d 3e 43 5b 3e 70 67 3f 3e
       -0.12479716 0.048407566 0.2141237 0.18691802
000170 d5 9d d6 bd 32 69 f0 bc f3 a9 13 3d ca ae bf be
       -0.10479323 -0.029347036 0.036050748 -0.3743804
000180 54 16 98 be 63 e6 90 bc 3b b1 b5 3d 39 64 19 bd
       -0.29704535 -0.017687982 0.08871695 -0.037449095
000190 ea 65 15 be 90 03 c5 3d 34 b5 ef bd 28 72 14 bc
       -0.14589658 0.0961982 -0.11704484 -0.00906042
0001a0 e5 cf 9f 3d fc 63 90 be c7 74 57 3e a6 58 83 bd
       0.078033246 -0.28201282 0.21040641 -0.06413393
0001b0 d5 80 87 be d7 fa 64 3e 5c a6 02 bd bd e9 9a bd
       -0.2646548 0.22361313 -0.031896934 -0.07564113
0001c0 9a bc 04 3d ef ab 40 3d f6 d9 10 bc 43 dc e8 bd
       0.032406427 0.04703897 -0.008841028 -0.113701366
0001d0 8d 2e a0 3e 3f 5a 24 bb fb ce 14 bc 8c 9d 2c bd
       0.31285515 -0.0025078205 -0.009082551 -0.042142436
0001e0 8c 57 9b 3e 88 ae 94 3d 87 10 e7 3d 8f ee ea bc
       0.3034023 0.07259852 0.11282449 -0.028678207
0001f0 db 35 eb bd ee 9a 48 be 15 09 a9 be c3 93 a7 bc
       -0.114848815 -0.19590351 -0.33014742 -0.0204562
000200 fe 1d 00 3e 4d 96 89 bd 2b 0e a2 be f7 5a 28 3d
       0.12511441 -0.06718121 -0.31651434 0.041102376
000210 15 e9 13 3e da 56 20 bd 37 bb 87 bc d1 f8 b1 be
       0.14444382 -0.039145328 -0.016568763 -0.34760144
000220 b1 9e bf 3e c8 c8 a2 bd a7 d6 db bd 6f 47 90 bd
       0.3742576 -0.07948452 -0.10734301 -0.07044875
000230 73 fb 09 3e d5 bb c3 3d 80 45 45 bc e1 38 1f 3e
       0.13474827 0.095573105 -0.012040496 0.15549041
000240 73 0d 74 bc 3e 07 d8 3b fa fa 93 3e d9 f5 99 3d
       -0.014895785 0.00659266 0.28902417 0.07517595
000250 11 c8 82 3d e2 e6 1a bd 6c fa 12 be cc b4 fe 3d
       0.06385816 -0.037817843 -0.14353341 0.12436828
000260 bb e2 1a 3d 92 48 21 be 63 ce 51 be 55 3f 79 be
       0.037813883 -0.1575034 -0.20488887 -0.24340566
000270 e8 21 66 be 40 de 0b 3e 97 a0 55 3d 00 85 06 be
       -0.22473872 0.13659 0.052155104 -0.13136673
000280 e3 57 70 be c8 8d 2d be 21 5b 53 3c 71 cd 26 be
       -0.23471026 -0.16948617 0.012900145 -0.16289307
000290 36 f2 c6 3d d7 37 54 be f9 f9 90 3b 1d 7f 6b bc
       0.09714167 -0.20724426 0.0044243303 -0.014373568
0002a0 1e 03 84 3c c3 c8 ba bd 2d ac a5 3c 11 e1 c5 3e
       0.016114768 -0.091203235 0.020223701 0.38648275
0002b0 09 21 ea 3b 4a 62 71 bd 7b 31 f6 bc 92 1c 7f 3e
       0.0071450514 -0.058931626 -0.030052891 0.24913242
0002c0 35 b2 ac 3d 05 45 59 3d 3e 2f 8d bd a7 cc 8e bd
       0.08432428 0.053044338 -0.06893776 -0.06972628
0002d0 05 dd 83 be d4 83 d9 3e 52 c6 89 bd ce 1f 1d be
       -0.25754562 0.4248339 -0.0672728 -0.15344164
0002e0 63 2a 61 3e 6b 5a ae 3e 14 61 d2 ba 43 c1 8c bd
       0.21988826 0.34053358 -0.001605066 -0.06872799
0002f0 d7 34 37 3d 86 7f 84 3c 32 d7 dc bd 80 de 30 be
       0.044728126 0.01617409 -0.10783233 -0.17272377
000300 66 f8 8b 3d 57 ae 20 bd 7f 27 fe 3c e2 51 8b bd
       0.068344876 -0.039228763 0.031024693 -0.06802727
000310 99 10 11 bf 0c f5 77 bd 97 f2 ea bb 23 aa 03 3e
       -0.5666595 -0.06053643 -0.0071700322 0.12857871
000320 f7 9c ca 3c e6 2c 66 3e bb bf 01 3d 1d 93 ff 3d
       0.02473305 0.22478065 0.03167699 0.124792315
000330 59 a1 b4 3c ca 78 24 be e2 69 91 be ee e9 21 bc
       0.022049593 -0.16061702 -0.28401095 -0.009882433
000340 20 6a b8 bd 3e 77 9c bd 26 25 ee bd a2 81 79 be
       -0.09004617 -0.07639931 -0.11628179 -0.24365857
000350 15 34 36 bd 34 04 97 bc b0 dc 52 be ae e8 90 3e
       -0.044483263 -0.018434621 -0.20591998 0.2830252
000360 bd c5 d9 3e 97 7d 42 bc 98 2f c5 bd 68 54 e1 3d
       0.42533675 -0.011870763 -0.096282184 0.11002427
000370 73 ff 8e be 6b 4d a7 bd c1 e9 01 3e af 45 9d 3d
       -0.27929267 -0.08169063 0.12686826 0.07679307
000380 10 9b 38 be f5 cd be 3d 45 43 84 3d f2 94 e1 3c
       -0.18027902 0.09316627 0.06458143 0.027536843
000390 01 43 5f bd be 71 a3 3d 8b 0c a2 3e 1e f1 65 be
       -0.05450726 0.07980679 0.31650195 -0.2245526
0003a0 26 71 47 bd 1b 27 82 bd bd 74 fa bd 43 54 9e 3e
       -0.04869189 -0.06355115 -0.12229297 0.30923662
0003b0 dc 2a bb bd 4e 2c 68 bd 17 a7 a1 bd 29 5d 99 3d
       -0.09139034 -0.056682877 -0.07893198 0.07488472
0003c0 89 36 7e bd 17 cb 21 3e ab 52 bb 3c fb 11 11 be
       -0.062063728 0.15800129 0.022866568 -0.14167015
0003d0 2b 44 84 bd 5b 97 90 be 49 55 a3 be 40 5c 34 3c
       -0.064583145 -0.28240475 -0.31901005 0.011008322
0003e0 c9 31 32 bd e3 c5 3a bd b6 d3 31 3e 30 1c a7 3e
       -0.04350451 -0.045598876 0.17365918 0.32638693
0003f0 ca 2c ee 3d 0a 74 38 be 97 83 63 be 59 4c 6e 3e
       0.116296366 -0.18013015 -0.22218166 0.23271312

network.0.conv.0.bias f4 [512]
000000 78 a7 e1 3d 46 a8 34 be 4e b5 7e bd 7e c1 ab ba
       0.1101827 -0.17642316 -0.062184624 -0.001310393
000010 e0 5b 9f be dc 41 d9 3c 4f e6 1a be cf c3 4b be
       -0.31124783 0.026520662 -0.15126918 -0.19898914
000020 5b 08 fa 3d 8e bf b9 bc 0f de 95 bd 16 80 0d 3d
       0.12208625 -0.022674348 -0.07317745 0.03454598
000030 9d 0d b7 bd 10 13 ab 3c e9 96 23 bd 0f ec c3 3d
       -0.089381434 0.020883113 -0.03993884 0.09566509
000040 58 86 f0 bc 14 09 04 be 5b 61 cc 3c 66 1b 98 3d
       -0.029360935 -0.12894088 0.024948766 0.07427101
000050 e5 cc 3c 3e a7 15 a0 3d 3e 22 2a be 82 9c 81 3d
       0.18437536 0.0781663 -0.16614625 0.063286796
000060 58 26 2f 3e be f9 aa 3d 2e db a5 3c 03 b1 5f 3d
       0.1710447 0.08348416 0.020246115 0.05461217
000070 2b 75 2c be 87 10 c2 bd d6 39 20 3c a2 97 d5 bd
       -0.16841571 -0.094758086 0.009779414 -0.10429312
000080 a2 ad 1e 3e 78 a3 a5 3c 56 f3 69 3d 61 80 23 bc
       0.15495923 0.02021955 0.05711683 -0.009979338
000090 3b 1b 51 bc f5 05 38 bc aa 09 82 bc 61 91 28 3d
       -0.01276284 -0.011231889 -0.015873749 0.04115427
0000a0 75 89 d9 3d 2c f7 14 3e 69 7e a9 bd 68 a6 ed 3c
       0.10621921 0.14547414 -0.08276064 0.029010013
0000b0 6f af 32 be 00 6f 29 3e bf 49 35 3c db 22 d8 bc
       -0.17449735 0.1654625 0.011064946 -0.026383808
0000c0 f7 91 93 3d 4b fc b6 3d ac 95 97 bd c1 88 d2 3c
       0.07205575 0.0893484 -0.074015945 0.025699975
0000d0 4b f1 7b 3d 71 c8 15 3e b6 17 9a 3d b2 a3 25 3e
       0.06150941 0.14627244 0.07524054 0.16175726
0000e0 38 ed 87 bb 8b 86 33 bb 63 be 81 3c a3 d0 31 be
       -0.0041481517 -0.0027393426 0.015837854 -0.17364745
0000f0 ec 2b ae 3d 70 8e b2 3c 05 81 5c 3e 7f 7c f9 3d
       0.08504471 0.021796435 0.21533592 0.12181949
000100 6e 5f 84 3e 9a f9 11 bd 83 31 87 3d 73 fe 61 3d
       0.25854057 -0.03563843 0.066012405 0.055174302
000110 39 da 84 bd e3 e8 b8 3d 7d c4 51 3c 19 85 a5 3c
       -0.06486935 0.090287946 0.012803194 0.020205067
000120 ac 37 6f bd cd cb 25 bd 50 49 ac bd 6a 83 e1 ba
       -0.058402702 -0.040477563 -0.08412421 -0.0017205302
000130 7f c9 1b be 8b 3d d4 3b 77 9a 65 bd 2e 1d 5f be
       -0.15213583 0.006477063 -0.056055512 -0.21788475
000140 e3 07 f2 3d a5 d5 83 3d 24 13 07 bd 96 a1 5c 3e
       0.118179105 0.06437234 -0.03297724 0.21546015
000150 68 ff 3c 3e 64 f1 bf 3c fd b7 9f 3d 83 47 46 bd
       0.18456805 0.023430534 0.07798765 -0.048408043
000160 65 e6 e0 3b 6c e1 18 be 53 38 9e 3c ac 14 ea bd
       0.0068634027 -0.14929742 0.019313967 -0.11429724
000170 97 20 76 3d f2 bc 77 be ec 5c 13 bd 9e ac f0 3d
       0.060089674 -0.2419317 -0.03597729 0.11751674
000180 c7 b4 2b 3e ac 4d 0a 3e bc 72 ed bc 3a 8c 0a bd
       0.1676818 0.13506192 -0.028985374 -0.033825137
000190 40 46 f9 3d e3 ef a2 3d 5f 24 26 3e 08 fa 1c be
       0.12171602 0.07955911 0.16224812 -0.15329754
0001a0 d7 8a 81 3d f6 16 1c 3d e8 e2 ad bd f8 d1 40 bb
       0.0632531 0.038107835 -0.084905446 -0.0029422026
0001b0 d0 a2 80 bd 02 2d ad bd 9d ba 9b 3c 74 24 10 3d
       -0.06281054 -0.0845585 0.019009883 0.035191014
0001c0 cc fd 83 bd d1 b0 fb 3d 08 ca 7d 3d f5 b8 ff bd
       -0.06444892 0.122895844 0.06196025 -0.1248645
0001d0 b9 cc d5 3d 9e c4 20 bd 1e b3 ad 3c da 13 53 3d
       0.104394384 -0.03925001 0.021203574 0.051532604
0001e0 16 cd b8 bd 6d 55 30 3c 0b 26 65 3d de 6e d3 bc
       -0.09023492 0.010762555 0.055944484 -0.025809702
0001f0 86 b4 0e be 28 19 01 be 6c eb 0b be 1e 26 b0 3d
       -0.13936052 -0.12607253 -0.13664025 0.0860102
000200 33 52 af bd b1 13 f6 3d cc 2e a7 3c 16 37 ec bd
       -0.085606 0.120154746 0.020408057 -0.11533944
000210 2a 05 fb bc bf 1a 23 3c 42 8f 82 3d 61 be aa 3c
       -0.03064211 0.009955107 0.063749805 0.020842733
000220 78 6d 00 3c 90 64 ad 3b 26 d0 dd 3c 50 49 be 3b
       0.007838599 0.005291529 0.027076792 0.0058070794
000230 ed 79 32 be 4a 50 33 be 74 c3 84 3d 8c 47 ab bd
       -0.17429323 -0.17511097 0.06482592 -0.08363256
000240 0a 29 de 3c 76 af 4f 3c 21 5c 7b bd 03 62 fa bd
       0.027119178 0.0126761105 -0.061367158 -0.122257255
000250 31 17 65 3d 5f 3d 4d bb dd 9f ad 3c ed 32 29 3c
       0.05593032 -0.0031317098 0.021194393 0.010327083
000260 fb 1b 4e be d4 ef 6a bd e5 1e ee bd d6 48 04 3e
       -0.20127861 -0.057357624 -0.116269864 0.1291841
000270 6d da 8c 3c 1d ef 79 3d 3d 38 a2 bd 88 03 cb bd
       0.017193997 0.06101905 -0.07920883 -0.09912783
000280 f2 e2 ca bc fa a3 0d 3d 6d e3 8e bd 3e 4d 5f 3e
       -0.02476642 0.03458021 -0.06976972 0.2180681
000290 c9 ab 87 bd b2 13 d2 3c 8f 33 89 3d fd 78 64 3e
       -0.06624562 0.025644157 0.06699287 0.22311778
0002a0 93 56 d8 3c 2f ab 6f be 96 81 1e bd d2 d0 21 be
       0.02640847 -0.23405145 -0.0386978 -0.15802315
0002b0 ab 3b 73 3e 81 e4 36 be bf 04 dc bd 45 81 92 bd
       0.2375323 -0.17860605 -0.10743093 -0.071535625
0002c0 63 8c 4c bb 5e dc 45 bc be 0c ee 3b d8 4c ba bc
       -0.0031211607 -0.012076465 0.0072647026 -0.02274172
0002d0 bf 9f 21 bd 7d dd b4 3d 40 21 85 bd c4 97 51 be
       -0.039458986 0.08831308 -0.065004826 -0.2046805
0002e0 a2 fc 22 be 9f fa 8d 3d 33 17 03 bd 2c a1 20 be
       -0.15916684 0.06932568 -0.032004546 -0.15686482
0002f0 93 57 f5 3d 86 90 2c be 25 b5 ba 3d 07 a0 e1 bd
       0.11979594 -0.16852006 0.09116582 -0.11016851
000300 63 73 0a be d9 4f 17 be c0 8e 2c bd 5c 61 29 3e
       -0.13520579 -0.14776553 -0.042128325 0.16541046
000310 d1 7c 31 be 01 4d af 3d 7e 00 75 3c fa 13 46 bd
       -0.1733277 0.08559609 0.014953731 -0.048358895
000320 d1 49 21 3d 3f 1b 85 be 22 41 2f 3c 11 11 3b bd
       0.039377037 -0.2599735 0.010696681 -0.045670573
000330 1f 94 fc bc b0 fa 8b 3d 96 eb d7 3d e2 5f b3 bd
       -0.030832348 0.06834924 0.10542981 -0.087585226
000340 59 ce 0d be 18 1a e3 bd ab 78 84 be 3b d2 33 be
       -0.13848247 -0.11088961 -0.25873312 -0.17560665
000350 56 80 12 bd ae 9b 2c bd 52 77 cc 3d bf 72 f7 3d
       -0.035766922 -0.042140655 0.09983696 0.12082433
000360 ab 6b 19 3e 3d 02 00 3e 73 e5 a9 3d 3f fa dd bd
       0.14982478 0.12500854 0.08295717 -0.10838746
000370 65 18 49 bd 55 b1 57 bd 19 d1 2e be 40 61 67 be
       -0.04909553 -0.05265935 -0.17071952 -0.22595692
000380 e3 c3 2b be 2a 1c 48 3d 58 17 5d bd 4f 06 b2 bd
       -0.16773944 0.048854984 -0.05397734 -0.086926095
000390 8f 51 18 be 2a e1 54 3d 08 5a 27 be 38 38 20 3d
       -0.14874862 0.051972546 -0.16342938 0.039116114
0003a0 df b9 4c be 4f 37 08 3e 6e e7 25 be d0 1c 53 be
       -0.19992779 0.13302349 -0.16201565 -0.2061646
0003b0 9f 5e dd 3d 6c 43 91 3c 57 93 01 be 19 21 18 3d
       0.10809063 0.017732345 -0.12653862 0.03714094
0003c0 50 0d 4e 3d 10 d7 b4 3d 9f e8 2e be b2 93 91 bc
       0.050305665 0.088300824 -0.17080925 -0.017770622
0003d0 ef e9 c8 3c 58 12 17 bd 0e 30 86 3d 9a 81 2a 3d
       0.02452561 -0.03688273 0.065521345 0.041627504
0003e0 ef 3e 27 3d e1 f7 15 be ab ea ec 3b 3f 16 9b bd
       0.040831503 -0.1464534 0.007230123 -0.075726025
0003f0 ef a1 9d 3c 0d 28 b3 3c 67 bd 09 be 38 34 e5 bd
       0.019242255 0.021869684 -0.13451158 -0.111916006

network.1.conv.0.weight f4 [256, 512]
000000 9f 99 a3 3d a3 d1 2f be 12 9b 78 bd 49 19 25 3d
       0.07988285 -0.17169814 -0.06069476 0.040307317
000010 fb 51 e3 ba cc 14 7f bd c8 e9 d9 bd e5 0d 37 bd
       -0.0017343158 -0.062275693 -0.10640293 -0.044690985
000020 27 58 da 3c e5 de a1 bd 32 e0 29 be 81 52 8f 3d
       0.026653362 -0.07903842 -0.1658943 0.06998158
000030 02 bf 1f 3e ea 96 98 bc 13 f1 bc bd 11 76 ba 3e
       0.15600207 -0.018626649 -0.09225669 0.36418203
000040 fd 5f 55 be 80 9e ce 3c 22 6a 13 3d 56 2f 56 3e
       -0.20837398 0.025222063 0.035989888 0.20916495
000050 f0 42 06 3e b9 2d 92 3e 31 ee cb 3d 0d 76 ec 3c
       0.13111472 0.2855051 0.09957541 0.028864885
000060 57 bd 45 3e e7 1b 16 bd fc da 50 3e 05 c6 0b 3e
       0.19310509 -0.036647703 0.20396036 0.13649757
000070 2e 8e f4 bd 10 a9 c4 bc 36 47 0d be c2 b6 6c bc
       -0.11941181 -0.024006397 -0.13796696 -0.01444787
000080 ee a8 13 3e 3b 2c 23 3d f5 11 21 3d 98 b5 ad 3d
       0.1441991 0.039837103 0.039323766 0.08481902
000090 5c 94 9b bd 75 72 40 be 17 49 ce bc a5 d5 4f be
       -0.07596657 -0.18793662 -0.025181336 -0.20296343
0000a0 e3 5c 6a 3d d4 15 a4 3e 43 48 a6 3d 9b 5b a2 be
       0.05721749 0.32047904 0.081192516 -0.31710514
0000b0 60 30 d6 3d 59 73 bc bc ad 98 69 bd 1d 11 c7 bd
       0.104584455 -0.02300422 -0.05703037 -0.09720061
0000c0 5a 30 7b 3d de 80 d5 3c b5 8f 23 3d c2 c8 3b bd
       0.06132541 0.026062425 0.03993197 -0.045845754
0000d0 fe bf 19 3e 61 6c dc 3d 97 94 9e 3e b0 75 35 bc
       0.15014645 0.10762859 0.3097274 -0.011075422
0000e0 74 e8 8d be e9 9b 50 be 01 7c 15 be 04 c8 80 be
       -0.2771641 -0.20371975 -0.14598085 -0.251526
0000f0 ec 9b 65 bc 6f 17 02 3e 12 0a 3d 3c 3c f0 fd bb
       -0.014014225 0.12704252 0.0115380455 -0.0077495854
000100 63 2b 44 3d 2a 14 7b be 72 01 73 bb 33 ae 96 3d
       0.04789294 -0.2451941 -0.003707972 0.073574446
000110 2a 11 6f bd 27 ff 73 3d 6f 6c ed 3d 3d 02 80 bc
       -0.05836598 0.059569504 0.11592948 -0.015626067
000120 66 87 8b 3d 41 ad 8c 3e ac 26 07 3d d6 ab 31 be
       0.068129346 0.27475932 0.032995865 -0.17350706
000130 82 69 39 be bd 2c 57 3c db 9d df 3d 57 7b 04 3e
       -0.18106654 0.013133225 0.109187804 0.12937675
000140 b3 14 28 3d 02 f7 86 bd d4 6f 5c be 3c 6b 28 3e
       0.041035365 -0.06590082 -0.21527034 0.16447157
000150 f7 2c b9 bd 9b 9d 0a 3e 87 ff 57 be e4 3b 43 bd
       -0.090417795 0.13536684 -0.2109357 -0.047664538
000160 64 7a 2c 3e f2 ad 98 3e ca 95 62 3e 82 d7 cf 3d
       0.16843563 0.2982021 0.22127452 0.10148527
000170 68 c2 ae 3e 71 a9 2c be 3e 23 81 3d ef 95 0e 3d
       0.34132695 -0.16861512 0.0630555 0.034810957
000180 3d 55 4a bd 36 0f 2b 3e 04 12 2b bc b0 51 13 be
       -0.049397696 0.16705021 -0.010441307 -0.1438663
000190 23 2c 0a 3e 85 c5 46 3c a1 c4 c1 3d 29 5c cd bd
       0.134934 0.012132053 0.09461332 -0.10027344
0001a0 ab f6 6e 3e 7a 84 e9 bb de 11 03 be 7c 75 8d 3c
       0.23336284 -0.007126388 -0.12799785 0.017267935
0001b0 00 bf 81 3e 23 a0 0a 3e de a4 6b 3e 71 5f 4a 3d
       0.25341034 0.1353765 0.2301211 0.049407426
0001c0 69 18 8d 3b 96 97 0f 3e cf 2c 86 3e 66 57 8a bd
       0.0043058884 0.14022669 0.2620606 -0.06754951
0001d0 09 15 df 3d a9 65 1a be dc 92 44 bd 0e 53 74 3d
       0.10892684 -0.15077843 -0.04799162 0.05964952
0001e0 f0 50 7b bd 38 d0 7b 3e f8 f7 9b bd e7 a4 a5 bc
       -0.061356485 0.24591148 -0.07615656 -0.020220233
0001f0 37 78 ef bd ad c9 82 be 82 c5 93 be 72 b2 d9 3c
       -0.11692851 -0.2554449 -0.28861624 0.026574347
000200 a1 79 ec 3c 03 c0 19 3c 9b 1d 5d 3e 15 4f 5d ba
       0.028866591 0.009384158 0.21593325 -0.0008442265
000210 3f 27 a4 b7 2c 29 c8 bb 2e f1 ba bd 81 ff 8c 3d
       -1.9568599e-05 -0.0061084237 -0.091280326 0.06884671
000220 98 e6 6b 3d 9d f6 8c 3d 5f 8f 2f 3d 33 d0 04 3d
       0.05759296 0.06882975 0.04286134 0.032425117
000230 8f 57 a9 3c 4c 83 d3 3c b1 34 46 be 1e 5b db 3d
       0.020671634 0.025819443 -0.19356038 0.107107386
000240 e7 bf 9b 3d bc 28 bc bd 13 39 bc bd dc 67 1e bd
       0.07604962 -0.09187457 -0.091905735 -0.038673267
000250 84 51 41 3e dc 6b 0e bd b9 17 1f 3c 0b b6 96 bb
       0.18878752 -0.03477083 0.009710246 -0.004599338
000260 db ce 73 3d c9 e5 1d 3e 85 6c 83 3b ed b6 70 3d
       0.059523445 0.15419687 0.0040107393 0.0587682
000270 36 eb 4a 3e a9 f3 05 3e 0e 2f ea bd a2 b4 3c bb
       0.19816288 0.1308123 -0.11434756 -0.002879419
000280 d0 07 90 bb 53 27 42 3c 54 93 0f 3d cc 8a bb 3d
       -0.0043954626 0.011850196 0.035052612 0.09157333
000290 86 43 e9 bd 89 87 41 3e ca 9f e6 3d 72 de 12 3e
       -0.11389832 0.18899359 0.11260946 0.14342669
0002a0 73 04 96 bc 8e 27 87 bd d5 eb c7 3c 69 bf c9 bd
       -0.018312668 -0.06599341 0.024404446 -0.09850962
0002b0 ca 02 42 3e 50 bc 71 bd 1b 28 a2 3d 96 42 19 be
       0.18946376 -0.05901748 0.07917806 -0.14966807
0002c0 f9 0e 49 bd 3c f0 28 3e 9a 70 dc 3d 92 b7 95 3b
       -0.049086545 0.16497892 0.107636645 0.0045690024
0002d0 91 1b c4 bd b5 54 64 3c ff 1d 65 3d cb 44 bd bd
       -0.095755704 0.013936211 0.05593681 -0.09241637
0002e0 7f 6d 1b be e4 39 f3 3d a4 ac a6 3d 7c ed 19 bd
       -0.15178488 0.11876276 0.08138397 -0.03758
0002f0 ec 4e b1 3c 68 45 a4 3d a9 fc b0 3d 90 f7 42 be
       0.021644078 0.08021051 0.08641941 -0.1903975
000300 41 b5 42 be 3d 41 45 3d aa 69 7e 3d a4 cb 5a 3d
       -0.19014455 0.04815792 0.062112488 0.053416863
000310 1f e0 d2 3d 06 90 d5 bc 1d e9 08 3e f2 fd 15 bd
       0.10296654 -0.026069652 0.13370176 -0.036619134
000320 ac c2 60 bc 46 2e fc bd 28 a1 05 3d b8 73 98 bd
       -0.013718288 -0.123135135 0.032624394 -0.074439466
000330 9f a1 9f 3d fc 98 de 3d 81 c2 45 3e f4 9d d4 be
       0.07794499 0.10869023 0.19312479 -0.4152676
000340 7a 2d 09 3d e8 e8 73 be 22 49 a3 3b a4 56 70 bd
       0.033490635 -0.23819315 0.0049830833 -0.058676377
000350 d5 4c aa 3d 8f 36 cb 3c d4 54 df 3b c6 7b a7 3d
       0.08315436 0.024806289 0.006815532 0.08177905
000360 97 da be 3d 79 55 28 3e 1a 54 d6 3d 75 2b e4 3c
       0.093190365 0.16438855 0.1046526 0.027852753
000370 27 3d aa 3d b0 de e0 3c 18 83 ec bd 13 22 fc 3c
       0.08312445 0.027449936 -0.11548442 0.030777967
000380 9f 90 1f be 18 b0 f1 3c cd da 9e 3d 34 fe 26 be
       -0.15582512 0.029502913 0.07756577 -0.16307908
000390 bf a0 35 be 36 ca b0 bd b8 b8 8e bc 92 47 cb 3d
       -0.17737101 -0.08632319 -0.017422065 0.0992576
0003a0 3d 16 80 bc 49 f2 35 3d b5 ad e6 bc ed 54 41 bb
       -0.015635604 0.044420514 -0.028159002 -0.0029500083
0003b0 f5 03 58 3d 6b e7 ca 3c 79 eb c0 bd d9 95 57 3d
       0.05273815 0.024768552 -0.09419913 0.05263314
0003c0 9a a0 5c 3d 87 2c 1e 3e 88 52 bd bd dc 4c c1 3d
       0.0538641 0.15446673 -0.09244257 0.09438488
0003d0 39 59 19 bd 1e 50 c7 bd b4 04 8a 3d ec fc aa bd
       -0.037438605 -0.09732078 0.06739178 -0.08349022
0003e0 f6 e4 ba ba 65 81 95 be 15 29 68 3d 53 76 f2 bd
       -0.001425891 -0.29200283 0.056679804 -0.11838975
0003f0 80 63 58 3e 5f bc 05 be c0 9f 67 bd c5 de 06 3d
       0.21131706 -0.13060139 -0.056548834 0.032927293

network.1.conv.0.bias f4 [256]
000000 52 f2 78 bc 17 6b 65 3a 82 10 24 3d d4 d7 59 3c
       -0.015194492 0.00087516144 0.040054806 0.013296086
000010 ec 9c f7 bb f9 d7 9b 3d 40 c8 41 3d 65 65 a3 3d
       -0.0075565483 0.07609553 0.047310114 0.07978324
000020 19 7a 52 bd 38 92 41 3d f3 7e 6f bc f9 60 25 be
       -0.051385973 0.047258586 -0.014617669 -0.16150273
000030 f5 d2 9e 3d dd ee c8 bd 2c 98 9d bd 6c 58 ce bd
       0.077550806 -0.098111846 -0.0769504 -0.10075459
000040 b1 17 46 bd 49 9c 5d ba fc 05 3d 3d 01 fb 43 be
       -0.048362438 -0.0008453769 0.046148285 -0.19138719
000050 7f 9a b1 bd 03 72 63 3e e7 c2 8c bd 10 c0 19 bd
       -0.08672046 0.22211461 -0.06873112 -0.03753668
000060 cb 0f 6e bd cd f8 f9 3b 87 19 2e be d4 95 c4 3c
       -0.05812053 0.0076285363 -0.17001925 0.023997225
000070 41 02 12 be 25 a0 95 bc 92 ea 09 be cb ca 7c 3c
       -0.14258672 -0.01826484 -0.13468388 0.015429209
000080 de 16 9d bd 5c 84 5e be 33 43 6f 3e 48 bf a9 bd
       -0.07670377 -0.21730179 0.23365478 -0.08288437
000090 b5 b4 3e be 4d 09 dc 3c 1c ae 35 3c 40 6b 34 bd
       -0.18623622 0.026859904 0.011088874 -0.044047594
0000a0 6c 5d c2 bd ec 96 09 be 28 76 5c be 66 ea a6 3d
       -0.09490475 -0.13436478 -0.21529448 0.08150177
0000b0 92 89 b9 3c 64 7c de 3c 2b 0e c3 bd 55 a5 42 bb
       0.022648606 0.027158923 -0.09524187 -0.0029700596
0000c0 00 5d 76 bd eb 99 83 3d 25 bb 53 bd 4a 02 f9 3d
       -0.060147285 0.06425842 -0.051692147 0.1215864
0000d0 04 87 b0 bd f9 b6 89 bb 55 ea 9b bd f2 b0 65 3d
       -0.08619502 -0.0042027202 -0.07613055 0.05607695
0000e0 f8 3d 0b 3d 1d e8 2f 3d bb 95 4a 3d 53 16 14 3e
       0.033994645 0.04294597 0.0494592 0.14461641
0000f0 4f a0 0d be 67 64 8a bd dd c4 5f bc 61 64 61 3d
       -0.13830684 -0.067574315 -0.013657776 0.05502737
000100 cb 5f bc 3c f7 05 06 3d 2c 22 15 3e 4c 6c 28 bd
       0.022994896 0.032720532 0.14563817 -0.041118905
000110 15 15 a9 bc 3d 9c 49 bd 86 ae 0b bc 07 0a b4 bd
       -0.020639936 -0.049221266 -0.008525496 -0.08790975
000120 d5 21 7d 3d 5b 09 d3 bd 18 fc 10 be ba e5 19 bb
       0.061799843 -0.10304519 -0.14158666 -0.0023482875
000130 e3 f8 ed 3c da c0 3a 3d 3d a7 97 bb 64 72 7b 3e
       0.029049342 0.045594074 -0.0046280907 0.24555355
000140 26 ff 0a be 1b 5c 18 3d 8d 4c 1d be 15 f5 bd 3d
       -0.13573894 0.037197214 -0.15361233 0.09275261
000150 1b 5f 34 be 38 46 40 bd ea e8 87 bd e7 eb 7e bd
       -0.17614405 -0.046941966 -0.06636222 -0.062236693
000160 18 e1 95 3d 8c a2 ca 3b a9 3d 28 39 2d 3a 1c 3e
       0.07318324 0.006183928 0.00016044699 0.15256567
000170 ec 57 f2 3d 3b 5c 1b 3e b8 41 0a bc 56 30 05 bc
       0.11833176 0.15171902 -0.00843852 -0.0081292
000180 49 1e 20 be 36 d0 23 bd af 74 9b bc c9 4e a3 3e
       -0.15636553 -0.039993487 -0.018976538 0.31896046
000190 5c 9c 3e 3d c8 af e7 bc 21 ce 8b 3d 0a 20 31 be
       0.046535835 -0.028282061 0.06826425 -0.17297378
0001a0 f7 4a 67 be 76 aa 6b bd f1 89 cc 3d c9 e5 30 be
       -0.2258719 -0.05753561 0.09987248 -0.17275156
0001b0 57 88 07 3d 25 78 1c bd 4d f2 07 3e eb 9b 30 be
       0.03308901 -0.038200516 0.13276024 -0.17246978
0001c0 ba 33 98 3d c4 ff e6 3d e2 0c be bd 57 0b bc 3d
       0.07431741 0.11279252 -0.09279801 0.091818504
0001d0 d8 d2 77 3d 7a 8c 09 bd 88 b2 33 bd b1 4e 29 3e
       0.06050381 -0.033581235 -0.043871433 0.16533925
0001e0 ef 11 47 3c 30 08 e9 bc 4f 27 f6 3d 7e f1 d0 3d
       0.012150272 -0.028446287 0.12019216 0.10202311
0001f0 22 70 f8 bd 6a 26 33 bd 82 37 12 3e 12 f6 6a be
       -0.12130763 -0.043737806 0.14278987 -0.22945431
000200 7f a4 31 bd 02 3b 90 bd a8 1a 2a be cc 32 25 3d
       -0.043369766 -0.07042505 -0.16611731 0.040331647
000210 b5 a1 54 bd 00 fa 35 3d 3f 4b 37 3c d8 45 5f bc
       -0.05191203 0.04442787 0.011187374 -0.013627492
000220 17 48 2a 3d a8 b7 7c bc b2 b4 74 bd 5f 56 30 bc
       0.041572656 -0.015424646 -0.059742637 -0.01076278
000230 47 74 35 bc bc 5d 2e 3d d9 b4 99 bc bf 13 e2 3a
       -0.011075086 0.04256986 -0.018762993 0.0017248316
000240 85 40 31 3d 82 f4 b3 3b 4e b5 02 be ce a6 c0 3d
       0.04327442 0.005491794 -0.12764475 0.094068155
000250 16 8a 17 3e ee 89 aa bd da 39 44 bd 6e da d9 bd
       0.1479877 -0.08327089 -0.047906734 -0.10637365
000260 bb 95 11 3e ad bd 9b 3e 4e fc 9c 3d 8a a9 90 bd
       0.14217274 0.3041815 0.07665311 -0.07063587
000270 b0 30 10 3b f8 0d 98 3d 78 6b a2 3c fe 41 af bc
       0.0022001676 0.07424539 0.019826636 -0.021393772
000280 d0 6e bb bc 02 d5 a1 bd 2f be cb 3c 58 0f 5e 3e
       -0.022879988 -0.07901956 0.02487096 0.2168554
000290 d0 e7 c3 bc 5a a6 e4 3d a0 9f b1 bb 76 87 44 3c
       -0.023914248 0.111645415 -0.00542064 0.011995187
0002a0 c2 84 cc 3d 58 23 05 3e 2b fa 75 3d 42 4b cd bd
       0.09986259 0.13001764 0.060053032 -0.1002412
0002b0 14 9e 45 3c e1 f7 33 be 8c 8f 3e 3d ec c9 2a be
       0.012061615 -0.17575027 0.046523616 -0.1667859
0002c0 c5 fc e0 bb 39 93 bb bd 88 dc 49 bc 13 95 a6 3d
       -0.00686607 -0.0915894 -0.012320645 0.081339024
0002d0 29 13 4b bb ca fc bf bc 87 66 3d 3c 9b 70 01 be
       -0.0030986762 -0.023435969 0.011560089 -0.12640612
0002e0 1c 47 88 bc 22 67 9c bd 04 67 3f 3d b4 5d 68 be
       -0.01663547 -0.076368585 0.046729103 -0.22691995
0002f0 2b 79 6b bd 71 dd 11 3e e6 79 ca bd 04 69 04 3c
       -0.0574886 0.1424463 -0.098865315 0.008081678
000300 4c a6 51 bd a6 34 f1 bd 80 2a 20 be bb 1e 6a 3d
       -0.051183984 -0.1177762 -0.15641212 0.057158213
000310 1e 27 d1 bd eb 7f 9e 3d 00 f0 db 3d 61 25 bb bd
       -0.10212539 0.07739242 0.10739136 -0.09137989
000320 d6 bc b6 bd 19 2e fc 3d 90 a7 14 be 84 74 28 3e
       -0.08922736 0.1231348 -0.14517045 0.16450697
000330 39 71 11 bd 82 e9 92 bc 87 7d 41 be e8 ae 03 be
       -0.03550837 -0.01793361 -0.18895541 -0.1285969
000340 74 68 d9 bc a5 2d fa 3b b2 a7 da 3c ae 6d 04 bd
       -0.026539065 0.007634836 0.026691291 -0.03233116
000350 ce c3 1b be 64 bf 01 ba 13 d4 9c 3d bb 51 e5 3d
       -0.15211412 -0.0004949479 0.076576374 0.111972295
000360 ce 4e 14 be a5 4e 21 3d 1e 51 5d be 1b 6a 49 bd
       -0.14483187 0.039381642 -0.21612975 -0.049173456
000370 63 7e 99 3b 7a 6f 14 be 6f 71 55 be f9 1b bd bd
       0.004684256 -0.1449565 -0.20844053 -0.09233851
000380 7b b5 09 3c c1 47 fa b9 19 e1 58 3d 6b af 01 be
       0.008405085 -0.00047737177 0.052949045 -0.12664573
000390 11 f8 57 3d ed 87 3c 3e f3 ea 0b 3e 62 cf 25 be
       0.05272681 0.18411227 0.13663845 -0.16192392
0003a0 63 8c 20 bd c3 3c 06 3e b1 36 8a bd fa 39 a9 bc
       -0.039196383 0.13109116 -0.06748713 -0.020657528
0003b0 01 78 c0 bc 76 d9 7e 3d 3c e7 74 bd 37 11 39 3e
       -0.023494722 0.062219106 -0.059790835 0.18072973
0003c0 a9 82 0d be 66 96 85 3d ab 1b 15 be 60 af a8 3c
       -0.13819374 0.06522827 -0.14561336 0.020591438
0003d0 f0 8b 5e 3e 23 79 32 3d 30 d0 09 3d be 7d 93 3a
       0.2173307 0.043572556 0.03364581 0.0011252684
0003e0 35 d5 c1 bd 52 a3 aa bb 6b c2 83 be 2f bf da bc
       -0.09464494 -0.0052074576 -0.25734267 -0.026702492
0003f0 d1 11 9f 3d 79 f7 e2 3d ec 7a a9 bd ab e7 c2 bd
       0.0776707 0.11082358 -0.082753986 -0.095168434

network.2.conv.0.weight f4 [128, 256]
000000 91 2d 8e 3d 08 be ef bb 15 de 92 bc 82 6e ea 3c
       0.06942285 -0.0073163547 -0.017928163 0.028617147
000010 c2 63 57 bd 02 33 b7 3d 02 89 67 3e 0e 6a 42 3e
       -0.05258537 0.08945276 0.22610858 0.18985769
000020 da 0a aa bd 52 f7 94 bb 60 ef e0 bd 2f 41 50 bd
       -0.08302851 -0.0045460844 -0.10983157 -0.050843414
000030 a8 31 04 3d 9f a3 cd 3d 21 ae bb 3d c5 48 c4 bd
       0.03227392 0.10040974 0.09164072 -0.09584192
000040 c6 91 af 3e c3 81 e6 bd 24 6b 5a bd f4 5b 91 3d
       0.34290904 -0.11255219 -0.053324834 0.07097617
000050 c7 ec bc 3d c9 5b 27 bd 4c 08 8a 3d 03 e1 e9 3d
       0.09224849 -0.040859018 0.06739864 0.11419871
000060 ba 6e 42 be 7a ec 88 3e cb 9a 08 be b0 e3 9f 3d
       -0.18987551 0.26742917 -0.13340299 0.078071
000070 5d 99 34 3e ef 5c fc bd ac cb 42 3d 53 04 58 be
       0.17636628 -0.12322413 0.047557518 -0.210954
000080 7d 21 15 be 51 9d 3e be e7 b4 81 3d ce d5 94 bd
       -0.14563556 -0.18614699 0.063333325 -0.072673425
000090 24 07 ba bd a5 c7 34 3c a5 69 ee 3d 4f 59 53 bd
       -0.09083393 0.011033927 0.11641244 -0.051598843
0000a0 df 2f a4 3d 1e 69 a6 bd fa 26 11 3c 8e 82 bc 3d
       0.08016943 -0.08125518 0.00885939 0.09204589
0000b0 eb e5 f5 bd 3e b5 c3 bd 91 06 4d 3e 54 4a 04 3d
       -0.12006744 -0.095560536 0.20022036 0.032297447
0000c0 31 da 50 be 0a 7a 04 3e 58 6e 3d be 77 03 5a bd
       -0.20395733 0.12937179 -0.18499124 -0.05322596
0000d0 9d b3 bc bc 34 2b b5 bc fb 8b a7 3c ac 8a 0a bd
       -0.023034865 -0.022115327 0.02045249 -0.033823654
0000e0 d4 59 20 bd 5c b6 8b bd 80 31 62 be 70 47 1b be
       -0.039148167 -0.06821892 -0.22089195 -0.1516397
0000f0 55 7d 76 3d e1 50 a9 bd 61 28 2d 3e 9d 11 c9 bd
       0.06017812 -0.082673796 0.16909935 -0.098178126
000100 83 cf 77 39 b1 b8 d7 3d fb e4 a1 bd 77 4e 19 bd
       0.0002363306 0.10533274 -0.07905003 -0.037428346
000110 ed 5c 53 be 3d 64 37 bd 89 1d ca bd d7 2d c8 3d
       -0.20640917 -0.04477333 -0.09868915 0.09774368
000120 d2 92 98 bd 59 8a 51 bc 22 e7 e1 bd ab 76 38 bd
       -0.07449879 -0.012789332 -0.11030413 -0.045035046
000130 1a 01 66 3d 1a c5 35 3d 83 cb 2f 3e 7f b9 fd bd
       0.056153394 0.044377424 0.17167477 -0.12388896
000140 de 7e 8c be eb ec 15 3e 52 8c ee bc 60 8d 05 bc
       -0.27440542 0.14641158 -0.029119644 -0.008151382
000150 38 37 35 bd d5 26 de 3d 31 e5 aa bc d4 f5 15 3d
       -0.044242114 0.1084725 -0.02086124 0.036611393
000160 52 8a 89 bd cd e9 17 bd 9c 80 1d 3d 81 e6 88 3d
       -0.06715836 -0.037088204 0.03845273 0.0668459
000170 c1 80 04 be d4 5b 75 3b 22 8a 76 bd 5c b8 73 3d
       -0.1293974 0.0037438767 -0.060190327 0.05950199
000180 33 7d 8e bc 99 7f b4 bb 2d ef 99 3c bf 51 2b 3e
       -0.017393684 -0.005508375 0.018790806 0.16730402
000190 81 39 b2 3d 46 00 df 3d be 32 4a bd 30 74 0c 3d
       0.08702374 0.10888724 -0.049364798 0.034290493
0001a0 e3 59 8e 3d 36 da be 3d 96 b2 60 3c d8 60 58 3d
       0.06950738 0.09318964 0.013714453 0.052826732
0001b0 b7 e8 3c 3d 1a 0e 3c be b2 e1 aa bd 80 8e c4 3d
       0.04612037 -0.18364754 -0.08343829 0.09597492
0001c0 b8 c8 e0 bd 27 d8 35 bb 13 14 a1 3d 86 eb 8c bd
       -0.10975784 -0.0027747245 0.07865157 -0.0688086
0001d0 21 c9 d1 3b 84 f5 86 be 67 f3 d6 3c f1 72 b3 bb
       0.0064021503 -0.2635919 0.02623911 -0.0054763486
0001e0 d1 34 ad bd 58 70 3d be 71 e3 24 be 5e 2a 94 bd
       -0.084573396 -0.18499887 -0.16102387 -0.072346434
0001f0 69 2c ed 3b 58 7c e3 3b ab 12 92 bd 21 42 d5 3d
       0.00723796 0.006942313 -0.07132467 0.10413004
000200 ae 72 c2 3d a8 df fc 3d c8 7f 2e 3e 1f bc 10 be
       0.0949453 0.123473465 0.17040932 -0.14134263
000210 9b fa af bd 67 53 00 3e 03 e2 c8 bd 5e cb 91 3d
       -0.08592721 0.12531815 -0.09808733 0.07118867
000220 b9 15 0b 3d 45 ea 09 bc 2f 72 f7 bb ff 27 83 3d
       0.033956263 -0.008417671 -0.0075514535 0.06404113
000230 4e 3a 0d 3d f5 18 78 bb 94 75 64 bd a5 28 03 be
       0.03447943 -0.0037856672 -0.055776194 -0.12808473
000240 2b c8 a3 3c d7 9c 2b be 05 9b 58 3d 73 4b f3 bc
       0.019992908 -0.16759048 0.052882213 -0.029699063
000250 8c 64 01 be 64 90 96 bb b6 03 71 bb 00 6d 2e be
       -0.12636012 -0.0045948494 -0.0036775894 -0.17033768
000260 68 77 6d bd 67 78 be bd 52 2e 5e 3d c2 93 ab 3d
       -0.057975203 -0.09300309 0.054243393 0.08377792
000270 6c ac 27 3e 49 47 bb bd 1a 86 f0 3c c4 5c 1b be
       0.16374367 -0.09144456 0.02936082 -0.15172106
000280 74 ee 42 3e 00 44 52 bc 82 1d 2c 3e fc ac 3f bd
       0.19036275 -0.012833595 0.16808131 -0.04679583
000290 cc 45 87 bd c6 fb e8 bd 42 a6 a9 3d c4 03 06 be
       -0.066051096 -0.11376147 0.08283664 -0.13087374
0002a0 aa a7 b4 bc e3 72 f6 bd 5e 50 81 bd a3 f1 c0 bd
       -0.022052605 -0.12033632 -0.06314157 -0.094210885
0002b0 6c 27 d4 3c 93 be a4 bd 37 88 fb 3d 76 53 49 bd
       0.025897704 -0.08044162 0.1228184 -0.04915186
0002c0 0d 11 e6 bd 78 5f 00 be 42 dc 04 3e 31 a1 8d 3d
       -0.11233721 -0.12536418 0.12974647 0.069155104
0002d0 a5 9b 52 3d 6f d7 ca bd 0d f3 ae 3d f3 15 7c bd
       0.051417965 -0.09904372 0.08542452 -0.06154437
0002e0 3c 2a 36 bd 77 b8 99 bd 6f 47 de bd be bd 8a bd
       -0.04447387 -0.07505887 -0.108534686 -0.06774472
0002f0 2d 1f 23 bd 1f ba 0f 3d 61 98 cb 3d 0f c6 a3 bd
       -0.039824653 0.03508961 0.09941173 -0.07996761
000300 b4 7b 23 3e ec 38 4b be ce fb 62 be 4b 82 2d be
       0.15965158 -0.19845933 -0.22166368 -0.16944234
000310 d8 46 f0 3d 1f 43 86 3d 40 54 f0 3d 36 64 b7 bd
       0.117322624 0.06555771 0.117348194 -0.089546606
000320 f5 74 0b 3e dd 4f 0f 3d c1 da c7 3d 0e ba c8 3b
       0.13618834 0.034988273 0.09758521 0.006125695
000330 8c 07 8e 3c 36 30 7b bd 4b 9c ad 3c 23 21 15 3e
       0.017337583 -0.061325274 0.02119269 0.14563422
000340 07 b4 9e bd 02 16 ee bc 52 29 49 be 26 b6 a9 bd
       -0.07749181 -0.029063229 -0.19644669 -0.08286695
000350 88 cb 20 3c 08 04 d5 bd ec 9c 1e be 17 07 12 3d
       0.009814151 -0.104011595 -0.15489548 0.035651293
000360 f0 4a 2f be 35 a0 4d 3d 60 98 78 be 64 e5 05 3e
       -0.1711843 0.050201613 -0.24276876 0.13075787
000370 58 3a c5 bd 2d 2c 0e be 17 ed 9b 3d cd f9 90 be
       -0.09630269 -0.13884039 0.07613581 -0.28315583
000380 83 6f 42 be 79 15 ce bc f5 8a 45 bc 6c 25 05 be
       -0.18987851 -0.025156723 -0.012057056 -0.13002557
000390 99 ab 15 bd 13 60 99 bd fe 85 4f bd 19 d2 f8 bd
       -0.0365406 -0.07489028 -0.050664894 -0.12149448
0003a0 6a 9f cc 3c 5b cb a2 3d ea 99 89 3d 73 2a 26 bd
       0.024978358 0.07948943 0.0671881 -0.040567826
0003b0 80 0b 9c bc 2a 4d 29 be 66 72 9d 3e d8 9a a7 bd
       -0.019048452 -0.16533342 0.30751342 -0.08183831
0003c0 87 e4 ed bd 1f f7 31 bd 8c 4a 48 be 8d b0 b8 bd
       -0.11615854 -0.043448564 -0.19559687 -0.090180494
0003d0 73 0e 8f bd b2 b2 c8 3d 88 3c 7e bd 9e f4 a6 bc
       -0.06985178 0.097997084 -0.062069446 -0.020380314
0003e0 08 c8 39 bc de bb 43 3e 7e a6 39 3e 71 41 02 be
       -0.011339195 0.19114634 0.18129918 -0.12720276
0003f0 23 34 32 3d 81 b0 b5 ba 54 38 5c 3d e1 24 93 bd
       0.043506753 -0.0013861806 0.053764656 -0.071847685

network.2.conv.0.bias f4 [128]
000000 79 96 39 be f0 b2 36 3d b4 3a 09 be ff 90 f2 3d
       -0.18123807 0.04460424 -0.134013 0.11844062
000010 b2 7a 21 be bf 5f 29 be 6a 12 0e 3e 10 87 2e 3d
       -0.15769461 -0.1654043 0.13874212 0.042609274
000020 7d d5 d5 bc 3b 97 01 3d 2e e0 35 3d 88 34 aa 3d
       -0.026102776 0.031638365 0.044403248 0.08310801
000030 3a 3d 48 3d ed f4 26 3e 52 fb a1 bc 10 34 8d 3d
       0.048886515 0.1630437 -0.01977316 0.06894696
000040 bd a2 98 3d 0c 78 34 3c d5 4d b0 bd 51 e7 86 be
       0.07452915 0.0110149495 -0.08608595 -0.26348355
000050 46 05 a4 bd 0c f7 11 3d b8 cb 26 3c 73 4e a9 bd
       -0.08008818 0.035635993 0.010180406 -0.08266916
000060 cd 32 49 bd 05 02 09 be 58 91 e5 3b c2 4e b4 bd
       -0.049120713 -0.13379677 0.0070058517 -0.08804084
000070 da bc 8c bc be f9 90 bc 98 6e 15 3e 18 b4 33 be
       -0.017179895 -0.017697211 0.1459297 -0.17549169
000080 5c 01 81 bd ab c0 66 be d3 e6 5f 3c 67 57 70 3c
       -0.062990874 -0.22534434 0.013665873 0.014669276
000090 08 19 4b bd c6 61 45 be 71 ba 0a 3d a1 2f 03 bd
       -0.04958442 -0.19275579 0.03386921 -0.032027844
0000a0 d1 c4 bf bd 41 66 57 3c 90 c8 22 3d 65 ad d4 bd
       -0.093637116 0.013146938 0.039742053 -0.10384635
0000b0 03 9f ea bd 2a c0 ba 3d 7a 2e f8 3d 92 d6 e2 bd
       -0.1145611 0.09118684 0.1211824 -0.11076082
0000c0 1a af 47 be a8 38 10 3d 03 06 d3 bc a7 a0 89 3d
       -0.1950039 0.03521028 -0.025759703 0.06720095
0000d0 d5 01 56 bd 62 51 0e 3e 58 72 ad bb b9 9a f6 3d
       -0.05224784 0.13898233 -0.005293172 0.1204123
0000e0 62 f6 4e 3d 86 66 9b bc 3c a0 20 be 4b 46 8b be
       0.050527938 -0.018969785 -0.15686125 -0.27202067
0000f0 fd 0a 8a be af 21 09 b9 59 5a aa bd 95 eb 1b 3e
       -0.26961508 -0.00013077886 -0.08318014 0.15226586
000100 43 0e 57 3d 4e e8 47 3e 99 57 13 be f1 69 53 3e
       0.052503835 0.19522211 -0.14388885 0.20645882
000110 71 5b d7 ba f5 7b 8f 3c a9 34 7e bd c3 80 da bd
       -0.001643045 0.017515162 -0.06206194 -0.106690906
000120 f0 30 5b 3e fc 5a b3 3c 1e 36 da 3d 37 5d e5 3c
       0.21405387 0.02189397 0.10654853 0.02799855
000130 c0 d9 b8 bd 35 0a 04 3e 2d f4 16 3e be 3a 8a 3d
       -0.090259075 0.12894519 0.14741583 0.067494854
000140 da 60 58 3c f4 95 35 be 02 5f 3e bb 97 6b 55 3e
       0.013206685 -0.17732984 -0.0029048328 0.20841824
000150 c6 f7 f8 bc 2e a4 85 3c 13 14 f9 bd d7 e2 aa 3d
       -0.030391585 0.016313639 -0.12162032 0.083440475
000160 53 15 12 3d 33 d4 ce 3d b1 4c 04 bd 9e 4f 5a be
       0.035664868 0.100990675 -0.0322997 -0.21319434
000170 4f 35 f6 bd dc 96 a3 bd 01 6c 82 3d e5 08 15 bd
       -0.120218866 -0.079877585 0.06368256 -0.036385436
000180 7a 79 fe bc 50 b9 bd bd d5 1b 0b 3e 71 cb e0 3d
       -0.031063784 -0.09263861 0.13584836 0.10976303
000190 30 f5 ef bd fb 29 c7 bd 88 83 a2 3b 95 2a 02 3e
       -0.11716688 -0.09724804 0.0049595274 0.12711556
0001a0 11 40 96 39 2d 9a 8c 3d b3 c1 e9 bd 34 fc bf 3b
       0.00028657963 0.06865344 -0.11413898 0.0058589224
0001b0 80 a9 51 be 59 af 15 be c1 88 51 be 8f b4 9e 3c
       -0.20474815 -0.14617671 -0.20462324 0.019373206
0001c0 16 75 bc bc bd 7c 2c 3c 2a 3a 29 bd 50 a3 ca bd
       -0.02300505 0.010527787 -0.041315235 -0.09894431
0001d0 5c 2f 5b be 9a df e1 bd a2 e0 97 bd 87 7e b4 bb
       -0.21404785 -0.11028977 -0.07415892 -0.0055082473
0001e0 7d 38 36 3c b6 5d 8d be db 67 22 3b 02 77 41 be
       0.011121866 -0.27610558 0.002478114 -0.18893054
0001f0 58 55 83 bd 7e 30 52 be 24 8d 08 3d f7 5b 7f bc
       -0.064127624 -0.20526311 0.033337727 -0.015585891

network.3.weight f4 [2, 128]
000000 72 3c 28 bd b3 df 14 3d 0f 95 04 be d8 ad a1 3d
       -0.04107327 0.03634615 -0.12947486 0.07894486
000010 36 fc 54 3c 2c 1c 23 be b0 32 44 3e 86 a7 67 bd
       0.012999585 -0.15928715 0.19159961 -0.056556247
000020 be 39 44 3d 4d b7 3d 3d 55 bb bd 3b 26 05 8e bd
       0.04790663 0.046317387 0.005790154 -0.06934576
000030 e4 23 ad 3d 3f 71 78 bd 26 e7 39 3d 0c cf 8b bc
       0.08454111 -0.060654875 0.045386456 -0.017066501
000040 e6 0f 12 be 4b 60 06 3c b6 aa ec bd f9 ee 42 3e
       -0.14263877 0.008201669 -0.11555998 0.19036473
000050 8c d3 8d 3c a9 41 f7 3b dc 0a 30 3c f5 f1 d5 bd
       0.017312787 0.007545669 0.010744777 -0.1044654
000060 ef 31 57 3e 9c d3 ab bd 5b 76 1b 3d 14 30 05 3d
       0.21015142 -0.08389971 0.03795467 0.032516554
000070 a2 ee 8a bb 86 ba 15 3e c1 6c 4a 3d f4 6c cc 3d
       -0.004239873 0.14621934 0.049420122 0.09981719
000080 54 26 09 3e 72 21 34 be bf 68 38 3d d1 16 43 3e
       0.13393527 -0.17590883 0.04502177 0.19051673
000090 e3 74 18 3d a6 e7 7a be 64 c8 4c be 76 02 02 be
       0.037220847 -0.2450243 -0.19998318 -0.12696251
0000a0 cc 0a 2e 3e 11 7b d5 3d 21 a3 2f 3d 3a 22 1d bd
       0.16996306 0.10423864 0.04288018 -0.03836272
0000b0 07 4f de 3d 2f 20 b6 bd 13 84 f2 3d b7 1f 97 3d
       0.10854917 -0.08892857 0.118415974 0.07379096
0000c0 e4 12 2a be 38 70 50 bd 3d 76 3d 3d 22 73 bb 3d
       -0.16608769 -0.05088827 0.04625534 0.09152819
0000d0 82 b4 f9 3d 74 48 59 bd 13 2e f3 bc c9 3e 2e be
       0.12192632 -0.053047612 -0.029685056 -0.17016138
0000e0 48 35 31 3d fb ef a5 39 69 c3 f2 3d 59 66 32 bd
       0.043263704 0.00031650052 0.11853678 -0.043554638
0000f0 e9 7c ae bc f1 0b 08 3e 5a c8 0b bd d0 44 0f be
       -0.021299796 0.13285805 -0.034126617 -0.13991094
000100 ef f4 4e 3e e4 5c fd bc af 45 44 3e 42 43 3c be
       0.20210622 -0.030928083 0.19167207 -0.18385032
000110 fb 09 2e 3d 8d 24 03 3e 77 54 06 be 4c 3e 1c 3c
       0.042489987 0.12806912 -0.13118158 0.009536337
000120 0a e1 80 3d 7d 91 15 be ca c7 48 3c 67 9f 42 3e
       0.06292923 -0.1460628 0.012254665 0.1900612
000130 1c 8e c0 bd ac 09 b7 bc 72 20 2a bd 70 cb 19 3d
       -0.09402105 -0.02234348 -0.04153485 0.03754753
000140 e2 b2 62 bd 2b 90 22 bc 72 67 d6 3c 85 69 b7 bc
       -0.055346377 -0.009922068 0.026172373 -0.022389183
000150 1e ae 1e 3e 52 78 2b 3d 5f 57 7a 3d 43 66 2e be
       0.15496108 0.041862793 0.06111848 -0.17031197
000160 91 6a cc bc d1 fa dc 3d c4 68 c6 3c 83 d4 b0 3d
       -0.024953159 0.10790027 0.024219878 0.086342834
000170 0d 71 50 be 5a a7 0c be 7a bc 50 bd b6 cb 16 bc
       -0.20355625 -0.13735715 -0.050960995 -0.009203842
000180 ad e4 d7 bb f5 f1 e0 3c cf ee 55 bd b2 05 69 bc
       -0.0065885396 0.027459124 -0.0522297 -0.014222549
000190 e7 53 2d 3e 35 99 fa bc 10 90 6b 3e 5f f9 0a 3c
       0.16926537 -0.030590633 0.23004174 0.008482306
0001a0 28 f9 05 3e d7 23 49 3e f5 07 17 bc fa 5f 95 bd
       0.13083327 0.19642578 -0.009218206 -0.07293697
0001b0 d5 d6 36 bb 05 1b 9c bd 6c 96 85 bd 50 bc d6 3d
       -0.0027899046 -0.07622341 -0.06522831 0.104851365
0001c0 a0 c7 c5 3d 01 c5 21 3e 57 2e 31 3e b9 a9 20 be
       0.09657216 0.15797807 0.17302833 -0.15689744
0001d0 97 07 07 3d b0 0d b6 3d ba ce 4c bd 5e 56 b1 3d
       0.032966223 0.088893294 -0.050001837 0.08659051
0001e0 f3 e5 00 3e 69 3e 40 be b5 0a 87 3e 5f c1 9a bd
       0.12587719 -0.18773808 0.26375356 -0.07556414
0001f0 8a 94 4a 3e 00 30 37 be ab 10 86 bc 3d f0 72 3c
       0.19783226 -0.17889404 -0.01636537 0.014827785
000200 6c fe 1c be 57 00 bb 3d 5a d4 f1 3c 3a 89 01 be
       -0.15331429 0.09130924 0.029520202 -0.12650004
000210 f5 ba 9a 3d df 30 51 be 0d 1d 9f bd 34 90 99 bc
       0.075551905 -0.20428799 -0.07769213 -0.01874552
000220 ea 3a 6c bd a1 33 a3 3d 7e d9 87 3d 01 a9 c9 bd
       -0.057673372 0.07968832 0.0663328 -0.09846688
000230 f5 d9 b4 3d 30 9b 0b 39 89 44 4a bb a1 c4 91 3c
       0.088306345 0.00013313885 -0.0030863604 0.017793955
000240 e9 75 52 bc ca da ca 3d d1 10 e6 bd 08 60 ed 3d
       -0.012845495 0.09905012 -0.11233676 0.11590582
000250 83 10 1a be 5c 45 e8 3d 43 cd b3 3c e6 45 cc 3d
       -0.15045361 0.11341354 0.021948462 0.099742696
000260 31 8f 26 3e b5 db a9 3d be 6d f2 bd 64 fa 01 be
       0.1626556 0.08293859 -0.11837338 -0.12693173
000270 81 dc 0e 3e 86 1a 40 3d 70 d7 45 3c f3 3d b2 bd
       0.13951303 0.046900295 0.01207529 -0.08703222
000280 e6 b3 d4 bd 78 b9 f7 3d 21 ac 2d 3e 8f cd cc bd
       -0.103858754 0.12095922 0.16960193 -0.10000145
000290 72 32 9f 3d 81 2d 25 3d ae 62 3d 3d f5 05 f3 bd
       0.077732936 0.0403266 0.046236686 -0.118663706
0002a0 43 5e 1c be 5e fe 1a 3d 18 b6 cd bc 28 cc cb 3b
       -0.15270333 0.03784024 -0.025111243 0.0062194057
0002b0 c5 59 87 3b 82 3a 1b 3e eb 65 84 3e 60 58 cc bc
       0.0041305744 0.15159038 0.25859007 -0.024944484
0002c0 77 02 a9 bd e6 9d c1 bd 02 87 40 3d 97 3a 8e 3d
       -0.08252423 -0.09453945 0.047003753 0.06944769
0002d0 ba ee ef 3d 4e e6 4a 3e 67 b5 85 bb 41 31 30 3e
       0.11715455 0.19814417 -0.0040804627 0.17206289
0002e0 23 3c b4 3d 2a ad 5a bb 23 2b d3 3d e3 ce 37 be
       0.08800533 -0.0033367374 0.10310962 -0.17950015
0002f0 a1 4c 11 bd 17 5b 0a be 16 23 90 3d 00 ba 82 be
       -0.03547347 -0.1351131 0.07037942 -0.25532532
000300 b5 38 cf bd b6 0d f9 3d ee b0 ff 3c 48 bd 5a 3d
       -0.10118238 0.12160818 0.031212296 0.05340317
000310 2d cf b7 3d 23 5a 8a be 0c 28 fe 3d 9b 55 87 bc
       0.089750625 -0.27021894 0.12409982 -0.016520312
000320 c6 09 e8 3d e0 81 2e bc ce 21 ad bd 6e 62 ab bd
       0.11329989 -0.010651082 -0.08453713 -0.08368383
000330 20 ed e5 3d 1f 5d 1c 3e 46 99 40 3e c9 42 c3 bd
       0.11226869 0.15269898 0.18808469 -0.09534223
000340 06 5a 8f 3e 1d 13 76 bc 28 69 bb ba 0c d1 c5 3d
       0.2799837 -0.015019205 -0.0014298307 0.09659013
000350 a4 c8 54 3a 42 5e 9c bd 59 6e 04 be d9 c0 b4 3c
       0.0008117056 -0.07635166 -0.1293272 0.022064613
000360 4d db 12 be 08 6c 37 be 3c 23 ac 3d e5 08 38 3d
       -0.14341469 -0.17912304 0.08405158 0.044930357
000370 cf 1f 7b 3c 76 c6 b9 3d b2 4a 20 3e 53 83 ec bc
       0.015327408 0.090710565 0.15653494 -0.028871214
000380 94 36 9f 3d 9c 7e 4a 3e 78 ec e6 3d 56 1b 33 bd
       0.07774082 0.1977486 0.112755716 -0.04372724
000390 a7 f6 6b 3d d3 be 72 3d 09 92 d7 bc 2b c8 8a 3d
       0.057608273 0.059264015 -0.026314752 0.0677646
0003a0 ec f8 73 3d 96 cf f9 bd 0a ba 60 3e a5 91 82 3d
       0.059563562 -0.12197797 0.21945968 0.06375436
0003b0 19 b1 65 3d 1f f7 73 3d b6 23 45 3d 97 46 31 bd
       0.056077097 0.059561845 0.04812976 -0.04328021
0003c0 69 9f cf bd 89 8e 54 be f8 84 80 3d 94 f5 13 be
       -0.10137827 -0.20757498 0.06275362 -0.1444915
0003d0 38 1e b3 bc 59 8c fd 3d bc 50 02 3e 8e cb 9a 3d
       -0.021864995 0.12380285 0.1272611 0.07558356
0003e0 2f 88 b6 3d ab cb e1 3d c1 11 7e be 4d 58 0b be
       0.08912694 0.11025175 -0.2481146 -0.13607903
0003f0 f3 e0 3d bc f8 98 03 be a6 43 bb bc 36 cd 0c 3e
       -0.011589277 -0.12851322 -0.022859406 0.13750157

network.3.bias f4 [2]
000000 41 de 74 bd 37 a1 7d 3e
       -0.05978227 0.2476853
