exomy/config/best_run_no_obstacles405k/checkpoints/204000_policy.pt (torch, 723582 bytes, 13 tensors)

log_std_parameter f4 [2]
000000 79 10 8c bf 8b 3a 1f bf
       -1.0942527 -0.62198704

network.0.conv.0.weight f4 [512, 5]
000000 d5 84 71 3e 48 23 4d be 63 ad fa bb ba 5e 88 bd
       0.23585828 -0.2003299 -0.007650064 -0.06658693
000010 2b 01 2a 3e 56 3b 03 3e 9c ca f8 3d e8 d5 09 3e
       0.16602008 0.12815604 0.1214802 0.13460505
000020 3d 9a 58 bd 47 4d 3c bc 63 02 fc bc c6 2f 7d bb
       -0.052881468 -0.011493034 -0.030762857 -0.0038633212
000030 80 50 04 ba ac 20 82 be 6b d7 6b 3d 20 1a 90 3a
       -0.0005047396 -0.25415552 0.057578485 0.0010994114
000040 c1 46 61 bd d2 c5 7f 3e b6 ea 09 3d 26 2d 2e 3e
       -0.054999117 0.24977806 0.033671103 0.1700941
000050 71 a5 55 3d 66 b2 4a bc cd dc a8 3d 47 60 45 3e
       0.05215973 -0.012371635 0.082452394 0.19275008
000060 a9 d5 00 3e 86 38 5c 3e 93 b0 ba 3e 93 cc f0 bb
       0.12581505 0.21505937 0.3646284 -0.007348606
000070 9a 64 48 be b5 db e3 bc e8 2f 93 be 9f 36 85 3b
       -0.19569626 -0.027814725 -0.28747487 0.004065349
000080 fa 3f 49 3d fe 20 c1 bc c7 c3 78 bd 56 36 d2 3b
       0.04913328 -0.023575302 -0.060733583 0.0064151688
000090 40 24 09 bd 2a 53 46 3d cd be c2 3d 60 cc 96 bd
       -0.033481836 0.048419155 0.095090486 -0.073632
0000a0 32 e0 bc 3c b7 fb a9 be 7f e1 06 bd bf 67 11 bc
       0.023056123 -0.33199856 -0.032929894 -0.008874833
0000b0 3c 90 a7 bc be 6c 39 be 3a 6c c1 bd 7e 54 63 be
       -0.020454518 -0.18107888 -0.09444471 -0.222002
0000c0 d1 c5 84 3d 5b c2 40 be 81 ba 26 bd 66 79 bb 3e
       0.06483043 -0.1882414 -0.040705208 0.36616057
0000d0 26 0c 71 3d 17 4a 24 3e b9 9a 41 3b 4d aa 78 bc
       0.058849476 0.16043888 0.0029541685 -0.015177322
0000e0 f3 f3 74 3e 55 6c f7 bc 9e cd 09 3e 3e 35 90 bd
       0.23921184 -0.030203024 0.13457343 -0.07041405
0000f0 de 7c 6e 3e a7 b7 61 bd 17 4a b0 3d a7 0e e3 3c
       0.2328982 -0.055106785 0.086078815 0.027716948
000100 27 97 02 3e 6e 3f 47 3e b6 25 88 be 79 4f 68 3b
       0.12752973 0.1945779 -0.2659127 0.003544776
000110 b0 a6 5e 3e 5f 97 03 3c d3 f9 07 be 10 a3 e4 3c
       0.21743274 0.008031695 -0.13278894 0.027909786
000120 9a 74 9b 3d 1e a6 b2 3d 23 fd 1b 3e 28 d7 37 be
       0.07590599 0.087230906 0.15233283 -0.1795317
000130 8e 4b a4 3e 97 0d 0c 3d 7f 86 16 3e 4e e2 07 bd
       0.32088894 0.034192648 0.14699744 -0.033174805
000140 af f3 20 3e e3 c3 00 3f 0a 1a a2 3c 8e 07 27 be
       0.15717958 0.502989 0.019787807 -0.16311476
000150 7b 76 17 3e 89 af 11 be c3 46 aa 3d 10 53 a8 3d
       0.1479129 -0.14227118 0.08314278 0.08218968
000160 a7 95 ff bd 03 47 46 3d 97 8d 54 3e 8d b6 4b 3e
       -0.12479716 0.048407566 0.20757137 0.19893856
000170 92 ac c6 bd 32 69 f0 bc f3 a9 13 3d 44 82 c2 be
       -0.09700884 -0.029347036 0.036050748 -0.3799001
000180 ca ff 95 be 43 23 ad bc 3b b1 b5 3d 39 64 19 bd
       -0.29296714 -0.021134978 0.08871695 -0.037449095
000190 a2 49 20 be 51 96 d1 3d 86 32 e6 bd 28 72 14 bc
       -0.15653089 0.10233749 -0.11240105 -0.00906042
0001a0 e5 cf 9f 3d 70 93 97 be 49 82 65 3e 3e fd 5f bd
       0.078033246 -0.29604673 0.22412981 -0.05468487
0001b0 d5 80 87 be d7 fa 64 3e 5c a6 02 bd bd e9 9a bd
       -0.2646548 0.22361313 -0.031896934 -0.07564113
0001c0 9a bc 04 3d ef ab 40 3d f6 d9 10 bc a1 02 ef bd
       0.032406427 0.04703897 -0.008841028 -0.11670423
0001d0 d0 3b a4 3e 4f 82 c7 3a fb ce 14 bc 8c 9d 2c bd
       0.32076883 0.001522133 -0.009082551 -0.042142436
0001e0 7e 3e 9e 3e fe 82 70 3d 10 03 db 3d 8f ee ea bc
       0.30907053 0.058718674 0.106939435 -0.028678207
0001f0 db 35 eb bd 66 78 48 be ea 88 ad be f5 52 ce bc
       -0.114848815 -0.19577178 -0.3389352 -0.025186041
000200 fe 1d 00 3e 4d 96 89 bd 28 2b a2 be 65 a0 2f 3d
       0.12511441 -0.06718121 -0.3167355 0.042877574
000210 64 c0 12 3e da 56 20 bd 37 bb 87 bc 9d 0e b2 be
       0.14331204 -0.039145328 -0.016568763 -0.34776774
000220 c8 93 c2 3e 6b 73 9a bd a7 d6 db bd 6f 47 90 bd
       0.38003373 -0.075415455 -0.10734301 -0.07044875
000230 16 03 0c 3e ca a6 c3 3d 60 3a 43 bc e1 38 1f 3e
       0.13673052 0.09553297 -0.011915773 0.15549041
000240 73 0d 74 bc 30 78 2d 3b cf 30 92 3e ab 59 93 3d
       -0.014895785 0.0026469342 0.28552863 0.07194837
000250 11 c8 82 3d e2 e6 1a bd 4f c1 12 be 3e a2 ff 3d
       0.06385816 -0.037817843 -0.14331554 0.12482117
000260 46 26 15 3d 92 48 21 be 63 ce 51 be 44 e1 77 be
       0.036413454 -0.1575034 -0.20488887 -0.24207026
000270 bd f1 64 be 20 96 0c 3e 97 a0 55 3d 00 85 06 be
       -0.22357841 0.13729143 0.052155104 -0.13136673
000280 d0 03 81 be a9 df 24 be f3 24 80 3c 71 cd 26 be
       -0.2519822 -0.16100945 0.015642619 -0.16289307
000290 36 f2 c6 3d 6d 22 5b be f7 9d 10 3c 30 bf 3f bc
       0.09714167 -0.21399851 0.008826724 -0.0117032975
0002a0 1e 03 84 3c c3 c8 ba bd d3 e7 69 3c 46 8a c8 3e
       0.016114768 -0.091203235 0.014276463 0.39167994
0002b0 3f ae 15 3c 4a 62 71 bd 7b 31 f6 bc 84 c8 80 3e
       0.009135782 -0.058931626 -0.030052891 0.2515298
0002c0 6a 7c 9d 3d 69 75 4b 3d 3e 2f 8d bd a7 cc 8e bd
       0.07689746 0.049672518 -0.06893776 -0.06972628
0002d0 20 02 83 be ff fd db 3e a5 29 7a bd ce 1f 1d be
       -0.2558756 0.4296722 -0.06107487 -0.15344164
0002e0 63 2a 61 3e c0 6c b0 3e 34 a9 c0 3b 2f b6 82 bd
       0.21988826 0.3445797 0.0058795456 -0.06382405
0002f0 d7 34 37 3d 86 7f 84 3c 47 eb da bd 70 98 2d be
       0.044728126 0.01617409 -0.10689407 -0.16952682
000300 ca 82 8e 3d 57 ae 20 bd 7f 27 fe 3c d2 3a 72 bd
       0.0695854 -0.039228763 0.031024693 -0.059138127
000310 d0 cc 15 bf 4c de 8f bd 97 f2 ea bb 23 aa 03 3e
       -0.58515644 -0.07024822 -0.0071700322 0.12857871
000320 78 b4 e4 3b 27 db 76 3e 55 0c 1d 3d 1d 93 ff 3d
       0.0069795214 0.24107037 0.03834184 0.124792315
000330 59 a1 b4 3c c8 c9 2d be d5 17 8f be 3d be 17 bc
       0.022049593 -0.16971505 -0.2794787 -0.009261665
000340 20 6a b8 bd 3e 77 9c bd 59 e4 ef bd 67 10 74 be
       -0.09004617 -0.07639931 -0.11713476 -0.23834382
000350 9c 76 2f bd 34 04 97 bc b0 dc 52 be c1 02 92 3e
       -0.042837724 -0.018434621 -0.20591998 0.28517726
000360 f4 fe d9 3e 29 24 db bb 98 2f c5 bd 68 54 e1 3d
       0.42577326 -0.0066876602 -0.096282184 0.11002427
000370 1a 39 8f be 4e 28 ab bd fa c6 02 3e af 45 9d 3d
       -0.27973253 -0.08357297 0.12771216 0.07679307
000380 10 9b 38 be 6b ed a3 3d 7d e1 a2 3d 05 f3 14 3d
       -0.18027902 0.08004268 0.07953165 0.036364574
000390 01 43 5f bd be 71 a3 3d 13 9e a8 3e 60 fe 6d be
       -0.05450726 0.07980679 0.329331 -0.23241568
0003a0 4f 29 59 bd 1b 27 82 bd bd 74 fa bd 44 55 9e 3e
       -0.05301791 -0.06355115 -0.12229297 0.30924428
0003b0 a4 61 af bd fc a8 64 bd 17 a7 a1 bd 29 5d 99 3d
       -0.08563545 -0.05582522 -0.07893198 0.07488472
0003c0 50 96 9c bd 6a 4f 2c 3e a0 20 e1 3c fb 11 11 be
       -0.07645857 0.16827169 0.027481377 -0.14167015
0003d0 2b 44 84 bd d0 8d 90 be ce 93 a9 be 00 2e b2 3b
       -0.064583145 -0.28233194 -0.3312058 0.0054376125
0003e0 c9 31 32 bd e3 c5 3a bd 26 b6 31 3e f1 e9 a4 3e
       -0.04350451 -0.045598876 0.1735464 0.32209733
0003f0 e2 77 e8 3d 0a 74 38 be 97 83 63 be 48 c4 6d 3e
       0.11350991 -0.18013015 -0.22218166 0.23219407

network.0.conv.0.bias f4 [512]
000000 1b e9 e0 3d 8e 72 3b be 4e b5 7e bd 1f 5b bc ba
       0.10981961 -0.18305418 -0.062184624 -0.0014370418
000010 e0 5b 9f be 25 68 b3 3c d0 8d 17 be cf c3 4b be
       -0.31124783 0.021900246 -0.14800191 -0.19898914
000020 9a dc 01 3e 69 50 df bc 13 c7 9b bd 8e 1a e8 3c
       0.12681809 -0.027260022 -0.0760633 0.028332975
000030 ad 5c c6 bd f5 10 01 3d 6f 3d 37 bd 43 e2 ba 3d
       -0.09685645 0.031510312 -0.044736322 0.09125187
000040 c1 68 f3 bc 31 b8 03 be 80 40 8c 3c 49 49 9a 3d
       -0.029713036 -0.12863232 0.0171206 0.07533509
000050 c7 cc 3a 3e ea 78 96 3d 3e 22 2a be 50 a9 71 3d
       0.18242179 0.07347281 -0.16614625 0.05899936
000060 d7 e3 30 3e 96 9c b8 3d 3e de 98 3c ef 0b 68 3d
       0.17274414 0.090142414 0.01866066 0.056652006
000070 54 94 2b be 18 87 c7 bd 90 9f 0f 3c 3d 14 d8 bd
       -0.16755801 -0.09742564 0.00876607 -0.10550735
000080 86 c7 19 3e eb e7 97 3c 39 93 62 3d c1 7e 1d bc
       0.15017518 0.018543204 0.055316184 -0.00961274
000090 62 d0 8d bc ac bc 61 bc 71 81 62 bc 00 66 57 3d
       -0.017311279 -0.013777893 -0.013824807 0.05258751
0000a0 1d 92 bf 3d 29 52 12 3e 46 b0 b1 bd 6b 86 ba 3c
       0.09354041 0.14289154 -0.086761996 0.022769174
0000b0 80 88 32 be 1a 87 1d 3e fa 27 8b 3c 1f 92 ed bc
       -0.17434883 0.15383568 0.016986836 -0.02900034
0000c0 f2 6a 84 3d 74 47 c6 3d fd 2d 99 bd b7 23 b2 3c
       0.06465711 0.09681597 -0.07479475 0.021745546
0000d0 30 6c 71 3d 97 28 16 3e 71 23 9c 3d 9a de 1b 3e
       0.058941066 0.14663921 0.076239474 0.15221635
0000e0 51 2f c7 3b c2 92 21 3c e9 dc 43 3c 11 03 36 be
       0.0060786386 0.00986165 0.011954525 -0.17774607
0000f0 4a 56 bb 3d 41 c7 b3 3c 83 d6 59 3e 9b 4e ef 3d
       0.09147318 0.021945598 0.21273236 0.11684915
000100 86 d9 84 3e 4e 6a 16 bd bb 07 8d 3d 1a b0 6c 3d
       0.25947207 -0.036722474 0.0688624 0.05778513
000110 f6 ae 88 bd 3a 79 c2 3d 13 22 6f 3c 4c c8 70 3c
       -0.06673996 0.094957784 0.014595526 0.014696192
000120 62 5f 79 bd 4d b5 26 bd 0e 34 b6 bd 49 50 83 bb
       -0.06088198 -0.040700246 -0.088966474 -0.0040073735
000130 37 4e 16 be fe 50 1a bb d1 0f 70 bd 2e 1d 5f be
       -0.14678274 -0.002354681 -0.058608834 -0.21788475
000140 0e 9f ee 3d e6 92 71 3d 09 f3 2c bd 60 da 53 3e
       0.11651431 0.058977984 -0.042223964 0.20688772
000150 2f fe 31 3e 1e 41 08 3d 7b 36 9d 3d 97 36 54 bd
       0.1738212 0.033265226 0.07676407 -0.051809873
000160 6e b4 a6 bb 80 f3 1e be 3e 0f a5 3c f6 d9 ed bd
       -0.005087427 -0.15522575 0.02014887 -0.116138384
000170 3b 02 6c 3d c5 b0 78 be f6 08 1f bd f6 df e0 3d
       0.057619315 -0.24286182 -0.038826905 0.10980217
000180 14 af 23 3e e7 71 0e 3e 2c d3 15 bd d3 2e 00 bd
       0.15984756 0.13910638 -0.036578342 -0.031294655
000190 e8 89 ee 3d 44 96 a5 3d 44 79 1f 3e 96 78 1d be
       0.11647397 0.080853015 0.15573603 -0.15378031
0001a0 a9 2d 5c 3d 12 c3 3d 3d 83 f1 ae bd 48 92 03 ba
       0.053754482 0.04632861 -0.085421585 -0.0005019051
0001b0 01 8a 85 bd 26 18 b8 bd c5 36 9a 3c 07 41 ce 3c
       -0.06520463 -0.08988981 0.018824944 0.025177492
0001c0 3c 61 8a bd cf 08 ea 3d d2 18 81 3d d5 ee fe bd
       -0.06756827 0.11427461 0.06303562 -0.12447897
0001d0 fe 1a d9 3d df 4f 34 bd 29 7f a8 3c 36 ae 64 3d
       0.106008515 -0.044021484 0.020568447 0.055830203
0001e0 2d dd b9 bd fb 16 81 3c db 8a 65 3d 99 ab 9f bc
       -0.09075389 0.015758028 0.056040626 -0.019491004
0001f0 a0 8c 0f be 6a 4e 06 be 7a ea 03 be d7 50 b5 3d
       -0.14018488 -0.1311585 -0.12882414 0.088533096
000200 a7 19 b2 bd 1a ab e5 3d 93 87 cd 3c 8c 4a f1 bd
       -0.08696299 0.11214276 0.02508906 -0.11781797
000210 c4 06 f0 bc de 1e 0d 3c 8d 4a 88 3d 5b 96 81 3c
       -0.029300101 0.008613316 0.066548444 0.015818765
000220 b5 23 91 3c 00 75 b9 3b 7d 03 f6 3c ac 28 16 bb
       0.017717222 0.0056596994 0.03003096 -0.0022912426
000230 ca 07 36 be 4a 50 33 be 60 a5 8a 3d 9a fc b0 bd
       -0.17776409 -0.17511097 0.06769824 -0.0864193
000240 c5 6e 37 3d f7 f5 54 3c a6 aa 3d bd a5 a8 fa bd
       0.044783372 0.012998096 -0.04630532 -0.12239198
000250 72 f9 6f 3d a8 b1 3a 3c 11 2e ca 3c c1 e2 43 3b
       0.0585875 0.011394896 0.02468017 0.0029889795
000260 fb 1b 4e be 71 9e 74 bd 2b d7 f5 bd ae b2 fc 3d
       -0.20127861 -0.059721414 -0.12003931 0.12338768
000270 00 82 b1 3c 75 a9 8d 3d 2d c6 a1 bd 88 03 cb bd
       0.021668434 0.06917087 -0.07899127 -0.09912783
000280 eb 1b dc bc 5e a5 0f 3d 28 da a0 bd 41 24 5b 3e
       -0.026868781 0.035069816 -0.0785411 0.21400549
000290 80 11 85 bd 21 1c d5 3c 58 fe 89 3d 38 ec 60 3e
       -0.064974785 0.02601439 0.06737965 0.2196511
0002a0 17 f9 8c 3c d9 52 6c be a0 2b 51 bd 62 78 24 be
       0.017208619 -0.23078479 -0.051066995 -0.16061547
0002b0 87 eb 6b 3e a1 ca 34 be 1a 06 d9 bd 7f 89 98 bd
       0.23039065 -0.17655422 -0.10596867 -0.074481
0002c0 b1 a0 7a bc b9 33 1c bc d0 b1 95 3c 60 d4 98 bc
       -0.015297101 -0.009533816 0.018273264 -0.018655956
0002d0 a1 21 2a bd 77 cc bc 3d 35 88 86 bd 8e f4 53 be
       -0.041535977 0.09218686 -0.06568948 -0.20698759
0002e0 a2 fc 22 be 4c ba 8c 3d f1 de 0e bd cf b6 27 be
       -0.15916684 0.06871471 -0.034880582 -0.1637833
0002f0 b6 d6 f1 3d 20 cf 2c be 71 5d c9 3d 6e 7a e6 bd
       0.11808531 -0.16875887 0.09832276 -0.1125382
000300 47 ca 0b be 62 a6 18 be 76 87 4b bd eb 1b 29 3e
       -0.13651381 -0.1490722 -0.049689732 0.16514556
000310 f1 c2 2c be 6a 40 91 3d 76 41 8c 3c 6b 20 45 bd
       -0.16871239 0.07092364 0.017121058 -0.04812662
000320 96 04 52 3d 37 1b 83 be 5f 77 f4 3b 49 2f 37 bd
       0.051273905 -0.256067 0.007460519 -0.04472283
000330 14 16 03 bd 55 73 71 3d 47 9d c7 3d 43 68 97 bd
       -0.032003477 0.05894788 0.09746795 -0.07392933
000340 4a a6 11 be f1 05 c3 bd ab 78 84 be 8a 45 35 be
       -0.1422359 -0.095226176 -0.25873312 -0.17702308
000350 b3 df 4d bd 88 c0 2b bd ed d0 ba 3d ce fb 03 3e
       -0.050262164 -0.04193166 0.09121881 0.12889025
000360 e0 77 15 3e e6 e7 ed 3d 19 0b 98 3d 3f fa dd bd
       0.1459651 0.11616497 0.07423992 -0.10838746
000370 10 5f 44 bd 95 59 58 bd 19 d1 2e be 65 a2 66 be
       -0.04794222 -0.052819807 -0.17071952 -0.22522886
000380 a8 4e 2a be aa 9d 3c 3d 2f b6 61 bd fa ee c4 bd
       -0.16631567 0.046048798 -0.055105384 -0.09615894
000390 ea c5 19 be fa 3b 59 3d 08 5a 27 be 8b 97 08 3d
       -0.15016904 0.053035714 -0.16342938 0.033347648
0003a0 cf e5 4c be aa 19 09 3e 6e e7 25 be 9b 89 56 be
       -0.2000954 0.13388696 -0.16201565 -0.2095093
0003b0 61 44 df 3d 2c e5 c3 3b f4 59 04 be 70 8a 13 3d
       0.10901714 0.005978247 -0.1292494 0.036020696
0003c0 2d d6 50 3d 9e 2c aa 3d 04 f9 30 be f4 63 98 bc
       0.050985504 0.08309291 -0.17282492 -0.018602349
0003d0 ad 02 16 3d 38 8f 1c bd cf fb 6d 3d ef d0 17 3d
       0.036623646 -0.03822252 0.05810147 0.03706449
0003e0 d0 34 49 3d b6 6e 1a be 89 60 b3 3a 85 72 b4 bd
       0.04912263 -0.15081295 0.0013685386 -0.08810905
0003f0 a8 ad 06 3c 64 74 56 3c d9 d7 07 be 04 41 dc bd
       0.008220114 0.013089273 -0.13265933 -0.10754588

network.1.conv.0.weight f4 [256, 512]
000000 66 54 87 3d 5b b8 2e be 12 9b 78 bd 4f bd 24 3d
       0.066078946 -0.17062514 -0.06069476 0.0402196
000010 fb 51 e3 ba 5e f2 7f bd 89 ff e0 bd e5 0d 37 bd
       -0.0017343158 -0.062487 -0.109862395 -0.044690985
000020 5b b2 81 3c 40 a3 a7 bd f1 ac 27 be 48 e8 90 3d
       0.015832117 -0.08185434 -0.16374566 0.07075554
000030 56 7f 1d 3e 88 9e 10 bd 9c 10 bc bd 4a 21 bc 3e
       0.15380606 -0.035307437 -0.091828555 0.36744148
000040 87 37 54 be 02 e3 c9 3c e0 22 f1 3c 0e 90 52 3e
       -0.20724307 0.024644379 0.029435575 0.20562765
000050 81 8b 01 3e 5e d4 92 3e 31 ee cb 3d da 9d 08 3d
       0.12650873 0.28677648 0.09957541 0.033353664
000060 6a d4 41 3e e7 a0 33 bd 41 92 51 3e ca 42 0f 3e
       0.18928686 -0.04385462 0.20465948 0.13990322
000070 47 48 f1 bd 9c 9f a8 bc 7a 2b 0c be da 2e 81 bc
       -0.11781364 -0.02058392 -0.1368846 -0.01576941
000080 2c e2 0e 3e 97 b3 32 3d 21 d4 2d 3d 9f 8e a6 3d
       0.13953465 0.0436283 0.04243863 0.081326716
000090 61 33 8e bd 87 ba 51 be cc 87 d2 bc 72 db 5a be
       -0.069433935 -0.20481311 -0.025699519 -0.21372774
0000a0 32 51 63 3d 90 2e a0 3e ef 5b a8 3d 44 bb a2 be
       0.055497356 0.31285524 0.0822066 -0.31783497
0000b0 ab 8d d2 3d ce 13 f2 bc 63 4b 9d bd 8d 70 f8 bd
       0.10280927 -0.02955046 -0.076803945 -0.12130842
0000c0 0d a5 7f 3d 1b 8e a8 3c 81 02 29 3d 4a a6 39 bd
       0.062413264 0.020575574 0.041262154 -0.0453246
0000d0 bd 72 1d 3e b8 4b c4 3d 5d 90 a0 3e a8 3a 5c bc
       0.153758 0.09584755 0.3136014 -0.013441719
0000e0 0d 0f 91 be ae df 5b be 10 d7 1e be 07 d5 7f be
       -0.28331795 -0.21472046 -0.15511727 -0.24983607
0000f0 2f b3 d9 bc e0 82 06 3e 1e 26 65 3b f7 84 d7 bb
       -0.0265747 0.13135862 0.0034965347 -0.00657713
000100 49 e8 20 3d 69 d8 7c be 67 be 9b bc dd 4d 71 3d
       0.039284024 -0.24691929 -0.01901169 0.058912147
000110 aa 0c 66 bd 55 cc 41 3d 6d d5 ed 3d c1 2c 8a bc
       -0.05616442 0.047314007 0.11612973 -0.016867043
000120 24 32 8d 3d 92 6d 8c 3e ee 66 d2 3c f3 33 33 be
       0.06894329 0.27427346 0.025683846 -0.17500286
000130 6a 75 3d be cb d0 2c 3c b6 52 d6 3d 57 7b 04 3e
       -0.18501821 0.010547827 0.104649946 0.12937675
000140 9e e4 23 3d f1 7c 9b bd c9 9b 61 be 44 6f 23 3e
       0.04001295 -0.0759219 -0.22032084 0.15960413
000150 1f e6 b6 bd 9e 27 00 3e e3 e5 5d be b9 06 3a bd
       -0.08930611 0.12515113 -0.21669726 -0.045416567
000160 66 92 29 3e bd b1 97 3e b9 62 6a 3e 92 ef ce 3d
       0.16559753 0.2962779 0.22889222 0.10104288
000170 32 55 b0 3e f0 ce 25 be 45 22 82 3d 45 97 0d 3d
       0.3444 -0.16192222 0.06354193 0.03456809
000180 56 cd 61 bd 1f 67 25 3e bf b2 11 bd aa 7d 18 be
       -0.055127464 0.16152619 -0.035570856 -0.14891687
000190 fd 9d 06 3e eb 54 74 3c a3 03 ba 3d 15 a0 bb bd
       0.13146205 0.014912824 0.09082725 -0.091613926
0001a0 58 ba 6f 3e 35 10 6f bc f9 0f 03 be 42 59 8e 3c
       0.23410928 -0.014591266 -0.12799062 0.017376546
0001b0 6d 54 81 3e 94 9b 06 3e 54 7f 6c 3e b7 b5 52 3d
       0.25259724 0.13145286 0.23095447 0.051442828
0001c0 c6 10 c4 3b eb 61 10 3e 72 03 86 3e 84 62 7c bd
       0.005983445 0.14099853 0.26174504 -0.06161739
0001d0 28 15 d4 3d ee eb 1e be 86 a1 83 bd c0 a4 7d 3d
       0.10355598 -0.15519688 -0.064272925 0.061924696
0001e0 5e 0e 7a bd 7c aa 7c 3e 5b 2a 9a bd ac 09 7c bc
       -0.061048858 0.2467441 -0.0752761 -0.015383165
0001f0 fa f6 dc bd 31 fb 8f be 38 7d 96 be 9b c7 b2 3c
       -0.107892945 -0.2812133 -0.2939241 0.021823695
000200 e8 45 f2 3c 6a 56 00 3c 08 a8 62 3e 94 1a e8 b8
       0.02957435 0.007833103 0.22134411 -0.000110675726
000210 2b d8 40 ba 69 64 c6 bb 69 2c b7 bd 7e 27 90 3d
       -0.000735643 -0.0060544503 -0.089440174 0.070387825
000220 79 f6 6f 3d bb 9d 8f 3d 9a 80 cd 3c bb 17 ae 3c
       0.058584664 0.070125066 0.025085736 0.02125155
000230 d6 c9 bc 3c 4c 83 d3 3c 6e fa 4e be eb 7f e1 3d
       0.023045462 0.025819443 -0.20212719 0.110107265
000240 de dd 95 3d e0 6c bc bd 2c 30 bd bd 54 b0 23 bd
       0.073177084 -0.09200454 -0.09237704 -0.03996308
000250 6c aa 44 3e 0b 05 26 bd ab 2a 07 3c e8 8b a1 bb
       0.19205636 -0.040532153 0.008249919 -0.004930008
000260 db ce 73 3d 83 e1 1b 3e 8d 58 7d 3b b5 c8 5a 3d
       0.059523445 0.15222745 0.0038657517 0.053414065
000270 3c a3 4c 3e 9a 19 f3 3d 5e 2f e9 bd a2 b4 3c bb
       0.19984144 0.118701175 -0.11385988 -0.002879419
000280 58 bd 4e bc 31 83 92 3c be d3 e3 3c 5d 17 a9 3d
       -0.012618385 0.017884823 0.027810927 0.08256409
000290 2e 9a ea bd eb e7 40 3e 33 78 e7 3d 11 e5 0b 3e
       -0.11455189 0.1883847 0.11302223 0.136616
0002a0 1f a3 8a bc 20 4c 58 bd be 1a 61 3b 25 23 ce bd
       -0.016923485 -0.052806973 0.0034348215 -0.10065297
0002b0 f5 42 3a 3e d4 99 42 bd 41 9b 9c 3d 64 c1 18 be
       0.18189605 -0.047509983 0.076468 -0.14917523
0002c0 c5 92 63 bd 33 df 28 3e 8a 11 d6 3d c4 3e 36 3c
       -0.055559892 0.16491394 0.10452564 0.011123363
0002d0 8c bd bf bd 9d ea e7 3b 41 53 66 3d 6e 85 b2 bd
       -0.09362325 0.0070775286 0.05623174 -0.08716856
0002e0 7f 6d 1b be 80 d5 ec 3d 8f 85 a7 3d 37 29 5d bd
       -0.15178488 0.115641594 0.08179771 -0.053994384
0002f0 25 78 34 3c a7 77 a1 3d b2 69 95 3d 88 b5 48 be
       0.011014973 0.0788415 0.072955504 -0.19600499
000300 4f f2 3b be 7a c4 41 3d 6d 72 76 3d 31 56 36 3d
       -0.18354152 0.047306515 0.06016772 0.044515792
000310 fe 7c e2 3d 2e d3 e3 bc f3 f8 09 3e 68 e6 22 bd
       0.110589966 -0.02781066 0.13473873 -0.039770514
000320 22 67 b5 bc 5b 3c 00 be 83 c7 89 3c 57 0f 89 bd
       -0.022143904 -0.12523024 0.016818767 -0.06692379
000330 59 7b a3 3d 84 2c d9 3d 4a a2 3e 3e da ca db be
       0.07982511 0.10604194 0.18616596 -0.429282
000340 02 9b 13 3d 48 c6 7e be 22 49 a3 3b 5f fc 5a bd
       0.0360365 -0.24880326 0.0049830833 -0.053463336
000350 1d c3 a7 3d 43 b6 ce 3c 4a 73 70 3b b4 43 90 3d
       0.08191512 0.025233394 0.0036689811 0.07044163
000360 ec c6 bc 3d 18 ab 24 3e 0e 37 d1 3d 75 2b e4 3c
       0.09217629 0.16080892 0.10215579 0.027852753
000370 9d 71 aa 3d 14 c6 e6 3c 18 83 ec bd fe 9e 03 3d
       0.08322451 0.028170623 -0.11548442 0.03213405
000380 3d 09 13 be e4 bd eb 3c eb 38 a3 3d c9 cf 42 be
       -0.14358993 0.02877707 0.079698406 -0.19024576
000390 7f 49 32 be 77 c3 d2 bd b8 b8 8e bc 5b 14 ca 3d
       -0.17410849 -0.10291188 -0.017422065 0.09867164
0003a0 bb 47 97 bc ec 9d 30 3d b5 ad e6 bc c4 fa 0a bb
       -0.018466821 0.043119356 -0.028159002 -0.0021206597
0003b0 cc f7 2e 3d b5 1d cf 3c a2 9e ba bd 9f 5c 55 3d
       0.042716786 0.02528272 -0.09112288 0.052090283
0003c0 aa 6b 5c 3d 60 9a 1b 3e 44 08 be bd 58 66 c0 3d
       0.053813614 0.15195608 -0.0927892 0.093945205
0003d0 33 9d 37 bd c1 77 c3 bd 33 6e 86 3d b3 a0 bc bd
       -0.04482765 -0.095443256 0.065639876 -0.092103384
0003e0 89 3e f8 bb c1 6f 95 be 99 f0 68 3d dd eb 00 be
       -0.007575814 -0.29186824 0.056870077 -0.12589975
0003f0 5d 8d 58 3e 8e d3 07 be b0 83 71 bd 75 9a 2d 3d
       0.21147676 -0.13264295 -0.058963478 0.04238363

network.1.conv.0.bias f4 [256]
000000 42 b6 b3 bc 0d d7 90 bb 82 10 24 3d d4 d7 59 3c
       -0.021937493 -0.0044201673 0.040054806 0.013296086
000010 ec 9c f7 bb c3 c7 9c 3d 40 c8 41 3d bd 1e 87 3d
       -0.0075565483 0.07655289 0.047310114 0.0659766
000020 f7 94 77 bd 63 41 64 3d f3 7e 6f bc f9 60 25 be
       -0.0604448 0.05572642 -0.014617669 -0.16150273
000030 c5 1a 96 3d 1e d6 c4 bd db f9 a2 bd 6c 58 ce bd
       0.07329325 -0.09611152 -0.079578124 -0.10075459
000040 8a 2b 4a bd 49 9c 5d ba 37 00 30 3d 65 71 45 be
       -0.04935793 -0.0008453769 0.042968955 -0.19281538
000050 7f 9a b1 bd 28 f6 60 3e 9c 7d 83 bd 10 c0 19 bd
       -0.08672046 0.21968901 -0.064204425 -0.03753668
000060 e6 14 85 bd cd f8 f9 3b 87 19 2e be d4 95 c4 3c
       -0.06498127 0.0076285363 -0.17001925 0.023997225
000070 41 02 12 be 18 fb 88 bc 92 ea 09 be cb ca 7c 3c
       -0.14258672 -0.016721293 -0.13468388 0.015429209
000080 4c af a2 bd b0 bf 5c be 2d c0 65 3e 2c 64 b3 bd
       -0.079435915 -0.21557498 0.2243659 -0.08759341
000090 ae f7 45 be c7 8f cc 3c 1c ae 35 3c 40 6b 34 bd
       -0.19332764 0.024970902 0.011088874 -0.044047594
0000a0 ad f1 d3 bd d9 12 09 be 28 76 5c be 66 ea a6 3d
       -0.1034883 -0.13386096 -0.21529448 0.08150177
0000b0 92 89 b9 3c 93 00 e5 3c 1f 9e c9 bd e0 f2 37 bb
       0.022648606 0.027954375 -0.09844612 -0.0028068349
0000c0 b8 ec 74 bd a6 e8 8e 3d 25 bb 53 bd d8 6a e3 3d
       -0.059796065 0.06977968 -0.051692147 0.11104363
0000d0 40 38 9e bd f9 b6 89 bb 6a d1 97 bd f2 22 4f 3d
       -0.077255726 -0.0042027202 -0.074129894 0.050570436
0000e0 3b 19 0b 3d 4d 89 32 3d 3e c6 10 3d d0 dd 10 3e
       0.03395961 0.04358797 0.03534531 0.14147115
0000f0 4f a0 0d be 67 64 8a bd dd c4 5f bc a4 7b 42 3d
       -0.13830684 -0.067574315 -0.013657776 0.047481194
000100 cb 5f bc 3c f7 05 06 3d 2c 22 15 3e fc c1 2a bd
       0.022994896 0.032720532 0.14563817 -0.041688904
000110 8b a2 9a bc a8 e7 63 bd 86 ae 0b bc 07 0a b4 bd
       -0.018876335 -0.055640846 -0.008525496 -0.08790975
000120 a8 24 72 3d 29 01 d4 bd 16 25 15 be ba e5 19 bb
       0.05911699 -0.10351784 -0.14564928 -0.0023482875
000130 bb d1 e0 3c 13 34 40 3d 3d a7 97 bb 64 12 79 3e
       0.027443757 0.04692466 -0.0046280907 0.24323422
000140 eb 64 0b be 1b 5c 18 3d 8d 4c 1d be d1 60 b2 3d
       -0.13612716 0.037197214 -0.15361233 0.087098725
000150 1b 5f 34 be 61 91 43 bd ff bf 85 bd b9 16 ee bc
       -0.17614405 -0.047746066 -0.06530761 -0.02906357
000160 db 13 af 3d 6f 92 57 3b a9 3d 28 39 c3 1f 1c 3e
       0.08548709 0.0032893678 0.00016044699 0.15246491
000170 56 b4 ec 3d 52 df 17 3e 4d 9e 23 bc 56 30 05 bc
       0.11557834 0.14831284 -0.009986472 -0.0081292
000180 d1 f9 1f be 59 c5 fc bc 57 25 85 bc c9 4e a3 3e
       -0.15622641 -0.030855821 -0.016253157 0.31896046
000190 00 ce 3a 3d db 1e 0d bd 3f b5 67 3d a6 2d 30 be
       0.045606613 -0.034453254 0.056569334 -0.17204913
0001a0 5e 11 69 be 76 aa 6b bd 41 06 e1 3d c9 e5 30 be
       -0.22760531 -0.05753561 0.10987521 -0.17275156
0001b0 61 54 0f 3d f5 6d 0e bd 1e a2 0f 3e eb 9b 30 be
       0.03499258 -0.034772832 0.14026687 -0.17246978
0001c0 ba 33 98 3d ed f6 e7 3d 80 5e bd bd 31 83 d3 3d
       0.07431741 0.11326394 -0.0924654 0.10327757
0001d0 d8 d2 77 3d da f1 0e bd 0e b0 24 bd 58 8d 28 3e
       0.06050381 -0.034898616 -0.04020696 0.16460168
0001e0 7a af 37 3c 30 08 e9 bc 4f 27 f6 3d c3 95 e7 3d
       0.0112112705 -0.028446287 0.12019216 0.11307862
0001f0 80 d0 fb bd 6a 26 33 bd 51 46 13 3e 50 98 69 be
       -0.122956276 -0.043737806 0.14382292 -0.22812009
000200 6d ad 38 bd a4 43 91 bd a8 1a 2a be cc 32 25 3d
       -0.045087267 -0.070929796 -0.16611731 0.040331647
000210 c5 2d 4a bd 99 0c 18 3d 3f 4b 37 3c d8 45 5f bc
       -0.049360055 0.03712139 0.011187374 -0.013627492
000220 17 48 2a 3d a8 b7 7c bc b2 b4 74 bd c8 44 10 bc
       0.041572656 -0.015424646 -0.059742637 -0.008805461
000230 4d 0b d1 ba f9 21 43 3d a0 47 a4 bc b6 c6 a8 3b
       -0.0015948802 0.04763982 -0.020053685 0.0051506413
000240 0d 9f 29 3d 82 f4 b3 3b 73 68 0b be ce a6 c0 3d
       0.04141145 0.005491794 -0.13614063 0.094068155
000250 92 f1 09 3e ee 89 aa bd da 39 44 bd 20 b5 d8 bd
       0.13471058 -0.08327089 -0.047906734 -0.10581422
000260 1a d8 12 3e 36 b2 9b 3e ed 46 a0 3d 8a a9 90 bd
       0.14340249 0.30409402 0.07826028 -0.07063587
000270 69 55 10 3c 31 9f 7a 3d 78 6b a2 3c 34 39 94 bc
       0.008809426 0.061186973 0.019826636 -0.018093683
000280 b0 a3 b1 bc 28 66 9b bd 2f be cb 3c da b0 5a 3e
       -0.021684498 -0.07587844 0.02487096 0.21356526
000290 d0 e7 c3 bc 16 3f de 3d a0 9f b1 bb f0 25 c8 3b
       -0.023914248 0.108518764 -0.00542064 0.006108038
0002a0 92 fa c4 3d 52 35 06 3e ba b8 96 3d b4 02 bd bd
       0.09618105 0.13106278 0.073594525 -0.09229031
0002b0 14 9e 45 3c 6a 91 34 be 8c 8f 3e 3d 35 34 2a be
       0.012061615 -0.17633596 0.046523616 -0.16621478
0002c0 84 ae 11 bc 39 93 bb bd 6d c7 45 bc ea f5 9e 3d
       -0.008891705 -0.0915894 -0.012071473 0.07761748
0002d0 29 13 4b bb 57 a5 9a bc cd 6e 3d 3c 9b 70 01 be
       -0.0030986762 -0.018877668 0.0115620615 -0.12640612
0002e0 1c 47 88 bc 15 18 8e bd 04 67 3f 3d 25 b3 73 be
       -0.01663547 -0.06938187 0.046729103 -0.23798807
0002f0 b8 9d 6a bd bf dd 0d 3e e6 79 ca bd 04 69 04 3c
       -0.05727932 0.1385412 -0.098865315 0.008081678
000300 4c a6 51 bd a6 34 f1 bd 80 2a 20 be f8 4b 66 3d
       -0.051183984 -0.1177762 -0.15641212 0.056224793
000310 ca 30 cf bd f9 9a ae 3d 00 f0 db 3d 61 25 bb bd
       -0.10116728 0.085256524 0.10739136 -0.09137989
000320 d6 bc b6 bd 6f 3b e1 3d 72 a7 10 be ca 86 1c 3e
       -0.08922736 0.10997664 -0.14126375 0.15285793
000330 39 71 11 bd 82 e9 92 bc 87 7d 41 be e8 ae 03 be
       -0.03550837 -0.01793361 -0.18895541 -0.1285969
000340 74 68 d9 bc a5 2d fa 3b ab 7e ce 3c 16 16 03 bd
       -0.026539065 0.007634836 0.025206884 -0.032003485
000350 4a de 21 be 82 c5 57 3c 36 10 9e 3d 6f 3e e6 3d
       -0.15807453 0.013169648 0.07717936 0.11242377
000360 87 fd 16 be 83 f8 3a 3d b4 2d 5d be d8 b3 47 bd
       -0.1474515 0.045647155 -0.21599466 -0.048755497
000370 63 7e 99 3b ae e4 14 be 6f 71 55 be f9 1b bd bd
       0.004684256 -0.1454036 -0.20844053 -0.09233851
000380 7b b5 09 3c 97 21 89 3c 91 34 51 3d 6b af 01 be
       0.008405085 0.01673965 0.05107552 -0.12664573
000390 11 f8 57 3d b2 e7 3b 3e f3 ea 0b 3e bc 96 2c be
       0.05272681 0.18350103 0.13663845 -0.16854376
0003a0 59 24 30 bd 26 4d 16 3e 99 2f 81 bd fa 39 a9 bc
       -0.043003414 0.14677867 -0.06307907 -0.020657528
0003b0 01 78 c0 bc c9 81 79 3d 3c e7 74 bd 77 10 3f 3e
       -0.023494722 0.06091479 -0.059790835 0.18658625
0003c0 a9 82 0d be ca 4b 87 3d bc 56 0b be 5d e9 db 3c
       -0.13819374 0.066062525 -0.13607305 0.026844675
0003d0 16 2f 60 3e 23 79 32 3d db ee 13 3d be 7d 93 3a
       0.21892962 0.043572556 0.036116462 0.0011252684
0003e0 e9 21 be bd 5c 7c 60 bc 6b c2 83 be 04 46 c3 bc
       -0.092838116 -0.013701525 -0.25734267 -0.023837097
0003f0 87 21 a1 3d 4b fa db 3d 75 8c a1 bd ab e7 c2 bd
       0.07867723 0.10741099 -0.07888118 -0.095168434

network.2.conv.0.weight f4 [128, 256]
000000 91 2d 8e 3d 08 be ef bb 15 de 92 bc 82 6e ea 3c
       0.06942285 -0.0073163547 -0.017928163 0.028617147
000010 c2 63 57 bd 02 33 b7 3d 02 89 67 3e 0e 6a 42 3e
       -0.05258537 0.08945276 0.22610858 0.18985769
000020 da 0a aa bd 52 f7 94 bb 60 ef e0 bd 2f 41 50 bd
       -0.08302851 -0.0045460844 -0.10983157 -0.050843414
000030 a8 31 04 3d 9f a3 cd 3d 21 ae bb 3d c5 48 c4 bd
       0.03227392 0.10040974 0.09164072 -0.09584192
000040 c6 91 af 3e c3 81 e6 bd 24 6b 5a bd f4 5b 91 3d
       0.34290904 -0.11255219 -0.053324834 0.07097617
000050 c7 ec bc 3d c9 5b 27 bd 4c 08 8a 3d 03 e1 e9 3d
       0.09224849 -0.040859018 0.06739864 0.11419871
000060 ba 6e 42 be 7a ec 88 3e cb 9a 08 be b0 e3 9f 3d
       -0.18987551 0.26742917 -0.13340299 0.078071
000070 5d 99 34 3e ef 5c fc bd ac cb 42 3d 53 04 58 be
       0.17636628 -0.12322413 0.047557518 -0.210954
000080 7d 21 15 be 51 9d 3e be e7 b4 81 3d ce d5 94 bd
       -0.14563556 -0.18614699 0.063333325 -0.072673425
000090 24 07 ba bd a5 c7 34 3c a5 69 ee 3d 4f 59 53 bd
       -0.09083393 0.011033927 0.11641244 -0.051598843
0000a0 df 2f a4 3d 1e 69 a6 bd fa 26 11 3c 8e 82 bc 3d
       0.08016943 -0.08125518 0.00885939 0.09204589
0000b0 eb e5 f5 bd 3e b5 c3 bd 91 06 4d 3e 54 4a 04 3d
       -0.12006744 -0.095560536 0.20022036 0.032297447
0000c0 31 da 50 be 0a 7a 04 3e 58 6e 3d be 77 03 5a bd
       -0.20395733 0.12937179 -0.18499124 -0.05322596
0000d0 9d b3 bc bc 34 2b b5 bc fb 8b a7 3c ac 8a 0a bd
       -0.023034865 -0.022115327 0.02045249 -0.033823654
0000e0 d4 59 20 bd 5c b6 8b bd 80 31 62 be 70 47 1b be
       -0.039148167 -0.06821892 -0.22089195 -0.1516397
0000f0 55 7d 76 3d e1 50 a9 bd 61 28 2d 3e 9d 11 c9 bd
       0.06017812 -0.082673796 0.16909935 -0.098178126
000100 83 cf 77 39 b1 b8 d7 3d fb e4 a1 bd 77 4e 19 bd
       0.0002363306 0.10533274 -0.07905003 -0.037428346
000110 ed 5c 53 be 3d 64 37 bd 89 1d ca bd d7 2d c8 3d
       -0.20640917 -0.04477333 -0.09868915 0.09774368
000120 d2 92 98 bd 59 8a 51 bc 22 e7 e1 bd ab 76 38 bd
       -0.07449879 -0.012789332 -0.11030413 -0.045035046
000130 1a 01 66 3d 1a c5 35 3d 83 cb 2f 3e 7f b9 fd bd
       0.056153394 0.044377424 0.17167477 -0.12388896
000140 de 7e 8c be eb ec 15 3e 52 8c ee bc 60 8d 05 bc
       -0.27440542 0.14641158 -0.029119644 -0.008151382
000150 38 37 35 bd d5 26 de 3d 31 e5 aa bc d4 f5 15 3d
       -0.044242114 0.1084725 -0.02086124 0.036611393
000160 52 8a 89 bd cd e9 17 bd 9c 80 1d 3d 81 e6 88 3d
       -0.06715836 -0.037088204 0.03845273 0.0668459
000170 c1 80 04 be d4 5b 75 3b 22 8a 76 bd 5c b8 73 3d
       -0.1293974 0.0037438767 -0.060190327 0.05950199
000180 33 7d 8e bc 99 7f b4 bb 2d ef 99 3c bf 51 2b 3e
       -0.017393684 -0.005508375 0.018790806 0.16730402
000190 81 39 b2 3d 46 00 df 3d be 32 4a bd 30 74 0c 3d
       0.08702374 0.10888724 -0.049364798 0.034290493
0001a0 e3 59 8e 3d 36 da be 3d 96 b2 60 3c d8 60 58 3d
       0.06950738 0.09318964 0.013714453 0.052826732
0001b0 b7 e8 3c 3d 1a 0e 3c be b2 e1 aa bd 80 8e c4 3d
       0.04612037 -0.18364754 -0.08343829 0.09597492
0001c0 b8 c8 e0 bd 27 d8 35 bb 13 14 a1 3d 86 eb 8c bd
       -0.10975784 -0.0027747245 0.07865157 -0.0688086
0001d0 21 c9 d1 3b 84 f5 86 be 67 f3 d6 3c f1 72 b3 bb
       0.0064021503 -0.2635919 0.02623911 -0.0054763486
0001e0 d1 34 ad bd 58 70 3d be 71 e3 24 be 5e 2a 94 bd
       -0.084573396 -0.18499887 -0.16102387 -0.072346434
0001f0 69 2c ed 3b 58 7c e3 3b ab 12 92 bd 21 42 d5 3d
       0.00723796 0.006942313 -0.07132467 0.10413004
000200 ae 72 c2 3d a8 df fc 3d c8 7f 2e 3e 1f bc 10 be
       0.0949453 0.123473465 0.17040932 -0.14134263
000210 9b fa af bd 67 53 00 3e 03 e2 c8 bd 5e cb 91 3d
       -0.08592721 0.12531815 -0.09808733 0.07118867
000220 b9 15 0b 3d 45 ea 09 bc 2f 72 f7 bb ff 27 83 3d
       0.033956263 -0.008417671 -0.0075514535 0.06404113
000230 4e 3a 0d 3d f5 18 78 bb 94 75 64 bd a5 28 03 be
       0.03447943 -0.0037856672 -0.055776194 -0.12808473
000240 2b c8 a3 3c d7 9c 2b be 05 9b 58 3d 73 4b f3 bc
       0.019992908 -0.16759048 0.052882213 -0.029699063
000250 8c 64 01 be 64 90 96 bb b6 03 71 bb 00 6d 2e be
       -0.12636012 -0.0045948494 -0.0036775894 -0.17033768
000260 68 77 6d bd 67 78 be bd 52 2e 5e 3d c2 93 ab 3d
       -0.057975203 -0.09300309 0.054243393 0.08377792
000270 6c ac 27 3e 49 47 bb bd 1a 86 f0 3c c4 5c 1b be
       0.16374367 -0.09144456 0.02936082 -0.15172106
000280 74 ee 42 3e 00 44 52 bc 82 1d 2c 3e fc ac 3f bd
       0.19036275 -0.012833595 0.16808131 -0.04679583
000290 cc 45 87 bd c6 fb e8 bd 42 a6 a9 3d c4 03 06 be
       -0.066051096 -0.11376147 0.08283664 -0.13087374
0002a0 aa a7 b4 bc e3 72 f6 bd 5e 50 81 bd a3 f1 c0 bd
       -0.022052605 -0.12033632 -0.06314157 -0.094210885
0002b0 6c 27 d4 3c 93 be a4 bd 37 88 fb 3d 76 53 49 bd
       0.025897704 -0.08044162 0.1228184 -0.04915186
0002c0 0d 11 e6 bd 78 5f 00 be 42 dc 04 3e 31 a1 8d 3d
       -0.11233721 -0.12536418 0.12974647 0.069155104
0002d0 a5 9b 52 3d 6f d7 ca bd 0d f3 ae 3d f3 15 7c bd
       0.051417965 -0.09904372 0.08542452 -0.06154437
0002e0 3c 2a 36 bd 77 b8 99 bd 6f 47 de bd be bd 8a bd
       -0.04447387 -0.07505887 -0.108534686 -0.06774472
0002f0 2d 1f 23 bd 1f ba 0f 3d 61 98 cb 3d 0f c6 a3 bd
       -0.039824653 0.03508961 0.09941173 -0.07996761
000300 b4 7b 23 3e ec 38 4b be ce fb 62 be 4b 82 2d be
       0.15965158 -0.19845933 -0.22166368 -0.16944234
000310 d8 46 f0 3d 1f 43 86 3d 40 54 f0 3d 36 64 b7 bd
       0.117322624 0.06555771 0.117348194 -0.089546606
000320 f5 74 0b 3e dd 4f 0f 3d c1 da c7 3d 0e ba c8 3b
       0.13618834 0.034988273 0.09758521 0.006125695
000330 8c 07 8e 3c 36 30 7b bd 4b 9c ad 3c 23 21 15 3e
       0.017337583 -0.061325274 0.02119269 0.14563422
000340 07 b4 9e bd 02 16 ee bc 52 29 49 be 26 b6 a9 bd
       -0.07749181 -0.029063229 -0.19644669 -0.08286695
000350 88 cb 20 3c 08 04 d5 bd ec 9c 1e be 17 07 12 3d
       0.009814151 -0.104011595 -0.15489548 0.035651293
000360 f0 4a 2f be 35 a0 4d 3d 60 98 78 be 64 e5 05 3e
       -0.1711843 0.050201613 -0.24276876 0.13075787
000370 58 3a c5 bd 2d 2c 0e be 17 ed 9b 3d cd f9 90 be
       -0.09630269 -0.13884039 0.07613581 -0.28315583
000380 83 6f 42 be 79 15 ce bc f5 8a 45 bc 6c 25 05 be
       -0.18987851 -0.025156723 -0.012057056 -0.13002557
000390 99 ab 15 bd 13 60 99 bd fe 85 4f bd 19 d2 f8 bd
       -0.0365406 -0.07489028 -0.050664894 -0.12149448
0003a0 6a 9f cc 3c 5b cb a2 3d ea 99 89 3d 73 2a 26 bd
       0.024978358 0.07948943 0.0671881 -0.040567826
0003b0 80 0b 9c bc 2a 4d 29 be 66 72 9d 3e d8 9a a7 bd
       -0.019048452 -0.16533342 0.30751342 -0.08183831
0003c0 87 e4 ed bd 1f f7 31 bd 8c 4a 48 be 8d b0 b8 bd
       -0.11615854 -0.043448564 -0.19559687 -0.090180494
0003d0 73 0e 8f bd b2 b2 c8 3d 88 3c 7e bd 9e f4 a6 bc
       -0.06985178 0.097997084 -0.062069446 -0.020380314
0003e0 08 c8 39 bc de bb 43 3e 7e a6 39 3e 71 41 02 be
       -0.011339195 0.19114634 0.18129918 -0.12720276
0003f0 23 34 32 3d 81 b0 b5 ba 54 38 5c 3d e1 24 93 bd
       0.043506753 -0.0013861806 0.053764656 -0.071847685

network.2.conv.0.bias f4 [128]
000000 79 96 39 be c1 6e 33 3d b4 3a 09 be 6a 3f ec 3d
       -0.18123807 0.043806795 -0.134013 0.11535533
000010 82 dd 24 be bf 5f 29 be 22 0c 1b 3e 10 87 2e 3d
       -0.16100124 -0.1654043 0.15141347 0.042609274
000020 64 f8 a2 bc 3b 97 01 3d 46 98 30 3d 5d 10 a7 3d
       -0.019893833 0.031638365 0.04311397 0.08157418
000030 5b 6c 4e 3d e0 d4 21 3e 93 19 a0 bc 10 34 8d 3d
       0.050396305 0.15803862 -0.019543445 0.06894696
000040 bd a2 98 3d 96 22 e2 3b d5 4d b0 bd 22 27 87 be
       0.07452915 0.0069010956 -0.08608595 -0.26397043
000050 f7 37 92 bd 6c 48 24 3d fa 7b 8b 3b 73 4e a9 bd
       -0.07139581 0.04010813 0.0042567225 -0.08266916
000060 ab 07 44 bd 05 02 09 be 70 11 df 3b 61 2c 9f bd
       -0.047858875 -0.13379677 0.0068074986 -0.077721365
000070 53 7e 85 bc 2e dd 99 bc ac 34 16 3e 2b 72 2f be
       -0.016295588 -0.018782225 0.1466853 -0.17133395
000080 ff 5a 7f bd ab c0 66 be ed e8 3a 3c d9 97 ed 3c
       -0.06234264 -0.22534434 0.011408073 0.02900307
000090 c5 a9 3f bd 15 db 4e be 71 ba 0a 3d 77 4a 17 bd
       -0.046792764 -0.2020076 0.03386921 -0.03693625
0000a0 1f 96 be bd 50 ca b3 3c 5e 91 9a 3d e2 05 ca bd
       -0.09305977 0.021947056 0.07547258 -0.09864403
0000b0 16 ef e8 bd 85 89 ac 3d 96 82 f7 3d 72 cf e2 bd
       -0.11373727 0.08424667 0.12085454 -0.11074723
0000c0 1a af 47 be a8 38 10 3d 03 06 d3 bc a7 d4 8b 3d
       -0.1950039 0.03521028 -0.025759703 0.068276696
0000d0 d1 95 5b bd 6e 64 08 3e 58 72 ad bb b6 e6 ea 3d
       -0.053609673 0.13319561 -0.005293172 0.11469786
0000e0 dc 16 50 3d 86 66 9b bc c1 00 23 be 4b 46 8b be
       0.05080305 -0.018969785 -0.15918256 -0.27202067
0000f0 fd 0a 8a be a4 12 b4 3b 59 5a aa bd 2c b5 1c 3e
       -0.26961508 0.005495386 -0.08318014 0.15303487
000100 7e ab 6c 3d ab 00 42 3e 02 7c 13 be cc b9 4d 3e
       0.057780735 0.18945567 -0.14402774 0.20090407
000110 89 dd d0 ba 35 ee 50 3d a9 34 7e bd 78 44 d7 bd
       -0.0015935163 0.051008422 -0.06206194 -0.10511106
000120 5c aa 5b 3e fc 5a b3 3c 09 28 da 3d ec fb 04 3d
       0.21451706 0.02189397 0.10652167 0.032466814
000130 81 4a c6 bd 77 1b fa 3d cc 9e 10 3e 0a df 99 3d
       -0.09682179 0.1221227 0.14123076 0.075132445
000140 3d 5e c3 3a f4 95 35 be 3c 0f 37 3a 31 5d 4e 3e
       0.0014905405 -0.17732984 0.0006983166 0.20152737
000150 35 9c c7 bc 61 8d d3 3c c4 82 fa bd d7 e2 aa 3d
       -0.024366478 0.02582425 -0.12231973 0.083440475
000160 a5 39 2a 3d ed d7 f9 3d 15 31 0d bd a7 ca 57 be
       0.04155888 0.12199388 -0.034470636 -0.210734
000170 14 93 06 be e2 fc a9 bd 68 95 68 3d e5 08 15 bd
       -0.13142043 -0.08300187 0.05678311 -0.036385436
000180 7a 79 fe bc be 70 c4 bd 91 ba 03 3e 71 cb e0 3d
       -0.031063784 -0.09591816 0.12864138 0.10976303
000190 82 89 ef bd fb 29 c7 bd 7f 8f 33 3c c7 6a fd 3d
       -0.116961494 -0.09724804 0.010959505 0.12373882
0001a0 a2 85 38 3b ac 08 95 3d 22 8b e2 bd 34 fc bf 3b
       0.0028155823 0.07277045 -0.11061694 0.0058589224
0001b0 78 62 4a be 59 af 15 be c1 88 51 be 47 d9 9d 3c
       -0.19764125 -0.14617671 -0.20462324 0.019268645
0001c0 aa 84 b6 bb 8f be de 3c d3 0d 3e bd 91 fc cd bd
       -0.005570014 0.027190475 -0.046399903 -0.10057939
0001d0 44 33 5f be 85 19 e2 bd c4 71 9c bd c0 7b 7a bb
       -0.217969 -0.11040024 -0.076388866 -0.0038220733
0001e0 7d 38 36 3c b6 5d 8d be bb 1d e9 3b 02 77 41 be
       0.011121866 -0.27610558 0.00711414 -0.18893054
0001f0 b4 d4 86 bd 7e 30 52 be 24 8d 08 3d c6 b7 97 bc
       -0.06583539 -0.20526311 0.033337727 -0.018520247

network.3.weight f4 [2, 128]
000000 72 3c 28 bd 32 5f 1a 3d 0f 95 04 be be 24 98 3d
       -0.04107327 0.03768844 -0.12947486 0.07428883
000010 77 b6 2e 3c 2c 1c 23 be a1 55 46 3e 86 a7 67 bd
       0.01066362 -0.15928715 0.19368602 -0.056556247
000020 dc d6 48 3d 4d b7 3d 3d 6e 1a a7 3b 6a 9f 6b bd
       0.04903303 0.046317387 0.005099586 -0.057525076
000030 0c af a9 3d 87 80 58 bd 4b 0a 3a 3d 0c cf 8b bc
       0.08285341 -0.05285695 0.045419972 -0.017066501
000040 e6 0f 12 be dc 2b 0f 3c b6 aa ec bd d4 95 3f 3e
       -0.14263877 0.008738484 -0.11555998 0.18709499
000050 7c 63 ae 3c 44 42 be 3b 20 8f d4 3b f5 f1 d5 bd
       0.021287672 0.0058062393 0.0064867884 -0.1044654
000060 36 e2 53 3e 9c d3 ab bd 5c 6c 1b 3d e3 eb 0f 3d
       0.20691761 -0.08389971 0.037945136 0.03513707
000070 f4 3a a7 bb 04 67 12 3e 00 eb 3b 3d 81 41 c2 3d
       -0.0051034633 0.1429711 0.04587841 0.0948515
000080 1b 51 03 3e 72 21 34 be 7d a6 3a 3d 24 96 40 3e
       0.12823908 -0.17590883 0.04556893 0.18807274
000090 bf 6a 0c 3d c3 b3 81 be 64 c8 4c be a2 80 fc bd
       0.03428149 -0.2533246 -0.19998318 -0.12329222
0000a0 14 ae 29 3e 2b ba cf 3d c7 28 44 3d b1 d8 06 bd
       0.16570312 0.101429306 0.04789045 -0.032921497
0000b0 db eb d7 3d 0f 60 ad bd 8f 93 f4 3d 96 c4 8c 3d
       0.10543033 -0.08465587 0.11942207 0.06873433
0000c0 e4 12 2a be 38 70 50 bd 3d 76 3d 3d 14 7f b6 3d
       -0.16608769 -0.05088827 0.04625534 0.08910957
0000d0 ae ca f2 3d 49 6f 51 bd 13 2e f3 bc ed ef 2a be
       0.11855064 -0.05113152 -0.029685056 -0.16693087
0000e0 03 09 26 3d fb ef a5 39 27 ac f2 3d 59 66 32 bd
       0.040535938 0.00031650052 0.11849242 -0.043554638
0000f0 e9 7c ae bc 98 53 0c 3e 5a c8 0b bd 8b aa 02 be
       -0.021299796 0.13703763 -0.034126617 -0.1276037
000100 1a 14 52 3e 82 18 ed bc ef d7 42 3e 6d 5d 38 be
       0.2051548 -0.02894235 0.19027685 -0.18004389
000110 c6 f1 1e 3d 85 d5 15 3e 77 54 06 be 22 79 41 3d
       0.038804792 0.14632232 -0.13118158 0.047234662
000120 b7 22 79 3d 7d 91 15 be 83 3b 20 3c 6b e9 44 3e
       0.060824122 -0.1460628 0.009779814 0.19229667
000130 13 fb b4 bd ca 9f 98 bc 69 e5 28 bd b7 c7 25 3d
       -0.08836951 -0.01863088 -0.041234408 0.040473666
000140 9c 4a 58 bd 2b 90 22 bc a2 c9 ef 3c 37 ef a8 bc
       -0.052805528 -0.009922068 0.02927095 -0.020621879
000150 08 9b 18 3e fa 2a 3c 3d d6 4b 79 3d 43 66 2e be
       0.1490289 0.045939423 0.06086334 -0.17031197
000160 5c 6a 4e bc 06 c6 dc 3d f1 f3 9d 3c 01 ae a9 3d
       -0.0125986 0.107799575 0.01928136 0.08285142
000170 9b 2c 43 be a7 90 0c be bc 83 38 bd b6 cb 16 bc
       -0.19059984 -0.13727055 -0.045047507 -0.009203842
000180 ad e4 d7 bb b0 5b df 3c 1c 1b 4a bd b2 05 69 bc
       -0.0065885396 0.0272654 -0.04934226 -0.014222549
000190 1a a8 27 3e 35 99 fa bc e1 33 6f 3e 6f 94 06 3c
       0.1637272 -0.030590633 0.23359634 0.0082141
0001a0 19 20 02 3e be 4d 4d 3e 1d 39 24 bc fa 5f 95 bd
       0.12707557 0.20049188 -0.0100233825 -0.07293697
0001b0 98 a7 91 bb 05 1b 9c bd 6c 96 85 bd 86 a8 ca 3d
       -0.0044450276 -0.07622341 -0.06522831 0.098954245
0001c0 6c b6 d0 3d a5 03 23 3e 9b dc 2b 3e c5 58 13 be
       0.10191044 0.15919359 0.16783373 -0.14389332
0001d0 d9 65 df 3c 4d 14 ac 3d 0f ad 53 bd be 70 a9 3d
       0.027270244 0.084023096 -0.051678713 0.08273457
0001e0 f3 e5 00 3e 69 3e 40 be 50 6f 84 3e 5f c1 9a bd
       0.12587719 -0.18773808 0.25866175 -0.07556414
0001f0 1a b0 48 3e 00 30 37 be ab 10 86 bc b8 5c 70 3c
       0.19598427 -0.17889404 -0.01636537 0.014670543
000200 6c fe 1c be 6e 3e b7 3d 5a d4 f1 3c 60 c8 fc bd
       -0.15331429 0.089474544 0.029520202 -0.12342906
000210 6e ff 9a 3d df 30 51 be 64 1a b3 bd 34 90 99 bc
       0.075682506 -0.20428799 -0.08745268 -0.01874552
000220 ae d9 86 bd a1 33 a3 3d 13 cb 8b 3d 47 d0 e2 bd
       -0.06584488 0.07968832 0.06825843 -0.11074882
000230 ad 6c b0 3d f5 08 05 bc dd 5c 45 bb a1 c4 91 3c
       0.08614478 -0.008119811 -0.0030115165 0.017793955
000240 e9 75 52 bc f4 60 ce 3d d1 10 e6 bd 7e 90 f6 3d
       -0.012845495 0.10077086 -0.11233676 0.120392784
000250 13 a5 1d be 64 da f1 3d d0 a2 9a 3c e6 45 cc 3d
       -0.15395002 0.11809233 0.018876463 0.099742696
000260 c0 a5 2b 3e b5 db a9 3d af 56 f2 bd f7 a3 02 be
       0.16762447 0.08293859 -0.1183294 -0.1275786
000270 d7 a6 12 3e e8 24 4c 3d 7f 96 8e 3c 82 66 ac bd
       0.14321457 0.049839884 0.017405747 -0.08417989
000280 89 3e ca bd 78 b9 f7 3d 9d 3f 29 3e 1a 53 d2 bd
       -0.09875209 0.12095922 0.16528173 -0.102697566
000290 e6 86 a9 3d c6 b3 41 3d ae 62 3d 3d 94 02 f5 bd
       0.08277683 0.047290586 0.046236686 -0.11963382
0002a0 00 0c 17 be 0a da 34 3d 3f 64 2a bd ff c1 0a bb
       -0.14750671 0.04415325 -0.04159951 -0.002117276
0002b0 e6 76 a1 3b 77 1a 1b 3e a9 88 83 3e e0 53 a1 bc
       0.004927504 0.15146814 0.256902 -0.019693315
0002c0 77 02 a9 bd e6 9d c1 bd 02 87 40 3d f7 7b 93 3d
       -0.08252423 -0.09453945 0.047003753 0.07201379
0002d0 2b 93 fb 3d 5c c8 49 3e 67 b5 85 bb 4a b7 2e 3e
       0.122839294 0.19705337 -0.0040804627 0.17062107
0002e0 76 2b b9 3d 2a ad 5a bb b4 47 d3 3d e3 ce 37 be
       0.09041493 -0.0033367374 0.10316411 -0.17950015
0002f0 a1 4c 11 bd c1 eb 14 be 16 23 90 3d 77 fd 8b be
       -0.03547347 -0.14543058 0.07037942 -0.27341816
000300 2f cd e1 bd 66 46 ef 3d ab b9 0f 3d c7 16 4d 3d
       -0.11025464 0.11683349 0.035089176 0.05007055
000310 ff 5f bc 3d a9 74 9d be 0c 28 fe 3d c5 6d f9 bb
       0.09197997 -0.30753067 0.12409982 -0.0076119625
000320 4d 10 eb 3d e0 81 2e bc 39 51 ab bd 6a 4a b3 bd
       0.114777185 -0.010651082 -0.08365101 -0.08754428
000330 82 f7 db 3d 98 17 1c 3e 62 4c 41 3e dd f7 c8 bd
       0.10740568 0.15243375 0.18876794 -0.09812901
000340 18 97 8c 3e 1d 13 76 bc 42 ac b1 bb 85 0b ca 3d
       0.27459025 -0.015019205 -0.005422146 0.098654784
000350 af b9 97 3b 96 e7 ab bd 53 77 04 be d9 c0 b4 3c
       0.0046302895 -0.08393781 -0.12936144 0.022064613
000360 10 c1 24 be 9e 7e 47 be 10 f9 a9 3d d0 73 4c 3d
       -0.16089272 -0.19481894 0.08299458 0.049915135
000370 e7 8b f0 ba 8e 59 be 3d 8c 1c 1e 3e 53 83 ec bc
       -0.0018352241 0.09294425 0.15440577 -0.028871214
000380 94 36 9f 3d 08 b4 4a 3e 75 be e5 3d 56 1b 33 bd
       0.07774082 0.19795239 0.112179674 -0.04372724
000390 df dc 7e 3d d3 be 72 3d 11 40 de bc 60 f2 8e 3d
       0.062222358 0.059264015 -0.027130159 0.06979823
0003a0 22 d5 80 3d 0b c0 03 be f7 71 64 3e a5 91 82 3d
       0.06290652 -0.12866227 0.22309099 0.06375436
0003b0 9c 0d 81 3d 1f f7 73 3d b6 23 45 3d ba 8e 1d bd
       0.06301424 0.059561845 0.04812976 -0.038466193
0003c0 36 04 e2 bd 80 31 5f be 0f 13 7e 3d 63 9b 21 be
       -0.110359594 -0.21796227 0.062029894 -0.15781932
0003d0 cb ce 85 bc 36 02 02 3e 37 45 fd 3d 4e 88 99 3d
       -0.016333958 0.12696156 0.12366717 0.07496701
0003e0 2f 88 b6 3d ab cb e1 3d 83 4e 7b be 4d 58 0b be
       0.08912694 0.11025175 -0.24541669 -0.13607903
0003f0 f8 a4 c7 bb f8 98 03 be a6 43 bb bc f8 d0 10 3e
       -0.006092664 -0.12851322 -0.022859406 0.14142215

network.3.bias f4 [2]
000000 ea b2 65 bd 8e 6b 79 3e
       -0.05607883 0.24357435
