exomy/config/best_run_no_obstacles405k/checkpoints/210000_policy.pt (torch, 723582 bytes, 13 tensors)

log_std_parameter f4 [2]
00000000: 71b7 8cbf c97a 1ebf
-1.0993482 -0.61906105

network.0.conv.0.weight f4 [512, 5]
00000000: 45f5 6d3e 80f6 52be 69a3 85bb 3b11 91bd
00000010: 2b01 2a3e 8bbb 0c3e 2ba1 f53d 8a27 0d3e
00000020: 9332 a1bd 474d 3cbc 6302 fcbc c62f 7dbb
00000030: 8050 04ba ac20 82be 6bd7 6b3d 5715 38bc
00000040: d1fa 86bd c9d0 793e b0a0 803d 262d 2e3e
00000050: 71a5 553d 66b2 4abc cddc a83d 4760 453e
00000060: a9d5 003e 16c1 643e d98d ba3e d029 dcbb
00000070: 832b 37be b5db e3bc 9238 96be f793 b53b
00000080: e591 4a3d a30c c9bc c7c3 78bd 5636 d23b
00000090: 4024 09bd 2a53 463d cdbe c23d 60cc 96bd
000000a0: 2fb9 b33c 72e9 aabe 0770 04bd be62 0cbd
000000b0: 3c90 a7bc db9b 3cbe 7938 b7bd f640 5ebe
000000c0: 4c43 2c3d 5bc2 40be 357c 05bd 7e14 bc3e
000000d0: 154d 793d d565 2a3e b99a 413b f2e2 c8bc
000000e0: 0466 723e 711b 05bd 3eaa 0b3e 3e35 90bd
000000f0: 039b 6a3e 5711 8bbd e253 b53d 8e60 113d
00000100: 2797 023e ce9b 443e 7244 8dbe 2fd5 083c
00000110: 084e 583e 5f97 033c de5d 0abe dc77 c53c
00000120: 1bb3 923d 66b0 943d 23fd 1b3e f0a0 3abe
00000130: b8c3 a43e 54fd 0e3d 7ee5 213e 4ee2 07bd
00000140: 1d49 2c3e 1d37 013f 34d6 d73c 2adf 1abe
00000150: 7b76 173e b4d7 19be 0ab5 a73d 5480 ac3d
00000160: 32a0 febd 0347 463d bc64 593e fc5f 4b3e
00000170: 9983 bfbd 7c37 17bb f3a9 133d f09d c2be
00000180: a49f 95be 0d82 babc 61b7 733d 3964 19bd
00000190: b502 20be 62f8 c83d 3f42 edbd 25b0 2cbc
000001a0: e5cf 9f3d 3fbf 98be 2622 673e bb27 6abd
000001b0: f27e 87be d7fa 643e 5ca6 02bd bde9 9abd
000001c0: 9abc 043d efab 403d f6d9 10bc f555 fabd
000001d0: 5364 a33e 409a 37bb fa94 163c 8c9d 2cbd
000001e0: ce34 a43e c8a3 303d 479b d83d c18d 6cbc
000001f0: db35 ebbd bab8 47be 93c1 b0be 622f c0bc
00000200: 7cf9 c73d 4d96 89bd 2e22 a6be 0411 2c3d
00000210: 04a2 103e cc50 1dbd 37bb 87bc fbce b0be
00000220: 4073 c53e 3d12 9cbd 6de8 abbd 6f47 90bd
00000230: d9f5 123e 3bf6 ce3d 7f4a 11bc a6cb 133e
00000240: 730d 74bc 0237 063c d58d 913e 54ef 923d
00000250: 13b0 783d e2e6 1abd 6778 0abe 250f fe3d
00000260: 0154 093d 0fb6 22be 63ce 51be a198 77be
00000270: a85c 62be 5319 073e 4400 893d 0085 06be
00000280: 7134 83be 1ab8 1fbe eef6 863c d027 29be
00000290: 36f2 c63d e27a 5cbe d78f 943a 133d 1fbc
000002a0: 2fa9 b73c c3c8 babd 31e4 a33c 8bed c73e
000002b0: f2bb 043c 89ed 11bd 7b31 f6bc c677 843e
000002c0: 22e3 833d 2af3 493d cf2a 8fbd a7cc 8ebd
000002d0: 5abd 83be 87da dd3e 1a29 79bd 1812 06be
000002e0: 632a 613e 2814 ba3e 50be 983c 8b96 7bbd
000002f0: e922 7f3d 867f 843c aa1c dabd 9106 33be
00000300: 1e2f 8a3d 71df 0fbd 7f27 fe3c a2a6 6dbd
00000310: 8e68 17bf 3e59 8cbd 6ced efbc 23aa 033e
00000320: cea0 02b9 97bc 713e 330b 273d 80fc e43d
00000330: 59a1 b43c 5ca8 2fbe dda2 8ebe 27bb e0bb
00000340: 8d1a d7bd 3e77 9cbd ed33 edbd 386b 6cbe
00000350: fa40 2dbd a684 11bd b0dc 52be 8e4c 963e
00000360: 23be da3e 416d ebbb 6b9f a4bd 6854 e13d
00000370: 0bca 91be 8287 a4bd 3d30 013e dd82 bb3d
00000380: 109b 38be a6ac 933d 1447 943d ba12 0e3d
00000390: 87b8 70bd be71 a33d 31c8 b13e 3a9d 64be
000003a0: c6fa 38bd 91e4 7ebd bd74 fabd 4786 a73e
000003b0: 0fcf 9ebd 0ab4 48bd de70 77bd 295d 993d
000003c0: 3cc7 b1bd f064 263e 30e2 d53c 95d1 cbbd
000003d0: 2b44 84bd d640 92be e331 aabe e123 093c
000003e0: 3b68 72bd e3c5 3abd ca7e 3c3e 8d53 a63e
000003f0: 9329 f03d 3d93 40be 9783 63be 41d1 763e
0.23238094 -0.20601845 -0.004078318 -0.070833646 0.16602008 0.13743417 0.11993631 0.13784614
-0.078709744 -0.011493034 -0.030762857 -0.0038633212 -0.0005047396 -0.25415552 0.057578485 -0.011235557
-0.06590808 0.24396051 0.06280649 0.1700941 0.05215973 -0.012371635 0.082452394 0.19275008
0.12581505 0.22339281 0.36436346 -0.0067188516 -0.17887692 -0.027814725 -0.29340035 0.0055413204
0.049455542 -0.024542158 -0.060733583 0.0064151688 -0.033481836 0.048419155 0.095090486 -0.073632
0.021938888 -0.3338123 -0.0323334 -0.034273855 -0.020454518 -0.18418829 -0.08946318 -0.21704468
0.042056367 -0.1882414 -0.032589156 0.36734384 0.060864527 0.16640408 0.0029541685 -0.024522278
0.23671728 -0.032496873 0.13639161 -0.07041405 0.22910695 -0.06790417 0.0885389 0.035492472
0.12752973 0.1920006 -0.27591282 0.008351608 0.21123517 0.008031695 -0.1351237 0.024105005
0.07163068 0.07260208 0.15233283 -0.18225455 0.32180572 0.03490956 0.158102 -0.033174805
0.16824766 0.5047472 0.026347257 -0.15124193 0.1479129 -0.1502369 0.08188827 0.08422914
-0.124328986 0.048407566 0.21229833 0.19860834 -0.09351272 -0.0023073843 0.036050748 -0.38011122
-0.2922336 -0.022767091 0.059501056 -0.037449095 -0.15626033 0.09813 -0.11584901 -0.010540043
0.078033246 -0.2983341 0.2257162 -0.057166796 -0.2646404 0.22361313 -0.031896934 -0.07564113
0.032406427 0.04703897 -0.008841028 -0.12223426 0.3191248 -0.0028015524 0.009190792 -0.042142436
0.32071537 0.043124944 0.10576492 -0.014438094 -0.114848815 -0.19504061 -0.34522685 -0.023460094
0.09764382 -0.06718121 -0.32447952 0.042008415 0.14124304 -0.038407132 -0.016568763 -0.34532914
0.3856449 -0.07620666 -0.08393941 -0.07044875 0.14351596 0.101055585 -0.008867859 0.14433154
-0.014895785 0.008191826 0.28428522 0.071745545 0.060714792 -0.037817843 -0.13522492 0.12405232
0.033527378 -0.15889762 -0.20488887 -0.24179317 -0.22105658 0.13193254 0.06689504 -0.13136673
-0.25625947 -0.15597573 0.016475167 -0.16519094 0.09714167 -0.21531251 0.0011334372 -0.009719151
0.02241954 -0.091203235 0.020006271 0.39048418 0.00810145 -0.03562692 -0.030052891 0.2587263
0.064398065 0.049304165 -0.06990587 -0.06972628 -0.257304 0.43330786 -0.060830213 -0.1309284
0.21988826 0.36343503 0.018645436 -0.061422866 0.062289152 0.01617409 -0.106499985 -0.17482974
0.06747268 -0.0351252 0.031024693 -0.05802024 -0.5914391 -0.06852959 -0.029288016 0.12857871
-0.0001245767 0.23607098 0.040782165 0.11180973 0.022049593 -0.17154068 -0.2785863 -0.006858248
-0.10503111 -0.07639931 -0.1158217 -0.23087776 -0.042298295 -0.035526894 -0.20591998 0.29355282
0.42723188 -0.007184655 -0.08038219 0.11002427 -0.2847446 -0.080336586 0.12616058 0.091558196
-0.18027902 0.072106645 0.072401196 0.034685828 -0.05876973 0.07980679 0.34723046 -0.22325602
-0.04516103 -0.062229697 -0.12229297 0.32719633 -0.07754337 -0.048999824 -0.060410373 0.07488472
-0.08680579 0.16249442 0.026108831 -0.09952084 -0.064583145 -0.2856509 -0.33241186 0.008370371
-0.059181433 -0.045598876 0.18407741 0.3248562 0.1172668 -0.18806167 -0.22218166 0.24103262

network.0.conv.0.bias f4 [512]
00000000: 83f7 d23d 8221 37be 4eb5 7ebd ede9 16bc
00000010: e05b 9fbe c443 d63c 23ca 13be cfc3 4bbe
00000020: 6c37 fa3d 2e90 08bd 68c9 98bd 77ec cf3c
00000030: 684e c2bd 46e2 df3c a30e 42bd 1f49 bc3d
00000040: 78ce dcbc 9c74 febd 5fb3 963c 3834 943d
00000050: 49f3 383e 0b19 963d 3e22 2abe 8cc0 7c3d
00000060: 815a 2b3e 4a83 ac3d 1251 ae3c c2ff 773d
00000070: 9d42 27be fc47 ccbd d8f4 723c 497e e7bd
00000080: 733e 193e 3f7b 7b3c a834 6c3d f944 4cbc
00000090: d028 d8bb bf75 91bb 26dc 71bc 814e 453d
000000a0: a264 bd3d 566e 0e3e 2686 b6bd ef92 f43c
000000b0: 85b1 33be ade9 1a3e dae7 843c 7fcd d4bc
000000c0: b2d3 823d 5b4e bd3d 22ae 8bbd e40f e73c
000000d0: a966 803d 9e75 153e 2b5e 9e3d a746 1a3e
000000e0: 8fce 7a3b 7b6f 953c 806d 883c 3bf9 36be
000000f0: c0d0 a93d 5175 ec3c 94e6 513e 8664 e43d
00000100: 1b92 803e 7643 04bd 5066 893d 4655 653d
00000110: ecdb 79bd b304 bd3d 3aef fc3b c25a a63c
00000120: c18a 7cbd 6fa2 39bd 3e5a b7bd 9a15 52bb
00000130: aaca 0fbe f29f 48bb 454c 80bd 2e1d 5fbe
00000140: 65f3 d63d 4ae9 753d f438 2abd 135d 4e3e
00000150: 5e3f 313e 03c4 ef3c 1411 a73d 5a70 35bd
00000160: 1930 7ebb d675 1cbe 5b11 d53c 9701 edbd
00000170: 9bae 803d ab17 77be 4c28 31bd 67dc e23d
00000180: 873c 213e dedc 0b3e 408e 05bd a4c5 e5bc
00000190: 77ef e33d 49ae ae3d 5dbc 173e 51db 1bbe
000001a0: 3ce8 603d 1c40 2a3d 0904 afbd 6f3a a8bb
000001b0: 1c06 84bd 18f8 b9bd 5ccf b93c 7a41 e43c
000001c0: 61b0 8bbd 5f8d eb3d 130b 6c3d 0b2c 05be
000001d0: b679 c53d 3e4b 3fbd 86db d13c 53a3 483d
000001e0: e259 babd b2c1 333c 921f 823d ba63 a8bc
000001f0: b937 11be 2d21 05be da89 07be 50aa b23d
00000200: 2e03 c0bd 0173 e23d 8e46 a43c e62e f7bd
00000210: f9c2 e8bc ee0d 673c 3ae3 853d 901e a83c
00000220: b037 2e3c 7796 c43b db5e ca3c e3bc 1eba
00000230: b0fe 32be 4a50 33be fb88 973d e20b b2bd
00000240: f1b9 063d 8f6d a83b d124 51bd a957 f4bd
00000250: 7782 793d 110e 373c b985 b43c 433d e73b
00000260: fb1b 4ebe 8a6e 78bd 5f05 f8bd 1259 ef3d
00000270: 01e1 da3c fc80 813d 82a4 8dbd e77e c5bd
00000280: 1aed c1bc c297 193d a73f 9bbd caeb 543e
00000290: 12dd 8bbd 440e 763c 9c6e 873d e5d3 573e
000002a0: d480 b93c 0515 70be e68f 51bd 1476 26be
000002b0: 5161 693e c96a 32be d701 d2bd 850a 97bd
000002c0: 687c 61bc c7a6 71bc 4e1f 813c 1ce0 94bc
000002d0: ed02 21bd 1adb bd3d bb7b 7fbd acd1 50be
000002e0: a2c5 1abe 7a1b 803d 4df7 13bd 0175 27be
000002f0: 724b f83d 7901 29be 9dd4 ba3d 31b9 e7bd
00000300: 4d47 0ebe 042b 15be 7167 42bd 5afc 243e
00000310: 6d4e 25be 312e 8d3d 9a6a 923c fc18 3ebd
00000320: 9d3e 403d 33c7 82be 2f04 1a3c f2e4 38bd
00000330: 3f12 e2bc 4da2 6b3d b478 b83d 91d9 95bd
00000340: d69a 0fbe ccb6 cbbd ab78 84be 8daa 38be
00000350: d60f 4cbd 86f9 27bd b00a b23d 2cde f93d
00000360: 2063 0f3e afc1 ec3d a7da 903d 6d64 d6bd
00000370: 49ca 46bd 93a4 5dbd 19d1 2ebe d461 65be
00000380: 81e3 27be 2e99 5b3d f550 50bd 78a6 c4bd
00000390: 477e 18be b254 5f3d 085a 27be 6f59 073d
000003a0: 40be 4abe a6ce ff3d 6ee7 25be 4714 54be
000003b0: e9b9 d63d 4fa1 dc3b 8eb9 05be 983b 133d
000003c0: 5e4a 4a3d 346f ac3d 8784 2fbe e653 97bc
000003d0: 7e48 ec3c 9529 06bd 8e5e 5d3d d453 2c3d
000003e0: 52ca 2d3d 6d10 16be c005 f83b 4d73 b0bd
000003f0: 8bdf 393c 4353 183c 4d06 06be 57bd d9bd
0.10301115 -0.17883876 -0.062184624 -0.009211046 -0.31124783 0.02615536 -0.14432578 -0.19898914
0.12217602 -0.033340625 -0.0746029 0.02538131 -0.09487611 0.027329575 -0.04737724 0.09193634
-0.02695392 -0.12424585 0.018396078 0.072365224 0.18061556 0.07328995 -0.16614625 0.061707065
0.16733743 0.08423479 0.021278892 0.060546644 -0.16334005 -0.099746674 0.014828883 -0.11303384
0.14965229 0.015349208 0.057667404 -0.012467616 -0.006596662 -0.0044390853 -0.01476196 0.04817057
0.0924771 0.13909277 -0.089123055 0.02985522 -0.17548187 0.15128203 0.016223837 -0.025976894
0.06388034 0.09243461 -0.068203226 0.02820582 0.06269581 0.14595649 0.07732805 0.15066014
0.0038270091 0.018241635 0.016653776 -0.17868511 0.08291769 0.028864535 0.20498115 0.11151986
0.2511147 -0.0322909 0.06708968 0.055989526 -0.06100075 0.09229412 0.0077189477 0.020306949
-0.061655764 -0.045320924 -0.08952759 -0.0032056333 -0.14042154 -0.0030612913 -0.06264547 -0.21788475
0.104956426 0.060036935 -0.04155822 0.20152692 0.17309329 0.02926827 0.08157554 -0.0442966
-0.0038785993 -0.15279326 0.026009252 -0.11572569 0.06283303 -0.24130122 -0.04325132 0.11077195
0.15745746 0.13658473 -0.032606363 -0.028048344 0.11129659 0.08529336 0.14817949 -0.15220381
0.054908976 0.041565046 -0.085456915 -0.005133919 -0.06446478 -0.09080523 0.022681884 0.027863253
-0.06820751 0.11501574 0.05762775 -0.13005082 0.09642355 -0.046702616 0.025617372 0.048983883
-0.09099175 0.0109714735 0.06353678 -0.020555366 -0.14181413 -0.13000937 -0.1323618 0.08723891
-0.093756065 0.110570915 0.020053174 -0.12069492 -0.028413283 0.014102442 0.06537481 0.020522386
0.010633394 0.005999382 0.024703434 -0.0006055368 -0.17479968 -0.17511097 0.07399174 -0.08693673
0.03289217 0.0051400135 -0.0510605 -0.11930782 0.060915437 0.011172787 0.02203642 0.0070568635
-0.20127861 -0.060652293 -0.121103995 0.11686911 0.026718618 0.0632343 -0.06916143 -0.09643345
-0.02367263 0.037498243 -0.075805 0.20793071 -0.06829275 0.01501805 0.06612894 0.21076925
0.022644438 -0.23445518 -0.051162623 -0.1625598 0.2279103 -0.17423548 -0.10254257 -0.07375053
-0.013762571 -0.0147492355 0.015761998 -0.01817327 -0.03930943 0.09270306 -0.062373858 -0.20392483
-0.15114453 0.06255241 -0.036124516 -0.16353227 0.12123765 -0.16504468 0.09122584 -0.11314619
-0.13894387 -0.1456719 -0.04746193 0.1611189 -0.16143198 0.06893576 0.017873097 -0.046410546
0.046934713 -0.25542602 0.0094004115 -0.045140214 -0.027596591 0.05752783 0.09007397 -0.07316888
-0.14023909 -0.09946975 -0.25873312 -0.1803381 -0.04981979 -0.04100945 0.08693445 0.12200579
0.14002657 0.1156038 0.070729546 -0.104683734 -0.048532758 -0.05411203 -0.17071952 -0.224006
-0.1639538 0.05361288 -0.050858457 -0.09602064 -0.14891921 0.05452413 -0.16342938 0.033044275
-0.19799137 0.12490587 -0.16201565 -0.2071086 0.10484678 0.0067330967 -0.13059065 0.035945505
0.04938733 0.08419648 -0.17140399 -0.018472623 0.02884316 -0.0327545 0.054045253 0.042072132
0.042429276 -0.14654703 0.007569045 -0.08615742 0.011344801 0.009297195 -0.13088341 -0.10631817

network.1.conv.0.weight f4 [256, 512]
00000000: c774 823d 33ce 32be 129b 78bd 2e2b 1d3d
00000010: fb51 e3ba dc97 93bd f67e e0bd e50d 37bd
00000020: b497 8b3c debd a7bd f3b0 2bbe 3e8b 893d
00000030: 3d5e 163e fd44 16bd 3b3b bdbd d520 ba3e
00000040: 5b2f 5fbe 2c1d c33c 0364 d43c e186 553e
00000050: 4900 003e dfe3 913e 31ee cb3d 62db ea3c
00000060: 0ae9 3c3e 3508 29bd 67eb 503e b662 0d3e
00000070: fcae f3bd c4a4 cfbc a26b 0ebe e484 88bc
00000080: a3dd 0e3e 874a 303d 7dd5 0f3d cb37 973d
00000090: d665 92bd 7eb5 58be bce8 cbbc 10e9 58be
000000a0: eb05 4d3d 3c95 a03e fd29 ad3d 739c a7be
000000b0: 51b0 ce3d 1f6d 09bd 25fe a2bd d3a7 02be
000000c0: 8976 6c3d dcb2 b73c 7478 143d f4a5 60bd
000000d0: 4a71 163e a6b5 ba3d 1a46 9e3e e6a0 98bc
000000e0: 339f 90be acfc 5ebe c20a 29be c561 7fbe
000000f0: 5a91 d0bc bf11 043e bd82 bd3a 0b28 0dbc
00000100: d1ac 1a3d 429a 82be 1ded c3bc 75ae 773d
00000110: 8904 70bd b762 383d ef64 ee3d 797b d9bc
00000120: ae6b 7c3d f536 8e3e 5915 e33c 0d9f 3dbe
00000130: e07f 40be f305 f53b beba cd3d 577b 043e
00000140: 474b 133d 06de abbd 12d3 64be 0e9d 1e3e
00000150: 0ce8 bbbd b6d8 f43d 8a2c 64be 559c 46bd
00000160: dcd7 223e 4d77 973e 7448 663e 366e c23d
00000170: 6e63 af3e 4677 27be 5381 7e3d af1b 093d
00000180: a29c 6abd 800b 263e 3201 29bd 83f4 20be
00000190: e989 053e 3686 493c 86ff b93d 81bf bebd
000001a0: ccb8 6d3e 4ca0 3fbc 4a00 01be 68e0 8b3c
000001b0: b1aa 7c3e e2bf ff3d d690 6a3e ab44 443d
000001c0: ed4f f93b 8959 0a3e afa8 853e 3972 77bd
000001d0: 84ff d63d c536 1dbe b082 95bd 3680 823d
000001e0: 3ef2 78bd ed1c 7e3e 2cb7 a2bd 32cb 51bc
000001f0: 9cbd dcbd 2cd5 8fbe 6b16 96be 8469 b03c
00000200: e79f ea3c f023 da3b 4b5b 623e ccf6 9bba
00000210: 3a64 90bb d646 82bc fe56 b8bd 771e 7a3d
00000220: a567 793d d9d6 8d3d cb7f cc3c 3379 6c3c
00000230: 3804 9a3c 4c83 d33c b7b7 54be cf9e d73d
00000240: c3a0 963d d7de bfbd e6e0 b8bd d079 24bd
00000250: f060 403e f2ab 1bbd ba0e 053c 40a3 46bc
00000260: dbce 733d e71e 1f3e 8d58 7d3b f0f0 5a3d
00000270: c1ed 493e cd1b ee3d 2aa9 f7bd bd25 4ebc
00000280: 362b bfbc b5ce 3f3c 3c0c 9e3c bcf2 a53d
00000290: ed46 f2bd 7da8 3e3e d0f5 e53d b24c 0b3e
000002a0: cfad aabc 1999 5dbd da27 dabb 60c7 d0bd
000002b0: 3037 373e 872e 48bd a6d4 9d3d 20e5 16be
000002c0: 6320 84bd 32d4 293e 20ed da3d fefe 453c
000002d0: 8b47 cdbd f5db 053c 8dd4 6c3d c75c b5bd
000002e0: 84c2 35be a77b ee3d 4995 a13d d50e 58bd
000002f0: e1b0 c53b d133 a13d e082 973d 0acd 49be
00000300: 7e55 3bbe fb16 3c3d 3afd 583d 39e0 2c3d
00000310: 48c9 f13d 456c e9bc 0209 0a3e 0898 3fbd
00000320: c788 cbbc d85f 00be 451a 043c 9283 86bd
00000330: 32c9 8f3d 8536 d53d 2359 3d3e cc50 dbbe
00000340: b164 063d 0d5d 7ebe 2249 a33b d6ad 5dbd
00000350: 987f 943d 3734 c93c 3816 1cbb aceb 8e3d
00000360: b196 ba3d 8536 213e 754d c73d 9d21 923c
00000370: 9e38 a73d afed d43c 1883 ecbd c654 033d
00000380: 9fbd 14be 6968 aa3c a86f 983d d5be 44be
00000390: 6e3c 38be b4df dcbd b8b8 8ebc af4b c83d
000003a0: a450 a0bc 9f4a 253d b5ad e6bc 5df4 72bb
000003b0: 4f53 1d3d 8afd c13c 32c5 c5bd e65a 473d
000003c0: fc2b 593d 9eb0 1a3e a388 bcbd 65b1 b63d
000003d0: 031a 2ebd 30a0 d6bd ce01 843d ad30 cabd
000003e0: d8c6 3bbc 39d7 95be a181 413d cdcb 06be
000003f0: 51ea 543e 9163 08be 5f69 79bd 6a7c 273d
0.0636993 -0.17461471 -0.06069476 0.038371257 -0.0017343158 -0.07206699 -0.10961716 -0.044690985
0.017040111 -0.08190511 -0.1676672 0.067160115 0.14684387 -0.036686886 -0.09239813 0.36353174
-0.21795408 0.023817621 0.025926596 0.20852233 0.12500109 0.28494164 0.09957541 0.028669063
0.18448272 -0.041267592 0.20402299 0.13807186 -0.1189861 -0.025347121 -0.13908246 -0.01666493
0.13951735 0.043039825 0.035115708 0.073836885 -0.0714833 -0.21162984 -0.02489125 -0.21182656
0.050054472 0.31363857 0.08455274 -0.3273655 0.100922234 -0.03355133 -0.079586305 -0.12759332
0.05773023 0.022424154 0.036247686 -0.054845765 0.14691654 0.09116678 0.30912858 -0.01863141
-0.2824646 -0.21776074 -0.1650801 -0.2493964 -0.025459934 0.12897395 0.0014458519 -0.008615504
0.037762467 -0.25508314 -0.023916775 0.06046911 -0.058598075 0.045016017 0.11640345 -0.026548134
0.06162613 0.27776304 0.02772014 -0.18517704 -0.1879878 0.007477516 0.10045384 0.12937675
0.035960462 -0.08391957 -0.22346142 0.15489599 -0.09175119 0.11955397 -0.22282615 -0.048488934
0.15902656 0.29583207 0.22488576 0.09493677 0.34255546 -0.16354093 0.062135052 0.033473667
-0.057278283 0.16215324 -0.041260906 -0.15718274 0.1304089 0.012300065 0.0908194 -0.0931387
0.23215026 -0.011695933 -0.12597767 0.017074779 0.24674489 0.124877706 0.22906813 0.04791705
0.007608405 0.13510717 0.26105258 -0.060411666 0.104979545 -0.15352924 -0.07300317 0.063721105
-0.060777895 0.24815722 -0.079450935 -0.012804793 -0.107783526 -0.28092325 -0.2931398 0.021534689
0.0286407 0.006657116 0.22105138 -0.0011899113 -0.004406479 -0.015902918 -0.090009674 0.06106421
0.06088986 0.069257446 0.02496328 0.014433193 0.01880084 0.025819443 -0.20773207 0.10528337
0.073548816 -0.09368675 -0.09027271 -0.040155232 0.18786979 -0.038005777 0.008121187 -0.012123883
0.059523445 0.15539132 0.0038657517 0.053452432 0.19719602 0.11626396 -0.12092812 -0.01258224
-0.023336034 0.011706998 0.019292943 0.081029385 -0.11829934 0.1861896 0.11228526 0.13603476
-0.020834832 -0.054101083 -0.0066575827 -0.10194278 0.17892146 -0.048872497 0.07706575 -0.14735842
-0.0645149 0.16584852 0.10689759 0.012084721 -0.10023411 0.008170118 0.05781989 -0.088555865
-0.17749983 0.116446786 0.07889802 -0.05274852 0.0060330485 0.07871211 0.07398009 -0.19707122
-0.18294331 0.045920353 0.05297587 0.042206023 0.118059695 -0.02849401 0.13479999 -0.046775848
-0.024845494 -0.12536561 0.008062904 -0.06568064 0.07020797 0.104107894 0.18491034 -0.4283508
0.03281087 -0.24840184 0.0049830833 -0.05412086 0.07250899 0.02456103 -0.0023816954 0.069785446
0.09110773 0.15743454 0.09731571 0.017838294 0.08165096 0.025992243 -0.11548442 0.032063268
-0.1452546 0.02080174 0.07443172 -0.19213422 -0.17991802 -0.107848555 -0.017422065 0.097800605
-0.019569702 0.040354367 -0.028159002 -0.0037071921 0.038409527 0.023680467 -0.09656753 0.048670672
0.053020462 0.15106437 -0.09205749 0.08920554 -0.042505275 -0.10479772 0.06445657 -0.098725654
-0.011460982 -0.29265764 0.047242764 -0.13163681 0.2079251 -0.13319232 -0.060891505 0.040890135

network.1.conv.0.bias f4 [256]
00000000: 8ae7 c7bc a934 c5bb 8210 243d d4d7 593c
00000010: ec9c f7bb 24c4 9c3d 40c8 413d a6ea 8f3d
00000020: 6831 7dbd 1f99 5f3d f37e 6fbc f960 25be
00000030: 118d 8e3d c196 cdbd b7d7 afbd 6c58 cebd
00000040: 3273 3dbd 499c 5dba 7397 283d f81c 4cbe
00000050: 7f9a b1bd 73a6 613e d4e5 6ebd 10c0 19bd
00000060: 80d4 89bd cdf8 f93b 8719 2ebe d495 c43c
00000070: 4102 12be f62f 58bc 92ea 09be cbca 7c3c
00000080: c769 adbd c128 5bbe 5142 673e fd72 b6bd
00000090: 305c 44be 6b81 b93c 57dd cc3b 406b 34bd
000000a0: 0f46 cebd f0e7 09be 2876 5cbe 66ea a63d
000000b0: 9289 b93c bbf5 c53c 4771 d5bd f32a 22bb
000000c0: aa9b 73bd e752 963d 25bb 53bd 5249 df3d
000000d0: 25c5 94bd f9b6 89bb a87a 9abd 5066 233d
000000e0: d9d3 c93c 7f13 383d febf 123d 6896 153e
000000f0: 4fa0 0dbe 6764 8abd ddc4 5fbc 34ec 3b3d
00000100: cb5f bc3c f705 063d 2c22 153e bd15 22bd
00000110: b152 aebc 82a2 6cbd 86ae 0bbc 070a b4bd
00000120: 6eae 7f3d ca00 cfbd 2016 12be bae5 19bb
00000130: 058c b23c f837 253d 3da7 97bb e95f 733e
00000140: 2219 08be 1b5c 183d 8d4c 1dbe 89c9 aa3d
00000150: 1b5f 34be bc4f 4fbd 4acc 8cbd 268f 01bd
00000160: 7470 a63d 0705 7e3c a93d 2839 6924 1e3e
00000170: 323a ea3d de54 133e 134f 78bc 5630 05bc
00000180: ce0a 21be 3d0d dbbc 0c41 bcbc c94e a33e
00000190: 9a23 333d 2303 18bd 007c 813d f1fd 2fbe
000001a0: fb55 62be 76aa 6bbd 57a8 e73d c9e5 30be
000001b0: 6bc3 153d 51c2 d6bc c651 0b3e eb9b 30be
000001c0: ba33 983d afa6 e33d 1c0c cabd bcaa e73d
000001d0: d8d2 773d 12ed 0fbd 5ee9 1dbd 5a36 283e
000001e0: 4ec3 4d3c 3008 e9bc 4f27 f63d 1222 de3d
000001f0: ade1 f6bd 6a26 33bd a494 0f3e 5867 68be
00000200: f65b 33bd b49a 87bd a81a 2abe cc32 253d
00000210: d115 29bd 8411 0a3d 3f4b 373c d845 5fbc
00000220: 1748 2a3d a8b7 7cbc b2b4 74bd a614 31bc
00000230: ab33 52bb a423 353d 8e64 c4bc 0ce2 293c
00000240: c271 463d 82f4 b33b dd3f 0cbe cea6 c03d
00000250: 4e25 0f3e ee89 aabd da39 44bd e563 dbbd
00000260: 9222 103e f81a 9a3e 0d51 983d 8aa9 90bd
00000270: 1510 e43a f29f 783d 786b a23c 9bb4 b7bc
00000280: 5e4b 80bc 7731 92bd 2fbe cb3c dcde 4f3e
00000290: d0e7 c3bc f0c3 dc3d a09f b1bb e32b 9a3b
000002a0: 423e c83d fa5f 063e 7e2d a03d 825d bdbd
000002b0: 149e 453c 5b24 3cbe 8c8f 3e3d 46e6 24be
000002c0: 8a62 30bc 3993 bbbd 0db5 3abc 6d6a 993d
000002d0: 2913 4bbb 7bb8 a4bc 38bd a73c 9b70 01be
000002e0: 1c47 88bc 2549 99bd 0467 3f3d 93be 6fbe
000002f0: 4482 81bd 7ccd 0a3e e679 cabd 0469 043c
00000300: 4ca6 51bd 5ccf febd 802a 20be c7d4 7b3d
00000310: c4a8 d5bd a3d8 b13d 00f0 db3d 6125 bbbd
00000320: d6bc b6bd c861 e53d 37f8 0cbe 6629 1f3e
00000330: 3971 11bd 82e9 92bc 877d 41be e8ae 03be
00000340: 7468 d9bc a52d fa3b 16cb d33c 7052 09bd
00000350: 6299 1ebe 667b 243c 18d7 ad3d 65b5 d93d
00000360: 8094 14be a318 173d 8162 5abe 3d85 2cbd
00000370: 637e 993b c7c8 08be 6f71 55be f91b bdbd
00000380: 7bb5 093c 8679 783c 3325 443d 6baf 01be
00000390: 11f8 573d 1903 3a3e f3ea 0b3e 63a4 2fbe
000003a0: c18b 37bd 14ad 123e f848 77bd fa39 a9bc
000003b0: 0178 c0bc 6469 893d 3ce7 74bd 7871 463e
000003c0: a982 0dbe 826b 873d aa75 06be 3bd8 cc3c
000003d0: 76a4 5c3e 2379 323d b265 283d be7d 933a
000003e0: 4d57 b7bd 40df 41bc 6bc2 83be 9b4d b1bc
000003f0: 2634 a33d 6ac7 dc3d d949 a3bd abe7 c2bd
-0.024402399 -0.0060182405 0.040054806 0.013296086 -0.0075565483 0.07654598 0.047310114 0.070271775
-0.061814696 0.054589387 -0.014617669 -0.16150273 0.069605 -0.1003852 -0.08586066 -0.10075459
-0.046252437 -0.0008453769 0.04116006 -0.19932926 -0.08672046 0.22036152 -0.05832465 -0.03753668
-0.06729984 0.0076285363 -0.17001925 0.023997225 -0.14258672 -0.0131950285 -0.13468388 0.015429209
-0.08467441 -0.21402265 0.22583891 -0.08908651 -0.19175792 0.02264472 0.0062519717 -0.044047594
-0.10071956 -0.13467383 -0.21529448 0.08150177 0.022648606 0.024165025 -0.104219966 -0.0024744838
-0.059474625 0.07340031 -0.051692147 0.109026566 -0.07264165 -0.0042027202 -0.07542926 0.039892495
0.02463715 0.044940468 0.03582763 0.14608157 -0.13830684 -0.067574315 -0.013657776 0.045879558
0.022994896 0.032720532 0.14563817 -0.039571512 -0.021279665 -0.057772167 -0.008525496 -0.08790975
0.06242221 -0.101075724 -0.14266253 -0.0023482875 0.021795282 0.04033658 -0.0046280907 0.23767056
-0.13290837 0.037197214 -0.15361233 0.08339221 -0.17614405 -0.05061315 -0.068749025 -0.031630658
0.081269175 0.015504128 0.00016044699 0.15443577 0.11436881 0.14387843 -0.0151555715 -0.0081292
-0.15726778 -0.026739711 -0.022980236 0.31896046 0.043735124 -0.037112366 0.06322479 -0.17186715
-0.22103111 -0.05753561 0.11311405 -0.17275156 0.03656332 -0.026215704 0.13605413 -0.17246978
0.07431741 0.11115777 -0.09865591 0.11311862 0.06050381 -0.035138197 -0.038552634 0.16426983
0.012558771 -0.028446287 0.12019216 0.10846342 -0.12054763 -0.043737806 0.14021546 -0.22695673
-0.043788873 -0.06621304 -0.16611731 0.040331647 -0.04128057 0.03370811 0.011187374 -0.013627492
0.041572656 -0.015424646 -0.059742637 -0.010808146 -0.0032074254 0.044223443 -0.02397373 0.010368835
0.04844833 0.005491794 -0.13696237 0.094068155 0.13979074 -0.08327089 -0.047906734 -0.10712413
0.14075688 0.300987 0.07437334 -0.07063587 0.0017399812 0.06069941 0.019826636 -0.022424987
-0.015660938 -0.07138341 0.02487096 0.20299858 -0.023914248 0.107795596 -0.00542064 0.0047049387
0.097775 0.1312255 0.07821177 -0.09246351 0.012061615 -0.18373244 0.046523616 -0.16103467
-0.010765681 -0.0915894 -0.011395705 0.07491002 -0.0030986762 -0.020107498 0.020475969 -0.12640612
-0.01663547 -0.07484654 0.046729103 -0.23412542 -0.06323674 0.13554949 -0.098865315 0.008081678
-0.051183984 -0.124418944 -0.15641212 0.061482217 -0.1043258 0.08683898 0.10739136 -0.09137989
-0.08922736 0.11200291 -0.13766561 0.15543136 -0.03550837 -0.01793361 -0.18895541 -0.1285969
-0.026539065 0.007634836 0.025853675 -0.033525884 -0.15488198 0.010039186 0.084882915 0.106303014
-0.14509773 0.03688873 -0.21326639 -0.042119253 0.004684256 -0.1335784 -0.20844053 -0.09233851
0.008405085 0.015165692 0.04788704 -0.12664573 0.05272681 0.18165244 0.13663845 -0.17152552
-0.044811014 0.14323837 -0.060372323 -0.020657528 -0.023494722 0.06709555 -0.059790835 0.19379222
-0.13819374 0.06612302 -0.13130823 0.02500545 0.21547112 0.043572556 0.04111261 0.0011252684
-0.08952198 -0.011833012 -0.25734267 -0.02164345 0.07968931 0.10780223 -0.0797307 -0.095168434

network.2.conv.0.weight f4 [128, 256]
00000000: bfdf 843d 08be efbb 15de 92bc 826e ea3c
00000010: c263 57bd 0233 b73d 0289 673e 5bc4 413e
00000020: efbf aabd 52f7 94bb 60ef e0bd 2f41 50bd
00000030: a831 043d 9fa3 cd3d 21ae bb3d c548 c4bd
00000040: 7a4b af3e c381 e6bd 246b 5abd f45b 913d
00000050: c7ec bc3d 1605 2fbd e7ff 873d 03e1 e93d
00000060: 2045 44be 7aec 883e cb9a 08be b0e3 9f3d
00000070: 5d99 343e ef5c fcbd accb 423d 5304 58be
00000080: 7d21 15be b933 3fbe 61b7 803d ced5 94bd
00000090: 1e9d bbbd a5c7 343c a569 ee3d 4f59 53bd
000000a0: 6487 a23d 1e69 a6bd fa26 113c 8e82 bc3d
000000b0: ebe5 f5bd 3eb5 c3bd dbc7 4c3e 544a 043d
000000c0: 31da 50be 71c9 013e 586e 3dbe 7703 5abd
000000d0: 9db3 bcbc 342b b5bc fb8b a73c ac8a 0abd
000000e0: d459 20bd 5cb6 8bbd 5aff 62be 7047 1bbe
000000f0: 557d 763d e150 a9bd 6128 2d3e a2fc cabd
00000100: 83cf 7739 b1b8 d73d fbe4 a1bd 5d4d 1fbd
00000110: 44cc 54be a15d 39bd 891d cabd d72d c83d
00000120: d292 98bd 1165 64bc 22e7 e1bd ab76 38bd
00000130: c822 633d 1ac5 353d 83cb 2f3e 7fb9 fdbd
00000140: de7e 8cbe ebec 153e 528c eebc 1ad5 07bc
00000150: 3837 35bd d526 de3d 31e5 aabc d4f5 153d
00000160: d13a 8cbd cde9 17bd 9c80 1d3d b36e 873d
00000170: c180 04be d33e 81bb 228a 76bd 5cb8 733d
00000180: 6aa8 d1bc 997f b4bb 6305 993c bf51 2b3e
00000190: 8139 b23d 4600 df3d d15f 4bbd 3074 0c3d
000001a0: e359 8e3d 36da be3d 96b2 603c d860 583d
000001b0: b161 363d 1a0e 3cbe b2e1 aabd 808e c43d
000001c0: b8c8 e0bd 78d6 86bb dca9 9b3d 3ca5 9cbd
000001d0: 21c9 d13b 84f5 86be 6013 c63c 800d d9bb
000001e0: d134 adbd 5870 3dbe 71e3 24be 5e2a 94bd
000001f0: 692c ed3b 587c e33b ab12 92bd 82e8 d23d
00000200: 312f c03d 1a8e fb3d c87f 2e3e 1fbc 10be
00000210: afc1 b0bd 6753 003e 03e2 c8bd 5ecb 913d
00000220: b915 0b3d 45ea 09bc 2f72 f7bb 843b 813d
00000230: 1f91 043d f518 78bb 9475 64bd a528 03be
00000240: 2bc8 a33c d79c 2bbe 161f 553d 734b f3bc
00000250: 19de 01be 6490 96bb b603 71bb 291f 2fbe
00000260: 6877 6dbd 6778 bebd 522e 5e3d c293 ab3d
00000270: e3ed 263e 4947 bbbd 1a86 f03c def2 1bbe
00000280: d6fa 413e 44a5 6fbc 821d 2c3e fcac 3fbd
00000290: cc45 87bd c6fb e8bd 42a6 a93d f109 07be
000002a0: e980 bcbc e372 f6bd 5e50 81bd 3d86 c3bd
000002b0: 6c27 d43c 93be a4bd 3788 fb3d 7653 49bd
000002c0: 00b9 e8bd 785f 00be 42dc 043e aaa5 893d
000002d0: a59b 523d 4705 cfbd 0df3 ae3d f315 7cbd
000002e0: 3c2a 36bd c343 9dbd 6f47 debd 679f 8cbd
000002f0: 2d1f 23bd 1fba 0f3d 6198 cb3d 0fc6 a3bd
00000300: b47b 233e ec38 4bbe cefb 62be 4b82 2dbe
00000310: d846 f03d 1f43 863d 4054 f03d 3664 b7bd
00000320: f574 0b3e 2aec 0e3d 69cd c53d 300c b23b
00000330: 8c07 8e3c 3630 7bbd 4b9c ad3c 2321 153e
00000340: 07b4 9ebd 0216 eebc 5229 49be 26b6 a9bd
00000350: b1de 123c 0804 d5bd ec9c 1ebe 1707 123d
00000360: f04a 2fbe 35a0 4d3d 453e 7abe 1b4f f83d
00000370: 583a c5bd 2d2c 0ebe 17ed 9b3d cdf9 90be
00000380: 836f 42be 7915 cebc f58a 45bc 6c25 05be
00000390: 99ab 15bd 1360 99bd fe85 4fbd b991 f9bd
000003a0: 6a9f cc3c 5bcb a23d f794 853d 732a 26bd
000003b0: 800b 9cbc 56e5 29be 6672 9d3e d89a a7bd
000003c0: 87e4 edbd a30d 4bbd 8c4a 48be a2bb b8bd
000003d0: 730e 8fbd b2b2 c83d 883c 7ebd 9ef4 a6bc
000003e0: 50a9 4bbc 8dd1 423e 7ea6 393e d904 03be
000003f0: f7a8 303d 81b0 b5ba fb9e 533d e124 93bd
0.06487989 -0.0073163547 -0.017928163 0.028617147 -0.05258537 0.08945276 0.22610858 0.1892256
-0.0833739 -0.0045460844 -0.10983157 -0.050843414 0.03227392 0.10040974 0.09164072 -0.09584192
0.34237272 -0.11255219 -0.053324834 0.07097617 0.09224849 -0.04272946 0.066406064 0.11419871
-0.19166994 0.26742917 -0.13340299 0.078071 0.17636628 -0.12322413 0.047557518 -0.210954
-0.14563556 -0.18672074 0.06284977 -0.072673425 -0.09160827 0.011033927 0.11641244 -0.051598843
0.0793598 -0.08125518 0.00885939 0.09204589 -0.12006744 -0.095560536 0.19998114 0.032297447
-0.20395733 0.126745 -0.18499124 -0.05322596 -0.023034865 -0.022115327 0.02045249 -0.033823654
-0.039148167 -0.06821892 -0.22167721 -0.1516397 0.06017812 -0.082673796 0.16909935 -0.09911467
0.0002363306 0.10533274 -0.07905003 -0.03889214 -0.20781046 -0.045255307 -0.09868915 0.09774368
-0.07449879 -0.013940112 -0.11030413 -0.045035046 0.05545309 0.044377424 0.17167477 -0.12388896
-0.27440542 0.14641158 -0.029119644 -0.008290553 -0.044242114 0.1084725 -0.02086124 0.036611393
-0.06847156 -0.037088204 0.03845273 0.06612911 -0.1293974 -0.003944257 -0.060190327 0.05950199
-0.025593001 -0.005508375 0.018679326 0.16730402 0.08702374 0.10888724 -0.049651925 0.034290493
0.06950738 0.09318964 0.013714453 0.052826732 0.04452676 -0.18364754 -0.08343829 0.09597492
-0.10975784 -0.004114922 0.076007575 -0.076487035 0.0064021503 -0.2635919 0.02417916 -0.006623924
-0.084573396 -0.18499887 -0.16102387 -0.072346434 0.00723796 0.006942313 -0.07132467 0.102982536
0.09384001 0.12282963 0.17040932 -0.14134263 -0.08630692 0.12531815 -0.09808733 0.07118867
0.033956263 -0.008417671 -0.0075514535 0.0631018 0.03236496 -0.0037856672 -0.055776194 -0.12808473
0.019992908 -0.16759048 0.0520316 -0.029699063 -0.1268238 -0.0045948494 -0.0036775894 -0.1710173
-0.057975203 -0.09300309 0.054243393 0.08377792 0.16301684 -0.09144456 0.02936082 -0.15229365
0.18943343 -0.014626805 0.16808131 -0.04679583 -0.066051096 -0.11376147 0.08283664 -0.13187386
-0.023010688 -0.12033632 -0.06314157 -0.09547088 0.025897704 -0.08044162 0.1228184 -0.04915186
-0.11363411 -0.12536418 0.12974647 0.06721051 0.051417965 -0.101084284 0.08542452 -0.06154437
-0.04447387 -0.0767894 -0.108534686 -0.06866341 -0.039824653 0.03508961 0.09941173 -0.07996761
0.15965158 -0.19845933 -0.22166368 -0.16944234 0.117322624 0.06555771 0.117348194 -0.089546606
0.13618834 0.034893192 0.096583195 0.005433582 0.017337583 -0.061325274 0.02119269 0.14563422
-0.07749181 -0.029063229 -0.19644669 -0.08286695 0.008964227 -0.104011595 -0.15489548 0.035651293
-0.1711843 0.050201613 -0.24437816 0.12124463 -0.09630269 -0.13884039 0.07613581 -0.28315583
-0.18987851 -0.025156723 -0.012057056 -0.13002557 -0.0365406 -0.07489028 -0.050664894 -0.121859975
0.024978358 0.07948943 0.065225534 -0.040567826 -0.019048452 -0.16591391 0.30751342 -0.08183831
-0.11615854 -0.049573552 -0.19559687 -0.09020163 -0.06985178 0.097997084 -0.062069446 -0.020380314
-0.012430504 0.1902525 0.18129918 -0.12794818 0.043129887 -0.0013861806 0.051665287 -0.071847685

network.2.conv.0.bias f4 [128]
00000000: a14e 3abe 3dcf 2c3d b43a 09be 4477 f83d
00000010: 2a7c 23be bf5f 29be cf12 1e3e 1087 2e3d
00000020: 2a53 bdbc 3b97 013d caeb 273d 6017 a83d
00000030: 620a 483d 638b 233e 49bc a7bc 1034 8d3d
00000040: bda2 983d 8a35 d73b d54d b0bd a296 88be
00000050: 4890 98bd 4fc9 1d3d 6133 34bb 734e a9bd
00000060: 9c9b 3bbd 0502 09be f097 de3b f389 96bd
00000070: df05 8bbc ac1a 92bc 9247 163e 58d3 2bbe
00000080: 50d5 7abd abc0 66be ef0a 073c 5fc2 073d
00000090: 493c 33bd 15db 4ebe 71ba 0a3d 3269 1dbd
000000a0: d54c bbbd a63c dc3c e724 923d 82b5 c8bd
000000b0: d2e1 dfbd 4417 b13d f34f f23d fdf2 d5bd
000000c0: 1aaf 47be a838 103d 0306 d3bc 3619 863d
000000d0: 137f 5fbd 1809 083e 5872 adbb df78 ec3d
000000e0: 3905 493d 8666 9bbc 1901 23be 4b46 8bbe
000000f0: fd0a 8abe 0285 9e3b 595a aabd fcc4 1d3e
00000100: dca4 683d 8613 413e 72d1 14be 5242 4e3e
00000110: 7d6e 92bb 918d 483d a934 7ebd 0530 e3bd
00000120: 1a17 5a3e fc5a b33c 6fe2 d73d 447c 053d
00000130: e3c1 c4bd 9ed0 fa3d daa3 0d3e beb7 8f3d
00000140: 150e 033b f495 35be baf2 b4bb 50d3 4d3e
00000150: a3a6 f7bc c232 f93c 1e8b fabd d7e2 aa3d
00000160: cdef 183d 7de6 ff3d 3892 0fbd dbe9 4fbe
00000170: a01d 07be 0fa9 a8bd 5702 693d e508 15bd
00000180: 7a79 febc cf17 c7bd d063 043e 71cb e03d
00000190: 660b f0bd fb29 c7bd 3164 243c 2eed f93d
000001a0: c902 c63a 5f8d 903d 27da e1bd 34fc bf3b
000001b0: 5fdb 4dbe 59af 15be c188 51be 2c6c b63c
000001c0: cbbd cfbb 4991 e63c a86b 52bd fce6 d8bd
000001d0: 9315 5dbe c7ff e4bd c471 9cbd d642 b0bb
000001e0: 7d38 363c b65d 8dbe 1bf1 263c 0277 41be
000001f0: 0d4c 6ebd 7e30 52be 248d 083d 75c5 9cbc
-0.18194057 0.042189825 -0.134013 0.12132123 -0.15965334 -0.1654043 0.15436862 0.042609274
-0.023110945 0.031638365 0.04099635 0.082075834 0.048838027 0.1597114 -0.020475524 0.06894696
0.07452915 0.0065676617 -0.08608595 -0.26677424 -0.074493945 0.03852206 -0.0027496445 -0.08266916
-0.045802698 -0.13379677 0.0067930147 -0.073505305 -0.016970573 -0.017834984 0.1467574 -0.1677984
-0.061238587 -0.22534434 0.008242353 0.03314435 -0.043758664 -0.2020076 0.03386921 -0.0384304
-0.09145514 0.026884388 0.07135945 -0.09800245 -0.10931744 0.08647016 0.11831655 -0.10446737
-0.1950039 0.03521028 -0.025759703 0.06547777 -0.054564547 0.13284719 -0.005293172 0.11546492
0.049077246 -0.018969785 -0.15918387 -0.27202067 -0.26961508 0.004837633 -0.08318014 0.15407175
0.056797847 0.18855104 -0.14533022 0.20142487 -0.0044687376 0.048963133 -0.06206194 -0.110931434
0.21297875 0.02189397 0.10541236 0.032589212 -0.096072935 0.12246822 0.13832036 0.07017468
0.0019997407 -0.17732984 -0.0055220993 0.2010014 -0.030230826 0.030419711 -0.12233566 0.083440475
0.037338067 0.12495134 -0.035051554 -0.20304053 -0.13194895 -0.0823537 0.056886997 -0.036385436
-0.031063784 -0.09721338 0.129287 0.10976303 -0.11720924 -0.09724804 0.010033653 0.122034416
0.0015107031 0.070582144 -0.110279374 0.0058589224 -0.20103215 -0.14617671 -0.20462324 0.022268377
-0.0063397638 0.02814545 -0.0513722 -0.10590932 -0.21590261 -0.11181598 -0.076388866 -0.005379061
0.011121866 -0.27610558 0.01018932 -0.18893054 -0.058177996 -0.20526311 0.033337727 -0.019137124

network.3.weight f4 [2, 128]
00000000: 7439 28bd 2554 163d 0f95 04be efc6 933d
00000010: ac19 6e3c 2c1c 23be 2bd0 513e 86a7 67bd
00000020: 1b7b 5d3d 4db7 3d3d c0f9 813a f27e 65bd
00000030: e858 aa3d 1df7 51bd 295a 353d 0ccf 8bbc
00000040: e60f 12be 5dcb cc3b b6aa ecbd 944d 3f3e
00000050: 9d91 db3c 92fb c53b 2b3c 103c f5f1 d5bd
00000060: 4b8e 513e 9cd3 abbd 296c 1b3d 2b15 253d
00000070: 4a59 f2bb f807 143e abb4 343d c89b c23d
00000080: 3447 003e 7221 34be 9dcb 443d 014c 433e
00000090: 317b 103d c3b3 81be 64c8 4cbe 5b8e f5bd
000000a0: f691 283e 9b00 cb3d 9ff6 583d 486f e4bc
000000b0: 9d33 dd3d 2b5a b2bd e715 f83d 2cd6 863d
000000c0: e412 2abe 3870 50bd 3d76 3d3d 7355 b23d
000000d0: 2160 e63d e0e6 52bd 132e f3bc f1b0 2bbe
000000e0: aa3e 203d fbef a539 27ac f23d 5966 32bd
000000f0: e97c aebc e9b1 143e 5ac8 0bbd 833a fcbd
00000100: 842f 583e 6fb1 d0bc 2ff8 433e 1ca2 3abe
00000110: 7c87 243d 4439 1d3e 7754 06be 82fc 0f3d
00000120: f1b3 763d 7d91 15be ec13 303c 87ea 4a3e
00000130: 387b b6bd ebbf aabc 8bfa 37bd 39d7 373d
00000140: 6c72 57bd 2b90 22bc c213 053d 00e9 babc
00000150: da0a 183e aff3 693d c44b 793d 4366 2ebe
00000160: f943 d5bb 9e9d f03d 62f9 f93c 97ff a73d
00000170: 3db1 42be 2290 0bbe 5865 47bd b6cb 16bc
00000180: ade4 d7bb 45a9 d63c 62a1 4dbd b205 69bc
00000190: 7b2f 273e 3599 fabc 4684 713e c747 f03b
000001a0: be7c 023e bc94 533e 10b2 e3ba fa5f 95bd
000001b0: 6ecb e4bb 051b 9cbd 6c96 85bd e8e5 c83d
000001c0: bbcf da3d c6cf 273e 4d13 353e b6cd 0dbe
000001d0: c5c0 c83c 525b a93d 0fad 53bd 279a ab3d
000001e0: f3e5 003e 693e 40be 0e8d 843e 5fc1 9abd
000001f0: e236 483e 0030 37be ab10 86bc eea2 273c
00000200: 6dfe 1cbe 76e2 b13d 5ad4 f13c 1d51 05be
00000210: ecaa a33d df30 51be bc9a d2bd 3490 99bc
00000220: 0715 83bd a133 a33d 20e8 873d 5643 d2bd
00000230: 7161 a43d 2d65 10bc 0dbc 0ebb a1c4 913c
00000240: e975 52bc 15c0 cb3d d110 e6bd a84e ee3d
00000250: 6547 1abe 4407 f53d cd82 803c e645 cc3d
00000260: f66a 273e b5db a93d af56 f2bd 2bdc fcbd
00000270: 405e 143e 0079 323d 02ab 813c 904c b9bd
00000280: 8902 c9bd 78b9 f73d d4f4 233e 9240 debd
00000290: 7334 a83d c6b3 413d ae62 3d3d ae73 f3bd
000002a0: d2ca 1cbe 3390 343d 596a 41bd 87a3 05bc
000002b0: 15a0 d7bb 0925 1a3e f0ed 843e f98f bebc
000002c0: 7702 a9bd e69d c1bd 0287 403d cbe4 8c3d
000002d0: eb87 f73d 257d 473e 67b5 85bb 219a 2d3e
000002e0: 1fd4 af3d 2aad 5abb b447 d33d e3ce 37be
000002f0: a14c 11bd c333 18be 1623 903d 3a6a 8fbe
00000300: 48f1 ecbd 116c e73d f3f8 f83c d24a 483d
00000310: 0d85 c43d ceff 9fbe 0c28 fe3d 0619 d1ba
00000320: 8957 df3d e081 2ebc 001f b1bd 2495 b6bd
00000330: 760d dc3d 02ee 193e a256 3b3e 0a3e bfbd
00000340: 9cb7 8c3e 1d13 76bc beba 70bb 7866 c53d
00000350: 6269 c6ba 2946 bfbd 5377 04be d9c0 b43c
00000360: a6cb 25be f5eb 54be b218 a23d 7eb3 443d
00000370: 9ba6 04bb 8ceb bd3d fb33 1e3e 5383 ecbc
00000380: 9436 9f3d 17ef 463e 5b17 e23d 561b 33bd
00000390: f346 703d d3be 723d 0635 babc 6a4f 863d
000003a0: 0bdc 613d 88b5 04be 2d67 693e a591 823d
000003b0: 1c94 623d 1ff7 733d b623 453d cf86 3ebd
000003c0: 518a eabd 6996 63be 67b6 693d 0151 1fbe
000003d0: 40f1 6fbc a73a f63d 3745 fd3d 58f7 863d
000003e0: 2f88 b63d abcb e13d c7aa 80be 4d58 0bbe
000003f0: 508f e5bb f898 03be a643 bbbc 2d1e 0f3e
-0.041070417 0.03670134 -0.12947486 0.07215678 0.014532488 -0.15928715 0.20489566 -0.056556247
0.05407248 0.046317387 0.000991635 -0.056029268 0.08317739 -0.051261056 0.044275437 -0.017066501
-0.14263877 0.0062498287 -0.11555998 0.18681937 0.026802832 0.0060419524 0.008803408 -0.1044654
0.20464437 -0.08389971 0.037944946 0.04030339 -0.007395898 0.14456165 0.04411761 0.09502369
0.12527162 -0.17590883 0.048045743 0.19071962 0.035273734 -0.2533246 -0.19998318 -0.11990043
0.1646193 0.09912225 0.05296957 -0.027885094 0.1080086 -0.087086044 0.121135525 0.06583819
-0.16608769 -0.05088827 0.04625534 0.087077044 0.11248804 -0.05148971 -0.029685056 -0.16766717
0.03912226 0.00031650052 0.11849242 -0.043554638 -0.021299796 0.14520992 -0.034126617 -0.12315848
0.21111876 -0.025475232 0.19137643 -0.18225902 0.04016827 0.15353876 -0.13118158 0.03515292
0.0602302 -0.1460628 0.010746937 0.19816028 -0.08910221 -0.020843467 -0.04491667 0.044882987
-0.052599356 -0.009922068 0.032489546 -0.022816181 0.1484789 0.05711716 0.06086327 -0.17031197
-0.006508347 0.11748813 0.030514423 0.08203047 -0.19012924 -0.13629201 -0.048680633 -0.009203842
-0.0065885396 0.02620376 -0.050202735 -0.014222549 0.16326706 -0.030590633 0.23585615 0.0073327753
0.12742898 0.20662206 -0.0017371792 -0.07293697 -0.0069822585 -0.07622341 -0.06522831 0.09809476
0.10684153 0.16387853 0.17683144 -0.13848004 0.024505982 0.08269371 -0.051678713 0.083790116
0.12587719 -0.18773808 0.25888866 -0.07556414 0.19552186 -0.17889404 -0.01636537 0.010231717
-0.1533143 0.08685772 0.029520202 -0.13019224 0.07991585 -0.20428799 -0.102834195 -0.01874552
-0.06400495 0.07968832 0.06636071 -0.102667496 0.08026398 -0.008813185 -0.0021779567 0.017793955
-0.012845495 0.09948746 -0.11233676 0.11636096 -0.15066297 0.119642764 0.01568737 0.099742696
0.16349396 0.08293859 -0.1183294 -0.12346681 0.14489079 0.043572426 0.015828613 -0.09047806
-0.09814937 0.12095922 0.16011363 -0.108521596 0.08213129 0.047290586 0.046236686 -0.118872985
-0.15311745 0.04408283 -0.04722056 -0.008156664 -0.0065803626 0.1505319 0.25962782 -0.02326201
-0.08252423 -0.09453945 0.047003753 0.06879576 0.12086471 0.19481333 -0.0040804627 0.16953327
0.08585381 -0.0033367374 0.10316411 -0.17950015 -0.03547347 -0.14863496 0.07037942 -0.28010732
-0.11569458 0.11299909 0.030392146 0.04889948 0.0959569 -0.3124985 0.12409982 -0.0015952892
0.10905368 -0.010651082 -0.08648491 -0.08915165 0.10744755 0.15032199 0.18294767 -0.09338005
0.27483833 -0.015019205 -0.00367324 0.09638685 -0.0015137608 -0.09339554 -0.12936144 0.022064613
-0.16190967 -0.20793135 0.079148665 0.04802274 -0.0020240906 0.092734426 0.15449516 -0.028871214
0.07774082 0.19427143 0.11039611 -0.04372724 0.058661412 0.059264015 -0.022730362 0.06558116
0.05514149 -0.12959874 0.22793265 0.06375436 0.05531703 0.059561845 0.04812976 -0.046515282
-0.11452163 -0.22225346 0.057058718 -0.15558244 -0.014644921 0.12022906 0.12366717 0.06590146
0.08912694 0.11025175 -0.25130293 -0.13607903 -0.0070056096 -0.12851322 -0.022859406 0.13976355

network.3.bias f4 [2]
00000000: baae 69bd 5d8b 783e
-0.057051398 0.24271913

encoder.0.conv.0.weight f4 [80, 150]
00000000: 2604 a03d 940b 1fbe 0bd3 f13d 2459 3b3d
00000010: 2622 aabc a1f5 f23c 8b3e 0c3d 336f 2f3d
00000020: 25c3 19be ca8d 27bd a466 adbc d860 023d
00000030: a086 a2bc e41d d83d b010 b63d aa93 f9bc
00000040: c9dc 80bd eba1 9b3d 0f9c 5d3d f1fc 853c
00000050: 9a51 06be 1237 4d3d 4df9 11be 4925 2d3e
00000060: 38d6 f63b eeec b8bd 6a1c 1fbd 9bf1 ecbb
00000070: ef6f 8e3d 7afd b63c 0620 d3bd 0032 87bc
00000080: 5739 653d 9583 f2bb cff1 cdbd bef7 18bd
00000090: 9cf6 a33d 446e 53bd 9bdb e6bd 0490 4abc
000000a0: 3259 953c 8a79 81bd c4f0 333d 6d2e 4c3d
000000b0: 3cb4 89bd fa32 1dbc 16e8 243d 0203 83bd
000000c0: 50d3 6cbd 830c 973c 7065 0fbd 1cba 2ebd
000000d0: da29 14be 772f 583d 77cb 72bd b046 c53d
000000e0: 0344 e8bd f88a c43d b14d 9fbd 2f26 efbd
000000f0: 690b 09be cf0a 443d 0204 36bd e5ec 2b3e
00000100: 48d6 243d 899d 0d3d 17ca 783d 8968 abbd
00000110: f751 c4bd 85aa 9f3d dd49 d9bc 540f 81be
00000120: 1954 a3bd c595 68be 7cad 7d3d ea76 2d3d
00000130: d26f e1bc d449 fabc 2edd f43d 1fa9 08bc
00000140: 8af6 2dbe 8c17 fcbd 2185 883d 099f dc3d
00000150: 7c27 b83d 6a85 443d ff8a 483e 075f 91bd
00000160: ff4b 1b3e 17b9 a0bd 884d 953b ed19 40bc
00000170: 9fec 66bd 88e8 f53d 2912 08bc 0d93 56be
00000180: 7ae3 b4bd d1be b3bd 6e3c 363c 9d61 55be
00000190: 13f9 9a3d 1469 893c 7196 0b3e 733a 0ebe
000001a0: 957c 6e3c dd1b 38bd 037b 383e 517b 6a3c
000001b0: e4c2 58bd 0771 dfbd fa6a 6c3d 950b 713e
000001c0: 1adb 45bc 0949 b9bd 28f8 16bd 0576 813d
000001d0: a96b 73bd 9a72 17bb d04a 923d e153 abbd
000001e0: 5e2d d63d 4c49 3bbe af4d 793e bf20 13be
000001f0: 8086 7f3e 390e 64be 37c1 95bd 79d6 3e3e
00000200: 0102 e5bd 0176 1dbe d881 bfbd 38df 94bc
00000210: 383d 6c3d 6648 12bd 5e74 b1bd 5779 8e3d
00000220: 67f1 323d 6eec c3bc c8af 26be d2c6 903d
00000230: 2406 1fbc d40c 29be f036 063e 5f8d d7bd
00000240: 1235 343d f96c 29bd 70ac 24be 9c55 e13d
00000250: 44c6 fc3c 2ce8 ff3c edb8 25bd f625 a1bd
00000260: 3db5 923d 1ebe 4d3e 2af9 b8bd 3f26 a03d
00000270: eea7 44be 37bb 6dbd 9ab4 243d ab7b 8d3d
00000280: 8400 3c3e bfbb 35be 9284 90bd 64e9 983d
00000290: 04ae 04bd d857 f83c 2558 00be beb9 633d
000002a0: 0346 9b3d 2dba 243d 3e5d 0f3e 3412 1d3e
000002b0: dcc6 8bbd 4b53 ddbd 7981 313c 85d5 133d
000002c0: d8b1 7b3d e94a b83d 380e 373e 8f34 223e
000002d0: 33bb 4dbd bf05 053c 4f90 8e3d 4121 aebc
000002e0: 0e17 dcbd 0a1d bf3d 601b 30be b9a7 01be
000002f0: 3fd3 803d 93fc 95bd 5967 50be b7c1 abbc
00000300: a1ec c6bc dc42 5a3d e2dd da3d 6ed2 7bbd
00000310: 066b 8fbc cc07 883d 1c12 963b 74fb 133d
00000320: 7c4b cc3c 15f1 4bbd a71c 16bd c41c 6fbc
00000330: 44af 37be 0fe2 e63d b8cc 8abb 70d6 163e
00000340: 5f85 453e 4a51 7d3d c6a6 39be 2563 a5bc
00000350: 0e07 06bd 3b23 a7bc 13df a9bd 9823 e83d
00000360: 7b9b df3d 4ac1 b83d 23cd b0bd 4219 c13d
00000370: 9a19 5c3b aa2d 7abd 69e9 3d3d a946 983c
00000380: dfad b33d 0696 0b3d 80ff abbd 505b 21bd
00000390: 2f92 d6bc 030d c3bd 2463 91bd bde8 09be
000003a0: a850 763d 19ee b2bc fbcf a4bd 5332 a23c
000003b0: 1948 953c 6b4d 163e b1f0 433e e4b1 463e
000003c0: e8dc 913e 2cc8 c53d adf7 4ebd 33e6 0f3e
000003d0: 64d5 ee3d 05ff 153e 57a3 8bbd f8e2 edbc
000003e0: cbad 823d 2e92 673d f664 653d 21f1 2ebe
000003f0: 4116 27bd 9961 33be c876 543e 272b fbbd
0.07813291 -0.1553176 0.118078314 0.045739308 -0.020768236 0.02965814 0.034239333 0.042830657
-0.15015848 -0.040906705 -0.021167107 0.03183064 -0.019839585 0.10552576 0.08889902 -0.03046592
-0.062921114 0.07599243 0.054103907 0.016355963 -0.13117066 0.050101347 -0.14255257 0.16908754
0.007532861 -0.09029566 -0.038845457 -0.00723095 0.069549434 0.022337664 -0.10308842 -0.016503334
0.055962887 -0.0074009397 -0.10055887 -0.03734564 0.080060214 -0.05161883 -0.11272355 -0.012363438
0.018231008 -0.0632201 0.043930784 0.049848963 -0.0672383 -0.009594673 0.040260397 -0.06397058
-0.05781871 0.018438583 -0.035008848 -0.042657956 -0.1446909 0.05277964 -0.05927607 0.09632623
-0.11341097 0.09596819 -0.0777849 -0.11677205 -0.13383259 0.04786187 -0.044437416 0.16789587
0.040243417 0.034574065 0.060739603 -0.08369548 -0.09585946 0.07796196 -0.026524479 -0.25207007
-0.07975025 -0.22713383 0.061933026 0.042349733 -0.02751914 -0.030552782 0.11956249 -0.008341103
-0.16988578 -0.12309179 0.06666017 0.10772521 0.08991906 0.047978796 0.19584273 -0.07098203
0.15165709 -0.07847803 0.0045563616 -0.011724931 -0.056378003 0.120072424 -0.008305111 -0.20954533
-0.0883245 -0.0877663 0.011122806 -0.20838018 0.075670384 0.016773738 0.13631608 -0.13889484
0.01455607 -0.044948447 0.18015675 0.0143116275 -0.052920237 -0.1091023 0.05771921 0.23539574
-0.012076164 -0.090471335 -0.036857754 0.063213386 -0.059428845 -0.002310908 0.071431756 -0.08365608
0.10457872 -0.1828968 0.2434604 -0.1436796 0.24953651 -0.2227105 -0.073122434 0.18636502
-0.11182023 -0.15377046 -0.093509376 -0.018172845 0.05767557 -0.035713576 -0.086647734 0.069567375
0.04368725 -0.02391645 -0.16277993 0.07069172 -0.009706054 -0.165088 0.13106894 -0.10525011
0.043995924 -0.04136369 -0.16081405 0.11002657 0.03085626 0.031238638 -0.040459562 -0.078685686
0.07163475 0.20092055 -0.09031899 0.07819795 -0.19204685 -0.05803987 0.040211298 0.069083534
0.18359572 -0.177474 -0.07056536 0.07466391 -0.032392517 0.030315325 -0.12533624 0.05559706
0.07581713 0.040216614 0.14000413 0.15338975 -0.06825039 -0.108069025 0.010834091 0.0360923
0.061448902 0.08998663 0.17876518 0.15840362 -0.050227355 0.008119046 0.069611184 -0.021256091
-0.10746585 0.09331711 -0.17197943 -0.12661637 0.06290292 -0.07323565 -0.20351924 -0.020966394
-0.024282755 0.05328642 0.10686852 -0.06147998 -0.017507087 0.06642112 0.0045797955 0.036128476
0.024938338 -0.04979046 -0.03664842 -0.014594261 -0.17937952 0.11273586 -0.00423583 0.14730239
0.19289158 0.0618451 -0.18130025 -0.020188877 -0.03272157 -0.020402541 -0.08294501 0.11334914
0.109183274 0.09021242 -0.08632877 0.09428646 0.0033584596 -0.061078705 0.046365175 0.01858838
0.08773398 0.03407862 -0.08398342 -0.039393723 -0.026192753 -0.09523966 -0.07098988 -0.13467689
0.060135514 -0.02184205 -0.080474816 0.019799387 0.018222855 0.1467797 0.19134785 0.19403797
0.2848885 0.096573204 -0.05052917 0.14052658 0.11661795 0.14648063 -0.06818264 -0.029038891
0.06380805 0.056535892 0.056004487 -0.17084171 -0.040792707 -0.175177 0.20748436 -0.1226409

encoder.0.conv.0.bias f4 [80]
00000000: 4c53 5eb9 d311 553d 762a 9d3d 5ae1 f7bd
00000010: 8703 be3d 25d8 203c 5265 c1bc 6681 593e
00000020: 5e71 16be 8aa2 333c fbfd fdbb 3f72 ca3c
00000030: 98f7 0fbe abd5 fbbd f728 e73c eb8a 64be
00000040: 1a8d 743d e19d 24bc 3339 4ebe 7172 bc3c
00000050: c109 68bd f8b9 063e 4e35 573e d878 02be
00000060: 6da2 3f3e e101 7f3d b942 7a3c 4748 303c
00000070: 2bcb a5bd 9121 10be 9dd1 123c b550 84bc
00000080: d8c1 91bd 6050 0b3d 0e97 d13d 6c9a 96bd
00000090: 9799 ffbd 3b8d 57be 60c5 cd3d e993 db3d
000000a0: 3ae9 1ebc b874 4fbd 34b7 82bd 663e 573e
000000b0: 1023 863d 82c9 32bd 3b8c 2c3d ff32 00be
000000c0: 4fbd cc3d 7c8f 243e 4b97 543d ae2b 0b3e
000000d0: 6b99 f3bd 7cad fa3c a3e4 8d3b 1476 633d
000000e0: 634b a3bd 9f7e 4c3e a617 4abc ad01 613e
000000f0: 9bc9 1a3e 439a 033b 5587 1abd bf05 d93b
00000100: 9d84 8fbd 7597 5c3e 3150 3b3d c0a7 db3d
00000110: b202 593d c476 23be ee8f 08be c854 efbd
00000120: 3172 5d3d d1c7 303e 483f c3bd 2bb3 af3d
00000130: 7d00 8d3d 9e7d c5bd cf86 8f3d 6fbb 313d
-0.000212026 0.05201895 0.076741144 -0.12103529 0.092780165 0.009817158 -0.023607884 0.21240768
-0.14691684 0.010964045 -0.007751224 0.02471268 -0.14059293 -0.12296613 0.028217776 -0.22318618
0.059704877 -0.010047407 -0.20139007 0.023003789 -0.056649927 0.13156879 0.21016428 -0.1274141
0.18714304 0.06225765 0.015274697 0.01075942 -0.08095392 -0.14075305 0.0089611085 -0.016151765
-0.07117051 0.0340122 0.102338895 -0.073536724 -0.12480467 -0.21049969 0.10047412 0.10721571
-0.00969916 -0.05064842 -0.063825995 0.21019897 0.065496564 -0.043649204 0.04212592 -0.12519453
0.09997045 0.1607036 0.051902097 0.13590881 -0.118944965 0.030600302 0.004330234 0.05553253
-0.07973363 0.19970177 -0.01233474 0.21973296 0.15115969 0.002008096 -0.03772672 0.0066229994
-0.07007716 0.21542151 0.045730773 0.10725355 0.052981086 -0.15963274 -0.13336155 -0.116860926
0.05406398 0.17263724 -0.09533554 0.085790955 0.06884859 -0.096431 0.070081346 0.04339164
