exomy/config/best_run_no_obstacles405k/checkpoints/246000_policy.pt (torch, 723582 bytes, 13 tensors)

log_std_parameter f4 [2]
00000000: c9c2 91bf c114 21bf
-1.1387569 -0.6292229

network.0.conv.0.weight f4 [512, 5]
00000000: 5b0c 733e 4011 58be 408c f33b ccb3 a6bd
00000010: 2b01 2a3e fc2d 183e 95d6 fb3d 8d8e 163e
00000020: 1b40 9ebd 474d 3cbc 6302 fcbc c62f 7dbb
00000030: 8050 04ba ac20 82be 6bd7 6b3d 74d6 323b
00000040: 73ae b6bd 4747 663e 9197 813d 262d 2e3e
00000050: 71a5 553d 66b2 4abc cddc a83d 4760 453e
00000060: a9d5 003e d52a 673e 6332 bb3e fa1b 1f3b
00000070: dd1f 30be b5db e3bc bf89 96be 1a2b c73b
00000080: 6d96 0e3d 327c b1bc c7c3 78bd 5636 d23b
00000090: 4024 09bd 2a53 463d cdbe c23d 60cc 96bd
000000a0: 7df6 fa3c 24ca a7be f18f 0dbd 0f5b 33bd
000000b0: 3c90 a7bc 3e9e 3fbe b602 b7bd 7157 5ebe
000000c0: 3382 003d 5bc2 40be 5fa8 87bc e2be c23e
000000d0: cb95 953d 9caa 2d3e b99a 413b 9b81 04bd
000000e0: b4ab 673e e082 1bbd a15f 0d3e 3e35 90bd
000000f0: e94f 7a3e 20ab 9bbd fc69 a83d 3efb ff3c
00000100: 2797 023e 55a0 4f3e 5b4f 86be 9b6a 763b
00000110: a404 483e 5f97 033c d75a 0cbe dcc7 a03c
00000120: 7fcf 9c3d 68a9 aa3d 23fd 1b3e 60d7 44be
00000130: 276f aa3e 1e4d 333d c1f4 203e 4ee2 07bd
00000140: 853f 2f3e fcf9 023f 9fb8 263d d4cb 18be
00000150: 7b76 173e 543c 1ebe 6eee 923d a039 a73d
00000160: 16e0 eabd 0347 463d d23d 623e 8580 4b3e
00000170: e9d0 a1bd 235f 1a3c f3a9 133d c8c6 c3be
00000180: f15d 91be 9792 e4bc 0ab6 533d 3964 19bd
00000190: 8c22 16be 9dac c03d 4004 f7bd dd5e 82bc
000001a0: e5cf 9f3d a48e 9fbe e730 6b3e 944c 78bd
000001b0: 9db4 86be d7fa 643e 5ca6 02bd bde9 9abd
000001c0: 9abc 043d efab 403d f6d9 10bc 2ec0 10be
000001d0: 235f a03e 339f 4fbc f883 e13b 8c9d 2cbd
000001e0: 5524 b13e a5df 3c3d 6c51 e63d be2d 95bc
000001f0: db35 ebbd bd48 38be 269a afbe 943c 11bd
00000200: 6584 9a3d 4d96 89bd 721d b7be 47b6 8f3c
00000210: db79 143e d26c 01bd 37bb 87bc dc34 b9be
00000220: 9aeb c73e dfb0 92bd 0f28 b4bd 6f47 90bd
00000230: 5bf5 133e f107 c83d b94b dcbb a95a 163e
00000240: 730d 74bc da10 9d3c d14d 923e 902f a53d
00000250: 5417 6d3d e2e6 1abd 8d8f 21be acc6 f13d
00000260: d2c0 c13c 3c0f 1ebe 63ce 51be 54b0 8bbe
00000270: b01f 6bbe 9303 163e f988 8c3d 0085 06be
00000280: 08e4 7cbe 21aa 21be edb6 153c 1395 2ebe
00000290: 36f2 c63d 75fd 77be 3600 0b3c ddf1 92bb
000002a0: 4890 9b3c c3c8 babd 446b bf3b 876f c73e
000002b0: be03 183d fd43 f6bc 7b31 f6bc f748 913e
000002c0: 5f68 833d bafb 563d 70e9 92bd a7cc 8ebd
000002d0: 4f14 89be 0f00 de3e db5c 6bbd d25f 05be
000002e0: 632a 613e a327 b53e 859f 143d c953 5abd
000002f0: 9f9d 753d 867f 843c 298a e3bd 925e 3ebe
00000300: 7a0f 873d 85b4 e5bc 7f27 fe3c c5e6 51bd
00000310: a0d7 17bf d390 8ebd a7d8 3bbd 23aa 033e
00000320: 0ca4 dc3b 3603 803e 511a 1c3d 4041 e43d
00000330: 59a1 b43c 0397 26be d60d 8ebe d109 4bbc
00000340: a018 edbd 3e77 9cbd b1e2 d0bd ced6 7abe
00000350: 96b1 12bd 1fdc 20bd b0dc 52be 52c2 973e
00000360: 1e09 db3e f9b0 113b 0bfb 95bd 6854 e13d
00000370: 4753 9cbe 00c2 abbd 40ce 143e 44ad b73d
00000380: 109b 38be efce 8a3d b038 863d fad4 843c
00000390: fe21 91bd be71 a33d a443 b03e 7286 54be
000003a0: 8e82 36bc e482 97bd bd74 fabd 5dfe a03e
000003b0: f9a3 87bd ae67 e8bc c8db 82bd 295d 993d
000003c0: f78a b7bd 2250 1c3e 78aa b23c d626 d8bd
000003d0: 2b44 84bd a2b4 91be c8ce a9be 1c1b 903b
000003e0: 33a6 82bd e3c5 3abd c3c3 473e acba ab3e
000003f0: aebd fe3d 3458 3ebe 9783 63be 06f2 753e
0.23735182 -0.2110033 0.0074324906 -0.08139762 0.16602008 0.14861292 0.12296788 0.14702816
-0.07727071 -0.011493034 -0.030762857 -0.0038633212 -0.0005047396 -0.25415552 0.057578485 0.0027288469
-0.08919992 0.22488128 0.06327737 0.1700941 0.05215973 -0.012371635 0.082452394 0.19275008
0.12581505 0.22574933 0.3656188 0.002427815 -0.17199655 -0.027814725 -0.29401967 0.006078136
0.034811426 -0.021665666 -0.060733583 0.0064151688 -0.033481836 0.048419155 0.095090486 -0.073632
0.030635113 -0.3277141 -0.0345611 -0.043788012 -0.020454518 -0.18712708 -0.08936064 -0.21713044
0.031374168 -0.1882414 -0.016559778 0.38036257 0.07303961 0.16959614 0.0029541685 -0.032350164
0.22624093 -0.03796661 0.13806011 -0.07041405 0.24444546 -0.07600999 0.0822334 0.031247731
0.12752973 0.20276006 -0.26232418 0.0037600163 0.1953302 0.008031695 -0.13706528 0.01962655
0.07656764 0.08333093 0.15233283 -0.19222784 0.33287928 0.043774717 0.15718366 -0.033174805
0.17114075 0.51162696 0.040703412 -0.14921504 0.1479129 -0.15452701 0.07174383 0.08165288
-0.11468522 0.048407566 0.22093895 0.19873245 -0.079011746 0.009422096 0.036050748 -0.38237596
-0.28391984 -0.02790193 0.051687278 -0.037449095 -0.14661616 0.09407923 -0.120613575 -0.015914375
0.078033246 -0.31163514 0.22967874 -0.060619906 -0.26309672 0.22361313 -0.031896934 -0.07564113
0.032406427 0.04703897 -0.008841028 -0.1413581 0.31322584 -0.012672233 0.006882187 -0.042142436
0.34598032 0.04611172 0.11245999 -0.018210288 -0.114848815 -0.17996497 -0.34297293 -0.035458162
0.075447835 -0.06718121 -0.35764652 0.017542971 0.14499609 -0.03159792 -0.016568763 -0.3617314
0.39046937 -0.07162642 -0.08796703 -0.07044875 0.14449064 0.0976714 -0.006722894 0.14683022
-0.014895785 0.019173075 0.28574994 0.080657125 0.057883576 -0.037817843 -0.15777417 0.11805472
0.023651514 -0.15435499 -0.20488887 -0.27282965 -0.22961307 0.14649801 0.06862063 -0.13136673
-0.24696362 -0.15787555 0.009137851 -0.17049055 0.09714167 -0.2421778 0.008483937 -0.0044843988
0.018989697 -0.091203235 0.0058416445 0.38952276 0.037112944 -0.030061716 -0.030052891 0.2837598
0.064163916 0.05248616 -0.07173431 -0.06972628 -0.26773307 0.4335942 -0.0574616 -0.13024834
0.21988826 0.35381803 0.036284942 -0.05330256 0.059964772 0.01617409 -0.11110336 -0.18590763
0.06594749 -0.02804018 0.031024693 -0.05124547 -0.5931339 -0.06961217 -0.045860913 0.12857871
0.006733423 0.2500245 0.038111035 0.11145258 0.022049593 -0.16268544 -0.2774493 -0.012392477
-0.115769625 -0.07639931 -0.10199488 -0.24496004 -0.03581389 -0.039272424 -0.20591998 0.29640442
0.42780393 0.0022230728 -0.07323273 0.11002427 -0.30532286 -0.08386612 0.14531803 0.08968595
-0.18027902 0.06777751 0.06553781 0.016214836 -0.070865616 0.07980679 0.34426606 -0.20754412
-0.011139525 -0.07398012 -0.12229297 0.31444064 -0.06623072 -0.02836975 -0.06389576 0.07488472
-0.08962052 0.15264943 0.021809801 -0.10554282 -0.064583145 -0.28458124 -0.33165574 0.004397763
-0.06379356 -0.045598876 0.19508271 0.33540857 0.12438522 -0.18588334 -0.22218166 0.24018106

network.0.conv.0.bias f4 [512]
00000000: bf6e 993d d2fb 2fbe 4eb5 7ebd 654e 68bc
00000010: e05b 9fbe e063 ac3c 1d1d 1ebe cfc3 4bbe
00000020: 9b35 f93d 1aa4 00bd dfbd 66bd 6b24 193c
00000030: fde8 cbbd 799d e43c 07c4 32bd 55a4 b93d
00000040: 9007 40bc 0e09 01be 5283 5a3c a1fa 913d
00000050: 844e 283e 69a9 843d 3e22 2abe 88e6 693d
00000060: 51e8 173e 0cc8 ab3d f2ad de3c e04b 503d
00000070: cb5e 2abe d71c bebd a014 c83c c501 cabd
00000080: 1810 133e 609d 7e3c 4859 463d da15 c039
00000090: 3640 313c dd59 a5bc e3b4 28bc 1582 243d
000000a0: 83ec b63d 8bca 093e c59a cfbd 4993 003d
000000b0: 970f 1fbe a3ec 173e d72b 5d3c 7b99 61bd
000000c0: 3537 443d 4b77 be3d 7803 80bd ca54 f23c
000000d0: 9a7e 783d d2c0 033e 8f26 9f3d 55c2 143e
000000e0: fc5c 2d3b 8f08 053c b996 b03c 36dc 3abe
000000f0: 28c2 993d 2b70 c43c 6c61 3a3e b577 bf3d
00000100: 0d2a 5f3e 2639 b6bc 133a 6f3d 67d1 6b3d
00000110: 547a 28bd e4ae bf3d 9952 433b 1718 6f3c
00000120: a6cc 7bbd b739 27bd 56fa b9bd cad3 043b
00000130: 76e6 14be da4d f83a 15ed 85bd 2e1d 5fbe
00000140: 44c2 d43d 780c 713d e61c 35bd 44fe 403e
00000150: a39b 303e d3ac e93c 1ed6 9c3d b8e5 b7bc
00000160: 0996 64bc 8ac5 25be 99a2 b43c 3527 f5bd
00000170: 428e 643d afa9 7abe b2a9 20bd be51 d93d
00000180: dd45 0d3e 995c 023e 691c 2ebd c7d5 7abc
00000190: 5202 c03d e48b 9b3d 530e 0c3e 07b1 21be
000001a0: ecf5 453d f352 213d 4acc b1bd 1f0d abbc
000001b0: 4f15 92bd 69df c2bd a7b9 e13c 0f34 e03c
000001c0: 908b 98bd 0a12 e33d 3b12 0f3d bee1 08be
000001d0: 4c8d a83d cb86 45bd f428 003d c8f8 2f3d
000001e0: 5830 9ebd ab13 cc39 c9bf a83d b077 95bc
000001f0: 057d 19be 5124 12be f5e6 22be d405 b43d
00000200: 86d6 a2bd a556 e93d 1334 983c 3d67 ddbd
00000210: 5e23 fdbb 92a4 fb3b 1e02 7e3d 1861 f73c
00000220: 78f8 32bb 3cad 0d3c 7cf7 043c 1544 acbb
00000230: b814 3dbe 4a50 33be d371 953d 0724 b7bd
00000240: bedf 923b 4a9d a03b 2e97 67bd 2f7e d6bd
00000250: 794a 6b3d f269 a9bb df5b bb3b 0403 88bb
00000260: fb1b 4ebe 2993 72bd 4880 febd 1c5b db3d
00000270: 3d2d 823c 4d51 633d f4bb 69bd fbd4 b9bd
00000280: 7fc1 0ebd 14b4 013d 3472 a8bd 320f 493e
00000290: 240a 87bd bd63 e23b e659 383d 7569 4e3e
000002a0: 298c c63c 368a 6ebe ec0d 54bd 25ca 1dbe
000002b0: 6e4a 5d3e 5739 40be 3ef3 a9bd a00a 6fbd
000002c0: 0455 69bc 691b 7dbc bc85 263b 6404 57bc
000002d0: 3cd9 debc fba2 c23d cba8 9abd 2de1 54be
000002e0: f8b0 1bbe 74ee 5f3d 70db 11bd 97d1 2abe
000002f0: 360a f33d 41e6 23be bc91 b23d 49f4 dabd
00000300: ee7c 1abe fa8f 21be 0bb4 77bd 5a17 1b3e
00000310: e5a8 18be 746f 4f3d d256 913c 4f83 2fbd
00000320: bc6b 0d3d d4c1 78be f69b fd3b ff41 f2bc
00000330: e8be 5fbc 4d29 363d d3b6 883d 1d23 cebd
00000340: f90d 07be 7cb1 e0bd ab78 84be 63da 3abe
00000350: ea71 60bd 02ad 4cbd ac98 963d 99b3 e33d
00000360: 5df1 0d3e 1277 d63d 7cbf 773d 5ada edbd
00000370: bd78 fcbc 3d36 19bd 19d1 2ebe 3298 69be
00000380: 8e07 35be 2318 603d 4cc0 1ebd 124f c5bd
00000390: 6a89 1bbe 317c 533d 085a 27be ceda 5c3c
000003a0: d0f6 4abe 0539 d73d 6ee7 25be 945f 43be
000003b0: e8af c83d 85f7 f53a 5828 ffbd 03b7 283d
000003c0: f65b b23c 05e4 c53d 7232 28be f813 4cbc
000003d0: ffd0 c53c f58e 90bc 6f86 123d 6ea5 4f3d
000003e0: 1212 053d 904e 1cbe 0374 fd3a facf c0bd
000003f0: def5 a73b 6817 d139 0b0f f7bd 84a5 fcbd
0.07491826 -0.17185906 -0.062184624 -0.014178847 -0.31124783 0.021043718 -0.15440793 -0.19898914
0.121684276 -0.0314065 -0.05633342 0.009347062 -0.09956548 0.02790712 -0.043643977 0.09064547
-0.011720553 -0.1260111 0.013336973 0.07127882 0.16436201 0.06477625 -0.16614625 0.057104617
0.14834715 0.08387765 0.027182553 0.05085361 -0.16637723 -0.092828445 0.024423897 -0.09863619
0.14361608 0.015540451 0.04842499 0.00036637374 0.010818532 -0.020184452 -0.010297033 0.04016312
0.0893183 0.1345617 -0.10136942 0.031390462 -0.15533291 0.14836363 0.013499222 -0.05507801
0.047904212 0.09300097 -0.062506616 0.029581446 0.06066761 0.12866524 0.07771026 0.14527257
0.0026453128 0.008119716 0.021556245 -0.18248066 0.075077355 0.023979267 0.18201226 0.09349004
0.21793385 -0.022244047 0.058404993 0.05757275 -0.041132286 0.093595296 0.002980387 0.014593146
-0.061474465 -0.040826526 -0.09080951 0.0020267838 -0.14541039 0.00189441 -0.065393604 -0.21788475
0.10388616 0.05884978 -0.044217013 0.18846995 0.1724687 0.028524792 0.07658027 -0.022448406
-0.013951787 -0.16188636 0.022050189 -0.11970369 0.05579973 -0.24478792 -0.039224334 0.10611294
0.13796182 0.12730636 -0.042507563 -0.015309758 0.093754426 0.075950414 0.1367734 -0.15790187
0.048330233 0.039385747 -0.08681543 -0.02088028 -0.071329705 -0.09515268 0.027554346 0.027368573
-0.074484944 0.11087425 0.034929495 -0.13367364 0.08230075 -0.04822425 0.031289056 0.042961866
-0.077240646 0.00038924566 0.08239705 -0.018245548 -0.14989097 -0.14271666 -0.15908416 0.08790174
-0.07951073 0.11393479 0.018579518 -0.10810707 -0.0077251634 0.0076795304 0.062013738 0.030197665
-0.0027308743 0.008647259 0.0081156455 -0.0052571394 -0.18464935 -0.17511097 0.07297101 -0.089424185
0.0044822386 0.004901563 -0.05654066 -0.10473286 0.05744407 -0.0051701004 0.005717739 -0.00415075
-0.20127861 -0.059222374 -0.124268115 0.10710737 0.015890712 0.055497456 -0.05706401 -0.09073826
-0.0348525 0.031665877 -0.082249075 0.19634703 -0.06593731 0.0069088624 0.04500761 0.20157416
0.024236755 -0.23294911 -0.05177109 -0.15409143 0.21610424 -0.18771873 -0.08298348 -0.058359742
-0.014241461 -0.01544843 0.0025409302 -0.013123605 -0.027203195 0.09503742 -0.07551726 -0.20789023
-0.15204227 0.054670766 -0.035609663 -0.16681515 0.11867182 -0.16005804 0.08719203 -0.10691125
-0.1508672 -0.15777579 -0.060474437 0.15145627 -0.14908178 0.0506434 0.017741594 -0.042849835
0.03452657 -0.2429269 0.0077395393 -0.029572485 -0.013656355 0.04447298 0.06675496 -0.10065291
-0.13188924 -0.109713525 -0.25873312 -0.1824737 -0.054796137 -0.04996968 0.073533386 0.1111824
0.13861604 0.104719296 0.060485348 -0.11613913 -0.030819291 -0.03740524 -0.17071952 -0.22811964
-0.17678663 0.05471052 -0.038757607 -0.09634222 -0.15189138 0.05163211 -0.16342938 0.0134799015
-0.19820714 0.105089225 -0.16201565 -0.19079429 0.097991765 0.0018765783 -0.12458867 0.04119016
0.021772366 0.09662632 -0.16425493 -0.012455933 0.024147509 -0.017646292 0.035772737 0.050694875
0.032487936 -0.15264344 0.0019336942 -0.094146684 0.005125745 0.00039881025 -0.12063416 -0.12336257

network.1.conv.0.weight f4 [256, 512]
00000000: 09c7 583d c2e1 40be 129b 78bd 3cf5 ba3c
00000010: fb51 e3ba f007 9bbd fd1b f5bd e50d 37bd
00000020: c62d fe3b 48fe b0bd 3f34 37be af7f 853d
00000030: 7aad 083e 4829 0dbd 3735 dbbd b37f b33e
00000040: fbb1 67be dee2 a93c 1898 c43c 2920 4c3e
00000050: a09e f03d 93c7 8e3e 31ee cb3d 1cf0 b63c
00000060: 8f1b 2e3e 1f3b 4ebd 2cd0 433e 929f 0a3e
00000070: 66e2 f8bd 4e84 0dbd 269d 18be fc83 ffbc
00000080: 3fda 003e bc55 123d 6df1 d53c 2271 6d3d
00000090: bd13 8dbd adff 56be 0a21 12bd 349d 61be
000000a0: 217e 123d a87e 9a3e bc11 853d 15e5 a9be
000000b0: 1ccc b43d b01c 41bd 978f a2bd ad81 febd
000000c0: f521 313d f3b2 493c 05d6 ab3c 037f 71bd
000000d0: 7d96 113e d2f7 9f3d 1eae 983e 7b76 06bd
000000e0: f86a 93be 9d46 61be 46d7 2ebe 9f0d 89be
000000f0: bb2d 04bd cfdc 013e 2a15 3ebc e9f8 c3bc
00000100: 7424 da3c ddd8 88be 58e0 06bd ec49 613d
00000110: 6a5d 81bd a3d0 0d3d 6c78 d93d 1e30 ffbc
00000120: fdc9 4f3d d56b 8c3e 13b2 b33c a131 4abe
00000130: 18ac 46be e461 0a3c f043 bd3d 577b 043e
00000140: 9c21 b53c 31be c2bd 1559 63be d4ee 0f3e
00000150: 2623 dcbd 61e0 e03d a896 6bbe 738a 74bd
00000160: 9ab7 263e 8579 8c3e 3380 643e 89e2 a53d
00000170: 30e9 ad3e 3a59 34be 4d21 423d 110e a53c
00000180: 3e1f 88bd d948 1a3e cf15 21bd 2782 2dbe
00000190: f3ef f83d 2f86 f3b9 7ec7 ab3d 3a6f cabd
000001a0: e3cb 6a3e f23c a0bc 9cc6 febd 2995 633c
000001b0: f55f 6f3e 7709 e33d d6ae 623e 1377 433d
000001c0: 1431 243c 633e f93d 59fa 7f3e 3a2a 95bd
000001d0: fb4a c43d 10fe 20be bff4 a3bd 4576 643d
000001e0: 2798 6cbd b063 773e 2d77 bdbd ab9e b6bc
000001f0: e026 d0bd 2f06 95be 2318 99be a028 833c
00000200: 1f4e 743c 9135 f4b9 b07d 5d3e 1016 7bbc
00000210: 5ed8 c7bc 446e 99bc 3f0b d2bd eda6 603d
00000220: 8117 5d3d 5226 863d 7f7d e63c f95f 703c
00000230: 30e4 ae3b 4c83 d33c 2f43 5dbe 094f cb3d
00000240: 7129 8f3d fbe4 d9bd 9d87 c4bd 869d 3ebd
00000250: 7620 353e d6a6 3bbd ef74 ae3a 9d9a 10bc
00000260: dbce 733d 0ebc 173e 8d58 7d3b 5473 373d
00000270: 3d53 413e d2eb dd3d 8dd9 0bbe b97f 3f3c
00000280: 46aa 93bc 7cf2 183c a5d6 c33c d580 903d
00000290: c8d1 08be 3f29 303e e0a3 cd3d c3b0 fb3d
000002a0: 522c adbc 119a 3bbd a8ad 1ebc ed9c 02be
000002b0: bc8b 2a3e cb1d 1abd 80c0 813d 4675 1bbe
000002c0: a84d 76bd bcc5 203e 524d cb3d 2d10 dc3b
000002d0: 1abc e1bd b374 64bb 03a3 633d 54d4 d4bd
000002e0: 202d 32be 9325 db3d 4639 8f3d 32ca 67bd
000002f0: d1c9 14bb 226e 963d 3b95 863d af78 4cbe
00000300: 53ef 42be e9dc 3f3d 4190 733d 073f 0c3d
00000310: 30d5 f23d 936a 04bd 7ea7 043e 0082 75bd
00000320: 08d1 0cbd fb05 12be 8bf5 793b 1ce2 8fbd
00000330: 9a00 793d 2c04 ce3d 1d16 313e d54e e0be
00000340: 4316 a63c 6f5a 81be 2249 a33b 9895 84bd
00000350: 3e8c a23d b90a b53c 1768 88bc 8a51 763d
00000360: 8f46 ac3d 7cae 173e fa54 a73d 4c52 eb3c
00000370: 15a9 813d 465d 403c 1883 ecbd d17d f83c
00000380: da98 07be 3978 763c 8687 7f3d c797 52be
00000390: c4da 44be cc12 ecbd b8b8 8ebc c1e3 c13d
000003a0: 2c39 20bd 88e5 da3c b5ad e6bc d766 a9bc
000003b0: c098 d43c 0800 bb3c 33b1 debd 9fab 063d
000003c0: 27c9 2c3d 634a 0e3e b171 c7bd e2d7 953d
000003d0: 3135 4bbd 6e48 eebd 2c42 683d 4de2 d8bd
000003e0: f201 b8bc 49c6 9ebe f4ec 483d 9093 02be
000003f0: e5bf 563e 7df1 0bbe 25e7 8fbd f229 5b3d
0.05292419 -0.1883612 -0.06069476 0.022822015 -0.0017343158 -0.07569873 -0.11968229 -0.044690985
0.0077569215 -0.0864225 -0.17891024 0.06518494 0.13347426 -0.034463197 -0.10703509 0.35058364
-0.22626488 0.020738062 0.023998305 0.19934143 0.11749005 0.27886638 0.09957541 0.02233129
0.170027 -0.05034935 0.1912238 0.13537434 -0.12152557 -0.034550004 -0.14903697 -0.031190865
0.12583254 0.035726294 0.026116097 0.05796922 -0.068885304 -0.2099597 -0.03567604 -0.22032624
0.035764817 0.30174756 0.06497523 -0.33182588 0.08827993 -0.0471465 -0.07937544 -0.124270774
0.043245275 0.012310731 0.020976076 -0.05895902 0.14217563 0.0781094 0.2982034 -0.032827836
-0.28792548 -0.21999593 -0.17074308 -0.26768205 -0.032270174 0.12681888 -0.011601726 -0.0239224
0.02662871 -0.26727954 -0.032928795 0.055002138 -0.063166454 0.0346228 0.10618672 -0.031150874
0.05072974 0.2742602 0.021935498 -0.19745494 -0.19401586 0.0084461905 0.09241474 0.12937675
0.022110753 -0.095089324 -0.22201951 0.1405595 -0.107488915 0.10980297 -0.2300669 -0.059702348
0.16280976 0.27436462 0.22314529 0.08099849 0.3396697 -0.17612162 0.04739504 0.020148309
-0.06646584 0.15066852 -0.03932744 -0.1694418 0.12155142 -0.00046448546 0.083876595 -0.09884496
0.22929339 -0.019560311 -0.124402255 0.013890543 0.23376448 0.1108579 0.22137007 0.04772098
0.010021467 0.121701024 0.24997844 -0.07283445 0.09584614 -0.15721917 -0.08005666 0.055776853
-0.05776229 0.24159122 -0.092512466 -0.022292456 -0.10163665 -0.2910628 -0.29901227 0.016010582
0.014911204 -0.00046579217 0.21629977 -0.015325084 -0.024395164 -0.018729337 -0.10256051 0.054846693
0.053977493 0.06550278 0.028136013 0.014671319 0.0053372607 0.025819443 -0.2160766 0.09927184
0.06990326 -0.10639378 -0.09596179 -0.046536945 0.17688164 -0.045813404 0.0013309995 -0.008825925
0.059523445 0.14817831 0.0038657517 0.04478772 0.18879409 0.10835995 -0.13657208 0.011688166
-0.018025529 0.0093351565 0.023906061 0.07055823 -0.13361275 0.17203234 0.10041022 0.12289574
-0.021139298 -0.045801226 -0.009684958 -0.12755175 0.16654867 -0.03762607 0.063355446 -0.15181455
-0.060132653 0.1570043 0.09926857 0.0067157955 -0.11022206 -0.0034859597 0.055575382 -0.10392061
-0.17400026 0.10700526 0.06993346 -0.056589313 -0.00227033 0.07345225 0.06571432 -0.19967912
-0.19036607 0.046841536 0.059463743 0.034239795 0.118570685 -0.0323282 0.12954518 -0.05993843
-0.034379035 -0.14260094 0.003814074 -0.07025549 0.06079159 0.100593895 0.17293592 -0.43810144
0.020274287 -0.25264308 0.0049830833 -0.06473845 0.07936905 0.02209984 -0.016651196 0.060136355
0.084118955 0.14812654 0.08170505 0.028725766 0.06331078 0.011740988 -0.11548442 0.030333431
-0.13241902 0.015043312 0.062385105 -0.20565711 -0.19224077 -0.11527023 -0.017422065 0.09467269
-0.039117023 0.026720777 -0.028159002 -0.02067892 0.025951743 0.022827163 -0.10873642 0.032878514
0.04218402 0.13895564 -0.09738482 0.07316567 -0.049611274 -0.116349086 0.05670373 -0.105900384
-0.022461865 -0.31010655 0.0490541 -0.12751603 0.2097164 -0.13666339 -0.07026509 0.0535068

network.1.conv.0.bias f4 [256]
00000000: 20cc 16bd f2ef 4abb 8210 243d d4d7 593c
00000010: ec9c f7bb de20 973d 40c8 413d b6e2 8a3d
00000020: 0927 92bd 8728 683d f37e 6fbc f960 25be
00000030: e36e a13d a4bf dcbd ab64 c7bd 6c58 cebd
00000040: 4677 45bd 499c 5dba 627d 093d a0e2 35be
00000050: 7f9a b1bd c401 5a3e f933 83bd 10c0 19bd
00000060: 1598 8fbd cdf8 f93b 8719 2ebe d495 c43c
00000070: 4102 12be 7b79 36bb 92ea 09be cbca 7c3c
00000080: 6ff8 a0bd 26c4 63be 80e1 623e 3b3d b9bd
00000090: 4404 49be 5223 b43b 47dd cc3b 406b 34bd
000000a0: 39fc d3bd 4f13 0ebe 2876 5cbe 66ea a63d
000000b0: 9289 b93c 8e49 3e3d 0f63 e2bd 1479 9eb9
000000c0: a290 47bd d667 753d 25bb 53bd b555 c83d
000000d0: 6e18 6fbd 12fb 6fbc 8f60 9fbd 80b8 aa3c
000000e0: 2c6e 7c3d 5847 493d 8400 0a3d 8c3b 243e
000000f0: 4fa0 0dbe 6764 8abd ddc4 5fbc 11a6 023d
00000100: cb5f bc3c f705 063d 2c22 153e 0a81 4dbd
00000110: ea0f 9cbc 7df2 82bd 86ae 0bbc 070a b4bd
00000120: cd52 bc3d ced0 b6bd efab 00be bae5 19bb
00000130: 9408 8c3c 58d6 dc3c 3da7 97bb c3a3 633e
00000140: f6a1 ffbd 1b5c 183d 8d4c 1dbe 915f 983d
00000150: 1b5f 34be d1cb 8dbd 8dec 54bd 7ee5 24bd
00000160: 98f5 9a3d 0c75 353a a93d 2839 1c81 193e
00000170: e0da d93d ced9 0e3e bd98 33bc 5630 05bc
00000180: 3349 31be 1803 05bd 4465 09bd c94e a33e
00000190: b72f 183d 88ae 7ebd baa7 933d 05e9 32be
000001a0: 2df1 56be 76aa 6bbd 9483 fb3d c9e5 30be
000001b0: 8cc0 3b3d 14e7 24bc 9cf3 063e eb9b 30be
000001c0: ba33 983d 2637 db3d 0e8a e4bd 53f3 e33d
000001d0: d8d2 773d 8d59 bfbc 9a4f e7bc b757 193e
000001e0: c227 5e3c 3008 e9bc 4f27 f63d 3bf8 da3d
000001f0: 66f7 f3bd 6a26 33bd 4dad 063e 6e03 76be
00000200: ce9c 04bd 23f0 9abd a81a 2abe cc32 253d
00000210: 2340 58bd ebef 713c 3f4b 373c d845 5fbc
00000220: 1748 2a3d a8b7 7cbc b2b4 74bd aa5e 5bbc
00000230: 7d6c 96bc ab2a 1b3d 5db2 8abc 175a 7d3c
00000240: 843a 963d 82f4 b33b 4dd1 12be cea6 c03d
00000250: acfc 0d3e ee89 aabd da39 44bd 1ba1 ebbd
00000260: 44cc f73d f81a 9a3e 237a 6c3d 8aa9 90bd
00000270: fe7c 343b 2298 7c3d 786b a23c ebbe 1cbd
00000280: 85a5 cf3b b8e2 9ebd 2fbe cb3c ba28 3d3e
00000290: d0e7 c3bc 5683 033e a09f b1bb 64b1 413b
000002a0: 8a6e ae3d 71d8 e23d 6dc2 a63d 6ccb edbd
000002b0: f773 3c3c eedf 3fbe d001 373d 77be 1bbe
000002c0: 7d62 e3bc 3993 bbbd 63fa 14bc 15e2 793d
000002d0: 2913 4bbb 1e6c 42bc af7d 153d 9b70 01be
000002e0: 1c47 88bc f044 b8bd 0467 3f3d ec81 6abe
000002f0: 62c7 21bd 5dc4 ff3d e679 cabd 0469 043c
00000300: 4ca6 51bd 5ccf febd 802a 20be b515 933d
00000310: 8ec3 d3bd 6758 993d 04d2 da3d 6125 bbbd
00000320: d6bc b6bd 6ebe ec3d 6884 1cbe a438 1e3e
00000330: 3971 11bd 82e9 92bc 877d 41be e8ae 03be
00000340: 7468 d9bc a52d fa3b bf10 3e3c a64c 20bb
00000350: e874 23be 8aa8 5bbb 3d74 c13d b9e3 d53d
00000360: a48e 05be 908a b73c 9e33 59be af98 2abd
00000370: 637e 993b a4c1 f1bd 6f71 55be f91b bdbd
00000380: 7bb5 093c c988 993c dc4c 493d 6baf 01be
00000390: 11f8 573d 1a09 2f3e f3ea 0b3e eba4 31be
000003a0: 3182 36bd 5896 0c3e f2bf 71bd fa39 a9bc
000003b0: 0178 c0bc bad3 6a3d 3ce7 74bd 600a 3e3e
000003c0: a982 0dbe e34f 443d 789a 00be ed03 923c
000003d0: 8128 523e 2379 323d 6967 4f3d be7d 933a
000003e0: 8d8a a6bd fc25 48bc 6bc2 83be 2829 a7bc
000003f0: d0b5 683d 20ba e83d 6315 95bd abe7 c2bd
-0.036815763 -0.0030965772 0.040054806 0.013296086 -0.0075565483 0.07379316 0.047310114 0.06781523
-0.071363516 0.056679275 -0.014617669 -0.16150273 0.07882478 -0.1077874 -0.09735998 -0.10075459
-0.04820945 -0.0008453769 0.03356684 -0.17762232 -0.08672046 0.21289736 -0.06406397 -0.03753668
-0.07011429 0.0076285363 -0.17001925 0.023997225 -0.14258672 -0.0027843404 -0.13468388 0.015429209
-0.07859885 -0.22242793 0.22156334 -0.09044882 -0.19630533 0.0054973746 0.0062519643 -0.044047594
-0.10350842 -0.13874553 -0.21529448 0.08150177 0.022648606 0.046456866 -0.1105405 -0.0003022632
-0.048721917 0.05991348 -0.051692147 0.09781972 -0.058372907 -0.014647262 -0.07782089 0.02083993
0.061628506 0.049140304 0.033691898 0.1603834 -0.13830684 -0.067574315 -0.013657776 0.031896655
0.022994896 0.032720532 0.14563817 -0.05017189 -0.019050557 -0.06393907 -0.008525496 -0.08790975
0.091954805 -0.08926545 -0.12565587 -0.0023482875 0.017093934 0.026957676 -0.0046280907 0.22230439
-0.124820635 0.037197214 -0.15361233 0.07440103 -0.17614405 -0.069236405 -0.051983405 -0.040257923
0.075663745 0.00069220434 0.00016044699 0.14990658 0.1063745 0.13950273 -0.010961709 -0.0081292
-0.1731308 -0.032473654 -0.03354384 0.31896046 0.03715488 -0.062178165 0.07209726 -0.17471702
-0.20990439 -0.05753561 0.12280956 -0.17275156 0.045837924 -0.010064859 0.13178867 -0.17246978
0.07431741 0.10703878 -0.11159144 0.11130395 0.06050381 -0.02335813 -0.0282362 0.14974867
0.013559284 -0.028446287 0.12019216 0.106918775 -0.11912422 -0.043737806 0.13152047 -0.24024746
-0.032376103 -0.07565334 -0.16611731 0.040331647 -0.05279554 0.014766674 0.011187374 -0.013627492
0.041572656 -0.015424646 -0.059742637 -0.013389269 -0.018362278 0.03788249 -0.016930753 0.015463374
0.0733538 0.005491794 -0.14337654 0.094068155 0.13865918 -0.08327089 -0.047906734 -0.11505338
0.120995075 0.300987 0.057733666 -0.07063587 0.0027540321 0.061668523 0.019826636 -0.03826801
0.00633687 -0.07758087 0.02487096 0.18472567 -0.023914248 0.1284307 -0.00542064 0.0029555196
0.085171774 0.11076439 0.081425525 -0.11611065 0.011502258 -0.18737766 0.044679463 -0.15209375
-0.027756924 -0.0915894 -0.0090929 0.061006624 -0.0030986762 -0.011866597 0.036496814 -0.12640612
-0.01663547 -0.08997524 0.046729103 -0.22901124 -0.039496787 0.12488625 -0.098865315 0.008081678
-0.051183984 -0.124418944 -0.15641212 0.07181875 -0.103400335 0.074875645 0.106845886 -0.09137989
-0.08922736 0.11559759 -0.15284884 0.15451294 -0.03550837 -0.01793361 -0.18895541 -0.1285969
-0.026539065 0.007634836 0.011600672 -0.0024459749 -0.15962565 -0.0033517205 0.09445999 0.10443825
-0.13042694 0.022404939 -0.21211097 -0.041649517 0.004684256 -0.11804512 -0.20844053 -0.09233851
0.008405085 0.018741982 0.049145564 -0.12664573 0.05272681 0.17093316 0.13663845 -0.17348067
-0.044557754 0.13729227 -0.059020944 -0.020657528 -0.023494722 0.057330824 -0.059790835 0.18558645
-0.13819374 0.04792775 -0.12558925 0.017824138 0.20523264 0.043572556 0.05063573 0.0011252684
-0.08131895 -0.012216087 -0.25734267 -0.020405367 0.056814015 0.113636255 -0.0727947 -0.095168434

network.2.conv.0.weight f4 [128, 256]
00000000: ad06 a43d 08be efbb 15de 92bc 826e ea3c
00000010: c263 57bd 0233 b73d 0289 673e e74f 3e3e
00000020: fefa b7bd 8a7d 033c 60ef e0bd 2f41 50bd
00000030: ff89 1b3d 9fa3 cd3d 21ae bb3d c548 c4bd
00000040: 1767 b33e c381 e6bd 6c5c 58bd 6528 923d
00000050: c7ec bc3d a057 42bd 4ace a13d 03e1 e93d
00000060: 516d 39be 7aec 883e cb9a 08be b0e3 9f3d
00000070: 5d99 343e 1149 cebd accb 423d 5304 58be
00000080: 7d21 15be c3c3 32be b34a 413d 6174 86bd
00000090: 10ff aebd 9dbc 9e3c a569 ee3d 4f59 53bd
000000a0: 3e3f a43d b20d a4bd fa26 113c 8e82 bc3d
000000b0: ebe5 f5bd 3eb5 c3bd 1206 503e 268c 793c
000000c0: c5b9 4cbe ca24 023e 586e 3dbe 8f2b 79bd
000000d0: 9db3 bcbc 342b b5bc fb8b a73c ac8a 0abd
000000e0: d459 20bd b769 bbbd b337 64be 51e7 19be
000000f0: 557d 763d e150 a9bd 6128 2d3e 0f79 dbbd
00000100: 83cf 7739 b1b8 d73d fbe4 a1bd 0227 d5bc
00000110: 6d61 4dbe a1ba 5ebd 891d cabd d72d c83d
00000120: d292 98bd f822 60bc 22e7 e1bd ab76 38bd
00000130: 8a12 693d 2bbc ba3c 83cb 2f3e 78c1 1abe
00000140: adc9 93be ebec 153e 528c eebc 0580 03bd
00000150: 3837 35bd d526 de3d 0d0d 82bc 9667 103d
00000160: c40e c3bd cde9 17bd 9c80 1d3d 7118 9d3d
00000170: c180 04be 3eb5 5f3c 228a 76bd 5cb8 733d
00000180: 45d5 b3bc 7d95 f53b 106b 953c bf51 2b3e
00000190: 8139 b23d 4600 df3d ca5a 5dbd 3074 0c3d
000001a0: ad47 843d 36da be3d b00b 8a3c d860 583d
000001b0: ad13 5e3d 1a0e 3cbe 5652 acbd 808e c43d
000001c0: b8c8 e0bd 249c 0c3c 0baa c73d 63a2 95bd
000001d0: 21c9 d13b ae0a 8abe aa74 e23c eb75 693c
000001e0: d134 adbd 5870 3dbe 71e3 24be d4f4 c8bd
000001f0: 6a1d 9f3c 587c e33b ab12 92bd 0adf f13d
00000200: 47b2 de3d 9228 0b3e c87f 2e3e 1fbc 10be
00000210: eaee aabd 6753 003e 03e2 c8bd 5ecb 913d
00000220: b915 0b3d 45ea 09bc 2f72 f7bb dd0a 7d3d
00000230: cb01 163d 2b54 bbbb b803 65bd a528 03be
00000240: 067b 9e3c d79c 2bbe cbdb 3b3d 734b f3bc
00000250: e9f0 05be 6490 96bb b603 71bb dca0 1fbe
00000260: 5540 74bd 6778 bebd 522e 5e3d c293 ab3d
00000270: 7eb4 2d3e 9de3 febd 1a86 f03c 5cff 27be
00000280: 7b1f 423e 42cd 1dbc 821d 2c3e fcac 3fbd
00000290: cc45 87bd 5f08 f3bd 42a6 a93d 1d24 02be
000002a0: 0dd8 7cbc e372 f6bd 5e50 81bd ef76 a1bd
000002b0: 6c27 d43c 93be a4bd 293f 0a3e b0be 08bd
000002c0: 998f bebd 785f 00be 42dc 043e 54e4 a93d
000002d0: a59b 523d e663 b4bd 3be5 bf3d f315 7cbd
000002e0: 3c2a 36bd 97a1 d4bd 6f47 debd 47bb 8bbd
000002f0: 2d1f 23bd 2a9c b03c 6198 cb3d 0fc6 a3bd
00000300: b47b 233e ec38 4bbe cefb 62be 4b82 2dbe
00000310: d846 f03d badf 863d 4054 f03d 3664 b7bd
00000320: f574 0b3e df54 d43c 11fb ee3d 4c39 9a3a
00000330: 8c07 8e3c 3630 7bbd 4b9c ad3c 2321 153e
00000340: 07b4 9ebd 0216 eebc 3fb2 67be b081 81bd
00000350: 9ca9 913b 0804 d5bd 5648 1ebe 06e3 403d
00000360: d69b 1bbe 0fc7 f83c 6734 67be 2eaa f73d
00000370: 583a c5bd 5adb 13be 17ed 9b3d cdf9 90be
00000380: 836f 42be 2b63 e4bc f58a 45bc 6c25 05be
00000390: 99ab 15bd b028 8cbd fe85 4fbd 60bf dbbd
000003a0: 6a9f cc3c 5bcb a23d bf34 9b3d 732a 26bd
000003b0: 800b 9cbc c627 21be 6672 9d3e 0f66 afbd
000003c0: 87e4 edbd f615 4dbd 8c4a 48be 8980 b9bd
000003d0: 8a8c 9bbd b2b2 c83d add9 7ebd 9ef4 a6bc
000003e0: 301e 843a b887 423e 7ea6 393e d35f edbd
000003f0: 45cc 003d c6a0 8eb9 ffec 653d e124 93bd
0.08009086 -0.0073163547 -0.017928163 0.028617147 -0.05258537 0.08945276 0.22610858 0.18585168
-0.0898342 0.008025536 -0.10983157 -0.050843414 0.0379734 0.10040974 0.09164072 -0.09584192
0.3503959 -0.11255219 -0.052822515 0.07136611 0.09224849 -0.047446847 0.07900675 0.11419871
-0.18108107 0.26742917 -0.13340299 0.078071 0.17636628 -0.1007253 0.047557518 -0.210954
-0.14563556 -0.1745749 0.04719038 -0.06565166 -0.08544743 0.019377047 0.11641244 -0.051598843
0.08019875 -0.08010425 0.00885939 0.09204589 -0.12006744 -0.095560536 0.20314816 0.015231168
-0.1999274 0.12709346 -0.18499124 -0.060832556 -0.023034865 -0.022115327 0.02045249 -0.033823654
-0.039148167 -0.09151023 -0.22286873 -0.15029646 0.06017812 -0.082673796 0.16909935 -0.107164495
0.0002363306 0.10533274 -0.07905003 -0.026019577 -0.20056696 -0.054377202 -0.09868915 0.09774368
-0.07449879 -0.013680212 -0.11030413 -0.045035046 0.056902446 0.022794804 0.17167477 -0.15112865
-0.28864804 0.14641158 -0.029119644 -0.03210451 -0.044242114 0.1084725 -0.015875364 0.035255037
-0.09524301 -0.037088204 0.03845273 0.076706775 -0.1293974 0.013654051 -0.060190327 0.05950199
-0.02195228 0.007494627 0.018239528 0.16730402 0.08702374 0.10888724 -0.05404166 0.034290493
0.064589836 0.09318964 0.016851276 0.052826732 0.054217983 -0.18364754 -0.08414142 0.09597492
-0.10975784 0.008582149 0.0974923 -0.073063634 0.0064021503 -0.26961273 0.02764352 0.014249305
-0.084573396 -0.18499887 -0.16102387 -0.09812322 0.019423205 0.006942313 -0.07132467 0.118101195
0.108738475 0.13589695 0.17040932 -0.14134263 -0.083463505 0.12531815 -0.09808733 0.07118867
0.033956263 -0.008417671 -0.0075514535 0.06177794 0.036622804 -0.0057168207 -0.05591175 -0.12808473
0.019345772 -0.16759048 0.045863908 -0.029699063 -0.13080181 -0.0045948494 -0.0036775894 -0.15588707
-0.059631664 -0.09300309 0.054243393 0.08377792 0.16963384 -0.124457575 0.02936082 -0.16406006
0.18957321 -0.009631457 0.16808131 -0.04679583 -0.066051096 -0.11866831 0.08283664 -0.12709089
-0.01543237 -0.12033632 -0.06314157 -0.07884013 0.025897704 -0.08044162 0.13500656 -0.03338498
-0.09304733 -0.12536418 0.12974647 0.08295503 0.051417965 -0.088081166 0.09369894 -0.06154437
-0.04447387 -0.10382383 -0.108534686 -0.0682283 -0.039824653 0.02155884 0.09941173 -0.07996761
0.15965158 -0.19845933 -0.22166368 -0.16944234 0.117322624 0.06585641 0.117348194 -0.089546606
0.13618834 0.025919376 0.11668981 0.0011766343 0.017337583 -0.061325274 0.02119269 0.14563422
-0.07749181 -0.029063229 -0.22626589 -0.06323564 0.004445268 -0.104011595 -0.15457281 0.047091506
-0.15196165 0.030368356 -0.22578584 0.12093006 -0.09630269 -0.14439145 0.07613581 -0.28315583
-0.18987851 -0.027879318 -0.012057056 -0.13002557 -0.0365406 -0.06843698 -0.050664894 -0.10729861
0.024978358 0.07948943 0.0757842 -0.040567826 -0.019048452 -0.15737829 0.30751342 -0.08564388
-0.11615854 -0.05006977 -0.19559687 -0.09057719 -0.07595165 0.097997084 -0.06221931 -0.020380314
0.0010079797 0.18997085 0.18129918 -0.11590543 0.031444807 -0.00027204136 0.05613422 -0.071847685

network.2.conv.0.bias f4 [128]
00000000: 0ae5 42be 6e20 033d ac0d 12be 42b1 fe3d
00000010: 8659 23be bf5f 29be 6bff 1a3e 2518 283d
00000020: 0bf6 f9bc 485b ba3c b9f3 c53c 91b8 aa3d
00000030: 5dfd 343d addf 213e b485 0fbd 1034 8d3d
00000040: bda2 983d 328f a5bb d54d b0bd 8231 8cbe
00000050: b8a6 b7bd 15a5 9c3c 47e7 e6bb 734e a9bd
00000060: dd4b 5abd 6966 08be 4ca4 593b e376 b6bd
00000070: 69d2 17bd c8a2 aabc 5539 143e a45c 35be
00000080: c8ac 7dbd abc0 66be b029 e63b a847 113d
00000090: da72 ffbc f588 58be 71ba 0a3d 9c3e 27bd
000000a0: 8eeb c8bd 24a5 c53c 49ff 6f3d d27c d4bd
000000b0: f3dc f9bd 71ae a43d 97aa d53d 40dd f0bd
000000c0: 1aaf 47be 10a4 903d 0306 d3bc 3cae 5e3d
000000d0: 4288 70bd 311f 033e 5872 adbb 1f80 ed3d
000000e0: 65b3 243d 222e a2bc 1901 23be 0e8c 8ebe
000000f0: fd0a 8abe 33e3 983b 595a aabd cfcd 1a3e
00000100: e581 5a3d 1dca 343e 69e3 1ebe 4986 513e
00000110: b17c b5bc e5c4 113d c58b 6bbd 626b f4bd
00000120: d17f 4f3e 3474 493c 486f cf3d 0d1e 003d
00000130: cfe5 c5bd e518 ee3d fa90 043e da2f 863d
00000140: cf63 273c f495 35be b878 00bc d355 433e
00000150: 8b8f debc 6d2e 033d e602 01be d7e2 aa3d
00000160: ccde 1c3d 23d1 023e 012d 07bd 4b3c 58be
00000170: d27e 03be 36ce a9bd 213a 593d 9120 28bd
00000180: 7a79 febc 57e4 d9bd c803 fd3d 71cb e03d
00000190: 4170 f5bd fb29 c7bd 6281 203b 1916 e33d
000001a0: 6513 13bc e09d 8d3d d427 c6bd d691 4d3b
000001b0: 7897 5abe 4ff4 1ebe c188 51be a98e fb3c
000001c0: 0dc0 94bc 3cc1 1e3c 4a22 5abd 14bb f1bd
000001d0: 1fac 6dbe ee17 02be f840 a5bd a8b4 afbc
000001e0: 7d38 363c b65d 8dbe 67b8 e93a 0277 41be
000001f0: 5630 b4bd 7e30 52be 248d 083d 9d5d e3bc
-0.19032684 0.03201335 -0.14263028 0.12436153 -0.15952119 -0.1654043 0.15136497 0.04103865
-0.03051283 0.022748604 0.024164068 0.083359845 0.04418694 0.15807982 -0.03503962 0.06894696
0.07452915 -0.0050524706 -0.08608595 -0.2738152 -0.08967346 0.019121686 -0.0070466134 -0.08266916
-0.053295005 -0.13320316 0.00332095 -0.089093946 -0.037065897 -0.020829573 0.14474995 -0.17711121
-0.061932355 -0.22534434 0.0070240125 0.035468727 -0.031182695 -0.21145995 0.03386921 -0.040831193
-0.098105535 0.024126597 0.05859307 -0.1037537 -0.12200346 0.080410846 0.10432928 -0.1176095
-0.1950039 0.070625424 -0.025759703 0.05436538 -0.058723696 0.12804867 -0.005293172 0.11596703
0.040210146 -0.019797388 -0.15918387 -0.27841228 -0.26961508 0.004665756 -0.08318014 0.15117572
0.053346533 0.17655225 -0.15516438 0.20461382 -0.022154184 0.035588164 -0.05750634 -0.11934544
0.20263602 0.012295771 0.10128647 0.03127866 -0.09662973 0.11625842 0.12945929 0.06552096
0.010216667 -0.17732984 -0.007841282 0.19075708 -0.027168056 0.032026697 -0.12598762 0.083440475
0.038298413 0.12775092 -0.033001903 -0.2111675 -0.12841347 -0.08291285 0.05303395 -0.041046683
-0.031063784 -0.106392555 0.12354237 0.10976303 -0.11984301 -0.09724804 0.002449118 0.11088199
-0.008976792 0.06914878 -0.09675565 0.0031367443 -0.21346843 -0.15522884 -0.20462324 0.030707674
-0.018157983 0.009689625 -0.053255357 -0.118032604 -0.2321019 -0.12704441 -0.080690324 -0.021448448
0.011121866 -0.27610558 0.0017831445 -0.18893054 -0.08798282 -0.20526311 0.033337727 -0.0277546

network.3.weight f4 [2, 128]
00000000: 8e0b 71bd 71b3 013d d73b 00be 6d20 8b3d
00000010: d31d f53c 2c1c 23be 4b25 553e 6f50 63bd
00000020: f4b2 2f3d f027 3d3d f0b6 1d3b 0469 83bd
00000030: f6a2 9c3d c124 32bd 0b56 c83c 0ccf 8bbc
00000040: e60f 12be 1db9 09bb b6aa ecbd 9962 383e
00000050: 413d ce3c 1296 373a e3f1 213c f5f1 d5bd
00000060: e761 4a3e 81e5 acbd f131 233d e2b8 0f3d
00000070: 3304 57bc 3976 103e 92eb 273d 9e89 b23d
00000080: 49f2 f53d 7221 34be fb54 523d 3692 3c3e
00000090: 0f67 eb3c c0bd 80be 64c8 4cbe 1294 e7bd
000000a0: 1018 213e 770e c23d fc93 2f3d 7797 cfbc
000000b0: 4cdd e03d d0aa babd aaa1 f03d d585 6d3d
000000c0: e412 2abe 61e1 46bd 3d76 3d3d 443c a73d
000000d0: 4da7 c53d c526 6bbd 132e f3bc cbab 30be
000000e0: ff78 023d 3a13 a63a 27ac f23d 1683 2dbd
000000f0: e97c aebc 691a 153e 5ac8 0bbd 1e15 f6bd
00000100: a256 583e e58b f5bc cfc4 3b3e 691b 45be
00000110: bd0e 113d 0d36 143e 611f 07be 1d7a 023d
00000120: 1890 5f3d 6cef 14be 6e06 273c 7bf6 4b3e
00000130: 2d41 b7bd 7662 b7bc 0a5d 3abd b2d8 1e3d
00000140: ab3c 82bd 2b90 22bc 4090 013d b049 f5bc
00000150: a3b2 133e 4a48 793d 3e8a 793d 4366 2ebe
00000160: f4cd dfbb e7b8 f13d 541f 1d3d 9bc6 983d
00000170: 66b8 4dbe fd91 0bbe 197b 67bd 7ed6 253b
00000180: ade4 d7bb d974 9b3c 1c2c 55bd b205 69bc
00000190: 214d 233e 3599 fabc 5851 6c3e d05e 6f3b
000001a0: f75a 023e db9d 503e 5afd 323c 08ab 93bd
000001b0: c0c3 52bc 85a5 88bd 6c96 85bd 6728 bb3d
000001c0: a98b cb3d f845 1e3e 2c51 3e3e d33c 0bbe
000001d0: e077 2b3c c3bf 973d aad6 51bd 1bdb a93d
000001e0: f3e5 003e 693e 40be a8ed 7d3e 5fc1 9abd
000001f0: 19b8 413e 0030 37be ab10 86bc 9482 f93a
00000200: 6d3e 10be abcb a53d ca62 fc3c 5805 09be
00000210: 5946 b43d df30 51be 73e6 adbd b34e 99bc
00000220: e345 39bd 2d3b a23d 95e4 3a3d 4aea c1bd
00000230: f3a7 993d e8c7 e139 8998 c0bb a1c4 913c
00000240: e975 52bc 7978 ae3d d110 e6bd 6e15 f83d
00000250: 823a 02be 5d01 d33d 7b60 773c e645 cc3d
00000260: 81d0 213e 1c60 aa3d 93b3 f0bd 1533 d0bd
00000270: 385e 013e d4fb 303d 3d4c cf3c da8b b7bd
00000280: 3d86 c0bd 78b9 f73d a4ec 2b3e bc89 d9bd
00000290: 5809 963d e8c9 253d ae62 3d3d 1e75 e9bd
000002a0: 7c38 21be 6e4f 5f3d 0627 18bd ea84 94bc
000002b0: ca14 71bc 7b28 173e 7e78 803e 966f ecbc
000002c0: 7702 a9bd 3a8d 13be 0287 403d cdff 6b3d
000002d0: 87e2 e53d a4a2 393e 67b5 85bb 91ae 1d3e
000002e0: 3a07 973d 7366 8e3b b447 d33d 9709 2ebe
000002f0: a14c 11bd 1e90 0ebe 1623 903d 64e0 89be
00000300: a837 e7bd 4265 ce3d f224 133d 1a71 073d
00000310: 1e01 a63d 0f9d 9bbe 3a42 083e 0e29 7c3b
00000320: 4ab6 ca3d e4aa 2fbc 9ad0 b6bd a0bf aebd
00000330: 4dd8 ca3d 5c11 153e 7d66 2a3e 2c57 a7bd
00000340: d848 983e 1d13 76bc b41d 0e3c a7ff a93d
00000350: 6c22 09bb 2d82 93bd 3e4c 04be d9c0 b43c
00000360: dbce 13be 3f90 47be 49fe a83d 7956 383d
00000370: 0f7e 033d d394 0a3e 5147 1f3e 34d8 88bc
00000380: 9436 9f3d 75e9 3b3e b973 bb3d 561b 33bd
00000390: 9bcd 883d d3be 723d 3c96 c6bc 30cb 633d
000003a0: 9acc 3f3d 524b e5bd c93d 853e d6db 833d
000003b0: 0719 113d a3ba 893d b623 453d c9a4 58bd
000003c0: 0d24 dfbd 50c9 5dbe 8e04 833d ae88 0fbe
000003d0: 8771 64bc ee38 d43d 1de1 fa3d bba5 7f3d
000003e0: 2f88 b63d abcb e13d da3b 7fbe 4d58 0bbe
000003f0: 208d 28bc f898 03be a643 bbbc 6f28 083e
-0.05884891 0.03166527 -0.12522827 0.06793294 0.029921448 -0.15928715 0.20815007 -0.05549663
0.042895272 0.046180665 0.0024065338 -0.064165145 0.0764827 -0.043492083 0.024455091 -0.017066501
-0.14263877 -0.0021014877 -0.11555998 0.18006362 0.025175693 0.0007003258 0.00988433 -0.1044654
0.1976391 -0.08442212 0.03984255 0.035088427 -0.01312356 0.14107598 0.04099614 0.08717655
0.12009103 -0.17590883 0.051350575 0.1841515 0.028735666 -0.25144768 -0.19998318 -0.11307539
0.15731835 0.09475415 0.04286574 -0.025340779 0.10979709 -0.09114611 0.11749585 0.05798896
-0.16608769 -0.04855478 0.04625534 0.08165792 0.09651051 -0.05741002 -0.029685056 -0.17253034
0.031853672 0.0012670525 0.11849242 -0.04236134 -0.021299796 0.14560856 -0.034126617 -0.120157465
0.21126798 -0.029973933 0.18336795 -0.19248737 0.035414446 0.14473744 -0.13195564 0.031854738
0.054580778 -0.14544457 0.010194404 0.19918244 -0.08947978 -0.022385817 -0.045498885 0.038780876
-0.06359228 -0.009922068 0.03163171 -0.029942364 0.14423613 0.060859956 0.060922854 -0.17031197
-0.0068299714 0.118028454 0.038359955 0.07459756 -0.20089874 -0.13629909 -0.05651388 0.002530485
-0.0065885396 0.018976616 -0.05204402 -0.014222549 0.15947391 -0.030590633 0.23077905 0.0036525019
0.12730013 0.20372717 0.0109246615 -0.07210356 -0.012864053 -0.06672195 -0.06522831 0.091385655
0.099387474 0.15456378 0.18585652 -0.13597421 0.010465592 0.074096225 -0.05123011 0.08293744
0.12587719 -0.18773808 0.2479769 -0.07556414 0.18917884 -0.17889404 -0.01636537 0.0019036108
-0.14086314 0.08095487 0.030808825 -0.13380945 0.0880248 -0.20428799 -0.0849122 -0.018714285
-0.045232665 0.07921443 0.04562815 -0.09468515 0.07502737 0.00043064286 -0.0058775586 0.017793955
-0.012845495 0.08519072 -0.11233676 0.121134624 -0.12717631 0.103029944 0.015098686 0.099742696
0.15802194 0.08319113 -0.11753001 -0.10165993 0.12633598 0.043208912 0.025304908 -0.089622214
-0.09400604 0.12095922 0.1678949 -0.10621974 0.07326001 0.040475756 0.046236686 -0.113992915
-0.15744203 0.05451911 -0.03714659 -0.018129785 -0.014714429 0.14761536 0.25091928 -0.028861802
-0.08252423 -0.14409342 0.047003753 0.057616998 0.11224847 0.18128449 -0.0040804627 0.15398623
0.07374425 0.004345709 0.10316411 -0.16995846 -0.03547347 -0.13922164 0.07037942 -0.2692901
-0.112899125 0.10077907 0.035923906 0.033066846 0.08105682 -0.30393264 0.13306513 0.003847662
0.0989805 -0.010721896 -0.08926506 -0.08532643 0.09904537 0.14557403 0.16640659 -0.081709236
0.29743075 -0.015019205 0.008674074 0.08300715 -0.0020925058 -0.072025634 -0.12919709 0.022064613
-0.14434378 -0.1948862 0.08251626 0.04500434 0.03210264 0.13533334 0.15554549 -0.016704656
0.07774082 0.18350776 0.09152932 -0.04372724 0.06679841 0.059264015 -0.02424156 0.055613697
0.046825983 -0.11196007 0.260237 0.06438415 0.03542426 0.06725051 0.04812976 -0.052891526
-0.10895548 -0.21658826 0.06397353 -0.14016983 -0.013943083 0.10362421 0.12249968 0.062413912
0.08912694 0.11025175 -0.24925175 -0.13607903 -0.010287553 -0.12851322 -0.022859406 0.13296674

network.3.bias f4 [2]
00000000: c203 80bd 7363 713e
-0.06250717 0.23573093

encoder.0.conv.0.weight f4 [80, 150]
00000000: ff2d 9d3d aa83 20be b4ac f03d d1ac 353d
00000010: 6f68 a5bc f69c e73c 3992 063d e2c2 293d
00000020: 3a2e 1bbe 1d3a 2dbd 4dbf b8bc 9265 f93c
00000030: 4fdf adbc bd47 d53d 893a b33d 2976 02bd
00000040: f0b2 83bd c2cb 983d bcef 573d 9948 753c
00000050: afbc 07be bf8a 473d 6264 13be 34ba 2b3e
00000060: cb73 c93b 15c3 bbbd bdc8 24bd 212a 0dbc
00000070: c099 8b3d d7a4 ab3c 11e4 d7bd ab8a 92bc
00000080: 6f7d 5f3d 3de9 0fbc f6c7 d0bd 11a4 1ebd
00000090: 7520 a13d 010c 57bd c7b1 e9bd 5341 61bc
000000a0: 8d00 8a3c b14f 84bd 7044 2e3d 1a82 463d
000000b0: 638a 8cbd 4ee4 33bc c43b 1f3d 29d9 85bd
000000c0: 8f7f 72bd ddb3 8b3c c311 15bd 6f66 34bd
000000d0: ef94 15be 2483 523d b777 78bd 8970 c23d
000000e0: 2f1a ebbd d1b4 c13d d823 a2bd c6fa f1bd
000000f0: 5b88 0abe 7c5e 3e3d baf7 3bbd d081 2a3e
00000100: f629 1f3d 37f1 073d c41d 733d b03e aebd
00000110: 1e28 c7bd 5ed4 9c3d 8ca2 e4bc e5c4 81be
00000120: 402a a6bd da00 6abe 2901 783d 3583 273d
00000130: 7ec8 ecbc a6d1 02bd 0707 f23d 725a 1fbc
00000140: 9f61 2fbe bded febd efae 853d e2c8 d93d
00000150: 5551 b53d 17d9 3e3d ea1f 473e 2e35 94bd
00000160: eae0 193e 3e8f a3bd 38d6 4f3b 39cb 56bc
00000170: de98 6cbd b5ab f23d 21c5 1ebc 22fe 57be
00000180: a1b9 b7bd f894 b6bd 2c8b 1f3c b2cc 56be
00000190: e722 983d 3b0b 7c3c 5f2b 0a3e 0179 0fbe
000001a0: 53cb 573c 30c8 3dbd ee0f 373e 0eca 533c
000001b0: 276f 5ebd 2e47 e2bd a7be 663d 80a0 6f3e
000001c0: c447 5abc 4e20 bcbd 7ba4 1cbd 570e 7d3d
000001d0: ea17 79bd 8f37 72bb a074 8f3d 082a aebd
000001e0: 9dc3 d43d 61b4 3cbe c798 783e d48b 14be
000001f0: 6916 7e3e 4e79 65be 7df2 97bd 646b 3d3e
00000200: 28d8 e7bd 16e1 1ebe ff57 c2bd e537 a0bc
00000210: e590 663d 60ee 17bd 854a b4bd 28a3 8b3d
00000220: 1345 2d3d 1745 cfbc dd1a 28be a1f0 8d3d
00000230: 78b7 35bc e977 2abe e1cb 043e 8663 dabd
00000240: be88 2e3d 4c19 2fbd 8517 26be 757f de3d
00000250: 996d f13c 818f f43c e7a0 18bd b9af 9abd
00000260: 4da4 9e3d 2304 513e 8fee b2bd 3bb2 a63d
00000270: e961 41be 31a3 60bd a0cc 313d a707 943d
00000280: 8946 3f3e ba75 32be a419 8abd 6075 9f3d
00000290: 002c efbc f143 093d 4924 fabd c4d1 703d
000002a0: ffd1 a13d fc8f 313d 43a3 123e a847 203e
000002b0: e03a 85bd 5de8 d6bd 97e1 653c 54ab 203d
000002c0: e664 843d e5d6 be3d ac43 3a3e 947a 253e
000002d0: 64e5 40bd dd65 393c 3dfb 943d 3bf1 93bc
000002e0: 20ac d5bd 06a9 c53d ece5 2cbe 72c3 fcbd
000002f0: 2d3e 873d 9770 8fbd 5421 4dbe 1216 92bc
00000300: 9bbc acbc ab18 673d de69 e13d 9ffc 6ebd
00000310: ec75 6abc ba72 8e3d 49d2 fe3b 43d1 203d
00000320: 827b e63c 461b 3fbd a104 09bd 80c5 3bbc
00000330: 3f69 34be fd4c ed3d 9f78 90ba 751c 1a3e
00000340: d3ba 483e 9f34 853d 5271 36be 1f33 8bbc
00000350: 7762 f2bc 35f3 8cbc 2574 a3bd 94af ee3d
00000360: 6906 e63d 464d bf3d 3562 aabd 3ea5 c73d
00000370: 52bb d43b db57 6dbd 6f01 4b3d 4ef2 b13c
00000380: db39 ba3d d56b 183d 8473 a5bd 8185 14bd
00000390: 2962 bcbc 15a2 bcbd 28d7 8abd 49b3 06be
000003a0: 4cb4 813d 7442 99bc ff43 9ebd f8dd bb3c
000003b0: 1f78 af3c df82 193e 2526 473e 58e7 493e
000003c0: a677 933e 2854 cc3d de21 42bd 382c 133e
000003d0: 5240 f53d 0a45 193e 6938 85bd f2b2 d3bc
000003e0: b918 893d 34aa 743d c53a 723d 1cab 2bbe
000003f0: 7240 1abd 941b 30be 3cac 573e 2b9f f4bd
0.07674789 -0.15675226 0.117516905 0.044354264 -0.0201914 0.028273087 0.032854293 0.04144562
-0.15154353 -0.04229175 -0.022552157 0.03044394 -0.021224646 0.104140736 0.08751399 -0.031850968
-0.06430614 0.07460739 0.052718863 0.014970922 -0.13255571 0.048716303 -0.14393762 0.1677025
0.006147837 -0.09168068 -0.0402305 -0.008616001 0.06816435 0.020952625 -0.10541547 -0.017888388
0.054562982 -0.008783636 -0.101943895 -0.038730685 0.07867519 -0.052501682 -0.114108615 -0.013748485
0.016845966 -0.064605124 0.042545736 0.04846392 -0.06862333 -0.010979725 0.038875356 -0.06535561
-0.05920368 0.017053539 -0.036393892 -0.044043 -0.14607595 0.051394597 -0.060661044 0.09494121
-0.114796035 0.09458316 -0.07916993 -0.11815409 -0.13528578 0.046476826 -0.045890547 0.16651082
0.038858376 0.033189025 0.05935456 -0.085080504 -0.097244486 0.07657693 -0.02790954 -0.2534553
-0.08113527 -0.22851887 0.06054798 0.040896613 -0.028904196 -0.031938218 0.118177466 -0.009726154
-0.17127083 -0.12447689 0.065275066 0.106340185 0.088534035 0.04659375 0.19445768 -0.07236706
0.15027204 -0.07986306 0.0031713378 -0.0131099755 -0.057762973 0.11849157 -0.009690554 -0.21093038
-0.08970953 -0.08915132 0.009737771 -0.20976523 0.07428532 0.015383537 0.13493107 -0.14011003
0.013171035 -0.04633349 0.1787717 0.012926592 -0.054305222 -0.11048733 0.056334164 0.2340107
-0.013322774 -0.09185849 -0.0382428 0.061781254 -0.06081382 -0.0036959385 0.07004666 -0.085041106
0.10388873 -0.18428184 0.2427703 -0.14506465 0.24813236 -0.22409555 -0.07419298 0.18497998
-0.113205254 -0.15515551 -0.0948944 -0.019557903 0.056290526 -0.037092566 -0.08803276 0.06818229
0.042302202 -0.0253015 -0.16416498 0.06930662 -0.011091106 -0.16647305 0.12968399 -0.10663514
0.042610876 -0.042748734 -0.1621991 0.10864154 0.029471206 0.029853584 -0.037262823 -0.07553048
0.07746182 0.20411734 -0.08736908 0.081394635 -0.18885006 -0.05484313 0.043408036 0.07228022
0.18679251 -0.17427722 -0.06743172 0.077860594 -0.029195786 0.03351206 -0.12213952 0.058793798
0.07901382 0.043350205 0.14320092 0.15652335 -0.0650537 -0.104935385 0.014030836 0.03922589
0.06464557 0.09318332 0.18189877 0.16160041 -0.047093764 0.01131579 0.072744824 -0.018059364
-0.10433221 0.09651379 -0.16884583 -0.12341966 0.06603656 -0.07003897 -0.20032245 -0.01783279
-0.021086028 0.05642001 0.11006521 -0.058346387 -0.014310341 0.06955476 0.007776533 0.039262068
0.028135065 -0.04665687 -0.03345168 -0.011460662 -0.17618273 0.1158695 -0.0011022276 0.15049918
0.19602518 0.06504177 -0.17816666 -0.01699215 -0.029587967 -0.017205814 -0.07981137 0.116545826
0.112316914 0.093409106 -0.08319513 0.09748314 0.006492057 -0.057945114 0.049561914 0.021721985
0.09093066 0.03721221 -0.080786735 -0.03626013 -0.022996025 -0.09210602 -0.06779319 -0.1315433
0.06333217 -0.018708445 -0.07727813 0.022932991 0.021419583 0.1499133 0.19448145 0.19717157
0.28802222 0.09976989 -0.04739558 0.14372337 0.11975159 0.14967743 -0.065049 -0.025842164
0.066941686 0.05973263 0.05913808 -0.16764492 -0.037659116 -0.1719802 0.21061796 -0.119444214

encoder.0.conv.0.bias f4 [80]
00000000: b7e9 d9ba b53c 3f3d 6bcf 9a3d 5ae1 f7bd
00000010: 8293 d03d 25d8 203c 5265 c1bc b2f6 5b3e
00000020: 0b74 16be 8aa2 333c 8794 0dbc 16ad c83c
00000030: 98f7 0fbe abd5 fbbd f728 e73c eb8a 64be
00000040: 40d9 553d e99b 39bc 3339 4ebe 1b77 b13c
00000050: b57e 75bd abb8 0e3e ee7b 5a3e d878 02be
00000060: 5633 423e f17f 7b3d 065e 693c bf5a 393c
00000070: 2bcb a5bd 9121 10be 7399 043c b550 84bc
00000080: d8c1 91bd f7b3 c93c 42e8 ca3d 6c9a 96bd
00000090: 9799 ffbd 3b8d 57be 8bfd dd3d 0a93 ef3d
000000a0: d372 1fbc b874 4fbd 34b7 82bd 1eb1 613e
000000b0: 1023 863d 82c9 32bd b85d 273d ff32 00be
000000c0: 034f eb3d b825 233e 698d 593d 47e5 093e
000000d0: 6b99 f3bd fabc f03c c8ea a83c 7c7a 4c3d
000000e0: 634b a3bd 2f28 4a3e a617 4abc c893 633e
000000f0: 3eaa 183e 717d 6e3a 588e 1abd a1d5 c03b
00000100: 9d84 8fbd 0cc4 5f3e 1039 3b3d 43c6 f83d
00000110: 2396 383d c476 23be ee8f 08be c854 efbd
00000120: 8be9 573d 0040 3f3e 483f c3bd 4333 ab3d
00000130: a3b1 8a3d 9e7d c5bd cf86 8f3d 6c9e 293d
-0.0016625439 0.046688754 0.07559093 -0.12103529 0.10184385 0.009817158 -0.023607884 0.21480826
-0.14692704 0.010964045 -0.008641369 0.024496596 -0.14059293 -0.12296613 0.028217776 -0.22318618
0.05220914 -0.011328676 -0.20139007 0.02166324 -0.05993529 0.13937633 0.21336338 -0.1274141
0.18964896 0.06140131 0.014243608 0.011313139 -0.08095392 -0.14075305 0.008093226 -0.016151765
-0.07117051 0.024621947 0.09907581 -0.073536724 -0.12480467 -0.21049969 0.10839375 0.11697967
-0.009731966 -0.05064842 -0.063825995 0.22040221 0.065496564 -0.043649204 0.04086086 -0.12519453
0.1148968 0.15932357 0.053113375 0.13466369 -0.118944965 0.029386986 0.020619765 0.049921498
-0.07973363 0.19741891 -0.01233474 0.22224343 0.14908692 0.0009097672 -0.037733406 0.0058848416
-0.07007716 0.2185213 0.045708716 0.121471904 0.045065057 -0.15963274 -0.13336155 -0.116860926
0.05271296 0.18676758 -0.09533554 0.08359387 0.06772163 -0.096431 0.070081346 0.04141085
