exomy/config/best_run_no_obstacles405k/checkpoints/264000_policy.pt (torch, 723582 bytes, 13 tensors)

log_std_parameter f4 [2]
000000 1c 8d 95 bf 1c e4 21 bf
       -1.1683688 -0.6323869

network.0.conv.0.weight f4 [512, 5]
000000 59 85 6d 3e a2 58 6b be 9e 3c c2 3b cc b3 a6 bd
       0.231954 -0.2298303 0.0059276363 -0.08139762
000010 2b 01 2a 3e ae ca 19 3e 3e 00 ff 3d 60 dc 14 3e
       0.16602008 0.15018722 0.12451218 0.14537191
000020 1b 40 9e bd 47 4d 3c bc 63 02 fc bc c6 2f 7d bb
       -0.07727071 -0.011493034 -0.030762857 -0.0038633212
000030 80 50 04 ba ac 20 82 be 6b d7 6b 3d 7b fe 94 3b
       -0.0005047396 -0.25415552 0.057578485 0.004546938
000040 23 3e bd bd 6b 71 5d 3e 91 97 81 3d 26 2d 2e 3e
       -0.09240367 0.21625297 0.06327737 0.1700941
000050 71 a5 55 3d 66 b2 4a bc cd dc a8 3d 47 60 45 3e
       0.05215973 -0.012371635 0.082452394 0.19275008
000060 a9 d5 00 3e a9 9a 65 3e aa 16 bd 3e 8d 9a b1 3b
       0.12581505 0.2242228 0.36931354 0.005420035
000070 dd 1f 30 be b5 db e3 bc 71 33 9a be 01 da ae 3b
       -0.17199655 -0.027814725 -0.30117372 0.0053360467
000080 b7 af f3 3c 32 7c b1 bc c7 c3 78 bd 56 36 d2 3b
       0.029746873 -0.021665666 -0.060733583 0.0064151688
000090 40 24 09 bd 2a 53 46 3d cd be c2 3d 60 cc 96 bd
       -0.033481836 0.048419155 0.095090486 -0.073632
0000a0 d4 b8 fd 3c a3 62 ad be 7a 1a 14 bd 0f 5b 33 bd
       0.030971922 -0.33864316 -0.036158063 -0.043788012
0000b0 3c 90 a7 bc f0 5a 40 be 76 b7 bf bd 23 90 5c be
       -0.020454518 -0.1878469 -0.09361164 -0.21539359
0000c0 33 82 00 3d 5b c2 40 be 64 91 8b bc 48 c0 c4 3e
       0.031374168 -0.1882414 -0.017037101 0.3842795
0000d0 14 b3 98 3d 9c aa 2d 3e b9 9a 41 3b 4a 70 cb bc
       0.074560314 0.16959614 0.0029541685 -0.024833817
0000e0 ad 31 71 3e fb 58 01 bd a1 5f 0d 3e 3e 35 90 bd
       0.23554106 -0.031579 0.13806011 -0.07041405
0000f0 a5 0f 7f 3e 2e 46 b8 bd 4b 1d a4 3d 3e fb ff 3c
       0.24908312 -0.08997761 0.080134 0.031247731
000100 27 97 02 3e 8e eb 4a 3e bb dd 8c be cc 8a 15 3b
       0.12752973 0.1981642 -0.27512917 0.0022818325
000110 a4 04 48 3e 5f 97 03 3c 87 d6 0d be 1f 92 01 3d
       0.1953302 0.008031695 -0.13851367 0.031633493
000120 ff 92 9b 3d 68 a9 aa 3d 23 fd 1b 3e c5 51 3b be
       0.07596397 0.08333093 0.15233283 -0.18292911
000130 78 11 b4 3e 27 80 2b 3d c1 f4 20 3e 4e e2 07 bd
       0.35169578 0.041870262 0.15718366 -0.033174805
000140 39 28 2d 3e 43 d9 01 3f ca cb 52 3d d4 cb 18 be
       0.16909875 0.5072214 0.05146388 -0.14921504
000150 7b 76 17 3e 17 74 1e be c4 94 a6 3d f1 df 9e 3d
       0.1479129 -0.15473972 0.081338435 0.07757557
000160 16 e0 ea bd 03 47 46 3d e4 09 5d 3e cc 3f 4c 3e
       -0.11468522 0.048407566 0.21585804 0.19946212
000170 47 1b 9e bd 23 5f 1a 3c f3 a9 13 3d 23 5c c0 be
       -0.077200465 0.009422096 0.036050748 -0.37570295
000180 cc ae 92 be c6 5e bc bc 0a b6 53 3d 39 64 19 bd
       -0.28648984 -0.02299441 0.051687278 -0.037449095
000190 01 84 0e be da e5 cf 3d 16 fb e9 bd dd 5e 82 bc
       -0.13917543 0.101512626 -0.11424844 -0.015914375
0001a0 e5 cf 9f 3d fa 95 9a be 24 c9 74 3e e6 ca 5c bd
       0.078033246 -0.30192548 0.23904854 -0.053904437
0001b0 9d b4 86 be d7 fa 64 3e 5c a6 02 bd bd e9 9a bd
       -0.26309672 0.22361313 -0.031896934 -0.07564113
0001c0 9a bc 04 3d ef ab 40 3d f6 d9 10 bc 5b 2b 06 be
       0.032406427 0.04703897 -0.008841028 -0.13102476
0001d0 c6 f3 a8 3e 5e a5 a6 bb f8 83 e1 3b 8c 9d 2c bd
       0.32998484 -0.0050856313 0.006882187 -0.042142436
0001e0 2c f8 b0 3e 1d 3c 1a 3d 16 f4 e0 3d be 2d 95 bc
       0.3456434 0.037654985 0.10984056 -0.018210288
0001f0 db 35 eb bd 80 3c 30 be 93 a0 b5 be 53 66 0e bd
       -0.114848815 -0.17210579 -0.3547407 -0.034765553
000200 65 84 9a 3d 4d 96 89 bd bb fe b3 be b6 84 10 3d
       0.075447835 -0.06718121 -0.3515528 0.035282813
000210 94 c7 10 3e d2 6c 01 bd 37 bb 87 bc 11 ad b4 be
       0.14138633 -0.03159792 -0.016568763 -0.3528829
000220 e7 c2 cd 3e 2b 29 87 bd 0f 28 b4 bd 6f 47 90 bd
       0.4018776 -0.06599649 -0.08796703 -0.07044875
000230 4d 53 12 3e 2d 09 c1 3d b7 00 8c bb a9 5a 16 3e
       0.14289589 0.09425578 -0.004272546 0.14683022
000240 73 0d 74 bc 69 57 97 3c b4 c5 92 3e 04 8c a6 3d
       -0.014895785 0.018474298 0.2866646 0.081321746
000250 54 17 6d 3d e2 e6 1a bd fa 8e 15 be 0d c4 08 3e
       0.057883576 -0.037817843 -0.14605322 0.13356037
000260 96 43 f9 3c 3c 0f 1e be 63 ce 51 be ba 96 91 be
       0.030427735 -0.15435499 -0.20488887 -0.28435308
000270 75 60 5c be da 87 0e 3e f9 88 8c 3d 00 85 06 be
       -0.2152117 0.13919011 0.06862063 -0.13136673
000280 d8 72 7f be b3 88 22 be 29 3b 4e 3c 13 95 2e be
       -0.24946153 -0.15872459 0.012587347 -0.17049055
000290 36 f2 c6 3d a9 66 6b be 04 87 c2 3c 9d 56 99 3b
       0.09714167 -0.2298838 0.023746021 0.0046795146
0002a0 48 90 9b 3c c3 c8 ba bd 74 26 0f 3c a5 d3 d0 3e
       0.018989697 -0.091203235 0.008737195 0.40786472
0002b0 a1 e4 29 3d fd 43 f6 bc 7b 31 f6 bc dd a8 92 3e
       0.041477803 -0.030061716 -0.030052891 0.28644457
0002c0 b9 e0 61 3d 86 66 61 3d 70 e9 92 bd a7 cc 8e bd
       0.055145953 0.055029415 -0.07173431 -0.06972628
0002d0 af 68 84 be af 07 e1 3e 5e 37 55 bd d2 5f 05 be
       -0.25861117 0.43951175 -0.052054755 -0.13024834
0002e0 63 2a 61 3e e5 b4 af 3e 75 1a fc 3c b6 f4 6b bd
       0.21988826 0.343177 0.030774334 -0.05760642
0002f0 9f 9d 75 3d 86 7f 84 3c de cb d5 bd 17 ad 33 be
       0.059964772 0.01617409 -0.10439275 -0.17546497
000300 d2 5c 7f 3d 85 b4 e5 bc 7f 27 fe 3c 5b e0 42 bd
       0.06234438 -0.02804018 0.031024693 -0.047577243
000310 72 be 19 bf 6d c9 8c bd a7 d8 3b bd 23 aa 03 3e
       -0.6005622 -0.068743564 -0.045860913 0.12857871
000320 9a 93 fc 3b cb 4c 86 3e 14 60 19 3d 40 41 e4 3d
       0.007708025 0.26230463 0.037445143 0.11145258
000330 59 a1 b4 3c c9 4f 25 be e1 c2 8e be 51 e1 28 bc
       0.022049593 -0.16143717 -0.27883056 -0.010307626
000340 a0 18 ed bd 3e 77 9c bd fd 5c e9 bd 6b 4c 90 be
       -0.115769625 -0.07639931 -0.11394689 -0.28183302
000350 29 e3 2b bd 1f dc 20 bd b0 dc 52 be 38 b6 97 3e
       -0.041964684 -0.039272424 -0.20591998 0.2963121
000360 ab a3 dd 3e 72 d3 82 3b 0b fb 95 bd 68 54 e1 3d
       0.4328893 0.0039924914 -0.07323273 0.11002427
000370 1b c0 9e be 44 cb 97 bd c9 6e 0f 3e 44 ad b7 3d
       -0.3100594 -0.07411817 0.14007105 0.08968595
000380 10 9b 38 be d7 b8 9a 3d 9a bc a6 3d 76 cc c5 3c
       -0.18027902 0.07554787 0.08141442 0.024145346
000390 fe 21 91 bd be 71 a3 3d f9 0f af 3e ab 5f 63 be
       -0.070865616 0.07980679 0.34191874 -0.22204463
0003a0 e6 6e 81 bc e4 82 97 bd bd 74 fa bd f9 34 9b 3e
       -0.01579995 -0.07398012 -0.12229297 0.30313852
0003b0 2c e0 8b bd 4b c3 8b bc c8 db 82 bd 29 5d 99 3d
       -0.06829867 -0.017060896 -0.06389576 0.07488472
0003c0 d9 90 a4 bd 06 41 23 3e 0d b3 ca 3c d6 26 d8 bd
       -0.0803544 0.15942773 0.024743581 -0.10554282
0003d0 2b 44 84 bd 80 6b 92 be 54 2f a8 be 50 0b f6 3b
       -0.064583145 -0.2859764 -0.32848608 0.007508673
0003e0 33 a6 82 bd e3 c5 3a bd 16 d5 48 3e 32 17 ad 3e
       -0.06379356 -0.045598876 0.19612536 0.3380676
0003f0 96 88 fc 3d 34 58 3e be 97 83 63 be 0b 32 74 3e
       0.12330739 -0.18588334 -0.22218166 0.23847215

network.0.conv.0.bias f4 [512]
000000 5f 13 9e 3d a0 8d 31 be 4e b5 7e bd 0c bf b1 bc
       0.077185385 -0.17339182 -0.062184624 -0.021697544
000010 e0 5b 9f be 5b e3 85 3c e8 35 1d be cf c3 4b be
       -0.31124783 0.016343763 -0.15352595 -0.19898914
000020 6e 26 03 3e 11 43 05 bd 3f 66 63 bd 8d d3 01 3b
       0.12807629 -0.032534663 -0.05551743 0.0019809932
000030 52 20 cb bd 5a f2 1a 3d 94 ff 44 bd ec da b3 3d
       -0.09918274 0.03782878 -0.0480953 0.087819904
000040 3e 2c 68 bb 10 10 05 be ca 2a c3 3b 4f 70 8c 3d
       -0.003542676 -0.12994409 0.0059560286 0.06857359
000050 0c be 27 3e d1 f8 7a 3d 3e 22 2a be 28 7a 51 3d
       0.16381091 0.061272446 -0.16614625 0.051141888
000060 87 c2 1a 3e fb fe b4 3d 03 d9 8e 3c dc da 32 3d
       0.15113269 0.08837696 0.017437464 0.04366575
000070 14 4f 2d be ea 31 be bd 75 95 a1 3a a5 f4 d9 bd
       -0.16924697 -0.09286864 0.0012327867 -0.10642365
000080 2a ac 15 3e 5f b8 50 3c 73 fd 13 3d 56 42 94 b9
       0.14616457 0.01273927 0.03613038 -0.00028278184
000090 4d f4 df 3a 7d c2 a7 bc 7e 4b 8e bc 0e 76 40 3d
       0.0017086357 -0.020478481 -0.017369982 0.046987586
0000a0 b1 23 bd 3d c0 76 0b 3e d1 79 ce bd 45 0f c7 3c
       0.09235323 0.13619518 -0.100818284 0.024299273
0000b0 93 b7 22 be c3 e8 12 3e 46 4f af 3c ab c4 8e bd
       -0.1589034 0.14346604 0.021400105 -0.06971105
0000c0 42 cd 0e 3d d6 ef c1 3d bf 87 84 bd d8 e5 ce 3c
       0.034863718 0.09469573 -0.06471204 0.025256082
0000d0 73 36 59 3d 0b 49 08 3e eb 26 97 3d 11 4a 10 3e
       0.053030442 0.13309114 0.0738047 0.14090754
0000e0 98 0b bf 3b a7 3e 8a ba 78 0c 6e 3c 89 6f 39 be
       0.0058302395 -0.0010547236 0.01452934 -0.18108954
0000f0 25 b5 a8 3d 28 fa a1 3c 65 e5 39 3e b1 75 b9 3d
       0.082376756 0.019772604 0.18153913 0.09055651
000100 03 98 5f 3e e7 8d c8 bc e2 d8 8b 3d 26 54 88 3d
       0.21835332 -0.024481727 0.068284765 0.06656675
000110 6b 65 36 bd f0 00 d2 3d 12 35 b3 ba 82 71 31 3c
       -0.044530313 0.10254085 -0.0013672432 0.010830285
000120 0e ec 7b bd e0 c4 31 bd c7 77 bc bd 8b de e8 3b
       -0.061504416 -0.043400645 -0.09202533 0.0071066073
000130 69 50 1d be 76 19 03 bc 65 6f 80 bd 2e 1d 5f be
       -0.15362705 -0.008001676 -0.06271247 -0.21788475
000140 4e 33 b9 3d cf cd 65 3d c7 c7 4a bd c4 17 40 3e
       0.09042989 0.056104477 -0.04950693 0.18759066
000150 b3 b1 2c 3e 9c c9 27 3d 52 96 a1 3d e3 7a cf bc
       0.16864662 0.040963754 0.078899994 -0.025327152
000160 0e 96 d9 bb 56 b1 28 be dc 1d 9a 3c 06 1a fa bd
       -0.0066402024 -0.16473898 0.018813066 -0.12211995
000170 dd a1 4f 3d 3b f0 7f be f1 53 5f bd 46 7a c6 3d
       0.050691474 -0.24993984 -0.054523412 0.096912906
000180 41 25 03 3e e3 3d 03 3e de 95 2b bd 1a 88 5b bc
       0.1280718 0.12816577 -0.04189097 -0.013399148
000190 99 83 ba 3d be 44 83 3d 38 3f 06 3e f6 b6 23 be
       0.091071315 0.06409596 0.13110054 -0.15987763
0001a0 08 cc 34 3d 8b 9d 34 3d a1 ab af bd 43 37 c1 bc
       0.044139892 0.044095557 -0.085776575 -0.023585921
0001b0 74 19 91 bd 9e 75 b9 bd 69 2c 56 3c 50 91 ca 3c
       -0.07084933 -0.09055637 0.013072112 0.024727494
0001c0 63 ba 8e bd f2 9f de 3d 34 e5 dc 3c fb 0a 0c be
       -0.06969144 0.10870351 0.026964761 -0.13676064
0001d0 56 c2 af 3d c4 fd 4a bd 31 e7 eb 3c 72 08 2e 3d
       0.085819885 -0.049558416 0.028796764 0.042488523
0001e0 63 4e 95 bd 14 07 88 3b fa bf 8f 3d c9 43 17 bc
       -0.07290342 0.0041512344 0.070190385 -0.00923247
0001f0 f1 02 1c be b0 a0 17 be 6f 06 24 be aa 3d c4 3d
       -0.15235497 -0.14807391 -0.16018079 0.09582074
000200 5e 6c b0 bd b5 a2 d4 3d d6 98 73 3c d2 a1 e0 bd
       -0.086144194 0.103825964 0.014867982 -0.10968365
000210 1d 0c bd bc cd 53 21 3c db 7f 3f 3d 71 d6 ec 3c
       -0.023077065 0.00984664 0.04675279 0.028910847
000220 1f fd df 39 76 d5 23 ba 63 4e 95 3c ad a5 2e bc
       0.00042722464 -0.00062497647 0.018225854 -0.010659617
000230 d0 e5 3e be 45 fe 38 be 2a 18 9b 3d 75 bb b7 bd
       -0.18642354 -0.18065746 0.07572968 -0.089713015
000240 39 6f 25 bc d7 b5 bc ba 3f 5f 81 bd 07 9a dd bd
       -0.010097318 -0.0014397454 -0.06316995 -0.10820394
000250 cc 44 52 3d 2d 90 14 39 d4 10 b0 3b 28 19 80 bb
       0.05133514 0.0001416809 0.0053731 -0.003909249
000260 fb 1b 4e be d9 cd 80 bd ed b5 f5 bd f2 b6 d2 3d
       -0.20127861 -0.06289262 -0.1199759 0.102888
000270 dc a6 a5 ba 08 f3 83 3d 1a 3e 6f bd a2 c5 b2 bd
       -0.0012638229 0.06442839 -0.058408834 -0.08729102
000280 b0 b7 18 bd a5 34 b9 3c f3 b2 9e bd a1 13 48 3e
       -0.037284553 0.02260811 -0.077489756 0.19538738
000290 8c e2 88 bd c0 0f 0d 3b f5 c8 26 3d c3 0b 4e 3e
       -0.066838354 0.002152428 0.04071899 0.20121674
0002a0 25 0f ad 3c 71 81 70 be 8e d3 4d bd a2 96 26 be
       0.021125386 -0.23486878 -0.050250582 -0.162684
0002b0 2e 0c 57 3e 6f d2 43 be bd df b1 bd 1e f2 7e bd
       0.2100074 -0.19123243 -0.08685253 -0.06224262
0002c0 20 07 13 bc d5 05 ae bc 69 91 1e 3c 32 1b 10 bc
       -0.008973867 -0.021243015 0.009678223 -0.008795546
0002d0 af 98 c4 bc 95 ce cd 3d 61 8f b1 bd 28 3b 59 be
       -0.023998586 0.10049168 -0.086699255 -0.21213973
0002e0 d0 cc 1b be 53 8c 5a 3d 71 8f 2f bd 26 e9 2c be
       -0.15214849 0.05335648 -0.042861406 -0.16885814
0002f0 e5 9d f3 3d 7c 19 27 be c7 8d be 3d d3 50 e9 bd
       0.1189535 -0.16318315 0.09304386 -0.11392369
000300 aa f1 16 be 3b b9 1b be 1e 4a 66 bd 74 10 1c 3e
       -0.14740625 -0.15207379 -0.056223027 0.15240651
000310 63 d2 0e be f8 0d 54 3d 3d 4c b2 3b 84 52 35 bd
       -0.13947444 0.051771134 0.005441217 -0.044268146
000320 a6 bf 39 3d 11 df 7f be 5d e7 24 3b fa 33 e7 bc
       0.045348786 -0.24987437 0.0025162317 -0.028223027
000330 19 0b 44 bc 78 d1 1c 3d 4f 76 7a 3d c3 bd dc bd
       -0.0119655365 0.038285702 0.061147984 -0.10778382
000340 84 54 07 be 24 0c db bd ab 78 84 be 8f 1a 39 be
       -0.13215834 -0.10695675 -0.25873312 -0.18076538
000350 e0 33 5f bd 76 24 58 bd 4a 7b 8a 3d 48 1a ed 3d
       -0.05449283 -0.052769147 0.06761797 0.115772784
000360 0f 3c 01 3e 14 25 c7 3d ea 59 6f 3d 5a da ed bd
       0.12620567 0.09723869 0.058435358 -0.11613913
000370 2f 74 1e bd db fc 39 bd 19 d1 2e be f8 a6 6d be
       -0.03868502 -0.045407157 -0.17071952 -0.23208225
000380 a1 92 32 be 5a 66 5b 3d d0 88 17 bd 38 62 c4 bd
       -0.17438747 0.053564407 -0.03699571 -0.09589046
000390 78 7b 1c be e1 f0 65 3d 08 5a 27 be e0 5d 94 3c
       -0.15281475 0.056137923 -0.16342938 0.01811117
0003a0 16 6e 53 be 93 da ee 3d 6e e7 25 be aa c2 42 be
       -0.20647463 0.116627835 -0.16201565 -0.19019571
0003b0 94 c0 d6 3d ee 20 00 bc 84 62 03 be 78 3c 20 3d
       0.1048595 -0.007820351 -0.1283055 0.039120167
0003c0 92 51 ed 3c 88 48 b1 3d 7c 56 27 be ff ff 48 bc
       0.02896956 0.08656412 -0.16341585 -0.0122680655
0003d0 6b 31 f5 3c 79 a5 68 bc de 3d 12 3d 74 bb 3c 3d
       0.02993079 -0.014199608 0.035703532 0.046077207
0003e0 c9 5f 1a 3d 17 54 21 be 9f 02 a6 3b bf a8 bd bd
       0.037689004 -0.15754734 0.0050662304 -0.092607014
0003f0 0f f5 c8 ba 26 f1 60 bb 77 34 fe bd 82 cb f7 bd
       -0.0015331822 -0.0034323423 -0.124123506 -0.12099363

network.1.conv.0.weight f4 [256, 512]
000000 88 7c 4f 3d 2f 2c 42 be 12 9b 78 bd 1e 91 bf 3c
       0.05065587 -0.18962167 -0.06069476 0.023384627
000010 fb 51 e3 ba 51 ff 94 bd 47 27 00 be e5 0d 37 bd
       -0.0017343158 -0.0727526 -0.12514983 -0.044690985
000020 00 f3 f8 3b 53 56 ac bd 9c 73 39 be 4b 9b 8a 3d
       0.007597327 -0.084149025 -0.18110508 0.06767901
000030 c9 d3 06 3e e8 29 10 bd 6f a6 d5 bd e2 fa b1 3e
       0.13166727 -0.035196215 -0.10432135 0.3476172
000040 47 a5 6a be c4 44 bf 3c bc fe e1 3c b5 b6 48 3e
       -0.22914611 0.02334822 0.027587287 0.19600947
000050 29 08 f2 3d d0 13 8f 3e 31 ee cb 3d 58 18 bc 3c
       0.11817963 0.27944803 0.09957541 0.022960827
000060 65 e6 28 3e 16 a8 52 bd ff dc 42 3e 22 f8 0b 3e
       0.16494139 -0.05142983 0.19029616 0.13668874
000070 9e 16 f9 bd 0c 5e 17 bd 8c 33 1a be 13 c1 db bc
       -0.12162517 -0.036954924 -0.15058726 -0.026825463
000080 d5 14 fd 3d 0d 9e e9 3c 1f 5e b8 3c b0 a1 6a 3d
       0.12357489 0.028517747 0.022505818 0.057283103
000090 43 61 88 bd 85 82 52 be c4 ec 0e bd 8d f6 62 be
       -0.06659176 -0.20557602 -0.034893766 -0.22164364
0000a0 b3 a1 09 3d 73 98 99 3e 91 26 4c 3d fc 03 a8 be
       0.033601474 0.29999122 0.049841467 -0.3281554
0000b0 7d 9b bc 3d df 1e 44 bd 68 3e a3 bd 66 80 00 be
       0.092093445 -0.047881003 -0.079708874 -0.1254898
0000c0 59 42 24 3d c2 47 17 3c 93 89 a0 3c e2 ea 65 bd
       0.040102337 0.009233417 0.01959685 -0.056132205
0000d0 c9 2a 14 3e 8c b3 9b 3d a4 51 97 3e b9 23 10 bd
       0.14469446 0.07602605 0.29554474 -0.035190318
0000e0 0f 4b 92 be b1 68 5c be 92 99 2e be 0a d5 96 be
       -0.2857289 -0.21524312 -0.1705077 -0.2945941
0000f0 54 41 0e bd eb d2 03 3e 7d 02 52 bc 08 2e e3 bc
       -0.03473027 0.12873428 -0.012817976 -0.02773191
000100 88 dd d5 3c 27 7d 8a be 27 90 0f bd e9 0c 59 3d
       0.02610661 -0.2704861 -0.035049584 0.052990828
000110 50 78 84 bd 13 6a 01 3d 6f 2d d9 3d 48 72 f3 bc
       -0.0646826 0.0315953 0.10604369 -0.02971758
000120 bd fc 40 3d 6b 59 8d 3e 74 96 f6 3b e5 53 4e be
       0.04711603 0.27607283 0.0075252596 -0.2014919
000130 58 3c 40 be 13 53 48 3c d2 8f bf 3d 57 7b 04 3e
       -0.1877302 0.012226838 0.093536034 0.12937675
000140 76 6b a1 3c cb b1 c6 bd 53 a9 5f be 79 65 0d 3e
       0.019704562 -0.0970188 -0.21841936 0.1380824
000150 e5 c6 e3 bd 28 a6 d7 3d 44 6f 68 be 4e e0 78 bd
       -0.111219205 0.10529739 -0.22698694 -0.06076079
000160 ea 9f 2b 3e 0a 04 8e 3e 4a be 65 3e 3e 4d a3 3d
       0.16760221 0.27737457 0.22435871 0.07973717
000170 b6 94 ae 3e 94 e3 3f be 80 ba 46 3d aa 0b 97 3c
       0.34097832 -0.18739158 0.048517704 0.018438179
000180 f9 2d 88 bd 02 64 17 3e f4 11 1e bd e8 33 2f be
       -0.066493936 0.14784244 -0.03859134 -0.17109644
000190 17 5a f6 3d 86 a7 6a bb bb ab a9 3d 54 0f df bd
       0.12028902 -0.0035805418 0.08284708 -0.108915955
0001a0 50 c1 6c 3e da e2 af bc 6d 0c 06 be 58 a8 7c 3c
       0.23120618 -0.021470476 -0.13090678 0.015420996
0001b0 db f4 6c 3e 1e 1b e2 3d f6 2e 60 3e d3 3f 52 3d
       0.2314028 0.110403284 0.21892914 0.0513304
0001c0 b9 d3 73 3c 6e 3c f5 3d be f6 7d 3e 6c 1d b9 bd
       0.014882022 0.11974417 0.24801156 -0.09038815
0001d0 4a aa c0 3d ca 4b 1e be 58 86 a5 bd cc d0 4c 3d
       0.0940748 -0.15458599 -0.08082265 0.05000381
0001e0 4a 63 57 bd 7f 7e 76 3e 19 53 c4 bd 2d 75 d5 bc
       -0.052584924 0.24071692 -0.09586162 -0.02605685
0001f0 d6 67 ed bd ee bd 95 be eb 2a 9e be 96 f2 8e 3c
       -0.11592071 -0.29246467 -0.3089212 0.017449658
000200 d5 75 8c 3c 3b 03 f9 b9 b5 08 55 3e b0 a0 51 bc
       0.01714603 -0.00047495388 0.20804103 -0.012794659
000210 87 d0 ae bc b1 37 8b bc 20 25 da bd bf b5 58 3d
       -0.021339668 -0.01699433 -0.10651612 0.0529077
000220 99 12 54 3d b8 6c 80 3d f3 6c e1 3c 25 c6 9b 3c
       0.05177555 0.062707365 0.027517771 0.019015381
000230 ad 5c 72 3b 30 ee d2 3c d5 12 5c be 0a af c6 3d
       0.0036981509 0.025748342 -0.21491559 0.09701355
000240 ba f0 8e 3d 8a 4d d9 bd 06 fe cc bd 20 8d 35 bd
       0.06979509 -0.106104925 -0.100093886 -0.04432404
000250 b2 8b 31 3e d7 9f 41 bd 45 a6 61 b9 ae 3c 64 bb
       0.17338446 -0.047271576 -0.00021519612 -0.0034826207
000260 db ce 73 3d 2e 51 19 3e 8d 58 7d 3b e3 e8 32 3d
       0.059523445 0.14972374 0.0038657517 0.04367913
000270 26 f4 3e 3e 13 6f d4 3d d2 2d 0e be 0b 0b 85 3c
       0.18647823 0.10372748 -0.13884667 0.016240617
000280 8e 3c 88 bc 6b 11 35 3c 9e bd de 3c 93 77 90 3d
       -0.016630437 0.011051516 0.027190026 0.07054057
000290 db 65 08 be 03 f8 2f 3e 26 ef c5 3d 8b 23 f7 3d
       -0.13320105 0.17184453 0.096647546 0.12067326
0002a0 d0 53 91 bc 14 26 78 bd 33 6e ae bb ad a1 ff bd
       -0.01774016 -0.06058319 -0.0053231954 -0.12482009
0002b0 c6 18 2a 3e e1 4e 3a bd ba 1b 89 3d 27 13 1a be
       0.16611013 -0.04548538 0.066947415 -0.15046369
0002c0 dd c3 61 bd 7a 78 21 3e eb b1 c7 3d 08 d4 d4 3a
       -0.05511843 0.15768614 0.09750732 0.0016237507
0002d0 e4 7e e5 bd 83 75 c5 bb ee 5e 55 3d e4 2d eb bd
       -0.11205843 -0.0060259714 0.052092485 -0.11483362
0002e0 ee 0f 38 be 1a a7 d7 3d 5b f3 90 3d 00 3f 6d bd
       -0.17974827 0.10529919 0.07077666 -0.05792141
0002f0 cd 95 17 ba c9 1c 9a 3d b0 37 83 3d ab ac 4a be
       -0.0005782515 0.075250216 0.06407106 -0.1979243
000300 e6 52 56 be 86 a1 41 3d a5 00 73 3d 58 85 0f 3d
       -0.2093006 0.04727318 0.059326787 0.035039276
000310 51 d5 f8 3d 6b 18 fa bc 35 f2 02 3e 2d ff 7d bd
       0.12150062 -0.030529222 0.12787707 -0.062010933
000320 bd d7 1d bd ed f2 0b be 2a ab 85 3a b2 36 92 bd
       -0.038535822 -0.13666888 0.0010198106 -0.071393386
000330 d2 3c 6d 3d 28 0c d2 3d cd 4d 2f 3e 8a 30 e3 be
       0.05791933 0.10256225 0.17119522 -0.4437297
000340 de cf 97 3c 54 fe 80 be 22 49 a3 3b 49 d0 a8 bd
       0.018531736 -0.25194037 0.0049830833 -0.08242852
000350 af 0e a6 3d 4c be c7 3c 70 2f 9d bc 17 4a 76 3d
       0.081082694 0.024382733 -0.019187659 0.06012925
000360 e0 1f ab 3d 37 3f 18 3e be df a1 3d 4c 52 eb 3c
       0.08355689 0.14867865 0.079040036 0.028725766
000370 aa 8f 8a 3d b9 08 75 3c 18 83 ec bd b0 df ca 3c
       0.06765683 0.014955693 -0.11548442 0.024764866
000380 aa cb 10 be df 0c 8b 3c de d2 74 3d a9 bc 52 be
       -0.14140192 0.01697391 0.05977141 -0.2057978
000390 e6 07 48 be 17 f2 eb bd b8 b8 8e bc 89 88 c6 3d
       -0.19534263 -0.11520784 -0.017422065 0.09694011
0003a0 b7 b0 06 bd 78 94 b8 3c b5 ad e6 bc 01 6b a1 bc
       -0.032883372 0.022531733 -0.028159002 -0.019704344
0003b0 d2 0c bb 3c 29 92 cd 3c 5a a8 e3 bd f9 08 05 3d
       0.022833262 0.025094109 -0.11116095 0.03247926
0003c0 a8 67 26 3d 8e 02 0d 3e 43 d0 c6 bd 1c 52 95 3d
       0.040626198 0.13770506 -0.097076915 0.07291052
0003d0 38 31 51 bd 85 27 f4 bd 85 be 64 3d 5a 32 d3 bd
       -0.05107233 -0.119216 0.055845756 -0.10312338
0003e0 26 f3 ce bc 4c bc a1 be d3 ed 61 3d bc 1d 00 be
       -0.025262427 -0.31588972 0.055158447 -0.12511343
0003f0 e6 aa 5a 3e ca 1a 09 be 05 3e 84 bd 14 8f 39 3d
       0.21354255 -0.13389125 -0.06457142 0.045302466

network.1.conv.0.bias f4 [256]
000000 e0 c5 19 bd d9 33 93 3a 82 10 24 3d d4 d7 59 3c
       -0.037542224 0.0011230662 0.040054806 0.013296086
000010 ec 9c f7 bb 10 18 97 3d 40 c8 41 3d b0 a7 6f 3d
       -0.0075565483 0.073776364 0.047310114 0.05850953
000020 30 2d 72 bd 48 e8 77 3d f3 7e 6f bc f9 60 25 be
       -0.059125125 0.060524255 -0.014617669 -0.16150273
000030 c7 1b ac 3d 00 a2 d1 bd 07 96 bc bd 6c 58 ce bd
       0.084037356 -0.10235977 -0.09208303 -0.10075459
000040 d2 97 59 bd 49 9c 5d ba d0 f7 99 3c d2 87 3a be
       -0.053123303 -0.0008453769 0.018794924 -0.18215874
000050 7f 9a b1 bd 77 f9 58 3e c1 d1 81 bd 10 c0 19 bd
       -0.08672046 0.21188913 -0.063388355 -0.03753668
000060 0f fb 95 bd cd f8 f9 3b 87 19 2e be d4 95 c4 3c
       -0.07323276 0.0076285363 -0.17001925 0.023997225
000070 41 02 12 be 42 6a 78 bb 92 ea 09 be cb ca 7c 3c
       -0.14258672 -0.0037905131 -0.13468388 0.015429209
000080 52 66 af bd be a7 65 be c0 39 59 3e b2 a1 b8 bd
       -0.08564438 -0.2242727 0.21213436 -0.09015216
000090 6e a7 4c be 7f 7c ab 3b 47 dd cc 3b 40 6b 34 bd
       -0.19985744 0.005233347 0.0062519643 -0.044047594
0000a0 70 84 de bd 01 63 0d be 28 76 5c be db fb 93 3d
       -0.10865104 -0.13807298 -0.21529448 0.07225772
0000b0 92 89 b9 3c 24 a3 0e 3d d6 c2 e2 bd 45 1c 5a 3b
       0.022648606 0.03482355 -0.11072318 0.003328101
0000c0 5d 03 5b bd 9e e7 7b 3d 25 bb 53 bd a4 31 c3 3d
       -0.053470004 0.061500184 -0.051692147 0.095309526
0000d0 b6 5e 55 bd 12 fb 6f bc fe a8 8c bd 79 ac 93 3c
       -0.052092277 -0.014647262 -0.0686817 0.018026577
0000e0 c0 6c 6a 3d 8c f2 39 3d 5b 3a d7 3c 62 59 23 3e
       0.05723262 0.045397326 0.026272943 0.15952066
0000f0 4f a0 0d be 67 64 8a bd dd c4 5f bc 8c 41 f4 3c
       -0.13830684 -0.067574315 -0.013657776 0.029816411
000100 cb 5f bc 3c f7 05 06 3d 2c 22 15 3e 50 98 44 bd
       0.022994896 0.032720532 0.14563817 -0.04799682
000110 c2 91 c2 bc 3a 9b 88 bd 86 ae 0b bc 07 0a b4 bd
       -0.023751143 -0.06670232 -0.008525496 -0.08790975
000120 2b 52 b5 3d 1a b9 b5 bd 84 1d 04 be ba e5 19 bb
       0.08853563 -0.08873196 -0.12901884 -0.0023482875
000130 b2 69 94 3c aa 4d f9 3c 3d a7 97 bb 3e 89 59 3e
       0.018116806 0.03043254 -0.0046280907 0.2124376
000140 f4 6f e5 bd 1b 5c 18 3d 8d 4c 1d be 30 c3 9f 3d
       -0.11202994 0.037197214 -0.15361233 0.07800901
000150 1b 5f 34 be 88 92 89 bd 7d c4 75 bd f8 9a 0e bd
       -0.17614405 -0.06717402 -0.06000184 -0.03481576
000160 a0 93 a6 3d a4 8c 3b bb a9 3d 28 39 29 99 13 3e
       0.08133626 -0.0028617764 0.00016044699 0.14413895
000170 23 fb e0 3d 30 b0 07 3e 87 b6 38 bc 56 30 05 bc
       0.109854005 0.13250804 -0.011273987 -0.0081292
000180 37 08 38 be 8f 41 06 bd dc 16 13 bd c9 4e a3 3e
       -0.17971884 -0.032777365 -0.035910472 0.31896046
000190 38 64 29 3d 84 58 80 bd 95 7b 93 3d 04 79 35 be
       0.04135534 -0.06266883 0.07201306 -0.17721945
0001a0 67 33 57 be 76 aa 6b bd f8 dd f3 3d c9 e5 30 be
       -0.21015702 -0.05753561 0.119075716 -0.17275156
0001b0 e3 b8 10 3d 8a 9f ea bb 98 4e 0c 3e eb 9b 30 be
       0.03533257 -0.007160132 0.13701856 -0.17246978
0001c0 ba 33 98 3d cf 1a d7 3d e3 b5 e6 bd c8 3a e0 3d
       0.07431741 0.1050316 -0.11265161 0.10948712
0001d0 d8 d2 77 3d 31 19 16 bd c9 6a 10 bd 05 ee 0c 3e
       0.06050381 -0.03664512 -0.03525809 0.13762672
0001e0 07 bb 69 3c 30 08 e9 bc 4f 27 f6 3d 40 a2 e3 3d
       0.014265782 -0.028446287 0.12019216 0.11114931
0001f0 87 c1 d5 bd 6a 26 33 bd 91 05 06 3e 26 0b 73 be
       -0.10437303 -0.043737806 0.13088061 -0.23734722
000200 36 fa 1f bd e7 e3 a2 bd a8 1a 2a be cc 32 25 3d
       -0.03905698 -0.07953625 -0.16611731 0.040331647
000210 72 ec 62 bd 0c fa 2f 3c 3f 4b 37 3c d8 45 5f bc
       -0.055401273 0.010740768 0.011187374 -0.013627492
000220 17 48 2a 3d a8 b7 7c bc b2 b4 74 bd 4b ca 46 bc
       0.041572656 -0.015424646 -0.059742637 -0.012133191
000230 2f 8e 8b bc c3 b5 31 3d bb 18 c1 bc 51 b2 aa 3c
       -0.017035572 0.043386232 -0.023571363 0.020836981
000240 13 2f b2 3d 82 f4 b3 3b b4 61 13 be ce a6 c0 3d
       0.08700385 0.005491794 -0.1439274 0.094068155
000250 5d 99 08 3e ee 89 aa bd da 39 44 bd fa 3b ef bd
       0.13339753 -0.08327089 -0.047906734 -0.116813615
000260 f3 c0 f3 3d f8 1a 9a 3e 8a 8e 5e 3d 8a a9 90 bd
       0.119020365 0.300987 0.054335155 -0.07063587
000270 a2 e6 d0 3a a0 5a 6e 3d 78 6b a2 3c d4 a3 bc bc
       0.0015937875 0.058191895 0.019826636 -0.023027338
000280 6c 2d 50 bb a7 ec 9e bd 2f be cb 3c e8 4e 3d 3e
       -0.0031765355 -0.077599816 0.02487096 0.18487132
000290 d0 e7 c3 bc 4f c6 02 3e a0 9f b1 bb bc 92 0c bc
       -0.023914248 0.12770961 -0.00542064 -0.008579906
0002a0 5d f0 a5 3d 22 f2 e3 3d f6 e9 9d 3d 5f 8c f8 bd
       0.08102486 0.111301675 0.0771064 -0.12136149
0002b0 92 9e 39 3c 05 e5 40 be d0 01 37 3d 03 c7 1d be
       0.01132931 -0.18837364 0.044679463 -0.15407948
0002c0 39 cd 14 bd 39 93 bb bd 98 c4 8a bc 65 b2 4a 3d
       -0.036328528 -0.0915894 -0.016939446 0.049486537
0002d0 29 13 4b bb 74 e0 b1 bc 65 26 30 3d 9b 70 01 be
       -0.0030986762 -0.021713473 0.043005366 -0.12640612
0002e0 1c 47 88 bc fa 80 a7 bd 04 67 3f 3d f3 fe 73 be
       -0.01663547 -0.08178897 0.046729103 -0.23827724
0002f0 3b 4d 68 bd 9e b3 04 3e e6 79 ca bd 04 69 04 3c
       -0.056714278 0.12959144 -0.098865315 0.008081678
000300 4c a6 51 bd 5c cf fe bd 80 2a 20 be 93 f2 9b 3d
       -0.051183984 -0.124418944 -0.15641212 0.07614627
000310 f1 9a d2 bd d8 83 96 3d 04 d2 da 3d 61 25 bb bd
       -0.10283459 0.07349366 0.106845886 -0.09137989
000320 d6 bc b6 bd c4 79 e1 3d 40 e1 1b be 66 96 18 3e
       -0.08922736 0.11009553 -0.15222645 0.14901122
000330 39 71 11 bd 82 e9 92 bc 87 7d 41 be e8 ae 03 be
       -0.03550837 -0.01793361 -0.18895541 -0.1285969
000340 74 68 d9 bc a5 2d fa 3b bd b8 a0 3b e7 91 78 bc
       -0.026539065 0.007634836 0.004904835 -0.015171505
000350 a2 a0 22 be 11 f7 1b bb da da bd 3d a3 60 ce 3d
       -0.15881589 -0.0023798386 0.09270258 0.10077026
000360 33 68 08 be 2a 6e ee 3c 4f 1e 5b be 04 36 3e bd
       -0.13320999 0.029105265 -0.2139828 -0.046438232
000370 63 7e 99 3b 7a 62 d7 bd 6f 71 55 be f9 1b bd bd
       0.004684256 -0.1051683 -0.20844053 -0.09233851
000380 7b b5 09 3c 17 ec 9e 3c 43 ba 34 3d 6b af 01 be
       0.008405085 0.019399686 0.044122946 -0.12664573
000390 11 f8 57 3d 87 bf 33 3e f3 ea 0b 3e b3 c7 34 be
       0.05272681 0.1755353 0.13663845 -0.17654304
0003a0 a1 02 40 bd e5 d3 15 3e 22 29 8c bd fa 39 a9 bc
       -0.046877507 0.14631613 -0.06843783 -0.020657528
0003b0 01 78 c0 bc 8e df 4a 3d 3c e7 74 bd e7 3e 42 3e
       -0.023494722 0.049529605 -0.059790835 0.18969308
0003c0 a9 82 0d be f6 c9 48 3d 04 7f ef bd fd 0c a1 3c
       -0.13819374 0.04902073 -0.11694148 0.019659514
0003d0 31 9d 5d 3e 23 79 32 3d ec cf 4f 3d be 7d 93 3a
       0.21641995 0.043572556 0.0507354 0.0011252684
0003e0 c5 ee b0 bd 43 fa b1 bc 6b c2 83 be e1 9f 4c bc
       -0.08639292 -0.02172578 -0.25734267 -0.01248929
0003f0 72 12 79 3d 50 92 e9 3d 2d ab a4 bd ab e7 c2 bd
       0.060808606 0.1140486 -0.08040462 -0.095168434

network.2.conv.0.weight f4 [128, 256]
000000 df 43 84 3d 08 be ef bb 15 de 92 bc 82 6e ea 3c
       0.06458258 -0.0073163547 -0.017928163 0.028617147
000010 c2 63 57 bd 02 33 b7 3d 02 89 67 3e 20 16 4b 3e
       -0.05258537 0.08945276 0.22610858 0.19832659
000020 95 d2 93 bd 3a 7e ce 3c 60 ef e0 bd 2f 41 50 bd
       -0.072179 0.025206674 -0.10983157 -0.050843414
000030 63 af 31 3d 9f a3 cd 3d 21 ae bb 3d c5 48 c4 bd
       0.043380152 0.10040974 0.09164072 -0.09584192
000040 7c 69 ba 3e c3 81 e6 bd 6c 5c 58 bd 73 43 a4 3d
       0.36408603 -0.11255219 -0.052822515 0.080206774
000050 c7 ec bc 3d 25 8b 09 bd 85 cc b8 3d 03 e1 e9 3d
       0.09224849 -0.033579964 0.09023384 0.11419871
000060 a5 17 42 be 7a ec 88 3e cb 9a 08 be b0 e3 9f 3d
       -0.18954332 0.26742917 -0.13340299 0.078071
000070 5d 99 34 3e 36 27 99 bd ac cb 42 3d 53 04 58 be
       0.17636628 -0.07478182 0.047557518 -0.210954
000080 7d 21 15 be bb 3a 1e be ba fa 7b 3d b2 48 8c bd
       -0.14563556 -0.15452091 0.06151841 -0.06849803
000090 f0 ea 9c bd 03 38 0a 3c a5 69 ee 3d 4f 59 53 bd
       -0.07661998 0.008436206 0.11641244 -0.051598843
0000a0 20 e0 c0 3d ad e3 2e bd fa 26 11 3c 8e 82 bc 3d
       0.094177485 -0.042697597 0.00885939 0.09204589
0000b0 eb e5 f5 bd 3e b5 c3 bd 77 6a 53 3e b1 84 f0 3c
       -0.12006744 -0.095560536 0.20646082 0.029360147
0000c0 79 f4 68 be 68 85 08 3e 58 6e 3d be 9e f0 40 bd
       -0.22749509 0.1333214 -0.18499124 -0.04710447
0000d0 18 96 26 bd 34 2b b5 bc fb 8b a7 3c ac 8a 0a bd
       -0.040670484 -0.022115327 0.02045249 -0.033823654
0000e0 d4 59 20 bd 3f da 96 bd ee 1d 57 be d1 92 11 be
       -0.039148167 -0.07365846 -0.21007511 -0.14216162
0000f0 55 7d 76 3d e1 50 a9 bd 61 28 2d 3e 3b e9 b8 bd
       0.06017812 -0.082673796 0.16909935 -0.0902886
000100 83 cf 77 39 b1 b8 d7 3d fb e4 a1 bd 23 91 82 bc
       0.0002363306 0.10533274 -0.07905003 -0.015938347
000110 5d c9 4a be fb 4e 23 bd 89 1d ca bd d7 2d c8 3d
       -0.19803376 -0.039870244 -0.09868915 0.09774368
000120 24 aa 80 bd 34 0e da b8 22 e7 e1 bd ab 76 38 bd
       -0.06282452 -0.000103976956 -0.11030413 -0.045035046
000130 bf 27 5c 3d b8 f7 da 3c 83 cb 2f 3e 30 12 23 be
       0.053748842 0.02672945 0.17167477 -0.15924907
000140 46 84 97 be eb ec 15 3e 52 8c ee bc aa ac ad bc
       -0.29593104 0.14641158 -0.029119644 -0.021200497
000150 38 37 35 bd d5 26 de 3d c5 cd 78 bc 96 67 10 3d
       -0.044242114 0.1084725 -0.015185778 0.035255037
000160 c1 3f b4 bd cd e9 17 bd 9c 80 1d 3d 80 4d b9 3d
       -0.088012226 -0.037088204 0.03845273 0.09047985
000170 c1 80 04 be 9a a1 c7 3c 22 8a 76 bd 5c b8 73 3d
       -0.1293974 0.02436905 -0.060190327 0.05950199
000180 db 04 2d bc 32 86 1d 3d 10 6b 95 3c bf 51 2b 3e
       -0.01056024 0.038458057 0.018239528 0.16730402
000190 81 39 b2 3d 46 00 df 3d a7 e9 2a bd 30 74 0c 3d
       0.08702374 0.10888724 -0.041726734 0.034290493
0001a0 74 4c 9c 3d 36 da be 3d b7 c9 ab 3c d8 60 58 3d
       0.0763177 0.09318964 0.020970209 0.052826732
0001b0 55 86 65 3d 7c 7f 45 be 50 ec a0 bd 80 8e c4 3d
       0.056036312 -0.19286913 -0.07857573 0.09597492
0001c0 b8 c8 e0 bd d4 3e e2 b9 d6 09 bb 3d 10 00 48 bd
       -0.10975784 -0.0004315289 0.091327354 -0.048828185
0001d0 21 c9 d1 3b b7 67 8a be 45 91 df 3c 9e 96 42 3c
       0.0064021503 -0.27032253 0.02729095 0.01187673
0001e0 83 cc a8 bd 58 70 3d be 71 e3 24 be b4 63 c2 bd
       -0.082421325 -0.18499887 -0.16102387 -0.09491673
0001f0 66 2b 1f 3d 58 7c e3 3b ab 12 92 bd f6 bb ee 3d
       0.038859747 0.006942313 -0.07132467 0.116569445
000200 92 db e5 3d 46 fe 19 3e c8 7f 2e 3e 1f bc 10 be
       0.1122352 0.15038404 0.17040932 -0.14134263
000210 48 54 9e bd 67 53 00 3e 03 e2 c8 bd 5e cb 91 3d
       -0.07730919 0.12531815 -0.09808733 0.07118867
000220 b9 15 0b 3d 45 ea 09 bc 2f 72 f7 bb f1 76 7a 3d
       0.033956263 -0.008417671 -0.0075514535 0.061148588
000230 2d d8 73 3d 2b 54 bb bb b8 03 65 bd a5 28 03 be
       0.059532333 -0.0057168207 -0.05591175 -0.12808473
000240 9a b8 2b 3d d7 9c 2b be 15 db 7c 3d 73 4b f3 bc
       0.041924097 -0.16759048 0.06173237 -0.029699063
000250 a6 ec eb bd 64 90 96 bb b6 03 71 bb 0c 67 11 be
       -0.115197465 -0.0045948494 -0.0036775894 -0.14199466
000260 55 40 74 bd 67 78 be bd 52 2e 5e 3d c2 93 ab 3d
       -0.059631664 -0.09300309 0.054243393 0.08377792
000270 f2 40 3a 3e d8 3f ee bd 1a 86 f0 3c 79 71 1d be
       0.18188837 -0.11633271 0.02936082 -0.15375318
000280 14 1a 56 3e c8 0f 9d b9 82 1d 2c 3e fc ac 3f bd
       0.20908386 -0.00029957131 0.16808131 -0.04679583
000290 cc 45 87 bd 59 37 00 be 42 a6 a9 3d f7 77 e8 bd
       -0.066051096 -0.12521113 0.08283664 -0.113510065
0002a0 45 b2 bc bb e3 72 f6 bd 87 f9 8b bd b5 a9 8c bd
       -0.005758556 -0.12033632 -0.06834703 -0.068683065
0002b0 6c 27 d4 3c f0 e4 a1 bd 29 3f 0a 3e 4a ff 8e bb
       0.025897704 -0.079049945 0.13500656 -0.004363929
0002c0 9b 9c a6 bd 78 5f 00 be 42 dc 04 3e af 27 af 3d
       -0.08135339 -0.12536418 0.12974647 0.08552491
0002d0 a5 9b 52 3d 34 0a bc bd 17 1d f8 3d f3 15 7c bd
       0.051417965 -0.091816336 0.121149234 -0.06154437
0002e0 3c 2a 36 bd d6 d1 c2 bd 6f 47 de bd 21 94 67 bd
       -0.04447387 -0.09512679 -0.108534686 -0.05653775
0002f0 2d 1f 23 bd 12 76 dc 3c 61 98 cb 3d 0f c6 a3 bd
       -0.039824653 0.026911769 0.09941173 -0.07996761
000300 b4 7b 23 3e ec 38 4b be ce fb 62 be 6e 1d 2c be
       0.15965158 -0.19845933 -0.22166368 -0.16808102
000310 d8 46 f0 3d ba df 86 3d 40 54 f0 3d 36 64 b7 bd
       0.117322624 0.06585641 0.117348194 -0.089546606
000320 f5 74 0b 3e 4e 03 0e 3d 24 14 02 3e 86 61 66 3c
       0.13618834 0.03467112 0.12702996 0.014061337
000330 8c 07 8e 3c 36 30 7b bd 4b 9c ad 3c 23 21 15 3e
       0.017337583 -0.061325274 0.02119269 0.14563422
000340 07 b4 9e bd 02 16 ee bc c0 64 5c be 8d 23 af bd
       -0.07749181 -0.029063229 -0.21522808 -0.08551703
000350 fd 87 9e 3c 08 04 d5 bd da f6 05 be ae 46 73 3d
       0.019351954 -0.104011595 -0.13082448 0.059393577
000360 d7 30 0a be df bf 17 3d b4 70 66 be 8f d2 ff 3d
       -0.13495193 0.037048217 -0.2250393 0.12491333
000370 58 3a c5 bd c5 53 07 be 17 ed 9b 3d cd f9 90 be
       -0.09630269 -0.1321555 0.07613581 -0.28315583
000380 83 6f 42 be fc bb 96 bc f5 8a 45 bc 6c 25 05 be
       -0.18987851 -0.018400185 -0.012057056 -0.13002557
000390 99 ab 15 bd bb 5f a1 bd fe 85 4f bd 29 f7 d7 bd
       -0.0365406 -0.07879587 -0.050664894 -0.10545189
0003a0 6a 9f cc 3c 5b cb a2 3d b9 97 9e 3d 73 2a 26 bd
       0.024978358 0.07948943 0.077437826 -0.040567826
0003b0 80 0b 9c bc 8f 6d 15 be 66 72 9d 3e 60 5b b0 bd
       -0.019048452 -0.14592575 0.30751342 -0.086111784
0003c0 87 e4 ed bd b0 98 4f bd 8c 4a 48 be ff 50 cc bd
       -0.11615854 -0.050682724 -0.19559687 -0.09976386
0003d0 b2 50 b1 bd b2 b2 c8 3d 34 cd 6e bd 9e f4 a6 bc
       -0.086579695 0.097997084 -0.058301166 -0.020380314
0003e0 6a 7e e0 3b 8b 2d 4f 3e 7e a6 39 3e df 11 e4 bd
       0.006851007 0.20232217 0.18129918 -0.11136221
0003f0 c2 8c 27 3d 92 7c a9 bb fb a3 5f 3d e1 24 93 bd
       0.04090572 -0.0051723206 0.054599743 -0.071847685

network.2.conv.0.bias f4 [128]
000000 35 08 3a be 0f 95 0a 3d ac 0d 12 be 96 5d 00 3e
       -0.18167193 0.03383356 -0.14263028 0.125357
000010 19 45 1f be bf 5f 29 be 9c ed 1a 3e 25 18 28 3d
       -0.15553702 -0.1654043 0.15129703 0.04103865
000020 83 a2 e5 bc 48 5b ba 3c ad 27 ab 3c 46 f0 9e 3d
       -0.028031593 0.022748604 0.020892942 0.07760672
000030 29 b1 3d 3d 27 1c 13 3e 5e 34 15 bd 91 ff 7a 3d
       0.04631153 0.14366208 -0.036426894 0.061278883
000040 bd a2 98 3d 29 e5 ca bb d5 4d b0 bd 7e 00 8e be
       0.07452915 -0.006191869 -0.08608595 -0.2773475
000050 77 7b c6 bd 35 9d 97 3c f8 2d f0 bb 73 4e a9 bd
       -0.09691518 0.01850758 -0.0073296987 -0.08266916
000060 c9 41 78 bd 4b 3f 0d be 52 c1 d5 ba 50 55 c2 bd
       -0.060609613 -0.13793676 -0.0016308224 -0.09488928
000070 c4 97 1c bd 5c bd b1 bc 95 c6 0c 3e 23 fa 38 be
       -0.038230672 -0.021696739 0.13747628 -0.1806417
000080 bc 9e 7a bd ab c0 66 be 3f 48 c0 3b ee 0f 28 3d
       -0.061186537 -0.22534434 0.0058679874 0.041030817
000090 42 26 ba bc f5 88 58 be 71 ba 0a 3d 75 21 37 bd
       -0.02272332 -0.21145995 0.03386921 -0.04470964
0000a0 2d d2 d6 bd 97 9e bc 3c 88 dc 63 3d 53 74 c8 bd
       -0.104893066 0.02302484 0.055630237 -0.09787812
0000b0 ef 8a ec bd e0 62 9b 3d 7e 8e db 3d 41 55 01 be
       -0.11549937 0.07587218 0.107205376 -0.12630178
0000c0 1a af 47 be 73 9f 83 3d 03 06 d3 bc 08 eb 81 3d
       -0.1950039 0.06426897 -0.025759703 0.06343657
0000d0 74 e1 5f bd da fe fe 3d 58 72 ad bb 04 59 e2 3d
       -0.05465837 0.12450953 -0.005293172 0.11052135
0000e0 c0 14 32 3d 22 2e a2 bc 19 01 23 be 12 8c 8e be
       0.04347682 -0.019797388 -0.15918387 -0.2784124
0000f0 fd 0a 8a be fd 3c 6c 3c 59 5a aa bd ef a4 19 3e
       -0.26961508 0.014418838 -0.08318014 0.15004323
000100 13 8d 6f 3d e3 18 29 3e 5f c2 25 be 1e 95 4a 3e
       0.05848415 0.165134 -0.16187428 0.19783446
000110 63 8f 88 bc cd 19 31 3d 75 2b 95 bd ab 3a f3 bd
       -0.016669935 0.043237496 -0.072836794 -0.118764244
000120 99 99 51 3e 65 3f 49 3c 08 81 c3 3d 39 1f 18 3d
       0.20468749 0.012283181 0.09546095 0.03713915
000130 9a e4 d0 bd 46 7d e5 3d 34 67 fd 3d e9 d9 8d 3d
       -0.10199852 0.11205535 0.123732 0.06926329
000140 95 a7 0f 3c c5 38 3f be 73 67 64 3b b5 84 3f 3e
       0.008767982 -0.18674 0.00348517 0.18702967
000150 d2 68 07 bd 48 f4 1f 3d 32 ab d7 bd d7 e2 aa 3d
       -0.03305895 0.039051324 -0.105307 0.083440475
000160 d4 09 ef 3c c4 e3 fa 3d 93 ff b6 bc 06 68 5d be
       0.029179491 0.12250474 -0.022338664 -0.21621713
000170 03 3b 04 be 59 78 bb bd 31 74 3f 3d 96 05 45 bd
       -0.12913136 -0.09153814 0.046741668 -0.04810103
000180 7a 79 fe bc 6b c0 d6 bd d3 0c f3 3d 71 cb e0 3d
       -0.031063784 -0.104859196 0.118676804 0.10976303
000190 03 a7 f5 bd fb 29 c7 bd 25 f2 39 3c 8d 4c e0 3d
       -0.119947456 -0.09724804 0.011349236 0.10952101
0001a0 03 ce 5b bb 69 9a 96 3d b8 62 ba bd 9d 91 4d 3b
       -0.003353954 0.0735367 -0.0910086 0.003136731
0001b0 a0 a2 5f be 4f f4 1e be c1 88 51 be 98 d6 d2 3c
       -0.2183938 -0.15522884 -0.20462324 0.025737092
0001c0 ea 33 c0 bc a2 21 0a 3c cb b5 66 bd 45 29 eb bd
       -0.023462255 0.00843087 -0.056325715 -0.11482481
0001d0 f5 0b 6f be 60 10 fa bd f8 40 a5 bd 5b a8 bd bc
       -0.23344405 -0.122101545 -0.080690324 -0.023151567
0001e0 7d 38 36 3c b6 5d 8d be 63 59 2f bc 02 77 41 be
       0.011121866 -0.27610558 -0.010702464 -0.18893054
0001f0 fe 94 c1 bd 7e 30 52 be 26 a4 cb 3c 8a d9 f4 bc
       -0.09452246 -0.20526311 0.024858546 -0.029888887

network.3.weight f4 [2, 128]
000000 ab d0 5d bd cb 40 08 3d d7 3b 00 be 27 a6 7b 3d
       -0.05415408 0.033264916 -0.12522827 0.061437752
000010 fc 7f 0c 3d 2c 1c 23 be 96 5c 55 3e 6f 50 63 bd
       0.034301743 -0.15928715 0.208361 -0.05549663
000020 90 dd 2a 3d f0 27 3d 3d 51 4f 9c 3a 6d 21 75 bd
       0.041715205 0.046180665 0.0011925494 -0.05984633
000030 58 5d a1 3d 37 e3 11 bd ee 45 8b 3c 93 ee 81 bc
       0.07879132 -0.03561708 0.017001119 -0.015860831
000040 e6 0f 12 be c4 26 99 3a b6 aa ec bd 34 c5 33 3e
       -0.14263877 0.0011684527 -0.11555998 0.17555696
000050 6d 94 bb 3c 5d 9b cb 3b 48 99 20 3c f5 f1 d5 bd
       0.022897923 0.006213589 0.00980217 -0.1044654
000060 67 00 45 3e c9 e5 9e bd 48 0e 27 3d ea 0f e1 3c
       0.19238435 -0.07758672 0.040785104 0.027473409
000070 64 e3 d8 bb dd 12 0a 3e 1e 02 1b 3d fc 33 a4 3d
       -0.006618904 0.13483758 0.037843816 0.08017728
000080 60 0f e5 3d 72 21 34 be b2 02 49 3d af ae 34 3e
       0.11184573 -0.17590883 0.049074836 0.17644762
000090 12 7a b0 3c c0 bd 80 be 64 c8 4c be bc 40 e5 bd
       0.021542583 -0.25144768 -0.19998318 -0.11193988
0000a0 99 28 19 3e d3 ad bf 3d 39 de 1c 3d d2 44 5d bd
       0.14956893 0.09359326 0.038297866 -0.05402071
0000b0 9b 5b d5 3d 55 a0 b9 bd 89 f9 fe 3d 73 d5 49 3d
       0.10417863 -0.09063784 0.12449939 0.049275827
0000c0 e4 12 2a be d1 7d 3b bd 3d 76 3d 3d 3f 56 ad 3d
       -0.16608769 -0.045774285 0.04625534 0.08463716
0000d0 91 f8 c3 3d 17 aa 57 bd 13 2e f3 bc 1e 43 2a be
       0.09568895 -0.052652445 -0.029685056 -0.16627166
0000e0 a0 40 02 3d 3a 13 a6 3a 27 ac f2 3d 65 83 2d bd
       0.031799912 0.0012670525 0.11849242 -0.042361636
0000f0 e9 7c ae bc fd ce 19 3e 5a c8 0b bd 6f 5b fc bd
       -0.021299796 0.15020366 -0.034126617 -0.12322127
000100 11 a4 59 3e f2 45 e1 bc b3 b7 34 3e e6 10 3a be
       0.21253993 -0.027499173 0.176482 -0.18170509
000110 96 2d 2a 3d 33 e7 12 3e 48 df fd bd 59 ea 00 3d
       0.04154738 0.14346008 -0.12396103 0.03147349
000120 c7 02 65 3d 0e ef 14 be d1 1e d8 3b 3f 94 4f 3e
       0.05591085 -0.14544317 0.0065954705 0.20271395
000130 3e bd ad bd 34 c2 a8 bc 3e 3d 45 bd a2 18 2e 3d
       -0.08483361 -0.020600416 -0.04815411 0.04250396
000140 e1 23 89 bd 87 2f e2 bb 27 79 17 3d 23 91 d9 bc
       -0.066962965 -0.0069026384 0.036980774 -0.026558464
000150 f9 79 0c 3e 18 e8 78 3d 60 3f 87 3d 43 66 2e be
       0.13718404 0.060768217 0.06603885 -0.17031197
000160 c3 d1 5a bc 41 9b e9 3d 6e 5f 2a 3d f6 4d 86 3d
       -0.013355675 0.114065655 0.041594915 0.065578386
000170 31 f3 58 be 2d 34 05 be 1f 04 67 bd 84 40 51 bc
       -0.2118652 -0.13008185 -0.056400415 -0.012771729
000180 ad e4 d7 bb 5b 28 a6 3c 1c 06 38 bd b2 05 69 bc
       -0.0065885396 0.020282915 -0.0449277 -0.014222549
000190 26 30 1e 3e 35 99 fa bc 8a d4 6e 3e 54 aa 99 3b
       0.15448055 -0.030590633 0.23323265 0.004689494
0001a0 e2 8b f9 3d 56 91 55 3e 6e 24 91 3c 08 ab 93 bd
       0.12184884 0.20856223 0.017717566 -0.07210356
0001b0 ae 83 81 bc 85 a5 88 bd 6c 96 85 bd 05 ec ad 3d
       -0.01580986 -0.06672195 -0.06522831 0.08492283
0001c0 d6 2e c0 3d bc 3e 19 3e b8 91 3e 3e 83 d8 11 be
       0.09383933 0.14965338 0.18610275 -0.14242749
0001d0 bc a7 73 3c 53 06 94 3d aa d6 51 bd 25 80 a6 3d
       0.014871534 0.07227769 -0.05123011 0.081299104
0001e0 f3 e5 00 3e 69 3e 40 be c6 7c 71 3e 5f c1 9a bd
       0.12587719 -0.18773808 0.23582754 -0.07556414
0001f0 f5 13 38 3e 00 30 37 be bd f3 cc bb 01 74 07 3b
       0.17976363 -0.17889404 -0.006254642 0.002066851
000200 69 3f 11 be 0c 77 a1 3d ca 62 fc 3c 37 32 10 be
       -0.14184345 0.078840345 0.030808825 -0.14081655
000210 fc e1 b6 3d df 30 51 be aa 1f b7 bd b3 4e 99 bc
       0.08929822 -0.20428799 -0.08941586 -0.018714285
000220 cd 26 49 bd 2d 3b a2 3d 52 04 19 3d 94 a0 be bd
       -0.04910927 0.07921443 0.037357636 -0.093079716
000230 55 07 99 3d 03 ff 6e 3b db e6 67 bb 0c d6 7c 3c
       0.074721016 0.0036467917 -0.0035385403 0.015431892
000240 e9 75 52 bc bf ad a7 3d d1 10 e6 bd ba 3e ea 3d
       -0.012845495 0.08187436 -0.11233676 0.114377454
000250 72 61 00 be 7c 92 d7 3d 78 41 77 3c e6 45 cc 3d
       -0.12537172 0.105259866 0.015091293 0.099742696
000260 98 19 22 3e a6 03 aa 3d 06 2d 0e be f4 7e e4 bd
       0.15830076 0.08301477 -0.13884363 -0.11157027
000270 b3 0f fd 3d ef d5 11 3d 0f 0a ca 3c bc 72 cf bd
       0.1235651 0.035604414 0.024663 -0.10129306
000280 93 75 ca bd 78 b9 f7 3d c1 94 2b 3e bd 35 ec bd
       -0.09885707 0.12095922 0.16755964 -0.11533687
000290 e4 e5 84 3d e8 c9 25 3d ae 62 3d 3d 91 15 e8 bd
       0.06489161 0.040475756 0.046236686 -0.113322385
0002a0 a7 15 28 be 44 c5 64 3d bf 7a 2c bd 85 ed e8 bc
       -0.1641451 0.05585219 -0.042109247 -0.02843357
0002b0 f3 95 bc bc 9f 5e 17 3e 6a 38 82 3e 00 af 05 bd
       -0.02302072 0.14782189 0.25433666 -0.032637596
0002c0 77 02 a9 bd 26 fb 05 be 02 87 40 3d 21 25 57 3d
       -0.08252423 -0.13084087 0.047003753 0.052525643
0002d0 82 0d d9 3d 94 c0 38 3e 67 b5 85 bb b0 62 1e 3e
       0.105982795 0.18042213 -0.0040804627 0.15467334
0002e0 3f 74 91 3d 73 66 8e 3b b4 47 d3 3d 85 09 2e be
       0.0710225 0.004345709 0.10316411 -0.16995819
0002f0 a1 4c 11 bd 7b 04 10 be 16 23 90 3d 2a 5b 8c be
       -0.03547347 -0.14064209 0.07037942 -0.27413303
000300 dc 0c eb bd 7a 2f cb 3d a7 0d 02 3d cc 0b 16 3d
       -0.11477062 0.09921165 0.0317513 0.036632344
000310 5f 28 a9 3d e4 22 a1 be 5f 1c 0e 3e df 34 7b 3b
       0.08259653 -0.31471932 0.1387801 0.0038331074
000320 cc b7 c5 3d ec ad 2f bc 79 79 bf bd 07 15 b3 bd
       0.09654197 -0.010722619 -0.09349341 -0.08744245
000330 23 1f cb 3d 22 49 14 3e 58 c1 23 3e bc 89 a7 bd
       0.09918048 0.14481023 0.15991724 -0.081805676
000340 76 93 97 3e c7 57 da ba f2 79 0f 3c d1 18 a5 3d
       0.2960469 -0.001665824 0.008757101 0.08061374
000350 46 be 3f bc c2 8f a3 bd ae bb 1d be d9 c0 b4 3c
       -0.01170308 -0.07986404 -0.15403625 0.022064613
000360 33 65 19 be f7 52 4f be 13 87 ac 3d e8 54 34 3d
       -0.1498001 -0.20246492 0.08424201 0.044026285
000370 55 c2 07 3d d8 c2 09 3e bc c5 1e 3e d6 be f4 bb
       0.033144314 0.13453233 0.15505117 -0.0074690385
000380 94 36 9f 3d d1 79 3a 3e 0f fd b9 3d 56 1b 33 bd
       0.07774082 0.18210532 0.0908147 -0.04372724
000390 e0 84 76 3d d3 be 72 3d 8f 7c de bc 11 5f 5b 3d
       0.060185313 0.059264015 -0.027159004 0.05355746
0003a0 ec 4b 1c 3d b9 2d e8 bd 09 7f 87 3e d6 db 83 3d
       0.038158342 -0.11336846 0.26464108 0.06438415
0003b0 ab 71 fa 3c a3 ba 89 3d b6 23 45 3d b6 49 7b bd
       0.03057178 0.06725051 0.04812976 -0.061349593
0003c0 72 6c e9 bd 9e 4d 64 be 6a 18 6a 3d a4 8e 0f be
       -0.113976374 -0.22295234 0.05715219 -0.14019257
0003d0 3a 2f a0 bc 38 da ca 3d 1d e1 fa 3d f2 88 78 3d
       -0.01955377 0.09904903 0.12249968 0.060677476
0003e0 2f 88 b6 3d ab cb e1 3d ea 2a 86 be 4d 58 0b be
       0.08912694 0.11025175 -0.26204616 -0.13607903
0003f0 e2 74 45 bc f8 98 03 be c5 71 07 bd a3 70 05 3e
       -0.012051793 -0.12851322 -0.033067483 0.13031249

network.3.bias f4 [2]
000000 20 76 69 bd 5c 27 72 3e
       -0.05699742 0.23647827
