exomy/config/best_run_no_obstacles405k/checkpoints/267000_policy.pt (torch, 723582 bytes, 13 tensors)

log_std_parameter f4 [2]
00000000: 795f 96bf 6aef 21bf
-1.1747886 -0.6325594

network.0.conv.0.weight f4 [512, 5]
00000000: f6f0 743e 0267 68be b28c 0a3c ccb3 a6bd
00000010: 2b01 2a3e 13b1 183e 96c4 083e ea41 123e
00000020: 1b40 9ebd 474d 3cbc 6302 fcbc c62f 7dbb
00000030: 8050 04ba ac20 82be 6bd7 6b3d 1c2d 883b
00000040: 9aa2 c4bd 59f1 593e 9197 813d 262d 2e3e
00000050: 71a5 553d 66b2 4abc cddc a83d 4760 453e
00000060: a9d5 003e a288 663e 8bf3 bd3e f97b f63b
00000070: dd1f 30be b5db e3bc 93f5 99be d2d6 c23b
00000080: 42b2 e13c 327c b1bc c7c3 78bd 5636 d23b
00000090: 4024 09bd 2a53 463d cdbe c23d 60cc 96bd
000000a0: 0ce0 113d 6e1a aebe 530f 17bd 0f5b 33bd
000000b0: 3c90 a7bc 32bc 40be ed41 bcbd a94b 61be
000000c0: 3382 003d 5bc2 40be 3294 8bbc 3afd c83e
000000d0: d507 9a3d 9caa 2d3e b99a 413b 48d7 d3bc
000000e0: 6b97 703e d096 15bd a15f 0d3e 3e35 90bd
000000f0: 7dd1 7d3e 57f1 b6bd b137 9e3d 3efb ff3c
00000100: 2797 023e 85cd 4a3e b1af 8abe 1e35 3d3a
00000110: a404 483e 5f97 033c 5fc1 06be 0d4e 043d
00000120: 9729 9c3d 68a9 aa3d 23fd 1b3e 692b 37be
00000130: 84a9 b23e fde9 273d c1f4 203e 4ee2 07bd
00000140: 8c76 283e d26a 033f b9d0 573d d4cb 18be
00000150: 7b76 173e 37ef 1fbe 8926 ae3d f21c 983d
00000160: 16e0 eabd 0347 463d ec71 5f3e 6d2a 4a3e
00000170: 98e6 99bd 235f 1a3c f3a9 133d 0adf bebe
00000180: ae2d 94be 9fc6 dfbc 0ab6 533d 3964 19bd
00000190: 900e 0dbe 1459 d83d 7be7 eebd dd5e 82bc
000001a0: e5cf 9f3d 19f0 9abe c147 753e cb20 57bd
000001b0: 9db4 86be d7fa 643e 5ca6 02bd bde9 9abd
000001c0: 9abc 043d efab 403d f6d9 10bc 27d9 0dbe
000001d0: 7512 a93e b5e2 11bc f883 e13b 8c9d 2cbd
000001e0: 6746 af3e da08 393d 259a e23d be2d 95bc
000001f0: db35 ebbd d485 2fbe fda5 b8be 53af 09bd
00000200: 6584 9a3d 4d96 89bd bf6f b1be aa5b f23c
00000210: 804b 113e d26c 01bd 37bb 87bc 0c1b b9be
00000220: 359e cc3e 47eb 88bd 0f28 b4bd 6f47 90bd
00000230: 9d8b 113e d8e7 c03d a725 4dbb a95a 163e
00000240: 730d 74bc b669 993c b71b 963e 8b1a a73d
00000250: 5417 6d3d e2e6 1abd df95 10be 358e 073e
00000260: 58d8 073d 3c0f 1ebe 63ce 51be e0c8 8ebe
00000270: 119a 61be ff2b 0d3e f988 8c3d 0085 06be
00000280: ead6 7bbe 3ae8 23be e796 0b3c 1395 2ebe
00000290: 36f2 c63d 2e84 6abe 0145 883c 53fc d43a
000002a0: 4890 9b3c c3c8 babd cce8 2e3c f2a7 d33e
000002b0: a716 273d fd43 f6bc 7b31 f6bc 44f4 903e
000002c0: e754 7f3d 5c14 633d 70e9 92bd a7cc 8ebd
000002d0: c447 88be abde e03e 7f8e 62bd d25f 05be
000002e0: 632a 613e dc28 b23e 748c f53c 720f 63bd
000002f0: 9f9d 753d 867f 843c cf0e cabd f7a2 3ebe
00000300: a32a 7f3d 85b4 e5bc 7f27 fe3c b277 3dbd
00000310: 2a59 18bf 6edc 89bd a7d8 3bbd 23aa 033e
00000320: f5ff 633c 261c 883e 11cf 003d 4041 e43d
00000330: 59a1 b43c 13a4 21be 6fb7 91be 3029 30bc
00000340: a018 edbd 3e77 9cbd f689 ddbd 45d5 91be
00000350: c469 10bd 1fdc 20bd b0dc 52be 1713 993e
00000360: 89fb de3e 4dc6 b53b 0bfb 95bd 6854 e13d
00000370: 144d 9ebe 70ba 9ebd 4e2a 0e3e 44ad b73d
00000380: 109b 38be 620a 983d 1ca0 b83d 8998 953c
00000390: fe21 91bd be71 a33d d014 b13e e51b 5bbe
000003a0: b637 90bc e482 97bd bd74 fabd 9486 9d3e
000003b0: 7a5f 89bd e696 81bc c8db 82bd 295d 993d
000003c0: c134 a1bd 25fe 1f3e 46da c83c d626 d8bd
000003d0: 2b44 84bd 4857 93be aeed a7be 60d4 413b
000003e0: 33a6 82bd e3c5 3abd 7fee 473e 1ae8 b03e
000003f0: d489 fb3d 3458 3ebe 9783 63be 8ff8 753e
0.23920044 -0.22695544 0.008456396 -0.08139762 0.16602008 0.14911298 0.13356242 0.14282957
-0.07727071 -0.011493034 -0.030762857 -0.0038633212 -0.0005047396 -0.25415552 0.057578485 0.004155768
-0.09601326 0.21283473 0.06327737 0.1700941 0.05215973 -0.012371635 0.082452394 0.19275008
0.12581505 0.22513059 0.3709987 0.007522103 -0.17199655 -0.027814725 -0.3007017 0.0059460187
0.02755082 -0.021665666 -0.060733583 0.0064151688 -0.033481836 0.048419155 0.095090486 -0.073632
0.03561406 -0.3400454 -0.03687985 -0.043788012 -0.020454518 -0.18821791 -0.09192262 -0.22001518
0.031374168 -0.1882414 -0.017038438 0.39255697 0.07521025 0.16959614 0.0029541685 -0.02585949
0.23495261 -0.03652078 0.13806011 -0.07041405 0.24786945 -0.08932751 0.07725466 0.031247731
0.12752973 0.19804962 -0.27087167 0.0007217693 0.1953302 0.008031695 -0.13159703 0.032300998
0.0762512 0.08333093 0.15233283 -0.17887653 0.34894955 0.040994633 0.15718366 -0.033174805
0.16451472 0.5133487 0.052689288 -0.14921504 0.1479129 -0.15618597 0.08503444 0.07427396
-0.11468522 0.048407566 0.21820801 0.19742747 -0.075146854 0.009422096 0.036050748 -0.3727954
-0.289411 -0.02731639 0.051687278 -0.037449095 -0.13775086 0.10563865 -0.11665245 -0.015914375
0.078033246 -0.30261305 0.23953153 -0.05252151 -0.26309672 0.22361313 -0.031896934 -0.07564113
0.032406427 0.04703897 -0.008841028 -0.13852368 0.33021894 -0.008904149 0.006882187 -0.042142436
0.342334 0.045174457 0.11064557 -0.018210288 -0.114848815 -0.17140895 -0.3606414 -0.033614468
0.075447835 -0.06718121 -0.34655568 0.029584724 0.14188957 -0.03159792 -0.016568763 -0.36153448
0.39964452 -0.066855006 -0.08796703 -0.07044875 0.14213414 0.09419221 -0.003130296 0.14683022
-0.014895785 0.018727165 0.2931802 0.081593595 0.057883576 -0.037817843 -0.14119671 0.13237841
0.033165306 -0.15435499 -0.20488887 -0.2788763 -0.22031428 0.13786314 0.06862063 -0.13136673
-0.24593702 -0.16006556 0.008519865 -0.17049055 0.09714167 -0.22901985 0.016634466 0.0016249515
0.018989697 -0.091203235 0.01067562 0.4133907 0.040793087 -0.030061716 -0.030052891 0.2831136
0.06233683 0.055439338 -0.07173431 -0.06972628 -0.26617253 0.43919882 -0.055311676 -0.13024834
0.21988826 0.34796798 0.0299742 -0.05543465 0.059964772 0.01617409 -0.09866106 -0.18616854
0.06229652 -0.02804018 0.031024693 -0.04625673 -0.59511054 -0.06731497 -0.045860913 0.12857871
0.013916005 0.26583976 0.031447474 0.11145258 0.022049593 -0.15785246 -0.2846026 -0.010752007
-0.115769625 -0.07639931 -0.108173296 -0.28483024 -0.035257116 -0.039272424 -0.20591998 0.29897377
0.4355128 0.005547321 -0.07323273 0.11002427 -0.3091818 -0.07750404 0.13883325 0.08968595
-0.18027902 0.07423855 0.090149134 0.018261211 -0.070865616 0.07980679 0.3458619 -0.2139736
-0.01760469 -0.07398012 -0.12229297 0.30766737 -0.06707664 -0.015819024 -0.06389576 0.07488472
-0.0787139 0.15624292 0.024518143 -0.10554282 -0.064583145 -0.28777528 -0.32798523 0.0029576048
-0.06379356 -0.045598876 0.19524573 0.3455208 0.12282148 -0.18588334 -0.22218166 0.24020599

network.0.conv.0.bias f4 [512]
00000000: 7c61 9b3d 4ee6 33be 4eb5 7ebd 2f9f d0bc
00000010: e05b 9fbe e3d5 8e3c 4e60 20be cfc3 4bbe
00000020: 6b83 023e 8063 f7bc 0d25 5dbd c145 7d3b
00000030: c121 d1bd 45fc 173d f93d 4ebd a9b8 b73d
00000040: b83b 0ebb a737 08be 5fdc 7b3b 9ab9 903d
00000050: 96b1 283e c510 7e3d 3e22 2abe ab60 543d
00000060: d597 1b3e 46b9 b13d aafb a63c 4b98 383d
00000070: 37f2 2dbe b9b8 bbbd 93db c2b8 e954 e1bd
00000080: c4e9 173e 1d2c 3b3c f38d 0b3d 7227 753a
00000090: 9967 803b 5977 9bbc c80c 8ebc 3f8b 373d
000000a0: 9c96 c53d 6349 0b3e 147a e0bd 2f18 cb3c
000000b0: 2912 26be 5d89 103e 0c7d 563c c064 89bd
000000c0: 3ced 1c3d b34d c73d 911f 84bd 3112 d33c
000000d0: e87a 593d 6ddf 043e 00eb 9a3d 1141 153e
000000e0: f00a ad3b b58f 263a 7f39 7a3c d87a 43be
000000f0: cf96 a63d 8a0f b83c 33c1 363e ccc3 bc3d
00000100: 1835 5e3e 434c c0bc f0cd 893d 2186 883d
00000110: 053d 2cbd 1fec cf3d fcc4 cd39 8553 6d3c
00000120: 82e0 81bd 27a4 2ebd f6dd d1bd d0aa 083c
00000130: afb4 21be 63db 25bc 2d67 6dbd 2e1d 5fbe
00000140: 7e29 c23d e1bc 643d e36f 35bd 0b36 423e
00000150: a108 2e3e 8e04 263d 4f5d 9d3d 5021 dbbc
00000160: a0fe c8bb 105e 31be 8cbd a73c 9871 ffbd
00000170: 74e4 563d 6c26 83be f1df 7bbd 8dcb cb3d
00000180: 92a7 013e e039 053e e1ac 32bd b22f 3ebc
00000190: 460d c53d 3712 843d 83d2 063e 9daa 2abe
000001a0: 98ac 3a3d d9e6 373d 6e41 aabd 5a2a dbbc
000001b0: a39e 91bd 1b6e b7bd 142d 443c 557d e43c
000001c0: 8b60 94bd aeba e53d 4e6d 093d 8821 12be
000001d0: 6425 b23d 1eb7 30bd 11dc cb3c 7e8d 313d
000001e0: 8a4c 93bd ebc4 a63b 1f4f 8c3d 0157 ddbb
000001f0: e6d5 19be 832d 1ebe 3019 26be d791 c63d
00000200: f865 b7bd 382e da3d 8bb7 9b3c 955a e1bd
00000210: 1620 c3bc 3bcf 583c 2760 3c3d d9b1 ec3c
00000220: 9b12 c83a 06fe 9e3a 77a0 873c 74c5 24bc
00000230: 5074 3bbe 45fe 38be 5d4e 953d 2269 b5bd
00000240: ea6f 82bc c1a8 093b ff95 83bd eb30 e1bd
00000250: 4672 543d 1422 30bb cf90 ec3b 067d 20bb
00000260: fb1b 4ebe 3652 7ebd 7029 fbbd 9100 d83d
00000270: 5f1e 673a fa54 843d c260 6cbd f4cf b9bd
00000280: dd8a 35bd 937b b23c 08fd 9ebd 2702 463e
00000290: 367b 84bd 2708 f03b f603 363d 6a5a 523e
000002a0: 4991 bc3c 8042 6dbe f7f4 53bd 6bad 23be
000002b0: cabe 583e 062b 49be 7c20 b4bd a365 71bd
000002c0: 1f6c 02bc c31b a5bc c5df 073c 6635 f7bb
000002d0: 4947 c7bc c9ce cc3d 445c aebd 0d82 5ebe
000002e0: 8a20 21be a3bb 633d ae4b 46bd 4561 33be
000002f0: d6fa eb3d b5ae 27be fe86 bb3d 32c2 ebbd
00000300: 5782 18be b850 1dbe 8e35 74bd cbb9 153e
00000310: b115 12be 2437 5c3d 7b11 e43b 44a3 30bd
00000320: 432d 353d ef48 7cbe ee3f 3cba c048 03bd
00000330: 1a26 47bc 2474 173d 03b0 803d 96a0 e4bd
00000340: 1e51 08be f474 e4bd ab78 84be fe81 45be
00000350: 4ae5 5cbd e1ce 58bd f4a9 8a3d ed17 e93d
00000360: 0cf9 023e 4fdf be3d 09cd 823d 5ada edbd
00000370: 4e86 41bd f212 54bd 19d1 2ebe e819 76be
00000380: 156e 38be 6d4c 5e3d 8833 18bd 497b c9bd
00000390: d7fa 1bbe 2f56 503d 085a 27be 596e a23c
000003a0: bd99 55be 5533 f13d 6ee7 25be c05c 3fbe
000003b0: f833 db3d 1087 fdbb 8b21 04be 95f4 1b3d
000003c0: 9dc0 f63c b63a a83d 9c55 28be 5649 4abc
000003d0: 3745 ed3c e6b1 7dbc 230f 1e3d 5a6d 3d3d
000003e0: 6111 2a3d 6ecc 26be 83b6 bb3b 8df8 bdbd
000003f0: b9f4 29bb c515 cf3a 892d 00be 5298 ecbd
0.07586953 -0.17568323 -0.062184624 -0.02546653 -0.31124783 0.017435974 -0.15661737 -0.19898914
0.12745444 -0.030198812 -0.053990413 0.0038646313 -0.10211516 0.037105817 -0.05035207 0.08970768
-0.0021703076 -0.1330248 0.0038430912 0.07066651 0.16473994 0.06202771 -0.16614625 0.051850002
0.15194638 0.08677916 0.020383675 0.045067113 -0.16986929 -0.091660924 -9.29154e-05 -0.110025235
0.14835268 0.011424092 0.03407092 0.0009351886 0.0039186 -0.018977808 -0.017340079 0.04481053
0.09647867 0.13602214 -0.109607846 0.024791805 -0.16217865 0.141149 0.013091337 -0.0670867
0.03831218 0.09731617 -0.06451333 0.02576551 0.05309573 0.12975855 0.07564354 0.14575602
0.005280845 0.00063538115 0.015272497 -0.1908983 0.08134233 0.022468347 0.17847137 0.09217033
0.21699941 -0.023473864 0.067287326 0.06666208 -0.04205038 0.101524584 0.00039247412 0.014485245
-0.063416496 -0.042637017 -0.10247414 0.008341506 -0.15791582 -0.010123107 -0.057959724 -0.21788475
0.0948057 0.05584419 -0.044296157 0.18965928 0.16995479 0.040531687 0.07683813 -0.026749283
-0.0061338693 -0.17321038 0.020476125 -0.12472838 0.052463964 -0.2561525 -0.061492864 0.099509336
0.12661579 0.13010359 -0.0436219 -0.011608051 0.09621672 0.06448787 0.13166241 -0.16666646
0.045574754 0.044897888 -0.08313261 -0.026753593 -0.07110336 -0.08956548 0.011973638 0.027891794
-0.072449766 0.11217247 0.033551507 -0.14270604 0.08698538 -0.043143384 0.02488521 0.043347828
-0.07192333 0.0050893924 0.06851029 -0.0067547564 -0.15023002 -0.15447049 -0.16220546 0.096957855
-0.08954996 0.10653347 0.019008419 -0.11003605 -0.02381901 0.013233001 0.045990136 0.028893398
0.0015264334 0.0012130148 0.016556008 -0.010056842 -0.18306088 -0.18065746 0.07290337 -0.08857943
-0.015922505 0.0021005126 -0.06425094 -0.109956585 0.051866792 -0.002687578 0.007219411 -0.0024488582
-0.20127861 -0.06209012 -0.12263763 0.10546983 0.00088164763 0.064615205 -0.057709463 -0.09072867
-0.044321883 0.02178744 -0.07763106 0.19336759 -0.06468813 0.0073251906 0.04443737 0.20542303
0.023018496 -0.23169899 -0.05174729 -0.15984122 0.2116653 -0.19645318 -0.087952584 -0.05893482
-0.007960348 -0.02015484 0.008293097 -0.0075442074 -0.024325984 0.10000379 -0.08513692 -0.21729298
-0.15735069 0.055598866 -0.048412018 -0.17517574 0.115224525 -0.16375239 0.09156607 -0.11511649
-0.1489347 -0.15362823 -0.059621386 0.14621656 -0.14266087 0.053763524 0.0069600916 -0.043124452
0.044232618 -0.24637197 -0.0007181157 -0.0320518 -0.01215508 0.036975995 0.062835716 -0.11163442
-0.13312194 -0.111551195 -0.25873312 -0.1928787 -0.053929605 -0.05293167 0.06770697 0.113815166
0.12790316 0.093199365 0.063867636 -0.11613913 -0.047247224 -0.05177588 -0.17071952 -0.2403332
-0.18010743 0.054272104 -0.03715852 -0.09837968 -0.15232407 0.05086344 -0.16342938 0.019828008
-0.20859428 0.11777369 -0.16201565 -0.18687725 0.107032716 -0.007737048 -0.1290342 0.03807505
0.030121142 0.08214323 -0.16438907 -0.012346586 0.028963668 -0.015484309 0.038588654 0.046246864
0.04152048 -0.16288921 0.005728544 -0.09275923 -0.002593322 0.0015799335 -0.1251737 -0.1155249

network.1.conv.0.weight f4 [256, 512]
00000000: 2d48 673d 4cac 41be 129b 78bd 7a5b db3c
00000010: fb51 e3ba e91d 95bd 137f 07be e50d 37bd
00000020: 359b 353c 4121 afbd 6d89 3dbe 8571 883d
00000030: 043b 0a3e 1aa0 d8bc 8bae d2bd d0fe b23e
00000040: 6d49 6dbe d0d6 b13c 646a df3c d2af 493e
00000050: 8d74 f33d ddbd 8e3e 31ee cb3d 49a7 b83c
00000060: 7241 2d3e 0dda 48bd 649f 453e 52e8 0a3e
00000070: e01a f9bd b2f6 25bd e667 1bbe a440 c6bc
00000080: 473a 023e 9df4 d33c 0a1c bb3c 3a3f 753d
00000090: 9580 8cbd 6bbd 52be bce1 fbbc 72e9 61be
000000a0: ff11 183d aa66 9b3e da74 303d bcc2 a7be
000000b0: 9238 be3d 7178 33bd e14c 99bd 9fbc 02be
000000c0: 2115 2a3d e411 593c f79f a23c e3fd 64bd
000000d0: 5706 143e 674c a63d 75bb 973e 84c2 00bd
000000e0: 08c7 92be 637c 5cbe 9e38 2dbe d5b1 9abe
000000f0: 0883 e5bc c8b8 023e 4171 11bc 266f c8bc
00000100: fee3 f03c 29ff 8abe 54b0 e8bc 4716 763d
00000110: 08ba 8cbd 2c10 1c3d 8ec2 e23d 7ab4 f5bc
00000120: b8b6 3f3d ac73 903e a915 64ba ace6 4fbe
00000130: bf30 41be 8cd0 3c3c adf9 ca3d 577b 043e
00000140: 8ea7 c23c e298 bebd d473 60be b921 123e
00000150: 7654 dcbd 0ae9 e43d 6ff9 66be bd3c 83bd
00000160: e36c 2b3e fbe5 8b3e c8d2 633e a29a a83d
00000170: 1b1b ae3e d27e 45be 249a 523d 54e0 a63c
00000180: a7a9 85bd 83b3 1c3e e388 24bd 1000 2cbe
00000190: 6a05 f83d 32c0 2dbb 6470 aa3d 4983 e6bd
000001a0: af2c 6c3e 42cb 96bc 634a 0fbe e937 5b3c
000001b0: 7465 6e3e 23bb ea3d c954 623e 8ffe 4f3d
000001c0: eba5 5c3c 0dd5 fa3d e6a2 813e f67f cbbd
000001d0: c505 c43d 54b1 18be 9541 9ebd a80e 4a3d
000001e0: daf5 5fbd ba06 743e 4ae7 c0bd 949a fabc
000001f0: d7e9 f9bd 5d13 96be cad1 a0be 3d25 903c
00000200: 9cba 943c fa6a e0b9 8cb1 513e 79d4 45bc
00000210: 385e 9bbc 9887 8dbc 263d d3bd 6f84 5b3d
00000220: 0c9f 483d ab6e 843d 4353 163d 3f92 9a3c
00000230: 7d00 463b 30ee d23c 8d82 59be 8dcd be3d
00000240: 845b 8b3d fd91 d1bd a8ea d5bd def0 41bd
00000250: 950a 323e 6ab4 47bd 996e cd3b ef6f 6fbb
00000260: dbce 733d 6859 1f3e 8d58 7d3b 4262 383d
00000270: 7b92 3f3e c8bd e23d e357 0dbe d5cf 7e3c
00000280: c8aa 8dbc 53d1 233c 01dd d33c 2398 953d
00000290: f9e1 04be 2a3d 343e f26e cf3d 5777 003e
000002a0: 0c88 95bc e8cc 88bd 0eab cfbb bc24 fbbd
000002b0: 4a0e 2d3e 537d 41bd 01f8 833d da2b 1cbe
000002c0: 7d96 62bd a8c8 253e 319b c43d e520 8cbb
000002d0: 8fcb ecbd ca9e 0eba 047a 403d 2e5f f6bd
000002e0: a0f3 3bbe 2de4 d73d 4b23 8d3d bdfc 80bd
000002f0: 00e5 ae3a a690 973d da59 8f3d a84d 4cbe
00000300: 30a9 61be 3a60 303d 077d 6b3d de18 173d
00000310: 0eff f33d 61b2 ffbc 7d96 063e 41fd 76bd
00000320: 9ca7 01bd d305 0cbe 06c1 0c39 24eb 9abd
00000330: e5ab 613d bc83 d13d 69a9 313e 9f0c e5be
00000340: 2ff6 893c ac04 82be 2249 a33b 3819 bebd
00000350: 5781 a33d c319 b93c e891 84bc da47 823d
00000360: c01c ab3d cf48 193e 74d7 a83d 4c52 eb3c
00000370: c067 8e3d e91a 6e3c 1883 ecbd 122f a03c
00000380: 0815 13be 8965 953c 5803 673d 0c1c 54be
00000390: c2e1 4abe dacd e0bd b8b8 8ebc e22c c43d
000003a0: 31fb eebc 860a df3c b5ad e6bc ebf4 93bc
000003b0: 2e55 e83c c383 c23c 8817 e7bd dd55 133d
000003c0: 740d 3c3d d550 0e3e da14 c9bd c6c1 983d
000003d0: 7b59 4fbd 83d7 f9bd 6241 633d fff8 d0bd
000003e0: 875d a0bc 83d7 a2be f9a8 613d 839f 01be
000003f0: 2c05 5a3e c461 0abe dbda 83bd 97f0 263d
0.056465317 -0.18913382 -0.06069476 0.026777018 -0.0017343158 -0.072810955 -0.13232069 -0.044690985
0.0110843675 -0.085512646 -0.18509455 0.06662277 0.13499075 -0.02644353 -0.10287198 0.34960032
-0.23172541 0.021708876 0.02727241 0.19695976 0.11887465 0.2787923 0.09957541 0.022540705
0.16919497 -0.049036074 0.19299084 0.13565186 -0.12163329 -0.04051847 -0.15176353 -0.024200745
0.12717544 0.025873477 0.022840519 0.05987475 -0.068604626 -0.2058007 -0.030747287 -0.22061709
0.037126537 0.30351764 0.04308019 -0.32765758 0.09288134 -0.043816034 -0.074853666 -0.12767266
0.041524056 0.013248894 0.019851668 -0.055906188 0.14455543 0.08120041 0.29635206 -0.031435505
-0.28667474 -0.21531825 -0.16916129 -0.302138 -0.028016582 0.12765801 -0.0088770995 -0.024467062
0.02940559 -0.27147797 -0.028404392 0.06007984 -0.0687142 0.03810136 0.110722646 -0.029993284
0.046805114 0.2821325 -0.00087007374 -0.20302838 -0.18866251 0.011524331 0.09910903 0.12937675
0.023761537 -0.09306504 -0.21919185 0.14270677 -0.10758297 0.11177261 -0.22556089 -0.06408069
0.16740756 0.273239 0.22248375 0.08232619 0.34005055 -0.1928666 0.05141653 0.02037064
-0.06526499 0.15302853 -0.040169608 -0.16796899 0.12110408 -0.0026512262 0.08322218 -0.112555094
0.2306392 -0.018407468 -0.1399322 0.013380029 0.23280889 0.11461475 0.22102655 0.050779875
0.013467292 0.122476675 0.25319594 -0.09936516 0.09571413 -0.14911395 -0.077273525 0.049330384
-0.05467782 0.23830691 -0.09419115 -0.030591287 -0.122028045 -0.29311648 -0.31410056 0.017595882
0.018155389 -0.00042804313 0.20477885 -0.012074583 -0.018965825 -0.01727657 -0.103143975 0.053593095
0.048979804 0.06466421 0.0367005 0.018868564 0.0030212693 0.025748342 -0.21241207 0.093165495
0.068045646 -0.10232923 -0.10445148 -0.04734885 0.17386849 -0.04875604 0.006269288 -0.0036535223
0.059523445 0.1556145 0.0038657517 0.04501558 0.18708222 0.11071354 -0.13803057 0.015552481
-0.017293349 0.009998637 0.025862219 0.073044084 -0.12976827 0.17601457 0.10128583 0.12545525
-0.018253349 -0.06679708 -0.00633753 -0.12262866 0.16899982 -0.04723866 0.06443787 -0.15251103
-0.055319298 0.16189826 0.09599913 -0.0042763823 -0.11562263 -0.00054405315 0.046991363 -0.12029873
-0.18354654 0.10541568 0.06891497 -0.06298206 0.0013343394 0.074006364 0.0699956 -0.19951499
-0.22037196 0.04306052 0.057492282 0.03688895 0.11913882 -0.031212987 0.13143344 -0.060300115
-0.031653985 -0.13674097 0.00013423347 -0.07564381 0.055095572 0.102302045 0.17349781 -0.44736192
0.016841022 -0.2539419 0.0049830833 -0.09282154 0.07983654 0.022595292 -0.016182855 0.06361361
0.08355093 0.1496918 0.082442194 0.028725766 0.069533825 0.014532783 -0.11548442 0.019553695
-0.14363492 0.018236892 0.056399673 -0.20713824 -0.19812682 -0.10976763 -0.017422065 0.09578873
-0.029172512 0.027226698 -0.028159002 -0.018061122 0.02836093 0.02374447 -0.11283785 0.035970557
0.045911267 0.13898022 -0.0981843 0.07458834 -0.050622445 -0.12199309 0.055482276 -0.10203742
-0.019575847 -0.31805047 0.055092786 -0.12658505 0.21291035 -0.13513857 -0.06438228 0.040756788

network.1.conv.0.bias f4 [256]
00000000: 93b0 0bbd 4443 20bb 8210 243d d4d7 593c
00000010: ec9c f7bb cd0b 993d 40c8 413d df9c 733d
00000020: 3f24 59bd 6c69 6a3d f37e 6fbc f960 25be
00000030: b7a6 a03d 6a3a d0bd 97e8 b2bd 6c58 cebd
00000040: f6e9 4bbd 499c 5dba 8351 8a3c 6f62 35be
00000050: 7f9a b1bd 3e10 583e 5f4e 89bd 10c0 19bd
00000060: b099 8fbd cdf8 f93b 8719 2ebe d495 c43c
00000070: 4102 12be 0030 70bb 92ea 09be cbca 7c3c
00000080: 6e16 a9bd ecab 65be 3501 5c3e 5add bbbd
00000090: 04ca 4abe 8836 033c 47dd cc3b 406b 34bd
000000a0: 5a5b e3bd 0c8e 0bbe 2876 5cbe dbfb 933d
000000b0: 9289 b93c 71d2 033d af60 e3bd 1099 a53a
000000c0: 8966 5bbd adc1 803d 25bb 53bd 6813 c73d
000000d0: 7946 6abd 12fb 6fbc dfbf 90bd 164d 8b3c
000000e0: 70e2 7a3d c4a6 2e3d ac11 d33c cca8 263e
000000f0: 4fa0 0dbe 6764 8abd ddc4 5fbc 8195 033d
00000100: cb5f bc3c f705 063d 2c22 153e 00c8 2bbd
00000110: 5a8a b8bc d02f 8ebd 86ae 0bbc 070a b4bd
00000120: c854 ab3d 1d80 babd 917c 09be bae5 19bb
00000130: 2ec0 9b3c d152 093d 3da7 97bb 6985 5c3e
00000140: c276 e5bd 1b5c 183d 8d4c 1dbe ad11 a03d
00000150: 1b5f 34be e16e 88bd d4e5 5ebd 9008 18bd
00000160: 0746 a73d 6efc ebba a93d 2839 d093 153e
00000170: 73c7 ec3d cbe1 093e 4e76 59bc 5630 05bc
00000180: 2498 38be 28ad e9bc bb04 13bd c94e a33e
00000190: 5616 163d fe9c 80bd c2c4 933d f3e1 37be
000001a0: a7f1 55be 76aa 6bbd 4f37 ee3d c9e5 30be
000001b0: 53fa 113d effe 0abc 4197 0b3e eb9b 30be
000001c0: ba33 983d e15e eb3d 5933 e4bd 09c1 db3d
000001d0: d8d2 773d 8bee 1dbd 041d 10bd 5c1f 0e3e
000001e0: 30b1 733c 3008 e9bc 4f27 f63d d8e4 d83d
000001f0: dee3 ccbd 6a26 33bd 087a 093e 647e 6fbe
00000200: 4887 20bd ce0f a2bd a81a 2abe cc32 253d
00000210: 648f 63bd e013 603c 3f4b 373c d845 5fbc
00000220: 1748 2a3d a8b7 7cbc b2b4 74bd 4db7 3ebc
00000230: 4af3 8fbc e80d 2c3d c193 b3bc 4730 a83c
00000240: 8e30 b03d 82f4 b33b af6f 15be cea6 c03d
00000250: aae4 073e ee89 aabd da39 44bd e923 e9bd
00000260: b67d fb3d f81a 9a3e 814d 5f3d 8aa9 90bd
00000270: dd01 bb3b 2c5a 5b3d 786b a23c acdf b5bc
00000280: 578d 08bc 169e a3bd 2fbe cb3c 3b01 3c3e
00000290: d0e7 c3bc 4ec3 ef3d a09f b1bb e303 18bc
000002a0: ff06 a03d 66ac e73d e3fa 9b3d f974 f5bd
000002b0: 929e 393c 40f4 3dbe d001 373d 93f8 1dbe
000002c0: 370a 18bd 3993 bbbd ca1b a2bc 1529 4a3d
000002d0: 2913 4bbb 2907 9fbc ce82 143d 9b70 01be
000002e0: 1c47 88bc 076a a8bd 0467 3f3d 279c 74be
000002f0: dbd5 7ebd bd5b 093e e679 cabd 0469 043c
00000300: 4ca6 51bd 5ccf febd 802a 20be c7e5 983d
00000310: bbe2 d6bd c502 983d 04d2 da3d 6125 bbbd
00000320: d6bc b6bd eeae df3d 9ce5 1cbe 106f 183e
00000330: 3971 11bd 82e9 92bc 877d 41be e8ae 03be
00000340: 7468 d9bc a52d fa3b 57a4 a63b 8847 80bc
00000350: 8e8a 22be e34a 77bb 62c1 b23d 9935 d43d
00000360: a6aa 0bbe 2b7b e83c 1dcf 59be 8820 2dbd
00000370: 637e 993b bda9 e3bd 6f71 55be f91b bdbd
00000380: 7bb5 093c 3134 873c 9cdc 363d 6baf 01be
00000390: 11f8 573d 5749 353e f3ea 0b3e d2dd 33be
000003a0: 9fd3 44bd 75c4 133e 951f 8bbd fa39 a9bc
000003b0: 0178 c0bc a78a 533d 3ce7 74bd 03cc 3e3e
000003c0: a982 0dbe 8654 463d cc95 ecbd 7918 b33c
000003d0: c90d 5b3e 2379 323d 56bd 483d be7d 933a
000003e0: d8ff b4bd 208c afbc 6bc2 83be 3079 4fbc
000003f0: dec2 6d3d 8009 e63d af2a a4bd abe7 c2bd
-0.03410394 -0.0024454156 0.040054806 0.013296086 -0.0075565483 0.07472954 0.047310114 0.059475776
-0.053013083 0.057229444 -0.014617669 -0.16150273 0.07844298 -0.101673916 -0.08735769 -0.10075459
-0.04978367 -0.0008453769 0.016884571 -0.1771333 -0.08672046 0.21099946 -0.06704401 -0.03753668
-0.070117354 0.0076285363 -0.17001925 0.023997225 -0.14258672 -0.0036649704 -0.13468388 0.015429209
-0.08256231 -0.22428864 0.21484835 -0.09173079 -0.19803625 0.008008607 0.0062519643 -0.044047594
-0.11101408 -0.13628405 -0.21529448 0.07225772 0.022648606 0.032183114 -0.11102425 0.0012634117
-0.053564582 0.06286941 -0.051692147 0.09720498 -0.057196114 -0.014647262 -0.070678465 0.01700453
0.061251104 0.04263951 0.025765263 0.16275328 -0.13830684 -0.067574315 -0.013657776 0.032125
0.022994896 0.032720532 0.14563817 -0.04193878 -0.022526909 -0.06942713 -0.008525496 -0.08790975
0.0836578 -0.09106467 -0.13426425 -0.0023482875 0.019012537 0.033526246 -0.0046280907 0.21535267
-0.11204292 0.037197214 -0.15361233 0.078158714 -0.17614405 -0.066617735 -0.0544184 -0.03711754
0.081676535 -0.0018004307 0.00016044699 0.14607167 0.115614794 0.1346504 -0.013272835 -0.0081292
-0.18026787 -0.02852495 -0.035893183 0.31896046 0.036642395 -0.06279944 0.07215263 -0.17957287
-0.20892964 -0.05753561 0.11631643 -0.17275156 0.03563912 -0.0084836325 0.13631918 -0.17246978
0.07431741 0.11492706 -0.11142606 0.10730178 0.06050381 -0.03855757 -0.03518392 0.1387915
0.014873788 -0.028446287 0.12019216 0.105905235 -0.100044 -0.043737806 0.13425457 -0.23388058
-0.039191514 -0.07913171 -0.16611731 0.040331647 -0.05555667 0.013676614 0.011187374 -0.013627492
0.041572656 -0.015424646 -0.059742637 -0.011640382 -0.017572064 0.04200545 -0.02192104 0.020530833
0.08603011 0.005491794 -0.14593385 0.094068155 0.13270822 -0.08327089 -0.047906734 -0.113838024
0.12279837 0.300987 0.054517273 -0.07063587 0.005707009 0.05355279 0.019826636 -0.022201382
-0.008334479 -0.07989137 0.02487096 0.18359844 -0.023914248 0.11707173 -0.00542064 -0.00927827
0.078138344 0.11312179 0.07616212 -0.119852014 0.01132931 -0.18550205 0.044679463 -0.15426855
-0.037119117 -0.0915894 -0.019788641 0.049355585 -0.0030986762 -0.019412594 0.036257558 -0.12640612
-0.01663547 -0.08223348 0.046729103 -0.23887692 -0.062215667 0.13413902 -0.098865315 0.008081678
-0.051183984 -0.124418944 -0.15641212 0.074657016 -0.10492464 0.07422403 0.106845886 -0.09137989
-0.08922736 0.10922037 -0.15321964 0.14886117 -0.03550837 -0.01793361 -0.18895541 -0.1285969
-0.026539065 0.007634836 0.005085509 -0.015659109 -0.15873167 -0.0037733845 0.08728291 0.103617854
-0.13639316 0.028379044 -0.21270414 -0.042267352 0.004684256 -0.111163594 -0.20844053 -0.09233851
0.008405085 0.016504379 0.044643983 -0.12664573 0.05272681 0.17703758 0.13663845 -0.17565086
-0.04805338 0.14430411 -0.06793133 -0.020657528 -0.023494722 0.0516459 -0.059790835 0.18632512
-0.13819374 0.04842045 -0.11552009 0.021862255 0.21391977 0.043572556 0.04900869 0.0011252684
-0.08837861 -0.021429121 -0.25734267 -0.012663171 0.058047168 0.11232281 -0.08015954 -0.095168434

network.2.conv.0.weight f4 [128, 256]
00000000: 4f01 763d 08be efbb 15de 92bc 826e ea3c
00000010: c263 57bd 0233 b73d 0289 673e 9db3 4e3e
00000020: c577 89bd 2055 ce3c 60ef e0bd 2f41 50bd
00000030: 6599 343d 9fa3 cd3d 21ae bb3d c548 c4bd
00000040: 19bc b73e c381 e6bd 6c5c 58bd b543 af3d
00000050: c7ec bc3d 3d9c ffbc 16d5 bc3d 03e1 e93d
00000060: 2a07 42be 7aec 883e cb9a 08be b0e3 9f3d
00000070: 5d99 343e ee96 9dbd accb 423d 5304 58be
00000080: 7d21 15be 8552 24be eb8a 873d 5ab2 8abd
00000090: f800 97bd ebd9 eb3b a569 ee3d 4f59 53bd
000000a0: aaf4 c83d 67bf 25bd fa26 113c 8e82 bc3d
000000b0: ebe5 f5bd 3eb5 c3bd fe0f 513e 034d 063d
000000c0: ee68 71be 7fff 0b3e 586e 3dbe 0299 2fbd
000000d0: 928f 54bd 342b b5bc fb8b a73c ac8a 0abd
000000e0: d459 20bd 9561 92bd 434d 53be 9450 12be
000000f0: 557d 763d e150 a9bd 6128 2d3e 4031 afbd
00000100: 83cf 7739 b1b8 d73d fbe4 a1bd f13a a2bc
00000110: fa7d 45be faa2 12bd 891d cabd d72d c83d
00000120: 34ea 86bd 616b 793b 22e7 e1bd ab76 38bd
00000130: 4d1f 563d 4c93 f73c 83cb 2f3e 5bef 21be
00000140: 697e 98be ebec 153e 528c eebc 3381 88bc
00000150: 3837 35bd d526 de3d 56e2 d5bc 9667 103d
00000160: c6aa abbd cde9 17bd 9c80 1d3d 7e2a b23d
00000170: c180 04be a672 e33c 228a 76bd 5cb8 733d
00000180: 6d45 3abc 7753 f23c 106b 953c bf51 2b3e
00000190: 8139 b23d 4600 df3d 3c0c 1cbd 3074 0c3d
000001a0: 1236 a33d 36da be3d 724f 8f3c d860 583d
000001b0: 77d1 663d d96c 50be 5bc7 a1bd 808e c43d
000001c0: b8c8 e0bd c746 513b 01b0 b03d 5eca 62bd
000001d0: 21c9 d13b b767 8abe 2353 e23c 912d 123c
000001e0: c844 aabd 5870 3dbe 71e3 24be b463 c2bd
000001f0: 120b 243d 587c e33b ab12 92bd 5a77 f43d
00000200: 45c8 ec3d 9838 153e c87f 2e3e 1fbc 10be
00000210: dc4b 9ebd 6753 003e 03e2 c8bd 5ecb 913d
00000220: b915 0b3d 45ea 09bc 2f72 f7bb 9f14 7c3d
00000230: 23a8 5a3d 2b54 bbbb b803 65bd a528 03be
00000240: 9216 313d d79c 2bbe 484a 853d 734b f3bc
00000250: 20dc e4bd 6490 96bb b603 71bb 1311 16be
00000260: 5540 74bd 6778 bebd 522e 5e3d c293 ab3d
00000270: 335b 3e3e a82d e9bd 1a86 f03c 1414 18be
00000280: e324 593e 4e7a 91ba 821d 2c3e fcac 3fbd
00000290: cc45 87bd 7b82 03be 42a6 a93d e7be e1bd
000002a0: 5169 92bb e372 f6bd e19f 98bd 5100 92bd
000002b0: 6c27 d43c 79bc 9fbd 293f 0a3e 4238 5bbc
000002c0: 9165 a3bd 785f 00be 42dc 043e e2ca ae3d
000002d0: a59b 523d 6cba bdbd 3996 f93d f315 7cbd
000002e0: 3c2a 36bd 8bf1 bcbd 6f47 debd 9273 59bd
000002f0: 2d1f 23bd c755 ff3c 6198 cb3d 0fc6 a3bd
00000300: b47b 233e ec38 4bbe cefb 62be 6e1d 2cbe
00000310: d846 f03d badf 863d 4054 f03d 3664 b7bd
00000320: f574 0b3e 4f73 203d 1a50 fb3d 0e17 953c
00000330: 8c07 8e3c 3630 7bbd 4b9c ad3c 2321 153e
00000340: 07b4 9ebd 0216 eebc f931 5fbe ecc8 b0bd
00000350: 44f2 bf3c 0804 d5bd aadd 0bbe 127f 763d
00000360: 834c 07be f731 273d 0b39 66be 6fec 033e
00000370: 583a c5bd f91d 05be 17ed 9b3d cdf9 90be
00000380: 836f 42be fcbb 96bc f58a 45bc 6c25 05be
00000390: 99ab 15bd de31 a8bd fe85 4fbd dbd5 d9bd
000003a0: 6a9f cc3c ee2a ae3d 1737 9f3d 732a 26bd
000003b0: 800b 9cbc bb75 19be 6672 9d3e 491b b5bd
000003c0: 87e4 edbd a988 58bd 8c4a 48be cf54 d3bd
000003d0: 3a5b adbd b2b2 c83d 79e1 7bbd 9ef4 a6bc
000003e0: ac5d bc3b c7fb 513e 7ea6 393e c2a5 e1bd
000003f0: d710 383d 823a 00bc b3e2 623d e124 93bd
0.06005984 -0.0073163547 -0.017928163 0.028617147 -0.05258537 0.08945276 0.22610858 0.20185705
-0.06712297 0.025187075 -0.10983157 -0.050843414 0.0440916 0.10040974 0.09164072 -0.09584192
0.35885695 -0.11255219 -0.052822515 0.08557836 0.09224849 -0.03120243 0.092203304 0.11419871
-0.18948045 0.26742917 -0.13340299 0.078071 0.17636628 -0.07694803 0.047557518 -0.210954
-0.14563556 -0.16047104 0.066182934 -0.06772299 -0.07373232 0.0071976087 0.11641244 -0.051598843
0.09812291 -0.04046574 0.00885939 0.09204589 -0.12006744 -0.095560536 0.20416257 0.032788288
-0.23575184 0.13671683 -0.18499124 -0.04287053 -0.05189473 -0.022115327 0.02045249 -0.033823654
-0.039148167 -0.071475185 -0.20634942 -0.1428855 0.06017812 -0.082673796 0.16909935 -0.085543156
0.0002363306 0.10533274 -0.07905003 -0.019803496 -0.19286337 -0.035799958 -0.09868915 0.09774368
-0.065876395 0.0038058388 -0.11030413 -0.045035046 0.052275945 0.030221604 0.17167477 -0.15813963
-0.29783943 0.14641158 -0.029119644 -0.01666317 -0.044242114 0.1084725 -0.026108902 0.035255037
-0.08382182 -0.037088204 0.03845273 0.08699511 -0.1293974 0.02776463 -0.060190327 0.05950199
-0.011369091 0.029580815 0.018239528 0.16730402 0.08702374 0.10888724 -0.038097605 0.034290493
0.079692975 0.09318964 0.017493937 0.052826732 0.056352105 -0.20354022 -0.07899352 0.09597492
-0.10975784 0.0031933056 0.0862732 -0.055368774 0.0064021503 -0.27032253 0.027627533 0.008921997
-0.083139 -0.18499887 -0.16102387 -0.09491673 0.04004962 0.006942313 -0.07132467 0.11936827
0.11561636 0.1457237 0.17040932 -0.14134263 -0.07729313 0.12531815 -0.09808733 0.07118867
0.033956263 -0.008417671 -0.0075514535 0.061543103 0.053383004 -0.0057168207 -0.05591175 -0.12808473
0.043234415 -0.16759048 0.06508309 -0.029699063 -0.11174798 -0.0045948494 -0.0036775894 -0.14654951
-0.059631664 -0.09300309 0.054243393 0.08377792 0.18589477 -0.11385661 0.02936082 -0.14851409
0.21205477 -0.0011099072 0.16808131 -0.04679583 -0.066051096 -0.12842743 0.08283664 -0.1102274
-0.004468121 -0.12033632 -0.074523695 -0.071289666 0.025897704 -0.0779962 0.13500656 -0.013380112
-0.07978357 -0.12536418 0.12974647 0.085347906 0.051417965 -0.09264073 0.12186856 -0.06154437
-0.04447387 -0.09225758 -0.108534686 -0.053088732 -0.039824653 0.031168832 0.09941173 -0.07996761
0.15965158 -0.19845933 -0.22166368 -0.16808102 0.117322624 0.06585641 0.117348194 -0.089546606
0.13618834 0.039172467 0.122711375 0.01819947 0.017337583 -0.061325274 0.02119269 0.14563422
-0.07749181 -0.029063229 -0.21796407 -0.08632073 0.023430951 -0.104011595 -0.13658777 0.060179777
-0.1321278 0.040819135 -0.22482698 0.12883161 -0.09630269 -0.12999715 0.07613581 -0.28315583
-0.18987851 -0.018400185 -0.012057056 -0.13002557 -0.0365406 -0.082126364 -0.050664894 -0.10636493
0.024978358 0.08504282 0.077741794 -0.040567826 -0.019048452 -0.14986317 0.30751342 -0.08843095
-0.11615854 -0.052864704 -0.19559687 -0.1031891 -0.08464666 0.097997084 -0.061494324 -0.020380314
0.0057484712 0.20506202 0.18129918 -0.11017944 0.044937935 -0.007826449 0.05539198 -0.071847685

network.2.conv.0.bias f4 [128]
00000000: 0b4c 35be 776f 0f3d ac0d 12be 521a 013e
00000010: 172e 26be bf5f 29be 24d9 163e 2518 283d
00000020: ccae f8bc 485b ba3c d150 a53c 67c5 9e3d
00000030: dcdb 3a3d c522 143e 9db9 11bd 91ff 7a3d
00000040: bda2 983d 4200 34bb d54d b0bd e36d 91be
00000050: 56fa c8bd 5a58 bc3c f82d f0bb 734e a9bd
00000060: 2d80 73bd 4b3f 0dbe d726 6b3c 48b6 c0bd
00000070: 9401 08bd e448 f1bc c233 093e cbea 36be
00000080: 4853 82bd abc0 66be 9e21 0d3b 95db 203d
00000090: b11a d0bc f588 58be 71ba 0a3d 51ec 36bd
000000a0: bf37 ddbd b1e4 bc3c 9e13 643d f24c e0bd
000000b0: 28d4 ebbd a2de 9c3d 4bd1 df3d b52b 00be
000000c0: 1aaf 47be 5b30 773d 0306 d3bc c1cd 803d
000000d0: 9a74 64bd 470a 033e 5872 adbb 1dd9 e73d
000000e0: 442d 373d 222e a2bc 1901 23be 128c 8ebe
000000f0: fd0a 8abe 5fe5 323c 595a aabd faa8 153e
00000100: 380d 663d 37e3 2b3e 31c0 2abe 0d4b 4c3e
00000110: c343 64bc ee4a 493d 752b 95bd cb07 eebd
00000120: 86c0 523e 653f 493c 8d4b bb3d edcd 0f3d
00000130: aa9b cbbd d425 e93d 7ade 013e ae6b 903d
00000140: 597f 073c c538 3fbe 1963 793a 95ae 413e
00000150: 2209 09bd 3d7d 1f3d 0257 cabd d7e2 aa3d
00000160: 1f1b ea3c 20e6 fa3d fec4 fdbc 5a1b 64be
00000170: 850c 06be 71b0 b8bd 77e9 463d 9605 45bd
00000180: 7a79 febc 89d5 d0bd f170 f93d 71cb e03d
00000190: dcfd f8bd fb29 c7bd fef2 563c fba7 e53d
000001a0: 4f7e 86bb 777a 933d 48dc bebd 9d91 4d3b
000001b0: 4b87 61be 4ff4 1ebe c188 51be a2b4 ec3c
000001c0: 0a59 c3bc 15ea 053c 8146 72bd 753a e6bd
000001d0: 1300 6fbe 06e1 f7bd f840 a5bd 6478 e2bc
000001e0: 7d38 363c b65d 8dbe 0318 1ebc 0277 41be
000001f0: 5cea cabd 7e30 52be 26a4 cb3c 8346 ebbc
-0.1770479 0.03501841 -0.14263028 0.12607697 -0.1622852 -0.1654043 0.1473127 0.04103865
-0.030356787 0.022748604 0.020180138 0.07752495 0.04561983 0.14466389 -0.035577405 0.061278883
0.07452915 -0.0027465974 -0.08608595 -0.2840415 -0.09813373 0.022991348 -0.0073296987 -0.08266916
-0.05944841 -0.13793676 0.014352522 -0.094097674 -0.03320463 -0.029453702 0.1339865 -0.17863004
-0.06363541 -0.22534434 0.002153493 0.03927191 -0.025403352 -0.21145995 0.03386921 -0.044658963
-0.10801648 0.023058267 0.05568277 -0.10952176 -0.11515075 0.07659651 0.10928591 -0.12516673
-0.1950039 0.06034885 -0.025759703 0.062892444 -0.055775262 0.12796889 -0.005293172 0.11320708
0.044720903 -0.019797388 -0.15918387 -0.2784124 -0.26961508 0.010918944 -0.08318014 0.1461524
0.05616495 0.16785894 -0.16674878 0.19950505 -0.013932171 0.049143724 -0.072836794 -0.1162258
0.20581254 0.012283181 0.091452695 0.035108496 -0.099418 0.11384168 0.12682524 0.07051788
0.008270108 -0.18674 0.0009513363 0.18914254 -0.033455975 0.038937796 -0.09879877 0.083440475
0.028577385 0.12250924 -0.030977722 -0.22276059 -0.13090713 -0.090180285 0.048562493 -0.04810103
-0.031063784 -0.101969786 0.12179745 0.10976303 -0.12157795 -0.09724804 0.013119457 0.1121368
-0.0041044126 0.07201093 -0.09319359 0.003136731 -0.22024266 -0.15522884 -0.20462324 0.028894726
-0.023846168 0.008173485 -0.05914927 -0.112416185 -0.23339872 -0.12103467 -0.080690324 -0.027645297
0.011121866 -0.27610558 -0.0096492795 -0.18893054 -0.09907982 -0.20526311 0.024858546 -0.028720146

network.3.weight f4 [2, 128]
00000000: 9efc 7ebd 1ccf f33c d73b 00be 570c 843d
00000010: 0ef9 da3c 2c1c 23be b758 563e 6f50 63bd
00000020: 99c3 2f3d f027 3d3d 48dd 9cbb 1218 78bd
00000030: eeca 943d d7e6 1ebd 8988 a83c 93ee 81bc
00000040: e60f 12be b12b bfba b6aa ecbd 2b47 2f3e
00000050: ae2e aa3c a081 773a 4899 203c f5f1 d5bd
00000060: d7eb 433e c9e5 9ebd 288f 563d 0496 013d
00000070: c528 febb 611d 073e 8ffa 0d3d 48eb ae3d
00000080: d4b1 e43d 7221 34be d8fd 303d 62ba 363e
00000090: 55b2 6f3c c0bd 80be 64c8 4cbe bc63 e5bd
000000a0: 8155 1b3e 6024 b53d 6db4 253d 0c3e 51bd
000000b0: b204 db3d 24b1 c0bd 4a01 f43d 2aa4 523d
000000c0: e412 2abe 6e43 50bd 3d76 3d3d a0b4 a63d
000000d0: fecd c33d 1b53 64bd 132e f3bc 0ef0 2bbe
000000e0: e8d1 df3c 3a13 a63a 27ac f23d 6583 2dbd
000000f0: e97c aebc f518 193e 5ac8 0bbd e4fb f3bd
00000100: 3ce0 583e e70a 01bd 1563 303e 1095 3bbe
00000110: 2987 183d 4637 193e 48df fdbd 94b3 ee3c
00000120: d335 523d 0eef 14be 6143 3f3c 0cda 4f3e
00000130: a34a b3bd 9835 d4bc 74e2 3fbd 4098 223d
00000140: 2a35 8fbd 872f e2bb 7c02 073d a23f e9bc
00000150: 4e82 0d3e 930f 7c3d 6f92 ad3d 4366 2ebe
00000160: b66c 18bc 3617 f13d 2ec1 0e3d c693 773d
00000170: 0c71 5bbe aa2f 06be 49f5 79bd 8440 51bc
00000180: ade4 d7bb c2cd 6c3c 42f0 3bbd b205 69bc
00000190: 73f1 193e 3599 fabc 6000 6c3e e619 e739
000001a0: e76c f73d 8bb3 553e 3b45 383c 08ab 93bd
000001b0: c00b 74bc 85a5 88bd 6c96 85bd 48dd b13d
000001c0: 58b7 c43d d5e2 1b3e 75a7 3e3e d5cb 10be
000001d0: 7f5f 953c ce1e 8b3d aad6 51bd 95d7 a23d
000001e0: f3e5 003e 693e 40be 0100 763e 5fc1 9abd
000001f0: 838e 373e 0030 37be bdf3 ccbb 7e47 d3ba
00000200: 0b2e 0cbe 188c a53d ca62 fc3c e525 10be
00000210: 8133 b73d df30 51be 5fc9 bdbd b34e 99bc
00000220: 6394 39bd 2d3b a23d 902d 153d d31a bbbd
00000230: d262 9f3d 3a57 b43b 8a29 bfba 0cd6 7c3c
00000240: e975 52bc 763e ac3d d110 e6bd e804 f33d
00000250: df9a 01be 698c de3d 7841 773c e645 cc3d
00000260: d290 223e a603 aa3d cbfe 16be 6312 ecbd
00000270: 5e1c 033e d54a 213d f0e9 bf3c 71d0 cdbd
00000280: 496a cdbd 78b9 f73d 84b7 2b3e e2e7 e7bd
00000290: 9450 8e3d e8c9 253d ae62 3d3d d226 e9bd
000002a0: e135 25be 7772 663d 99d7 2dbd 47c9 d8bc
000002b0: c05d abbc 4b31 173e 057e 843e 1c80 03bd
000002c0: 7702 a9bd d167 02be 0287 403d e619 5e3d
000002d0: c9b8 d93d 2a47 3c3e 67b5 85bb b051 223e
000002e0: 9ba2 993d 7366 8e3b b447 d33d 8509 2ebe
000002f0: a14c 11bd 84f0 0abe 1623 903d 5ce4 8bbe
00000300: fbe6 e1bd 9bb7 d13d c782 133d c1b5 2a3d
00000310: 9506 b33d ee31 a0be 5f1c 0e3e b9bc b03b
00000320: b4df cd3d ecad 2fbc 2895 b9bd 3975 a6bd
00000330: b437 cd3d c284 143e 8770 253e 8b16 a4bd
00000340: eb0f 973e c757 daba ed6c 133c d182 a83d
00000350: 67fd 32bc dc44 9cbd b298 23be d9c0 b43c
00000360: 6a16 18be b9e3 4ebe e863 ad3d 1009 483d
00000370: 5e9c 073d e588 053e 348c 1f3e d6be f4bb
00000380: 9436 9f3d d84e 3c3e 2453 c03d 561b 33bd
00000390: d6bc 783d d3be 723d 30e8 c3bc afa5 603d
000003a0: f3f9 203d b9f0 e0bd c8df 863e d6db 833d
000003b0: 3d58 fa3c a3ba 893d b623 453d 2d37 77bd
000003c0: d427 e9bd 53f7 63be 8669 623d 580c 12be
000003d0: a8ac a2bc f320 d03d 1de1 fa3d 2430 793d
000003e0: 2f88 b63d abcb e13d 9d16 86be 4d58 0bbe
000003f0: 07c0 1bbc f898 03be c571 07bd 2561 063e
-0.062252633 0.029761843 -0.12522827 0.06447666 0.026730087 -0.15928715 0.2093228 -0.05549663
0.042911146 0.046180665 -0.004787121 -0.06056983 0.07265268 -0.038794365 0.020572918 -0.015860831
-0.14263877 -0.0014585165 -0.11555998 0.17116992 0.020774212 0.0009441618 0.00980217 -0.1044654
0.19132935 -0.07758672 0.05238262 0.031637207 -0.007756325 0.13194801 0.03466278 0.0854097
0.111667305 -0.17590883 0.043210834 0.17844537 0.01462992 -0.25144768 -0.19998318 -0.112006634
0.15169336 0.088448286 0.04045527 -0.051084563 0.10694255 -0.09408787 0.11914308 0.05142609
-0.16608769 -0.050845556 0.04625534 0.0813992 0.09560774 -0.055743318 -0.029685056 -0.16790792
0.02732177 0.0012670525 0.11849242 -0.042361636 -0.021299796 0.14950927 -0.034126617 -0.11913279
0.21179289 -0.031504538 0.17225297 -0.18318582 0.037238274 0.14962491 -0.12396103 0.029138364
0.051320862 -0.14544317 0.011673779 0.20298022 -0.0875447 -0.025904462 -0.046846822 0.03969598
-0.06992562 -0.0069026384 0.032961354 -0.028472725 0.13819239 0.06153829 0.084751956 -0.17031197
-0.009303262 0.11772005 0.0348522 0.060443662 -0.21429843 -0.1310412 -0.061024938 -0.012771729
-0.0065885396 0.014453353 -0.045883425 -0.014222549 0.15033512 -0.030590633 0.23047018 0.0004407905
0.12081318 0.20869271 0.011246975 -0.07210356 -0.01489538 -0.06672195 -0.06522831 0.08684784
0.096052825 0.15223248 0.18618567 -0.14140256 0.018234013 0.06792985 -0.05123011 0.07951275
0.12587719 -0.18773808 0.24023439 -0.07556414 0.17925458 -0.17889404 -0.006254642 -0.0016119329
-0.13689439 0.080833614 0.030808825 -0.14076956 0.089453705 -0.20428799 -0.09266924 -0.018714285
-0.04530753 0.07921443 0.036420405 -0.09135976 0.0778252 0.0055035623 -0.0014584523 0.015431892
-0.012845495 0.08410351 -0.11233676 0.1186617 -0.12656735 0.10866625 0.015091293 0.099742696
0.15875557 0.08301477 -0.14745633 -0.115269445 0.1280379 0.039378006 0.02342698 -0.10049523
-0.10030038 0.12095922 0.16769224 -0.11323525 0.06948963 0.040475756 0.046236686 -0.113843575
-0.16133834 0.056261506 -0.042441938 -0.026463164 -0.020918727 0.14764898 0.25877395 -0.032104596
-0.08252423 -0.12734915 0.047003753 0.054223917 0.10630948 0.18386522 -0.0040804627 0.15851474
0.07501718 0.004345709 0.10316411 -0.16995819 -0.03547347 -0.13568312 0.07037942 -0.27322662
-0.11030384 0.10240098 0.03601339 0.04167724 0.0874149 -0.31288093 0.1387801 0.0053935912
0.100524336 -0.010722619 -0.090616524 -0.08127827 0.1002039 0.14503768 0.16156207 -0.08012112
0.29504332 -0.001665824 0.008998138 0.08228076 -0.010924674 -0.076303214 -0.15976217 0.022064613
-0.148523 -0.20204057 0.08466321 0.048836768 0.033108108 0.13040502 0.15580827 -0.0074690385
0.07774082 0.18389452 0.09390858 -0.04372724 0.060726963 0.059264015 -0.023914427 0.05484551
0.03930087 -0.10983414 0.26342607 0.06438415 0.030559653 0.06725051 0.04812976 -0.060355354
-0.1138455 -0.22262315 0.055276416 -0.14262521 -0.01985772 0.101625346 0.12249968 0.060836926
0.08912694 0.11025175 -0.26189128 -0.13607903 -0.009506232 -0.12851322 -0.033067483 0.13122995

network.3.bias f4 [2]
00000000: 64de 6dbd e6e0 753e
-0.058073416 0.24011573

encoder.0.conv.0.weight f4 [80, 150]
00000000: ff2d 9d3d aa83 20be b4ac f03d d1ac 353d
00000010: 6f68 a5bc f69c e73c 3992 063d e2c2 293d
00000020: 3a2e 1bbe 1d3a 2dbd 4dbf b8bc 9265 f93c
00000030: 4fdf adbc bd47 d53d 893a b33d 2976 02bd
00000040: f0b2 83bd c2cb 983d bcef 573d 9948 753c
00000050: afbc 07be bf8a 473d 6264 13be 34ba 2b3e
00000060: cb73 c93b 15c3 bbbd bdc8 24bd 212a 0dbc
00000070: c099 8b3d d7a4 ab3c 11e4 d7bd ab8a 92bc
00000080: 6f7d 5f3d 3de9 0fbc f6c7 d0bd 11a4 1ebd
00000090: 7520 a13d 010c 57bd c7b1 e9bd 5341 61bc
000000a0: 8d00 8a3c b14f 84bd 7044 2e3d 1a82 463d
000000b0: 638a 8cbd 4ee4 33bc c43b 1f3d 29d9 85bd
000000c0: 8f7f 72bd ddb3 8b3c c311 15bd 6f66 34bd
000000d0: ef94 15be 2483 523d b777 78bd 8970 c23d
000000e0: 2f1a ebbd d1b4 c13d d823 a2bd c6fa f1bd
000000f0: 5b88 0abe 7c5e 3e3d baf7 3bbd d081 2a3e
00000100: f629 1f3d 37f1 073d c41d 733d b03e aebd
00000110: 1e28 c7bd 5ed4 9c3d 8ca2 e4bc e5c4 81be
00000120: 402a a6bd da00 6abe 2901 783d 3583 273d
00000130: 7ec8 ecbc a6d1 02bd 0707 f23d 725a 1fbc
00000140: 9f61 2fbe bded febd efae 853d e2c8 d93d
00000150: 5551 b53d 17d9 3e3d ea1f 473e 2e35 94bd
00000160: eae0 193e 3e8f a3bd 38d6 4f3b 39cb 56bc
00000170: de98 6cbd b5ab f23d 21c5 1ebc 22fe 57be
00000180: a1b9 b7bd f894 b6bd 2c8b 1f3c b2cc 56be
00000190: e722 983d 3b0b 7c3c 5f2b 0a3e 0179 0fbe
000001a0: 53cb 573c 30c8 3dbd ee0f 373e 0eca 533c
000001b0: 276f 5ebd 2e47 e2bd a7be 663d 80a0 6f3e
000001c0: c447 5abc 4e20 bcbd 7ba4 1cbd 570e 7d3d
000001d0: ea17 79bd 8f37 72bb a074 8f3d 082a aebd
000001e0: 9dc3 d43d 61b4 3cbe c798 783e d48b 14be
000001f0: 6916 7e3e 4e79 65be 7df2 97bd 646b 3d3e
00000200: 28d8 e7bd 16e1 1ebe ff57 c2bd e537 a0bc
00000210: e590 663d 60ee 17bd 854a b4bd 28a3 8b3d
00000220: 1345 2d3d 1745 cfbc dd1a 28be a1f0 8d3d
00000230: 78b7 35bc e977 2abe e1cb 043e 8663 dabd
00000240: be88 2e3d 4c19 2fbd 8517 26be 757f de3d
00000250: 996d f13c 818f f43c e7a0 18bd b9af 9abd
00000260: 4da4 9e3d 2304 513e 8fee b2bd 3bb2 a63d
00000270: e961 41be 31a3 60bd a0cc 313d a707 943d
00000280: 8946 3f3e ba75 32be a419 8abd 6075 9f3d
00000290: 002c efbc f143 093d 4924 fabd c4d1 703d
000002a0: ffd1 a13d fc8f 313d 43a3 123e a847 203e
000002b0: e03a 85bd 5de8 d6bd 97e1 653c 54ab 203d
000002c0: e664 843d e5d6 be3d ac43 3a3e 947a 253e
000002d0: 64e5 40bd dd65 393c 3dfb 943d 3bf1 93bc
000002e0: 20ac d5bd 06a9 c53d ece5 2cbe 72c3 fcbd
000002f0: 2d3e 873d 9770 8fbd 5421 4dbe 1216 92bc
00000300: 9bbc acbc ab18 673d de69 e13d 9ffc 6ebd
00000310: ec75 6abc ba72 8e3d 49d2 fe3b 43d1 203d
00000320: 827b e63c 461b 3fbd a104 09bd 80c5 3bbc
00000330: 3f69 34be fd4c ed3d 9f78 90ba 751c 1a3e
00000340: d3ba 483e 9f34 853d 5271 36be 1f33 8bbc
00000350: 7762 f2bc 35f3 8cbc 2574 a3bd 94af ee3d
00000360: 6906 e63d 464d bf3d 3562 aabd 3ea5 c73d
00000370: 52bb d43b db57 6dbd 6f01 4b3d 4ef2 b13c
00000380: db39 ba3d d56b 183d 8473 a5bd 8185 14bd
00000390: 2962 bcbc 15a2 bcbd 28d7 8abd 49b3 06be
000003a0: 4cb4 813d 7442 99bc ff43 9ebd f8dd bb3c
000003b0: 1f78 af3c df82 193e 2526 473e 58e7 493e
000003c0: a677 933e 2854 cc3d de21 42bd 382c 133e
000003d0: 5240 f53d 0a45 193e 6938 85bd f2b2 d3bc
000003e0: b918 893d 34aa 743d c53a 723d 1cab 2bbe
000003f0: 7240 1abd 941b 30be 3cac 573e 2b9f f4bd
0.07674789 -0.15675226 0.117516905 0.044354264 -0.0201914 0.028273087 0.032854293 0.04144562
-0.15154353 -0.04229175 -0.022552157 0.03044394 -0.021224646 0.104140736 0.08751399 -0.031850968
-0.06430614 0.07460739 0.052718863 0.014970922 -0.13255571 0.048716303 -0.14393762 0.1677025
0.006147837 -0.09168068 -0.0402305 -0.008616001 0.06816435 0.020952625 -0.10541547 -0.017888388
0.054562982 -0.008783636 -0.101943895 -0.038730685 0.07867519 -0.052501682 -0.114108615 -0.013748485
0.016845966 -0.064605124 0.042545736 0.04846392 -0.06862333 -0.010979725 0.038875356 -0.06535561
-0.05920368 0.017053539 -0.036393892 -0.044043 -0.14607595 0.051394597 -0.060661044 0.09494121
-0.114796035 0.09458316 -0.07916993 -0.11815409 -0.13528578 0.046476826 -0.045890547 0.16651082
0.038858376 0.033189025 0.05935456 -0.085080504 -0.097244486 0.07657693 -0.02790954 -0.2534553
-0.08113527 -0.22851887 0.06054798 0.040896613 -0.028904196 -0.031938218 0.118177466 -0.009726154
-0.17127083 -0.12447689 0.065275066 0.106340185 0.088534035 0.04659375 0.19445768 -0.07236706
0.15027204 -0.07986306 0.0031713378 -0.0131099755 -0.057762973 0.11849157 -0.009690554 -0.21093038
-0.08970953 -0.08915132 0.009737771 -0.20976523 0.07428532 0.015383537 0.13493107 -0.14011003
0.013171035 -0.04633349 0.1787717 0.012926592 -0.054305222 -0.11048733 0.056334164 0.2340107
-0.013322774 -0.09185849 -0.0382428 0.061781254 -0.06081382 -0.0036959385 0.07004666 -0.085041106
0.10388873 -0.18428184 0.2427703 -0.14506465 0.24813236 -0.22409555 -0.07419298 0.18497998
-0.113205254 -0.15515551 -0.0948944 -0.019557903 0.056290526 -0.037092566 -0.08803276 0.06818229
0.042302202 -0.0253015 -0.16416498 0.06930662 -0.011091106 -0.16647305 0.12968399 -0.10663514
0.042610876 -0.042748734 -0.1621991 0.10864154 0.029471206 0.029853584 -0.037262823 -0.07553048
0.07746182 0.20411734 -0.08736908 0.081394635 -0.18885006 -0.05484313 0.043408036 0.07228022
0.18679251 -0.17427722 -0.06743172 0.077860594 -0.029195786 0.03351206 -0.12213952 0.058793798
0.07901382 0.043350205 0.14320092 0.15652335 -0.0650537 -0.104935385 0.014030836 0.03922589
0.06464557 0.09318332 0.18189877 0.16160041 -0.047093764 0.01131579 0.072744824 -0.018059364
-0.10433221 0.09651379 -0.16884583 -0.12341966 0.06603656 -0.07003897 -0.20032245 -0.01783279
-0.021086028 0.05642001 0.11006521 -0.058346387 -0.014310341 0.06955476 0.007776533 0.039262068
0.028135065 -0.04665687 -0.03345168 -0.011460662 -0.17618273 0.1158695 -0.0011022276 0.15049918
0.19602518 0.06504177 -0.17816666 -0.01699215 -0.029587967 -0.017205814 -0.07981137 0.116545826
0.112316914 0.093409106 -0.08319513 0.09748314 0.006492057 -0.057945114 0.049561914 0.021721985
0.09093066 0.03721221 -0.080786735 -0.03626013 -0.022996025 -0.09210602 -0.06779319 -0.1315433
0.06333217 -0.018708445 -0.07727813 0.022932991 0.021419583 0.1499133 0.19448145 0.19717157
0.28802222 0.09976989 -0.04739558 0.14372337 0.11975159 0.14967743 -0.065049 -0.025842164
0.066941686 0.05973263 0.05913808 -0.16764492 -0.037659116 -0.1719802 0.21061796 -0.119444214

encoder.0.conv.0.bias f4 [80]
00000000: b7e9 d9ba b53c 3f3d 6bcf 9a3d 5ae1 f7bd
00000010: 8293 d03d 25d8 203c 5265 c1bc b2f6 5b3e
00000020: 0b74 16be 8aa2 333c 8794 0dbc 16ad c83c
00000030: 98f7 0fbe abd5 fbbd f728 e73c eb8a 64be
00000040: 40d9 553d e99b 39bc 3339 4ebe 1b77 b13c
00000050: b57e 75bd abb8 0e3e ee7b 5a3e d878 02be
00000060: 5633 423e f17f 7b3d 065e 693c bf5a 393c
00000070: 2bcb a5bd 9121 10be 7399 043c b550 84bc
00000080: d8c1 91bd f7b3 c93c 42e8 ca3d 6c9a 96bd
00000090: 9799 ffbd 3b8d 57be 8bfd dd3d 0a93 ef3d
000000a0: d372 1fbc b874 4fbd 34b7 82bd 1eb1 613e
000000b0: 1023 863d 82c9 32bd b85d 273d ff32 00be
000000c0: 034f eb3d b825 233e 698d 593d 47e5 093e
000000d0: 6b99 f3bd fabc f03c c8ea a83c 7c7a 4c3d
000000e0: 634b a3bd 2f28 4a3e a617 4abc c893 633e
000000f0: 3eaa 183e 717d 6e3a 588e 1abd a1d5 c03b
00000100: 9d84 8fbd 0cc4 5f3e 1039 3b3d 43c6 f83d
00000110: 2396 383d c476 23be ee8f 08be c854 efbd
00000120: 8be9 573d 0040 3f3e 483f c3bd 4333 ab3d
00000130: a3b1 8a3d 9e7d c5bd cf86 8f3d 6c9e 293d
-0.0016625439 0.046688754 0.07559093 -0.12103529 0.10184385 0.009817158 -0.023607884 0.21480826
-0.14692704 0.010964045 -0.008641369 0.024496596 -0.14059293 -0.12296613 0.028217776 -0.22318618
0.05220914 -0.011328676 -0.20139007 0.02166324 -0.05993529 0.13937633 0.21336338 -0.1274141
0.18964896 0.06140131 0.014243608 0.011313139 -0.08095392 -0.14075305 0.008093226 -0.016151765
-0.07117051 0.024621947 0.09907581 -0.073536724 -0.12480467 -0.21049969 0.10839375 0.11697967
-0.009731966 -0.05064842 -0.063825995 0.22040221 0.065496564 -0.043649204 0.04086086 -0.12519453
0.1148968 0.15932357 0.053113375 0.13466369 -0.118944965 0.029386986 0.020619765 0.049921498
-0.07973363 0.19741891 -0.01233474 0.22224343 0.14908692 0.0009097672 -0.037733406 0.0058848416
-0.07007716 0.2185213 0.045708716 0.121471904 0.045065057 -0.15963274 -0.13336155 -0.116860926
0.05271296 0.18676758 -0.09533554 0.08359387 0.06772163 -0.096431 0.070081346 0.04141085
