exomy/config/best_run_no_obstacles405k/checkpoints/279000_policy.pt (torch, 723582 bytes, 13 tensors)

log_std_parameter f4 [2]
000000 92 2f 97 bf 7f 8e 22 bf
       -1.1811392 -0.6349868

network.0.conv.0.weight f4 [512, 5]
000000 da 31 7a 3e a5 7e 66 be bf cb 00 3c cc b3 a6 bd
       0.2443308 -0.22509249 0.007861077 -0.08139762
000010 2b 01 2a 3e 84 23 20 3e 60 55 01 3e a9 18 0c 3e
       0.16602008 0.15638548 0.12630224 0.13681282
000020 1b 40 9e bd 47 4d 3c bc 63 02 fc bc c6 2f 7d bb
       -0.07727071 -0.011493034 -0.030762857 -0.0038633212
000030 80 50 04 ba ac 20 82 be 6b d7 6b 3d 1c 2c 46 bc
       -0.0005047396 -0.25415552 0.057578485 -0.012095477
000040 f5 46 af bd 4b 41 5e 3e 91 97 81 3d 26 2d 2e 3e
       -0.08558456 0.21704595 0.06327737 0.1700941
000050 71 a5 55 3d 66 b2 4a bc cd dc a8 3d 47 60 45 3e
       0.05215973 -0.012371635 0.082452394 0.19275008
000060 a9 d5 00 3e b3 bb 6b 3e 38 9d bc 3e 18 dc 73 bb
       0.12581505 0.2302082 0.36838698 -0.0037210044
000070 dd 1f 30 be b5 db e3 bc bf 1c 95 be ef 83 92 3b
       -0.17199655 -0.027814725 -0.29123494 0.004471294
000080 28 f2 b9 3c 32 7c b1 bc c7 c3 78 bd 56 36 d2 3b
       0.022698477 -0.021665666 -0.060733583 0.0064151688
000090 40 24 09 bd 2a 53 46 3d cd be c2 3d 60 cc 96 bd
       -0.033481836 0.048419155 0.095090486 -0.073632
0000a0 84 d4 12 3d 07 0a ae be 56 c9 02 bd 0f 5b 33 bd
       0.035847202 -0.33992025 -0.03193029 -0.043788012
0000b0 3c 90 a7 bc 79 5c 3f be c7 d8 d5 bd fd 06 60 be
       -0.020454518 -0.1868762 -0.104417376 -0.21877666
0000c0 33 82 00 3d 5b c2 40 be b7 f3 4e bc da 83 c7 3e
       0.031374168 -0.1882414 -0.012631348 0.38967782
0000d0 8c 18 80 3d 9c aa 2d 3e b9 9a 41 3b dc 63 96 bc
       0.06254682 0.16959614 0.0029541685 -0.018358164
0000e0 e0 27 73 3e 31 5b 37 bd a1 5f 0d 3e 3e 35 90 bd
       0.2374568 -0.0447647 0.13806011 -0.07041405
0000f0 9a 53 7d 3e 4a 68 b9 bd d2 93 b2 3d 3e fb ff 3c
       0.24738923 -0.09053095 0.08719601 0.031247731
000100 27 97 02 3e 6d 12 45 3e 91 41 8d be 90 f2 aa 3a
       0.12752973 0.1924531 -0.27589086 0.001304226
000110 a4 04 48 3e 5f 97 03 3c 18 a8 09 be bc 60 05 3d
       0.1953302 0.008031695 -0.13443029 0.032562956
000120 1d 7c 8b 3d 68 a9 aa 3d 23 fd 1b 3e 13 9e 34 be
       0.06810782 0.08333093 0.15233283 -0.17638426
000130 45 01 b8 3e e1 1b fa 3c c1 f4 20 3e 4e e2 07 bd
       0.3593847 0.030530872 0.15718366 -0.033174805
000140 6b 98 32 3e d2 31 02 3f 2c a6 2e 3d d4 cb 18 be
       0.17440955 0.5085727 0.042638943 -0.14921504
000150 7b 76 17 3e b0 66 1d be 44 47 a8 3d b5 c3 8a 3d
       0.1479129 -0.15371203 0.08216718 0.067756094
000160 16 e0 ea bd 03 47 46 3d 98 eb 73 3e 9a 7e 3e 3e
       -0.11468522 0.048407566 0.2382034 0.18602982
000170 62 7d a0 bd 23 5f 1a 3c f3 a9 13 3d 83 57 c3 be
       -0.07836415 0.009422096 0.036050748 -0.38152704
000180 33 fb 93 be aa aa c3 bc 0a b6 53 3d 39 64 19 bd
       -0.28902587 -0.02388509 0.051687278 -0.037449095
000190 2c 53 16 be 53 50 e0 3d e2 5f ee bd dd 5e 82 bc
       -0.14680165 0.10952821 -0.11639382 -0.015914375
0001a0 e5 cf 9f 3d 90 06 9a be 98 8c 84 3e 2f 3e 60 bd
       0.078033246 -0.30083132 0.25888515 -0.054746803
0001b0 9d b4 86 be d7 fa 64 3e 5c a6 02 bd bd e9 9a bd
       -0.26309672 0.22361313 -0.031896934 -0.07564113
0001c0 9a bc 04 3d ef ab 40 3d f6 d9 10 bc 5b 95 11 be
       0.032406427 0.04703897 -0.008841028 -0.14217131
0001d0 c7 7e ab 3e a7 27 00 bc f8 83 e1 3b 8c 9d 2c bd
       0.3349516 -0.007821954 0.006882187 -0.042142436
0001e0 06 b0 b1 3e 6f c0 48 3d f8 6e d1 3d be 2d 95 bc
       0.34704608 0.049011644 0.10226244 -0.018210288
0001f0 db 35 eb bd 9e cb 32 be 61 90 b9 be f2 5a cf bc
       -0.114848815 -0.17460486 -0.36242965 -0.02531192
000200 65 84 9a 3d 4d 96 89 bd 38 44 b5 be 98 e8 dc 3c
       0.075447835 -0.06718121 -0.3540361 0.026966378
000210 c9 93 0c 3e d2 6c 01 bd 37 bb 87 bc fc 32 b8 be
       0.1372825 -0.03159792 -0.016568763 -0.35976398
000220 24 1b d3 3e f1 79 87 bd 0f 28 b4 bd 6f 47 90 bd
       0.41231644 -0.06615055 -0.08796703 -0.07044875
000230 61 81 10 3e fc 18 b4 3d 59 2e d9 ba a9 5a 16 3e
       0.14111854 0.08793828 -0.0016569599 0.14683022
000240 73 0d 74 bc 3f a1 d7 3c c8 89 93 3e 54 49 94 3d
       -0.014895785 0.026322005 0.28816056 0.07240549
000250 54 17 6d 3d e2 e6 1a bd 4b 81 0f be 3a f4 07 3e
       0.057883576 -0.037817843 -0.14014165 0.13276759
000260 33 a9 f2 3c 3c 0f 1e be 63 ce 51 be bd 65 91 be
       0.029621696 -0.15435499 -0.20488887 -0.28397933
000270 b7 4e 60 be 86 1d 0d 3e f9 88 8c 3d 00 85 06 be
       -0.21905027 0.13780794 0.06862063 -0.13136673
000280 49 b7 84 be c3 1b 1d be d5 f8 53 3c 13 95 2e be
       -0.25921085 -0.15342622 0.012937744 -0.17049055
000290 36 f2 c6 3d e8 10 75 be ec 73 ca 3c a6 36 44 3c
       0.09714167 -0.2393223 0.024713479 0.01197592
0002a0 48 90 9b 3c c3 c8 ba bd 48 57 26 3c 14 6a d2 3e
       0.018989697 -0.091203235 0.010152645 0.41096556
0002b0 89 06 0a 3d fd 43 f6 bc 7b 31 f6 bc ea aa 93 3e
       0.03369764 -0.030061716 -0.030052891 0.28841335
0002c0 b0 56 7f 3d 57 9f 4e 3d 70 e9 92 bd a7 cc 8e bd
       0.06233853 0.050444927 -0.07173431 -0.06972628
0002d0 3a 89 86 be 50 9f e0 3e c3 71 68 bd d2 5f 05 be
       -0.2627657 0.43871546 -0.056749117 -0.13024834
0002e0 63 2a 61 3e fe 62 b9 3e b7 b4 a5 3c 26 ac 3d bd
       0.21988826 0.36208338 0.020227773 -0.04630675
0002f0 9f 9d 75 3d 86 7f 84 3c b0 04 ea bd cc 6a 3f be
       0.059964772 0.01617409 -0.11426675 -0.18693084
000300 6c 5d 90 3d 85 b4 e5 bc 7f 27 fe 3c d4 fe 49 bd
       0.07049069 -0.02804018 0.031024693 -0.04931529
000310 fe 61 18 bf 4d b8 85 bd a7 d8 3b bd 23 aa 03 3e
       -0.59524524 -0.06529293 -0.045860913 0.12857871
000320 5f a9 95 3c 03 86 8d 3e 84 88 b5 3c 40 41 e4 3d
       0.018269239 0.27641305 0.022159822 0.11145258
000330 59 a1 b4 3c 46 da 26 be 69 22 8e be fe 68 13 bc
       0.022049593 -0.16294202 -0.27760628 -0.0089972
000340 a0 18 ed bd 3e 77 9c bd e5 9f e4 bd 16 52 94 be
       -0.115769625 -0.07639931 -0.1116331 -0.28968877
000350 05 0a fe bc 1f dc 20 bd b0 dc 52 be 76 7d 9b 3e
       -0.031010637 -0.039272424 -0.20591998 0.30369157
000360 5e 9d dd 3e 34 16 bd ba 0b fb 95 bd 68 54 e1 3d
       0.43284124 -0.0014426173 -0.07323273 0.11002427
000370 67 5b a2 be 40 66 9a bd 34 52 09 3e 44 ad b7 3d
       -0.3171036 -0.07539034 0.13410264 0.08968595
000380 10 9b 38 be 95 7e 9e 3d e1 a0 bc 3d 20 f4 8b 3c
       -0.18027902 0.07738987 0.09210373 0.017084181
000390 fe 21 91 bd be 71 a3 3d 4e 94 b3 3e 81 c5 5a be
       -0.070865616 0.07980679 0.35074085 -0.21364404
0003a0 2c c1 72 bc e4 82 97 bd bd 74 fa bd bd 71 a5 3e
       -0.014816564 -0.07398012 -0.12229297 0.32313338
0003b0 13 fd 8b bd 68 79 4f bc c8 db 82 bd 29 5d 99 3d
       -0.068353795 -0.012663223 -0.06389576 0.07488472
0003c0 df c2 b4 bd 1a 53 22 3e 1d 60 b9 3c d6 26 d8 bd
       -0.08826231 0.15852013 0.022628838 -0.10554282
0003d0 2b 44 84 bd bf ee 96 be 56 06 a8 be 06 98 16 3b
       -0.064583145 -0.29479024 -0.32817334 0.0022978797
0003e0 33 a6 82 bd e3 c5 3a bd 8b ec 4e 3e b0 3d ae 3e
       -0.06379356 -0.045598876 0.20207421 0.3403144
0003f0 42 74 e4 3d 34 58 3e be 97 83 63 be fe bc 7c 3e
       0.11154987 -0.18588334 -0.22218166 0.2468147

network.0.conv.0.bias f4 [512]
000000 57 37 a2 3d d8 d6 3a be 4e b5 7e bd 8a 92 eb bc
       0.079207115 -0.18246019 -0.062184624 -0.028756399
000010 e0 5b 9f be 78 e6 95 3c a0 f6 24 be cf c3 4b be
       -0.31124783 0.018298373 -0.16109705 -0.19898914
000020 52 e4 01 3e 7e a8 0d bd 51 2a 86 bd e6 87 e1 3b
       0.12684754 -0.034584515 -0.0655104 0.0068826554
000030 2f ef c5 bd 86 e4 12 3d f8 10 61 bd 7d 36 bb 3d
       -0.09664761 0.03586247 -0.054947823 0.09141252
000040 9b e1 f2 bb d7 e5 0e be 27 06 c9 3b a0 bd 9f 3d
       -0.007412148 -0.13954864 0.0061347666 0.0779984
000050 cf fb 29 3e 33 50 89 3d 3e 22 2a be 1e 5a 4c 3d
       0.16599964 0.0670475 -0.16614625 0.04989063
000060 5e ce 17 3e f7 3a b2 3d 43 31 77 3c 26 d9 35 3d
       0.14824817 0.08702653 0.0150874285 0.044396542
000070 cb 1a 31 be 54 ac ce bd 86 df ab bb c2 95 dc bd
       -0.17295377 -0.10091463 -0.005245152 -0.107707515
000080 1d 89 1b 3e 27 68 6b 3c e8 20 f3 3c 51 bc cc ba
       0.15189023 0.014368094 0.029678777 -0.0015620088
000090 47 5a b5 3b d6 70 90 bc d9 dc fb bb 63 d0 35 3d
       0.0055344435 -0.01763193 -0.007686239 0.044388186
0000a0 c2 7b c8 3d 0f fc 12 3e 0e b4 eb bd e9 32 be 3c
       0.0978923 0.14353965 -0.11508952 0.023217635
0000b0 ad 37 28 be 3a cc 0c 3e bd a9 a4 3c 09 1c 6a bd
       -0.16427489 0.13749781 0.020100469 -0.057155643
0000c0 d6 f0 10 3d 7a d8 c9 3d 2e 2d 96 bd 11 d8 cc 3c
       0.03538593 0.09855743 -0.07332836 0.025005372
0000d0 31 31 56 3d 03 ca 00 3e d8 ee 98 3d 3d 00 1b 3e
       0.052293006 0.12577061 0.07467431 0.1513681
0000e0 d0 b1 b2 ba 48 f2 50 bb 1f 80 67 3c 39 02 4e be
       -0.0013633315 -0.0031882692 0.014129668 -0.20118035
0000f0 a4 1b a8 3d 52 c3 b8 3c 14 3b 3c 3e 20 b7 c1 3d
       0.08208397 0.022554073 0.18381912 0.094587564
000100 d9 9c 5f 3e 70 14 0e bd 0f b2 80 3d 1d 00 8a 3d
       0.21837176 -0.03468746 0.06283962 0.06738303
000110 66 64 5c bd aa 21 c4 3d 09 c6 16 3c ea ce 47 3c
       -0.053806685 0.095767334 0.009202489 0.012195328
000120 87 00 8e bd 04 14 00 bd db df da bd b9 3c a2 ba
       -0.06933694 -0.03126909 -0.10687228 -0.0012377716
000130 12 4b 25 be d2 49 01 bc ee b3 5a bd 2e 1d 5f be
       -0.16141918 -0.007891135 -0.05339425 -0.21788475
000140 a0 8f c1 3d a5 ed 4a 3d 19 8a 3a bd a4 30 4a 3e
       0.094512224 0.04954304 -0.045541856 0.19745117
000150 30 ed 2b 3e ae 90 12 3d 6f 9f 80 3d d9 44 12 bd
       0.16789699 0.03578251 0.062804095 -0.03571019
000160 e6 84 d8 bb 3b 02 3d be c9 3b c1 3c 2e 9c fb bd
       -0.0066076396 -0.18457882 0.023588078 -0.12285648
000170 81 4c 5e 3d ef 26 84 be 1a 95 6d bd f6 80 cf 3d
       0.05427218 -0.25810954 -0.058003522 0.10132019
000180 31 8a 06 3e c9 39 05 3e 15 ea 25 bd 59 15 8b bc
       0.13138653 0.13010325 -0.04050644 -0.016977953
000190 56 86 de 3d 43 d3 86 3d 15 3a 07 3e aa 21 28 be
       0.10865466 0.06583264 0.1320575 -0.16419092
0001a0 62 de 40 3d d6 5e 3a 3d dd 78 b7 bd 2f a9 c2 bc
       0.04708708 0.0455006 -0.089586 -0.023762314
0001b0 67 38 98 bd 9e 0c b5 bd 02 a4 13 3c e3 f1 ee 3c
       -0.07432633 -0.08840297 0.0090112705 0.029168075
0001c0 93 ab 96 bd 5c d6 ed 3d 46 dd 07 3d ef 50 0b be
       -0.07356944 0.116131514 0.033170007 -0.13605092
0001d0 4b 12 b8 3d e8 aa 0a bd 66 27 a5 3c a2 4d 50 3d
       0.08987864 -0.033854395 0.020160388 0.050855286
0001e0 0e a9 a0 bd 78 ce 89 3b 26 01 80 3d d8 8c ad bb
       -0.078447446 0.004205521 0.06250219 -0.005296331
0001f0 3d 8f 24 be 0b 57 23 be 87 0c 2b be 23 17 bf 3d
       -0.16070266 -0.15951173 -0.16703998 0.09330585
000200 28 e6 b1 bd 27 d4 d2 3d 88 06 ea 3c 29 5c fa bd
       -0.08686477 0.10294371 0.028567567 -0.122246094
000210 a2 66 04 bd ed 90 1d 3c 22 dc 49 3d 8b 69 ed 3c
       -0.03232444 0.0096170725 0.0492822 0.02898099
000220 e8 0f f5 3a 83 d3 0b 3c 34 c1 ad 3c 79 5e ed bb
       0.0018696757 0.008534315 0.02121029 -0.007243928
000230 c4 98 42 be b3 52 3f be 65 b9 7f 3d 9f e6 b7 bd
       -0.19003588 -0.18683891 0.062432665 -0.08979534
000240 9b f3 89 bb 78 b8 30 3b 77 a9 76 bd ca 0a eb bd
       -0.0042099482 0.002696542 -0.060220208 -0.11476667
000250 73 9d 44 3d 8c 4c 78 ba 7d 71 ed 3b 9b 94 8f bb
       0.048001718 -0.00094718556 0.007246195 -0.004381729
000260 fb 1b 4e be 3b 28 58 bd b7 75 fd bd de 7a e6 3d
       -0.20127861 -0.05277274 -0.12375968 0.11253904
000270 d0 eb 8e 3b 8f 8a 7d 3d 58 af 86 bd cb 1b be bd
       0.004361607 0.061899718 -0.06576413 -0.09282645
000280 fa fa 3b bd 15 18 af 3c be b4 9e bd 97 23 48 3e
       -0.045893647 0.021373788 -0.077493176 0.19544826
000290 95 a5 8b bd c6 8a d3 3a aa 7d 41 3d f5 03 55 3e
       -0.06818692 0.001613938 0.047238983 0.2080229
0002a0 26 2d a8 3c 05 08 6d be 51 1e 4b bd 68 59 24 be
       0.020529341 -0.2314759 -0.04958946 -0.16049731
0002b0 c0 d4 5b 3e c1 3a 48 be 47 b3 b9 bd 20 e3 84 bd
       0.21467876 -0.19553663 -0.090673976 -0.06488633
0002c0 39 9b 01 bc c7 ec 07 bc 83 87 e5 3b 17 1f 88 bb
       -0.007910543 -0.008296198 0.0070046796 -0.004154097
0002d0 35 7c 0f bd 51 64 c4 3d c6 24 9e bd 69 c7 62 be
       -0.035030562 0.09589446 -0.07721858 -0.22146381
0002e0 18 dc 23 be c0 3a 60 3d a8 19 56 bd f2 c3 3b be
       -0.16001928 0.05474353 -0.05227056 -0.18336466
0002f0 ab 3d db 3d 35 f0 2f be 87 13 bf 3d 40 90 f7 bd
       0.107051216 -0.17181475 0.093298964 -0.120880604
000300 58 d2 17 be 21 58 1c be fc 73 57 bd 97 e6 15 3e
       -0.14826334 -0.15267994 -0.052600846 0.14638744
000310 3c 28 0b be 9d b7 54 3d c4 4d 58 3c 81 f7 54 bd
       -0.13589567 0.05193292 0.0132021345 -0.05199385
000320 21 0a 35 3d db 31 81 be 87 d3 62 ba 7d eb d5 bc
       0.044199113 -0.2523335 -0.0008652736 -0.026113266
000330 f8 2f b3 bc 00 2f 04 3d 96 20 91 3d 0b 81 f5 bd
       -0.02187346 0.032271385 0.070862934 -0.119875036
000340 01 92 0f be f0 c2 e0 bd eb 66 85 be 35 b6 49 be
       -0.1402054 -0.109746814 -0.26055083 -0.19698413
000350 ac 75 59 bd de 76 5c bd 76 fc 8e 3d 42 29 e9 3d
       -0.053090736 -0.053824298 0.06981747 0.113848224
000360 91 03 08 3e dd b7 c0 3d 5c 45 8a 3d 5a da ed bd
       0.1328261 0.09410069 0.067515105 -0.11613913
000370 ae 34 40 bd 6d 3d 72 bd 19 d1 2e be b1 f9 80 be
       -0.04692524 -0.05914061 -0.17071952 -0.251905
000380 fc 3f 36 be 38 aa 42 3d 18 a0 3d bd 14 03 c1 bd
       -0.17797846 0.047525615 -0.046295255 -0.09424415
000390 93 67 26 be 07 2b 3b 3d 08 5a 27 be 1e ac ad 3c
       -0.16250448 0.04569533 -0.16342938 0.021200236
0003a0 e4 de 56 be 3f 19 f2 3d 6e e7 25 be 33 f7 3c be
       -0.20983464 0.118212216 -0.16201565 -0.18453674
0003b0 b3 c3 d3 3d 21 c0 22 bb 6a 34 0c be 31 fd 00 3d
       0.10340061 -0.0024833756 -0.1369187 0.031491462
0003c0 9e b1 d5 3c 94 e9 c0 3d bf c9 36 be 61 4e 85 bc
       0.026085671 0.094195515 -0.17850398 -0.016272726
0003d0 d3 75 f4 3c ff d7 c6 bc 8e 8d 34 3d dd f8 0a 3d
       0.02984134 -0.024272917 0.04408031 0.03392874
0003e0 c8 eb 16 3d f8 0e 2b be aa e0 88 3b d1 b1 bd bd
       0.036845952 -0.16704929 0.0041771727 -0.092624314
0003f0 12 d7 2c bb 6f da ba 3b fc a8 04 be 5a cd ea bd
       -0.002637331 0.005702309 -0.12955087 -0.11464949

network.1.conv.0.weight f4 [256, 512]
000000 90 d9 7e 3d 66 7b 39 be 12 9b 78 bd 94 44 09 3d
       0.062219203 -0.18113479 -0.06069476 0.033512667
000010 fb 51 e3 ba 6c 86 73 bd 2c 65 f7 bd e5 0d 37 bd
       -0.0017343158 -0.059454367 -0.12079844 -0.044690985
000020 98 1a 9e 3c 4b 73 9b bd 2c f2 32 be eb 54 a4 3d
       0.01929979 -0.0759035 -0.17475194 0.08024009
000030 70 4f 0c 3e a2 0d af bc 5c ec bf bd f6 c3 b8 3e
       0.13702178 -0.021368805 -0.09371254 0.36087006
000040 f7 f9 66 be c6 e1 00 3d 8b 16 21 3d 0c 4a 51 3e
       -0.22556292 0.031465314 0.03932814 0.20438403
000050 7d eb 04 3e cf a9 94 3e 31 ee cb 3d cc 10 16 3d
       0.12980457 0.29035804 0.09957541 0.036637112
000060 ad be 32 3e 24 1c 2b bd ea b8 4d 3e 6e a3 17 3e
       0.1745555 -0.041774884 0.2009007 0.14808437
000070 90 66 f2 bd f7 4a f3 bc 6e 79 13 be 7a 6d 84 bc
       -0.118359685 -0.029698832 -0.1440179 -0.016165484
000080 7f 9f 0b 3e a7 06 02 3d 46 b8 04 3d 89 cc 7a 3d
       0.13635062 0.031744625 0.0324023 0.061230216
000090 35 97 62 bd ff 02 49 be da 80 c4 bc c3 29 5c be
       -0.055319984 -0.19630049 -0.023987222 -0.21500306
0000a0 dd f9 46 3d 62 8d 9f 3e f8 c6 13 3d be 42 a1 be
       0.048578132 0.31162554 0.036078423 -0.31496233
0000b0 48 9b d1 3d b0 0a 0b bd dc 1a 8f bd 4c a5 0e be
       0.10234696 -0.03394574 -0.06987545 -0.13930243
0000c0 b5 8d 4c 3d eb 6a a9 3c ba 33 e5 3c a4 df 32 bd
       0.04993983 0.020680865 0.027978767 -0.04367031
0000d0 25 75 23 3e 8b 4a b5 3d 85 0e 9e 3e de 7d ad bc
       0.15962656 0.088521086 0.30870453 -0.021178182
0000e0 b5 2f 8e be 10 a5 52 be 1d 69 25 be 38 5e a0 be
       -0.27770773 -0.20570779 -0.16153379 -0.31321883
0000f0 c6 33 be bc 5a 66 10 3e 54 b0 8b b7 58 b5 86 bc
       -0.023218047 0.14101544 -1.66522e-05 -0.016443893
000100 37 fa 1d 3d a7 5b 88 be 73 08 c2 bc be a7 85 3d
       0.0385687 -0.26632425 -0.02368567 0.06526135
000110 02 dd 68 bd ba 7e 31 3d 06 ac ef 3d 58 25 8f bc
       -0.056851394 0.043333746 0.11702733 -0.017473862
000120 8d 63 59 3d a0 7e 93 3e a6 4e eb bb 48 9d 4c be
       0.053073455 0.28807545 -0.0071810065 -0.19981873
000130 0e df 3b be 80 ab c3 3c 78 8f cd 3d 57 7b 04 3e
       -0.18346807 0.023885489 0.1003713 0.12937675
000140 df d4 df 3c 28 86 aa bd d4 d3 54 be 6c 92 1b 3e
       0.027323185 -0.083263695 -0.20783931 0.15192574
000150 40 b4 cb bd 84 de e9 3d c0 9b 59 be cf 1b 5d bd
       -0.09946489 0.114193946 -0.2125082 -0.0539816
000160 02 af 39 3e b9 66 84 3e 99 fc 73 3e 9a 43 b2 3d
       0.18133166 0.2585962 0.23826827 0.087043
000170 85 9a b4 3e 6c 9e 50 be 86 53 74 3d ec 11 ff 3c
       0.3527414 -0.20372933 0.059649967 0.031136476
000180 f9 a4 61 bd c4 4e 23 3e d0 db 1a bd b2 87 2b be
       -0.05508897 0.15948015 -0.037807286 -0.16750982
000190 8a 5b 06 3e 5c 1d f8 3b f9 84 be 3d 79 e3 f3 bd
       0.13120857 0.0075718593 0.09302706 -0.11908621
0001a0 ed 4f 79 3e c4 5d 4a bc 15 7f 06 be 85 97 a3 3c
       0.24346896 -0.012351457 -0.13134415 0.019969711
0001b0 f9 a8 72 3e 09 36 ed 3d a8 38 6a 3e fc ad 85 3d
       0.2369727 0.11582572 0.22873175 0.065273255
0001c0 e3 26 b4 3c 15 db 09 3e 1d bd 83 3e 3e d6 d8 bd
       0.021991199 0.1346248 0.2573022 -0.105877385
0001d0 93 78 d3 3d e4 4c 15 be e2 d6 91 bd 7b 94 64 3d
       0.10325732 -0.14580113 -0.07121064 0.055805665
0001e0 01 4c 2c bd 9d 01 7c 3e ae c0 af bd e4 c2 d8 bc
       -0.04206467 0.2460999 -0.085816726 -0.026460119
0001f0 d9 0f f8 bd 01 09 9d be 04 2b a1 be 4e 83 e9 3c
       -0.12112398 -0.30670932 -0.3147813 0.028504994
000200 09 0a e4 3c 58 04 2b 3c 74 74 57 3e 23 23 ed ba
       0.027836816 0.010438047 0.21040517 -0.0018092137
000210 50 0e 31 bc a3 fe 99 bb b7 2d c6 bd 35 0b 85 3d
       -0.010806635 -0.0046995445 -0.09676688 0.06496278
000220 23 0f 60 3d d2 10 91 3d 45 fa 0b 3d 36 ac f9 3c
       0.054701935 0.07083286 0.034174222 0.030477624
000230 5b 65 3b 3c 30 ee d2 3c 32 16 4d be b5 ca cb 3d
       0.011437739 0.025748342 -0.20027998 0.09950773
000240 f4 3e 90 3d e5 45 c6 bd b1 35 d4 bd c0 25 20 bd
       0.07043257 -0.096813 -0.10361803 -0.0390985
000250 59 96 3d 3e a8 c3 39 bd a9 c7 07 3c 4d ce 35 3c
       0.18514384 -0.045352608 0.008287349 0.011096549
000260 db ce 73 3d 4e 24 25 3e 8d 58 7d 3b cf 1d 5d 3d
       0.059523445 0.1612713 0.0038657517 0.053983506
000270 18 ac 47 3e 5d 11 eb 3d 06 ba 06 be 39 d0 a8 3c
       0.19499242 0.11477921 -0.131569 0.0206071
000280 f0 dc 92 bc 70 08 d5 3c 35 6f 1a 3d 64 63 a8 3d
       -0.017927617 0.026005 0.03770371 0.08222082
000290 ad bc fc bd f5 37 39 3e 66 12 d9 3d cb da 08 3e
       -0.123406745 0.18087752 0.10599212 0.13364713
0002a0 c5 91 8e bb 5c a5 83 bd da a7 17 3b fc 46 f4 bd
       -0.004350873 -0.06428024 0.0023140819 -0.11927602
0002b0 05 65 37 3e e7 b0 34 bd 48 74 92 3d 4b 50 0c be
       0.1790963 -0.04411402 0.07151085 -0.13702504
0002c0 87 96 2c bd 60 32 2d 3e 27 60 d1 3d 2e e1 01 ba
       -0.04213574 0.16913748 0.10223418 -0.0004954514
0002d0 14 72 d8 bd 81 36 e7 3b 1a 57 55 3d a5 83 07 be
       -0.10568634 0.007056058 0.05208502 -0.13233812
0002e0 45 ba 41 be 8f 83 ec 3d 14 43 9e 3d 94 c5 9e bd
       -0.18918712 0.1154853 0.07727638 -0.07752529
0002f0 c4 1b 45 3c c2 96 ac 3d 5a 01 9b 3d 00 5f 44 be
       0.012030546 0.08427192 0.07568617 -0.19176865
000300 45 34 69 be 45 da 57 3d 51 d8 8d 3d 82 35 3f 3d
       -0.22773845 0.052698392 0.06926025 0.04668189
000310 ae a2 0b 3e f3 a1 a0 bc 6e cb 0c 3e fb a7 6c bd
       0.13636276 -0.019608473 0.13749477 -0.057777386
000320 3c d7 fc bc 01 db 06 be fc 63 b8 ba b7 ec 90 bd
       -0.03086435 -0.13169481 -0.0014067884 -0.070764
000330 82 a2 83 3d e7 2d e9 3d 5b f7 3a 3e f1 80 e8 be
       0.0642748 0.11385708 0.18258421 -0.45410874
000340 75 b3 e2 3c 2d dd 7d be 22 49 a3 3b c0 e2 e2 bd
       0.027673462 -0.24791403 0.0049830833 -0.110784054
000350 f1 60 be 3d f6 91 03 3d 68 d7 d0 bb 61 d4 93 3d
       0.09295834 0.03212162 -0.0063733347 0.072182424
000360 d5 84 c1 3d c1 64 25 3e b4 75 be 3d 4c 52 eb 3c
       0.09449164 0.16151716 0.09299794 0.028725766
000370 f0 57 9f 3d 3c 11 c5 3c 18 83 ec bd a6 6f b3 bb
       0.077804446 0.02405607 -0.11548442 -0.005475956
000380 1c cc 0e be f5 dc 09 3d ff 28 87 3d 80 ce 4f be
       -0.13945049 0.033657987 0.06599616 -0.20293617
000390 c6 8f 41 be be 21 d2 bd b8 b8 8e bc 73 4c dc 3d
       -0.18902501 -0.10260342 -0.017422065 0.10756769
0003a0 71 56 d1 bc 3d c4 03 3d b5 ad e6 bc 45 32 10 bc
       -0.025553914 0.03216957 -0.028159002 -0.008801048
0003b0 1d a6 12 3d 08 b5 11 3d 85 e7 d5 bd 29 0e 27 3d
       0.03580295 0.035573035 -0.104445495 0.04078499
0003c0 5a 03 4b 3d d1 ed 18 3e c4 ef b1 bd 77 23 a5 3d
       0.049563743 0.1493447 -0.0868831 0.08063405
0003d0 64 63 34 bd ec f9 e6 bd 88 33 86 3d 55 a1 b9 bd
       -0.0440401 -0.112781376 0.065527976 -0.09063975
0003e0 fe bc 97 bc 36 4c a8 be 17 88 8c 3d 54 9c ec bd
       -0.018522736 -0.32870644 0.068618946 -0.11553255
0003f0 7f 1c 68 3e fb e4 fd bd 13 8b 68 bd 66 e9 58 3d
       0.2266712 -0.1239719 -0.056773257 0.05295696

network.1.conv.0.bias f4 [256]
000000 cf e4 c3 bc 90 4a ab bb 82 10 24 3d d4 d7 59 3c
       -0.023912815 -0.0052273944 0.040054806 0.013296086
000010 ec 9c f7 bb fc 2e 95 3d 40 c8 41 3d f0 e6 72 3d
       -0.0075565483 0.07284352 0.047310114 0.05930227
000020 7b 58 69 bd 89 d2 59 3d f3 7e 6f bc f9 60 25 be
       -0.056969147 0.053179298 -0.014617669 -0.16150273
000030 a4 04 92 3d 37 a2 d6 bd f8 c8 bd bd 6c 58 ce bd
       0.071297914 -0.10480159 -0.09266847 -0.10075459
000040 ca 3d 69 bd 49 9c 5d ba 40 51 b5 3c ea 45 33 be
       -0.056943692 -0.0008453769 0.02213347 -0.17507139
000050 7f 9a b1 bd 4f 2c 5d 3e 98 8f 94 bd 10 c0 19 bd
       -0.08672046 0.21598934 -0.07253951 -0.03753668
000060 b4 e1 86 bd cd f8 f9 3b 87 19 2e be d4 95 c4 3c
       -0.06586018 0.0076285363 -0.17001925 0.023997225
000070 41 02 12 be fe 21 e2 bb 92 ea 09 be 89 9b c5 3b
       -0.14258672 -0.006901025 -0.13468388 0.006030504
000080 cf de 96 bd 26 5e 72 be 01 e3 56 3e 91 5f be bd
       -0.07366716 -0.23668727 0.20985033 -0.092955716
000090 ed 04 4a be 97 68 a0 3c 47 dd cc 3b 40 6b 34 bd
       -0.19728442 0.019581122 0.0062519643 -0.044047594
0000a0 32 35 e5 bd d8 25 15 be 28 76 5c be db fb 93 3d
       -0.11191787 -0.14565217 -0.21529448 0.07225772
0000b0 92 89 b9 3c 7d f9 0e 3d 99 a4 f3 bd a0 11 91 bb
       0.022648606 0.0349059 -0.11896629 -0.00442715
0000c0 bf 92 82 bd d1 19 85 3d 25 bb 53 bd bd 17 ca 3d
       -0.06375646 0.06499065 -0.051692147 0.09867809
0000d0 b3 5f 75 bd 12 fb 6f bc c8 e7 8d bd aa 79 a0 3c
       -0.05990572 -0.014647262 -0.069289744 0.019589264
0000e0 b5 97 80 3d 82 f7 35 3d 1d 3d e0 3c 84 21 1b 3e
       0.06278936 0.044425495 0.027372891 0.15149504
0000f0 4f a0 0d be 67 64 8a bd dd c4 5f bc f4 0a 1c 3d
       -0.13830684 -0.067574315 -0.013657776 0.038096383
000100 cb 5f bc 3c f7 05 06 3d 2c 22 15 3e 47 ad 5a bd
       0.022994896 0.032720532 0.14563817 -0.053387906
000110 0a 66 e8 bc 7a 5b 8c bd 86 ae 0b bc 07 0a b4 bd
       -0.028368969 -0.06853385 -0.008525496 -0.08790975
000120 19 83 a7 3d 13 79 ca bd 5f 94 07 be ba e5 19 bb
       0.08179302 -0.09886374 -0.13240193 -0.0023482875
000130 77 89 a1 3c 77 2f 07 3d 3d a7 97 bb c0 34 5a 3e
       0.019718869 0.03300425 -0.0046280907 0.21309185
000140 1f 00 ed bd 1b 5c 18 3d 8d 4c 1d be fd 5d a2 3d
       -0.11572289 0.037197214 -0.15361233 0.07928083
000150 1b 5f 34 be ec 5e 94 bd 18 78 67 bd b5 0e 30 bd
       -0.17614405 -0.072446674 -0.056511015 -0.042982776
000160 d6 18 a6 3d 32 c3 2f 3c a9 3d 28 39 01 ef 0e 3e
       0.08110206 0.0107276905 0.00016044699 0.1395836
000170 db 29 dd 3d e7 03 07 3e d9 ce 55 bc 56 30 05 bc
       0.10798999 0.13185082 -0.013049805 -0.0081292
000180 57 8b 35 be 8c e8 10 bd 7c eb 12 bd c9 4e a3 3e
       -0.17728935 -0.035378024 -0.035869107 0.31896046
000190 b6 73 15 3d ee 28 85 bd de 98 8a 3d 49 c0 37 be
       0.036487304 -0.06501947 0.06767438 -0.17944445
0001a0 32 32 5e be 76 aa 6b bd 66 28 e4 3d c9 e5 30 be
       -0.21698835 -0.05753561 0.11140518 -0.17275156
0001b0 60 70 11 3d 9c 1a 6f bc 87 6f 0c 3e eb 9b 30 be
       0.03550756 -0.0145937465 0.1371442 -0.17246978
0001c0 ba 33 98 3d d4 6b f6 3d 7e 1f bc bd a4 0b ce 3d
       0.07431741 0.12032285 -0.09185694 0.10060814
0001d0 87 b3 77 3d 0b c5 0d bd f6 86 06 bd c0 fc 12 3e
       0.060473945 -0.034611743 -0.032843553 0.14354229
0001e0 fe 17 9f 3b 30 08 e9 bc 4f 27 f6 3d d4 fc d9 3d
       0.004855155 -0.028446287 0.12019216 0.10643926
0001f0 24 a4 ed bd 6a 26 33 bd 82 0b 08 3e e3 b7 6c be
       -0.11603573 -0.043737806 0.1328564 -0.23117022
000200 09 f6 27 bd 5a 56 b4 bd a8 1a 2a be cc 32 25 3d
       -0.04100612 -0.08805533 -0.16611731 0.040331647
000210 64 8f 63 bd 14 13 9e 3c 3f 4b 37 3c d8 45 5f bc
       -0.05555667 0.019296207 0.011187374 -0.013627492
000220 17 48 2a 3d a8 b7 7c bc cf 52 82 bd 5d 2c 22 bc
       0.041572656 -0.015424646 -0.06363451 -0.009898272
000230 ec 4a aa bc 92 73 3a 3d 40 69 61 bc f6 3d c4 3c
       -0.020787679 0.045520373 -0.013758004 0.023955327
000240 e7 60 9c 3d 82 f4 b3 3b df e9 0c be ce a6 c0 3d
       0.0763567 0.005491794 -0.1376109 0.094068155
000250 e6 54 05 3e ee 89 aa bd da 39 44 bd 65 17 f3 bd
       0.13020667 -0.08327089 -0.047906734 -0.118696965
000260 ea c9 01 3e f8 1a 9a 3e b0 07 5a 3d 8a a9 90 bd
       0.1267468 0.300987 0.053229988 -0.07063587
000270 4d b3 28 3c 84 05 43 3d 78 6b a2 3c b1 a1 25 bc
       0.010296655 0.047612682 0.019826636 -0.010109351
000280 bf 05 30 bc cd a0 b5 bd 2f be cb 3c 2d 07 3a 3e
       -0.0107435575 -0.08868561 0.02487096 0.181668
000290 d0 e7 c3 bc 13 04 eb 3d a0 9f b1 bb c6 95 76 bc
       -0.023914248 0.114753865 -0.00542064 -0.015050357
0002a0 b5 bd 95 3d bb 75 d8 3d 96 88 8f 3d db 3e fd bd
       0.07311574 0.1056933 0.070084736 -0.12365504
0002b0 92 9e 39 3c 52 17 46 be d0 01 37 3d cf 47 29 be
       0.01132931 -0.19344833 0.044679463 -0.16531299
0002c0 99 aa fe bc de c0 c2 bd 66 c2 ac bc 87 46 37 3d
       -0.031087207 -0.09509443 -0.02108879 0.044744994
0002d0 29 13 4b bb 66 47 a0 bc 1c d9 04 3d 9b 70 01 be
       -0.0030986762 -0.019565295 0.032433614 -0.12640612
0002e0 1c 47 88 bc a2 27 a9 bd 04 67 3f 3d 2d f4 73 be
       -0.01663547 -0.082595125 0.046729103 -0.23823614
0002f0 84 a3 85 bd a9 ec 0a 3e e6 79 ca bd 04 69 04 3c
       -0.06525329 0.13566841 -0.098865315 0.008081678
000300 4c a6 51 bd 5c cf fe bd da 9c 29 be a7 20 72 3d
       -0.051183984 -0.124418944 -0.1656374 0.05911317
000310 16 f6 d6 bd f4 c5 8f 3d 04 d2 da 3d 61 25 bb bd
       -0.10496156 0.070201784 0.106845886 -0.09137989
000320 d6 bc b6 bd 79 47 e3 3d 3e 66 21 be 04 a7 18 3e
       -0.08922736 0.11097617 -0.15761659 0.14907461
000330 39 71 11 bd 82 e9 92 bc 87 7d 41 be e8 ae 03 be
       -0.03550837 -0.01793361 -0.18895541 -0.1285969
000340 74 68 d9 bc a5 2d fa 3b 80 04 6b 3c e4 b5 58 bc
       -0.026539065 0.007634836 0.014344335 -0.01322696
000350 9c 01 25 be 67 3c 85 bb b0 97 9f 3d 3d 70 c9 3d
       -0.16113895 -0.0040660384 0.07792604 0.09835861
000360 49 31 10 be 96 60 05 3d 7e 98 58 be 1b 87 27 bd
       -0.14081301 0.032562815 -0.21151921 -0.04090033
000370 63 7e 99 3b a0 2d f1 bd 6f 71 55 be f9 1b bd bd
       0.004684256 -0.117762804 -0.20844053 -0.09233851
000380 7b b5 09 3c 75 2d 82 3c 8c 90 40 3d 6b af 01 be
       0.008405085 0.015890816 0.04701285 -0.12664573
000390 11 f8 57 3d 35 82 36 3e f3 ea 0b 3e fd b6 38 be
       0.05272681 0.17823108 0.13663845 -0.18038554
0003a0 28 50 2e bd 54 67 0f 3e 2a 57 8c bd fa 39 a9 bc
       -0.04255691 0.1400426 -0.06852563 -0.020657528
0003b0 01 78 c0 bc 8e 70 40 3d 3c e7 74 bd d5 94 3f 3e
       -0.023494722 0.04698234 -0.059790835 0.18709119
0003c0 a9 82 0d be 1d a7 6b 3d 29 b0 f0 bd 34 17 bc 3c
       -0.13819374 0.05753242 -0.1175235 0.022960283
0003d0 38 53 5a 3e 86 97 25 3d 24 4d 23 3d be 7d 93 3a
       0.21320808 0.040427707 0.03986849 0.0011252684
0003e0 70 16 c1 bd 06 44 98 bc 6b c2 83 be 3d c1 75 bc
       -0.09428108 -0.018587124 -0.25734267 -0.014999685
0003f0 21 70 84 3d 10 d5 dd 3d 77 6b a4 bd ab e7 c2 bd
       0.064666994 0.10831654 -0.0802831 -0.095168434

network.2.conv.0.weight f4 [128, 256]
000000 f3 88 32 3d 08 be ef bb 15 de 92 bc 82 6e ea 3c
       0.043587636 -0.0073163547 -0.017928163 0.028617147
000010 c2 63 57 bd 02 33 b7 3d 02 89 67 3e ef 11 51 3e
       -0.05258537 0.08945276 0.22610858 0.20416997
000020 89 4e 7b bd 20 55 ce 3c 60 ef e0 bd 2f 41 50 bd
       -0.061354194 0.025187075 -0.10983157 -0.050843414
000030 e8 45 4d 3d 9f a3 cd 3d 21 ae bb 3d c5 48 c4 bd
       0.050115496 0.10040974 0.09164072 -0.09584192
000040 52 5d bc 3e c3 81 e6 bd 6c 5c 58 bd aa 4f b8 3d
       0.36789948 -0.11255219 -0.052822515 0.0899957
000050 c7 ec bc 3d d8 af f2 bc d6 82 b9 3d 03 e1 e9 3d
       0.09224849 -0.029624864 0.09058158 0.11419871
000060 51 51 4b be 7a ec 88 3e cb 9a 08 be b0 e3 9f 3d
       -0.19855238 0.26742917 -0.13340299 0.078071
000070 5d 99 34 3e 4c b6 bd bd ac cb 42 3d 53 04 58 be
       0.17636628 -0.09263286 0.047557518 -0.210954
000080 7d 21 15 be ca b1 1e be 78 67 8c 3d 0a 20 8c bd
       -0.14563556 -0.15497509 0.068556726 -0.068420485
000090 95 1d 99 bd 6b 9e 94 bb a5 69 ee 3d 4f 59 53 bd
       -0.074763454 -0.0045354865 0.11641244 -0.051598843
0000a0 58 07 cd 3d 17 63 01 bd fa 26 11 3c 8e 82 bc 3d
       0.10011166 -0.03158864 0.00885939 0.09204589
0000b0 eb e5 f5 bd 3e b5 c3 bd df 7d 55 3e 1a 5c 10 3d
       -0.12006744 -0.095560536 0.20848797 0.035244085
0000c0 7e f2 74 be f8 3a 10 3e 58 6e 3d be 49 e1 24 bd
       -0.23920628 0.14084995 -0.18499124 -0.04025391
0000d0 da f3 86 bd 34 2b b5 bc fb 8b a7 3c ac 8a 0a bd
       -0.0658948 -0.022115327 0.02045249 -0.033823654
0000e0 d4 59 20 bd a7 1f 87 bd 51 ad 52 be 6e a7 0b be
       -0.039148167 -0.06597834 -0.20573927 -0.13638088
0000f0 55 7d 76 3d e1 50 a9 bd 61 28 2d 3e d9 14 aa bd
       0.06017812 -0.082673796 0.16909935 -0.083047576
000100 83 cf 77 39 b1 b8 d7 3d fb e4 a1 bd fa d5 50 bc
       0.0002363306 0.10533274 -0.07905003 -0.0127463285
000110 b2 51 46 be e2 13 ff bc 89 1d ca bd d7 2d c8 3d
       -0.19367102 -0.03113741 -0.09868915 0.09774368
000120 59 29 90 bd d4 36 d6 3b 22 e7 e1 bd ab 76 38 bd
       -0.070391364 0.0065372977 -0.11030413 -0.045035046
000130 b1 0f 4f 3d bb c2 0e 3d 83 cb 2f 3e 7c 89 1c be
       0.050552074 0.03485368 0.17167477 -0.15286821
000140 d2 2a 98 be eb ec 15 3e 52 8c ee bc 0b 2c 4b bc
       -0.2972017 0.14641158 -0.029119644 -0.012400637
000150 38 37 35 bd d5 26 de 3d 67 18 03 bd 96 67 10 3d
       -0.044242114 0.1084725 -0.032005694 0.035255037
000160 e5 54 a0 bd 40 7d 35 bc 9c 80 1d 3d 88 34 c3 3d
       -0.07828692 -0.011077225 0.03845273 0.09531504
000170 c1 80 04 be ab b1 e1 3c 22 8a 76 bd 5c b8 73 3d
       -0.1293974 0.027550539 -0.060190327 0.05950199
000180 b8 e6 85 bb 4e 03 02 3d 10 6b 95 3c bf 51 2b 3e
       -0.0040863417 0.031741433 0.018239528 0.16730402
000190 81 39 b2 3d 58 01 df 3d 43 89 09 bd 30 74 0c 3d
       0.08702374 0.10888928 -0.03357817 0.034290493
0001a0 a9 c8 ad 3d 36 da be 3d f3 63 3a 3c d8 60 58 3d
       0.084855385 0.09318964 0.011376369 0.052826732
0001b0 e1 ba 5d 3d bb 13 65 be de 19 c4 bd 80 8e c4 3d
       0.0541333 -0.22370808 -0.09575246 0.09597492
0001c0 b8 c8 e0 bd 4c 66 9d 3b 70 1a c3 3d 88 d9 56 bd
       -0.10975784 0.0048034545 0.09526527 -0.052453548
0001d0 21 c9 d1 3b 19 57 8a be fc bf de 3c c2 e6 99 39
       0.0064021503 -0.27019575 0.027191155 0.00029354362
0001e0 d1 fc a9 bd 58 70 3d be 71 e3 24 be b4 63 c2 bd
       -0.08300174 -0.18499887 -0.16102387 -0.09491673
0001f0 43 a5 10 3d 58 7c e3 3b ab 12 92 bd cd e8 f5 3d
       0.035313856 0.006942313 -0.07132467 0.12007294
000200 1b 86 ec 3d 31 a2 1f 3e c8 7f 2e 3e 1f bc 10 be
       0.11549016 0.15589215 0.17040932 -0.14134263
000210 dc 4b 9e bd 67 53 00 3e 03 e2 c8 bd 5e cb 91 3d
       -0.07729313 0.12531815 -0.09808733 0.07118867
000220 b9 15 0b 3d 45 ea 09 bc 2f 72 f7 bb 99 92 7c 3d
       0.033956263 -0.008417671 -0.0075514535 0.061663244
000230 f1 d4 73 3d 2b 54 bb bb b8 03 65 bd a5 28 03 be
       0.05952925 -0.0057168207 -0.05591175 -0.12808473
000240 bd 99 36 3d d7 9c 2b be e2 b0 8d 3d 73 4b f3 bc
       0.04458021 -0.16759048 0.06918503 -0.029699063
000250 56 d8 e3 bd 64 90 96 bb b6 03 71 bb 9a 90 0a be
       -0.11125247 -0.0045948494 -0.0036775894 -0.13531724
000260 55 40 74 bd 67 78 be bd 52 2e 5e 3d c2 93 ab 3d
       -0.059631664 -0.09300309 0.054243393 0.08377792
000270 57 e5 42 3e e6 91 df bd 1a 86 f0 3c cc 6c 13 be
       0.19032799 -0.109165 0.02936082 -0.14396971
000280 23 40 5c 3e 6a 43 c8 3a 82 1d 2c 3e fc ac 3f bd
       0.21508841 0.001527888 0.16808131 -0.04679583
000290 cc 45 87 bd 7b 82 03 be 42 a6 a9 3d 85 e3 df bd
       -0.066051096 -0.12842743 0.08283664 -0.10932068
0002a0 16 ee bb bb e3 72 f6 bd 7a 56 bf bd 50 85 79 bd
       -0.005735169 -0.12033632 -0.09342666 -0.060918152
0002b0 6c 27 d4 3c e3 0b 99 bd 29 3f 0a 3e 26 15 61 bc
       0.025897704 -0.0747297 0.13500656 -0.013737952
0002c0 fc 7e a5 bd 01 9d fd bd 42 dc 04 3e 2b bc b1 3d
       -0.08080861 -0.12383462 0.12974647 0.08678468
0002d0 a5 9b 52 3d 8c 63 cc bd d1 c4 f9 3d f3 15 7c bd
       0.051417965 -0.099799246 0.12195743 -0.06154437
0002e0 3c 2a 36 bd d4 05 b1 bd 6f 47 de bd dd c5 55 bd
       -0.04447387 -0.0864369 -0.108534686 -0.05219065
0002f0 2d 1f 23 bd b7 aa 0f 3d 61 98 cb 3d 0f c6 a3 bd
       -0.039824653 0.035074916 0.09941173 -0.07996761
000300 b4 7b 23 3e ec 38 4b be ce fb 62 be 6e 1d 2c be
       0.15965158 -0.19845933 -0.22166368 -0.16808102
000310 d8 46 f0 3d 94 04 87 3d 40 54 f0 3d 36 64 b7 bd
       0.117322624 0.0659267 0.117348194 -0.089546606
000320 f5 74 0b 3e 75 9e 24 3d 41 15 04 3e a8 67 a2 3c
       0.13618834 0.04019018 0.12898733 0.019824818
000330 8c 07 8e 3c 36 30 7b bd 4b 9c ad 3c 23 21 15 3e
       0.017337583 -0.061325274 0.02119269 0.14563422
000340 07 b4 9e bd 02 16 ee bc 74 68 5f be 69 8c b0 bd
       -0.07749181 -0.029063229 -0.2181719 -0.08620531
000350 c6 56 d5 3c 08 04 d5 bd c8 8c 05 be bf 9d 61 3d
       0.026042353 -0.104011595 -0.13041985 0.05508208
000360 d4 9e 00 be 45 81 45 3d 32 cc 67 be f6 9c 04 3e
       -0.12560588 0.048218984 -0.22636488 0.12950501
000370 58 3a c5 bd e9 c5 04 be 17 ed 9b 3d cd f9 90 be
       -0.09630269 -0.12966122 0.07613581 -0.28315583
000380 83 6f 42 be fc bb 96 bc 11 61 4a bc 6c 25 05 be
       -0.18987851 -0.018400185 -0.012352244 -0.13002557
000390 99 ab 15 bd bf 4c c2 bd fe 85 4f bd 17 96 c9 bd
       -0.0365406 -0.094872944 -0.050664894 -0.098430805
0003a0 6a 9f cc 3c cf 7b b1 3d 81 43 9a 3d 73 2a 26 bd
       0.024978358 0.08666193 0.075324066 -0.040567826
0003b0 80 0b 9c bc 95 1c 12 be 66 72 9d 3e 08 63 c4 bd
       -0.019048452 -0.14268716 0.30751342 -0.09589201
0003c0 87 e4 ed bd 8a e2 3a bd 8c 4a 48 be 3d 15 df bd
       -0.11615854 -0.0456262 -0.19559687 -0.10892723
0003d0 48 55 bb bd b2 b2 c8 3d ac 30 8e bd 9e f4 a6 bc
       -0.091471255 0.097997084 -0.06942877 -0.020380314
0003e0 81 b5 7a 3b 1b de 52 3e 7e a6 39 3e c9 ef d9 bd
       0.0038255157 0.20592539 0.18129918 -0.106414385
0003f0 52 96 49 3d b5 85 0d bd ca 95 5b 3d e1 24 93 bd
       0.049215622 -0.03455134 0.053609647 -0.071847685

network.2.conv.0.bias f4 [128]
000000 fc a7 33 be 35 fd 08 3d ac 0d 12 be 17 5b 03 3e
       -0.1754455 0.033444602 -0.14263028 0.12827717
000010 98 86 30 be 47 cf 2c be a5 17 13 3e 25 18 28 3d
       -0.17238843 -0.16875945 0.14364488 0.04103865
000020 2d 90 0a bd 48 5b ba 3c 29 a2 d4 3c 16 b4 9e 3d
       -0.033828903 0.022748604 0.02595623 0.077491924
000030 0d 87 36 3d 9b dd 13 3e 13 bd 2e bd 91 ff 7a 3d
       0.04456239 0.14440005 -0.042660784 0.061278883
000040 bd a2 98 3d 5c 9d 11 bb d5 4d b0 bd 20 32 90 be
       0.07452915 -0.0022219038 -0.08608595 -0.28163242
000050 36 d3 b8 bd 7b 5e e3 3c f6 6b 01 bc 73 4e a9 bd
       -0.0902466 0.027755013 -0.007899275 -0.08266916
000060 b7 3c 85 bd 4b 3f 0d be 9c 40 1c 3c df 5f b1 bd
       -0.06505721 -0.13793676 0.009536888 -0.08660864
000070 f1 0d dc bc 51 cb 01 bd 98 84 fa 3d 7a 00 3a be
       -0.026862117 -0.03168804 0.122323215 -0.18164244
000080 ab 6a 8d bd ab c0 66 be 66 a7 82 bb b1 09 04 3d
       -0.06905111 -0.22534434 -0.0039872406 0.032235805
000090 ae 9f 06 bd f5 88 58 be 71 ba 0a 3d 8c 1d 3b bd
       -0.032867126 -0.21145995 0.03386921 -0.045682475
0000a0 e3 37 f4 bd 95 87 85 3c c1 c0 53 3d ae d8 e4 bd
       -0.11924722 0.016300002 0.051697496 -0.11174141
0000b0 0d c4 f8 bd 8c b5 a1 3d 62 cf e6 3d c6 5e fb bd
       -0.12146769 0.078959554 0.11270024 -0.12273936
0000c0 0f 1e 4b be ea ff 81 3d 03 06 d3 bc ee 5c 7e 3d
       -0.19835685 0.0634764 -0.025759703 0.062100343
0000d0 3d 8c 5e bd e5 a5 05 3e 58 72 ad bb ca f0 ee 3d
       -0.05433296 0.13051565 -0.005293172 0.116670206
0000e0 d0 43 30 3d 22 2e a2 bc 19 01 23 be 12 8c 8e be
       0.04303342 -0.019797388 -0.15918387 -0.2784124
0000f0 fd 0a 8a be 3f 5e ff 3b 59 5a aa bd 56 25 18 3e
       -0.26961508 0.0077932174 -0.08318014 0.14857993
000100 ef 53 5d 3d 07 94 32 3e 85 49 2b be 99 18 4f 3e
       0.054035123 0.1743928 -0.16727264 0.20224227
000110 79 8a 34 bc d4 d2 1f 3d 75 2b 95 bd 02 62 f1 bd
       -0.011019343 0.03901942 -0.072836794 -0.11786272
000120 dd 54 50 3e 65 3f 49 3c 6e 97 c2 3d a9 52 0b 3d
       0.20344873 0.012283181 0.09501539 0.034014378
000130 61 5f c5 bd bc ff ed 3d 2d a2 08 3e 61 75 8d 3d
       -0.09637333 0.11621043 0.13343115 0.06907154
000140 d7 32 d2 3a c5 38 3f be 85 a5 df 3a f8 e3 43 3e
       0.001603688 -0.18674 0.0017062878 0.19129932
000150 83 dc 1d bd ec af 0d 3d 92 8b d2 bd d7 e2 aa 3d
       -0.038540374 0.0345916 -0.10280527 0.083440475
000160 1f 20 19 3d e5 cd e8 3d 66 69 1a bd 34 c4 65 be
       0.03738415 0.11367396 -0.037698172 -0.22438127
000170 50 d1 06 be 23 c3 cc bd 81 d7 59 3d 96 05 45 bd
       -0.13165784 -0.09998157 0.053184036 -0.04810103
000180 7a 79 fe bc 25 53 d2 bd e0 4f fe 3d 71 cb e0 3d
       -0.031063784 -0.10269765 0.12417579 0.10976303
000190 b7 ed 02 be fb 29 c7 bd 95 d4 35 3c 70 28 e7 3d
       -0.12785994 -0.09724804 0.011098047 0.1128701
0001a0 5e 5a d6 bb fe f4 90 3d 20 aa db bd 9d 91 4d 3b
       -0.0065415343 0.070779786 -0.10725808 0.003136731
0001b0 7c d3 59 be 4f f4 1e be c1 88 51 be b5 0e d4 3c
       -0.21272081 -0.15522884 -0.20462324 0.02588592
0001c0 78 0a d5 bc a1 1b dc 3b 34 a2 5e bd 72 b8 c5 bd
       -0.026005968 0.006717161 -0.054353908 -0.09654321
0001d0 f4 da 70 be de 09 fd bd a7 7c aa bd 07 f1 f3 bc
       -0.23521024 -0.12355398 -0.08324557 -0.029778017
0001e0 7d 38 36 3c b6 5d 8d be e7 38 4f bc 02 77 41 be
       0.011121866 -0.27610558 -0.012647844 -0.18893054
0001f0 82 89 d4 bd d4 10 55 be 26 a4 cb 3c bd e2 c7 bc
       -0.1037779 -0.208072 0.024858546 -0.02440011

network.3.weight f4 [2, 128]
000000 78 27 5b bd 9f ab d9 3c d7 3b 00 be 06 8e 5e 3d
       -0.053504437 0.026571093 -0.12522827 0.054334663
000010 b0 1c e3 3c 06 fa 1e be 90 d6 59 3e 6f 50 63 bd
       0.02772364 -0.15525064 0.21273255 -0.05549663
000020 c4 72 2b 3d f0 27 3d 3d db 7f 8f 3b f4 d1 83 bd
       0.041857496 0.046180665 0.004379255 -0.0643653
000030 2e 09 8c 3d 4f 6e 2d bd d1 bc 7a 3c 93 ee 81 bc
       0.068376884 -0.042341527 0.015303806 -0.015860831
000040 e6 0f 12 be 26 36 8d bb b6 aa ec bd 0a 32 2e 3e
       -0.14263877 -0.0043094335 -0.11555998 0.17011276
000050 c3 a8 92 3c 9b b0 89 ba cf 05 20 3c f5 f1 d5 bd
       0.017902737 -0.0010504903 0.00976701 -0.1044654
000060 7e 1d 40 3e c9 e5 9e bd 35 ab 59 3d e3 0b fb 3c
       0.1876125 -0.07758672 0.05314179 0.030645316
000070 0b 97 bf bb 2f c0 04 3e e5 00 00 3d 14 fb a1 3d
       -0.005846863 0.12963937 0.031250853 0.079092175
000080 bd d6 df 3d 72 21 34 be 5c c5 2b 3d eb bf 2d 3e
       0.1092963 -0.17590883 0.041936263 0.16967742
000090 bd d9 50 3c c0 bd 80 be 64 c8 4c be a7 fb e2 bd
       0.012747225 -0.25144768 -0.19998318 -0.11083155
0000a0 3c 2e 13 3e 5a 51 b1 3d 1d 63 2c 3d 4b 09 5e bd
       0.14373106 0.08658095 0.04208671 -0.05420808
0000b0 ce 0c cf 3d ef ed c3 bd 0e 16 f1 3d 82 31 2c 3d
       0.10109864 -0.095668666 0.11771785 0.0420394
0000c0 9d 12 2a be c2 a8 62 bd 3d 76 3d 3d c2 7a a3 3d
       -0.16608663 -0.05533672 0.04625534 0.079823986
0000d0 7b 4a bf 3d bd 02 6e bd 13 2e f3 bc 74 96 2e be
       0.09340378 -0.05810808 -0.029685056 -0.17049581
0000e0 bb 24 be 3c 3a 13 a6 3a 27 ac f2 3d 65 83 2d bd
       0.023210874 0.0012670525 0.11849242 -0.042361636
0000f0 e9 7c ae bc 42 3f 12 3e 5a c8 0b bd 4f 14 f4 bd
       -0.021299796 0.14281943 -0.034126617 -0.11917936
000100 9a 9d 53 3e 3e e7 12 bd b7 d7 2d 3e e8 ee 3e be
       0.20665589 -0.03586506 0.1697682 -0.18645823
000110 64 e7 18 3d ec 55 13 3e 48 df fd bd b8 e5 b8 3c
       0.037330046 0.14388245 -0.12396103 0.022570476
000120 9f 7b 41 3d 0e ef 14 be 0d 3a 0e 3b 2b 3f 48 3e
       0.047237035 -0.14544317 0.0021702081 0.19555347
000130 e8 5c b4 bd 2a 53 ea bc 64 15 44 bd 19 1a 26 3d
       -0.08806783 -0.028604109 -0.047871962 0.040552232
000140 26 25 91 bd 87 2f e2 bb d8 a7 f2 3c da af 02 bd
       -0.070871636 -0.0069026384 0.02962105 -0.031905986
000150 7a 8e 06 3e 42 4b 71 3d 32 6e a1 3d 43 66 2e be
       0.13140288 0.058909662 0.07882346 -0.17031197
000160 68 e5 6f bc d4 20 ea 3d 99 39 12 3d 33 f9 6e 3d
       -0.014642097 0.11432043 0.03569946 0.058343124
000170 90 eb 5b be cb a6 04 be 79 1f 83 bd 84 40 51 bc
       -0.21476579 -0.12954251 -0.06402487 -0.012771729
000180 ad e4 d7 bb ae ce 37 3c 93 4c 3f bd b2 05 69 bc
       -0.0065885396 0.01121871 -0.046703886 -0.014222549
000190 a7 e5 18 3e 35 99 fa bc d1 7f 6c 3e be 2c 0d bb
       0.14931355 -0.030590633 0.23095633 -0.002154156
0001a0 73 1d ee 3d 77 ab 51 3e ee 28 38 3c 08 ab 93 bd
       0.11626711 0.20475565 0.011240227 -0.07210356
0001b0 70 06 6a bc 85 a5 88 bd 6c 96 85 bd e2 a6 9b 3d
       -0.014283761 -0.06672195 -0.06522831 0.0760019
0001c0 0d 10 c3 3d dc 45 1b 3e 21 e7 40 3e 98 63 10 be
       0.09524546 0.15163368 0.18838169 -0.14100492
0001d0 7e 7a 4d 3c 23 9c 84 3d 93 05 50 bd 4e 85 a2 3d
       0.012541411 0.06475093 -0.050786566 0.07935582
0001e0 f3 e5 00 3e 69 3e 40 be f2 dd 6f 3e 5f c1 9a bd
       0.12587719 -0.18773808 0.23424509 -0.07556414
0001f0 aa 61 35 3e e3 27 37 be bd f3 cc bb 0d 45 83 bb
       0.17713037 -0.1788631 -0.006254642 -0.004006034
000200 49 2e 1a be bb b2 a4 3d ca 62 fc 3c d4 eb 0c be
       -0.15056719 0.08041903 0.030808825 -0.13761836
000210 fb 26 b6 3d e6 63 44 be c5 78 cd bd b3 4e 99 bc
       0.08894154 -0.19178733 -0.100328006 -0.018714285
000220 4c 9a 56 bd 2d 3b a2 3d 36 e3 f6 3c 8d 4c b4 bd
       -0.052393243 0.07921443 0.03013764 -0.088036634
000230 51 04 9c 3d 53 64 ca b8 18 fc 5f bb 0c d6 7c 3c
       0.07618011 -9.6507974e-05 -0.003417736 0.015431892
000240 e9 75 52 bc 82 85 b0 3d d1 10 e6 bd 5a ca ea 3d
       -0.012845495 0.086192146 -0.11233676 0.11464377
000250 fd 67 14 be e4 d6 dd 3d 4e 5c 76 3c e6 45 cc 3d
       -0.14492793 0.10832003 0.015036656 0.099742696
000260 ce 39 1d 3e a6 03 aa 3d 4c df 24 be 60 a7 07 be
       0.15354082 0.08301477 -0.16100806 -0.13247442
000270 09 c6 06 3e 93 00 18 3d cf 2b 9a 3c 85 4f cd bd
       0.13161482 0.037109923 0.018819718 -0.10024933
000280 4c 48 d7 bd 78 b9 f7 3d f4 7c 27 3e fa ca ee bd
       -0.105118364 0.12095922 0.1635626 -0.116598085
000290 08 7e 88 3d e8 c9 25 3d ae 62 3d 3d 93 c2 e8 bd
       0.066646636 0.040475756 0.046236686 -0.11365237
0002a0 61 e0 24 be a9 de 4c 3d 10 cb 35 bd fe 1a ee bc
       -0.16101219 0.050017033 -0.04438311 -0.029065605
0002b0 e0 a0 8b bc 8c 89 13 3e e6 20 84 3e 11 ff 0f bd
       -0.017044485 0.14407939 0.2580635 -0.03515536
0002c0 70 02 a9 bd 79 be 02 be 02 87 40 3d e9 02 66 3d
       -0.08252418 -0.12767972 0.047003753 0.05615512
0002d0 05 4e e4 3d 9f 9d 3c 3e 67 b5 85 bb 49 6a 22 3e
       0.111476935 0.18419503 -0.0040804627 0.15860857
0002e0 33 62 98 3d 73 66 8e 3b b4 47 d3 3d 85 09 2e be
       0.07440605 0.004345709 0.10316411 -0.16995819
0002f0 a1 4c 11 bd a9 28 0b be 16 23 90 3d 8d 95 8f be
       -0.03547347 -0.1358973 0.07037942 -0.28043786
000300 d1 2e dd bd ae 34 c7 3d 21 47 04 3d 03 a7 35 3d
       -0.10799945 0.09726845 0.032294396 0.044348728
000310 0b d9 b6 3d 72 1c a1 be 5f 1c 0e 3e af d8 f6 3b
       0.089281164 -0.31467015 0.1387801 0.007533155
000320 86 2e c9 3d ec ad 2f bc 0c a3 ae bd 6e f1 a5 bd
       0.09823327 -0.010722619 -0.085271925 -0.0810269
000330 e1 fc c9 3d 09 07 14 3e 3a b2 30 3e 7b 3f a7 bd
       0.09862686 0.14455809 0.17255488 -0.08166405
000340 9d 1b 94 3e c7 57 da ba 74 dd 53 ba 97 a9 a8 3d
       0.28927317 -0.001665824 -0.00080820103 0.08235472
000350 01 76 1b bc 22 70 9b bd 8f af 20 be d9 c0 b4 3c
       -0.009488584 -0.07589747 -0.1569197 0.022064613
000360 86 fa 1d be b4 47 50 be 63 a1 ac 3d d7 92 3b 3d
       -0.15427598 -0.20339853 0.084292196 0.045794334
000370 5e ad db 3c a1 07 f5 3d 41 42 1c 3e d6 be f4 bb
       0.026816066 0.11964346 0.15259649 -0.0074690385
000380 94 36 9f 3d f3 dd 3c 3e ee f2 c5 3d 56 1b 33 bd
       0.07774082 0.18444042 0.09665476 -0.04372724
000390 95 2a 59 3d d3 be 72 3d 65 ba bc bc 67 2a 51 3d
       0.053019125 0.059264015 -0.023038099 0.05106583
0003a0 1b fd 0d 3d a0 c9 e6 bd 7a 87 84 3e d6 db 83 3d
       0.03466521 -0.11268926 0.2588461 0.06438415
0003b0 d6 cc 13 3d a3 ba 89 3d b6 23 45 3d 10 77 69 bd
       0.03608402 0.06725051 0.04812976 -0.056998312
0003c0 67 32 ed bd 25 c4 64 be af 2a 73 3d eb 5e 26 be
       -0.11581879 -0.22340448 0.059366878 -0.16247146
0003d0 64 fb 83 bc 9d 69 cb 3d fd bd fa 3d 02 22 66 3d
       -0.016111083 0.099322535 0.12243269 0.056184776
0003e0 2f 88 b6 3d ab cb e1 3d 92 ed 88 be 4d 58 0b be
       0.08912694 0.11025175 -0.26743752 -0.13607903
0003f0 60 27 58 bc dd 93 03 be c5 71 07 bd 7f 6c 06 3e
       -0.0131929815 -0.12849374 -0.033067483 0.13127325

network.3.bias f4 [2]
000000 88 6a 7c bd fb 96 77 3e
       -0.061625034 0.24178688
