exomy/config/best_run_no_obstacles405k/checkpoints/291000_policy.pt (torch, 723582 bytes, 13 tensors)

log_std_parameter f4 [2]
0	0xbf995c00	-1.1981201
1	0xbf287d66	-0.6581634

network.0.conv.0.weight f4 [512, 5]
0	0x3e7c5314	0.24641067
1	0xbe7b18a8	-0.24521124
2	0x3bf592d8	0.007494312
3	0xbda6b3cc	-0.08139762
4	0x3e2a012b	0.16602008
5	0x3e1f55fd	0.15560146
6	0x3e0ed3fa	0.1394805
7	0x3e0f1ab0	0.13975024
8	0xbd9e401b	-0.07727071
9	0xbc3c4d47	-0.011493034
10	0xbca494f1	-0.020090552
11	0x3bef15bd	0.0072962926
12	0x3c24f37c	0.010067817
13	0xbe8220ac	-0.25415552
14	0x3d6bd76b	0.057578485
15	0xba891789	-0.0010459285
16	0xbdbec7f2	-0.0931548
17	0x3e5d648e	0.2162039
18	0x3d819791	0.06327737
19	0x3e2e2d26	0.1700941
20	0x3d55a571	0.05215973
21	0xbc4ab266	-0.012371635
22	0x3da8dccd	0.082452394
23	0x3e456047	0.19275008
24	0x3e00d5a9	0.12581505
25	0x3e6c05bf	0.23049067
26	0x3ebf4d7d	0.37363806
27	0xba524a5d	-0.0008021945
28	0xbe301fdd	-0.17199655
29	0xbce3dbb5	-0.027814725
30	0xbe9707b0	-0.29498053
31	0x3b620609	0.003448846
32	0x3cd56e7d	0.026053661
33	0xbcb17c32	-0.021665666
34	0xbd78c3c7	-0.060733583
35	0x3bd23656	0.0064151688
36	0xbd092440	-0.033481836
37	0x3d46532a	0.048419155
38	0x3dc2becd	0.095090486
39	0xbd96cc60	-0.073632
40	0x3d020b03	0.031748783
41	0xbeb24198	-0.3481567
42	0xbd080481	-0.03320742
43	0xbd335b0f	-0.043788012
44	0xbca7903c	-0.020454518
45	0xbe40b996	-0.18820795
46	0xbdbe3f75	-0.09289447
47	0xbe6056aa	-0.2190806
48	0x3d008233	0.031374168
49	0xbe40c25b	-0.1882414
50	0xbca6a34b	-0.020341536
51	0x3ecc5a6b	0.39912733
52	0x3d811317	0.06302469
53	0x3e2daa9c	0.16959614
54	0x3b419ab9	0.0029541685
55	0xbc2f1171	-0.010685311
56	0x3e728bc7	0.23686133
57	0xbd14162d	-0.03615396
58	0x3e0d5fa1	0.13806011
59	0xbd90353e	-0.07041405
60	0x3e812df0	0.2523036
61	0xbdba4465	-0.090950765
62	0x3dbef21c	0.093235224
63	0x3cfffb3e	0.031247731
64	0x3e029727	0.12752973
65	0x3e3d209f	0.18469475
66	0xbe937101	-0.28797153
67	0xba935a70	-0.0011242162
68	0x3e4804a4	0.1953302
69	0x3c03975f	0.008031695
70	0xbe09bdd5	-0.13451321
71	0x3d2ab393	0.04167516
72	0x3d761232	0.060075946
73	0x3daaa968	0.08333093
74	0x3e1bfd23	0.15233283
75	0xbe2e03f8	-0.16993701
76	0x3eb7f708	0.35930657
77	0x3d1e9a1a	0.03872118
78	0x3e20f4c1	0.15718366
79	0xbd07e24e	-0.033174805
80	0x3e29eb9c	0.16593784
81	0x3f03c85a	0.5147759
82	0x3d36c85e	0.04462468
83	0xbe18cbd4	-0.14921504
84	0x3e17767b	0.1479129
85	0xbe20d846	-0.15707502
86	0x3dab59ba	0.08366723
87	0x3d88241d	0.06647513
88	0xbdeae016	-0.11468522
89	0x3d464703	0.048407566
90	0x3e7f162a	0.24910799
91	0x3e44bb02	0.19211963
92	0xbd9ffcfd	-0.078119256
93	0x3c1a5f23	0.009422096
94	0x3d13a9f3	0.036050748
95	0xbecb7053	-0.39734134
96	0xbe9ad89d	-0.30243388
97	0xbc491fdf	-0.012275665
98	0x3d53b60a	0.051687278
99	0xbd196439	-0.037449095
100	0xbe1c96af	-0.15291856
101	0x3de04294	0.10950199
102	0xbddecd64	-0.10879019
103	0xbc825edd	-0.015914375
104	0x3d9fcfe5	0.078033246
105	0xbe97b480	-0.29629898
106	0x3e838958	0.25690722
107	0xbd3cf40d	-0.046131182
108	0xbe86b49d	-0.26309672
109	0x3e64fad7	0.22361313
110	0xbd2ba953	-0.041909527
111	0xbda9e6ea	-0.082959965
112	0x3d397fd9	0.04528794
113	0x3d40abef	0.04703897
114	0xbc10d9f6	-0.008841028
115	0xbe0d3986	-0.13791475
116	0x3eacb120	0.33728886
117	0xbb4efd20	-0.003158398
118	0x3be183f8	0.006882187
119	0xbd2c9d8c	-0.042142436
120	0x3eafb9b3	0.34321365
121	0x3d58c531	0.05292243
122	0x3ddf0d5d	0.10891221
123	0xbc952dbe	-0.018210288
124	0xbdeb35db	-0.114848815
125	0xbe3ced45	-0.18449886
126	0xbebfccb8	-0.37460876
127	0xbcc7f9b8	-0.024411067
128	0x3d9a8465	0.075447835
129	0xbd89964d	-0.06718121
130	0xbeb35f07	-0.35033438
131	0x3ccb9ba5	0.02485449
132	0x3e0a9042	0.13531592
133	0xbd016cd2	-0.03159792
134	0xbc87bb37	-0.016568763
135	0xbeb6a3e2	-0.35671908
136	0x3ed332cf	0.412497
137	0xbd789498	-0.060688585
138	0xbdb4280f	-0.08796703
139	0xbd90476f	-0.07044875
140	0x3e0ff2da	0.14057484
141	0x3db00011	0.08593763
142	0x3ab71b20	0.0013969876
143	0x3e165aa9	0.14683022
144	0xbc740d73	-0.014895785
145	0x3cae1ab7	0.021252973
146	0x3e984ecb	0.29747614
147	0x3d9c13e8	0.07620984
148	0x3d6d1754	0.057883576
149	0xbd1ae6e2	-0.037817843
150	0xbe0ec6be	-0.13943002
151	0x3e0aa321	0.13538791
152	0x3cb60caf	0.022222845
153	0xbe1e0f3c	-0.15435499
154	0xbe51ce63	-0.20488887
155	0xbe90784c	-0.2821678
156	0xbe68bf21	-0.2272916
157	0x3e0874a7	0.1332575
158	0x3d8c88f9	0.06862063
159	0xbe068500	-0.13136673
160	0xbe89e485	-0.2693216
161	0xbe2abe37	-0.16674124
162	0x3c7a81e3	0.0152897565
163	0xbe2e9513	-0.17049055
164	0x3dc6f236	0.09714167
165	0xbe757056	-0.23968634
166	0x3c0c28e0	0.008554667
167	0x3c01d767	0.007924891
168	0x3c9b9048	0.018989697
169	0xbdbac8c3	-0.091203235
170	0x3b9ee5a3	0.004849152
171	0x3ed8bc9d	0.423314
172	0x3cec4448	0.028841153
173	0xbcf643fd	-0.030061716
174	0xbcf6317b	-0.030052891
175	0x3e923b7e	0.28561014
176	0x3d8c1c51	0.068413384
177	0x3d630cb9	0.055432055
178	0xbd92e970	-0.07173431
179	0xbd8ecca7	-0.06972628
180	0xbe83eda9	-0.25767258
181	0x3ee0f324	0.43935502
182	0xbd473ace	-0.048640065
183	0xbe055fd2	-0.13024834
184	0x3e612a63	0.21988826
185	0x3eb4e4db	0.35330853
186	0x3cac59df	0.021038948
187	0xbd63b82a	-0.055595554
188	0x3d759d9f	0.059964772
189	0x3c847f86	0.01617409
190	0xbddd4032	-0.1080326
191	0xbe4e6381	-0.20155145
192	0x3d8ff6f8	0.070295274
193	0xbce5b485	-0.02804018
194	0x3cfe277f	0.031024693
195	0xbd6c170c	-0.057639167
196	0xbf19e33e	-0.6011237
197	0xbd89c7d0	-0.06727564
198	0xbd3bd8a7	-0.045860913
199	0x3e03aa23	0.12857871
200	0x3ca3e88f	0.020008354
201	0x3e8d90ce	0.2764954
202	0x3d01974d	0.031638432
203	0x3de44140	0.11145258
204	0x3cb4a159	0.022049593
205	0xbe2b817b	-0.16748612
206	0xbe969c56	-0.2941615
207	0xb998b355	-0.00029125312
208	0xbded18a0	-0.115769625
209	0xbd9c773e	-0.07639931
210	0xbdf5cf0c	-0.12002382
211	0xbe949700	-0.29021454
212	0xbd1b80a9	-0.037964497
213	0xbd20dc1f	-0.039272424
214	0xbe52dcb0	-0.20591998
215	0x3e9b39bd	0.30317488
216	0x3ee0744f	0.43838736
217	0xbb3f5d40	-0.0029199868
218	0xbd95fb0b	-0.07323273
219	0x3de15468	0.11002427
220	0xbea1bd67	-0.31589815
221	0xbdaf1ccc	-0.085504144
222	0x3e05acd5	0.13054211
223	0x3db7ad44	0.08968595
224	0xbe389b10	-0.18027902
225	0x3dad89a1	0.08473516
226	0x3dca13ad	0.09867034
227	0x3c8c0858	0.017093822
228	0xbd9121fe	-0.070865616
229	0x3da371be	0.07980679
230	0x3eaf051d	0.3418359
231	0xbe5f4891	-0.21805026
232	0xbcb56d38	-0.022146806
233	0xbd9782e4	-0.07398012
234	0xbdfa74bd	-0.12229297
235	0x3ea0373c	0.3129214
236	0xbd8bd59f	-0.06827854
237	0xbc8a38b6	-0.016872745
238	0xbd82dbc8	-0.06389576
239	0x3d995d29	0.07488472
240	0xbdc1c4a5	-0.09461335
241	0x3e189ac4	0.14902788
242	0x3cc71324	0.02430112
243	0xbdd826d6	-0.10554282
244	0xbd84442b	-0.064583145
245	0xbe9f6067	-0.31128237
246	0xbea9d2c7	-0.33168623
247	0x3bd40b52	0.006471076
248	0xbd82a633	-0.06379356
249	0xbd3ac5e3	-0.045598876
250	0x3e4c42a0	0.1994729
251	0x3eb30cc1	0.34970668
252	0x3de93e6d	0.1138886
253	0xbe3e5834	-0.18588334
254	0xbe638397	-0.22218166
255	0x3e809669	0.25114754

network.0.conv.0.bias f4 [512]
0	0x3dab6e5c	0.08370659
1	0xbe37b806	-0.17941293
2	0xbd953946	-0.07286315
3	0xbd02e5f1	-0.03195757
4	0xbe9f5be0	-0.31124783
5	0x3c81da85	0.015851269
6	0xbe2472b1	-0.16059376
7	0xbe4bc3cf	-0.19898914
8	0x3e069c3e	0.13145539
9	0xbcd74527	-0.026278092
10	0xbd888eee	-0.06667887
11	0x381af212	3.6941907e-05
12	0xbdb6e9b8	-0.08931297
13	0x3d29d9d9	0.04146752
14	0xbd80f7fe	-0.06297301
15	0x3da2faf7	0.07958024
16	0xbbf643a8	-0.0075153895
17	0xbe10248a	-0.14076439
18	0x3bc33449	0.0059571606
19	0x3d9c8bfa	0.07643886
20	0x3e223c00	0.158432
21	0x3d61a2dc	0.055086955
22	0xbe20ab5d	-0.1569037
23	0x3d219136	0.039445125
24	0x3e19e550	0.15028882
25	0x3db7b650	0.0897032
26	0x3c7fe273	0.015617955
27	0x3d172489	0.036900077
28	0xbe327cc3	-0.17430405
29	0xbdc971fa	-0.098361924
30	0xbc046d0c	-0.008082639
31	0xbde5ff2a	-0.11230309
32	0x3e123d30	0.14281154
33	0x3c42ff8e	0.011901749
34	0x3cc95522	0.024576727
35	0xba858fbe	-0.0010189933
36	0xba486987	-0.00076451193
37	0xbc5644bb	-0.01307791
38	0xbbc2811b	-0.0059358007
39	0x3d3fad93	0.046796393
40	0x3dae5b6b	0.0851353
41	0x3e0988ea	0.13431135
42	0xbde0cd9d	-0.109767176
43	0x3cb8d0cd	0.022560501
44	0xbe2bb095	-0.1676658
45	0x3df93c65	0.121697225
46	0x3c9811ff	0.018563269
47	0xbd819b67	-0.06328469
48	0x3cef5b71	0.029218407
49	0x3dcc79fd	0.09984205
50	0xbd92f5ed	-0.07175813
51	0x3cb392f9	0.021920668
52	0x3d3a35f2	0.045461603
53	0x3df0e103	0.117616676
54	0x3d8a84e2	0.06763627
55	0x3e125ba4	0.1429277
56	0x3c2dcd43	0.01060802
57	0x3bda33aa	0.006658991
58	0x3c63a077	0.013893238
59	0xbe45103c	-0.19244474
60	0x3db1f18a	0.08688648
61	0x3c8f2a99	0.017476367
62	0x3e3938a5	0.18088014
63	0x3db31cec	0.08745751
64	0x3e6184a9	0.22023262
65	0xbd0d998b	-0.034570258
66	0x3d8f85b8	0.07007927
67	0x3d90f535	0.070780195
68	0xbd6b620c	-0.05746655
69	0x3dc9dbb2	0.09856357
70	0x3c2b52d0	0.010456756
71	0x3c645988	0.013937362
72	0xbd80ee51	-0.06295455
73	0xbce294b3	-0.027658796
74	0xbdc5d96d	-0.09660611
75	0xbb45598f	-0.0030113196
76	0xbe244ffd	-0.16046138
77	0xbc660dfa	-0.014041418
78	0xbd3eea79	-0.04661033
79	0xbe5f1d2e	-0.21788475
80	0x3dc3984c	0.09550533
81	0x3d3a44fb	0.04547594
82	0xbd2129a8	-0.039346367
83	0x3e3e2299	0.18567885
84	0x3e251536	0.16121373
85	0x3d29e4da	0.041478015
86	0x3d7ff8a2	0.062492974
87	0xbd1bb5d0	-0.038015187
88	0xbc48513b	-0.012226398
89	0xbe37902d	-0.17926092
90	0x3c35696a	0.011072496
91	0xbdf9d809	-0.121994086
92	0x3d449db7	0.04800197
93	0xbe80a19c	-0.25123298
94	0xbd76b20d	-0.060228396
95	0x3daed0f3	0.08535948
96	0x3e007759	0.12545528
97	0x3e04b13d	0.12958236
98	0xbce87856	-0.028377693
99	0xbc33856a	-0.010957101
100	0x3dd07786	0.10179047
101	0x3d723ea2	0.059141763
102	0x3e05075f	0.12991093
103	0xbe2202c9	-0.15821375
104	0x3d220ac9	0.039561067
105	0x3d4b66f3	0.049658727
106	0xbdaf4920	-0.08558869
107	0xbcfe6668	-0.03105469
108	0xbd8edae6	-0.06975345
109	0xbda597c1	-0.080855854
110	0x3b03f494	0.0020134794
111	0x3cb5ac4b	0.022176882
112	0xbdae30a8	-0.08505374
113	0x3dd79bbb	0.1052775
114	0x3d00584f	0.031334218
115	0xbe0b76b4	-0.136195
116	0x3dbdfe2b	0.09276994
117	0xbcf7e882	-0.030262236
118	0x3cd81c74	0.026380755
119	0x3d4ef670	0.05052799
120	0xbdaa8649	-0.08326394
121	0x3af8a740	0.0018970743
122	0x3d80d336	0.06290285
123	0xbabf97c7	-0.0014617377
124	0xbe27c0f4	-0.163822
125	0xbe1885c4	-0.14894778
126	0xbe1f160c	-0.15535754
127	0x3dc19a4c	0.09453258
128	0xbdbd9983	-0.09257796
129	0x3dc6f891	0.09715379
130	0x3cce599b	0.025189212
131	0xbdfaa251	-0.12237991
132	0xbd0e3fac	-0.03472869
133	0x3c408701	0.011750937
134	0x3d334a16	0.043771826
135	0x3c9d63b9	0.01921259
136	0x3b4ccdf0	0.0031250678
137	0x3b55089b	0.003250635
138	0x3d04de45	0.032438535
139	0xbb8db64a	-0.004324709
140	0xbe3e4989	-0.18582739
141	0xbe3f52b3	-0.18683891
142	0x3d818343	0.06323864
143	0xbdad6b33	-0.08467712
144	0xbc04978a	-0.00809277
145	0x3c2a607a	0.010398978
146	0xbd74a8e4	-0.05973138
147	0xbdecb065	-0.11557082
148	0x3d211c76	0.039333783
149	0x3ba671a5	0.0050794655
150	0x3bf76339	0.00754967
151	0xbbe4ed0e	-0.006986267
152	0xbe4e1bfb	-0.20127861
153	0xbd543ad0	-0.0518139
154	0xbdfd75b7	-0.12375968
155	0x3ddccb00	0.10780907
156	0x3a683c80	0.0008859113
157	0x3d8c76bd	0.06858585
158	0xbd7c7640	-0.06163621
159	0xbdcfe779	-0.10151572
160	0xbd3df4cc	-0.046376035
161	0x3c52c1be	0.012863575
162	0xbda037d7	-0.078231506
163	0x3e4292bf	0.19001292
164	0xbd82c5c1	-0.06385375
165	0x3c3e8215	0.011627694
166	0x3d43610a	0.047699966
167	0x3e519295	0.20466073
168	0x3ca3234c	0.019914292
169	0xbe6edd23	-0.23326544
170	0xbd2fe52a	-0.042943157
171	0xbe2da215	-0.1695636
172	0x3e5130a1	0.20428707
173	0xbe483829	-0.19552673
174	0xbdc23843	-0.09483387
175	0xbd90c039	-0.070679136
176	0xbc2374cc	-0.009976577
177	0xbc276372	-0.010216581
178	0x3bbae1f2	0.0057032043
179	0xbba9df15	-0.005184064
180	0xbd12790c	-0.03575997
181	0x3dc0e8bf	0.09419393
182	0xbd81002b	-0.0629886
183	0xbe5bb2b5	-0.2145489
184	0xbe237c53	-0.15965395
185	0x3d614b81	0.055003647
186	0xbd53d554	-0.051717117
187	0xbe30f452	-0.17280701
188	0x3dd9ccd6	0.106347725
189	0xbe303e43	-0.17211251
190	0x3dc5b149	0.09652955
191	0xbde1dfc9	-0.11029012
192	0xbe1354d3	-0.14387827
193	0xbe1de0ab	-0.15417735
194	0xbd5ea744	-0.054358736
195	0x3e11e7ba	0.14248553
196	0xbe168664	-0.14699703
197	0x3d5fa8e3	0.054604422
198	0x3c1d88f8	0.009615175
199	0xbd43ee23	-0.047834527
200	0x3d59d68e	0.05318313
201	0xbe86261d	-0.26200953
202	0x3bee1816	0.007266055
203	0xbce35033	-0.027748203
204	0xbcae4e48	-0.021277562
205	0x3d067a5f	0.032831546
206	0x3d65783c	0.056022868
207	0xbddd1b24	-0.10796192
208	0xbe0f053a	-0.13966838
209	0xbdd43a7b	-0.10362717
210	0xbe8566eb	-0.26055083
211	0xbe40c126	-0.1882368
212	0xbd74ad82	-0.059735782
213	0xbd6c6370	-0.05771202
214	0x3d791d9d	0.060819257
215	0x3defb6ca	0.11704786
216	0x3dfe19b8	0.12407249
217	0x3da92680	0.082592964
218	0x3d7f9137	0.062394347
219	0xbdedda5a	-0.11613913
220	0xbd5f0c9b	-0.05445538
221	0xbd8659d5	-0.06560103
222	0xbe2ed119	-0.17071952
223	0xbe7d4105	-0.24731834
224	0xbe339d39	-0.17540444
225	0x3d3074b3	0.043080043
226	0xbd428a6f	-0.0474953
227	0xbdb21fb3	-0.086974524
228	0xbe23c326	-0.15992412
229	0x3d4a8ea3	0.049452435
230	0xbe275a08	-0.16342938
231	0x3c8177d0	0.015804201
232	0xbe547773	-0.20748691
233	0x3deae705	0.11469845
234	0xbe25e76e	-0.16201565
235	0xbe38fca0	-0.18065119
236	0x3dd00ef9	0.10159106
237	0xbc6a5d13	-0.014304417
238	0xbe08af2c	-0.13348073
239	0x3d05677c	0.032569394
240	0x3d1cc4df	0.03827369
241	0x3d962b2f	0.07332455
242	0xbe33b0a0	-0.17547846
243	0xbc8fdf73	-0.017562604
244	0x3cfba084	0.030716188
245	0xbcd4d2db	-0.02597945
246	0x3d1ce4eb	0.03830425
247	0x3cfaa046	0.030594002
248	0x3d2bcc71	0.041943017
249	0xbe23a25e	-0.15979907
250	0x3bb3b544	0.005484255
251	0xbdc220dc	-0.09478924
252	0xbbe350cd	-0.0069371224
253	0x3b936a02	0.004498721
254	0xbe053e3f	-0.13012026
255	0xbdebc677	-0.115124635

network.1.conv.0.weight f4 [256, 512]
0	0x3d67953d	0.05653881
1	0xbe39768b	-0.18111627
2	0xbd5d556a	-0.054036535
3	0x3d192573	0.03738923
4	0xbae351fb	-0.0017343158
5	0xbd893103	-0.06698801
6	0xbdffb95b	-0.124865256
7	0xbd370de5	-0.044690985
8	0x3bda2861	0.0066576456
9	0xbdb382f1	-0.087652095
10	0xbe370665	-0.17873533
11	0x3d8c3ca2	0.06847502
12	0x3e10f05b	0.14154188
13	0xbcba0e5a	-0.022711921
14	0xbdc2f6b0	-0.09519708
15	0x3eb52cf1	0.3538585
16	0xbe65cc9f	-0.22441338
17	0x3cd03a95	0.02541856
18	0x3cd8b62b	0.026454052
19	0x3e4546b6	0.19265255
20	0x3ded38e4	0.11583117
21	0x3e8dc54f	0.27689597
22	0x3db92e92	0.09042086
23	0x3cc82921	0.024433674
24	0x3e32bc90	0.17454743
25	0xbd5cb993	-0.053887915
26	0x3e5146a1	0.20437099
27	0x3e0ab61f	0.13546036
28	0xbdf14fb9	-0.11782784
29	0xbd0fb69f	-0.03508627
30	0xbe15a0c3	-0.14612107
31	0xbc584c1f	-0.013201742
32	0x3e01a1b3	0.1265934
33	0x3ce948db	0.028477123
34	0x3cfde325	0.0309921
35	0x3d875b5e	0.06609224
36	0xbd851cb7	-0.064996175
37	0xbe51b606	-0.20479593
38	0xbc9624cf	-0.018328099
39	0xbe6aab59	-0.22916926
40	0x3d280091	0.041016165
41	0x3e9a1cc0	0.3010006
42	0x3cd85c46	0.026411187
43	0xbea4cdc9	-0.32188252
44	0x3dd1ed96	0.10250394
45	0xbd32456d	-0.04352324
46	0xbd9ee611	-0.077587254
47	0xbe0a2f00	-0.13494492
48	0x3d342f0b	0.043990176
49	0x3c455f11	0.012046591
50	0x3ce261bf	0.0276345
51	0xbd50edf3	-0.051008176
52	0x3e17306f	0.1476457
53	0x3dacf7d3	0.08445706
54	0x3e9a6149	0.30152348
55	0xbceb6aca	-0.028737444
56	0xbe94eb3e	-0.29085726
57	0xbe5e4c86	-0.21708879
58	0xbe29ad57	-0.1657003
59	0xbea6a022	-0.32544047
60	0xbcdf2fbd	-0.027244443
61	0x3e03615f	0.12830113
62	0xbc3496eb	-0.01102231
63	0xbcb4230d	-0.02198937
64	0x3cdb48c1	0.02676809
65	0xbe87dfcc	-0.2653793
66	0xbcc562f5	-0.024095038
67	0x3d725034	0.05915852
68	0xbd808b10	-0.06276524
69	0x3d2bd08e	0.04194694
70	0x3dfd1581	0.12357617
71	0xbcc825de	-0.024432119
72	0x3d5aa319	0.0533782
73	0x3e975daa	0.29563648
74	0xbc5e44d4	-0.013566215
75	0xbe4a8b0b	-0.19779603
76	0xbe3dcca8	-0.18535101
77	0x3c56b90a	0.01310564
78	0x3dde0614	0.10841003
79	0x3e047b57	0.12937675
80	0x3cfebf9c	0.031097226
81	0xbdb125a7	-0.0864976
82	0xbe5fb5d9	-0.21846713
83	0x3e14252f	0.1446731
84	0xbdd5ccd1	-0.10439456
85	0x3df2ca55	0.11854998
86	0xbe671e4a	-0.22570148
87	0xbd6e00b6	-0.058106147
88	0x3e2f6fbf	0.17132472
89	0x3e841f3c	0.2580508
90	0x3e680359	0.22657527
91	0x3db7ee6c	0.08981022
92	0x3eadd796	0.33953542
93	0xbe54c60c	-0.20778674
94	0x3d8007aa	0.06251462
95	0x3ca42514	0.020037211
96	0xbd8ca4cc	-0.0686737
97	0x3e1f028a	0.15528312
98	0xbd28fe1d	-0.041257966
99	0xbe25e2a8	-0.16199744
100	0x3df000e9	0.117189236
101	0x3b9a53f6	0.004709716
102	0x3da09fb7	0.07842963
103	0xbdf71a9e	-0.12065624
104	0x3e6bae0d	0.23015614
105	0xbcb50144	-0.02209533
106	0xbe0a1fa4	-0.13488632
107	0x3c348413	0.011017817
108	0x3e753dc8	0.23949349
109	0x3dfa207e	0.12213229
110	0x3e6d82d1	0.23194434
111	0x3d57e554	0.05270894
112	0x3c8e69b5	0.01738439
113	0x3e0251f7	0.1272658
114	0x3e8723c3	0.26394472
115	0xbdde333c	-0.10849616
116	0x3dba2123	0.090883516
117	0xbe0dcb0f	-0.13846992
118	0xbd9bf0c3	-0.07614281
119	0x3d3ab2e1	0.04558075
120	0xbd4ac893	-0.04950769
121	0x3e6f82c6	0.2338973
122	0xbdb15813	-0.08659377
123	0xbd1bb3b5	-0.03801318
124	0xbdee2dd6	-0.11629836
125	0xbea00de1	-0.3126059
126	0xbea5d339	-0.32387713
127	0x3c6c547d	0.01442444
128	0x3cdad4df	0.026712833
129	0xbb6a942d	-0.0035793886
130	0x3e4e5109	0.201481
131	0xbb1fd71c	-0.002438969
132	0xbc1166e5	-0.00887463
133	0xbc56e3b5	-0.013115813
134	0xbdc33eae	-0.095334396
135	0x3d804ffd	0.062652566
136	0x3d2f4b6b	0.042796534
137	0x3d9c4846	0.076309726
138	0x3d1353de	0.035968654
139	0x3c9984a1	0.01874
140	0x3c3406c2	0.010987939
141	0x3cd2ee30	0.025748342
142	0xbe58e0aa	-0.21179453
143	0x3dc7ecba	0.09761949
144	0x3d694c39	0.056957457
145	0xbdba55e8	-0.090984166
146	0xbde6f88f	-0.112778775
147	0xbd36c93e	-0.044625513
148	0x3e3a645c	0.18202347
149	0xbd706574	-0.058690503
150	0x3c8f662a	0.01750477
151	0x3af78766	0.0018884956
152	0x3d73cedb	0.059523445
153	0x3e2be3f9	0.16786183
154	0x3b7d588d	0.0038657517
155	0x3d264ecc	0.04060249
156	0x3e4a8ff1	0.19781472
157	0x3df0a9f9	0.1175117
158	0xbe05d532	-0.13069609
159	0x3be1a0a9	0.0068856073
160	0xbc2bde4e	-0.010490013
161	0x3c85614a	0.016281743
162	0x3d031cdf	0.032009955
163	0x3d8da7cd	0.06916771
164	0xbdf5c4d8	-0.120004356
165	0x3e3fce24	0.1873098
166	0x3de03982	0.10948469
167	0x3e00cde4	0.12578541
168	0xbc8d4d1c	-0.017248683
169	0xbd63f97f	-0.05565786
170	0xbb640762	-0.003479444
171	0xbdfacab7	-0.12245696
172	0x3e2ace7a	0.16680327
173	0xbce1c14f	-0.027557997
174	0x3d8a48b9	0.06752152
175	0xbe1466f0	-0.14492393
176	0xbd536115	-0.051606257
177	0x3e32f722	0.17477086
178	0x3db8523c	0.0900006
179	0xbc2cdebd	-0.010551152
180	0xbddcb006	-0.10775761
181	0x3a0b860e	0.0005322405
182	0x3d2d5ff9	0.042327855
183	0xbe0b9e50	-0.1363461
184	0xbe4077c5	-0.18795688
185	0x3dcd08e0	0.100114584
186	0x3d98c112	0.074587
187	0xbdac7a5f	-0.08421778
188	0xbaafc780	-0.0013410896
189	0x3d9bc45f	0.07605814
190	0x3d8bb9a2	0.06822516
191	0xbe4f7d17	-0.20262562
192	0xbe684a60	-0.22684622
193	0x3d3a60ea	0.04550258
194	0x3d8655f3	0.06559362
195	0x3d081ba2	0.033229478
196	0x3e014ca3	0.12626891
197	0xbd06be99	-0.03289661
198	0x3e130f2d	0.14361258
199	0xbd611f07	-0.05496123
200	0xbcd52532	-0.026018713
201	0xbe073f04	-0.13207632
202	0xba1534b4	-0.00056917523
203	0xbda24db2	-0.079249755
204	0x3d83e1f0	0.064395785
205	0x3dcebfa5	0.10095147
206	0x3e2e1ae8	0.17002451
207	0xbee9d592	-0.45670754
208	0x3cc5f9fd	0.024167055
209	0xbe84bb2d	-0.25924054
210	0x3ba34922	0.0049830833
211	0xbde91e02	-0.11382677
212	0x3db9d830	0.090744376
213	0x3cb26646	0.021777283
214	0xbc4a506a	-0.012348274
215	0x3d75deb2	0.060026832
216	0x3da43b96	0.080191776
217	0x3e174a30	0.14774394
218	0x3dacd3d4	0.084388405
219	0x3ceb524c	0.028725766
220	0x3d997777	0.07493489
221	0x3ca3c827	0.019992901
222	0xbdec8318	-0.11548442
223	0xbbd5c1d4	-0.0065233503
224	0xbdf9057b	-0.121592484
225	0x3cbbee8c	0.022940896
226	0x3d834e52	0.06411423
227	0xbe57d235	-0.21076281
228	0xbe4531e0	-0.19257307
229	0xbddc593e	-0.10759209
230	0xbc8eb8b8	-0.017422065
231	0x3dc29d67	0.09502678
232	0xbcb809a9	-0.022465544
233	0x3d0a48f5	0.033760983
234	0xbce6adb5	-0.028159002
235	0xbbe92297	-0.007114719
236	0x3d02818c	0.031861827
237	0x3ccb70f2	0.02483413
238	0xbdda85c3	-0.10670044
239	0x3d3973eb	0.045276564
240	0x3d64210d	0.055695582
241	0x3e0a9b86	0.1353589
242	0xbdc1125c	-0.0942733
243	0x3da9b55d	0.082865454
244	0xbd6bf112	-0.05760295
245	0xbde7c95b	-0.113177024
246	0x3d53912b	0.051652115
247	0xbdd18044	-0.10229543
248	0xbc5947e2	-0.013261767
249	0xbeaa6758	-0.3328197
250	0x3d784705	0.060614605
251	0xbdfa1f76	-0.12213032
252	0x3e5d1e0f	0.21593498
253	0xbe0ae639	-0.13564385
254	0xbd742308	-0.05960372
255	0x3d639e38	0.05557081

network.1.conv.0.bias f4 [256]
0	0xbd1122ec	-0.035433695
1	0xbaafdeeb	-0.0013417875
2	0x3d241082	0.040054806
3	0x3c59d7d4	0.013296086
4	0xbbf79cec	-0.0075565483
5	0x3d952efc	0.07284352
6	0x3d41c840	0.047310114
7	0x3d710341	0.058840994
8	0xbd563483	-0.052296173
9	0x3d6b1250	0.05739051
10	0xbc6f7ef3	-0.014617669
11	0xbe2560f9	-0.16150273
12	0x3d92edc9	0.0717426
13	0xbdd7a606	-0.10529713
14	0xbdadbcea	-0.08483298
15	0xbdce586c	-0.10075459
16	0xbd7056dc	-0.058676586
17	0xba5d9c49	-0.0008453769
18	0x3d155e13	0.03646667
19	0xbe35f7ec	-0.17770356
20	0xbdb19a7f	-0.08672046
21	0x3e5cf2e0	0.21577024
22	0xbd973b6f	-0.07384383
23	0xbd19c010	-0.03753668
24	0xbd9e088d	-0.07716475
25	0x3bf9f8cd	0.0076285363
26	0xbe2e1987	-0.17001925
27	0x3cc495d4	0.023997225
28	0xbe120241	-0.14258672
29	0xbc1983fc	-0.009369846
30	0xbe09ea92	-0.13468388
31	0x3bc59b89	0.006030504
32	0xbd94a4ad	-0.07257972
33	0xbe6f85dc	-0.23390907
34	0x3e514b60	0.2043891
35	0xbdbed2d2	-0.093175545
36	0xbe559c77	-0.20860468
37	0x3c4a53ae	0.012349052
38	0x3bccdd47	0.0062519643
39	0xbd346b40	-0.044047594
40	0xbde6d819	-0.11271686
41	0xbe125080	-0.14288521
42	0xbe5c7628	-0.21529448
43	0x3d93fbdb	0.07225772
44	0x3cb98992	0.022648606
45	0x3d0a1a8a	0.033716716
46	0xbdf68ef5	-0.12038986
47	0x3b904a2f	0.0044033746
48	0xbd8777f2	-0.06614675
49	0x3d67043a	0.056400515
50	0xbd53bb25	-0.051692147
51	0x3db4364d	0.087994196
52	0xbd88265c	-0.066479415
53	0xbc6ffb12	-0.014647262
54	0xbd8bb207	-0.068210654
55	0x3c99abc8	0.01875867
56	0x3d3c58d9	0.04598317
57	0x3d4828d6	0.04886707
58	0x3cb4228f	0.021989135
59	0x3e169599	0.14705504
60	0xbe0da04f	-0.13830684
61	0xbd8a6467	-0.067574315
62	0xbc5fc4dd	-0.013657776
63	0x3d06311a	0.03276167
64	0x3cbc5fcb	0.022994896
65	0x3d0605f7	0.032720532
66	0x3e15222c	0.14563817
67	0xbd52f579	-0.051503632
68	0xbce4bcb0	-0.027922004
69	0xbd7cc16b	-0.061707895
70	0xbc0bae86	-0.008525496
71	0xbdb40a07	-0.08790975
72	0x3d8d6ae4	0.069051534
73	0xbdcb60f2	-0.099306
74	0xbe0aa3fb	-0.13539116
75	0xbb19e5ba	-0.0023482875
76	0x3c67f510	0.014157549
77	0x3ce509bd	0.027958745
78	0xbb97a73d	-0.0046280907
79	0x3e54864d	0.20754357
80	0xbdea2bcf	-0.11434137
81	0x3d185c1b	0.037197214
82	0xbe1d4c8d	-0.15361233
83	0x3da13b8b	0.07872685
84	0xbe345f1b	-0.17614405
85	0xbd84aab1	-0.06477869
86	0xbd61185a	-0.054954864
87	0xbd1b1078	-0.037857503
88	0x3dab5884	0.083664924
89	0x3b282edc	0.0025662696
90	0x39283da9	0.00016044699
91	0x3e09bfa5	0.13452013
92	0x3deb8014	0.11499038
93	0x3df78424	0.12085751
94	0xbc81d579	-0.015848862
95	0xbc053056	-0.0081292
96	0xbe3aa416	-0.18226656
97	0xbd141400	-0.036151886
98	0xbd132015	-0.035919268
99	0x3ea34ec9	0.31896046
100	0x3d3aa94b	0.045571607
101	0xbd8872fe	-0.06662558
102	0x3d81d806	0.06340031
103	0xbe39101f	-0.18072556
104	0xbe5f02de	-0.21778437
105	0xbd6baa76	-0.05753561
106	0x3deaa3cf	0.11457025
107	0xbe30e5c9	-0.17275156
108	0x3d0e9512	0.034810133
109	0xbc7c5c39	-0.015402847
110	0x3e0d9769	0.1382729
111	0xbe309beb	-0.17246978
112	0x3d9833ba	0.07431741
113	0x3dec0659	0.11524648
114	0xbdc3acbe	-0.09554432
115	0x3dca02cd	0.098638155
116	0x3d77b387	0.060473945
117	0xbd1cd313	-0.038287234
118	0xbd0065f7	-0.03134724
119	0x3e04c560	0.12965918
120	0x3b2180ba	0.0024643377
121	0xbce90830	-0.028446287
122	0x3df6274f	0.12019216
123	0x3ddb0a69	0.10695345
124	0xbdea493b	-0.11439749
125	0xbd33266a	-0.043737806
126	0x3e0d187b	0.1377887
127	0xbe6cb625	-0.23116358
128	0xbd237e84	-0.039915577
129	0xbdc10b9f	-0.09426045
130	0xbe2a1aa8	-0.16611731
131	0x3d2532cc	0.040331647
132	0xbd63cb9d	-0.055614103
133	0x3c80da43	0.015729075
134	0x3c374b3f	0.011187374
135	0xbc5f45d8	-0.013627492
136	0x3d2a4817	0.041572656
137	0xbc7cb7a8	-0.015424646
138	0xbd8252cf	-0.06363451
139	0xbbaae5be	-0.0052153757
140	0xbcc5461f	-0.024081288
141	0x3d3072fd	0.04307841
142	0xbc76d606	-0.015065676
143	0x3cb56951	0.022144945
144	0x3d92237d	0.07135675
145	0x3bb3f482	0.005491794
146	0xbe0f133e	-0.13972184
147	0x3dc0a6ce	0.094068155
148	0x3e007780	0.12545586
149	0xbdaa89ee	-0.08327089
150	0xbd4439da	-0.047906734
151	0xbdf1586c	-0.11784443
152	0x3e000ea8	0.12505591
153	0x3e9a1af8	0.300987
154	0x3d681e61	0.056669597
155	0xbd90a98a	-0.07063587
156	0x3c2c91b6	0.010532787
157	0x3d3b2cbc	0.04569696
158	0x3ca26b78	0.019826636
159	0xbc34ef82	-0.011043431
160	0xbbf29e00	-0.007404089
161	0xbdbab3fe	-0.09116362
162	0x3ccbbe2f	0.02487096
163	0x3e38000f	0.17968772
164	0xbcc3e7d0	-0.023914248
165	0x3de2e9cd	0.1107975
166	0xbbb19fa0	-0.00542064
167	0xbc796ff4	-0.015224446
168	0x3d9a642c	0.075386375
169	0x3de90f95	0.11379925
170	0x3d9bc132	0.076052085
171	0xbe019f4a	-0.1265842
172	0x3c3098cc	0.010778617
173	0xbe4afa37	-0.19822012
174	0x3d3701d0	0.044679463
175	0xbe286096	-0.16443095
176	0xbd1afb9a	-0.037837602
177	0xbdc2c0de	-0.09509443
178	0xbc378a08	-0.011202343
179	0x3d363157	0.044480648
180	0xbb4b1329	-0.0030986762
181	0xbccd139d	-0.025033766
182	0x3cc7f332	0.024407957
183	0xbe01709b	-0.12640612
184	0xbc88471c	-0.01663547
185	0xbd9fbfa7	-0.07800227
186	0x3d3f6704	0.046729103
187	0xbe7af7f1	-0.24508645
188	0xbd88e742	-0.06684734
189	0x3e0cf387	0.13764773
190	0xbdca79e6	-0.098865315
191	0x3c046904	0.008081678
192	0xbd51a64c	-0.051183984
193	0xbdfecf5c	-0.124418944
194	0xbe299cda	-0.1656374
195	0x3d7e154e	0.062032036
196	0xbde3830d	-0.1110898
197	0x3d9a0363	0.07520177
198	0x3ddad204	0.106845886
199	0xbdbb2561	-0.09137989
200	0xbdb6bcd6	-0.08922736
201	0x3dd1cfce	0.10244714
202	0xbe1ee2be	-0.15516183
203	0x3e0f5fa6	0.1400133
204	0xbd117139	-0.03550837
205	0xbc92e982	-0.01793361
206	0xbe417d87	-0.18895541
207	0xbe03aee8	-0.1285969
208	0xbcd96874	-0.026539065
209	0x3bfa2da5	0.007634836
210	0x3acc56ac	0.0015589795
211	0xbca58e6f	-0.02020952
212	0xbe220053	-0.15820436
213	0xbb310c3f	-0.0027015356
214	0x3d96510b	0.073396765
215	0x3dc56aad	0.096394874
216	0xbe15aed4	-0.14617473
217	0x3cf8e39e	0.030381974
218	0xbe5f16cf	-0.21786045
219	0xbd4a92ca	-0.049456395
220	0x3b997e63	0.004684256
221	0xbe03795e	-0.12839267
222	0xbe55716f	-0.20844053
223	0xbdbd1bf9	-0.09233851
224	0x3c09b57b	0.008405085
225	0x3c81a21e	0.015824374
226	0x3d22f200	0.03978157
227	0xbe01af6b	-0.12664573
228	0x3d57f811	0.05272681
229	0x3e313815	0.1730655
230	0x3e0beaf3	0.13663845
231	0xbe3d5563	-0.18489604
232	0xbd18541b	-0.037189584
233	0x3e147c1c	0.14500469
234	0xbd8b9bab	-0.06816801
235	0xbca939fa	-0.020657528
236	0xbcc07801	-0.023494722
237	0x3d2ddc8c	0.042446658
238	0xbd74e73c	-0.059790835
239	0x3e3f5b7a	0.1868724
240	0xbe0d82a9	-0.13819374
241	0x3d5f4c60	0.054516196
242	0xbde6f088	-0.112763464
243	0x3cccfad8	0.025021955
244	0x3e5b150c	0.21394747
245	0x3d259786	0.040427707
246	0x3d21cc69	0.03950158
247	0x3a937dbe	0.0011252684
248	0xbdb793ce	-0.089637384
249	0xbca8fdf6	-0.02062891
250	0xbe83c26b	-0.25734267
251	0xbc8e2d87	-0.017355694
252	0x3d7708c8	0.06031111
253	0x3dd4eb45	0.103964366
254	0xbdabf1c9	-0.08395726
255	0xbdc2e7ab	-0.095168434

network.2.conv.0.weight f4 [128, 256]
0	0x3cf3e2e7	0.029771281
1	0xbbefbe08	-0.0073163547
2	0xbc92de15	-0.017928163
3	0x3cea6e82	0.028617147
4	0xbd5763c2	-0.05258537
5	0x3db73302	0.08945276
6	0x3e678902	0.22610858
7	0x3e450f32	0.19244078
8	0xbd83be32	-0.06432761
9	0x3cce5520	0.025187075
10	0xbde0ef60	-0.10983157
11	0xbd50412f	-0.050843414
12	0x3d4e29fd	0.050333012
13	0x3dcda39f	0.10040974
14	0x3dbbae21	0.09164072
15	0xbdc448c5	-0.09584192
16	0x3ebbc667	0.36674806
17	0xbde681c3	-0.11255219
18	0xbd86ca7f	-0.06581592
19	0x3db42244	0.08795598
20	0x3dbcecc7	0.09224849
21	0xbd50eeb5	-0.0510089
22	0x3da05a55	0.078297295
23	0x3de9e103	0.11419871
24	0xbe53af6f	-0.20672391
25	0x3e88ec7a	0.26742917
26	0xbe089acb	-0.13340299
27	0x3d9fe3b0	0.078071
28	0x3e34995d	0.17636628
29	0xbdaf056c	-0.08545956
30	0x3d42cbac	0.047557518
31	0xbe580453	-0.210954
32	0xbe15217d	-0.14563556
33	0xbe1da680	-0.15395546
34	0x3d80ed71	0.06295288
35	0xbd8c1a02	-0.06840898
36	0xbdb31648	-0.08744484
37	0xbc8d737b	-0.01726698
38	0x3dee69a5	0.11641244
39	0xbd53594f	-0.051598843
40	0x3db4878d	0.08814917
41	0xbd09406b	-0.0335087
42	0x3c1126fa	0.00885939
43	0x3dbc828e	0.09204589
44	0xbdf5e5eb	-0.12006744
45	0xbdc3b53e	-0.095560536
46	0x3e5597f0	0.20858741
47	0x3d203f52	0.039122887
48	0xbe6b8a51	-0.23001982
49	0x3e070c1e	0.13188216
50	0xbe3d6e58	-0.18499124
51	0xbd3b78bd	-0.045769442
52	0xbd85d2dd	-0.065343596
53	0xbcb52b34	-0.022115327
54	0x3ca78bfb	0.02045249
55	0xbd0a8aac	-0.033823654
56	0xbd2059d4	-0.039148167
57	0xbd9d0a2f	-0.07667958
58	0xbe5f5805	-0.2181092
59	0xbe0ab022	-0.13543752
60	0x3d767d55	0.06017812
61	0xbda950e1	-0.082673796
62	0x3e2d2861	0.16909935
63	0xbdc4f5ca	-0.09617193
64	0x3977cf83	0.0002363306
65	0x3dd7b8b1	0.10533274
66	0xbda1e4fb	-0.07905003
67	0xbc76ec66	-0.01507101
68	0xbe49df97	-0.19714199
69	0xbd32454c	-0.043523118
70	0xbdca1d89	-0.09868915
71	0x3dc82dd7	0.09774368
72	0xbd820994	-0.06349483
73	0xba3b9a96	-0.0007156519
74	0xbde1e722	-0.11030413
75	0xbd3876ab	-0.045035046
76	0x3d4d357d	0.05009984
77	0x3d071095	0.0329748
78	0x3e2fcb83	0.17167477
79	0xbe23f33a	-0.16010752
80	0xbe98e7ad	-0.29864255
81	0x3e15eceb	0.14641158
82	0xbcee8c52	-0.029119644
83	0xbc913824	-0.017726965
84	0xbd353738	-0.044242114
85	0x3dde26d5	0.1084725
86	0xbd031867	-0.032005694
87	0x3d106796	0.035255037
88	0xbda47286	-0.08029656
89	0xbbd2fb04	-0.006438615
90	0x3d1d809c	0.03845273
91	0x3dc5ac29	0.096519776
92	0xbe0480c1	-0.1293974
93	0x3cc75237	0.024331195
94	0xbd768a22	-0.060190327
95	0x3d73b85c	0.05950199
96	0xbb485c0f	-0.003057245
97	0x3d05f92c	0.032708332
98	0x3c956b10	0.018239528
99	0x3e2b51bf	0.16730402
100	0x3db23981	0.08702374
101	0x3ddf0158	0.10888928
102	0xbce2d087	-0.027687324
103	0x3d0c7430	0.034290493
104	0x3da5d7f4	0.080978304
105	0x3dbeda36	0.09318964
106	0x3c40fa7e	0.011778472
107	0x3d5860d8	0.052826732
108	0x3d4f7ff1	0.050659124
109	0xbe647e4f	-0.22313808
110	0xbdd5c0f4	-0.104371935
111	0x3dc48e80	0.09597492
112	0xbde0c8b8	-0.10975784
113	0x3af78841	0.0018885211
114	0x3db4db56	0.088308975
115	0xbd503a8e	-0.050837092
116	0x3bd1c921	0.0064021503
117	0xbe8a5719	-0.27019575
118	0x3cde4287	0.027131332
119	0xbb943bb9	-0.004523721
120	0xbda9fcd1	-0.08300174
121	0xbe3d7058	-0.18499887
122	0xbe24e371	-0.16102387
123	0xbdc263b4	-0.09491673
124	0x3d1dae13	0.03849609
125	0x3be37c58	0.006942313
126	0xbd9212ab	-0.07132467
127	0x3de51ff1	0.11187733
128	0x3de314c4	0.11087945
129	0x3e1f870d	0.15578862
130	0x3e2e7fc8	0.17040932
131	0xbe10bc1f	-0.14134263
132	0xbd9e1c89	-0.077202864
133	0x3e005367	0.12531815
134	0xbdc8e203	-0.09808733
135	0x3d91cb5e	0.07118867
136	0x3d0b15b9	0.033956263
137	0xbc09ea45	-0.008417671
138	0xbbf7722f	-0.0075514535
139	0x3d83aec6	0.0642982
140	0x3d741f06	0.0595999
141	0xbbbb542b	-0.0057168207
142	0xbd6503b8	-0.05591175
143	0xbe0328a5	-0.12808473
144	0x3d3626f5	0.044470746
145	0xbe2b9cd7	-0.16759048
146	0x3d6f836b	0.05847494
147	0xbcf34b73	-0.029699063
148	0xbe02449a	-0.12721482
149	0xbb969064	-0.0045948494
150	0xbb7103b6	-0.0036775894
151	0xbe0b3876	-0.13595757
152	0xbd744055	-0.059631664
153	0xbdbe7867	-0.09300309
154	0x3d5e2e52	0.054243393
155	0x3dab93c2	0.08377792
156	0x3e3f3adc	0.18674797
157	0xbddeee75	-0.10885326
158	0x3cf0861a	0.02936082
159	0xbe197f5e	-0.14989993
160	0x3e50f34d	0.20405312
161	0xb9fec164	-0.00048590743
162	0x3e2c1d82	0.16808131
163	0xbd3facfc	-0.04679583
164	0xbd8745cc	-0.066051096
165	0xbe03827b	-0.12842743
166	0x3da9a642	0.08283664
167	0xbdf47b61	-0.11937595
168	0xbc7dccc2	-0.015490713
169	0xbdf672e3	-0.12033632
170	0xbdbd2040	-0.09234667
171	0xbd801d77	-0.0625562
172	0x3cd4276c	0.025897704
173	0xbd990be3	-0.0747297
174	0x3e0a3f29	0.13500656
175	0xbc5e0a39	-0.013552242
176	0xbdc92f1a	-0.09823437
177	0xbdfd9d01	-0.12383462
178	0x3e04dc42	0.12974647
179	0x3db139ba	0.086535886
180	0x3d529ba5	0.051417965
181	0xbdd8fdbd	-0.10595272
182	0x3dfbb097	0.12289541
183	0xbd7c15f3	-0.06154437
184	0xbd362a3c	-0.04447387
185	0xbda74267	-0.08166962
186	0xbdde476f	-0.108534686
187	0xbd83c0fe	-0.06433295
188	0xbd231f2d	-0.039824653
189	0x3d156d1c	0.036481008
190	0x3dcb9861	0.09941173
191	0xbda3c60f	-0.07996761
192	0x3e237bb4	0.15965158
193	0xbe4b38ec	-0.19845933
194	0xbe62fbce	-0.22166368
195	0xbe2c1d6e	-0.16808102
196	0x3df046d8	0.117322624
197	0x3d875cc2	0.06609489
198	0x3df05440	0.117348194
199	0xbdb76436	-0.089546606
200	0x3e0b74f5	0.13618834
201	0x3ce7c7a9	0.028293448
202	0x3e02047d	0.12697025
203	0x3c21bc8b	0.009871612
204	0x3c8e078c	0.017337583
205	0xbd7b3036	-0.061325274
206	0x3cad9c4b	0.02119269
207	0x3e152123	0.14563422
208	0xbd9eb407	-0.07749181
209	0xbcee1602	-0.029063229
210	0xbe65a0c5	-0.2242461
211	0xbdb4c6fa	-0.08827014
212	0x3c6e210b	0.014534245
213	0xbdd50408	-0.104011595
214	0xbe044cb7	-0.1291989
215	0x3d5be0dc	0.05368124
216	0xbdfca08a	-0.12335308
217	0x3d401a39	0.046900008
218	0xbe6b76bc	-0.22994512
219	0x3e037f7f	0.12841605
220	0xbdc53a58	-0.09630269
221	0xbe053083	-0.13006787
222	0x3d9bed17	0.07613581
223	0xbe90f9cd	-0.28315583
224	0xbe426f83	-0.18987851
225	0xbc96bbfc	-0.018400185
226	0xbc4a6996	-0.012354275
227	0xbe05256c	-0.13002557
228	0xbd15ab99	-0.0365406
229	0xbddb1634	-0.10697594
230	0xbd4f85fe	-0.050664894
231	0xbdcabf82	-0.098998085
232	0x3ccc9f6a	0.024978358
233	0x3db17bcf	0.08666193
234	0x3d93f792	0.07224955
235	0xbd262a73	-0.040567826
236	0xbc9c0b80	-0.019048452
237	0xbe108a0b	-0.14115159
238	0x3e9d7266	0.30751342
239	0xbdb692e6	-0.089147374
240	0xbdede487	-0.11615854
241	0xbd79b72f	-0.060965713
242	0xbe484a8c	-0.19559687
243	0xbdea198c	-0.11430654
244	0xbdbde168	-0.092715085
245	0x3dc8b2b2	0.097997084
246	0xbd873f02	-0.06603815
247	0xbca6f49e	-0.020380314
248	0xbc62723c	-0.013821181
249	0x3e42a55c	0.19008392
250	0x3e39a67e	0.18129918
251	0xbdd88341	-0.1057191
252	0x3d2ee5eb	0.042699736
253	0xbd0aeb6a	-0.033915915
254	0x3d59bd74	0.053159192
255	0xbd9324e1	-0.071847685

network.2.conv.0.bias f4 [128]
0	0xbe3ab442	-0.18232825
1	0x3d0037f3	0.031303357
2	0xbe120dac	-0.14263028
3	0x3e03c89a	0.12869492
4	0xbe314d62	-0.17314675
5	0xbe2f5c9d	-0.17125173
6	0x3e0f8254	0.1401456
7	0x3d281825	0.04103865
8	0xbd24baf3	-0.04021735
9	0x3cba5b48	0.022748604
10	0x3c99dc89	0.018781917
11	0x3dad858c	0.08472738
12	0x3d3bd010	0.04585272
13	0x3e13c986	0.14432344
14	0xbd2f6292	-0.042818613
15	0x3d7aff91	0.061278883
16	0x3d8b8f67	0.06814461
17	0xbc1440fa	-0.009048695
18	0xbdb04dd5	-0.08608595
19	0xbe8eb0fd	-0.27869406
20	0xbdccf83f	-0.10008287
21	0x3ca612ac	0.020272575
22	0xbbf83226	-0.0075743375
23	0xbdbcf60f	-0.092266195
24	0xbd852cde	-0.06502698
25	0xbe0d3f4b	-0.13793676
26	0xbb6bc6f1	-0.0035976733
27	0xbdb2905c	-0.087189406
28	0xbd10364c	-0.03520803
29	0xbcb1434b	-0.021638533
30	0x3dfb5ff6	0.122741625
31	0xbe381ee9	-0.17980541
32	0xbd9798f7	-0.074022226
33	0xbe66c0ab	-0.22534434
34	0xbab6a0e4	-0.0013933447
35	0x3d08e1fc	0.03341864
36	0xbccdbfe1	-0.025115909
37	0xbe5888f5	-0.21145995
38	0x3d0aba71	0.03386921
39	0xbd3d9729	-0.046286736
40	0xbdf67b95	-0.1203529
41	0x3c63e34a	0.01390917
42	0x3d47b177	0.048753228
43	0xbdcc9952	-0.09990181
44	0xbdf4e090	-0.119568944
45	0x3d928588	0.07154375
46	0x3ddeb85e	0.10875009
47	0xbdfd7294	-0.1237537
48	0xbe4b4a24	-0.19852501
49	0x3d4e9ac6	0.050440572
50	0xbcd30603	-0.025759703
51	0x3d6ea056	0.058258377
52	0xbd61188e	-0.054955058
53	0x3e0166c3	0.12636857
54	0xbbad7258	-0.005293172
55	0x3de89a57	0.11357563
56	0x3d28045a	0.041019775
57	0xbca22e22	-0.019797388
58	0xbe230119	-0.15918387
59	0xbe8e8c12	-0.2784124
60	0xbe8a0afd	-0.26961508
61	0x3c3bf69a	0.011472369
62	0xbdaa5a59	-0.08318014
63	0x3e10031d	0.14063688
64	0x3d6814df	0.05666053
65	0x3e2deb6f	0.16984342
66	0xbe2b1365	-0.16706617
67	0x3e4ced60	0.20012426
68	0xbc59d2c6	-0.013294881
69	0x3d13ebfb	0.03611372
70	0xbda90440	-0.08252764
71	0xbde184ed	-0.11011682
72	0x3e4eeb6a	0.20206991
73	0x3c493f65	0.012283181
74	0x3dbafbca	0.09130056
75	0x3d12753b	0.03575633
76	0xbdcbb0f1	-0.09945858
77	0x3dd5f950	0.10447943
78	0x3df568cf	0.11982881
79	0x3d9747b9	0.07386727
80	0x3c1e428a	0.009659419
81	0xbe3f38c5	-0.18674
82	0x39a4d77a	0.0003144106
83	0x3e3e6b53	0.18595628
84	0xbd1c5e6d	-0.03817599
85	0x3d1f230d	0.038851786
86	0xbde0feb5	-0.109860815
87	0x3daae2d7	0.083440475
88	0x3d3e6f8c	0.0464931
89	0x3de0f66f	0.109845035
90	0xbd183357	-0.037158336
91	0xbe5b733a	-0.21430674
92	0xbdff4590	-0.1246444
93	0xbdcd962c	-0.10038409
94	0x3d38aabe	0.045084707
95	0xbd450596	-0.04810103
96	0xbcfe797a	-0.031063784
97	0xbde08f51	-0.109648354
98	0x3df50d24	0.11965397
99	0x3de0cb71	0.10976303
100	0xbe078875	-0.13235648
101	0xbdc729fb	-0.09724804
102	0x3c5d8c7f	0.013522266
103	0x3ddd11a5	0.10794381
104	0xbba0f388	-0.0049118437
105	0x3d962d00	0.07332802
106	0xbdc4bbc4	-0.09606126
107	0x3b4d919d	0.003136731
108	0xbe645e76	-0.22301659
109	0xbe1ef44f	-0.15522884
110	0xbe5188c1	-0.20462324
111	0x3ce9af8c	0.02852609
112	0xbc368ec2	-0.011142435
113	0x3bdb8181	0.0066987877
114	0xbd753feb	-0.05987541
115	0xbdd240a1	-0.10266233
116	0xbe7380f1	-0.23779656
117	0xbdfedc99	-0.124444194
118	0xbda5d151	-0.080965646
119	0xbcfae127	-0.03062494
120	0x3c36387d	0.011121866
121	0xbe8d5db6	-0.27610558
122	0xbc2dc2cc	-0.010605525
123	0xbe417702	-0.18893054
124	0xbdda93a9	-0.10672695
125	0xbe5510d4	-0.208072
126	0x3ccba426	0.024858546
127	0xbd08b250	-0.033373177

network.3.weight f4 [2, 128]
0	0xbd5eed20	-0.05442536
1	0x3cd142ed	0.025544608
2	0xbe003bd7	-0.12522827
3	0x3d838bcf	0.06423151
4	0x3c703e7d	0.014663336
5	0xbe1ec336	-0.15504155
6	0x3e570c67	0.21000825
7	0xbd63506f	-0.05549663
8	0x3d2e003f	0.042480703
9	0x3d3d27f0	0.046180665
10	0xbb12bb82	-0.0022389595
11	0xbd5f6f42	-0.054549463
12	0x3d88680d	0.06660471
13	0xbceda99b	-0.029011538
14	0x3c64d6a3	0.013967189
15	0xbc81ee93	-0.015860831
16	0xbe09b4d6	-0.1344789
17	0xb9a102ea	-0.00030710484
18	0xbdecaab6	-0.11555998
19	0x3e320e36	0.17388234
20	0x3c549287	0.012974388
21	0xbaccedac	-0.0015634797
22	0x3c2002ef	0.009766324
23	0xbdbeeae2	-0.09322144
24	0x3e4285c7	0.18996345
25	0xbd9ee5c9	-0.07758672
26	0x3d365f3e	0.044524424
27	0x3cdb2686	0.026751768
28	0xbb5fa581	-0.0034125748
29	0x3e076eb6	0.13225827
30	0x3d0b0a07	0.03394511
31	0x3dad70d8	0.08468789
32	0x3de3e906	0.1112843
33	0xbe342172	-0.17590883
34	0x3d37c45c	0.044864997
35	0x3e2d9a12	0.16953304
36	0x3c571bd7	0.013129196
37	0xbe80bdc0	-0.25144768
38	0xbe4cc864	-0.19998318
39	0xbde2c097	-0.1107189
40	0x3e169df7	0.14708696
41	0x3db70f3c	0.089384526
42	0x3d1f9aa4	0.038965836
43	0xbd707123	-0.058701646
44	0x3dd9c4ea	0.106332615
45	0xbdbc663b	-0.091991864
46	0x3dea212c	0.11432108
47	0x3d66dbfd	0.05636214
48	0xbe2a129d	-0.16608663
49	0xbd5ce708	-0.053931266
50	0x3d3d763d	0.04625534
51	0x3da0da88	0.078541815
52	0x3dc9ccb5	0.09853498
53	0xbd67afc8	-0.056564122
54	0xbcf32e13	-0.029685056
55	0xbe2a60e7	-0.16638528
56	0x3cb48f8c	0.022041105
57	0x3aa6133a	0.0012670525
58	0x3df2ac27	0.11849242
59	0xbd2d8365	-0.042361636
60	0xbcae7ce9	-0.021299796
61	0x3e15433f	0.14576434
62	0xbd0bc85a	-0.034126617
63	0xbde5fd22	-0.11229922
64	0x3e57fc06	0.21092233
65	0xbd14ef93	-0.03636129
66	0x3e348a8c	0.17630976
67	0xbe39f98c	-0.18161601
68	0x3d12c4b6	0.03583213
69	0x3e1cbdd9	0.15306796
70	0xbdec2b72	-0.11531724
71	0x3d545f71	0.051848833
72	0x3d42747b	0.047474366
73	0xbe14ef0e	-0.14544317
74	0x3c56430d	0.01307751
75	0x3e4bfdcd	0.19921036
76	0xbdb2ca20	-0.087299585
77	0xbca6b666	-0.020350646
78	0xbd34cafa	-0.044138886
79	0x3d1b6ed7	0.037947502
80	0xbd8e9a33	-0.06963005
81	0xbbe22f87	-0.0069026384
82	0x3cd38b6e	0.025823321
83	0xbcc4d8d1	-0.024029167
84	0x3e0858f6	0.13315186
85	0x3d6d7902	0.05797673
86	0x3dab76cc	0.08372268
87	0xbe2e6643	-0.17031197
88	0xbc54b998	-0.012983702
89	0x3df65087	0.12027078
90	0x3cc18faf	0.023628084
91	0x3d5e67ad	0.05429809
92	0xbe5ef60a	-0.21773544
93	0xbe03c708	-0.12868893
94	0xbd748d45	-0.059705038
95	0xbc514084	-0.012771729
96	0xbbd7e4ad	-0.0065885396
97	0x3c425eba	0.011863405
98	0xbd30d7c6	-0.043174528
99	0xbc6905b2	-0.014222549
100	0x3e17e830	0.14834666
101	0xbcfa9935	-0.030590633
102	0x3e6d42dd	0.23170038
103	0xbaa9b594	-0.0012947791
104	0x3decdd4f	0.11565649
105	0x3e50dc7f	0.20396613
106	0xbb49457a	-0.0030711577
107	0xbd93ab08	-0.07210356
108	0xbc1e5d80	-0.009665847
109	0xbd88a585	-0.06672195
110	0xbd85966c	-0.06522831
111	0x3dace933	0.08442917
112	0x3dc19e9f	0.09454083
113	0x3e211636	0.15731129
114	0x3e3b00ae	0.18261978
115	0xbe0fc663	-0.14040522
116	0x3c44ee6e	0.012019737
117	0x3d6f367d	0.058401573
118	0xbd5a0bde	-0.053233974
119	0x3d92a73d	0.071608044
120	0x3e00e5f3	0.12587719
121	0xbe403e69	-0.18773808
122	0x3e6f9cfa	0.23399726
123	0xbd9ac15f	-0.07556414
124	0x3e3281bb	0.17432301
125	0xbe3727e3	-0.1788631
126	0xbbccf3bd	-0.006254642
127	0x3b02efad	0.0019979284
128	0xbe0f9d31	-0.14024808
129	0x3da369a2	0.07979132
130	0x3cfc62ca	0.030808825
131	0xbe02e4bf	-0.12782572
132	0x3dc32566	0.095286176
133	0xbe44608c	-0.19177455
134	0xbdbeff72	-0.09326066
135	0xbc994eb3	-0.018714285
136	0xbd3bc266	-0.04583969
137	0x3da23b2d	0.07921443
138	0x3d0cff5a	0.03442321
139	0xbdb4ca11	-0.088276036
140	0x3da2f908	0.07957655
141	0x3c12b33d	0.008953867
142	0xbab614a1	-0.0013891646
143	0x3c7cd60c	0.015431892
144	0xbbbafec2	-0.005706639
145	0x3da76eac	0.08175406
146	0xbde610d1	-0.11233676
147	0x3e08e052	0.13366821
148	0xbe0d89dc	-0.1382212
149	0x3ded2931	0.11580122
150	0x3c765be0	0.015036553
151	0x3dcffab2	0.10155238
152	0x3e21ee08	0.15813458
153	0x3daa03a6	0.08301477
154	0xbe1a8858	-0.15091074
155	0xbdee3448	-0.116310656
156	0x3e0425c3	0.1290503
157	0x3d720a2c	0.059091732
158	0x3cc0ff04	0.0235591
159	0xbdacdd6d	-0.08440671
160	0xbdc02066	-0.093811795
161	0x3df7b978	0.12095922
162	0x3e307aa8	0.1723429
163	0xbdd2f61f	-0.1030085
164	0x3da12c0c	0.078697294
165	0x3d25c9e8	0.040475756
166	0x3d3d62ae	0.046236686
167	0xbde8d451	-0.11368621
168	0xbe1b8452	-0.15187195
169	0x3d6d0fb4	0.057876304
170	0xbd1958fd	-0.03743838
171	0xbcebeb03	-0.028798586
172	0xbc086832	-0.008325623
173	0x3e14711f	0.14496277
174	0x3e858424	0.26077378
175	0xbbbef500	-0.005827546
176	0xbda90270	-0.08252418
177	0xbdf345ce	-0.118785486
178	0x3d408702	0.047003753
179	0x3d4ff18d	0.05076747
180	0x3de0dd1c	0.10979673
181	0x3e3b2b35	0.18278201
182	0xbb85b567	-0.0040804627
183	0x3e22d658	0.15902078
184	0x3da2e57c	0.07953927
185	0x3b8e6673	0.004345709
186	0x3dd347b4	0.10316411
187	0xbe2e0985	-0.16995819
188	0xbd114ca1	-0.03547347
189	0xbe06ff25	-0.13183267
190	0x3d902316	0.07037942
191	0xbe8fc225	-0.28077808
192	0xbdd2ce03	-0.102932
193	0x3dcb4902	0.099260345
194	0x3d3fbf5c	0.046813354
195	0x3d39d517	0.045369234
196	0x3db8b724	0.09019306
197	0xbe9fec38	-0.31234908
198	0x3e177441	0.14790441
199	0x3cd87138	0.026421174
200	0x3dd1497e	0.10219096
201	0xbc2fadec	-0.010722619
202	0xbd8c42cb	-0.06848677
203	0xbd9ed719	-0.0775587
204	0x3dca4ac2	0.0987754
205	0x3e189dd3	0.14903955
206	0x3e2681f7	0.16260515
207	0xbda931cc	-0.08261451
208	0x3e97f410	0.29678392
209	0xbada57c7	-0.001665824
210	0xbb463195	-0.0030241956
211	0x3d9eec8c	0.077599615
212	0x3bb1e071	0.005428367
213	0xbd99ea48	-0.07515389
214	0xbe0b0b93	-0.13578634
215	0x3cb4c0d9	0.022064613
216	0xbe14cd6b	-0.14531486
217	0xbe496191	-0.19666125
218	0x3dbbdab9	0.091725774
219	0x3d82faef	0.06395518
220	0x3d189e05	0.037260074
221	0x3df65368	0.12027627
222	0x3e1f2369	0.15540852
223	0xbbf4bed6	-0.0074690385
224	0x3d9f3694	0.07774082
225	0x3e3de47d	0.18544193
226	0x3dbc5c06	0.091972396
227	0xbd331b56	-0.04372724
228	0x3d885922	0.06657626
229	0x3d72bed3	0.059264015
230	0xbcda5988	-0.02665402
231	0x3d5689ac	0.052377388
232	0x3d38add6	0.045087658
233	0xbde59a8d	-0.11211119
234	0x3e89440c	0.26809728
235	0x3d83dbd6	0.06438415
236	0x3d1d4fe1	0.038406257
237	0x3d89baa3	0.06725051
238	0x3d4523b6	0.04812976
239	0xbd377e26	-0.04479804
240	0xbde28cc6	-0.11062007
241	0xbe5e470f	-0.21706794
242	0x3d9276b6	0.071515486
243	0xbe1c45f1	-0.15261056
244	0x3aabe5e6	0.001311478
245	0x3de0c531	0.10975111
246	0x3df96cdc	0.121789664
247	0x3d868525	0.06568364
248	0x3db6882f	0.08912694
249	0x3de1cbab	0.11025175
250	0xbe80f0ff	-0.25183865
251	0xbe0b584d	-0.13607903
252	0xbc44e6fa	-0.01201796
253	0xbe0393dd	-0.12849374
254	0xbd0771c5	-0.033067483
255	0x3e050cc6	0.12993154

network.3.bias f4 [2]
0	0xbd72ce43	-0.059278738
1	0x3e7452f6	0.23859772
