exomy/config/best_run_no_obstacles405k/checkpoints/297000_policy.pt (torch, 723582 bytes, 13 tensors)

log_std_parameter f4 [2]
000000 c2 65 9a bf 15 b2 26 bf
       -1.2062304 -0.6511548

network.0.conv.0.weight f4 [512, 5]
000000 fb a8 81 3e 9b dc 70 be 66 8a 5d 3c cc b3 a6 bd
       0.25324234 -0.23521654 0.013521766 -0.08139762
000010 2b 01 2a 3e 20 1d 24 3e 39 f2 16 3e 9a 07 12 3e
       0.16602008 0.16026735 0.14740838 0.14260712
000020 1b 40 9e bd 47 4d 3c bc f1 94 a4 bc bd 15 ef 3b
       -0.07727071 -0.011493034 -0.020090552 0.0072962926
000030 7c f3 24 3c ac 20 82 be 6b d7 6b 3d d7 a1 11 ba
       0.010067817 -0.25415552 0.057578485 -0.0005555427
000040 e0 4a c7 bd 81 39 5a 3e 91 97 81 3d 26 2d 2e 3e
       -0.09731078 0.21310998 0.06327737 0.1700941
000050 71 a5 55 3d 66 b2 4a bc cd dc a8 3d 47 60 45 3e
       0.05215973 -0.012371635 0.082452394 0.19275008
000060 a9 d5 00 3e c3 f8 6c 3e 50 d0 c3 3e f1 6c 83 39
       0.12581505 0.2314177 0.38244867 0.00025067435
000070 dd 1f 30 be b5 db e3 bc 92 6a 97 be 23 be d7 3b
       -0.17199655 -0.027814725 -0.29573494 0.0065839454
000080 b7 4f d8 3c 32 7c b1 bc c7 c3 78 bd 56 36 d2 3b
       0.026405198 -0.021665666 -0.060733583 0.0064151688
000090 40 24 09 bd 2a 53 46 3d cd be c2 3d 60 cc 96 bd
       -0.033481836 0.048419155 0.095090486 -0.073632
0000a0 42 2b f7 3c 86 57 b9 be 6c e4 d4 bc 0f 5b 33 bd
       0.030171994 -0.36199588 -0.025987826 -0.043788012
0000b0 3c 90 a7 bc c3 e8 41 be e9 71 d0 bd 9d 61 5e be
       -0.020454518 -0.18936448 -0.10177977 -0.21716924
0000c0 33 82 00 3d 5b c2 40 be 89 f5 7d bc eb ca d0 3e
       0.031374168 -0.1882414 -0.015500435 0.40779814
0000d0 ae 0f 8b 3d 9c aa 2d 3e b9 9a 41 3b 36 9f 5d bc
       0.067901 0.16959614 0.0029541685 -0.013526728
0000e0 aa 5d 71 3e 43 b0 2a bd a1 5f 0d 3e 3e 35 90 bd
       0.23570886 -0.041672003 0.13806011 -0.07041405
0000f0 e9 6a 83 3e d7 62 ac bd 49 ea b9 3d 3e fb ff 3c
       0.25667503 -0.0841729 0.090778895 0.031247731
000100 27 97 02 3e 65 f6 40 3e 5e 83 92 be 97 83 55 3b
       0.12752973 0.18843992 -0.2861585 0.0032579654
000110 a4 04 48 3e 5f 97 03 3c f4 b6 09 be 8c c7 23 3d
       0.1953302 0.008031695 -0.13448697 0.039985225
000120 9e 47 81 3d 68 a9 aa 3d 23 fd 1b 3e 69 84 2d be
       0.06312488 0.08333093 0.15233283 -0.16945042
000130 68 7a b7 3e 3f 3c 2e 3d c1 f4 20 3e 4e e2 07 bd
       0.35835576 0.042537924 0.15718366 -0.033174805
000140 fd c3 31 3e 11 2e 04 3f aa 81 47 3d d4 cb 18 be
       0.1735992 0.5163279 0.04870764 -0.14921504
000150 7b 76 17 3e 45 1f 1d be 4b 39 b4 3d ff ad 84 3d
       0.1479129 -0.1534396 0.0879999 0.064784996
000160 16 e0 ea bd 03 47 46 3d 4f c7 7b 3e 13 f3 46 3e
       -0.11468522 0.048407566 0.24587749 0.19428663
000170 d3 6b a9 bd 23 5f 1a 3c f3 a9 13 3d 59 12 cf be
       -0.08272519 0.009422096 0.036050748 -0.40443686
000180 f9 b6 9a be a5 1d 48 bc 0a b6 53 3d 39 64 19 bd
       -0.30217722 -0.012214099 0.051687278 -0.037449095
000190 e6 19 22 be 82 7f e1 3d 89 f2 e7 bd dd 5e 82 bc
       -0.15830192 0.11010648 -0.11325557 -0.015914375
0001a0 e5 cf 9f 3d e1 fa 9c be 2c 31 80 3e 5e e2 4f bd
       0.078033246 -0.30660155 0.25037515 -0.05075299
0001b0 9d b4 86 be d7 fa 64 3e b8 07 2b bd 44 2f b6 bd
       -0.26309672 0.22361313 -0.041755408 -0.08895734
0001c0 fa a7 47 3d ef ab 40 3d f6 d9 10 bc a5 14 13 be
       0.04874418 0.04703897 -0.008841028 -0.14363344
0001d0 0c f3 ae 3e d3 58 e6 bb f8 83 e1 3b 8c 9d 2c bd
       0.34169805 -0.0070296316 0.006882187 -0.042142436
0001e0 29 c9 b3 3e 43 c3 70 3d 36 95 e5 3d be 2d 95 bc
       0.3511441 0.058779966 0.112101 -0.018210288
0001f0 db 35 eb bd 15 54 45 be 92 87 c3 be 8e 9a c2 bc
       -0.114848815 -0.19270356 -0.3818937 -0.023755338
000200 65 84 9a 3d 4d 96 89 bd 1e 0e b5 be ae 48 a3 3c
       0.075447835 -0.06718121 -0.35362333 0.019932117
000210 a7 ca 09 3e d2 6c 01 bd 37 bb 87 bc 8b 0a bd be
       0.13456212 -0.03159792 -0.016568763 -0.36922106
000220 5a 4a d3 3e 9d 85 81 bd 0f 28 b4 bd 6f 47 90 bd
       0.41267663 -0.06324313 -0.08796703 -0.07044875
000230 e9 f3 0d 3e 5e 96 b0 3d 2c aa da ba a9 5a 16 3e
       0.13862576 0.0862243 -0.0016682795 0.14683022
000240 73 0d 74 bc cd 84 df 3c 76 29 9b 3e 83 49 a1 3d
       -0.014895785 0.027285004 0.3030507 0.078753494
000250 54 17 6d 3d e2 e6 1a bd 0c 1b 0c be 16 00 08 3e
       0.057883576 -0.037817843 -0.13682193 0.13281283
000260 f5 87 d0 3c 3c 0f 1e be 63 ce 51 be 49 b4 91 be
       0.025455454 -0.15435499 -0.20488887 -0.2845786
000270 42 84 6f be 82 b6 03 3e f9 88 8c 3d 00 85 06 be
       -0.23390296 0.1286259 0.06862063 -0.13136673
000280 d9 c8 8d be 9c 16 30 be 51 e4 8f 3c 13 95 2e be
       -0.27692297 -0.17196125 0.017564924 -0.17049055
000290 36 f2 c6 3d 04 f6 7c be 18 1a a1 3b 74 6f c7 3b
       0.09714167 -0.24703223 0.0049164407 0.0060862843
0002a0 48 90 9b 3c c3 c8 ba bd 5d 50 05 3c f1 fe db 3e
       0.018989697 -0.091203235 0.008136836 0.42967942
0002b0 7f 23 00 3d fd 43 f6 bc 7b 31 f6 bc a5 2b 95 3e
       0.03128385 -0.030061716 -0.030052891 0.2913486
0002c0 8b 8e 99 3d 4c 64 5f 3d 70 e9 92 bd a7 cc 8e bd
       0.07497891 0.05453901 -0.07173431 -0.06972628
0002d0 e6 ba 86 be 1a c0 e3 3e 07 a5 55 bd d2 5f 05 be
       -0.26314467 0.444825 -0.052159335 -0.13024834
0002e0 63 2a 61 3e 2d 9c b7 3e 38 18 e0 3c 97 6d 66 bd
       0.21988826 0.3586134 0.027355298 -0.056256857
0002f0 9f 9d 75 3d 86 7f 84 3c 75 33 e7 bd 47 1c 50 be
       0.059964772 0.01617409 -0.112891115 -0.20323287
000300 d4 0a 88 3d 85 b4 e5 bc 7f 27 fe 3c ce 62 55 bd
       0.0664269 -0.02804018 0.031024693 -0.05209618
000310 ff 5a 19 bf 4e dd 7a bd a7 d8 3b bd 23 aa 03 3e
       -0.59904474 -0.06124621 -0.045860913 0.12857871
000320 58 e6 d3 3c 7c 20 8f 3e 5c 04 12 3d 40 41 e4 3d
       0.025866672 0.2795447 0.03564869 0.11145258
000330 59 a1 b4 3c 66 f5 2e be 1f 1e 98 be 3a a4 97 3b
       0.022049593 -0.170858 -0.2971048 0.0046277316
000340 a0 18 ed bd 3e 77 9c bd fd 9a f7 bd 9a 92 9c be
       -0.115769625 -0.07639931 -0.120901085 -0.30580598
000350 6b 09 07 bd 1f dc 20 bd b0 dc 52 be 0f 49 9c 3e
       -0.032967966 -0.039272424 -0.20591998 0.3052449
000360 4c 11 e4 3e a7 ee 96 3a 0b fb 95 bd 68 54 e1 3d
       0.44544446 0.0011515216 -0.07323273 0.11002427
000370 38 e0 a2 be 57 44 bd bd 13 15 05 3e 44 ad b7 3d
       -0.3181169 -0.092415504 0.1299632 0.08968595
000380 10 9b 38 be 74 19 b8 3d 3e 2f ca 3d eb 36 b6 3c
       -0.18027902 0.0898923 0.09872292 0.022242984
000390 fe 21 91 bd be 71 a3 3d cb 50 b3 3e 19 5c 56 be
       -0.070865616 0.07980679 0.35022578 -0.2093357
0003a0 89 ab 8f bc e4 82 97 bd bd 74 fa bd d7 05 a1 3e
       -0.017537849 -0.07398012 -0.12229297 0.31449768
0003b0 8a d0 8f bd 91 fa c2 bc c8 db 82 bd 29 5d 99 3d
       -0.070221975 -0.02380112 -0.06389576 0.07488472
0003c0 d8 c9 c9 bd a7 ce 1a 3e 1d 7d b8 3c d6 26 d8 bd
       -0.09852952 0.15117894 0.022520596 -0.10554282
0003d0 2b 44 84 bd 7b cf a0 be c1 08 aa be 27 a5 7f 3b
       -0.064583145 -0.31408295 -0.33209804 0.003900835
0003e0 33 a6 82 bd e3 c5 3a bd 2e 09 52 3e 6e c4 b5 3e
       -0.06379356 -0.045598876 0.20511314 0.35501426
0003f0 65 a0 ef 3d 34 58 3e be 97 83 63 be 05 b4 81 3e
       0.11700515 -0.18588334 -0.22218166 0.25332657

network.0.conv.0.bias f4 [512]
000000 35 71 9d 3d 24 db 33 be 46 39 95 bd dd 2f 22 bd
       0.07687608 -0.17564064 -0.07286315 -0.039596427
000010 e0 5b 9f be b7 58 c1 3c 7f 64 24 be cf c3 4b be
       -0.31124783 0.023601873 -0.16053961 -0.19898914
000020 ab 85 fb 3d 86 37 e3 bc 31 27 71 bd c5 25 26 bb
       0.122813545 -0.027736437 -0.058875266 -0.0025352102
000030 0d 6e bb bd 8e ed 1c 3d c7 96 7a bd 87 39 9f 3d
       -0.0915185 0.038312487 -0.06117895 0.07774644
000040 96 d2 80 bb ca ac 11 be 19 18 b6 3b de 43 8f 3d
       -0.003931354 -0.1422607 0.005557072 0.069953665
000050 f4 c9 1f 3e 33 68 53 3d b3 fa 1c be cd a3 25 3d
       0.15604383 0.051613044 -0.15330009 0.040439416
000060 6c 99 17 3e 62 7b ab 3d 01 c1 bb 3c 7b c9 39 3d
       0.1480462 0.08373143 0.02291918 0.045358162
000070 e6 77 34 be 28 19 c4 bd 36 38 fc bb f3 65 f0 bd
       -0.17623863 -0.09575111 -0.0076971306 -0.11738195
000080 6f a7 09 3e 80 48 47 3c b3 69 d5 3c 7c db b6 bb
       0.13442777 0.012163281 0.026051378 -0.005580364
000090 77 6f 25 3c 71 f1 15 bc e4 8b 92 bb 57 60 26 3d
       0.010097376 -0.009151802 -0.0044722427 0.04061922
0000a0 4b 64 ad 3d dc b7 fd 3d 3d 55 ec bd 42 88 fb 3c
       0.08466395 0.12388584 -0.115396954 0.030704621
0000b0 99 11 2c be 2b e3 ed 3d c4 6e 73 3c 6b ef 65 bd
       -0.16803588 0.116155945 0.014857952 -0.05613653
0000c0 cd 65 d1 3c f8 fc c7 3d 20 98 89 bd ba 9a e0 3c
       0.025561238 0.09765047 -0.06718469 0.02741753
0000d0 a6 c8 44 3d e8 33 f2 3d 94 1e 8d 3d dd c1 12 3e
       0.048042916 0.118263066 0.06890598 0.14331765
0000e0 20 db 17 3c f4 85 d0 3b 93 00 b5 3c eb d7 4b be
       0.009268552 0.0063636247 0.022095 -0.19906585
0000f0 09 b3 a7 3d 20 cf be 3c 7e 63 30 3e a4 b8 aa 3d
       0.08188445 0.023292124 0.17225453 0.08335999
000100 77 b9 5a 3e 3c 7e e6 bc fa 21 91 3d 31 7d 85 3d
       0.21359812 -0.028136365 0.07086559 0.06518019
000110 aa 3f 64 bd bb d8 c4 3d e0 aa f6 3b 11 52 b7 3c
       -0.055724777 0.096116506 0.007527694 0.022378
000120 05 1d 79 bd e7 d4 f9 bc 7b c8 d3 bd 19 6a 70 b9
       -0.06081869 -0.030497028 -0.10340973 -0.00022927708
000130 39 0c 2b be 9d c2 82 bc 5b da 45 bd 2e 1d 5f be
       -0.16703881 -0.01596194 -0.048303943 -0.21788475
000140 6f 83 c2 3d 84 90 4f 3d 29 d5 29 bd 7d e5 3c 3e
       0.09497725 0.05067493 -0.04146305 0.18446918
000150 a8 06 25 3e d7 98 19 3d 38 01 96 3d fc e1 e5 bc
       0.1611582 0.037499275 0.07324451 -0.02806186
000160 4e 32 5b bc 2b 41 35 be fb ce 54 3c e7 06 fd bd
       -0.013378693 -0.17700641 0.012988801 -0.12354832
000170 ae 89 58 3d 9f 24 7f be fc 91 6e bd 77 46 93 3d
       0.052865677 -0.24916314 -0.05824469 0.071911745
000180 12 8d fe 3d 02 90 ff 3d b7 b5 dd bc a8 86 08 bc
       0.12429251 0.12478639 -0.027064187 -0.008332886
000190 28 9e c1 3d 3e 8a 6f 3d 8a df 07 3e 0e ee 1f be
       0.09453994 0.058481447 0.13268867 -0.15618154
0001a0 cc 04 30 3d 03 52 3b 3d 46 97 b1 bd 06 c9 dc bc
       0.042973325 0.04573251 -0.08671431 -0.026951324
0001b0 62 b6 8c bd b0 e3 ab bd db 74 94 3b 1d 8b b6 3c
       -0.06870724 -0.08393037 0.004530532 0.022283131
0001c0 a0 be af bd cb 70 d8 3d 60 35 cb 3c 48 af 12 be
       -0.08581281 0.105683886 0.024805725 -0.14324677
0001d0 b6 f2 ae 3d dd 07 1a bd b8 dd 00 3d 59 b6 41 3d
       0.08542387 -0.037605155 0.031461447 0.04729304
0001e0 29 b9 b2 bd a1 bd 2c 3b 1b b8 88 3d 7f 6f 60 3a
       -0.08726723 0.0026358145 0.0667574 0.0008561536
0001f0 4d 1b 21 be 33 42 1d be fd f1 1f be 70 b9 be 3d
       -0.1573307 -0.15357284 -0.15619655 0.09312713
000200 e5 a0 ca bd 46 ae c8 3d f2 70 da 3c c8 65 03 be
       -0.098939694 0.09798865 0.026665185 -0.12831795
000210 17 01 03 bd 14 89 8d 3c 3a 4f 2b 3d 14 6d c4 3c
       -0.03198346 0.017277278 0.041823603 0.023977794
000220 7f 34 b8 3b c6 dd 93 3b fe fe f1 3c 65 ba 84 bb
       0.0056214924 0.0045125214 0.029540535 -0.0040505403
000230 88 0f 35 be b3 52 3f be 81 94 85 3d 36 4d a6 bd
       -0.17681706 -0.18683891 0.065224655 -0.081201956
000240 1f f1 74 bc 3d 84 2b 3b 53 dc 71 bd 28 d8 f7 bd
       -0.014950066 0.002617135 -0.05904801 -0.121017754
000250 0b 0d 25 3d d6 ac 68 3b a9 3e 02 bb 58 49 54 bb
       0.040295642 0.003550341 -0.0019873774 -0.003239235
000260 fb 1b 4e be 12 d5 5c bd 2d 30 fb bd 0e bf cc 3d
       -0.20127861 -0.053914137 -0.12265048 0.09997378
000270 ad ab 02 3c eb 46 86 3d 5f 34 75 bd 79 e7 cf bd
       0.007975501 0.06556495 -0.059864398 -0.10151572
000280 6b 2a 1a bd 6a a1 41 3c 63 3f 94 bd 3e fc 3b 3e
       -0.03763811 0.011818269 -0.072386526 0.18357942
000290 14 e9 92 bd 7b d3 26 3c 9b aa 39 3d d6 e5 45 3e
       -0.071733624 0.010182257 0.045328718 0.19325957
0002a0 e5 21 c6 3c fe 6a 68 be 14 46 24 bd d1 a3 33 be
       0.024186084 -0.22697064 -0.040105894 -0.1754296
0002b0 ec 80 4a 3e 61 01 3f be e1 d7 ce bd a1 9d 95 bd
       0.19775742 -0.1865287 -0.100997694 -0.07305456
0002c0 94 39 48 bc 0b a8 00 bc c1 ae 9e 3b 72 91 1e ba
       -0.012220759 -0.007852565 0.0048426096 -0.0006048895
0002d0 15 2f f7 bc b1 62 b5 3d 37 f4 a4 bd 7c 84 5a be
       -0.030173818 0.088567145 -0.08054393 -0.21339601
0002e0 2b 5c 29 be 41 71 83 3d 00 f2 50 bd 70 2f 35 be
       -0.16539066 0.06418086 -0.05101204 -0.17693877
0002f0 df c5 dd 3d 24 ff 2a be 31 64 b4 3d 49 1e e7 bd
       0.108287565 -0.16698891 0.088081725 -0.11285073
000300 a9 a6 17 be 24 0c 22 be b9 3a 48 bd 2d 77 0b 3e
       -0.1480967 -0.15824944 -0.048884127 0.1361968
000310 88 fa 18 be 12 ed 63 3d a8 5d 53 3c 72 24 35 bd
       -0.1493932 0.05564601 0.012900747 -0.04422421
000320 c0 0c 4f 3d 8c 49 86 be 20 67 21 3c 54 fa e4 bc
       0.05054927 -0.26227987 0.009851247 -0.027951397
000330 03 cc 9b bc 0b 03 26 3d d5 52 42 3d b0 de e7 bd
       -0.019018179 0.040530246 0.047442276 -0.11321771
000340 f2 6e 0b be 49 88 d6 bd eb 66 85 be 09 11 40 be
       -0.13616541 -0.10475213 -0.26055083 -0.18756498
000350 7c b9 5f bd e9 f4 5b bd c1 c1 81 3d c7 57 e0 3d
       -0.05462025 -0.05370036 0.06335784 0.10954242
000360 ef c0 f7 3d e0 07 a9 3d 1d 1c 7f 3d 5a da ed bd
       0.12097346 0.08253455 0.06228267 -0.11613913
000370 79 65 65 bd 4e c2 7a bd 19 d1 2e be 85 dd 7b be
       -0.056004975 -0.06122046 -0.17071952 -0.24596222
000380 a7 20 2b be 17 c4 4a 3d d0 4d 2d bd 55 44 ac bd
       -0.16711675 0.049503412 -0.042310536 -0.08411471
000390 b0 d3 1d be e5 e0 2f 3d 08 5a 27 be b1 cb a0 3c
       -0.15412784 0.042939086 -0.16342938 0.019628378
0003a0 53 4f 55 be 65 48 df 3d 6e e7 25 be 91 16 3d be
       -0.20831041 0.1090248 -0.16201565 -0.1846564
0003b0 c7 d6 cf 3d e9 53 8b bc 29 0a 02 be 65 2b e3 3c
       0.101483874 -0.017007785 -0.12699188 0.027730653
0003c0 60 9d 00 3d 11 65 82 3d 3e e4 30 be 09 ed 89 bc
       0.031400084 0.06366933 -0.17274567 -0.01683666
0003d0 0b 8e e6 3c ee 2e d6 bc 35 38 10 3d f5 c8 eb 3c
       0.028143903 -0.026145425 0.035209853 0.028782347
0003e0 07 25 1c 3d 65 d9 24 be f6 65 1b 3c 06 47 b4 bd
       0.03812125 -0.16098554 0.009484759 -0.08802609
0003f0 1d d5 f5 bb 57 05 f1 3b 13 25 fb bd dc ce e0 bd
       -0.0075022117 0.007355373 -0.12262931 -0.10976955

network.1.conv.0.weight f4 [256, 512]
000000 40 e1 57 3d 13 a3 3e be 6a 55 5d bd 75 c8 0d 3d
       0.05270505 -0.18616895 -0.054036535 0.034615
000010 fb 51 e3 ba 31 1a 91 bd 96 17 01 be e5 0d 37 bd
       -0.0017343158 -0.07085074 -0.12606654 -0.044690985
000020 b5 88 77 3b da 05 b9 bd 55 e7 3b be 58 75 87 3d
       0.0037770693 -0.09034319 -0.18349965 0.066141784
000030 21 2a 0b 3e af d2 d7 bc 50 35 c7 bd 28 2d b4 3e
       0.1359029 -0.026345579 -0.097269654 0.351907
000040 bc 19 6a be f2 71 d3 3c 9f 58 be 3c 82 fc 43 3e
       -0.2286138 0.02581117 0.023235617 0.19139293
000050 f9 19 e8 3d 91 a6 8c 3e ba e4 be 3d e7 3a b5 3c
       0.11333079 0.2747083 0.0932097 0.022122813
000060 c7 07 2f 3e b9 b3 65 bd 4a 0b 4f 3e f7 81 08 3e
       0.1709281 -0.0560796 0.2021915 0.13330828
000070 7f 49 f1 bd 43 04 2c bd 1c d1 16 be 28 de 7e bc
       -0.117815964 -0.04199625 -0.14728206 -0.015555896
000080 bd 95 ff 3d e1 00 ee 3c f2 92 e9 3c eb a2 77 3d
       0.12479732 0.029053153 0.028512452 0.060458105
000090 a2 f5 88 bd 59 6b 55 be 80 3f a2 bc 05 ab 6d be
       -0.06687476 -0.20841731 -0.01980567 -0.2320977
0000a0 70 a9 1c 3d f8 16 99 3e 04 b0 cf 3c ca a5 a6 be
       0.038247526 0.29900336 0.025352485 -0.32548362
0000b0 48 12 ce 3d dd 32 3e bd 9c d5 a7 bd ac d0 07 be
       0.100620806 -0.046435226 -0.0819504 -0.13263196
0000c0 9c 29 2d 3d 9a 02 2f 3c 60 3c b7 3c 66 57 61 bd
       0.04227601 0.010681773 0.022367656 -0.05501499
0000d0 03 80 13 3e 2a 7f a4 3d 11 4a 99 3e 93 ba 01 bd
       0.14404301 0.08032067 0.2993932 -0.03167207
0000e0 ac 9d 96 be 15 d3 61 be c2 3c 2d be 79 29 a7 be
       -0.2941717 -0.22053178 -0.16917709 -0.3264883
0000f0 3e 1a f6 bc 8b e9 00 3e 3b 7f 66 bc 33 87 c2 bc
       -0.03004181 0.1258909 -0.01406842 -0.023746109
000100 2a 24 c4 3c 58 6e 8b be 24 ef ed bc 28 43 65 3d
       0.023943026 -0.27232623 -0.029044695 0.05597225
000110 e2 3d 87 bd 14 9d 1c 3d c1 1f fa 3d cb 3d e5 bc
       -0.066036 0.03823574 0.12213088 -0.027983567
000120 27 4d 36 3d e3 4b 96 3e 8e 7a 85 bc d7 d5 4f be
       0.044507172 0.29354772 -0.01629379 -0.20296417
000130 1a 7b 3c be 05 a0 34 3c b1 f2 d4 3d 57 7b 04 3e
       -0.18406335 0.01102448 0.10397852 0.12937675
000140 47 63 df 3c 82 30 bb bd 13 30 62 be 2f cb 10 3e
       0.027269019 -0.091401115 -0.22088651 0.14140008
000150 11 a1 da bd 3d 11 ea 3d 12 a4 6a be f0 d1 79 bd
       -0.10675252 0.11429069 -0.2291415 -0.060991228
000160 ec 4e 2d 3e 31 40 85 3e 23 46 65 3e cd 73 ac 3d
       0.16924638 0.26025537 0.22390036 0.08420525
000170 10 99 ac 3e d8 66 59 be 90 2c 73 3d c6 5e 9b 3c
       0.33710527 -0.21230638 0.05936867 0.01896609
000180 8d 96 92 bd 4a 3f 1d 3e 11 3d 32 bd 9e a9 2b be
       -0.071576215 0.15356174 -0.04351527 -0.16763923
000190 e3 a5 eb 3d 02 27 82 3b cd 06 9c 3d 27 6c fe bd
       0.1150625 0.0039719352 0.07618485 -0.12422972
0001a0 16 c6 68 3e 8a ab c2 bc ea 40 09 be dc 47 15 3c
       0.22731814 -0.023763437 -0.13403669 0.009111371
0001b0 63 67 6e 3e 6b 24 f0 3d 6d 14 6d 3e 7c 9c 4c 3d
       0.23281626 0.11725696 0.23152323 0.049953923
0001c0 f0 8e 91 3c 88 8d fe 3d bd 27 86 3e 9a 6d e9 bd
       0.017768353 0.12429339 0.26202193 -0.11397858
0001d0 a2 fd b5 3d 39 e8 11 be 00 ca a4 bd 71 16 39 3d
       0.08886267 -0.14248742 -0.08046341 0.045187417
0001e0 2d c8 46 bd 6d df 6c 3e d5 9f b7 bd 2e 41 25 bd
       -0.048530746 0.23132105 -0.089660324 -0.040345363
0001f0 b9 2f f6 bd 9c 06 9e be cf 35 a7 be b1 59 3e 3c
       -0.12020821 -0.30864418 -0.3265824 0.011618064
000200 c5 6e c1 3c 48 de c6 bb d6 01 4f 3e 4c 4f c8 bb
       0.02361239 -0.0060689785 0.20215544 -0.0061129685
000210 f1 8a 30 bc 7c 11 8c bc 82 7b c3 bd 6c b2 71 3d
       -0.010775314 -0.017098181 -0.095450416 0.059008047
000220 c3 f8 26 3d a3 6b 9d 3d ac 74 fb 3c 35 4f 7d 3c
       0.04076458 0.07686546 0.030695282 0.015460779
000230 04 22 9d 3b 30 ee d2 3c 3f 5d 5c be 4b 09 b9 3d
       0.0047953147 0.025748342 -0.21519946 0.090349756
000240 44 07 5f 3d 2d 69 c0 bd 6d b3 ed bd c2 7a 2c bd
       0.05445029 -0.09395061 -0.116064884 -0.04210926
000250 2b 4e 39 3e 6a 8a 7d bd d7 89 75 3c 65 05 25 ba
       0.18096225 -0.06189958 0.014986477 -0.00062950543
000260 db ce 73 3d 3e 9a 29 3e 8d 58 7d 3b 9c 78 1c 3d
       0.059523445 0.16562745 0.0038657517 0.03820096
000270 1c e2 49 3e f6 50 e8 3d bd 2b 0c be a9 a0 e1 3b
       0.1971516 0.11343567 -0.1368856 0.0068856073
000280 dc 25 08 bc 9b f0 52 3c 91 9d 00 3d 8f a7 87 3d
       -0.008309808 0.012874748 0.031400267 0.06623756
000290 71 19 fe bd 47 7c 3c 3e 4b 07 dd 3d 99 32 fd 3d
       -0.12407196 0.18406783 0.10792407 0.12363166
0002a0 fb 27 a8 bc 56 8a 72 bd 3f 25 99 bb 59 4f f8 bd
       -0.020526877 -0.05921396 -0.0046736295 -0.12124509
0002b0 bf d1 27 3e 4a 0c dc bc 59 d1 92 3d 02 a7 15 be
       0.16388606 -0.026861329 0.07168836 -0.1461449
0002c0 fd 9d 5c bd 83 d0 31 3e cc 92 b3 3d c5 27 47 bc
       -0.053861607 0.17364697 0.08768234 -0.012155478
0002d0 36 9c e4 bd fb c0 5a ba cb cc 43 3d ff e2 0f be
       -0.11162607 -0.00083447964 0.047802728 -0.14051436
0002e0 ad e0 40 be 32 39 c8 3d aa 31 99 3d c9 26 ac bd
       -0.18835707 0.09776534 0.07480176 -0.08405835
0002f0 c1 44 92 bb ae 0e 9e 3d f9 82 85 3d 1c 58 52 be
       -0.0044637625 0.07717644 0.06519122 -0.20541424
000300 9d 73 6e be b4 40 44 3d cf 7e 84 3d 6e f9 f9 3c
       -0.2328629 0.04791327 0.06469499 0.030514445
000310 b6 26 f6 3d 63 ab 11 bd ff 22 13 3e 26 b0 7a bd
       0.12019102 -0.035563838 0.14368819 -0.061203144
000320 25 8e f4 bc e7 36 04 be 4d f6 71 bb 28 d4 a6 bd
       -0.029852936 -0.12911569 -0.0036920488 -0.08145934
000330 74 11 78 3d 96 c4 c8 3d d1 97 2c 3e d6 59 ea be
       0.06056352 0.09803121 0.16854788 -0.45771664
000340 d9 14 96 3c 67 75 86 be 22 49 a3 3b 65 73 f8 bd
       0.018320488 -0.26261446 0.0049830833 -0.12131385
000350 fe f3 b9 3d a0 ed 9e 3c 5d f8 81 bc 2d ed 69 3d
       0.09079741 0.019400418 -0.0158655 0.057110954
000360 ca 7d 9f 3d e0 c4 14 3e 57 56 a6 3d 4c 52 eb 3c
       0.07787664 0.14528227 0.08121937 0.028725766
000370 d3 f3 97 3d 0f ee ab 3c 18 83 ec bd c9 5c d1 bb
       0.07419553 0.020987539 -0.11548442 -0.0063892347
000380 3a 58 f9 bd 31 ee 9b 3c 50 17 71 3d 73 dc 58 be
       -0.12175031 0.019034477 0.058860123 -0.21177845
000390 36 d6 4b be d2 14 e5 bd b8 b8 8e bc d5 73 bd 3d
       -0.19905934 -0.11185612 -0.017422065 0.09250609
0003a0 b9 e7 b2 bc a5 d7 fe 3c b5 ad e6 bc c9 53 3d bc
       -0.02183901 0.031108687 -0.028159002 -0.0115556205
0003b0 d7 ad e3 3c 30 ab bd 3c f5 54 e7 bd 53 bd 29 3d
       0.027792854 0.023152918 -0.11295501 0.04144032
0003c0 76 f0 5b 3d 16 a0 08 3e 49 b2 c3 bd d7 f2 9f 3d
       0.05369612 0.13342318 -0.095554896 0.0780999
0003d0 a2 d4 75 bd 07 51 f0 bd e3 41 4b 3d f8 c7 d8 bd
       -0.060017236 -0.11734205 0.04962338 -0.10585016
0003e0 8c c1 8f bc 10 ec aa be 11 6c 66 3d d5 ea fb bd
       -0.017548345 -0.33383226 0.056255404 -0.1230065
0003f0 80 0b 5b 3e 42 89 0d be 7d 93 69 bd 16 43 5d 3d
       0.21391106 -0.13821891 -0.05702542 0.054019056

network.1.conv.0.bias f4 [256]
000000 8b 59 1d bd 42 44 e0 3a 82 10 24 3d d4 d7 59 3c
       -0.038415473 0.0017110186 0.040054806 0.013296086
000010 ec 9c f7 bb fc 2e 95 3d 40 c8 41 3d e8 64 77 3d
       -0.0075565483 0.07284352 0.047310114 0.060398966
000020 6e e5 47 bd c4 13 66 3d f3 7e 6f bc f9 60 25 be
       -0.048802786 0.056171194 -0.014617669 -0.16150273
000030 fc 4d 99 3d 81 6a da bd 47 f9 a3 bd 6c 58 ce bd
       0.074855775 -0.10664845 -0.0800653 -0.10075459
000040 4d 19 68 bd 49 9c 5d ba 90 73 3f 3d 51 c6 34 be
       -0.056664754 -0.0008453769 0.04674107 -0.17653777
000050 7f 9a b1 bd 50 d5 5e 3e e9 2a 8f bd 10 c0 19 bd
       -0.08672046 0.2176106 -0.06990606 -0.03753668
000060 57 60 9e bd cd f8 f9 3b 87 19 2e be d4 95 c4 3c
       -0.07733219 0.0076285363 -0.17001925 0.023997225
000070 41 02 12 be b3 b1 13 bc 92 ea 09 be 89 9b c5 3b
       -0.14258672 -0.009014535 -0.13468388 0.006030504
000080 28 b7 96 bd 85 a6 63 be 9e 36 4e 3e d6 2f c1 bd
       -0.07359153 -0.22231491 0.20138022 -0.09432952
000090 37 27 54 be 2e e6 9c 3b 47 dd cc 3b 40 6b 34 bd
       -0.20718084 0.0047881817 0.0062519643 -0.044047594
0000a0 d8 08 e1 bd df 06 0d be 28 76 5c be db fb 93 3d
       -0.10988015 -0.13772152 -0.21529448 0.07225772
0000b0 92 89 b9 3c d0 ef eb 3c 8d e9 f8 bd 0f 6b 80 3b
       0.022648606 0.028800875 -0.12153921 0.0039190124
0000c0 96 3e 91 bd 1b be 72 3d 25 bb 53 bd 8c e7 b1 3d
       -0.070920154 0.05926333 -0.051692147 0.08686742
0000d0 8b 5c 86 bd 12 fb 6f bc 9a dd a5 bd db a3 8b 3c
       -0.0656062 -0.014647262 -0.08098908 0.017045906
0000e0 46 49 3a 3d 4b df 37 3d cd f6 bc 3c 8e 29 19 3e
       0.045480035 0.044890683 0.023066903 0.14957258
0000f0 4f a0 0d be 67 64 8a bd dd c4 5f bc be 4b 12 3d
       -0.13830684 -0.067574315 -0.013657776 0.035716765
000100 cb 5f bc 3c f7 05 06 3d 2c 22 15 3e d2 b2 38 bd
       0.022994896 0.032720532 0.14563817 -0.04509241
000110 5e b8 a4 bc 47 02 61 bd 86 ae 0b bc 07 0a b4 bd
       -0.020107444 -0.054933812 -0.008525496 -0.08790975
000120 6c 8a 87 3d b1 53 ba bd 9a c7 06 be bd 39 32 bc
       0.06618199 -0.09097994 -0.1316208 -0.010878024
000130 ab 03 80 3c 54 66 a9 3c 3d a7 97 bb a2 75 55 3e
       0.015626749 0.020678677 -0.0046280907 0.20845655
000140 fe af ea bd 1b 5c 18 3d 8d 4c 1d be 6f b2 8b 3d
       -0.11459349 0.037197214 -0.15361233 0.06821143
000150 1b 5f 34 be f4 fe 97 bd 46 dd 6a bd 68 9f 23 bd
       -0.17614405 -0.07421675 -0.05733993 -0.039946944
000160 d1 07 9d 3d f0 0c cd 3b a9 3d 28 39 7b d5 0a 3e
       0.076675065 0.006257646 0.00016044699 0.13557999
000170 9a 56 ee 3d 0c 16 fc 3d b8 3b 83 bc 56 30 05 bc
       0.11637612 0.123088926 -0.016019687 -0.0081292
000180 2f 93 38 be ec 28 0f bd 15 20 13 bd c9 4e a3 3e
       -0.18024896 -0.034951136 -0.035919268 0.31896046
000190 34 95 30 3d 6a 4a 8b bd a0 29 83 3d fb 08 39 be
       0.04311104 -0.06801303 0.06404424 -0.18069832
0001a0 d3 4b 59 be 76 aa 6b bd 4e 5c f7 3d c9 e5 30 be
       -0.21220331 -0.05753561 0.120781526 -0.17275156
0001b0 d1 82 16 3d 63 70 8a bc eb e3 08 3e eb 9b 30 be
       0.03674585 -0.016899293 0.13368194 -0.17246978
0001c0 ba 33 98 3d 34 a2 ef 3d 13 43 bc bd d5 89 d8 3d
       0.07431741 0.1170086 -0.09192481 0.105731644
0001d0 02 81 6d 3d 30 85 22 bd 0f 14 cf bc f9 67 0b 3e
       0.05798436 -0.0396778 -0.02527812 0.13613881
0001e0 1e f4 b7 3b 30 08 e9 bc 4f 27 f6 3d bf c1 d4 3d
       0.005613818 -0.028446287 0.12019216 0.10388517
0001f0 7f 38 ec bd 6a 26 33 bd e8 bb 15 3e 8c f4 65 be
       -0.11534213 -0.043737806 0.14622462 -0.22456568
000200 b0 65 0e bd 80 c0 bc bd a8 1a 2a be cc 32 25 3d
       -0.034764946 -0.09216404 -0.16611731 0.040331647
000210 4f 9e 38 bd f4 4d 77 3c 3f 4b 37 3c d8 45 5f bc
       -0.04507285 0.015094269 0.011187374 -0.013627492
000220 17 48 2a 3d a8 b7 7c bc cf 52 82 bd db 52 03 bc
       0.041572656 -0.015424646 -0.06363451 -0.00801536
000230 b7 e5 9b bc 63 e4 22 3d 6a 90 aa bc e5 e5 75 3c
       -0.019030435 0.039768588 -0.020820815 0.015008424
000240 a2 70 8a 3d 82 f4 b3 3b fe c6 0d be ce a6 c0 3d
       0.06759764 0.005491794 -0.13845441 0.094068155
000250 37 18 06 3e ee 89 aa bd da 39 44 bd 15 1f ea bd
       0.13095175 -0.08327089 -0.047906734 -0.1143171
000260 a5 76 fb 3d ef 29 99 3e 9f 04 6d 3d 8a a9 90 bd
       0.12278489 0.29914805 0.057865735 -0.07063587
000270 bd fb 0a 3c 30 1d 3c 3d 78 6b a2 3c 91 2b 5a bc
       0.008482871 0.045926273 0.019826636 -0.013316051
000280 26 24 a9 bb fd 08 b7 bd 2f be cb 3c 13 33 39 3e
       -0.00516178 -0.08937261 0.02487096 0.1808589
000290 d0 e7 c3 bc 8a f4 e3 3d a0 9f b1 bb 12 37 39 bc
       -0.023914248 0.111306265 -0.00542064 -0.011304634
0002a0 83 83 ab 3d 1f 05 e3 3d 53 49 97 3d 39 b1 fc bd
       0.08374693 0.11084961 0.07387032 -0.1233849
0002b0 cc 98 30 3c de 7e 49 be d0 01 37 3d 9d 95 1c be
       0.010778617 -0.19677302 0.044679463 -0.15291448
0002c0 78 d7 28 bd de c0 c2 bd 29 b1 36 bc 1d 34 34 3d
       -0.041221112 -0.09509443 -0.011150637 0.04399501
0002d0 29 13 4b bb 08 96 bd bc 6c 5a bb 3c 9b 70 01 be
       -0.0030986762 -0.02314283 0.022870265 -0.12640612
0002e0 1c 47 88 bc ee 44 a7 bd 04 67 3f 3d f7 be 79 be
       -0.01663547 -0.08167444 0.046729103 -0.24389254
0002f0 a4 83 8a bd dc be 02 3e e6 79 ca bd 04 69 04 3c
       -0.0676339 0.1276812 -0.098865315 0.008081678
000300 4c a6 51 bd 5c cf fe bd da 9c 29 be 81 4f 75 3d
       -0.051183984 -0.124418944 -0.1656374 0.059890274
000310 54 be df bd ea 45 9d 3d 04 d2 da 3d 61 25 bb bd
       -0.10924974 0.07679351 0.106845886 -0.09137989
000320 d6 bc b6 bd 12 de ce 3d 1f 54 12 be 22 78 10 3e
       -0.08922736 0.1010095 -0.14289902 0.14108327
000330 39 71 11 bd 82 e9 92 bc 87 7d 41 be e8 ae 03 be
       -0.03550837 -0.01793361 -0.18895541 -0.1285969
000340 74 68 d9 bc a5 2d fa 3b 51 82 af 3b 10 a3 b3 bc
       -0.026539065 0.007634836 0.005356111 -0.02192834
000350 f2 e5 1d be 48 8e 8f bb c2 14 97 3d 05 ee c2 3d
       -0.15419748 -0.004380975 0.07377006 0.09518055
000360 ba 00 0e be 88 33 c2 3c 86 dc 58 be 1d 19 54 bd
       -0.13867465 0.023706213 -0.21177873 -0.051781762
000370 63 7e 99 3b 0c 95 06 be 6f 71 55 be f9 1b bd bd
       0.004684256 -0.13142794 -0.20844053 -0.09233851
000380 7b b5 09 3c 14 e2 40 3c 05 db 19 3d 6b af 01 be
       0.008405085 0.011772651 0.03756239 -0.12664573
000390 11 f8 57 3d 3a ab 2a 3e f3 ea 0b 3e fd c4 3c be
       0.05272681 0.1666688 0.13663845 -0.1843452
0003a0 de d8 10 bd 91 92 14 3e e0 01 85 bd fa 39 a9 bc
       -0.03536307 0.14509036 -0.06494498 -0.020657528
0003b0 01 78 c0 bc df ff 30 3d 3c e7 74 bd 9c 4f 3b 3e
       -0.023494722 0.043212768 -0.059790835 0.18292087
0003c0 a9 82 0d be 38 17 6a 3d 57 b6 f1 bd 93 1d ba 3c
       -0.13819374 0.05715105 -0.11802357 0.02271918
0003d0 44 ed 57 3e 86 97 25 3d eb 69 33 3d be 7d 93 3a
       0.21086603 0.040427707 0.043802183 0.0011252684
0003e0 33 14 a2 bd 5f cd 98 bc 6b c2 83 be cd eb 79 bc
       -0.07914009 -0.018652616 -0.25734267 -0.015253973
0003f0 e9 eb 84 3d 64 df cb 3d da 4c ad bd ab e7 c2 bd
       0.06490309 0.09954718 -0.08461924 -0.095168434

network.2.conv.0.weight f4 [128, 256]
000000 6b f5 ed 3c 08 be ef bb 15 de 92 bc 82 6e ea 3c
       0.029047688 -0.0073163547 -0.017928163 0.028617147
000010 c2 63 57 bd 02 33 b7 3d 02 89 67 3e 56 af 3d 3e
       -0.05258537 0.08945276 0.22610858 0.18523917
000020 44 99 8d bd 20 55 ce 3c 60 ef e0 bd 2f 41 50 bd
       -0.06913999 0.025187075 -0.10983157 -0.050843414
000030 c5 84 54 3d 9f a3 cd 3d 21 ae bb 3d c5 48 c4 bd
       0.05188443 0.10040974 0.09164072 -0.09584192
000040 08 53 b9 3e c3 81 e6 bd 5b 51 a5 bd ca cd ae 3d
       0.3619616 -0.11255219 -0.08072158 0.08535345
000050 c7 ec bc 3d 33 d8 77 bd c3 0b 8d 3d 03 e1 e9 3d
       0.09224849 -0.060508918 0.06887009 0.11419871
000060 08 bd 57 be 7a ec 88 3e cb 9a 08 be b0 e3 9f 3d
       -0.21068203 0.26742917 -0.13340299 0.078071
000070 5d 99 34 3e 29 05 af bd ac cb 42 3d 53 04 58 be
       0.17636628 -0.08545906 0.047557518 -0.210954
000080 7d 21 15 be af 0f 1e be 48 0d 71 3d 02 1a 8c bd
       -0.14563556 -0.1543567 0.058850557 -0.06840898
000090 16 df c2 bd ae 5b 8e bc a5 69 ee 3d 4f 59 53 bd
       -0.095152065 -0.0173777 0.11641244 -0.051598843
0000a0 0a 0a a4 3d 94 d4 09 bd fa 26 11 3c 8e 82 bc 3d
       0.08009727 -0.033649996 0.00885939 0.09204589
0000b0 eb e5 f5 bd 3e b5 c3 bd 4a ab 55 3e 34 d0 12 3d
       -0.12006744 -0.095560536 0.20866123 0.03584309
0000c0 51 8a 6b be bc 94 02 3e 58 6e 3d be c0 5e 46 bd
       -0.23001982 0.1275205 -0.18499124 -0.048430204
0000d0 dd d2 85 bd 34 2b b5 bc fb 8b a7 3c ac 8a 0a bd
       -0.065343596 -0.022115327 0.02045249 -0.033823654
0000e0 d4 59 20 bd 9d 50 a7 bd 77 06 67 be 87 51 08 be
       -0.039148167 -0.08169673 -0.2256106 -0.1331235
0000f0 55 7d 76 3d e1 50 a9 bd 61 28 2d 3e ab 0b d4 bd
       0.06017812 -0.082673796 0.16909935 -0.10353788
000100 83 cf 77 39 b1 b8 d7 3d fb e4 a1 bd 25 70 97 bc
       0.0002363306 0.10533274 -0.07905003 -0.018486092
000110 98 e4 50 be df 73 53 bd 89 1d ca bd d7 2d c8 3d
       -0.20399702 -0.051624175 -0.09868915 0.09774368
000120 94 09 82 bd cc c7 e9 bb 22 e7 e1 bd ab 76 38 bd
       -0.06349483 -0.0071344133 -0.11030413 -0.045035046
000130 68 aa 4d 3d 1d 9f 07 3d 83 cb 2f 3e ac ec 23 be
       0.05021134 0.033110727 0.17167477 -0.16008252
000140 87 39 99 be eb ec 15 3e 52 8c ee bc 40 3c a4 bc
       -0.29926702 0.14641158 -0.029119644 -0.02004826
000150 38 37 35 bd d5 26 de 3d 67 18 03 bd 96 67 10 3d
       -0.044242114 0.1084725 -0.032005694 0.035255037
000160 71 7b a8 bd 04 fb d2 bb 9c 80 1d 3d 1c da c5 3d
       -0.082266696 -0.006438615 0.03845273 0.09660742
000170 c1 80 04 be de 87 a8 3c 22 8a 76 bd 5c b8 73 3d
       -0.1293974 0.020572599 -0.060190327 0.05950199
000180 6c 3f 27 bb e4 4b 0b 3d 10 6b 95 3c bf 51 2b 3e
       -0.002551998 0.03400792 0.018239528 0.16730402
000190 81 39 b2 3d 58 01 df 3d c0 63 e2 bc 30 74 0c 3d
       0.08702374 0.10888928 -0.027635455 0.034290493
0001a0 86 1e aa 3d 36 da be 3d 6d e9 5d 3c d8 60 58 3d
       0.08306603 0.09318964 0.013544423 0.052826732
0001b0 5f d0 3b 3d 4f 7e 64 be fc 05 d6 bd 80 8e c4 3d
       0.045853015 -0.22313808 -0.1045036 0.09597492
0001c0 b8 c8 e0 bd 87 9d a0 ba 91 20 ae 3d 97 9c 46 bd
       -0.10975784 -0.0012253978 0.08502305 -0.04848918
0001d0 21 c9 d1 3b 19 57 8a be 67 93 cf 3c b0 6d 18 bc
       0.0064021503 -0.27019575 0.025338842 -0.009303495
0001e0 d1 fc a9 bd 58 70 3d be 71 e3 24 be b4 63 c2 bd
       -0.08300174 -0.18499887 -0.16102387 -0.09491673
0001f0 f3 ec 1d 3d 58 7c e3 3b ab 12 92 bd 5c 99 d5 3d
       0.03855605 0.006942313 -0.07132467 0.104296416
000200 44 17 d4 3d c7 20 1d 3e c8 7f 2e 3e 1f bc 10 be
       0.10356 0.15344535 0.17040932 -0.14134263
000210 a9 bf 9f bd 67 53 00 3e 03 e2 c8 bd 5e cb 91 3d
       -0.07800228 0.12531815 -0.09808733 0.07118867
000220 b9 15 0b 3d 45 ea 09 bc 2f 72 f7 bb 54 7e 7c 3d
       0.033956263 -0.008417671 -0.0075514535 0.061643913
000230 06 28 77 3d 2b 54 bb bb b8 03 65 bd a5 28 03 be
       0.060340904 -0.0057168207 -0.05591175 -0.12808473
000240 17 ed 3a 3d d7 9c 2b be c8 d0 4f 3d 73 4b f3 bc
       0.045636263 -0.16759048 0.05073622 -0.029699063
000250 da 17 0b be 64 90 96 bb b6 03 71 bb 2e b7 0d be
       -0.13583317 -0.0045948494 -0.0036775894 -0.13839409
000260 55 40 74 bd 67 78 be bd 52 2e 5e 3d c2 93 ab 3d
       -0.059631664 -0.09300309 0.054243393 0.08377792
000270 4a 44 3b 3e 61 9f dd bd 1a 86 f0 3c 08 91 1d be
       0.18287769 -0.10821415 0.02936082 -0.15387356
000280 a4 08 49 3e 96 94 ab bb 82 1d 2c 3e fc ac 3f bd
       0.19632202 -0.0052362187 0.16808131 -0.04679583
000290 cc 45 87 bd 1e 63 03 be 42 a6 a9 3d c0 d7 02 be
       -0.066051096 -0.12830779 0.08283664 -0.12777615
0002a0 e8 1a e6 bc e3 72 f6 bd 40 20 bd bd cb 25 8c bd
       -0.028089002 -0.12033632 -0.09234667 -0.06843146
0002b0 6c 27 d4 3c e3 0b 99 bd 29 3f 0a 3e dc a7 35 bc
       0.025897704 -0.0747297 0.13500656 -0.011087384
0002c0 eb 7d da bd 01 9d fd bd 42 dc 04 3e 77 08 b5 3d
       -0.10668548 -0.12383462 0.12974647 0.08839505
0002d0 a5 9b 52 3d 9a 31 dd bd b3 cd fb 3d f3 15 7c bd
       0.051417965 -0.10800476 0.122950934 -0.06154437
0002e0 3c 2a 36 bd 16 e6 a9 bd 6f 47 de bd a5 ed 92 bd
       -0.04447387 -0.082958385 -0.108534686 -0.07174233
0002f0 2d 1f 23 bd 7e b2 13 3d 61 98 cb 3d 0f c6 a3 bd
       -0.039824653 0.036058895 0.09941173 -0.07996761
000300 b4 7b 23 3e ec 38 4b be ce fb 62 be 6e 1d 2c be
       0.15965158 -0.19845933 -0.22166368 -0.16808102
000310 d8 46 f0 3d be 49 84 3d 40 54 f0 3d 36 64 b7 bd
       0.117322624 0.06459378 0.117348194 -0.089546606
000320 f5 74 0b 3e fc 17 ba 3c df fc f1 3d 22 b6 69 3b
       0.13618834 0.022716515 0.118158095 0.0035661538
000330 8c 07 8e 3c 36 30 7b bd 4b 9c ad 3c 23 21 15 3e
       0.017337583 -0.061325274 0.02119269 0.14563422
000340 07 b4 9e bd 02 16 ee bc 5c 42 64 be fa c6 b4 bd
       -0.07749181 -0.029063229 -0.22290939 -0.08827014
000350 63 ed f2 3b 08 04 d5 bd 05 64 02 be 96 e4 5b 3d
       0.0074135526 -0.104011595 -0.12733467 0.053684793
000360 28 f0 fb bd bc 3f 36 3d 57 c5 6b be 5f c6 02 3e
       -0.123016655 0.044494376 -0.23024498 0.12770985
000370 58 3a c5 bd 4a e5 03 be 17 ed 9b 3d cd f9 90 be
       -0.09630269 -0.12880436 0.07613581 -0.28315583
000380 83 6f 42 be fc bb 96 bc 96 69 4a bc 6c 25 05 be
       -0.18987851 -0.018400185 -0.012354275 -0.13002557
000390 99 ab 15 bd 49 cd da bd fe 85 4f bd d0 e7 c8 bd
       -0.0365406 -0.10683686 -0.050664894 -0.0980984
0003a0 6a 9f cc 3c cf 7b b1 3d 29 b0 89 3d 73 2a 26 bd
       0.024978358 0.08666193 0.06723053 -0.040567826
0003b0 80 0b 9c bc 58 5c 0f be 66 72 9d 3e f5 50 a5 bd
       -0.019048452 -0.1400007 0.30751342 -0.08072082
0003c0 87 e4 ed bd f5 2f 88 bd 8c 4a 48 be e3 2d ed bd
       -0.11615854 -0.06649772 -0.19559687 -0.11581018
0003d0 a4 d9 bd bd b2 b2 c8 3d 02 3f 87 bd 9e f4 a6 bc
       -0.09270027 0.097997084 -0.06603815 -0.020380314
0003e0 fc 4f e1 bc 39 82 39 3e 7e a6 39 3e 04 48 da bd
       -0.02750396 0.18116082 0.18129918 -0.10658267
0003f0 ab 3e 20 3d 6a eb 0a bd ef c5 54 3d e1 24 93 bd
       0.039122265 -0.033915915 0.051946577 -0.071847685

network.2.conv.0.bias f4 [128]
000000 5b 0f 3f be 65 2a e2 3c ac 0d 12 be 8f ef 0b 3e
       -0.18658201 0.027608106 -0.14263028 0.13665603
000010 da 8f 35 be 71 d2 2f be 6b 80 19 3e b2 93 01 3d
       -0.17730656 -0.17170121 0.14990394 0.031634994
000020 05 8b 3b bd 48 5b ba 3c dd 91 8a 3c 5e 8d b5 3d
       -0.045786876 0.022748604 0.016915256 0.08864854
000030 a2 34 2e 3d 7a 28 15 3e 92 62 2f bd 91 ff 7a 3d
       0.042530663 0.14566222 -0.042818613 0.061278883
000040 7c 59 8a 3d 7c 4e 63 bc d5 4d b0 bd 11 bd 8b be
       0.06755349 -0.013873693 -0.08608595 -0.27292684
000050 d9 bd c8 bd cd ec a8 3c d8 7e 20 bc ed 9c bd bd
       -0.098018356 0.020620728 -0.009795867 -0.09258447
000060 88 2f 81 bd 4b 3f 0d be fc 78 04 38 bb 1e a1 bd
       -0.06307894 -0.13793676 3.1583928e-05 -0.078671895
000070 94 13 1d bd c3 66 87 bc 8f e5 01 3e da 7f 35 be
       -0.03834875 -0.016528493 0.12685226 -0.17724553
000080 bf af 8d bd ab c0 66 be 0b d6 dc ba 6c 22 04 3d
       -0.069182865 -0.22534434 -0.0016848458 0.03225939
000090 45 75 b5 bc f5 88 58 be 71 ba 0a 3d dc e1 3c bd
       -0.022150645 -0.21145995 0.03386921 -0.046113834
0000a0 ec ee f7 bd e2 9a 9c 3c fa c2 65 3d 0f 4a cf bd
       -0.121061176 0.019116823 0.056094147 -0.101215474
0000b0 e8 8d d6 bd af 6d 89 3d 54 d7 da 3d e4 11 f7 bd
       -0.10476285 0.067103736 0.10685602 -0.12063959
0000c0 24 4a 4b be 84 e5 50 3d 03 06 d3 bc a4 99 5f 3d
       -0.19852501 0.051000133 -0.025759703 0.054589882
0000d0 90 c0 69 bd d8 af fb 3d 58 72 ad bb 68 2c e6 3d
       -0.057068408 0.12289399 -0.005293172 0.112389386
0000e0 18 4f 19 3d 78 4b a2 bc ef 6e 2c be 12 8c 8e be
       0.037428945 -0.019811377 -0.16839193 -0.2784124
0000f0 fd 0a 8a be 2d a1 22 3c 59 5a aa bd b2 17 14 3e
       -0.26961508 0.009926123 -0.08318014 0.14462164
000100 3f d6 5a 3d fe c7 29 3e 76 5b 26 be 70 94 4d 3e
       0.053426977 0.16580197 -0.16245827 0.20076156
000110 35 73 89 bc 2d 56 09 3d 40 04 a9 bd 2f 4d cd bd
       -0.016778568 0.03352945 -0.08252764 -0.10024487
000120 4c 22 4c 3e c7 a9 4f 3c 19 7d cd 3d 9a b9 07 3d
       0.19934958 0.012674755 0.10033626 0.033135988
000130 78 70 cf bd 42 91 d2 3d d3 13 f7 3d 0c 67 98 3d
       -0.101288736 0.10281612 0.12064328 0.0744153
000140 51 a1 dc 3b c5 38 3f be 38 df a5 bb d0 95 3a 3e
       0.0067330976 -0.18674 -0.00506201 0.18221211
000150 a2 88 0e bd 51 75 10 3d ff e3 ca bd d7 e2 aa 3d
       -0.034798272 0.03526813 -0.09906768 0.083440475
000160 d3 d2 42 3d fb b7 f8 3d 78 5e 24 bd 45 e5 55 be
       0.04756434 0.121444665 -0.040129155 -0.2088824
000170 94 37 fc bd ee 1d cf bd 2f 98 24 3d ed b6 49 bd
       -0.12315288 -0.101131305 0.040184196 -0.049246717
000180 7a 79 fe bc 10 c9 e4 bd ee 5f ef 3d 71 cb e0 3d
       -0.031063784 -0.11171162 0.11688219 0.10976303
000190 a1 a1 01 be d2 06 da bd c9 11 22 3c f9 67 d3 3d
       -0.12659313 -0.10645832 0.009891936 0.103225656
0001a0 f1 40 9d bb 4f 28 91 3d 9f 33 cd bd f7 cb 53 bb
       -0.0047990014 0.070877664 -0.100196116 -0.0032317617
0001b0 26 8f 63 be 4f f4 1e be c1 88 51 be c8 c1 25 3d
       -0.22222576 -0.15522884 -0.20462324 0.040468007
0001c0 62 d3 5c bc c7 7b dc 3b 3e 42 68 bd e6 0a c7 bd
       -0.013478132 0.0067286226 -0.0567038 -0.097188756
0001d0 a6 39 6f be 44 ef fd bd 96 ff a5 bd 0e 95 11 bd
       -0.23361835 -0.12399152 -0.0810539 -0.03554254
0001e0 7d 38 36 3c a3 24 92 be 57 62 11 bc 02 77 41 be
       0.011121866 -0.28543577 -0.008873544 -0.18893054
0001f0 cb ca c5 bd d4 10 55 be 26 a4 cb 3c c2 8c 18 bd
       -0.0965782 -0.208072 0.024858546 -0.037243612

network.3.weight f4 [2, 128]
000000 7f ad 48 bd cb 54 e6 3c d7 3b 00 be ab 63 91 3d
       -0.048993584 0.028116604 -0.12522827 0.07099088
000010 9d 0f a1 3c 69 b9 1e be d7 99 58 3e 09 72 60 bd
       0.019660765 -0.15500416 0.21152435 -0.054796252
000020 9c 9c 2e 3d f0 27 3d 3d 24 d3 1c 3b 1c b9 4d bd
       0.042629823 0.046180665 0.002392956 -0.050225362
000030 18 67 8f 3d 08 a9 f5 bc a3 d6 64 3c 93 ee 81 bc
       0.070020854 -0.029987827 0.013967189 -0.015860831
000040 fc b2 09 be 81 c5 3a ba b6 aa ec bd 55 b3 39 3e
       -0.13447183 -0.0007124767 -0.11555998 0.18134816
000050 72 d5 54 3b ab e9 33 bb b1 42 1f 3c 30 44 be bd
       0.0032475856 -0.002745251 0.00972049 -0.092903495
000060 ed a8 3e 3e c9 e5 9e bd 49 65 3f 3d dc 6c 0a 3d
       0.18619128 -0.07758672 0.046727452 0.033795223
000070 9f a7 ad bb 3d 53 0e 3e 96 f1 24 3d 58 38 be 3d
       -0.005299523 0.1389894 0.040269457 0.092880905
000080 08 3b f5 3d 72 21 34 be 6f 94 5e 3d 4b 22 34 3e
       0.1197415 -0.17590883 0.054340776 0.17591207
000090 b7 a1 9c 3c c0 bd 80 be 64 c8 4c be df c6 e2 bd
       0.01912008 -0.25144768 -0.19998318 -0.11073088
0000a0 05 d4 19 3e 41 09 c4 3d 33 76 21 3d df c3 80 bd
       0.15022285 0.095720775 0.039419364 -0.062873594
0000b0 92 7b e0 3d 05 33 b0 bd c2 ae ea 3d b1 4f 81 3d
       0.10961069 -0.08603481 0.11459114 0.06314028
0000c0 9d 12 2a be a8 31 5a bd 3d 76 3d 3d f3 7c 98 3d
       -0.16608663 -0.053270012 0.04625534 0.07445707
0000d0 f2 a2 d3 3d 79 ae 61 bd 13 2e f3 bc 2c ff 29 be
       0.10333814 -0.05509803 -0.029685056 -0.16601247
0000e0 e4 70 d6 3c 47 33 a0 3a af 1e f0 3d 65 83 2d bd
       0.026176877 0.0012222313 0.117246024 -0.042361636
0000f0 e9 7c ae bc 16 14 14 3e 5a c8 0b bd d6 be e2 bd
       -0.021299796 0.14460787 -0.034126617 -0.11071555
000100 3a 70 56 3e 23 4b 09 bd 83 40 3c 3e 43 70 3b be
       0.20941249 -0.03351892 0.18383984 -0.18304543
000110 fb ae 0e 3d d6 bc 1e 3e 72 2b ec bd 1e a5 84 3d
       0.034834843 0.15501723 -0.11531724 0.06476806
000120 d3 b8 56 3d 40 f0 14 be de fc 8b 3c 49 b0 4b 3e
       0.052422356 -0.14544773 0.01708835 0.19891466
000130 ed 23 af bd 0b 9e 85 bc ea 7b 37 bd b2 73 1b 3d
       -0.08551774 -0.016310712 -0.044795908 0.037952133
000140 da 7f 83 bd 87 2f e2 bb 8f 96 ba 3c 0f 58 bc bc
       -0.0642087 -0.0069026384 0.02277687 -0.022991208
000150 85 fb 10 3e 9a ea 63 3d 38 1f c4 3d 43 66 2e be
       0.14158447 0.055643655 0.09576267 -0.17031197
000160 7f 59 3d bc 51 a8 fc 3d e2 2f db 3c 6d 6d 6f 3d
       -0.011556982 0.12336791 0.02675623 0.058453966
000170 c9 dd 5c be 7f 8f 03 be 4c a5 63 bd 30 c6 4f bc
       -0.2156898 -0.12847708 -0.05557756 -0.012681529
000180 ad e4 d7 bb e7 a0 78 3c 14 79 2f bd b2 05 69 bc
       -0.0065885396 0.015175081 -0.04284008 -0.014222549
000190 44 84 1f 3e 29 20 fe bc a2 d3 67 3e 17 cc 77 3b
       0.15577799 -0.031021195 0.22639325 0.0037810856
0001a0 12 cb ff 3d 2c 0c 4c 3e 12 3b 8b 3a bd 3f 93 bd
       0.124899045 0.19926518 0.0010622463 -0.071898915
0001b0 98 68 ee bb 85 a5 88 bd 6c 96 85 bd 6c ea bb 3d
       -0.007275652 -0.06672195 -0.06522831 0.09175572
0001c0 1d c0 be 3d 9e f3 23 3e eb f1 3c 3e 92 16 0a be
       0.093139865 0.16010901 0.1845166 -0.13485172
0001d0 99 be af 3c 7b 61 88 3d 81 92 ee bd d1 c8 97 3d
       0.021453189 0.06659218 -0.11649037 0.074113496
0001e0 f3 e5 00 3e fc d3 46 be 06 48 78 3e 5f c1 9a bd
       0.12587719 -0.19416803 0.24246225 -0.07556414
0001f0 28 97 34 3e e3 27 37 be bd f3 cc bb a5 b6 e9 3b
       0.17635787 -0.1788631 -0.006254642 0.0071323686
000200 ce 66 0f be 79 24 9d 3d ca 62 fc 3c f7 a6 fa bd
       -0.1400406 0.07672972 0.030808825 -0.12238877
000210 b0 e0 ba 3d fb 5f 44 be f2 e0 b8 bd 97 69 99 bc
       0.09124887 -0.19177239 -0.0902728 -0.018727107
000220 01 e4 38 bd 2d 3b a2 3d c7 8f df 3c a1 f1 b7 bd
       -0.045139316 0.07921443 0.027290238 -0.08981634
000230 f9 c7 a0 3d 37 62 25 3c a1 14 b6 ba 0c d6 7c 3c
       0.07850642 0.010094217 -0.0013891646 0.015431892
000240 0c ab ba bb 85 e5 a5 3d d1 10 e6 bd de 13 13 3e
       -0.00569666 0.08100418 -0.11233676 0.14363047
000250 32 7f 07 be 75 44 ea 3d 74 e2 76 3c 6b 32 d0 3d
       -0.13232115 0.114388384 0.015068639 0.101658665
000260 4f 65 21 3e a6 03 aa 3d ba 8e 1b be 1e 3e fa bd
       0.15761302 0.08301477 -0.15191165 -0.12218879
000270 89 ab 02 3e 17 02 93 3d 57 3d d8 3c 76 48 a7 bd
       0.12760748 0.07178133 0.026396437 -0.08168118
000280 78 33 be bd 78 b9 f7 3d 4e 68 32 3e 94 ee ca bd
       -0.09287161 0.12095922 0.17422602 -0.099087864
000290 ab 39 bd 3d e8 c9 25 3d ae 62 3d 3d 90 d3 e8 bd
       0.09239515 0.040475756 0.046236686 -0.11368477
0002a0 17 0d 16 be 58 0d 78 3d c1 a1 12 bd d8 3d 08 bd
       -0.14653431 0.0605596 -0.03579879 -0.033262104
0002b0 76 4b 44 bb 5c cd 13 3e 93 4f 84 3e 8c f9 f8 3a
       -0.0029952205 0.14433807 0.2584196 0.0018995269
0002c0 70 02 a9 bd 0c 09 f9 bd 02 87 40 3d 2d 1e 4e 3d
       -0.08252418 -0.12159929 0.047003753 0.050321747
0002d0 16 d2 e4 3d f7 0a 37 3e 67 b5 85 bb f2 dd 1f 3e
       0.11172883 0.17875277 -0.0040804627 0.15612009
0002e0 82 6d a0 3d d3 0c 8f 3b 92 9f d3 3d 85 09 2e be
       0.07833387 0.0043655424 0.1033317 -0.16995819
0002f0 a1 4c 11 bd 3d 6c 05 be 16 23 90 3d 93 4a 90 be
       -0.03547347 -0.13029571 0.07037942 -0.28181896
000300 69 c3 d0 bd 22 cd c0 3d bf 10 62 3d 47 60 27 3d
       -0.101935215 0.09414126 0.05519175 0.0408633
000310 f3 9c b5 3d a8 05 a0 be 41 74 17 3e 2e b4 06 3d
       0.08867826 -0.31254315 0.14790441 0.032886676
000320 f4 cb ce 3d 45 c8 2f bc 05 7d 89 bd 01 ca 97 bd
       0.10097495 -0.0107289 -0.06713299 -0.07411576
000330 2c 28 be 3d 84 ea 1d 3e d5 fb 26 3e 74 19 b5 bd
       0.09285006 0.15421492 0.16307004 -0.088427454
000340 39 96 97 3e c7 57 da ba f6 2f 52 b9 bf ca a1 3d
       0.29606798 -0.001665824 -0.00020045027 0.07899999
000350 6b 4a 28 3c 75 99 99 bd 43 52 13 be d9 c0 b4 3c
       0.010271649 -0.07499973 -0.14386849 0.022064613
000360 84 3e 19 be 74 ee 44 be 2d a8 b4 3d f9 09 8a 3d
       -0.14965254 -0.19231588 0.088211395 0.067401834
000370 d5 a0 06 3d 34 4a f6 3d db 22 20 3e c4 b9 f4 bb
       0.032868225 0.12025872 0.15638296 -0.007468434
000380 94 36 9f 3d 52 9e 3b 3e 86 b4 b3 3d 56 1b 33 bd
       0.07774082 0.18322113 0.087746665 -0.04372724
000390 e9 7b 93 3d 80 c5 7a 3d 0e 1f d3 bc 76 f5 4f 3d
       0.07201368 0.061223507 -0.025771644 0.0507712
0003a0 98 3b 3d 3d 14 a0 e0 bd 48 df 88 3e 53 b6 83 3d
       0.04619941 -0.109680325 0.2673285 0.0643126
0003b0 4b 1b 2b 3d a3 ba 89 3d b6 23 45 3d c1 01 25 bd
       0.041774075 0.06725051 0.04812976 -0.040284876
0003c0 06 e6 da bd 73 cb 59 be d1 b8 92 3d a2 2c 23 be
       -0.10688405 -0.21269016 0.07164157 -0.15934995
0003d0 99 76 bb ba fa e0 e1 3d e8 e0 a2 3d 1d 2a 97 3d
       -0.0014302313 0.11029239 0.07953054 0.07381079
0003e0 2f 88 b6 3d 62 06 d7 3d 08 6b 81 be 4d 58 0b be
       0.08912694 0.10499264 -0.2527697 -0.13607903
0003f0 a6 79 20 bc dd 93 03 be c5 71 07 bd 58 0c 08 3e
       -0.009794628 -0.12849374 -0.033067483 0.13285959

network.3.bias f4 [2]
000000 9a e8 73 bd bd f6 6f 3e
       -0.059547998 0.23433967
