exomy/config/best_run_no_obstacles405k/checkpoints/30000_policy.pt (torch, 723582 bytes, 13 tensors)

log_std_parameter f4 [2]
0	0xbec26ee9	-0.37975243
1	0xbf02b4bf	-0.51057047

network.0.conv.0.weight f4 [512, 5]
0	0x3e6f26b1	0.23354603
1	0xbd7c6c2c	-0.0616266
2	0xbcb1ae85	-0.021689663
3	0xbd885eba	-0.06658693
4	0x3e2a012b	0.16602008
5	0x3da6d8f5	0.0814685
6	0x3d28edb9	0.041242335
7	0x3e36086d	0.17776652
8	0xbd589a3d	-0.052881468
9	0xbc3c4d47	-0.011493034
10	0xbcfc0263	-0.030762857
11	0xbb7d2fc6	-0.0038633212
12	0xba045080	-0.0005047396
13	0xbe8220ac	-0.25415552
14	0x3d6bd76b	0.057578485
15	0xbc714cec	-0.014727812
16	0xbd3354b8	-0.043781966
17	0x3e9d5492	0.30728585
18	0x3d09eab6	0.033671103
19	0x3e2e2d26	0.1700941
20	0x3d55a571	0.05215973
21	0xbc4ab266	-0.012371635
22	0x3da8dccd	0.082452394
23	0x3e456047	0.19275008
24	0x3e00d5a9	0.12581505
25	0x3dc4bdfa	0.09606548
26	0x3e6f2ca5	0.23356874
27	0xbc1f6a8c	-0.009729993
28	0xbe48649a	-0.19569626
29	0xbce3dbb5	-0.027814725
30	0xbe9ded06	-0.30844897
31	0xbd1968bd	-0.0374534
32	0x3da0fee8	0.078611195
33	0xbcc120fe	-0.023575302
34	0xbd78c3c7	-0.060733583
35	0x3bd23656	0.0064151688
36	0xbd092440	-0.033481836
37	0x3d46532a	0.048419155
38	0x3dc2becd	0.095090486
39	0xbd96cc60	-0.073632
40	0x3dcaaf55	0.09896723
41	0xbdedc8c1	-0.116105564
42	0xbd2f563d	-0.042806853
43	0xbc1167bf	-0.008874833
44	0xbca7903c	-0.020454518
45	0xbd88354c	-0.066507906
46	0x3ca2d764	0.019878097
47	0xbe8c8289	-0.2744334
48	0x3d84c5d1	0.06483043
49	0xbe40c25b	-0.1882414
50	0xbd06240d	-0.032749224
51	0x3e830a3b	0.25593743
52	0x3d13e5cf	0.036107834
53	0x3e244a17	0.16043888
54	0x3b419ab9	0.0029541685
55	0xbd9b8425	-0.07593564
56	0x3d475b3f	0.048671003
57	0xbdc3ae4a	-0.095547274
58	0x3e09cd9e	0.13457343
59	0xbd90353e	-0.07041405
60	0x3e118dee	0.14214298
61	0xbd1b19b7	-0.03786632
62	0x3db8679f	0.09004139
63	0x3ce30ea7	0.027716948
64	0x3e029727	0.12752973
65	0x3e2ee18c	0.17078227
66	0xbe2f8b52	-0.1714299
67	0xbbaad876	-0.0052137924
68	0x3e5ea6b0	0.21743274
69	0x3c03975f	0.008031695
70	0xbd8825de	-0.066478476
71	0x3d41ab86	0.047282718
72	0x3dee5d22	0.116388574
73	0x3db2a61e	0.087230906
74	0x3e1bfd23	0.15233283
75	0xbdd3830e	-0.10327731
76	0x3e3822ab	0.17981975
77	0x3cfebf06	0.031096946
78	0x3e16867f	0.14699744
79	0xbd07e24e	-0.033174805
80	0x3e0635a1	0.13106395
81	0x3ed5ab67	0.41732332
82	0x3c89ad3b	0.016806236
83	0xbe27078e	-0.16311476
84	0x3e17767b	0.1479129
85	0xbe0193d5	-0.1265405
86	0x3c046e2d	0.008082909
87	0x3dec5b37	0.11540835
88	0xbdff95a7	-0.12479716
89	0x3d464703	0.048407566
90	0x3c607b31	0.013701246
91	0x3e029f16	0.12755999
92	0xbdeeb159	-0.1165492
93	0xbcf06932	-0.029347036
94	0x3d13a9f3	0.036050748
95	0xbe666b54	-0.2250188
96	0xbe5c3fab	-0.21508662
97	0x3d3b60d0	0.045746624
98	0x3db5b13b	0.08871695
99	0xbd196439	-0.037449095
100	0xbd624bbe	-0.055248015
101	0xb9cdef3d	-0.00039278893
102	0xbe32633c	-0.17420667
103	0xbc147228	-0.00906042
104	0x3d9fcfe5	0.078033246
105	0xbe38aa2d	-0.18033667
106	0x3d243c30	0.04009646
107	0xbdd60d39	-0.10451741
108	0xbe8780d5	-0.2646548
109	0x3e64fad7	0.22361313
110	0xbd2535d1	-0.040334526
111	0xbdd5b25b	-0.10434409
112	0x3d5fa8bf	0.05460429
113	0x3d40abef	0.04703897
114	0xbc10d9f6	-0.008841028
115	0xbe0f9981	-0.14023401
116	0x3e59b718	0.21261251
117	0x3c1b915a	0.009495104
118	0xbc14cefb	-0.009082551
119	0xbd2c9d8c	-0.042142436
120	0x3e895af3	0.268272
121	0xbb9c4e08	-0.0047700442
122	0x3defc33f	0.11707162
123	0xbceaee8f	-0.028678207
124	0xbdeb35db	-0.114848815
125	0xbd6592c3	-0.056048166
126	0xbe3de763	-0.18545298
127	0xbdaa0b83	-0.08302977
128	0x3e001dfe	0.12511441
129	0xbd89964d	-0.06718121
130	0xbe05a42c	-0.13050908
131	0x3d857867	0.065171055
132	0x3e278c54	0.16362125
133	0xbd2056da	-0.039145328
134	0xbc87bb37	-0.016568763
135	0xbe94a5e0	-0.29032803
136	0x3e397cb5	0.18113978
137	0xbdbb9e97	-0.09161108
138	0xbddbd6a7	-0.10734301
139	0xbd90476f	-0.07044875
140	0x3e285787	0.16439639
141	0x3e00218c	0.12512797
142	0xbcd2ed6c	-0.025747977
143	0x3e1f38e1	0.15549041
144	0xbc740d73	-0.014895785
145	0xbcd2411f	-0.025665818
146	0x3e42612c	0.1898238
147	0x3da8fd3e	0.08251427
148	0x3d82c811	0.06385816
149	0xbd1ae6e2	-0.037817843
150	0x3b9eaeda	0.0048426213
151	0x3e133d20	0.14378786
152	0x3d96abf2	0.07357015
153	0xbe214892	-0.1575034
154	0xbe51ce63	-0.20488887
155	0xbe2f1924	-0.17099434
156	0xbe399fd9	-0.18127383
157	0x3e1c453a	0.15260783
158	0x3d55a097	0.052155104
159	0xbe068500	-0.13136673
160	0xbe14b8e3	-0.14523654
161	0xbdb1efdd	-0.086883284
162	0x3c1d1183	0.009586695
163	0xbe26cd71	-0.16289307
164	0x3dc6f236	0.09714167
165	0xbe03bf33	-0.12865905
166	0xbbaedcd2	-0.0053363824
167	0xbd3382f7	-0.04382607
168	0x3c84031e	0.016114768
169	0xbdbac8c3	-0.091203235
170	0xbd01052c	-0.031499073
171	0x3e5a52f5	0.21320708
172	0x3c300c0e	0.010745062
173	0xbd71624a	-0.058931626
174	0xbcf6317b	-0.030052891
175	0x3e2607de	0.16213939
176	0x3d07832f	0.03308409
177	0x3d83ae14	0.06429687
178	0xbd8d2f3e	-0.06893776
179	0xbd8ecca7	-0.06972628
180	0xbe88fe31	-0.26756433
181	0x3e86b33e	0.26308626
182	0xbda9d8a7	-0.08293276
183	0xbe1d1fce	-0.15344164
184	0x3e612a63	0.21988826
185	0x3e479406	0.1949006
186	0x3d5ce6ad	0.053930927
187	0xbd9bb3b9	-0.07602639
188	0x3d3734d7	0.044728126
189	0x3c847f86	0.01617409
190	0xbd39450f	-0.045231875
191	0xbd453363	-0.04814471
192	0x3db60cb9	0.088891454
193	0xbd20ae57	-0.039228763
194	0x3cfe277f	0.031024693
195	0xbb587828	-0.0033030603
196	0xbed45dcd	-0.41477814
197	0xbd92828a	-0.071538046
198	0xbbeaf297	-0.0071700322
199	0x3e03aa23	0.12857871
200	0x3dbbe274	0.09174052
201	0x3defc4f2	0.11707486
202	0x3d8d295e	0.06892656
203	0x3dff931d	0.124792315
204	0x3cb4a159	0.022049593
205	0xbdc2b2fe	-0.09506796
206	0xbe1d7d8b	-0.15379922
207	0xbcb963a3	-0.022630518
208	0xbdb86a20	-0.09004617
209	0xbd9c773e	-0.07639931
210	0xbd4f3de4	-0.050596133
211	0xbdd62f11	-0.10458196
212	0xbc9b6375	-0.018968323
213	0xbc970434	-0.018434621
214	0xbe52dcb0	-0.20591998
215	0x3e0f3025	0.1398321
216	0x3e8946c7	0.2681181
217	0xbcc4cc49	-0.024023192
218	0xbdc52f98	-0.096282184
219	0x3de15468	0.11002427
220	0xbe8aa769	-0.2708085
221	0xbda02315	-0.07819191
222	0x3e1a2d2b	0.15056293
223	0x3d9d45af	0.07679307
224	0xbe389b10	-0.18027902
225	0x3dd60b5c	0.104513854
226	0x3d84849a	0.06470604
227	0x3bb3d1ce	0.005487657
228	0xbd5f4301	-0.05450726
229	0x3da371be	0.07980679
230	0x3e69fc22	0.22850087
231	0xbd28afd2	-0.0411833
232	0xbd99ab0c	-0.07503328
233	0xbd82271b	-0.06355115
234	0xbdfa74bd	-0.12229297
235	0x3d8e982f	0.069626205
236	0x3ca6bbdb	0.020353248
237	0xbd95a749	-0.07307298
238	0xbda1a717	-0.07893198
239	0x3d995d29	0.07488472
240	0xbd97c31d	-0.07410262
241	0x3d53c4f6	0.05170151
242	0x3b98604f	0.0046501528
243	0xbe1111fb	-0.14167015
244	0xbd84442b	-0.064583145
245	0xbdfa92bc	-0.122350186
246	0xbe884b4d	-0.2661995
247	0x3d29d57f	0.04146337
248	0xbd3231c9	-0.04350451
249	0xbd3ac5e3	-0.045598876
250	0x3dc8d7ef	0.09806811
251	0x3e7d147d	0.24714847
252	0x3e1a6467	0.15077363
253	0xbe38740a	-0.18013015
254	0xbe638397	-0.22218166
255	0x3da3e681	0.080029495

network.0.conv.0.bias f4 [512]
0	0x3de008f3	0.10939207
1	0xbdfe225b	-0.124088965
2	0xbd7eb54e	-0.062184624
3	0x3d932bae	0.071860656
4	0xbe9f5be0	-0.31124783
5	0xbbddca1e	-0.006768479
6	0xbddf07d4	-0.10890165
7	0xbe4bc3cf	-0.19898914
8	0x3e0455d5	0.12923367
9	0x3cf35502	0.02970362
10	0xbddf2682	-0.10896017
11	0xbbf4cbcc	-0.0074705835
12	0xbdb4b9d8	-0.088245094
13	0x3cbc604a	0.022995133
14	0x3c5caad8	0.013468467
15	0x3db2638d	0.08710394
16	0xbc001c60	-0.007819265
17	0xbdaf74d8	-0.08567208
18	0x3d0fee5c	0.035139427
19	0x3d191684	0.03737499
20	0x3e3d5875	0.18490775
21	0x3d8693fe	0.06571196
22	0xbe0e119b	-0.13873903
23	0x3d8b37f1	0.06797779
24	0x3e3cd64d	0.18441124
25	0x3dbb6883	0.091507934
26	0x3d951dd7	0.07281082
27	0x3d5d50ee	0.05403226
28	0xbe0e7ace	-0.13914034
29	0xbd962f34	-0.07333222
30	0x3cf25492	0.029581342
31	0xbda08efb	-0.07839771
32	0x3e27026c	0.16309518
33	0x3d5d5b57	0.054042187
34	0x3d949207	0.07254415
35	0x3d1c0fe2	0.038101085
36	0xbcdeaa69	-0.027180867
37	0x3d019688	0.0316377
38	0x3d2ecac7	0.042673852
39	0x3c8bf412	0.017084155
40	0x3de9450a	0.11390121
41	0x3e15702d	0.14593573
42	0xbdb47536	-0.08811419
43	0x3cdc0301	0.026856901
44	0xbe16bc74	-0.14720327
45	0x3e50ccd8	0.20390642
46	0x3d194d06	0.03742697
47	0x3b9c6046	0.004772219
48	0x3df3c41c	0.11902639
49	0x3d8acd4c	0.067774385
50	0xbcc9e2a5	-0.024644205
51	0x3d0da417	0.034580316
52	0x3da231b8	0.07919639
53	0x3e24f0ef	0.16107534
54	0x3d82ab7c	0.06380364
55	0x3e15bbe3	0.14622454
56	0x3c8e1871	0.017345639
57	0x3d4796dd	0.04872786
58	0x3bf18386	0.007370415
59	0xbe0ccceb	-0.13750045
60	0x3d9ae529	0.0756324
61	0x3b99a2ac	0.0046885815
62	0x3e5a4393	0.2131484
63	0x3de5dfa8	0.112243
64	0x3e877a84	0.2646066
65	0x3beb9dc5	0.0071904385
66	0x3daec129	0.08532936
67	0x3d791cc4	0.06081845
68	0xbcc41c95	-0.02393941
69	0x3deb74e5	0.11496905
70	0x3d8fb2de	0.07016538
71	0x3bc9545a	0.0061440887
72	0xbd7298a1	-0.05922759
73	0xbcc63b34	-0.024198152
74	0xbd65a2ab	-0.056063335
75	0x3ba85e27	0.005138177
76	0xbdf8d57a	-0.121500924
77	0x3b23883c	0.0024953028
78	0xbd46ba34	-0.04851742
79	0xbe5f1d2e	-0.21788475
80	0x3e56b439	0.20967187
81	0x3dd7f6bd	0.105451085
82	0xbd577dcb	-0.0526102
83	0x3e5b6fa7	0.2142931
84	0x3e39bee1	0.18139221
85	0x3cf3dbee	0.029767957
86	0x3d998471	0.07495964
87	0xbcb1e470	-0.021715373
88	0xbcd0c330	-0.025483698
89	0xbe1d102f	-0.15338205
90	0x3cf1f464	0.02953548
91	0xbdb75129	-0.08951027
92	0x3d5c5aaa	0.0537974
93	0xbe248a5a	-0.16068402
94	0x3d32378c	0.043510005
95	0x3e0871b8	0.1332463
96	0x3e583a9d	0.21116109
97	0x3dfc4c30	0.12319219
98	0xbce6cee5	-0.028174827
99	0xbae4dfd9	-0.0017461731
100	0x3dffad18	0.12484187
101	0x3da23a01	0.079212196
102	0x3e2b6d57	0.16740929
103	0xbdc89bed	-0.097953655
104	0x3cf61403	0.03003884
105	0x3d08c5b1	0.03339166
106	0xbd69c694	-0.057074144
107	0x3cac633b	0.02104341
108	0xbd825e3f	-0.06365632
109	0xbdb664cf	-0.089059465
110	0x3d2798e0	0.040917277
111	0x3ce81d57	0.028334303
112	0xbd2b368d	-0.04180007
113	0x3ddb55a7	0.10709696
114	0x3deb5796	0.11491315
115	0xbde5c015	-0.11218277
116	0x3de76779	0.11299033
117	0x3c03e99f	0.008051305
118	0x3cc32c5f	0.023824869
119	0x3d14130d	0.03615098
120	0xbd7f67e9	-0.062354956
121	0x3cf3cae1	0.029759826
122	0x3d988723	0.0744765
123	0xbb40bb79	-0.0029408617
124	0xbd8babd0	-0.0681988
125	0xbda91494	-0.08255878
126	0xbdf017ca	-0.117232874
127	0x3de35844	0.1110082
128	0xbce5fe41	-0.02807534
129	0x3e15dfa9	0.14636101
130	0x3d000e15	0.03126343
131	0xbd99674e	-0.07490407
132	0x3c0b34f9	0.008496516
133	0x3d6446f4	0.05573173
134	0x3dda7151	0.10666145
135	0x3cf522d4	0.029923834
136	0xbb96cdbd	-0.0046021626
137	0x3d18a0d6	0.03726276
138	0x3d76bd06	0.06023886
139	0x3d3f881a	0.046760656
140	0xbdf3dd4a	-0.11907442
141	0xbe2aeda7	-0.1669222
142	0x3dc5a6db	0.09650966
143	0xbd66411f	-0.056214448
144	0x3c1afd88	0.009459861
145	0x3db1d983	0.08684065
146	0xbd1ad42a	-0.03779999
147	0xbdaad9f3	-0.08342352
148	0x3d7bf224	0.06151022
149	0xbce3bb0b	-0.02779915
150	0x3cd4cf56	0.025977772
151	0xbcfd786b	-0.030941209
152	0xbe4e1bfb	-0.20127861
153	0xbc4b92b3	-0.012425113
154	0xbdb6e473	-0.08930292
155	0x3e26a6f3	0.16274624
156	0x3d153ee1	0.03643692
157	0x3d9b01e9	0.07568724
158	0xbd450782	-0.048102863
159	0xbd971ce3	-0.073785566
160	0xbd82c699	-0.06385536
161	0x3d9e4a28	0.07728988
162	0xbdc1d7e6	-0.094650075
163	0x3e608602	0.2192612
164	0xbbfb16e9	-0.007662643
165	0x3da28359	0.07935209
166	0x3dda7b38	0.10668033
167	0x3e5db8e2	0.21652558
168	0xbca8a6dc	-0.020587377
169	0xbe55fe44	-0.20897776
170	0xbd43c6e1	-0.047797088
171	0xbdbd428a	-0.09241207
172	0x3e754003	0.239502
173	0xbe427235	-0.18988879
174	0xbd8e60dd	-0.06952069
175	0xbd1c765e	-0.03819882
176	0x359f5bc5	1.1873132e-06
177	0x3d19c7b9	0.037543986
178	0x3c5c0409	0.013428696
179	0xba8860a9	-0.0010404784
180	0xbcc99655	-0.024607817
181	0x3ded4bf6	0.11586754
182	0xbd7b9e3b	-0.061430197
183	0xbe1fe15c	-0.15613312
184	0xbdff11c8	-0.124545634
185	0x3d9daa8f	0.07698547
186	0xbceb8f3e	-0.028754827
187	0xbe287c72	-0.16453722
188	0x3e1b848d	0.15187283
189	0xbe0a51f4	-0.13507825
190	0x3da487f8	0.080337465
191	0xbd541643	-0.051779043
192	0xbe1f8289	-0.15577139
193	0xbde84bfd	-0.113426186
194	0xbd25a8fe	-0.040444367
195	0x3e2c6712	0.16836193
196	0xbe2fd6bd	-0.1717176
197	0x3d63c0ad	0.05560367
198	0x3d19671f	0.03745186
199	0xbc24c32c	-0.010056298
200	0x3d08afd2	0.0333708
201	0xbe63ac50	-0.22233701
202	0x3cf9f109	0.030510442
203	0xbb46bdaf	-0.0030325463
204	0xbc2975a9	-0.010342994
205	0x3d9c1848	0.07621819
206	0x3dd0ae5c	0.101895064
207	0xbd87002d	-0.065918304
208	0xbdb627a4	-0.088942796
209	0xbd80cf51	-0.062895425
210	0xbe80d2ee	-0.25160927
211	0xbdb6424d	-0.088993646
212	0xbd0a62ec	-0.033785746
213	0xbc0dd8dd	-0.008657661
214	0x3e26d208	0.16291058
215	0x3e0287d5	0.12747128
216	0x3e1b129e	0.1514382
217	0x3e098188	0.13428319
218	0x3dabfcd0	0.083978295
219	0xbdb8e368	-0.09027749
220	0xbdcdcdb6	-0.10049002
221	0xbcb84778	-0.022495016
222	0xbe2ed119	-0.17071952
223	0xbe3966ab	-0.18105571
224	0xbe1aaa7c	-0.15104097
225	0x3d8c55ae	0.068522796
226	0xbcdc8135	-0.02691708
227	0xbdd4c72b	-0.10389551
228	0xbe0a370e	-0.13497564
229	0x3dd45ef9	0.10369677
230	0xbe275a08	-0.16342938
231	0x3d09ddc2	0.03365875
232	0xbe51e6e3	-0.20498233
233	0x3e1b2f9a	0.15154877
234	0xbe1aa1aa	-0.15100732
235	0xbe2342f6	-0.15943512
236	0x3ddffecb	0.1093727
237	0x3b9e4f1c	0.004831208
238	0xbdc8b2d4	-0.09799734
239	0x3da5eb46	0.081015155
240	0x3dc02469	0.09381945
241	0x3e112b69	0.14176716
242	0xbe1a7daa	-0.15087
243	0x3d1b3359	0.037890766
244	0x3c48f0fd	0.012264487
245	0x3c107ef5	0.008819331
246	0x3d9e885e	0.07740854
247	0x3dbc0cc1	0.0918212
248	0x3d5291d1	0.051408593
249	0xbde80436	-0.11328928
250	0x3cb0d47c	0.021585695
251	0xbdc6fbde	-0.097160086
252	0xbc2d392c	-0.010572713
253	0x3c9af466	0.018915366
254	0xbdf941a9	-0.12170727
255	0xbde9b62e	-0.11411701

network.1.conv.0.weight f4 [256, 512]
0	0x3da0f5ba	0.078593686
1	0xbe4b06e0	-0.19826841
2	0xbd789b12	-0.06069476
3	0x3c8bebd0	0.017080218
4	0xbae351fb	-0.0017343158
5	0xbe061fac	-0.1309802
6	0xbde2dea4	-0.110776216
7	0xbd370de5	-0.044690985
8	0x3c820faa	0.01587661
9	0xbd987aba	-0.07445283
10	0xbdf73f15	-0.12072579
11	0x3d2fff93	0.042968344
12	0x3de34540	0.11097193
13	0xbd3e213b	-0.04641841
14	0xbdd7a297	-0.105290584
15	0x3ea9931d	0.3312005
16	0xbe427a3b	-0.1899194
17	0x3c204c03	0.009783748
18	0x3d092f95	0.033492643
19	0x3e22fc77	0.1591662
20	0x3de97ee7	0.11401158
21	0x3e7da0cf	0.24768375
22	0x3dbb43a8	0.09143764
23	0xbc0e99c5	-0.008703654
24	0x3e3593c2	0.17732146
25	0xbd481eb0	-0.04885739
26	0x3e3f890c	0.18704623
27	0x3d9a680b	0.07539376
28	0xbe1b9898	-0.15194929
29	0xbb088503	-0.0020831234
30	0xbe160f82	-0.14654353
31	0xbd46eadb	-0.04856382
32	0x3deacb51	0.11464561
33	0x3c0c9d0b	0.008582364
34	0x3c105005	0.008808141
35	0x3d856015	0.06512467
36	0xbe192cb4	-0.14958459
37	0xbe243ab8	-0.16038024
38	0xbd5665da	-0.052343227
39	0xbe2c597d	-0.16831012
40	0x3d2462b7	0.040133204
41	0x3e99829e	0.29982466
42	0x3e092716	0.13393816
43	0xbeb0aa56	-0.34504956
44	0x3daec2bd	0.08533237
45	0xbd3318ce	-0.043724827
46	0xbc8c5cb7	-0.017134054
47	0xbd6e6a5d	-0.058206905
48	0x3d0f4867	0.034981158
49	0xbc903305	-0.017602453
50	0x3d05f7ec	0.03270714
51	0xbd9134d5	-0.07090155
52	0x3de51fa1	0.11187673
53	0x3dc8a485	0.097970046
54	0x3e8e60e7	0.27808306
55	0xbd04fa76	-0.03246542
56	0xbe846fa6	-0.2586643
57	0xbe3c10fd	-0.18365856
58	0xbe2c43d7	-0.16822754
59	0xbdfda208	-0.12384421
60	0xbd15f6b1	-0.036612216
61	0x3d43e60c	0.04782681
62	0xbc392bec	-0.011301976
63	0xbd1f833a	-0.038943507
64	0x3cf27d9d	0.029600913
65	0xbe88e395	-0.2673613
66	0xb9ce6094	-0.00039363338
67	0x3d829109	0.063753195
68	0xbccfae06	-0.025351536
69	0x3d4a0e12	0.049329825
70	0x3d9f30ca	0.07772978
71	0xbd6e0322	-0.058108456
72	0x3d2f3adb	0.04278074
73	0x3e558ac2	0.20853713
74	0x3dccec33	0.10005989
75	0xbe2a8ab2	-0.1665447
76	0xbe462cdd	-0.19353051
77	0xbadc1183	-0.0016789887
78	0x3d06befb	0.032896977
79	0x3e047b57	0.12937675
80	0x3cc5b7a2	0.024135415
81	0xbd9220e9	-0.07135183
82	0xbe53a469	-0.20668186
83	0x3e166eba	0.14690676
84	0xbdf98672	-0.121838465
85	0x3de6761c	0.11252996
86	0xbe6d802f	-0.2319343
87	0xbca949fe	-0.020665165
88	0x3df75486	0.120766684
89	0x3e939524	0.28824723
90	0x3e235279	0.1594943
91	0x3d5c79e9	0.0538272
92	0x3e8ed18f	0.27894256
93	0xbe12ae86	-0.14324388
94	0x3d379355	0.04481824
95	0x3b5dd74d	0.0033850253
96	0xbd8705a1	-0.065928705
97	0x3e086736	0.13320622
98	0x3dd42ed3	0.103604935
99	0xbe28b44d	-0.1647503
100	0x3dec5e17	0.11541384
101	0xbcc2a809	-0.023761766
102	0x3da1e680	0.079052925
103	0xbd9b0ba8	-0.07570583
104	0x3e3a6f0d	0.18206425
105	0xbd2e5e96	-0.042570673
106	0xbe0023a0	-0.1251359
107	0x3c035d19	0.008017802
108	0x3e65d938	0.22446144
109	0x3d7301e2	0.059327967
110	0x3e4fcbdf	0.20292614
111	0xbc363f13	-0.0111234365
112	0x3c8fab0e	0.01753762
113	0x3de90c47	0.11379295
114	0x3e708c5e	0.23491046
115	0xbcec3f08	-0.02883865
116	0x3db4b894	0.08824268
117	0xbe4b1058	-0.19830453
118	0xbd480629	-0.048834
119	0xbcad269d	-0.021136576
120	0xbd32c22a	-0.0436422
121	0x3e5ef0f1	0.217716
122	0xbdb0bc2d	-0.08629642
123	0xbdc995d6	-0.09843032
124	0xbdbc52a1	-0.09195448
125	0xbe47669d	-0.19472738
126	0xbe38b9a5	-0.18039568
127	0x3c9b34ed	0.018946135
128	0x3ca6ec2f	0.020376293
129	0xbc71399f	-0.014723211
130	0x3e02eb26	0.12785015
131	0xbc621b6c	-0.013800483
132	0xbc44aec1	-0.012004555
133	0xbcd83048	-0.02639021
134	0xbdfcefa3	-0.123503946
135	0x3d537ed8	0.05163464
136	0x3b77f8b5	0.003783745
137	0x3c19fb4f	0.009398296
138	0x3d3c4550	0.04596454
139	0x3d11e7bb	0.035621386
140	0x3c050f63	0.008121344
141	0x3c8df9b8	0.01733099
142	0xbe575af3	-0.21030788
143	0x3dd38561	0.103281744
144	0x3d880f4b	0.06643542
145	0xbde282ca	-0.11060102
146	0xbdc9d9ec	-0.098560184
147	0xbd10fb83	-0.03539611
148	0x3e245dcb	0.16051404
149	0xbcda8ac8	-0.026677504
150	0xbc6d548d	-0.0144854905
151	0xbdc239d5	-0.09483687
152	0x3d73cedb	0.059523445
153	0x3dd05f79	0.1017446
154	0x3b8c9c6c	0.004291108
155	0x3d2a79a2	0.041619904
156	0x3e1ca60a	0.15297714
157	0x3de9cace	0.11415635
158	0xbe0f983e	-0.1402292
159	0xbc9a9543	-0.018870002
160	0xbd0fbab4	-0.035090163
161	0xbcf5f0f4	-0.030022122
162	0x3d5ae7a0	0.05344355
163	0x3da04047	0.0782476
164	0xbe0a8568	-0.13527453
165	0x3e2c3316	0.16816363
166	0x3daa318b	0.08310231
167	0x3dee3dc1	0.116328724
168	0xbd67c91c	-0.056588277
169	0xbdc8cdfa	-0.09804912
170	0x3ccc3e45	0.024932036
171	0xbdfe4288	-0.124150336
172	0x3e30ae27	0.17253934
173	0xbdaa5bc5	-0.08318285
174	0x3d7a8b40	0.061167955
175	0xbe0d8384	-0.138197
176	0xbda19eb6	-0.078916
177	0x3e06cafd	0.13163371
178	0x3dc35fc2	0.09539749
179	0xbdb20a54	-0.08693376
180	0xbd8d48e3	-0.06898668
181	0xbc9c811c	-0.019104533
182	0x3ce0d3e1	0.027444782
183	0xbd8ea959	-0.06965894
184	0xbe1777b2	-0.14791754
185	0x3dca8668	0.09888917
186	0x3d8774c6	0.0661407
187	0x3cbb9a5d	0.022900755
188	0x3c8164fc	0.015795223
189	0x3d9959bf	0.07487821
190	0x3da2d918	0.079515636
191	0xbe2349bd	-0.15946098
192	0xbe0fd495	-0.14045937
193	0x3d3659d0	0.044519246
194	0x3d83b041	0.06430102
195	0x3d41ace8	0.047284037
196	0x3dc67a2f	0.096912734
197	0xbd2d7b7e	-0.0423541
198	0x3da5506c	0.0807198
199	0xbd802c5f	-0.06258463
200	0xbd2e278a	-0.042518176
201	0xbe0dfa0c	-0.13864917
202	0x3d047396	0.032336794
203	0xbdfa11c7	-0.12210422
204	0x3dc2ba1d	0.095081545
205	0x3dae8856	0.08522098
206	0x3e3813bc	0.17976278
207	0xbe8cfb3f	-0.27535436
208	0x3cdb19fb	0.026745787
209	0xbe266389	-0.16248907
210	0x3c128512	0.008942859
211	0x3ce0c47b	0.02743744
212	0x3d77ea84	0.060526386
213	0x3c811644	0.015757687
214	0xbc48809d	-0.012237695
215	0x3d8fdb02	0.07024194
216	0x3d7356e4	0.059409037
217	0x3e126f13	0.14300184
218	0x3db5bb00	0.08873558
219	0x3cae7c81	0.021299602
220	0x3df8f142	0.12155391
221	0x3cc095b4	0.023508884
222	0xbdec8318	-0.11548442
223	0x3d9bdaef	0.07610118
224	0xbe62bdde	-0.22142741
225	0x38720006	5.7697318e-05
226	0x3dbb5b45	0.09148268
227	0xbda8cd2e	-0.0824226
228	0xbe281ec2	-0.16417983
229	0xbda78180	-0.08178997
230	0xbc8eb8b8	-0.017422065
231	0x3da3125d	0.07962487
232	0xbaed5bd6	-0.0018109034
233	0x3cb4602d	0.022018516
234	0xbd1fbb6e	-0.038997106
235	0xbc8ce5f5	-0.017199496
236	0x3d32cd7e	0.043653004
237	0x3bcc8b54	0.006242195
238	0xbdd59c1c	-0.10430166
239	0x3d004ef5	0.0313253
240	0x3cd1ccb4	0.025610305
241	0x3e05a0a3	0.1304956
242	0xbdbe09ea	-0.09279235
243	0x3d9c4694	0.07630649
244	0xbcea9f20	-0.02864033
245	0xbdb4e8e6	-0.08833484
246	0x3d49c557	0.049260464
247	0xbdbdf60e	-0.09275447
248	0xbcd50915	-0.026005307
249	0xbe63c912	-0.22244671
250	0xbcdcd064	-0.026954837
251	0xbdc98399	-0.098395534
252	0x3e29acaf	0.1656978
253	0xbe097d7f	-0.13426779
254	0xbd74f736	-0.05980607
255	0xbd1f19be	-0.03884291

network.1.conv.0.bias f4 [256]
0	0xbd2823e2	-0.041049846
1	0x3cc044db	0.023470333
2	0x3d241082	0.040054806
3	0x3cb45934	0.022015192
4	0xbbb60c4e	-0.005555666
5	0x3e10644c	0.1410076
6	0x3d41c840	0.047310114
7	0x3d925697	0.07145422
8	0xbc898709	-0.016788023
9	0x3d400909	0.046883617
10	0xbc4a0dd9	-0.012332403
11	0xbe1bb7e2	-0.15206864
12	0x3de39ec2	0.11114265
13	0xbde16e4d	-0.11007366
14	0xbdb1c072	-0.08679284
15	0xbdce586c	-0.10075459
16	0xbc5ce470	-0.013482198
17	0x3b131554	0.0022443132
18	0x3da8edfd	0.08248518
19	0xbe3da0af	-0.18518327
20	0xbdb19a7f	-0.08672046
21	0x3e5a5a31	0.21323468
22	0xbd61a30c	-0.055087134
23	0xbcf23812	-0.029567752
24	0xbdcbc25a	-0.09949179
25	0x3c613ba4	0.01374713
26	0xbe2b9ab9	-0.16758241
27	0x3d13d0a4	0.036087647
28	0xbe120241	-0.14258672
29	0xbc43d091	-0.011951582
30	0xbe09ea92	-0.13468388
31	0x3c90a26f	0.01765558
32	0xbd858eaa	-0.06521352
33	0xbe453211	-0.1925738
34	0x3e7ccd39	0.24687661
35	0xbd021b30	-0.03176421
36	0xbe4fa0f0	-0.20276237
37	0xbc9c94ff	-0.019114016
38	0x3c35ae1c	0.011088874
39	0xbd1a9b5d	-0.037745822
40	0xbdc65ecd	-0.096860506
41	0xbe0401f6	-0.12891373
42	0xbe5c7628	-0.21529448
43	0x3dad8f5e	0.08474611
44	0x3cb98992	0.022648606
45	0x3d66b3d9	0.05632386
46	0xbd7a6990	-0.06113583
47	0x3b54c6d4	0.0032467144
48	0xbd536c55	-0.051616985
49	0x3de2aebc	0.11068484
50	0xbd50194b	-0.05080537
51	0x3de5ff09	0.11230285
52	0xbd783aba	-0.06060288
53	0xb7b6b10e	-2.1778538e-05
54	0xbd2e631c	-0.042574987
55	0x3d96b62c	0.07358965
56	0x3cede7b7	0.029041154
57	0x3d96f6ee	0.07371317
58	0x3d289c47	0.041164663
59	0x3e27fdb3	0.16405372
60	0xbe0da04f	-0.13830684
61	0xbd773f2f	-0.06036299
62	0xbc0fd8a5	-0.008779679
63	0x3d4f31fa	0.05058477
64	0x3d0514dd	0.0324906
65	0x3d0605f7	0.032720532
66	0x3e28bb77	0.16477762
67	0xbccd0a72	-0.025029395
68	0x3b0a21d8	0.0021077301
69	0xbd7d1c5c	-0.061794624
70	0xbbad9d6a	-0.0052983062
71	0xbdb40a07	-0.08790975
72	0x3dad1aa1	0.08452345
73	0xbda926d3	-0.08259358
74	0xbdea162c	-0.1143001
75	0xba1f94e7	-0.0006087557
76	0x3da3b467	0.079933934
77	0x3ce87ef2	0.028380845
78	0xbb97a73d	-0.0046280907
79	0x3e776acd	0.24161835
80	0xbe052f0c	-0.13006228
81	0x3d3a2acf	0.04545098
82	0xbe116107	-0.14197169
83	0x3d924e1c	0.071438044
84	0xbe345f1b	-0.17614405
85	0xbd9472cc	-0.07248458
86	0xbd11a535	-0.035557944
87	0xbd8b5ab9	-0.06804413
88	0x3da0f45a	0.07859106
89	0x3d57eb31	0.05271453
90	0x39283da9	0.00016044699
91	0x3e34e938	0.17667091
92	0x3ded93f3	0.11600485
93	0x3e159412	0.14607266
94	0x3d3b51d2	0.045732327
95	0xbb213e5b	-0.0024603817
96	0xbe29cc1a	-0.16581765
97	0x3c7856d3	0.015157419
98	0x3c794c92	0.01521601
99	0x3ea9bccc	0.33151853
100	0x3d628e54	0.055311516
101	0xbd15c3f6	-0.036563836
102	0x3d42ab4d	0.047526646
103	0xbe27d604	-0.16390234
104	0xbe5f2467	-0.2179123
105	0xbd54147a	-0.05177734
106	0x3df77bf9	0.12084193
107	0xbe30e5c9	-0.17275156
108	0x3d5fa530	0.054600894
109	0xbc76f4b4	-0.01507299
110	0x3de170c3	0.11007836
111	0xbe309beb	-0.17246978
112	0x3da1f779	0.0790853
113	0x3e03e6ed	0.1288106
114	0xbdc48e6d	-0.09597478
115	0x3e08d823	0.133637
116	0x3dde8a6b	0.10866245
117	0xbcdca28b	-0.026932975
118	0xbd1ec26f	-0.038759645
119	0x3de9ce3e	0.11416291
120	0x3d2c231d	0.042025674
121	0xbcc55b3d	-0.024091357
122	0x3e07c0ef	0.13257192
123	0x3dd0bfd4	0.10192838
124	0xbdb4a6e7	-0.088208966
125	0xbcb19174	-0.021675803
126	0x3e19e4f2	0.15028742
127	0xbe5938fc	-0.21213144
128	0xbc96b516	-0.018396895
129	0xbd504d78	-0.05085513
130	0xbe2a1aa8	-0.16611731
131	0x3d43320b	0.047655147
132	0xbcaf3dde	-0.021391805
133	0x3cac5fec	0.021041833
134	0x3c990ca8	0.018682793
135	0xba9bf8bd	-0.0011899691
136	0x3d2a4817	0.041572656
137	0x3c3c59b2	0.011495994
138	0xbd74b4b2	-0.059742637
139	0x3ca9fc44	0.020750172
140	0xbccc5069	-0.024940686
141	0x3cf8267f	0.030291794
142	0xbc0f5544	-0.008748356
143	0x3d2ae128	0.041718632
144	0x3d7e5403	0.06209184
145	0x3d602ffe	0.05473327
146	0xbe131b7f	-0.14365958
147	0x3dc0a6ce	0.094068155
148	0x3e1561e1	0.14588119
149	0xbdaa89ee	-0.08327089
150	0xbd42c626	-0.04755225
151	0xbd935c52	-0.07195343
152	0x3df9d42d	0.121986724
153	0x3eb5e7cf	0.35528418
154	0x3d6baeab	0.057539623
155	0xbd90a98a	-0.07063587
156	0x3c8c1623	0.0171004
157	0x3de06142	0.109560505
158	0x3ca26b78	0.019826636
159	0x3c573c34	0.013136912
160	0x3c971f30	0.018447489
161	0xbd8e5e62	-0.06951596
162	0x3d09003e	0.033447497
163	0x3e61349d	0.21992727
164	0xbc86ff67	-0.016479207
165	0x3e0da053	0.1383069
166	0xbb495368	-0.003071988
167	0x3bf5e615	0.0075042346
168	0x3df6e473	0.12055292
169	0x3e006089	0.12536825
170	0x3da4013f	0.0800805
171	0xbd998e81	-0.074978836
172	0x3d0ce02e	0.034393482
173	0xbe149b5b	-0.14512388
174	0x3d3f9e1b	0.04678164
175	0xbe0bec93	-0.13664465
176	0xbd5fd1fa	-0.05464361
177	0xbdb595eb	-0.08866485
178	0xbb4c3d0a	-0.0031164312
179	0x3d862868	0.06550676
180	0x3bb64d83	0.0055634393
181	0xbc4eb0ba	-0.012615377
182	0x3cb90a05	0.022587785
183	0xbe01709b	-0.12640612
184	0xbc88471c	-0.01663547
185	0xbd9be5b9	-0.076121755
186	0x3d6073f3	0.054798078
187	0xbe75e9a7	-0.24014913
188	0xbd4f549e	-0.050617807
189	0x3de3aa7d	0.111165024
190	0xbdb7d28c	-0.089757055
191	0x3c046904	0.008081678
192	0xbd51a64c	-0.051183984
193	0xbdf134a6	-0.1177762
194	0xbe202a80	-0.15641212
195	0x3d971ac9	0.07378156
196	0xbd613371	-0.0549807
197	0x3dbc4254	0.091923386
198	0x3dd1ca88	0.10243708
199	0xbd88ec00	-0.066856384
200	0xbdb6bcd6	-0.08922736
201	0x3defb732	0.117048636
202	0xbdff85d7	-0.124767
203	0x3e20f7c5	0.15719517
204	0xbccc3cb3	-0.024931287
205	0x3baf6819	0.0053529856
206	0xbe417d87	-0.18895541
207	0xbdfe4192	-0.1241485
208	0xbcd96874	-0.026539065
209	0x3bfa2da5	0.007634836
210	0x3d48cfb5	0.04902621
211	0xbc2648dd	-0.010149208
212	0xbe23a505	-0.15980919
213	0x3b97f4b4	0.004637325
214	0x3db0308c	0.086030096
215	0x3e054d07	0.13017665
216	0xbe0cd5ab	-0.13753383
217	0x3cc41ac2	0.02393854
218	0xbe5b2ae0	-0.21403074
219	0xbdac3a6e	-0.08409582
220	0x3c8d1018	0.017219588
221	0xbe08aea6	-0.13347873
222	0xbe4d3151	-0.20038344
223	0xbdaaa96b	-0.08333095
224	0x3c3ef745	0.011655633
225	0x3c3dca54	0.011583883
226	0x3daa90bd	0.08328388
227	0xbdfab2ba	-0.12241121
228	0x3d57f811	0.05272681
229	0x3e1a20eb	0.1505162
230	0x3e176189	0.147833
231	0xbdf956ca	-0.12174757
232	0x3c524925	0.012834822
233	0x3e0b0ed2	0.13579872
234	0xbd6d6df7	-0.0579662
235	0xbc6f2116	-0.014595291
236	0xbc7d8468	-0.015473463
237	0x3e002a44	0.12516123
238	0xbd3d0828	-0.046150357
239	0x3e698ed0	0.22808385
240	0xbe088a98	-0.1333412
241	0x3d9c495e	0.07631181
242	0xbde30ff4	-0.11087027
243	0xbb78250e	-0.0037863883
244	0x3e56049b	0.20900194
245	0x3d327ada	0.04357419
246	0x3d7d156a	0.061788
247	0x3a937dbe	0.0011252684
248	0xbd8d23a2	-0.06891562
249	0xbc39e223	-0.011345419
250	0xbe83c26b	-0.25734267
251	0xbc829aa3	-0.015942877
252	0x3dc0accb	0.09407958
253	0x3e261cc6	0.16221914
254	0xbd8b40a3	-0.06799438
255	0xbdaba6fd	-0.0838146

network.2.conv.0.weight f4 [128, 256]
0	0x3d91ac84	0.07112983
1	0x3d0e71ba	0.034776427
2	0xbc92de15	-0.017928163
3	0x3cea6e82	0.028617147
4	0xbd5763c2	-0.05258537
5	0x3db73302	0.08945276
6	0x3e678902	0.22610858
7	0x3e38adba	0.18035021
8	0xbdbbe6b1	-0.0917486
9	0xbb94f752	-0.0045460844
10	0xbde0ef60	-0.10983157
11	0xbd50412f	-0.050843414
12	0x3c6f9b13	0.014624375
13	0x3dcda39f	0.10040974
14	0x3dbbae21	0.09164072
15	0xbdc448c5	-0.09584192
16	0x3eab860b	0.33500704
17	0xbde681c3	-0.11255219
18	0xbd7aca30	-0.061227977
19	0x3d915be3	0.07097604
20	0x3dbcecc7	0.09224849
21	0xbd085adc	-0.033289775
22	0x3d93f945	0.07225279
23	0x3de9e103	0.11419871
24	0xbe30b20d	-0.17255421
25	0x3e88ec7a	0.26742917
26	0xbe089acb	-0.13340299
27	0x3d9fe3b0	0.078071
28	0x3e34995d	0.17636628
29	0xbddacf8e	-0.10684119
30	0x3d42cbac	0.047557518
31	0xbe580453	-0.210954
32	0xbe15217d	-0.14563556
33	0xbe0c1a52	-0.13681915
34	0x3d7dcc11	0.06196219
35	0xbdb82993	-0.08992305
36	0xbdc30f6b	-0.09524425
37	0x3c26cade	0.010180203
38	0x3dee69a5	0.11641244
39	0xbd53594f	-0.051598843
40	0x3d9a3586	0.0752974
41	0xbdaa62c7	-0.083196215
42	0x3c1126fa	0.00885939
43	0x3dbc828e	0.09204589
44	0xbdf5e5eb	-0.12006744
45	0xbd8fb803	-0.07017519
46	0x3e3fd317	0.18732868
47	0x3cf9bdea	0.030486066
48	0xbe509935	-0.20370944
49	0x3de58f43	0.11208966
50	0xbe3d6e58	-0.18499124
51	0xbd60a806	-0.05484774
52	0xbcbcb39d	-0.023034865
53	0xbcb52b34	-0.022115327
54	0x3c9dbc49	0.01925482
55	0xbd01521c	-0.031572446
56	0xbd2059d4	-0.039148167
57	0xbd055060	-0.032547355
58	0xbe52c851	-0.20584227
59	0xbe2d339b	-0.16914217
60	0x3d767d55	0.06017812
61	0xbda950e1	-0.082673796
62	0x3e2d2861	0.16909935
63	0xbdcd8592	-0.10035242
64	0x3977cf83	0.0002363306
65	0x3dd7b8b1	0.10533274
66	0xbda1e4fb	-0.07905003
67	0xbb6802c1	-0.0035402032
68	0xbe5a0991	-0.21292712
69	0xbd3fbd71	-0.046811525
70	0xbd89b568	-0.067240536
71	0x3dc82dd7	0.09774368
72	0xbd9892d2	-0.07449879
73	0xbbf462fa	-0.007458088
74	0xbde1e722	-0.11030413
75	0xbd3876ab	-0.045035046
76	0x3d0c29f3	0.034219693
77	0x3d3620d6	0.04446491
78	0x3e2fcb83	0.17167477
79	0xbe0361eb	-0.12830321
80	0xbe8a52cb	-0.2701629
81	0x3e15eceb	0.14641158
82	0xbcee8c52	-0.029119644
83	0xbb9ff618	-0.0048816316
84	0xbd353738	-0.044242114
85	0x3dde26d5	0.1084725
86	0xbd2f5e9c	-0.042814836
87	0x3d15f5d4	0.036611393
88	0xbd8d8fb8	-0.06912178
89	0xbd18e3b4	-0.03732653
90	0x3d1d809c	0.03845273
91	0x3d9951aa	0.07486279
92	0xbe0480c1	-0.1293974
93	0x3c147eb1	0.009063409
94	0xbd9ed4fc	-0.07755467
95	0x3d73b85c	0.05950199
96	0xbb0d3cba	-0.0021551088
97	0x3d10409a	0.03521786
98	0x3d24d4fd	0.040242184
99	0x3e2b5975	0.16733344
100	0x3db23563	0.08701589
101	0x3dd068ed	0.10176263
102	0xbcb3de86	-0.021956693
103	0x3d309443	0.043110143
104	0x3d8c49b3	0.068499945
105	0x3dbeda36	0.09318964
106	0x3cae8c45	0.02130712
107	0x3d5860d8	0.052826732
108	0x3d1dad63	0.038495433
109	0xbe3c0e1a	-0.18364754
110	0xbd99b587	-0.07505327
111	0x3dc48e80	0.09597492
112	0xbde0c8b8	-0.10975784
113	0x3c3ae1e1	0.011406393
114	0x3d986ba4	0.07442406
115	0xbd28d926	-0.041222714
116	0x3beaef6f	0.007169656
117	0xbe86f584	-0.2635919
118	0x3cc88f03	0.024482256
119	0xbc214206	-0.009842401
120	0xbdd4d8c5	-0.10392908
121	0xbe3d7058	-0.18499887
122	0xbe1d449b	-0.15358202
123	0xbd942a5e	-0.072346434
124	0x3d7854e2	0.060627826
125	0x3be37c58	0.006942313
126	0xbd9212ab	-0.07132467
127	0x3dc2e682	0.09516622
128	0x3dae393e	0.08507012
129	0x3e010f9d	0.12603612
130	0x3e2e7fc8	0.17040932
131	0xbe10bc1f	-0.14134263
132	0xbdaded6a	-0.08492549
133	0x3deb133c	0.11478278
134	0xbd97cd3c	-0.07412192
135	0x3d91cb5e	0.07118867
136	0x3d0b15b9	0.033956263
137	0xbc09ea45	-0.008417671
138	0xbbf7722f	-0.0075514535
139	0x3d793988	0.06084588
140	0x3d3c135d	0.045916904
141	0x3c93022b	0.01794537
142	0xbd6255de	-0.05525767
143	0xbe0a8cd3	-0.13530283
144	0x3cc7406e	0.024322715
145	0xbe2b9cd7	-0.16759048
146	0x3d667c7b	0.056271058
147	0xbcf34b73	-0.029699063
148	0xbdeb4bb0	-0.114890456
149	0xbb969064	-0.0045948494
150	0xbb7103b6	-0.0036775894
151	0xbe28659e	-0.16445014
152	0xbd6d7768	-0.057975203
153	0xbda9b803	-0.082870506
154	0x3d5e2e52	0.054243393
155	0x3dab93c2	0.08377792
156	0x3e20afce	0.15692064
157	0xbdab39d9	-0.08360643
158	0x3cf0861a	0.02936082
159	0xbe28011b	-0.16406672
160	0x3e34db23	0.17661719
161	0x3b0e4d4b	0.002171355
162	0x3e2c1d82	0.16808131
163	0xbd4ed5fc	-0.05049704
164	0xbd8745cc	-0.066051096
165	0xbde53ae3	-0.111928724
166	0x3da9a642	0.08283664
167	0xbe0c1dc4	-0.1368323
168	0xbd0b799a	-0.034051515
169	0xbdf672e3	-0.12033632
170	0xbd81505e	-0.06314157
171	0xbd844e15	-0.064602055
172	0x3cd4276c	0.025897704
173	0xbda4bc2c	-0.080437034
174	0x3dfb8837	0.1228184
175	0xbbb65676	-0.005564506
176	0xbdff5f3a	-0.12469335
177	0xbe005f78	-0.12536418
178	0x3e04dc42	0.12974647
179	0x3d7bd8ff	0.06148624
180	0x3d529ba5	0.051417965
181	0xbdcce40f	-0.10004436
182	0x3dd125b7	0.10212272
183	0xbd7c15f3	-0.06154437
184	0xbd362a3c	-0.04447387
185	0xbda1f0ab	-0.07907232
186	0xbdde476f	-0.108534686
187	0xbd904e8f	-0.07046234
188	0xbd231f2d	-0.039824653
189	0x3d146c10	0.03623587
190	0x3dcb9861	0.09941173
191	0xbda3c60f	-0.07996761
192	0x3e237bb4	0.15965158
193	0xbe4b38ec	-0.19845933
194	0xbe62fbce	-0.22166368
195	0xbe2d824b	-0.16944234
196	0x3df046d8	0.117322624
197	0x3db00193	0.0859405
198	0x3df05440	0.117348194
199	0xbdc7fb34	-0.0976471
200	0x3e0b74f5	0.13618834
201	0x3d24c739	0.040229056
202	0x3dd8fe5f	0.105953924
203	0x3bde936e	0.0067924773
204	0x3c8e078c	0.017337583
205	0xbd7b3036	-0.061325274
206	0x3cad9c4b	0.02119269
207	0x3e152123	0.14563422
208	0xbd9eb407	-0.07749181
209	0xbcee1602	-0.029063229
210	0xbe28d7e2	-0.16488603
211	0xbda9acb3	-0.08284893
212	0x3c0e63a3	0.008690747
213	0xbdd50408	-0.104011595
214	0xbe0bea9a	-0.13663712
215	0x3d67faeb	0.05663578
216	0xbe32e9cb	-0.17471997
217	0x3d634eb7	0.05549499
218	0xbe6f867b	-0.23391144
219	0x3e0f11d9	0.13971652
220	0xbdc53a58	-0.09630269
221	0xbdf971f7	-0.1217994
222	0x3d9bed17	0.07613581
223	0xbe90f9cd	-0.28315583
224	0xbe426f83	-0.18987851
225	0xbcd00b9d	-0.025396163
226	0x3c24275f	0.010019152
227	0xbe05256c	-0.13002557
228	0xbd15ab99	-0.0365406
229	0xbd33a6df	-0.043860313
230	0xbd4f85fe	-0.050664894
231	0xbe00a074	-0.12561208
232	0x3ccca7d8	0.024982378
233	0x3da2cb5b	0.07948943
234	0x3d78ce58	0.06074366
235	0xbd262a73	-0.040567826
236	0xbc9c0b80	-0.019048452
237	0xbe3188fd	-0.17337413
238	0x3e9d7266	0.30751342
239	0xbdb94f23	-0.09048297
240	0xbdede487	-0.11615854
241	0xbd835f95	-0.06414715
242	0xbe484a8c	-0.19559687
243	0xbd235d49	-0.039883886
244	0xbdb2edb5	-0.08736745
245	0x3dc8b2b2	0.097997084
246	0xbcbdd6f2	-0.023173783
247	0xbca6f49e	-0.020380314
248	0xbc66d6b0	-0.014089271
249	0x3e4122f5	0.18860991
250	0x3e39a67e	0.18129918
251	0xbe0cd5a8	-0.13753378
252	0x3d137f79	0.03601024
253	0x3ca25921	0.01981789
254	0x3d430a36	0.04761716
255	0xbd9324e1	-0.071847685

network.2.conv.0.bias f4 [128]
0	0xbe3d4c0b	-0.1848604
1	0x3d12497b	0.035714608
2	0xbde2472f	-0.110487334
3	0x3e122d90	0.14275193
4	0xbdcfb284	-0.10141471
5	0xbe2535c8	-0.16133797
6	0x3e1dea58	0.15421426
7	0x3d96e49c	0.073678225
8	0xbd60bcf7	-0.05486771
9	0x3d3466a0	0.044043183
10	0x3d2d766d	0.042349268
11	0x3dc1d77a	0.09464927
12	0x3d369db2	0.044583984
13	0x3e2c245e	0.16810748
14	0xbc3b13dd	-0.01141831
15	0x3daa1085	0.08303932
16	0x3dab6a28	0.08369857
17	0xbc850dab	-0.016241869
18	0xbd780d0c	-0.060559317
19	0xbe72ec94	-0.2372306
20	0xbdbe0481	-0.09278203
21	0x3baf1232	0.005342745
22	0x3d397d19	0.045285318
23	0xbd87de6b	-0.0663422
24	0xbc66816a	-0.014068941
25	0xbddb5b8f	-0.10710823
26	0x3d6dfd9e	0.058103196
27	0xbdb976dd	-0.090558745
28	0xbd6afe68	-0.057371527
29	0x3d144df7	0.036207166
30	0x3e2f8264	0.17139584
31	0xbe195cc0	-0.14976788
32	0xbcfee808	-0.0311165
33	0xbe4b0f7e	-0.19830129
34	0xbc5a0821	-0.013307602
35	0x3cb8c5a9	0.02255519
36	0xbbacb2c2	-0.005270333
37	0xbe3ab7bb	-0.1823415
38	0x3d5660ef	0.052338537
39	0xbcb169a7	-0.021656824
40	0xbda6d1b7	-0.08145469
41	0x3d0d2c45	0.034466047
42	0x3d404110	0.04693705
43	0xbdabee4b	-0.0839506
44	0xbdd67602	-0.10471727
45	0x3d5ee412	0.054416724
46	0x3daf98a9	0.085740395
47	0xbd6ac941	-0.057320837
48	0xbe204651	-0.15651824
49	0x3d3e48c8	0.04645613
50	0xbaef8eb9	-0.0018276788
51	0x3d60673d	0.054785956
52	0xbdac5d14	-0.08416191
53	0x3dcd68f6	0.10029785
54	0x3b852906	0.0040637283
55	0x3dad8319	0.084722705
56	0x3d187711	0.037222926
57	0x3cf4f625	0.029902527
58	0xbe10c10f	-0.14136146
59	0xbe7c9a47	-0.24668227
60	0xbe85cf1b	-0.2613457
61	0x3b07b07e	0.0020704563
62	0xbd8196bc	-0.063275784
63	0x3e2f62dc	0.17127556
64	0x3d64516b	0.05574171
65	0x3e1206d9	0.14260425
66	0xbdfd284b	-0.12361201
67	0x3e3fb20d	0.18720265
68	0xbbbe34d4	-0.0058046374
69	0x3c988504	0.018618114
70	0xbd4bbfb4	-0.04974337
71	0xbdbbd1a1	-0.09170843
72	0x3e449b8f	0.19199966
73	0x3d15eb5c	0.03660141
74	0x3dcd3f82	0.10021879
75	0x3cf6bbe7	0.030118896
76	0xbdf6d2a2	-0.12051894
77	0x3dad1b3f	0.084524624
78	0x3dc361a0	0.09540105
79	0x3d88fffb	0.066894494
80	0xbbedd39d	-0.0072578923
81	0xbe2443c4	-0.16041476
82	0xbc6f4629	-0.01460413
83	0x3e2d8497	0.1694511
84	0xbc50b83f	-0.01273924
85	0x3cea4c43	0.028600818
86	0xbda0e4fa	-0.07856174
87	0x3e055dd7	0.13024078
88	0x3d3d72ad	0.04625194
89	0x3ddef1e1	0.108859785
90	0x3caac848	0.020847455
91	0xbe5a8296	-0.21338877
92	0xbe0578b5	-0.13034327
93	0xbd9f1ec2	-0.077695385
94	0x3cb5380b	0.02212145
95	0xbce0b930	-0.027432054
96	0xbc723eec	-0.01478551
97	0xbe012302	-0.1261101
98	0x3ddae592	0.10688318
99	0x3dfd0c75	0.123558916
100	0xbdaf4044	-0.085571796
101	0xbd78f7f5	-0.060783345
102	0x3a8cccfd	0.0010742244
103	0x3dd53584	0.10410598
104	0xbb99b8e0	-0.0046912283
105	0x3d7040c9	0.058655534
106	0xbdb5487d	-0.08851717
107	0x3d14eb66	0.036357306
108	0xbe67e753	-0.22646837
109	0xbe0602b8	-0.13086975
110	0xbe3db841	-0.18527319
111	0x3d81a076	0.063294336
112	0xbb3ae026	-0.002851495
113	0x3ce4d839	0.027935134
114	0x3cb2267c	0.021746866
115	0xbe0ea570	-0.13930297
116	0xbe496f62	-0.19671395
117	0xbe03d8a5	-0.12875612
118	0xbd866440	-0.0656209
119	0xbc1e333b	-0.009655769
120	0x3d1874a1	0.0372206
121	0xbe8d5db6	-0.27610558
122	0x3c745528	0.014912881
123	0xbe37be42	-0.17943671
124	0xbd4b59a0	-0.04964602
125	0xbe3a0b5b	-0.18168394
126	0x3d530cb5	0.05152579
127	0xbd2562d6	-0.04037746

network.3.weight f4 [2, 128]
0	0xbd2bd9b2	-0.041955657
1	0x3d4cd0ae	0.0500037
2	0xbe2030f7	-0.15643679
3	0x3cfd6c42	0.03093541
4	0x3c72e701	0.014825583
5	0xbe24d9d0	-0.16098714
6	0x3e3276e5	0.17428167
7	0xbd4d0436	-0.050052844
8	0x3d5f8c9b	0.05457745
9	0x3da2ef34	0.079557806
10	0x3d11854f	0.035527524
11	0xbcc3a5e7	-0.02388282
12	0x3dd735be	0.105082974
13	0xbd494f54	-0.04914792
14	0xba1e6bda	-0.0006043293
15	0xbd198c51	-0.03748733
16	0xbe12ad6c	-0.14323968
17	0x3cbfcb47	0.02341236
18	0xbe0bfdee	-0.13671085
19	0x3e133111	0.14374186
20	0x3c416f4c	0.01180632
21	0x3cdf00fe	0.027222153
22	0x3c9628ce	0.018330004
23	0xbde9e8e0	-0.114213705
24	0x3e3b241a	0.1827549
25	0xbe0dd291	-0.13849856
26	0xbb879154	-0.0041371975
27	0x3ccde02b	0.025131306
28	0xbc67a085	-0.014137392
29	0x3da65344	0.081213504
30	0x3ca915c6	0.020640265
31	0x3d8e3693	0.06944003
32	0x3deb29e7	0.114826016
33	0xbe46b159	-0.1940359
34	0x3d215a66	0.03939285
35	0x3e3dbbef	0.18528722
36	0x3d3ab293	0.045580458
37	0xbe85a8e9	-0.2610543
38	0xbe5b2c08	-0.21403515
39	0xbdefa415	-0.11701218
40	0x3e07ff53	0.13280992
41	0x3b852124	0.0040627886
42	0xbb5051a1	-0.0031786936
43	0xbbfdc258	-0.007744115
44	0x3d9c21d0	0.07623637
45	0xbd9d6a9f	-0.07686352
46	0x3ddf5cf1	0.10906399
47	0x3d05c4d9	0.03265843
48	0xbe2eed44	-0.17082697
49	0xbd3fbe66	-0.046812437
50	0x3d85332f	0.06503903
51	0x3dd48381	0.10376645
52	0x3e05bad7	0.13059555
53	0xbd508e62	-0.050917037
54	0xbd1e5ff2	-0.03866572
55	0xbe2ada4a	-0.16684833
56	0x3d3446ea	0.04401294
57	0xbd4542b3	-0.048159312
58	0x3de8cac5	0.113668
59	0xbd6a6d93	-0.057233404
60	0xbcb39ec9	-0.0219263
61	0x3def2950	0.116778016
62	0xbd0b8b5a	-0.034068443
63	0xbe02d514	-0.12776595
64	0x3e566b24	0.20939308
65	0xbd7a248f	-0.06107002
66	0x3d04f6a9	0.032461796
67	0xbe2905f7	-0.16506182
68	0x3d4196f5	0.047263104
69	0x3de1fb7b	0.11034294
70	0xbe07c265	-0.1325775
71	0x3c0c8141	0.008575738
72	0x3d908753	0.07057061
73	0xbe18eb2a	-0.14933458
74	0x3c96eed0	0.018424422
75	0x3e319610	0.173424
76	0xbd94030c	-0.07227144
77	0xbc93cd43	-0.018042212
78	0x3964574e	0.00021776298
79	0x3d267a07	0.040643718
80	0xbb16b746	-0.0022997423
81	0xbcfc60ac	-0.030807815
82	0x3d2e7db2	0.04260034
83	0xbbaed452	-0.005335369
84	0x3dfa79fe	0.122302994
85	0x3d5eff6b	0.054442804
86	0x3d3aff02	0.04565335
87	0xbe3d8fdb	-0.18511908
88	0xbca2b266	-0.019860458
89	0x3dadd691	0.08488191
90	0x3d7692ce	0.060198598
91	0x3d2feea8	0.04295221
92	0xbdb4b032	-0.08822669
93	0xbdfb5bb7	-0.122733526
94	0xbcc71b7c	-0.024305098
95	0xbc115964	-0.00887141
96	0xbcdbe371	-0.026841851
97	0x3d2a1b5c	0.04153
98	0xbd50c52e	-0.050969295
99	0x39bad5d3	0.00035635996
100	0x3e0cea23	0.13761191
101	0xbcf67064	-0.030082889
102	0x3e518285	0.20459945
103	0x3c80b48e	0.015711095
104	0x3dea31e0	0.11435294
105	0x3e413420	0.1886754
106	0xbced322a	-0.028954584
107	0xbdb9f096	-0.09079091
108	0x3c7f600f	0.015586867
109	0xbda73149	-0.08163697
110	0xbd676cf3	-0.056500386
111	0x3d86bb73	0.06578722
112	0x3d1eb4fa	0.03874681
113	0x3e2459e5	0.16049917
114	0x3e41e9e8	0.18936884
115	0xbda69682	-0.08134176
116	0x3c8f0011	0.017456086
117	0x3dbb656a	0.091502026
118	0xbd27dc2c	-0.040981457
119	0x3dbcf2d8	0.09226006
120	0x3e08edb3	0.13371925
121	0xbe403e69	-0.18773808
122	0x3e8450b1	0.25842813
123	0xbd8b4775	-0.06800739
124	0x3ddadcc9	0.10686643
125	0xbe4c42e6	-0.19947395
126	0xbc8ffc3a	-0.017576326
127	0x3ccc9a57	0.024975939
128	0xbe2b5615	-0.16732056
129	0x3d913c94	0.070916325
130	0x3d0d9397	0.03456458
131	0xbdf986c0	-0.12183905
132	0x3cf29843	0.02961362
133	0xbe4e13ae	-0.20124695
134	0xbd806edf	-0.06271147
135	0xbcae7864	-0.021297641
136	0xbc2f54da	-0.0107013825
137	0x3d4e8e4d	0.050428677
138	0x3dc3e4ce	0.095651254
139	0xbe1a254f	-0.15053295
140	0x3db6ae5c	0.08919975
141	0xbd05a1d5	-0.03262504
142	0x3b3c1944	0.0028701583
143	0x3cc4f534	0.024042703
144	0xbc34fb80	-0.01104629
145	0x3da64339	0.081182905
146	0xbdfc7eaf	-0.123288505
147	0x3dcea6f3	0.10090437
148	0xbdfd49fb	-0.12367626
149	0x3d93e1da	0.07220812
150	0x3b83bf3a	0.0040205987
151	0x3dafc3af	0.085822456
152	0x3e1a9b32	0.15098265
153	0x3dc35bd8	0.09539002
154	0xbe102316	-0.14075884
155	0xbdc58c13	-0.09645858
156	0x3d811ffd	0.063049294
157	0x3cb54769	0.022128778
158	0xbb2de9a2	-0.002653696
159	0xbd9cc993	-0.07655635
160	0xbde9ef27	-0.11422568
161	0x3e094cee	0.13408253
162	0x3dee8b4b	0.11647662
163	0xbdca3b56	-0.09874599
164	0x3d6e5240	0.05818391
165	0x3cf560ec	0.029953443
166	0x3d0456bf	0.03230929
167	0xbdc26c02	-0.09493257
168	0xbe126447	-0.14296065
169	0x3c1f260b	0.00971366
170	0xbcf76b66	-0.030202579
171	0xbc5d9719	-0.013524794
172	0xbc9a999c	-0.018872075
173	0x3ddb67f4	0.10713187
174	0x3e737e9d	0.23778768
175	0xbd46c5d8	-0.048528522
176	0xbdaa7b23	-0.08324268
177	0xbddbaf21	-0.107267626
178	0x3d666150	0.05624515
179	0x3d1f5f4b	0.038909238
180	0x3dd875df	0.10569357
181	0x3e356800	0.17715454
182	0xba91c3ec	-0.0011121011
183	0x3e0838da	0.13302937
184	0x3d81f8d7	0.063462906
185	0x3d2cfc75	0.04223295
186	0x3dee3b2a	0.116323784
187	0xbe49eb25	-0.19718607
188	0xbd155824	-0.03646101
189	0xbe07eac1	-0.13273145
190	0x3d922cdb	0.07137462
191	0xbe919517	-0.2843406
192	0xbdc87b11	-0.09789098
193	0x3daa2ed7	0.08309715
194	0x3b9210c7	0.0044575664
195	0xbc46e7ab	-0.012140195
196	0x3d919efc	0.07110402
197	0xbe81c1aa	-0.25343066
198	0x3e0017ff	0.12509154
199	0xbcacfb57	-0.021115942
200	0x3dbc525e	0.09195398
201	0xbd401699	-0.04689655
202	0xbd4a3a49	-0.04937199
203	0xbda40435	-0.08008615
204	0x3dc4aef4	0.09603682
205	0x3dfaada1	0.12240148
206	0x3e2121d2	0.15735558
207	0xbdbe42f4	-0.09290114
208	0x3e75613e	0.23962876
209	0xbc5b3d63	-0.013381335
210	0x3b44237f	0.0029928384
211	0x3d80d5b5	0.062907614
212	0x3b20347c	0.0024445346
213	0xbda39b32	-0.079885855
214	0xbe0a46c9	-0.13503565
215	0x3cb76201	0.0223856
216	0xbe091666	-0.1338745
217	0xbe13bbfd	-0.1442718
218	0x3d482d50	0.04887134
219	0x3c531bba	0.0128850285
220	0xbaed9be9	-0.001812813
221	0x3dd607cb	0.10450705
222	0x3dd4a8f6	0.10383789
223	0xbcee05ff	-0.029055594
224	0x3d9a9cf4	0.07549468
225	0x3e3a6c93	0.1820548
226	0x3da6b1fb	0.08139416
227	0xbd849260	-0.06473231
228	0x3d328e0b	0.043592494
229	0x3d800362	0.06250645
230	0xbce242ce	-0.027619746
231	0x3d69f7d2	0.057121105
232	0x3d215b32	0.03939361
233	0xbdd838d2	-0.105577126
234	0x3e0e345c	0.13887161
235	0x3dbc9bf4	0.09209433
236	0x3c59258f	0.013253584
237	0x3d9acea5	0.075589456
238	0x3d6a3273	0.05717702
239	0xbd25af02	-0.040450104
240	0xbdf442a4	-0.11926773
241	0xbe46a93c	-0.19400495
242	0x3d0c549e	0.034260385
243	0xbd7127f7	-0.058876004
244	0x3c184542	0.009293856
245	0x3dce7369	0.100806065
246	0x3e0d8e02	0.13823703
247	0x3d677357	0.05650648
248	0x3db3085f	0.08741831
249	0x3de1cbab	0.11025175
250	0xbe7a6b72	-0.2445505
251	0xbe1506df	-0.14553402
252	0xbd886d47	-0.06661468
253	0xbe1b3055	-0.15155156
254	0xbd3d0b45	-0.046153326
255	0x3df037a0	0.117293596

network.3.bias f4 [2]
0	0xbd2e4bf6	-0.04255291
1	0x3e4f13df	0.20222424
