exomy/config/best_run_no_obstacles405k/checkpoints/345000_policy.pt (torch, 723582 bytes, 13 tensors)

log_std_parameter f4 [2]
-1.2744423 -0.69745845
00000000: ed20 a3bf a38c 32bf

network.0.conv.0.weight f4 [512, 5]
0.2725588 -0.21473697 0.01532722 -0.08139762 0.16602008 0.15831627 0.14663294 0.13346058
-0.07727071 -0.011493034 -0.020090552 0.0072962926 0.010067817 -0.25415552 0.057578485 -0.0007131659
-0.09502046 0.21807644 0.06327737 0.1700941 0.05215973 -0.012371635 0.082452394 0.19275008
0.12581505 0.21579659 0.38518885 0.0026469403 -0.17199655 -0.027814725 -0.28903142 -0.010133862
0.029695366 -0.021665666 -0.060733583 0.0064151688 -0.033481836 0.048419155 0.095090486 -0.073632
0.049012724 -0.4061596 -0.03637828 -0.043788012 -0.020454518 -0.17113322 -0.15236685 -0.2149848
0.031374168 -0.1882414 -0.026078422 0.4100318 0.058454864 0.16959614 0.0029541685 -0.02420109
0.23662591 -0.03636125 0.13806011 -0.07041405 0.24286279 -0.088347845 0.08233131 0.031247731
0.12752973 0.20004874 -0.3198551 -0.0037928878 0.1953302 0.008031695 -0.120502286 0.0132547
0.03725752 0.08333093 0.15233283 -0.1753953 0.38034627 0.0329179 0.15718366 -0.033174805
0.18301979 0.51428366 0.039722037 -0.14921504 0.1479129 -0.15919688 0.093042746 0.06659269
-0.11468522 0.048407566 0.26153487 0.16281244 -0.05663405 0.009422096 0.036050748 -0.41576293
-0.33300254 -0.027871693 0.051687278 -0.037449095 -0.15960835 0.07054313 -0.12288652 -0.015914375
0.078033246 -0.32449678 0.25398764 -0.057619736 -0.26309672 0.22361313 -0.050726254 -0.09271719
0.059594918 0.04703897 -0.008841028 -0.17494774 0.3398101 -0.014491604 0.006882187 -0.042142436
0.3428185 0.06885885 0.12309187 -0.018210288 -0.114848815 -0.19426076 -0.42739928 -0.016626468
0.075447835 -0.06718121 -0.38308302 0.0448801 0.120087355 -0.03159792 -0.016568763 -0.38140684
0.42709583 -0.056151886 -0.08796703 -0.07044875 0.170388 0.08869401 0.010139546 0.14683022
-0.014895785 0.016761288 0.29566234 0.07149794 0.057883576 -0.037817843 -0.20611927 0.1454695
0.00501489 -0.15435499 -0.20488887 -0.29371798 -0.24114999 0.118632145 0.06862063 -0.13136673
-0.26961565 -0.19738801 -0.0022012247 -0.17049055 0.09714167 -0.26478282 -0.015074144 -0.0064376085
0.018989697 -0.091203235 -0.0131461695 0.43349692 0.021432951 -0.030061716 -0.030052891 0.2998715
0.06551886 0.054245397 -0.07173431 -0.06972628 -0.27255255 0.45792213 -0.051297687 -0.13024834
0.21988826 0.3789211 0.026821839 -0.021104027 0.059964772 0.01617409 -0.12821582 -0.23323365
0.05774483 -0.02804018 0.031024693 -0.0493339 -0.6359845 -0.060380813 -0.045860913 0.12857871
0.036287922 0.30021238 0.026325062 0.11145258 0.022049593 -0.16207778 -0.3179863 0.0037908563
-0.115769625 -0.07639931 -0.1001442 -0.31258014 -0.027828697 -0.039272424 -0.20591998 0.2994766
0.44534096 0.002610842 -0.07323273 0.11002427 -0.32277614 -0.13088167 0.119223475 0.08968595
-0.18027902 0.082136184 0.11613808 0.028843692 -0.070865616 0.07980679 0.3624892 -0.21703972
-0.008466053 -0.07398012 -0.12229297 0.3116188 -0.08813003 -0.0031829004 -0.06389576 0.07488472
-0.10773548 0.16785143 0.022538716 -0.10554282 -0.064583145 -0.30310172 -0.3643454 -0.007029321
-0.06379356 -0.045598876 0.21616082 0.3527862 0.10387507 -0.18588334 -0.22218166 0.23973773
00000000: d48c 8b3e 02e4 5bbe 051f 7b3c ccb3 a6bd
00000010: 2b01 2a3e a91d 223e f226 163e e4a9 083e
00000020: 1b40 9ebd 474d 3cbc f194 a4bc bd15 ef3b
00000030: 7cf3 243c ac20 82be 6bd7 6b3d c1f3 3aba
00000040: 169a c2bd 6e4f 5f3e 9197 813d 262d 2e3e
00000050: 71a5 553d 66b2 4abc cddc a83d 4760 453e
00000060: a9d5 003e c8f9 5c3e 7937 c53e 4a78 2d3b
00000070: dd1f 30be b5db e3bc edfb 93be 7f08 26bc
00000080: b243 f33c 327c b1bc c7c3 78bd 5636 d23b
00000090: 4024 09bd 2a53 463d cdbe c23d 60cc 96bd
000000a0: 91c1 483d 27f4 cfbe 6401 15bd 0f5b 33bd
000000b0: 3c90 a7bc 8c3d 2fbe 0e06 1cbe fa24 5cbe
000000c0: 3382 003d 5bc2 40be 6aa2 d5bc b0ef d13e
000000d0: 5e6e 6f3d 9caa 2d3e b99a 413b 5d41 c6bc
000000e0: 104e 723e 89ef 14bd a15f 0d3e 3e35 90bd
000000f0: 06b1 783e b7ef b4bd 519d a83d 3efb ff3c
00000100: 2797 023e 94d9 4c3e 0cc4 a3be 1992 78bb
00000110: a404 483e 5f97 033c e7c9 f6bd 3e2a 593c
00000120: 579b 183d 68a9 aa3d 23fd 1b3e d39a 33be
00000130: bfbc c23e ebd4 063d c1f4 203e 4ee2 07bd
00000140: 8a69 3b3e 18a8 033f 93b3 223d d4cb 18be
00000150: 7b76 173e 8204 23be 328d be3d c061 883d
00000160: 16e0 eabd 0347 463d e6e7 853e 4eb8 263e
00000170: 1bf9 67bd 235f 1a3c f3a9 133d e1de d4be
00000180: 4f7f aabe 2d53 e4bc 0ab6 533d 3964 19bd
00000190: 5f70 23be eb78 903d eeab fbbd dd5e 82bc
000001a0: e5cf 9f3d 7124 a6be ab0a 823e ac02 6cbd
000001b0: 9db4 86be d7fa 643e 55c6 4fbd 83e2 bdbd
000001c0: cd19 743d efab 403d f6d9 10bc 8025 33be
000001d0: 97fb ad3e 316e 6dbc f883 e13b 8c9d 2cbd
000001e0: e885 af3e de05 8d3d 9717 fc3d be2d 95bc
000001f0: db35 ebbd 4bec 46be 14d4 dabe 3b34 88bc
00000200: 6584 9a3d 4d96 89bd 7523 c4be 32d4 373d
00000210: 5cf0 f53d d26c 01bd 37bb 87bc c247 c3be
00000220: 4eac da3e 85ff 65bd 0f28 b4bd 6f47 90bd
00000230: 317a 2e3e 35a5 b53d 5720 263c a95a 163e
00000240: 730d 74bc f84e 893c 0e61 973e 836d 923d
00000250: 5417 6d3d e2e6 1abd ee10 53be f5f5 143e
00000260: f253 a43b 3c0f 1ebe 63ce 51be 3462 96be
00000270: 06f0 76be 69f5 f23d f988 8c3d 0085 06be
00000280: 100b 8abe 1520 4abe 6c42 10bb 1395 2ebe
00000290: 36f2 c63d 9d91 87be 8bf9 76bc 93f2 d2bb
000002a0: 4890 9b3c c3c8 babd 0863 57bc 4ff3 dd3e
000002b0: 2894 af3c fd43 f6bc 7b31 f6bc c288 993e
000002c0: c12e 863d 6c30 5e3d 70e9 92bd a7cc 8ebd
000002d0: 028c 8bbe c574 ea3e 861d 52bd d25f 05be
000002e0: 632a 613e f201 c23e 79b9 db3c 5ae2 acbc
000002f0: 9f9d 753d 867f 843c 024b 03be cdd4 6ebe
00000300: d885 6c3d 85b4 e5bc 7f27 fe3c 5812 4abd
00000310: e1cf 22bf df51 77bd a7d8 3bbd 23aa 033e
00000320: a5a2 143d 70b5 993e a8a7 d73c 4041 e43d
00000330: 59a1 b43c b8f7 25be 1acf a2be 0470 783b
00000340: a018 edbd 3e77 9cbd 6718 cdbd 810a a0be
00000350: 02f9 e3bc 1fdc 20bd b0dc 52be ff54 993e
00000360: bb03 e43e a91a 2b3b 0bfb 95bd 6854 e13d
00000370: ea42 a5be d805 06be 702b f43d 44ad b73d
00000380: 109b 38be 0437 a83d cdd9 ed3d 9b49 ec3c
00000390: fe21 91bd be71 a33d 2f98 b93e a93f 5ebe
000003a0: 33b5 0abc e482 97bd bd74 fabd 808c 9f3e
000003b0: 847d b4bd 3598 50bb c8db 82bd 295d 993d
000003c0: 6ba4 dcbd 3fe1 2b3e 1da3 b83c d626 d8bd
000003d0: 2b44 84bd 2630 9bbe 7b8b babe 3856 e6bb
000003e0: 33a6 82bd e3c5 3abd 4359 5d3e 65a0 b43e
000003f0: 74bc d43d 3458 3ebe 9783 63be cf7d 753e

network.0.conv.0.bias f4 [512]
0.08007293 -0.18170427 -0.07286315 -0.044075023 -0.31124783 0.029607896 -0.17329386 -0.19898914
0.119453065 -0.032557584 -0.06232661 -0.0037075498 -0.10814885 0.033829957 -0.086717315 0.08269725
-0.014147774 -0.14271137 0.009324467 0.07461773 0.15030679 0.05052408 -0.14437106 0.04026999
0.14779724 0.07019003 0.0019685584 0.044407632 -0.15909581 -0.10260919 0.012163976 -0.12918884
0.1291159 0.005690503 0.03819922 -0.0070130476 0.013160461 -0.029082617 -0.021377344 0.033532724
0.08841312 0.12134421 -0.12643464 0.039492395 -0.1797286 0.12386128 0.028827505 -0.06953143
0.01893152 0.09394715 -0.07522782 0.034559593 0.051847436 0.122378565 0.073943846 0.1462701
-0.005607827 -0.008338011 0.031093365 -0.20671831 0.07626504 0.015467864 0.17407948 0.0765003
0.21206965 -0.02309781 0.0721883 0.061069675 -0.06754337 0.09843886 -0.006035777 0.026695043
-0.07638184 -0.033813953 -0.10784768 -0.0070361877 -0.15846004 -0.0016365314 -0.04630939 -0.21788475
0.06869644 0.05206084 -0.029423943 0.18536647 0.1611181 0.033155754 0.072676 -0.03935249
-0.0064327405 -0.18151493 0.02114192 -0.14028046 0.055105317 -0.25258583 -0.06464957 0.06572303
0.12468285 0.1252136 -0.03981236 -0.015527272 0.08960206 0.06570071 0.12656634 -0.1589516
0.031361524 0.032189425 -0.046623256 -0.04944823 -0.086201794 -0.10105732 -0.01111596 0.019446315
-0.07410077 0.11009431 0.0077863303 -0.14742354 0.06999258 -0.050658956 0.032581728 0.04210236
-0.08429825 -0.006332211 0.08919855 -0.0051133297 -0.17525345 -0.15288755 -0.17254865 0.082024775
-0.10387745 0.08902179 0.018116446 -0.1456124 -0.03561682 0.0260115 0.027993485 0.027593896
0.008663163 -0.0023357493 0.023685275 0.009063683 -0.17059572 -0.19735147 0.064156935 -0.08830905
-0.036099683 -0.013830903 -0.0621495 -0.11887675 0.048955716 -0.013884868 -0.009080204 -0.002486188
-0.20127861 -0.053641956 -0.1318616 0.089694254 -0.008898506 0.05502432 -0.060434327 -0.10852611
-0.06583462 0.012008392 -0.09138779 0.1867593 -0.07557635 -0.0065105497 0.027503751 0.19665991
0.018012373 -0.2384994 -0.053984303 -0.17965142 0.2091179 -0.1893236 -0.098039396 -0.07624424
-0.010485403 -0.02122346 0.007092335 -0.006821498 -0.039575364 0.08871617 -0.062319614 -0.21995164
-0.15245147 0.059207357 -0.060717877 -0.18740351 0.10505166 -0.18408383 0.08454144 -0.13000715
-0.15253589 -0.16427398 -0.06833598 0.13419782 -0.15402797 0.04542775 -0.006824056 -0.043118972
0.041632954 -0.2514276 0.019441182 -0.037180208 -0.024573838 0.027264321 0.041205116 -0.13611048
-0.1474032 -0.13255262 -0.26055083 -0.1955816 -0.06984941 -0.07287438 0.074325785 0.112588584
0.11634607 0.090334505 0.072605975 -0.13344494 -0.06740243 -0.07028355 -0.17071952 -0.2474477
-0.17447838 0.056443326 -0.041312974 -0.10173483 -0.15375552 0.036041807 -0.16342938 -0.0049556606
-0.21533027 0.08555436 -0.17047568 -0.1940317 0.10859085 -0.013087433 -0.1328764 0.02884693
0.008550088 0.052082542 -0.18795009 -0.026711311 0.014892921 -0.038368836 0.027572658 0.04482433
0.031245058 -0.16971587 0.019932998 -0.10763825 -0.0018750952 -0.0053952616 -0.1289271 -0.12289632
00000000: 47fd a33d af10 3abe 4639 95bd 0388 34bd
00000010: e05b 9fbe 428c f23c f273 31be cfc3 4bbe
00000020: cfa3 f43d 1a5b 05bd 304a 7fbd 5dfa 72bb
00000030: 257d ddbd 4891 0a3d d998 b1bd 2d5d a93d
00000040: 11cc 67bc ee22 12be a6c5 183c 2ed1 983d
00000050: 06ea 193e 56f2 4e3d 02d6 13be 25f2 243d
00000060: 2958 173e cabf 8f3d ee02 013b c7e4 353d
00000070: 03ea 22be c424 d2bd 6a4b 473c 144a 04be
00000080: f536 043e 6677 ba3b c976 1c3d b5cd e5bb
00000090: f99e 573c ab3e eebc 8a1f afbc 9c59 093d
000000a0: f011 b53d 5083 f83d 1578 01be c7c2 213d
000000b0: c60a 38be fcaa fd3d a927 ec3c 7f66 8ebd
000000c0: 4616 9b3c 5d67 c03d 0b11 9abd 5c8e 0d3d
000000d0: fa5d 543d 9da1 fa3d df6f 973d d4c7 153e
000000e0: ddc1 b7bb 279c 08bc 83b7 fe3c f7ad 53be
000000f0: d830 9c3d ed6c 7d3c e441 323e 30ac 9c3d
00000100: c928 593e 9e37 bdbc 76d7 933d 3224 7a3d
00000110: 2e54 8abd 509a c93d c4c7 c5bb 90af da3c
00000120: 156e 9cbd 8080 0abd 3fdf dcbd d28f e6bb
00000130: 5943 22be e280 d6ba eaae 3dbd 2e1d 5fbe
00000140: b8b0 8c3d bf3d 553d 7b0a f1bc b5d0 3d3e
00000150: 25fc 243e 54ce 073d 28d7 943d 1430 21bd
00000160: bdc9 d2bb 0ddf 39be d231 ad3c aea5 0fbe
00000170: 1db6 613d ee52 81be fe66 84bd cc99 863d
00000180: b959 ff3d fe37 003e 4912 23bd 1966 7ebc
00000190: 4981 b73d 188e 863d 9b9a 013e 35c4 22be
000001a0: f174 003d 0fd9 033d 07f8 3ebd 3a8a 4abd
000001b0: 918a b0bd 24f7 cebd b71f 36bc e14d 9f3c
000001c0: 25c2 97bd 2079 e13d 7924 ff3b 32f6 16be
000001d0: 4558 8f3d c47f 4fbd 6b74 053d 8673 2c3d
000001e0: 90a4 acbd 707e cfbb bbad b63d b88d a7bb
000001f0: a475 33be 8e8e 1cbe 98b0 30be 9bfc a73d
00000200: b3bd d4bd 0e51 b63d f168 943c 6b1b 15be
00000210: f1e2 11bd 1216 d53c 9852 e53c 980c e23c
00000220: f0ef 0d3c 5f13 19bb 9f07 c23c d87f 143c
00000230: a5b0 2ebe 8116 4abe b664 833d 60db b4bd
00000240: 43dd 13bd 039b 62bc 7990 7ebd a775 f3bd
00000250: ca85 483d 5b7d 63bc 23c5 14bc 50ef 22bb
00000260: fb1b 4ebe abb7 5bbd ba06 07be 9fb1 b73d
00000270: 0acb 11bc 2e61 613d fc89 77bd f042 debd
00000280: 4dd4 86bd d9be 443c 8629 bbbd d43d 3f3e
00000290: c6c7 9abd 7356 d5bb 8c4f e13c 3761 493e
000002a0: af8e 933c 3039 74be a51e 5dbd 8bf6 37be
000002b0: 0123 563e 0cde 41be e1c8 c8bd f125 9cbd
000002c0: f8ca 2bbc d2dc adbc d166 e83b df86 dfbb
000002d0: c719 22bd d3b0 b53d da42 7fbd 013b 61be
000002e0: 3d1c 1cbe 6a83 723d 4fb3 78bd b5e6 3fbe
000002f0: 5325 d73d 7980 3cbe 1024 ad3d 9820 05be
00000300: 5e32 1cbe 7037 28be bcf3 8bbd 276b 093e
00000310: 82b9 1dbe 7312 3a3d 559c dfbb 859d 30bd
00000320: 5187 2a3d 1ebb 80be 1d43 9f3c 464a 18bd
00000330: 134f c9bc 6d59 df3c b2c6 283d 8c60 0bbe
00000340: ddf0 16be e0bb 07be eb66 85be 8b46 48be
00000350: 350d 8fbd 2a3f 95bd 1e38 983d d894 e63d
00000360: d946 ee3d 4c01 b93d 71b2 943d caa5 08be
00000370: 490a 8abd d2f0 8fbd 19d1 2ebe ee62 7dbe
00000380: 76aa 32be 1e31 673d cb37 29bd 5a5a d0bd
00000390: 1672 1dbe 93a0 133d 085a 27be 1863 a2bb
000003a0: 8a7f 5cbe 2037 af3d 2d91 2ebe 3fb0 46be
000003b0: e164 de3d ac6c 56bc c010 08be 6650 ec3c
000003c0: ab15 0c3c 8154 553d fd75 40be aed1 dabc
000003d0: 7001 743c a428 1dbd 0ee0 e13c b799 373d
000003e0: a3f5 ff3c ffc9 2dbe 874a a33c 7171 dcbd
000003f0: c1c5 f5ba bcca b0bb 7705 04be 11b1 fbbd

network.1.conv.0.weight f4 [256, 512]
0.04137921 -0.16296373 -0.054036535 0.043028362 -0.0017343158 -0.07243052 -0.1476205 -0.044690985
-0.0020776696 -0.09232318 -0.17047852 0.06428562 0.15185016 -0.039855037 -0.09239694 0.35197267
-0.2180331 0.0068658986 0.02329328 0.1914593 0.11011796 0.2713546 0.08054238 0.02237404
0.16770089 -0.05868329 0.20554046 0.13263401 -0.12230225 -0.026833512 -0.14948407 -0.014287185
0.12242075 0.025382182 0.029767143 0.067917526 -0.06613184 -0.21112525 -0.017366162 -0.23764579
0.036396127 0.29597828 -0.020035794 -0.32691345 0.09758132 -0.04858886 -0.10400506 -0.13202417
0.039834607 0.010640704 0.038585074 -0.055549923 0.14629297 0.07380001 0.30127522 -0.03321008
-0.29534304 -0.22048892 -0.17802459 -0.38058874 -0.03943558 0.12486498 -0.017767759 -0.025656486
0.01993183 -0.25155455 -0.04203861 0.043844886 -0.062218055 0.028025966 0.124589376 -0.029635897
0.06910908 0.29763868 -0.051862545 -0.19413929 -0.20673303 0.011272839 0.10184891 0.12937675
0.027648408 -0.098398924 -0.22304069 0.13899693 -0.10788413 0.10751245 -0.23185544 -0.050400358
0.17155989 0.2500801 0.22586443 0.107583515 0.33580577 -0.24821335 0.06874285 0.017215088
-0.076543026 0.14965062 -0.061478857 -0.16296026 0.11173719 0.0066974736 0.07299181 -0.15610053
0.22572832 -0.026393408 -0.15212569 0.0074620917 0.25438866 0.12594476 0.2337724 0.05010729
0.00086176855 0.12316319 0.2628291 -0.15076646 0.08781345 -0.1415615 -0.09023162 0.048706856
-0.06787294 0.23107502 -0.08805519 -0.040271148 -0.13947889 -0.32384124 -0.3478484 0.010557887
0.028107403 -0.008716115 0.20683846 -0.00054475025 -0.022820821 -0.018495016 -0.098553464 0.05845847
0.03992268 0.07924111 0.007427944 0.015125307 0.027634254 0.033790793 -0.21852681 0.119901486
0.04403994 -0.091482215 -0.1233492 -0.057754908 0.18337826 -0.06264236 0.017711293 0.0029802606
0.059523445 0.16939624 0.004826682 0.035648707 0.19819205 0.10735684 -0.12049163 0.006933202
0.0027215858 0.018262098 0.02341046 0.06043716 -0.114326775 0.1867312 0.10603088 0.12046996
-0.021131242 -0.0826396 -0.018239047 -0.12877353 0.1590927 -0.049826052 0.05313363 -0.15474889
-0.053579796 0.17938873 0.08505044 -0.00957275 -0.100007996 -0.0034986404 0.023246089 -0.168505
-0.21713457 0.095409356 0.06521167 -0.09750608 -0.009744873 0.06668982 0.053901266 -0.21169782
-0.2709369 0.026490446 0.060685877 0.02492078 0.107586965 -0.035444345 0.14742917 -0.05035971
-0.03722955 -0.15311167 -0.011422097 -0.08709006 0.07309254 0.097243786 0.16207866 -0.4640032
0.035872262 -0.27232915 0.0049830833 -0.14504966 0.08667565 0.01775082 -0.019226622 0.05116788
0.07559888 0.14181732 0.07688777 0.04114989 0.06320768 0.0132877575 -0.11548442 -0.009326772
-0.1453527 0.018826118 0.077928536 -0.22584209 -0.17936139 -0.12709506 -0.017422065 0.09227242
-0.019732816 0.028960675 -0.026244987 0.0032370677 0.02259322 0.021861184 -0.09023962 0.045965683
0.05452593 0.13017365 -0.098124325 0.0881983 -0.06348377 -0.10870949 0.045821678 -0.11175303
-0.020584894 -0.36297214 0.05578954 -0.1328584 0.2150002 -0.13803117 -0.06390121 0.042609666
00000000: 3f7d 293d f7df 26be 6a55 5dbd 823e 303d
00000010: fb51 e3ba 7456 94bd d429 17be e50d 37bd
00000020: 8329 08bb ef13 bdbd ec91 2ebe 2ea8 833d
00000030: 9c7e 1b3e 093f 23bd 9b3a bdbd c335 b43e
00000040: 1244 5fbe 55fb e03b 8cd1 be3c e80d 443e
00000050: 8685 e13d fdee 8a3e 67f3 a43d c349 b73c
00000060: c8b9 2b3e e45d 70bd 3379 523e 36d1 073e
00000070: 9a79 fabd f4d1 dbbc 5a12 19be cc14 6abc
00000080: bbb7 fa3d 4bee cf3c 39da f33c 5818 8b3d
00000090: 2170 87bd 3831 58be 7b43 8ebc 6b59 73be
000000a0: 1b14 153d 778a 973e 1b22 a4bc 3361 a7be
000000b0: b7d8 c73d 1d05 47bd 9b00 d5bd 5831 07be
000000c0: 9d29 233d 5956 2e3c 620b 1e3d 5188 63bd
000000d0: d3cd 153e 7624 973d bf40 9a3e 4b07 08bd
000000e0: 3437 97be d9c7 61be 144c 36be 87dc c2be
000000f0: 3487 21bd 36b9 ff3d b18d 91bc 8d2d d2bc
00000100: 1448 a33c c2cb 80be ad30 2cbd b296 333d
00000110: 5cd8 7ebd b696 e53c b728 ff3d fbc6 f2bc
00000120: 1089 8d3d 1964 983e d26d 54bd 73cc 46be
00000130: d3b1 53be b7b1 383c 2996 d03d 577b 043e
00000140: ea7e e23c 6085 c9bd c764 64be 3655 0e3e
00000150: 5bf2 dcbd 7d2f dc3d 836b 6dbe 9b70 4ebd
00000160: 65ad 2f3e 800a 803e 0149 673e bf54 dc3d
00000170: bcee ab3e a42b 7ebe 0dc9 8c3d a806 8d3c
00000180: 97c2 9cbd 033e 193e 41d1 7bbd 0edf 26be
00000190: 78d6 e43d 7b76 db3b bb7c 953d d1d8 1fbe
000001a0: 5325 673e fd36 d8bc d6c6 1bbe 9084 f43b
000001b0: 3b3f 823e aaf7 003e 0862 6f3e 4d3d 4d3d
000001c0: 4fe8 613a fc3c fc3d 8991 863e 8662 1abe
000001d0: 8ad7 b33d 7ff5 10be 5bcb b8bd d780 473d
000001e0: f800 8bbd ee9e 6c3e 4856 b4bd 5cf3 24bd
000001f0: 8ed3 0ebe 85ce a5be 2f19 b2be fdfa 2c3c
00000200: 7f41 e63c 09ce 0ebc 76cd 533e 92cd 0eba
00000210: bbf2 babc dc82 97bc 66d6 c9bd 2672 6f3d
00000220: f785 233d 2a49 a23d 1c66 f33b 23d0 773c
00000230: 3b61 e23c 3768 0a3d 7ec5 5fbe e98e f53d
00000240: 3963 343d 075b bbbd 819e fcbd 6990 6cbd
00000250: 83c7 3b3e a34a 80bd 4617 913c 7a50 433b
00000260: dbce 733d 3576 2d3e 2529 9e3b 6104 123d
00000270: dbf2 4a3e e7dd db3d 51c4 f6bd ea2f e33b
00000280: a25c 323b 659a 953c 4bc7 bf3c f58c 773d
00000290: 2824 eabd 7736 3f3e b826 d93d f4b8 f63d
000002a0: 6d1b adbc f33e a9bd 0e6a 95bc 35dd 03be
000002b0: 32e9 223e 6716 4cbd a6a2 593d 7e76 1ebe
000002c0: 7d76 5bbd aeb1 373e ed2e ae3d 06d7 1cbc
000002d0: fed0 ccbd 7249 65bb 956e be3c 938c 2cbe
000002e0: 8658 5ebe fb65 c33d b28d 853d 45b1 c7bd
000002f0: f6a8 1fbc ac94 883d 93c7 5c3d 50c7 58be
00000300: 3eb8 8abe 7e02 d93c c191 783d aa26 cc3c
00000310: 8e56 dc3d 172e 11bd acf7 163e fc45 4ebd
00000320: 037e 18bd 4ec9 1cbe bf23 3bbc 465c b2bd
00000330: 8bb1 953d c027 c73d f3f7 253e d491 edbe
00000340: cbee 123d ba6e 8bbe 2249 a33b e687 14be
00000350: 0183 b13d 2b6a 913c 2681 9dbc 6995 513d
00000360: 96d3 9a3d 8f38 113e 5677 9d3d c98c 283d
00000370: 0773 813d e5b4 593c 1883 ecbd 51cf 18bc
00000380: 57d7 14be 3b39 9a3c ff98 9f3d 2643 67be
00000390: 83aa 37be 3525 02be b8b8 8ebc 53f9 bc3d
000003a0: b7a6 a1bc f03e ed3c baff d6bc fc24 543b
000003b0: 6b15 b93c 3a16 b33c 8dcf b8bd 8346 3c3d
000003c0: 9556 5f3d 3e4c 053e 68f5 c8bd 4fa1 b43d
000003d0: c703 82bd 15a3 debd 83af 3b3d c6de e4bd
000003e0: a7a1 a8bc 7cd7 b9be 9383 643d 080c 08be
000003f0: 0329 5c3e 0b58 0dbe a3de 82bd 7987 2e3d

network.1.conv.0.bias f4 [256]
-0.041578762 -9.508984e-05 0.040054806 0.013296086 -0.0075565483 0.07284352 0.047310114 0.053835712
-0.07009923 0.05325798 -0.014617669 -0.16150273 0.060026843 -0.13333891 -0.08471902 -0.10075459
-0.06707089 -0.0008453769 0.049320716 -0.17225422 -0.09069392 0.22044 -0.09688619 -0.03753668
-0.074785784 0.0076285363 -0.17001925 0.023997225 -0.14258672 -0.012157277 -0.13468388 0.006030504
-0.07570951 -0.2323366 0.19086616 -0.09668537 -0.19876027 0.0049135187 0.0062519643 -0.044047594
-0.10415182 -0.12677245 -0.21529448 0.07225772 0.022648606 0.02102501 -0.12450237 0.0037373048
-0.055653 0.037986573 -0.061204914 0.08299723 -0.05508825 -0.014647262 -0.083651304 0.0072269314
0.031577315 0.018587388 0.022088729 0.13806646 -0.13830684 -0.067574315 -0.013657776 0.024886668
0.022994896 0.032720532 0.14563817 -0.044739615 -0.032978456 -0.074986696 -0.008525496 -0.08790975
0.054060828 -0.12121873 -0.14026691 -0.010878024 0.0068957205 0.016440026 -0.0046280907 0.20308332
-0.12308714 0.037197214 -0.15361233 0.061637923 -0.17614405 -0.067383766 -0.06286003 -0.048892815
0.076352924 -0.004813563 -0.011579091 0.12768206 0.10582121 0.13813904 -0.02772883 -0.0081292
-0.19081292 -0.051897068 -0.036013793 0.31896046 0.02722593 -0.06871138 0.07302788 -0.17980044
-0.21307476 -0.05753561 0.13315101 -0.17275156 0.033018045 -0.022927903 0.13260083 -0.17246978
0.07431741 0.11586534 -0.10216249 0.07841336 0.05798325 -0.045815654 -0.030797794 0.14212263
0.012901724 -0.028446287 0.12019216 0.100503996 -0.11986346 -0.043737806 0.11345179 -0.24241506
-0.05141865 -0.10911061 -0.16611731 0.040331647 -0.05772213 0.0025519857 0.011187374 -0.013627492
0.041572656 -0.015424646 -0.067217425 -0.022505205 -0.033401255 0.045730513 -0.0225095 0.0050906576
0.052701376 0.005491794 -0.1534888 0.08550646 0.13066162 -0.08327089 -0.047906734 -0.13437313
0.11627177 0.29914805 0.031276736 -0.07063587 0.00024550266 0.037947938 0.010382294 -0.038381137
-0.0033259436 -0.10022892 0.02487096 0.17330973 -0.023914248 0.10569514 -0.00542064 -0.031099128
0.06729191 0.10730132 0.08918624 -0.1348807 0.010778617 -0.20418124 0.04463056 -0.13967901
-0.055552837 -0.09509443 -0.006568556 0.033681337 -0.0030986762 -0.020857072 0.018245101 -0.12640612
-0.01663547 -0.08666037 0.046729103 -0.2398883 -0.06907791 0.13125916 -0.098865315 0.008081678
-0.0656937 -0.124418944 -0.1656374 0.044733338 -0.12573391 0.06364205 0.106845886 -0.09137989
-0.08922736 0.09690324 -0.13865423 0.14416438 -0.03550837 -0.01793361 -0.19318543 -0.1285969
-0.026539065 0.007634836 -0.00091053813 -0.03217618 -0.15196624 0.009431497 0.062173806 0.08349724
-0.15202475 0.025404165 -0.20876771 -0.04298099 0.004684256 -0.13905574 -0.20844053 -0.09233851
0.008405085 0.0077610784 0.0388511 -0.12664573 0.05272681 0.16480085 0.13663845 -0.2002746
-0.048278194 0.14129291 -0.07899364 -0.020657528 -0.023494722 0.029700818 -0.059790835 0.19206297
-0.13819374 0.058730904 -0.12256251 0.017993858 0.21068645 0.040427707 0.0461747 0.0011252684
-0.09650128 -0.011365127 -0.25734267 -0.02648014 0.04663976 0.09129914 -0.07505279 -0.095168434
00000000: 7e4e 2abd f86a c7b8 8210 243d d4d7 593c
00000010: ec9c f7bb fc2e 953d 40c8 413d d682 5c3d
00000020: 2f90 8fbd 0a25 5a3d f37e 6fbc f960 25be
00000030: b5de 753d ff89 08be 2a81 adbd 6c58 cebd
00000040: 765c 89bd 499c 5dba 8504 4a3d 6963 30be
00000050: bcbd b9bd 06bb 613e 446c c6bd 10c0 19bd
00000060: 4a29 99bd cdf8 f93b 8719 2ebe d495 c43c
00000070: 4102 12be 512f 47bc 92ea 09be 899b c53b
00000080: 960d 9bbd a5e9 6dbe 6b72 433e fb02 c6bd
00000090: d087 4bbe 9501 a13b 47dd cc3b 406b 34bd
000000a0: 8d4d d5bd a3d0 01be 2876 5cbe dbfb 933d
000000b0: 9289 b93c a43c ac3c 19fb febd 92ed 743b
000000c0: 66f4 63bd cf97 1b3d 01b2 7abd 74fa a93d
000000d0: 38a4 61bd 12fb 6fbc 6051 abbd e5cf ec3b
000000e0: 3757 013d 9444 983c 6cf3 b43c 4b61 0d3e
000000f0: 4fa0 0dbe 6764 8abd ddc4 5fbc 20df cb3c
00000100: cb5f bc3c f705 063d 2c22 153e e340 37bd
00000110: 6b14 07bd a092 99bd 86ae 0bbc 070a b4bd
00000120: e36e 5d3d 8741 f8bd 21a2 0fbe bd39 32bc
00000130: 7ff5 e13b 3cad 863c 3da7 97bb 13f5 4f3e
00000140: 1c15 fcbd 1b5c 183d 8d4c 1dbe 0c78 7c3d
00000150: 1b5f 34be 8000 8abd c2bc 80bd d543 48bd
00000160: ec5e 9c3d 18bb 9dbb 3ab6 3dbc 16bf 023e
00000170: cab8 d83d 5274 0d3e 9227 e3bc 5630 05bc
00000180: 7664 43be 0592 54bd 3383 13bd c94e a33e
00000190: ea08 df3c 8db8 8cbd a48f 953d 9b1d 38be
000001a0: 4530 5abe 76aa 6bbd bd58 083e c9e5 30be
000001b0: ee3d 073d 4cd3 bbbc 83c8 073e eb9b 30be
000001c0: ba33 983d cf4a ed3d 913a d1bd 2f97 a03d
000001d0: d87f 6d3d 32a9 3bbd a84b fcbc 9888 113e
000001e0: c161 533c 3008 e9bc 4f27 f63d 0ad5 cd3d
000001f0: f97a f5bd 6a26 33bd 6959 e83d a73b 78be
00000200: 5d9c 52bd 6275 dfbd a81a 2abe cc32 253d
00000210: 0a6e 6cbd 373f 273b 3f4b 373c d845 5fbc
00000220: 1748 2a3d a8b7 7cbc 4aa9 89bd d65c b8bc
00000230: c1cf 08bd eb4f 3b3d d865 b8bc 88cf a63b
00000240: 66dd 573d 82f4 b33b 2b2c 1dbe 031e af3d
00000250: 29cc 053e ee89 aabd da39 44bd 1c99 09be
00000260: e51f ee3d ef29 993e 091c 003d 8aa9 90bd
00000270: cfb6 8039 4c6f 1b3d 7f1a 2a3c 8a35 1dbd
00000280: 13f8 59bb d244 cdbd 2fbe cb3c 1b78 313e
00000290: d0e7 c3bc b276 d83d a09f b1bb 99c3 febc
000002a0: 57d0 893d cbc0 db3d 47a7 b63d 2b1e 0abe
000002b0: cc98 303c e314 51be 89ce 363d 0408 0fbe
000002c0: 5f8b 63bd dec0 c2bd 0b3d d7bb 71f5 093d
000002d0: 2913 4bbb 73dc aabc c076 953c 9b70 01be
000002e0: 1c47 88bc fe7a b1bd 0467 3f3d 47a5 75be
000002f0: b878 8dbd cd68 063e e679 cabd 0469 043c
00000300: 6b8a 86bd 5ccf febd da9c 29be 4e3a 373d
00000310: 64c0 00be c356 823d 04d2 da3d 6125 bbbd
00000320: d6bc b6bd 3575 c63d 60fb 0dbe d49f 133e
00000330: 3971 11bd 82e9 92bc 67d2 45be e8ae 03be
00000340: 7468 d9bc a52d fa3b 2eb1 6eba 2ccb 03bd
00000350: 0a9d 1bbe 9186 1a3c f6a9 7e3d 9a00 ab3d
00000360: 60ac 1bbe 651c d03c 34c7 55be d60c 30bd
00000370: 637e 993b a164 0ebe 6f71 55be f91b bdbd
00000380: 7bb5 093c a550 fe3b 5522 1f3d 6baf 01be
00000390: 11f8 573d 8ec1 283e f3ea 0b3e c914 4dbe
000003a0: 5bbf 45bd 17af 103e 6bc7 a1bd fa39 a9bc
000003b0: 0178 c0bc 214f f33c 3ce7 74bd 28ac 443e
000003c0: a982 0dbe d18f 703d 0e02 fbbd db67 933c
000003d0: 30be 573e 8697 253d af21 3d3d be7d 933a
000003e0: 77a2 c5bd cc34 3abc 6bc2 83be e1ec d8bc
000003f0: 5509 3f3d 0bfb ba3d 47b5 99bd abe7 c2bd

network.2.conv.0.weight f4 [128, 256]
0.035228256 -0.0010462239 -0.017928163 0.028617147 -0.05258537 0.08945276 0.22610858 0.19364814
-0.067126624 0.025187075 -0.10983157 -0.050843414 0.054445278 0.10040974 0.09164072 -0.09584192
0.3922269 -0.11255219 -0.09163961 0.090522304 0.09224849 -0.041474674 0.08384575 0.11419871
-0.20075545 0.26742917 -0.13340299 0.078071 0.17636628 -0.08570235 0.047557518 -0.210954
-0.14563556 -0.12465918 0.06491146 -0.06840898 -0.08186581 -0.015765844 0.11641244 -0.051598843
0.09012034 -0.04399448 0.00885939 0.09204589 -0.12006744 -0.095560536 0.20866123 0.036405932
-0.20244509 0.13004585 -0.18499124 -0.046956427 -0.04988881 -0.022115327 0.030367456 -0.033823654
-0.039148167 -0.08211647 -0.21419281 -0.1351335 0.06017812 -0.082673796 0.16909935 -0.10092862
0.0002363306 0.10533274 -0.07905003 -0.009026282 -0.19549884 -0.04384526 -0.09868915 0.09774368
-0.072039485 0.0034302652 -0.11030413 -0.045035046 0.049114227 0.034189187 0.17167477 -0.16813193
-0.29328948 0.14641158 -0.029119644 -0.018418476 -0.044242114 0.1084725 -0.031963512 0.035255037
-0.08584902 0.00022588583 0.050196826 0.092084475 -0.1293974 0.026219951 -0.060190327 0.05950199
-0.0064228033 0.041716024 0.018239528 0.16730402 0.08702374 0.10888928 -0.023691932 0.06814428
0.083353646 0.09318964 0.016594518 0.052826732 0.04622118 -0.2238897 -0.10450365 0.09597492
-0.10975784 -0.0017662704 0.08285407 -0.03360126 0.0064021503 -0.27019575 0.025355602 -0.0036436478
-0.07190906 -0.18499887 -0.16102387 -0.09491673 0.029144602 0.006942313 -0.07132467 0.11439303
0.11485066 0.16792996 0.17040932 -0.14134263 -0.05587879 0.12531815 -0.09808733 0.07118867
0.033956263 -0.008417671 -0.0075514535 0.05331318 0.06979837 0.027734743 -0.05591175 -0.12808473
0.049377944 -0.16759048 0.061642773 -0.029699063 -0.11807981 -0.0045948494 -0.0036775894 -0.121154256
-0.051409796 -0.09300309 0.054243393 0.08377792 0.184158 -0.10959556 0.02936082 -0.15135947
0.20891099 0.019925475 0.16808131 -0.04679583 -0.066051096 -0.13468057 0.08283664 -0.111291446
-0.010105347 -0.12033632 -0.07076588 -0.050582536 0.025897704 -0.0747297 0.1377975 0.004675424
-0.0983693 -0.12383462 0.12974647 0.089711376 0.051417965 -0.11052175 0.15502721 -0.06154437
-0.04447387 -0.08891075 -0.108534686 -0.059352912 -0.039824653 0.03624222 0.09941173 -0.07996761
0.15965158 -0.19845933 -0.22166368 -0.16497724 0.117322624 0.06459378 0.117348194 -0.089546606
0.13618834 0.028459296 0.14572069 0.01304951 0.017337583 -0.061325274 0.02119269 0.14563422
-0.07749181 -0.029063229 -0.21629916 -0.088299885 0.01574975 -0.07618294 -0.116403684 0.044294365
-0.12427282 0.043932278 -0.23054297 0.13705516 -0.09630269 -0.12570655 0.07613581 -0.28315583
-0.18987851 -0.018400185 -0.012354275 -0.13002557 -0.0365406 -0.10312255 -0.050664894 -0.09829336
0.024978358 0.090128526 0.06671696 -0.040567826 -0.019048452 -0.13583982 0.30751342 -0.041184023
-0.11615854 -0.059661783 -0.20387383 -0.1170474 -0.08299684 0.097997084 -0.051645864 -0.020380314
-0.009214645 0.19662507 0.18129918 -0.112143874 0.03687491 -0.033915915 0.05159669 -0.071847685
00000000: 814b 103d 7321 89ba 15de 92bc 826e ea3c
00000010: c263 57bd 0233 b73d 0289 673e b34b 463e
00000020: af79 89bd 2055 ce3c 60ef e0bd 2f41 50bd
00000030: 0302 5f3d 9fa3 cd3d 21ae bb3d c548 c4bd
00000040: f7d1 c83e c381 e6bd 8cad bbbd c263 b93d
00000050: c7ec bc3d 59e1 29bd 52b7 ab3d 03e1 e93d
00000060: d692 4dbe 7aec 883e cb9a 08be b0e3 9f3d
00000070: 5d99 343e b784 afbd accb 423d 5304 58be
00000080: 7d21 15be 504d ffbd 4df0 843d 021a 8cbd
00000090: 43a9 a7bd 5f27 81bc a569 ee3d 4f59 53bd
000000a0: 0391 b83d 8e33 34bd fa26 113c 8e82 bc3d
000000b0: ebe5 f5bd 3eb5 c3bd 4aab 553e 631e 153d
000000c0: c44d 4fbe bd2a 053e 586e 3dbe 6255 40bd
000000d0: 3558 4cbd 342b b5bc 2cc5 f83c ac8a 0abd
000000e0: d459 20bd ae2c a8bd 5c55 5bbe 7060 0abe
000000f0: 557d 763d e150 a9bd 6128 2d3e aab3 cebd
00000100: 83cf 7739 b1b8 d73d fbe4 a1bd f8e2 13bc
00000110: d930 48be 1697 33bd 891d cabd d72d c83d
00000120: 7089 93bd 4dce 603b 22e7 e1bd ab76 38bd
00000130: 002c 493d f609 0c3d 83cb 2f3e c72a 2cbe
00000140: 0a2a 96be ebec 153e 528c eebc 58e2 96bc
00000150: 3837 35bd d526 de3d 2cec 02bd 9667 103d
00000160: 9cd1 afbd c4db 6c39 309b 4d3d c996 bc3d
00000170: c180 04be 39cb d63c 228a 76bd 5cb8 733d
00000180: 6176 d2bb 6cde 2a3d 106b 953c bf51 2b3e
00000190: 8139 b23d 5801 df3d 9515 c2bc 3a8f 8b3d
000001a0: 51b5 aa3d 36da be3d 3af1 873c d860 583d
000001b0: 6c52 3d3d 5743 65be 0206 d6bd 808e c43d
000001c0: b8c8 e0bd 3382 e7ba 65af a93d 7aa1 09bd
000001d0: 21c9 d13b 1957 8abe 8db6 cf3c 44ca 6ebb
000001e0: 0f45 93bd 5870 3dbe 71e3 24be b463 c2bd
000001f0: a9c0 ee3c 587c e33b ab12 92bd e546 ea3d
00000200: d336 eb3d d5f5 2b3e c87f 2e3e 1fbc 10be
00000210: 28e1 64bd 6753 003e 03e2 c8bd 5ecb 913d
00000220: b915 0b3d 45ea 09bc 2f72 f7bb ec5e 5a3d
00000230: 73f2 8e3d f933 e33c b803 65bd a528 03be
00000240: 8740 4a3d d79c 2bbe 227d 7c3d 734b f3bc
00000250: d4d3 f1bd 6490 96bb b603 71bb b91f f8bd
00000260: 1493 52bd 6778 bebd 522e 5e3d c293 ab3d
00000270: ea93 3c3e a373 e0bd 1a86 f03c fafd 1abe
00000280: c3ec 553e c03a a33c 821d 2c3e fcac 3fbd
00000290: cc45 87bd b4e9 09be 42a6 a93d c5ec e3bd
000002a0: e690 25bc e372 f6bd b4ed 90bd a22f 4fbd
000002b0: 6c27 d43c e30b 99bd ca1a 0d3e 4d34 993b
000002c0: d875 c9bd 019d fdbd 42dc 043e 99ba b73d
000002d0: a59b 523d 3a59 e2bd 74bf 1e3e f315 7cbd
000002e0: 3c2a 36bd d716 b6bd 6f47 debd 0a1c 73bd
000002f0: 2d1f 23bd b972 143d 6198 cb3d 0fc6 a3bd
00000300: b47b 233e ec38 4bbe cefb 62be cbef 28be
00000310: d846 f03d be49 843d 4054 f03d 3664 b7bd
00000320: f574 0b3e 7823 e93c ce37 153e 9dcd 553c
00000330: 8c07 8e3c 3630 7bbd 4b9c ad3c 2321 153e
00000340: 07b4 9ebd 0216 eebc 877d 5dbe 92d6 b4bd
00000350: 9f05 813c cd05 9cbd 0e65 eebd 026e 353d
00000360: c082 febd 55f2 333d 7513 6cbe 3058 0c3e
00000370: 583a c5bd 38b9 00be 17ed 9b3d cdf9 90be
00000380: 836f 42be fcbb 96bc 9669 4abc 6c25 05be
00000390: 99ab 15bd ea31 d3bd fe85 4fbd 074e c9bd
000003a0: 6a9f cc3c 4e95 b83d e7a2 883d 732a 26bd
000003b0: 800b 9cbc 9819 0bbe 6672 9d3e 94b0 28bd
000003c0: 87e4 edbd ea5f 74bd 4dc4 50be 8cb6 efbd
000003d0: 3ffa a9bd b2b2 c83d 9d8a 53bd 9ef4 a6bc
000003e0: 06f9 16bc 1558 493e 7ea6 393e b0ab e5bd
000003f0: 250a 173d 6aeb 0abd 0d57 533d e124 93bd

network.2.conv.0.bias f4 [128]
-0.18113083 0.028545689 -0.15194637 0.1112627 -0.18628815 -0.18579033 0.16475613 0.028127704
-0.051937338 0.018617103 0.014365522 0.0854844 0.045789886 0.14798415 -0.042818613 0.052597124
0.053541146 -0.024549982 -0.08608595 -0.28905928 -0.11508634 0.02239275 -0.009795867 -0.10026378
-0.07476906 -0.13793676 -0.008116341 -0.10245449 -0.03641133 -0.051176097 0.11799352 -0.18550052
-0.07484996 -0.23457792 -0.016401203 0.024207762 -0.04523887 -0.21145995 0.03386921 -0.055391464
-0.12713502 0.012754775 0.048684947 -0.12880132 -0.12138133 0.069385506 0.10215058 -0.13931833
-0.20803808 0.0366319 -0.025759703 0.04701194 -0.059597526 0.12687725 -0.005293172 0.11280673
0.031068219 -0.03299201 -0.16849372 -0.2857638 -0.26961508 0.0119524775 -0.08318014 0.14805919
0.050928183 0.1712815 -0.20294303 0.19456466 -0.023667807 0.043534037 -0.08252764 -0.11295154
0.20183389 0.02254435 0.08245861 0.033261765 -0.10030595 0.09458707 0.12433685 0.06738108
0.022218708 -0.18741313 -0.023873132 0.18594334 -0.029902628 0.033417318 -0.1232551 0.083440475
0.0443465 0.11061199 -0.05306011 -0.22239845 -0.14315526 -0.101471 0.044699404 -0.061481066
-0.031063784 -0.13001736 0.116622284 0.10976303 -0.12839346 -0.10645832 0.0098383995 0.09964579
-0.0061737546 0.07495188 -0.10099125 -0.013112351 -0.2108835 -0.15522884 -0.20462324 0.032916773
-0.026070073 -0.0046439385 -0.06784309 -0.11295039 -0.24218027 -0.12567851 -0.10726766 -0.03342312
0.011121866 -0.28543577 -0.02448815 -0.18893054 -0.09116665 -0.208072 0.024858546 -0.03951642
00000000: 5c7a 39be a6d8 e93c d497 1bbe b3dd e33d
00000010: 52c2 3ebe d23f 3ebe d5b5 283e 126c e63c
00000020: 3fbc 54bd e582 983c 5e5d 6b3c 7212 af3d
00000030: 2d8e 3b3d 2889 173e 9262 2fbd 1570 573d
00000040: f64d 5b3d 0b1d c9bc d54d b0bd 94ff 93be
00000050: 63b2 ebbd 0071 b73c d87e 20bc 1957 cdbd
00000060: 8520 99bd 4b3f 0dbe 67fa 04bc a9d3 d1bd
00000070: 0c24 15bd 079e 51bd 96a6 f13d d9f3 3dbe
00000080: f04a 99bd 3235 70be d15b 86bc 5b4f c63c
00000090: 654c 39bd f588 58be 71ba 0a3d 29e2 62bd
000000a0: af2f 02be 67f9 503c de69 473d 7ee4 03be
000000b0: c696 f8bd fd19 8e3d 5334 d13d 77a9 0ebe
000000c0: ef07 55be 550b 163d 0306 d3bc 988f 403d
000000d0: 891c 74bd 1cec 013e 5872 adbb 3707 e73d
000000e0: c782 fe3c a122 07bd 9e89 2cbe a24f 92be
000000f0: fd0a 8abe 53d4 433c 595a aabd d49c 173e
00000100: 129a 503d 6b64 2f3e 4cd0 4fbe f53b 473e
00000110: fde2 c1bc bf50 323d 4004 a9bd 2353 e7bd
00000120: 8bad 4e3e eeae b83c 0fe0 a83d 7d3d 083d
00000130: 356d cdbd deb6 c13d 52a4 fe3d 17ff 893d
00000140: 0204 b63c 3ae9 3fbe 9691 c3bc ee67 3e3e
00000150: 5bf6 f4bc 99e0 083d 2b6d fcbd d7e2 aa3d
00000160: ada4 353d 8a88 e23d 8f55 59bd 6bbc 63be
00000170: 4b97 12be 07d0 cfbd b916 373d 92d3 7bbd
00000180: 7a79 febc 4523 05be aad7 ee3d 71cb e03d
00000190: 9379 03be d206 dabd 3d31 213c 1813 cc3d
000001a0: 354d cabb 5f80 993d 80d4 cebd 30d5 56bc
000001b0: d8f1 57be 4ff4 1ebe c188 51be bdd3 063d
000001c0: e890 d5bc 2e2c 98bb 51f1 8abd 8952 e7bd
000001d0: 1bfe 77be deb1 00be 26af dbbd aee6 08bd
000001e0: 7d38 363c a324 92be 5f9b c8bc 0277 41be
000001f0: 95b5 babd d410 55be 26a4 cb3c f8db 21bd

network.3.weight f4 [2, 128]
-0.033951476 0.022064274 -0.120001175 0.056359865 0.0171125 -0.14185396 0.18891148 -0.054478683
0.033516508 0.04540227 0.0046503907 -0.032224674 0.05929258 -0.034468185 0.013967189 -0.010930401
-0.096848495 -0.008933469 -0.11555998 0.16192001 -0.008242161 -0.0044606063 0.00972049 -0.08355808
0.20766467 -0.07758672 0.037537668 0.029495336 -0.010944306 0.12657392 0.021634946 0.0681456
0.10958404 -0.18417771 0.056088958 0.14735213 0.008462794 -0.25144768 -0.19998318 -0.106904365
0.13447462 0.086817086 0.030792868 -0.088973045 0.087222 -0.08431393 0.11552084 0.048091143
-0.16107862 -0.052581515 0.04625534 0.0619577 0.08949707 -0.053126067 -0.029685056 -0.16236444
0.01711296 -0.0035834706 0.1172323 -0.044540133 -0.021299796 0.13425837 -0.034126617 -0.12522791
0.19386831 -0.029793436 0.17069809 -0.17972776 0.02410932 0.13668942 -0.11531724 0.05894065
0.04355961 -0.18271509 0.00763332 0.18502119 -0.07326289 -0.017454518 -0.050271843 0.03007889
-0.0657911 -0.00607104 0.01365891 -0.029327301 0.12548625 0.044324946 0.066400826 -0.17031197
-0.01645457 0.10188627 0.024971932 0.03600765 -0.2153594 -0.12847403 -0.05578926 -0.0032168857
-0.0065885396 0.012720946 -0.038721573 -0.014222549 0.13341525 -0.031021195 0.22708005 -0.0014618569
0.10694295 0.18512458 0.0034959067 -0.064890355 -0.02516576 -0.06672195 -0.06522831 0.06393534
0.07595119 0.13954654 0.15952207 -0.13676159 0.0054776915 0.055508703 -0.15482455 0.056938693
0.12587719 -0.19416803 0.22080816 -0.07556414 0.16575266 -0.1788631 -0.006254642 -0.0055778553
-0.14978282 0.07449912 0.029382803 -0.11984879 0.096202806 -0.17979364 -0.10820082 -0.01883177
-0.046965666 0.08036707 0.03622747 -0.077891715 0.07308113 -0.0025317064 -0.0013891646 0.016811764
-0.029398505 0.073029116 -0.11233676 0.11740786 -0.11617507 0.110344775 0.015068639 0.09010442
0.1340227 0.08301477 -0.1374718 -0.10344794 0.124392055 0.056254696 0.0051828036 -0.08521028
-0.09572543 0.121326536 0.1687063 -0.10408209 0.07106876 0.040475756 0.046236686 -0.11294195
-0.16732286 0.038200498 -0.045223437 -0.018858647 0.0002309707 0.13277212 0.25423387 -0.02335136
-0.08186767 -0.112913564 0.047003753 0.0349823 0.10599029 0.17704915 -0.0040804627 0.15518299
0.06887214 0.007107436 0.10333353 -0.16222194 -0.03547347 -0.13813058 0.07037942 -0.2964455
-0.10137259 0.09512317 0.033588722 0.04122059 0.0866612 -0.3205684 0.14790441 0.016337309
0.09484371 0.0033935567 -0.058228973 -0.08118958 0.09755317 0.1369081 0.15828808 -0.07321457
0.2972655 -0.0017693574 -0.005241551 0.06016109 0.010628468 -0.07360494 -0.12498857 0.022064613
-0.13511716 -0.20167369 0.09527979 0.05272945 0.046127424 0.12025894 0.14788686 -0.009968388
0.07774082 0.17859799 0.0888191 -0.04372724 0.049993575 0.061223507 -0.03238754 0.040617757
0.04861585 -0.122713976 0.27522314 0.049724407 0.025545966 0.06725051 0.04812976 -0.04587855
-0.11425589 -0.21799745 0.084485 -0.15114623 -0.014538853 0.104796425 0.09753011 0.06630731
0.08912694 0.10499264 -0.24927227 -0.13607903 -0.03200054 -0.12849374 -0.033067483 0.10850373
00000000: b410 0bbd 23c0 b43c 2dc3 f5bd 9ad9 663d
00000010: 832f 8c3c 2a42 11be 0372 413e 0a25 5fbd
00000020: 9b48 093d bbf7 393d 4e62 983b 05fe 03bd
00000030: c7dc 723d 832e 0dbd a3d6 643c 6d15 33bc
00000040: 8158 c6bd af5d 12bc b6aa ecbd 5cce 253e
00000050: 210a 07bc 472a 92bb b142 1f3c 8020 abbd
00000060: 0ca6 543e c9e5 9ebd 19c1 193d 34a0 f13c
00000070: bf4f 33bc 989c 013e c53b b13c ec8f 8b3d
00000080: 996d e03d 1599 3cbe 89bd 653d 7ae3 163e
00000090: 88a7 0a3c c0bd 80be 64c8 4cbe adf0 dabd
000000a0: b7b3 093e 28cd b13d 5341 fc3c 8037 b6bd
000000b0: 73a1 b23d c8ac acbd 3196 ec3d 38fb 443d
000000c0: cbf1 24be b75f 57bd 3d76 3d3d 5bc7 7d3d
000000d0: 3d4a b73d b89a 59bd 132e f3bc dd42 26be
000000e0: 7a30 8c3c a9d8 6abb 7d17 f03d b76f 36bd
000000f0: e97c aebc 077b 093e 5ac8 0bbd bf3b 00be
00000100: 6a85 463e 5d11 f4bc 7bcb 2e3e 8e0a 38be
00000110: e980 c53c 50f8 0b3e 722b ecbd c06b 713d
00000120: 906b 323d aa19 3bbe ee20 fa3b 3276 3d3e
00000130: db0a 96bd c7fc 8ebc d9e9 4dbd 0168 f63c
00000140: 7cbd 86bd 93ef c6bb 9fc9 5f3c cf3f f0bc
00000150: 787f 003e 138e 353d 28fd 873d 4366 2ebe
00000160: bccb 86bc c0a9 d03d f091 cc3c c27c 133d
00000170: 2d87 5cbe b28e 03be 4783 64bd 63d2 52bb
00000180: ade4 d7bb 846b 503c 839a 1ebd b205 69bc
00000190: 029e 083e 2920 febc ac87 683e c79b bfba
000001a0: e804 db3d 4c91 3d3e 951b 653b 3ce5 84bd
000001b0: 6d28 cebc 85a5 88bd 6c96 85bd 88f0 823d
000001c0: 4c8c 9b3d 4ae5 0e3e c159 233e 3b0b 0cbe
000001d0: 357e b33b 185d 633d 548a 1ebe 8c38 693d
000001e0: f3e5 003e fcd3 46be 891b 623e 5fc1 9abd
000001f0: 11bb 293e e327 37be bdf3 ccbb 71c6 b6bb
00000200: ab60 19be ff92 983d 34b4 f03c 4873 f5bd
00000210: fa05 c53d d31b 38be 6498 ddbd 1645 9abc
00000220: 125f 40bd 7e97 a43d 4163 143d b185 9fbd
00000230: 8fab 953d fcea 25bb a114 b6ba d3b8 893c
00000240: 22d5 f0bc 4a90 953d d110 e6bd 8873 f03d
00000250: 32ed edbd 71fc e13d 74e2 763c ab88 b83d
00000260: 3f3d 093e a603 aa3d 68c5 0cbe 83dc d3bd
00000270: 43c1 fe3d 536b 663d 82d4 a93b ba82 aebd
00000280: b20b c4bd 0c7a f83d 58c1 2c3e fe28 d5bd
00000290: 7f8c 913d e8c9 253d ae62 3d3d 1c4e e7bd
000002a0: af56 2bbe 2078 1c3d 363c 39bd 737d 9abc
000002b0: ba30 7239 6af5 073e f12a 823e 5a4b bfbc
000002c0: 3daa a7bd 3a3f e7bd 0287 403d 9a49 0f3d
000002d0: 7011 d93d 5f4c 353e 67b5 85bb 4ae8 1e3e
000002e0: d60c 8d3d 7fe5 e83b 88a0 d33d 821d 26be
000002f0: a14c 11bd 1a72 0dbe 1623 903d b4c7 97be
00000300: 6f9c cfbd f0cf c23d 5494 093d ecd6 283d
00000310: 6d7b b13d 8b21 a4be 4174 173e d2d5 853c
00000320: 6b3d c23d 6f66 5e3b 8181 6ebd b946 a6bd
00000330: f5c9 c73d a331 0c3e 4516 223e 85f1 95bd
00000340: 2f33 983e c8e9 e7ba 51c1 abbb 7a6b 763d
00000350: 0723 2e3c 30be 96bd 02fa ffbd d9c0 b43c
00000360: 275c 0abe 8c83 4ebe 0d22 c33d d6fa 573d
00000370: 1cf0 3c3d 524a f63d a76f 173e 7352 23bc
00000380: 9436 9f3d 64e2 363e cae6 b53d 561b 33bd
00000390: 10c6 4c3d 80c5 7a3d cca8 04bd ce5e 263d
000003a0: 6a21 473d 7751 fbbd 0cea 8c3e d2ab 4b3d
000003b0: c645 d13c a3ba 893d b623 453d 25eb 3bbd
000003c0: fefe e9bd b93a 5fbe 7906 ad3d 14c6 1abe
000003d0: 5f34 6ebc 829f d63d debd c73d 20cc 873d
000003e0: 2f88 b63d 6206 d73d 3b41 7fbe 4d58 0bbe
000003f0: 0013 03bd dd93 03be c571 07bd 3437 de3d

network.3.bias f4 [2]
-0.059731923 0.2423623
00000000: 76a9 74bd d32d 783e

encoder.0.conv.0.weight f4 [80, 150]
0.07674789 -0.15675226 0.117516905 0.044354264 -0.0201914 0.028273087 0.032854293 0.04144562
-0.15154353 -0.04229175 -0.022552157 0.03044394 -0.021224646 0.104140736 0.08751399 -0.031850968
-0.06430614 0.07460739 0.052718863 0.014970922 -0.13255571 0.048716303 -0.14393762 0.1677025
0.006147837 -0.09168068 -0.0402305 -0.008616001 0.06816435 0.020952625 -0.10541547 -0.017888388
0.054562982 -0.008783636 -0.101943895 -0.038730685 0.07867519 -0.052501682 -0.114108615 -0.013748485
0.016845966 -0.064605124 0.042545736 0.04846392 -0.06862333 -0.010979725 0.038875356 -0.06535561
-0.05920368 0.017053539 -0.036393892 -0.044043 -0.14607595 0.051394597 -0.060661044 0.09494121
-0.114796035 0.09458316 -0.07916993 -0.11815409 -0.13528578 0.046476826 -0.045890547 0.16651082
0.038858376 0.033189025 0.05935456 -0.085080504 -0.097244486 0.07657693 -0.02790954 -0.2534553
-0.08113527 -0.22851887 0.06054798 0.040896613 -0.028904196 -0.031938218 0.118177466 -0.009726154
-0.17127083 -0.12447689 0.065275066 0.106340185 0.088534035 0.04659375 0.19445768 -0.07236706
0.15027204 -0.07986306 0.0031713378 -0.0131099755 -0.057762973 0.11849157 -0.009690554 -0.21093038
-0.08970953 -0.08915132 0.009737771 -0.20976523 0.07428532 0.015383537 0.13493107 -0.14011003
0.013171035 -0.04633349 0.1787717 0.012926592 -0.054305222 -0.11048733 0.056334164 0.2340107
-0.013322774 -0.09185849 -0.0382428 0.061781254 -0.06081382 -0.0036959385 0.07004666 -0.085041106
0.10388873 -0.18428184 0.2427703 -0.14506465 0.24813236 -0.22409555 -0.07419298 0.18497998
-0.113205254 -0.15515551 -0.0948944 -0.019557903 0.056290526 -0.037092566 -0.08803276 0.06818229
0.042302202 -0.0253015 -0.16416498 0.06930662 -0.011091106 -0.16647305 0.12968399 -0.10663514
0.042610876 -0.042748734 -0.1621991 0.10864154 0.029471206 0.029853584 -0.037262823 -0.07553048
0.07746182 0.20411734 -0.08736908 0.081394635 -0.18885006 -0.05484313 0.043408036 0.07228022
0.18679251 -0.17427722 -0.06743172 0.077860594 -0.029195786 0.03351206 -0.12213952 0.058793798
0.07901382 0.043350205 0.14320092 0.15652335 -0.0650537 -0.104935385 0.014030836 0.03922589
0.06464557 0.09318332 0.18189877 0.16160041 -0.047093764 0.01131579 0.072744824 -0.018059364
-0.10433221 0.09651379 -0.16884583 -0.12341966 0.06603656 -0.07003897 -0.20032245 -0.01783279
-0.021086028 0.05642001 0.11006521 -0.058346387 -0.014310341 0.06955476 0.007776533 0.039262068
0.028135065 -0.04665687 -0.03345168 -0.011460662 -0.17618273 0.1158695 -0.0011022276 0.15049918
0.19602518 0.06504177 -0.17816666 -0.01699215 -0.029587967 -0.017205814 -0.07981137 0.116545826
0.112316914 0.093409106 -0.08319513 0.09748314 0.006492057 -0.057945114 0.049561914 0.021721985
0.09093066 0.03721221 -0.080786735 -0.03626013 -0.022996025 -0.09210602 -0.06779319 -0.1315433
0.06333217 -0.018708445 -0.07727813 0.022932991 0.021419583 0.1499133 0.19448145 0.19717157
0.28802222 0.09976989 -0.04739558 0.14372337 0.11975159 0.14967743 -0.065049 -0.025842164
0.066941686 0.05973263 0.05913808 -0.16764492 -0.037659116 -0.1719802 0.21061796 -0.119444214
00000000: ff2d 9d3d aa83 20be b4ac f03d d1ac 353d
00000010: 6f68 a5bc f69c e73c 3992 063d e2c2 293d
00000020: 3a2e 1bbe 1d3a 2dbd 4dbf b8bc 9265 f93c
00000030: 4fdf adbc bd47 d53d 893a b33d 2976 02bd
00000040: f0b2 83bd c2cb 983d bcef 573d 9948 753c
00000050: afbc 07be bf8a 473d 6264 13be 34ba 2b3e
00000060: cb73 c93b 15c3 bbbd bdc8 24bd 212a 0dbc
00000070: c099 8b3d d7a4 ab3c 11e4 d7bd ab8a 92bc
00000080: 6f7d 5f3d 3de9 0fbc f6c7 d0bd 11a4 1ebd
00000090: 7520 a13d 010c 57bd c7b1 e9bd 5341 61bc
000000a0: 8d00 8a3c b14f 84bd 7044 2e3d 1a82 463d
000000b0: 638a 8cbd 4ee4 33bc c43b 1f3d 29d9 85bd
000000c0: 8f7f 72bd ddb3 8b3c c311 15bd 6f66 34bd
000000d0: ef94 15be 2483 523d b777 78bd 8970 c23d
000000e0: 2f1a ebbd d1b4 c13d d823 a2bd c6fa f1bd
000000f0: 5b88 0abe 7c5e 3e3d baf7 3bbd d081 2a3e
00000100: f629 1f3d 37f1 073d c41d 733d b03e aebd
00000110: 1e28 c7bd 5ed4 9c3d 8ca2 e4bc e5c4 81be
00000120: 402a a6bd da00 6abe 2901 783d 3583 273d
00000130: 7ec8 ecbc a6d1 02bd 0707 f23d 725a 1fbc
00000140: 9f61 2fbe bded febd efae 853d e2c8 d93d
00000150: 5551 b53d 17d9 3e3d ea1f 473e 2e35 94bd
00000160: eae0 193e 3e8f a3bd 38d6 4f3b 39cb 56bc
00000170: de98 6cbd b5ab f23d 21c5 1ebc 22fe 57be
00000180: a1b9 b7bd f894 b6bd 2c8b 1f3c b2cc 56be
00000190: e722 983d 3b0b 7c3c 5f2b 0a3e 0179 0fbe
000001a0: 53cb 573c 30c8 3dbd ee0f 373e 0eca 533c
000001b0: 276f 5ebd 2e47 e2bd a7be 663d 80a0 6f3e
000001c0: c447 5abc 4e20 bcbd 7ba4 1cbd 570e 7d3d
000001d0: ea17 79bd 8f37 72bb a074 8f3d 082a aebd
000001e0: 9dc3 d43d 61b4 3cbe c798 783e d48b 14be
000001f0: 6916 7e3e 4e79 65be 7df2 97bd 646b 3d3e
00000200: 28d8 e7bd 16e1 1ebe ff57 c2bd e537 a0bc
00000210: e590 663d 60ee 17bd 854a b4bd 28a3 8b3d
00000220: 1345 2d3d 1745 cfbc dd1a 28be a1f0 8d3d
00000230: 78b7 35bc e977 2abe e1cb 043e 8663 dabd
00000240: be88 2e3d 4c19 2fbd 8517 26be 757f de3d
00000250: 996d f13c 818f f43c e7a0 18bd b9af 9abd
00000260: 4da4 9e3d 2304 513e 8fee b2bd 3bb2 a63d
00000270: e961 41be 31a3 60bd a0cc 313d a707 943d
00000280: 8946 3f3e ba75 32be a419 8abd 6075 9f3d
00000290: 002c efbc f143 093d 4924 fabd c4d1 703d
000002a0: ffd1 a13d fc8f 313d 43a3 123e a847 203e
000002b0: e03a 85bd 5de8 d6bd 97e1 653c 54ab 203d
000002c0: e664 843d e5d6 be3d ac43 3a3e 947a 253e
000002d0: 64e5 40bd dd65 393c 3dfb 943d 3bf1 93bc
000002e0: 20ac d5bd 06a9 c53d ece5 2cbe 72c3 fcbd
000002f0: 2d3e 873d 9770 8fbd 5421 4dbe 1216 92bc
00000300: 9bbc acbc ab18 673d de69 e13d 9ffc 6ebd
00000310: ec75 6abc ba72 8e3d 49d2 fe3b 43d1 203d
00000320: 827b e63c 461b 3fbd a104 09bd 80c5 3bbc
00000330: 3f69 34be fd4c ed3d 9f78 90ba 751c 1a3e
00000340: d3ba 483e 9f34 853d 5271 36be 1f33 8bbc
00000350: 7762 f2bc 35f3 8cbc 2574 a3bd 94af ee3d
00000360: 6906 e63d 464d bf3d 3562 aabd 3ea5 c73d
00000370: 52bb d43b db57 6dbd 6f01 4b3d 4ef2 b13c
00000380: db39 ba3d d56b 183d 8473 a5bd 8185 14bd
00000390: 2962 bcbc 15a2 bcbd 28d7 8abd 49b3 06be
000003a0: 4cb4 813d 7442 99bc ff43 9ebd f8dd bb3c
000003b0: 1f78 af3c df82 193e 2526 473e 58e7 493e
000003c0: a677 933e 2854 cc3d de21 42bd 382c 133e
000003d0: 5240 f53d 0a45 193e 6938 85bd f2b2 d3bc
000003e0: b918 893d 34aa 743d c53a 723d 1cab 2bbe
000003f0: 7240 1abd 941b 30be 3cac 573e 2b9f f4bd

encoder.0.conv.0.bias f4 [80]
-0.0016625439 0.046688754 0.07559093 -0.12103529 0.10184385 0.009817158 -0.023607884 0.21480826
-0.14692704 0.010964045 -0.008641369 0.024496596 -0.14059293 -0.12296613 0.028217776 -0.22318618
0.05220914 -0.011328676 -0.20139007 0.02166324 -0.05993529 0.13937633 0.21336338 -0.1274141
0.18964896 0.06140131 0.014243608 0.011313139 -0.08095392 -0.14075305 0.008093226 -0.016151765
-0.07117051 0.024621947 0.09907581 -0.073536724 -0.12480467 -0.21049969 0.10839375 0.11697967
-0.009731966 -0.05064842 -0.063825995 0.22040221 0.065496564 -0.043649204 0.04086086 -0.12519453
0.1148968 0.15932357 0.053113375 0.13466369 -0.118944965 0.029386986 0.020619765 0.049921498
-0.07973363 0.19741891 -0.01233474 0.22224343 0.14908692 0.0009097672 -0.037733406 0.0058848416
-0.07007716 0.2185213 0.045708716 0.121471904 0.045065057 -0.15963274 -0.13336155 -0.116860926
0.05271296 0.18676758 -0.09533554 0.08359387 0.06772163 -0.096431 0.070081346 0.04141085
00000000: b7e9 d9ba b53c 3f3d 6bcf 9a3d 5ae1 f7bd
00000010: 8293 d03d 25d8 203c 5265 c1bc b2f6 5b3e
00000020: 0b74 16be 8aa2 333c 8794 0dbc 16ad c83c
00000030: 98f7 0fbe abd5 fbbd f728 e73c eb8a 64be
00000040: 40d9 553d e99b 39bc 3339 4ebe 1b77 b13c
00000050: b57e 75bd abb8 0e3e ee7b 5a3e d878 02be
00000060: 5633 423e f17f 7b3d 065e 693c bf5a 393c
00000070: 2bcb a5bd 9121 10be 7399 043c b550 84bc
00000080: d8c1 91bd f7b3 c93c 42e8 ca3d 6c9a 96bd
00000090: 9799 ffbd 3b8d 57be 8bfd dd3d 0a93 ef3d
000000a0: d372 1fbc b874 4fbd 34b7 82bd 1eb1 613e
000000b0: 1023 863d 82c9 32bd b85d 273d ff32 00be
000000c0: 034f eb3d b825 233e 698d 593d 47e5 093e
000000d0: 6b99 f3bd fabc f03c c8ea a83c 7c7a 4c3d
000000e0: 634b a3bd 2f28 4a3e a617 4abc c893 633e
000000f0: 3eaa 183e 717d 6e3a 588e 1abd a1d5 c03b
00000100: 9d84 8fbd 0cc4 5f3e 1039 3b3d 43c6 f83d
00000110: 2396 383d c476 23be ee8f 08be c854 efbd
00000120: 8be9 573d 0040 3f3e 483f c3bd 4333 ab3d
00000130: a3b1 8a3d 9e7d c5bd cf86 8f3d 6c9e 293d
