exomy/config/best_run_no_obstacles405k/checkpoints/354000_policy.pt (torch, 723582 bytes, 13 tensors)

log_std_parameter f4 [2]
000000 cb 85 a2 bf cc 70 35 bf
       -1.269708 -0.7087524

network.0.conv.0.weight f4 [512, 5]
000000 2a 12 91 3e 88 5e 52 be bd 98 12 3c cc b3 a6 bd
       0.2833417 -0.20543873 0.008947548 -0.08139762
000010 2b 01 2a 3e e6 77 1d 3e fd 79 0c 3e 5c fd 04 3e
       0.16602008 0.15377769 0.1371841 0.12987274
000020 1b 40 9e bd 47 4d 3c bc f1 94 a4 bc bd 15 ef 3b
       -0.07727071 -0.011493034 -0.020090552 0.0072962926
000030 7c f3 24 3c ac 20 82 be 6b d7 6b 3d d4 ec f5 3b
       0.010067817 -0.25415552 0.057578485 0.0075050388
000040 1e 4c ae bd ae ce 5b 3e 91 97 81 3d 26 2d 2e 3e
       -0.08510612 0.21465561 0.06327737 0.1700941
000050 71 a5 55 3d 66 b2 4a bc cd dc a8 3d 47 60 45 3e
       0.05215973 -0.012371635 0.082452394 0.19275008
000060 a9 d5 00 3e 15 f8 5e 3e 9d 63 c1 3e 91 e4 a9 3a
       0.12581505 0.21774323 0.3777131 0.0012961795
000070 dd 1f 30 be b5 db e3 bc 89 7b 95 be e8 99 09 bc
       -0.17199655 -0.027814725 -0.29195812 -0.0083985105
000080 a3 a3 fa 3c 32 7c b1 bc c7 c3 78 bd 56 36 d2 3b
       0.030595606 -0.021665666 -0.060733583 0.0064151688
000090 40 24 09 bd 2a 53 46 3d cd be c2 3d 60 cc 96 bd
       -0.033481836 0.048419155 0.095090486 -0.073632
0000a0 95 7b 5f 3d ee 32 d0 be 68 a0 f8 bc 0f 5b 33 bd
       0.054561216 -0.40663856 -0.030349925 -0.043788012
0000b0 3c 90 a7 bc 6e 52 3c be c8 1c 19 be 25 29 54 be
       -0.020454518 -0.1839082 -0.14952385 -0.2071882
0000c0 33 82 00 3d 5b c2 40 be b1 2a d1 bc f3 13 cf 3e
       0.031374168 -0.1882414 -0.025533052 0.40444908
0000d0 51 08 7a 3d 9c aa 2d 3e b9 9a 41 3b 5e 98 ae bc
       0.061043087 0.16959614 0.0029541685 -0.021312889
0000e0 63 a0 82 3e 56 c1 cc bc a1 5f 0d 3e 3e 35 90 bd
       0.2551299 -0.024994534 0.13806011 -0.07041405
0000f0 c8 a1 7b 3e 6e a4 9b bd 73 86 ba 3d 3e fb ff 3c
       0.24573433 -0.07599722 0.091076754 0.031247731
000100 27 97 02 3e 46 71 4f 3e 7f 72 9f be ad ef 0a bc
       0.12752973 0.20258054 -0.3114204 -0.008479995
000110 a4 04 48 3e 5f 97 03 3c 67 13 fb bd 70 f7 4e 3c
       0.1953302 0.008031695 -0.1225956 0.012632236
000120 ab 7e 19 3d 68 a9 aa 3d 23 fd 1b 3e 39 d4 34 be
       0.037474316 0.08333093 0.15233283 -0.17659082
000130 8b e5 c1 3e 34 f2 20 3d c1 f4 20 3e 4e e2 07 bd
       0.3787044 0.039293483 0.15718366 -0.033174805
000140 22 50 3a 3e 5c af 02 3f 9f 0c 02 3d d4 cb 18 be
       0.1819463 0.5104883 0.031750318 -0.14921504
000150 7b 76 17 3e 29 fe 28 be 1d f0 bc 3d 16 5a 93 3d
       0.1479129 -0.16503204 0.092254855 0.07194917
000160 16 e0 ea bd 03 47 46 3d fe fb 85 3e f4 b3 27 3e
       -0.11468522 0.048407566 0.26168817 0.1637724
000170 09 da 70 bd 23 5f 1a 3c f3 a9 13 3d 68 18 dc be
       -0.058801685 0.009422096 0.036050748 -0.4298737
000180 59 f9 a4 be 07 e2 ae bc 0a b6 53 3d 39 64 19 bd
       -0.32221487 -0.021348013 0.051687278 -0.037449095
000190 13 d7 2b be 74 9a a7 3d ca 40 de bd dd 5e 82 bc
       -0.16781263 0.081837565 -0.10852201 -0.015914375
0001a0 e5 cf 9f 3d 71 c0 a5 be 02 3d 86 3e f2 6d 51 bd
       0.078033246 -0.32373384 0.2621842 -0.051130243
0001b0 9d b4 86 be d7 fa 64 3e 33 5f 88 bd de b0 c9 bd
       -0.26309672 0.22361313 -0.06658783 -0.09848188
0001c0 20 fa 66 3d ef ab 40 3d f6 d9 10 bc 81 cc 3c be
       0.05639088 0.04703897 -0.008841028 -0.18437387
0001d0 e4 1f b0 3e b7 a8 dd bb f8 83 e1 3b 8c 9d 2c bd
       0.3439933 -0.006764497 0.006882187 -0.042142436
0001e0 2b 61 b1 3e e4 c9 85 3d 99 f3 f0 3d be 2d 95 bc
       0.34644446 0.06532648 0.117652126 -0.018210288
0001f0 db 35 eb bd ab 15 48 be 6e c4 dd be c3 a4 88 bc
       -0.114848815 -0.19539516 -0.43313926 -0.016680127
000200 65 84 9a 3d 4d 96 89 bd a8 1f cc be 4a 07 1f 3d
       0.075447835 -0.06718121 -0.39867902 0.03882531
000210 1e 89 ff 3d d2 6c 01 bd 37 bb 87 bc f9 65 c5 be
       0.12477325 -0.03159792 -0.016568763 -0.3855436
000220 b8 f8 df 3e 5d 6b 56 bd 0f 28 b4 bd 6f 47 90 bd
       0.43744445 -0.052348483 -0.08796703 -0.07044875
000230 ca 82 2e 3e fa cf be 3d 75 99 b3 3b a9 5a 16 3e
       0.1704208 0.09317012 0.00548094 0.14683022
000240 73 0d 74 bc cc 0a 8f 3c 9d 11 93 3e 28 a7 93 3d
       -0.014895785 0.017461203 0.28724375 0.07209617
000250 54 17 6d 3d e2 e6 1a bd 3f f4 54 be 9a 4f 08 3e
       0.057883576 -0.037817843 -0.20796297 0.13311616
000260 b3 5a 5f 3c 3c 0f 1e be 63 ce 51 be 81 b9 9c be
       0.013632464 -0.15435499 -0.20488887 -0.30610278
000270 78 aa 82 be 2b 0b f8 3d f9 88 8c 3d 00 85 06 be
       -0.25520682 0.12111505 0.06862063 -0.13136673
000280 c6 ce 8b be 63 6a 47 be 3f 42 cf 3a 13 95 2e be
       -0.27306193 -0.19474177 0.001581259 -0.17049055
000290 36 f2 c6 3d 21 3a 8c be be 6b 7a bc d9 60 c4 3b
       0.09714167 -0.273881 -0.015284477 0.0059929905
0002a0 48 90 9b 3c c3 c8 ba bd 35 86 7a bc 7d ad dc 3e
       0.018989697 -0.091203235 -0.0152907865 0.4310111
0002b0 54 39 b2 3c fd 43 f6 bc 7b 31 f6 bc b4 2a 9c 3e
       0.021755852 -0.030061716 -0.030052891 0.3050133
0002c0 00 44 8d 3d b8 15 4a 3d 70 e9 92 bd a7 cc 8e bd
       0.068977356 0.04933712 -0.07173431 -0.06972628
0002d0 7d 92 90 be 49 a4 ed 3e ea d2 4f bd d2 5f 05 be
       -0.28236762 0.46414402 -0.050738253 -0.13024834
0002e0 63 2a 61 3e 5c 69 c0 3e 48 57 d4 3c d2 52 ed bc
       0.21988826 0.37580383 0.025920525 -0.028970156
0002f0 9f 9d 75 3d 86 7f 84 3c c9 f1 06 be 87 d2 7b be
       0.059964772 0.01617409 -0.13178171 -0.24592029
000300 5f b7 73 3d 85 b4 e5 bc 7f 27 fe 3c c6 6d 34 bd
       0.05950105 -0.02804018 0.031024693 -0.04405
000310 8b a6 23 bf 67 22 8a bd a7 d8 3b bd 23 aa 03 3e
       -0.63926 -0.06744843 -0.045860913 0.12857871
000320 bc a9 29 3d 18 40 9a 3e 25 38 05 3d 40 41 e4 3d
       0.041421637 0.30127025 0.032524247 0.11145258
000330 59 a1 b4 3c bf dd 2d be a7 2f a0 be b3 9e 3d 3b
       0.022049593 -0.1697912 -0.31286356 0.0028933703
000340 a0 18 ed bd 3e 77 9c bd 57 21 ed bd 39 dd 9f be
       -0.115769625 -0.07639931 -0.11578625 -0.31223467
000350 99 24 21 bd 1f dc 20 bd b0 dc 52 be e4 d7 9b 3e
       -0.039341543 -0.039272424 -0.20591998 0.3043815
000360 28 e2 e1 3e e0 e5 52 3b 0b fb 95 bd 68 54 e1 3d
       0.44117856 0.0032180473 -0.07323273 0.11002427
000370 ab bb ab be 0d 87 08 be e7 99 f4 3d 44 ad b7 3d
       -0.33541617 -0.13332768 0.11943417 0.08968595
000380 10 9b 38 be 79 5c a7 3d c9 e2 f4 3d 9e ae 23 3d
       -0.18027902 0.08171935 0.11957318 0.03996145
000390 fe 21 91 bd be 71 a3 3d 10 3f c1 3e b1 83 52 be
       -0.070865616 0.07980679 0.37743425 -0.20558049
0003a0 92 47 85 bc e4 82 97 bd bd 74 fa bd 17 9a 9e 3e
       -0.016269479 -0.07398012 -0.12229297 0.30976936
0003b0 08 75 a3 bd 51 be c8 bb c8 db 82 bd 29 5d 99 3d
       -0.07981306 -0.006126203 -0.06389576 0.07488472
0003c0 27 19 dc bd e9 2c 26 3e 45 35 f7 3c d6 26 d8 bd
       -0.10746985 0.1622807 0.030176768 -0.10554282
0003d0 2b 44 84 bd 2f bb 9b be 68 08 bb be 13 b5 e9 bb
       -0.064583145 -0.30416247 -0.3652985 -0.0071321814
0003e0 33 a6 82 bd e3 c5 3a bd 7c c7 5c 3e 3a 67 b2 3e
       -0.06379356 -0.045598876 0.21560472 0.3484438
0003f0 c6 a3 cf 3d 34 58 3e be 97 83 63 be 7d e7 79 3e
       0.10138659 -0.18588334 -0.22218166 0.24404712

network.0.conv.0.bias f4 [512]
000000 b1 28 a9 3d 1e 06 3f be 46 39 95 bd e1 44 5d bd
       0.082597144 -0.18654677 -0.07286315 -0.054020766
000010 e0 5b 9f be 9d 62 c8 3c 98 68 2e be cf c3 4b be
       -0.31124783 0.024461085 -0.17032087 -0.19898914
000020 7b 61 f0 3d de 06 0e bd 61 23 75 bd f3 ad 2d bb
       0.11737343 -0.034674518 -0.059848193 -0.0026501387
000030 e8 86 d2 bd a9 9b 09 3d 62 af b0 bd d8 68 a7 3d
       -0.102796376 0.033595715 -0.086272016 0.08174294
000040 26 31 ad bc e8 4c 0d be af 67 cd 3b 45 28 9c 3d
       -0.0211416 -0.13798869 0.0062684636 0.07624868
000050 32 88 19 3e f4 12 54 3d 8b dc 16 be b1 88 11 3d
       0.1499336 0.051775888 -0.14732568 0.03553075
000060 f6 d7 10 3e ee c7 93 3d 83 46 1e 3c 79 70 24 3d
       0.14144883 0.07215868 0.009660366 0.040146325
000070 8e 7f 21 be 5f b8 d1 bd 88 ca b1 3b e6 8d fc bd
       -0.15771315 -0.10240244 0.005425755 -0.123317525
000080 e6 25 01 3e cb be 13 3c 4a e8 15 3d ac fc 2e bc
       0.12612113 0.009017657 0.03659848 -0.010680359
000090 bf 04 38 3c 9a 3c df bc b0 ba 9c bc 50 19 0a 3d
       0.0112316 -0.027250577 -0.019131988 0.033715546
0000a0 83 88 b0 3d 77 ec f6 3d 86 bd ec bd 4c a0 0a 3d
       0.086197875 0.12056821 -0.11559586 0.033844277
0000b0 53 ed 35 be 3e 55 e8 3d 42 b9 e7 3c be 7c 9d bd
       -0.17766313 0.11344384 0.02828658 -0.07689808
0000c0 9e e5 97 3c a2 7e c1 3d 1a b2 9d bd 62 36 f7 3c
       0.018542107 0.094479814 -0.07699986 0.030177299
0000d0 97 76 48 3d da 69 f3 3d 36 77 92 3d 46 52 14 3e
       0.04894122 0.11885424 0.07151644 0.1448451
0000e0 37 c1 0c bc 53 2b 74 bc 5a 90 c4 3c 0e 75 52 be
       -0.008590988 -0.014902907 0.023994613 -0.20552465
0000f0 7f d6 9c 3d 69 c8 71 3c a5 e5 2f 3e a9 d6 9e 3d
       0.076580994 0.014757254 0.17177446 0.07755787
000100 77 e6 59 3e bf 5a f8 bc 25 85 8b 3d 12 43 7d 3d
       0.21279322 -0.030316709 0.06812505 0.06183154
000110 7e 01 91 bd 38 78 c9 3d 5f 90 df ba 31 4f b6 3c
       -0.07080363 0.09837383 -0.0017056576 0.022254558
000120 fb 8e a2 bd 6d 38 ff bc bc e1 d3 bd 84 27 24 bc
       -0.079374276 -0.031154836 -0.1034579 -0.010019187
000130 ff aa 23 be f4 9a c1 bb 27 ab 44 bd 2e 1d 5f be
       -0.15983199 -0.0059083644 -0.048014786 -0.21788475
000140 4e a4 89 3d b9 eb 3c 3d 97 f9 19 bd 50 6f 3d 3e
       0.06720792 0.04612324 -0.037591543 0.18499494
000150 a3 b1 22 3e 50 29 f3 3c 96 fc 7f 3d 93 5d 29 bd
       0.15888076 0.029682785 0.062496744 -0.041349005
000160 e9 89 fb bb e4 44 35 be ce 33 8d 3c 2f e9 12 be
       -0.0076763523 -0.17702061 0.017236616 -0.14346765
000170 54 d8 6a 3d 3f c4 7d be db 26 86 bd bd 99 85 3d
       0.057335213 -0.24781893 -0.0655038 0.06523464
000180 ce 2e 03 3e 08 d9 f6 3d ad 77 16 bd bc c9 96 bc
       0.12810823 0.12053114 -0.036735225 -0.018406741
000190 67 0b b8 3d c1 e9 85 3d c7 40 04 3e c7 e5 1e be
       0.0898655 0.06538726 0.12915336 -0.1551734
0001a0 21 1a df 3c 73 28 16 3d a3 19 5a bd 65 f5 24 bd
       0.027234139 0.03665967 -0.053247105 -0.04027309
0001b0 24 2f a6 bd 46 88 bc bd 1d 46 b1 bb 11 2f 89 3c
       -0.0811446 -0.092056796 -0.0054099695 0.016746076
0001c0 a2 53 94 bd b9 88 dc 3d 4c cd 4a 3c 8c e0 0c be
       -0.07242514 0.10768265 0.012378048 -0.13757533
0001d0 97 08 91 3d 51 6b 48 bd 17 bb d5 3c 82 6f 41 3d
       0.070817165 -0.04893047 0.026090188 0.047225483
0001e0 bf cf b2 bd 4b bd b6 bb ae 2d a9 3d 49 b7 c2 bb
       -0.08731031 -0.0055767647 0.08260666 -0.0059422594
0001f0 bc 0f 2b be 3b 98 13 be f4 02 27 be 8b 98 a4 3d
       -0.16705221 -0.1441354 -0.1630972 0.08036908
000200 af 26 de bd ce 44 b3 3d 4c 1b c2 3c a5 32 1c be
       -0.10847222 0.08753358 0.023694657 -0.15253694
000210 76 76 d5 bc 25 ec b8 3c 2d b3 00 3d 81 ad c2 3c
       -0.026057463 0.02257354 0.031420875 0.023764374
000220 41 e9 e9 3b 84 a1 2e 3b fc 17 bc 3c 2d 5c 93 3a
       0.0071384017 0.0026646564 0.022960655 0.001124268
000230 4c 10 2f be 81 16 4a be 83 4b 69 3d 24 cb 9b bd
       -0.1709606 -0.19735147 0.05695678 -0.076071054
000240 a6 0d 0b bd 21 6b 8a bc 4e c2 5f bd c6 74 ea bd
       -0.033948563 -0.016896786 -0.054628663 -0.11448054
000250 14 9d 42 3d ec 73 1a bc e7 7a 13 bc a7 d1 ae bb
       0.047513083 -0.009427052 -0.00900147 -0.005335051
000260 fb 1b 4e be e1 08 5a bd ba 06 07 be 2e 42 bb 3d
       -0.20127861 -0.053231124 -0.1318616 0.09143482
000270 d8 7d 72 bb 73 8e 58 3d 32 90 84 bd f0 42 de bd
       -0.0037001278 0.052870225 -0.064728156 -0.10852611
000280 54 7c 8e bd db 35 30 3c dc 64 b2 bd 94 bd 3f 3e
       -0.069573075 0.010755028 -0.08710644 0.18724662
000290 05 b5 9c bd 74 95 15 bc 82 12 09 3d ed cc 45 3e
       -0.07651714 -0.009129871 0.033464916 0.19316454
0002a0 9d 51 52 3c c2 02 74 be ec f1 49 bd 8b e5 2e be
       0.012836841 -0.23829177 -0.04930298 -0.17079751
0002b0 1e 57 4f 3e c0 96 3b be b2 68 bd bd c9 7d 95 bd
       0.20248076 -0.18319225 -0.09248485 -0.07299382
0002c0 db a0 56 bc 25 e6 9a bc 66 65 a8 3b 83 fd 03 bc
       -0.013099874 -0.01890857 0.0051390408 -0.008056047
0002d0 f0 d0 0c bd b9 bc 9f 3d 24 79 7b bd 78 f4 5e be
       -0.034378946 0.07799668 -0.061394826 -0.21772945
0002e0 86 ba 13 be 98 fd 6e 3d c5 5a 70 bd e2 59 39 be
       -0.14426622 0.058347315 -0.058680315 -0.18100694
0002f0 f2 d4 cf 3d 59 34 39 be 9a 05 b3 3d e3 61 0a be
       0.10148038 -0.18086375 0.08741303 -0.13513903
000300 8b cb 19 be 35 ed 21 be 31 2c 78 bd f7 60 ff 3d
       -0.15019052 -0.15813144 -0.06058902 0.124696665
000310 e5 f3 13 be 86 e6 4d 3d 43 23 5f bb fa 36 49 bd
       -0.14448507 0.050268672 -0.0034048117 -0.049124695
000320 34 d4 23 3d 91 7f 83 be e1 cb 8a 3c 4d 94 02 bd
       0.039997295 -0.25683263 0.01694292 -0.031879712
000330 07 f1 c4 bc fa e2 dc 3c d0 96 2d 3d d8 7a 0c be
       -0.024040712 0.0269637 0.042380154 -0.13718736
000340 4b 70 1a be ec af 07 be eb 66 85 be 4a 0a 46 be
       -0.15081899 -0.13250703 -0.26055083 -0.19339862
000350 ec 3f 88 bd 5c 76 90 bd fb 91 8f 3d 66 e3 e1 3d
       -0.06652817 -0.07053825 0.070102654 0.11029701
000360 9c 21 f1 3d 38 13 9a 3d 30 60 8e 3d ca a5 08 be
       0.117739886 0.07523197 0.0695194 -0.13344494
000370 0c a2 88 bd 7e db 8f bd 19 d1 2e be a0 5b 78 be
       -0.06671533 -0.07024287 -0.17071952 -0.24253702
000380 db 17 2d be 7a 5c 44 3d 7a b4 27 bd 64 26 c0 bd
       -0.16903631 0.047939755 -0.0409436 -0.093823224
000390 cb 65 16 be 74 81 16 3d 08 5a 27 be 52 59 f7 bb
       -0.14687268 0.03674455 -0.16342938 -0.0075484896
0003a0 5d b7 5d be b3 4e a9 3d 2d 91 2e be d9 90 3e be
       -0.21651979 0.08266964 -0.17047568 -0.18609942
0003b0 fa c0 d8 3d b7 7a 4b bc bb fb 0f be ec 40 bf 3c
       0.10583682 -0.012419394 -0.14060871 0.023346387
0003c0 3e 32 12 3c eb 05 56 3d 9f 96 44 be ab 19 04 bd
       0.0089231115 0.052251738 -0.19198082 -0.03225104
0003d0 6e f8 5b 3c 67 e0 fb bc 78 92 c2 3c fb ee 1e 3d
       0.0134259295 -0.030746652 0.023751482 0.03880213
0003e0 a1 16 d3 3c f1 d5 25 be 90 1f 86 3c 2e fc d2 bd
       0.025767626 -0.16194893 0.016372472 -0.10302006
0003f0 92 a0 cb bb 72 cc 91 bb 81 26 09 be 85 08 ff bd
       -0.00621421 -0.0044494206 -0.13393594 -0.12452797

network.1.conv.0.weight f4 [256, 512]
000000 0a 16 28 3d f5 4f 1a be 6a 55 5d bd 17 f3 4f 3d
       0.041036643 -0.15069564 -0.054036535 0.050768938
000010 fb 51 e3 ba 1b 74 82 bd 97 96 1a be e5 0d 37 bd
       -0.0017343158 -0.063698016 -0.15096508 -0.044690985
000020 ee be 42 bb 6f e0 be bd 53 e0 25 be c8 46 8e 3d
       -0.0029715854 -0.09320151 -0.16198854 0.06947094
000030 89 c7 25 3e 5b dd 2e bd 3e df c1 bd e0 91 b7 3e
       0.16189398 -0.04269157 -0.09466408 0.3585348
000040 bd 0e 56 be 12 c8 0d 3c 39 bf ca 3c f3 b1 43 3e
       -0.2090406 0.0086536575 0.024749385 0.19110851
000050 58 b9 e1 3d 48 a5 8b 3e 28 c7 b0 3d ea e3 e3 3c
       0.1102168 0.27274537 0.08631736 0.027818639
000060 3f ae 30 3e 04 0c 71 bd ba d0 58 3e 04 0f 0b 3e
       0.1725397 -0.05884935 0.21173373 0.13579947
000070 04 4f f9 bd 63 42 84 bc e7 fd 12 be 96 e5 a7 bb
       -0.12173274 -0.016144937 -0.14354669 -0.0051238043
000080 08 74 fb 3d 86 da cd 3c 54 fe 20 3d a7 a4 9b 3d
       0.122779906 0.025128614 0.039305046 0.07599764
000090 63 79 79 bd cf 56 56 be 6d 67 4f bc bf 07 79 be
       -0.06090678 -0.20931552 -0.012658936 -0.24319361
0000a0 0e 16 2c 3d 32 cc 97 3e 90 ac 0e bd 74 44 a3 be
       0.04201322 0.29647976 -0.034832537 -0.31888163
0000b0 27 2d cd 3d 9a 86 36 bd f2 2b e0 bd f3 bc 04 be
       0.10018378 -0.04456196 -0.10945882 -0.12962703
0000c0 05 6a 39 3d 62 90 3c 3c c4 e0 45 3d 52 5e 3e bd
       0.045267124 0.011509033 0.048310056 -0.04647667
0000d0 27 65 1e 3e 9b e3 9a 3d 23 40 9e 3e 2f 14 e4 bc
       0.15468274 0.075629435 0.30908307 -0.027841656
0000e0 e8 33 98 be bf f7 62 be 82 bd 30 be 99 bb cb be
       -0.297271 -0.2216482 -0.17259791 -0.39791563
0000f0 03 a0 22 bd bc 53 04 3e 1e b2 84 bc a5 89 ad bc
       -0.03970338 0.12922567 -0.016198214 -0.021183798
000100 d3 ea a9 3c 80 58 77 be 54 93 31 bd b9 96 2e 3d
       0.020741856 -0.24154854 -0.043353394 0.04262421
000110 c7 94 51 bd 6a 50 e5 3c 9e 9e 04 3e d5 28 ab bc
       -0.051167276 0.027992446 0.12951133 -0.020893494
000120 d9 b0 a0 3d c7 63 9b 3e 56 96 87 bd d5 98 3d be
       0.07846231 0.30349562 -0.06620471 -0.18515332
000130 b0 21 57 be 68 40 69 3c c9 f8 dd 3d 57 7b 04 3e
       -0.21008945 0.014236547 0.10838468 0.12937675
000140 78 0c 09 3d f0 f2 c0 bd 38 df 63 be 88 80 12 3e
       0.033459157 -0.09421337 -0.2225312 0.14306843
000150 e7 2d d2 bd 1f 1f e6 3d 2f d7 68 be 85 e3 1d bd
       -0.102626614 0.11236405 -0.22738336 -0.038547058
000160 18 98 36 3e ab 83 83 3e 57 cf 6d 3e b3 96 f1 3d
       0.17831457 0.25686392 0.23223625 0.11796322
000170 c2 79 ad 3e ae 8c 7b be f0 7a 9e 3d 8f a5 9a 3c
       0.33881956 -0.24565384 0.07738292 0.018877773
000180 ec fd 9a bd 0f 0f 1b 3e fb 42 75 bd 54 4b 1e be
       -0.07567963 0.15142463 -0.05987833 -0.15458423
000190 71 36 e4 3d 19 11 6e 3c 64 e2 93 3d 2c 54 1b be
       0.111431964 0.014530444 0.07220915 -0.15168828
0001a0 69 fe 6a 3e 75 39 eb bc 46 62 32 be 08 1a 1c 3c
       0.22948612 -0.028713921 -0.17420301 0.009527691
0001b0 44 6e 87 3e e3 6c 07 3e 89 20 73 3e 04 0c 5e 3d
       0.26451313 0.1322513 0.2374288 0.054210678
0001c0 6c 45 6b 3c 00 ea 04 3e ae 02 89 3e ca c9 28 be
       0.014359813 0.12979889 0.26759857 -0.16483226
0001d0 f3 20 b3 3d 27 e8 0a be a4 47 b1 bd 6b 85 48 3d
       0.08746519 -0.13565122 -0.086562425 0.048955362
0001e0 bc 5f 8d bd c2 a1 6a 3e 38 85 a4 bd f5 9e 2e bd
       -0.069030255 0.22913268 -0.08033222 -0.042632062
0001f0 95 48 12 be 67 15 a5 be 5e 1b b7 be bc f4 25 3c
       -0.142855 -0.3224289 -0.35763067 0.01012915
000200 bc 2b 17 3d e3 0b 07 bc 81 79 54 3e 78 0b e3 3b
       0.036906943 -0.00824258 0.20749475 0.0069288574
000210 3b a1 94 bc e5 01 3d bc 6b e3 c1 bd 18 99 89 3d
       -0.018143287 -0.011536096 -0.09467205 0.067186534
000220 b2 83 1b 3d d4 5d a9 3d 46 81 c6 3b 9e cf 8d 3c
       0.03796739 0.082698494 0.006057891 0.017310914
000230 c6 05 24 3d 37 68 0a 3d 10 a5 5a be 5e 4a 08 3e
       0.04004457 0.033790793 -0.21352029 0.13309619
000240 ab 88 26 3d 24 ca b3 bd 9a 1a 02 be ac bd 81 bd
       0.04065768 -0.0877879 -0.1270546 -0.06335005
000250 61 d7 43 3e 06 4a 8d bd c0 42 ac 3c 82 e1 35 3c
       0.1912513 -0.068988845 0.021027923 0.0111011285
000260 db ce 73 3d 95 26 34 3e 25 29 9e 3b 6c 55 0e 3d
       0.059523445 0.17592843 0.004826682 0.034749433
000270 04 84 4e 3e cc 2f e5 3d b2 08 e1 bd ea 2f e3 3b
       0.20167547 0.11190757 -0.109879866 0.006933202
000280 a9 7e 24 3c 3a 78 ed 3c 16 8f cf 3c f7 7a 76 3d
       0.010039964 0.028987993 0.025336783 0.060175862
000290 a6 ba d6 bd 54 58 45 3e 24 71 e2 3d 2e c5 f9 3d
       -0.10484819 0.19271976 0.11056736 0.12195812
0002a0 0b 40 8b bc 72 2e ab bd b1 ea 8f bc cb d5 02 be
       -0.016998312 -0.08358468 -0.017567964 -0.12776868
0002b0 58 80 24 3e 4a a0 32 bd 9e 20 36 3d b6 99 13 be
       0.16064584 -0.043609895 0.0444647 -0.14414105
0002c0 ba 0a 43 bd 14 58 3c 3e 36 f2 a6 3d 9c b6 20 bc
       -0.04761765 0.18392974 0.08151667 -0.0098091625
0002d0 12 04 b6 bd 05 c3 39 bb 10 c1 69 3c 78 f1 29 be
       -0.08887495 -0.0028345 0.014267221 -0.1659602
0002e0 91 cb 5f be 56 1e c1 3d ab 41 86 3d dc 3a d3 bd
       -0.21854998 0.09429614 0.06555494 -0.10313961
0002f0 30 b1 f2 bb d4 60 84 3d 51 62 59 3d 5c 81 59 be
       -0.0074063763 0.06463781 0.053072277 -0.21240753
000300 67 05 92 be 74 ff a7 3c fc e7 84 3d 88 b4 ca 3c
       -0.28519747 0.020507552 0.0648956 0.024744287
000310 54 e3 ee 3d 0f 95 0e bd 4a 49 1b 3e 2a 83 23 bd
       0.11664453 -0.034810122 0.15164676 -0.03992001
000320 c7 06 07 bd 36 e8 1b be d8 2c c2 bb 29 03 b3 bd
       -0.032965448 -0.152253 -0.005925756 -0.08740837
000330 da 84 aa 3d 82 6f cb 3d 10 58 26 3e ff b2 ef be
       0.08326121 0.09933378 0.1624453 -0.4681625
000340 32 e7 3c 3d 39 6a 8d be 22 49 a3 3b 0a 8c 1e be
       0.046118923 -0.27620104 0.0049830833 -0.15483108
000350 cd d6 bf 3d 10 6a 97 3c f2 6f 5f bc bd 45 51 3d
       0.09367142 0.018483192 -0.01363753 0.0510919
000360 97 87 9b 3d 21 18 15 3e 20 3c a7 3d c9 8c 28 3d
       0.07594221 0.14559986 0.08165765 0.04114989
000370 6c 61 7e 3d ff 46 69 3c 18 83 ec bd 33 6d fe bb
       0.062104627 0.014238118 -0.11548442 -0.0077644824
000380 c3 9c 0e be 70 fb d9 3c 43 8d b2 3d 85 9a 67 be
       -0.13926987 0.026609153 0.0871835 -0.22617538
000390 36 05 2d be ad 92 05 be b8 b8 8e bc 4c 4e bf 3d
       -0.16896519 -0.13044234 -0.017422065 0.09341106
0003a0 1d 94 76 bc 9a d7 0b 3d ba ff d6 bc 2e fd 72 3c
       -0.015049961 0.03414116 -0.026244987 0.014830871
0003b0 ec 06 cb 3c cb 16 d0 3c 1f 2a a2 bd f7 78 58 3d
       0.024783574 0.025401494 -0.0791819 0.052849736
0003c0 98 24 70 3d 01 90 05 3e 7b ef bb bd 23 81 c6 3d
       0.05862865 0.13043214 -0.09176537 0.096925996
0003d0 a4 43 8c bd 63 38 c6 bd cf 85 3a 3d dc 05 dc bd
       -0.06848839 -0.09678724 0.045537766 -0.10743305
0003e0 88 e4 78 bc 17 7c b5 be 78 60 83 3d c0 d9 07 be
       -0.015191205 -0.35446236 0.06414884 -0.13266659
0003f0 70 a2 60 3e 90 0f 0d be c8 f4 7d bd 48 95 40 3d
       0.21936965 -0.13775468 -0.06200102 0.047017366

network.1.conv.0.bias f4 [256]
000000 16 17 22 bd 46 66 7c bb 82 10 24 3d d4 d7 59 3c
       -0.039572798 -0.0038513108 0.040054806 0.013296086
000010 ec 9c f7 bb fc 2e 95 3d 40 c8 41 3d 71 5c 4d 3d
       -0.0075565483 0.07284352 0.047310114 0.050136987
000020 a0 5c 83 bd ac ca 4e 3d f3 7e 6f bc f9 60 25 be
       -0.06414151 0.05048625 -0.014617669 -0.16150273
000030 5c 1b 53 3d 53 d0 10 be ae 65 b7 bd 6c 58 ce bd
       0.051539764 -0.1414197 -0.08954941 -0.10075459
000040 27 93 9f bd 49 9c 5d ba fd c8 5b 3d ad 08 30 be
       -0.07791739 -0.0008453769 0.053658474 -0.1719081
000050 bc bd b9 bd f8 04 62 3e 82 52 c0 bd 10 c0 19 bd
       -0.09069392 0.22072208 -0.09390737 -0.03753668
000060 6b 7d 9a bd cd f8 f9 3b 87 19 2e be d4 95 c4 3c
       -0.07543453 0.0076285363 -0.17001925 0.023997225
000070 41 02 12 be b1 69 68 bc 92 ea 09 be 89 9b c5 3b
       -0.14258672 -0.014185355 -0.13468388 0.006030504
000080 65 05 91 bd 06 20 73 be 8f 97 45 3e fb 02 c6 bd
       -0.07081107 -0.23742685 0.19296096 -0.09668537
000090 be 63 4e be 99 ac 39 3c 47 dd cc 3b 40 6b 34 bd
       -0.20155236 0.011332654 0.0062519643 -0.044047594
0000a0 8a 49 d8 bd 85 b9 04 be 28 76 5c be db fb 93 3d
       -0.105609015 -0.12961395 -0.21529448 0.07225772
0000b0 92 89 b9 3c 04 43 e5 3c 19 fb fe bd 8a e1 b4 3b
       0.022648606 0.027986057 -0.12450237 0.0055200504
0000c0 89 30 86 bd 53 e0 40 3d 01 b2 7a bd 63 3b 93 3d
       -0.06552226 0.047088932 -0.061204914 0.071890615
0000d0 9c 03 76 bd 12 fb 6f bc b8 4f 99 bd 9e a3 66 3b
       -0.060062036 -0.014647262 -0.07485908 0.0035192738
0000e0 3d e3 04 3d 79 45 8d 3c 32 c5 99 3c da bf 00 3e
       0.032443274 0.017245041 0.018770788 0.12573186
0000f0 4f a0 0d be 67 64 8a bd dd c4 5f bc 61 c6 ae 3c
       -0.13830684 -0.067574315 -0.013657776 0.021334829
000100 cb 5f bc 3c f7 05 06 3d 2c 22 15 3e d5 4b 4a bd
       0.022994896 0.032720532 0.14563817 -0.049388725
000110 a9 db 1f bd 85 80 84 bd 86 ae 0b bc 07 0a b4 bd
       -0.039027844 -0.06469826 -0.008525496 -0.08790975
000120 bb 99 6c 3d 01 26 fe bd 13 9b 13 be bd 39 32 bc
       0.057763796 -0.124095924 -0.14414625 -0.010878024
000130 a0 72 4c 3b 83 e6 83 3c 3d a7 97 bb 97 55 42 3e
       0.0031196252 0.016101127 -0.0046280907 0.18977962
000140 76 a6 ff bd 1b 5c 18 3d 8d 4c 1d be de bf 87 3d
       -0.12482922 0.037197214 -0.15361233 0.06628393
000150 1b 5f 34 be a5 37 95 bd 10 66 81 bd 42 18 5d bd
       -0.17614405 -0.07286004 -0.06318295 -0.053978212
000160 75 ad 9a 3d c2 64 4c bc 3a b6 3d bc e0 fa 00 3e
       0.075526156 -0.012475194 -0.011579091 0.12595701
000170 fa c3 c9 3d 38 8b 02 3e 15 42 cd bc 73 fc 27 bc
       0.09851833 0.1274842 -0.025055924 -0.01025306
000180 1b 66 48 be 65 cb 79 bd 33 83 13 bd 22 e9 9e 3e
       -0.195702 -0.060984988 -0.036013793 0.3103724
000190 60 f9 13 3d ed 88 8e bd 4f cb 93 3d c3 b1 3b be
       0.036126494 -0.0695971 0.072165124 -0.1832953
0001a0 a6 21 55 be 76 aa 6b bd 09 41 0c 3e c9 e5 30 be
       -0.20813617 -0.05753561 0.13696684 -0.17275156
0001b0 eb 37 0a 3d 82 34 c7 bc e1 15 07 3e eb 9b 30 be
       0.033744734 -0.02431703 0.1319194 -0.17246978
0001c0 ba 33 98 3d a6 27 fd 3d 0e 40 cd bd 72 c6 90 3d
       0.07431741 0.12361078 -0.10021983 0.070691004
0001d0 d8 7f 6d 3d 25 2c 11 bd 21 a5 06 bd 15 31 13 3e
       0.05798325 -0.03544249 -0.032872323 0.14374192
0001e0 41 3d fe 3c 30 08 e9 bc 4f 27 f6 3d 82 b7 cf 3d
       0.031035068 -0.028446287 0.12019216 0.10142423
0001f0 87 2e f0 bd 6a 26 33 bd 9e b3 f2 3d dc d5 79 be
       -0.117276244 -0.043737806 0.118506655 -0.24397987
000200 21 1f 4f bd 5f dd d6 bd a8 1a 2a be cc 32 25 3d
       -0.050566796 -0.10491442 -0.16611731 0.040331647
000210 0a 6e 6c bd 54 5c ec 3a 3f 4b 37 3c d8 45 5f bc
       -0.05772213 0.0018032887 0.011187374 -0.013627492
000220 17 48 2a 3d a8 b7 7c bc 4a a9 89 bd d5 f4 8f bc
       0.041572656 -0.015424646 -0.067217425 -0.0175728
000230 cc 54 12 bd d8 b2 31 3d 4a e0 fe bb a6 46 fa 3b
       -0.0357254 0.04338345 -0.007778202 0.0076378165
000240 33 18 45 3d 82 f4 b3 3b b8 ba 12 be 03 1e af 3d
       0.04811878 0.005491794 -0.1432904 0.08550646
000250 92 41 09 3e ee 89 aa bd da 39 44 bd e6 21 15 be
       0.1340392 -0.08327089 -0.047906734 -0.14563712
000260 7c c5 f1 3d 36 b1 99 3e 59 cc f9 3c 8a a9 90 bd
       0.11805245 0.30018014 0.030492948 -0.07063587
000270 d5 3c 37 bb ea 9c 0b 3d 7f 1a 2a 3c 2f 5d dc bc
       -0.0027959843 0.03408519 0.010382294 -0.026899902
000280 5c 3f 0a bc d8 ca b0 bd 2f be cb 3c f6 b6 2b 3e
       -0.008437958 -0.086324394 0.02487096 0.16769013
000290 d0 e7 c3 bc ac 99 d9 3d a0 9f b1 bb fe 62 06 bd
       -0.023914248 0.10625014 -0.00542064 -0.03280925
0002a0 73 92 89 3d 04 45 cf 3d 8b 23 a3 3d 11 85 0c be
       0.06717386 0.101205856 0.07965764 -0.13722636
0002b0 cc 98 30 3c 8a fa 57 be 89 ce 36 3d cb 32 14 be
       0.010778617 -0.21091667 0.04463056 -0.14472501
0002c0 ca bb 69 bd de c0 c2 bd 1c 5b a6 bc b5 15 0a 3d
       -0.057063855 -0.09509443 -0.020307116 0.033712108
0002d0 29 13 4b bb 8a 93 a2 bc 90 49 8e 3c 9b 70 01 be
       -0.0030986762 -0.019845743 0.017369062 -0.12640612
0002e0 1c 47 88 bc 5c 9d b6 bd 04 67 3f 3d 89 19 79 be
       -0.01663547 -0.08916733 0.046729103 -0.24326147
0002f0 d3 c3 68 bd 60 bf 01 3e e6 79 ca bd 04 69 04 3c
       -0.056827378 0.1267066 -0.098865315 0.008081678
000300 6b 8a 86 bd 5c cf fe bd da 9c 29 be 29 38 21 3d
       -0.0656937 -0.124418944 -0.1656374 0.0393602
000310 d5 d7 04 be 4c e4 81 3d 04 d2 da 3d 61 25 bb bd
       -0.12972958 0.06342372 0.106845886 -0.09137989
000320 d6 bc b6 bd d4 58 cc 3d 60 55 12 be 85 41 13 3e
       -0.08922736 0.0997788 -0.1429038 0.14380462
000330 39 71 11 bd 82 e9 92 bc 67 d2 45 be e8 ae 03 be
       -0.03550837 -0.01793361 -0.19318543 -0.1285969
000340 74 68 d9 bc a5 2d fa 3b b2 e6 09 bc 5f 21 61 bc
       -0.026539065 0.007634836 -0.008416818 -0.013740866
000350 7c da 1e be 13 09 82 3b eb b1 65 3d f5 24 9d 3d
       -0.15513033 0.003968367 0.05607788 0.076730646
000360 08 d8 1a be bd 03 c5 3c 56 20 58 be 74 6c 26 bd
       -0.15121472 0.024049634 -0.21106085 -0.040630773
000370 63 7e 99 3b ad 2f 15 be 6f 71 55 be f9 1b bd bd
       0.004684256 -0.14568968 -0.20844053 -0.09233851
000380 7b b5 09 3c 99 e4 93 3b 84 dd 8b 3d 6b af 01 be
       0.008405085 0.004513335 0.0682936 -0.12664573
000390 11 f8 57 3d dd 85 28 3e f3 ea 0b 3e 9a ba 4c be
       0.05272681 0.16457315 0.13663845 -0.19993058
0003a0 4d 2a 61 bd 60 9d 0c 3e 1a 21 b1 bd fa 39 a9 bc
       -0.05497198 0.13731909 -0.08648892 -0.020657528
0003b0 01 78 c0 bc 21 4f f3 3c 3c e7 74 bd cd 63 45 3e
       -0.023494722 0.029700818 -0.059790835 0.19276352
0003c0 a9 82 0d be 55 90 81 3d 87 46 01 be b6 5f 69 3c
       -0.13819374 0.06326357 -0.1262456 0.014244011
0003d0 42 2d 56 3e 86 97 25 3d fc e1 35 3d be 7d 93 3a
       0.20915702 0.040427707 0.04440497 0.0011252684
0003e0 5e 32 d8 bd 40 37 3b bc 6b c2 83 be 10 54 f1 bc
       -0.10556482 -0.011426747 -0.25734267 -0.02945903
0003f0 42 01 54 3d 0b fb ba 3d 50 38 99 bd ab e7 c2 bd
       0.051759012 0.09129914 -0.07481444 -0.095168434

network.2.conv.0.weight f4 [128, 256]
000000 1d 81 f8 3c fc 7b e5 3b 15 de 92 bc 82 6e ea 3c
       0.030335004 0.0070033055 -0.017928163 0.028617147
000010 c2 63 57 bd 02 33 b7 3d 02 89 67 3e 27 07 45 3e
       -0.05258537 0.08945276 0.22610858 0.1924101
000020 2a c3 90 bd bb 94 c3 3c 60 ef e0 bd 2f 41 50 bd
       -0.070684746 0.023874631 -0.10983157 -0.050843414
000030 6b 54 83 3d 9f a3 cd 3d 33 1b bf 3d c5 48 c4 bd
       0.06412586 0.10040974 0.0933136 -0.09584192
000040 b3 73 c4 3e c3 81 e6 bd 18 9a be bd 68 a2 b0 3d
       0.38369521 -0.11255219 -0.09306735 0.086247265
000050 c7 ec bc 3d 7b 8c 4b bd 6c eb a4 3d 03 e1 e9 3d
       0.09224849 -0.04969452 0.08052716 0.11419871
000060 71 3a 58 be 7a ec 88 3e cb 9a 08 be b0 e3 9f 3d
       -0.21116044 0.26742917 -0.13340299 0.078071
000070 5d 99 34 3e a9 80 95 bd ac cb 42 3d 53 04 58 be
       0.17636628 -0.072999306 0.047557518 -0.210954
000080 11 e0 0f be 08 a1 02 be f1 f6 76 3d 02 1a 8c bd
       -0.14050318 -0.12756741 0.060294095 -0.06840898
000090 b4 9b b7 bd 33 fe 16 bd a5 69 ee 3d 4f 59 53 bd
       -0.08965245 -0.036863517 0.11641244 -0.051598843
0000a0 0b 9c a9 3d c0 0b 01 bd fa 26 11 3c 8e 82 bc 3d
       0.08281716 -0.031505346 0.00885939 0.09204589
0000b0 eb e5 f5 bd 3e b5 c3 bd 4a ab 55 3e 78 74 15 3d
       -0.12006744 -0.095560536 0.20866123 0.036488026
0000c0 26 c9 59 be ca 56 f1 3d 58 6e 3d be 1f 4f 43 bd
       -0.21268138 0.11784132 -0.18499124 -0.047682878
0000d0 9c 97 19 bd 34 2b b5 bc ed ce ea 3c b4 8c 3f bd
       -0.0374981 -0.022115327 0.028663123 -0.046765044
0000e0 9a 79 eb bc d5 f0 aa bd 29 26 60 be 0c b8 fd bd
       -0.028744508 -0.08346716 -0.21889557 -0.1238862
0000f0 55 7d 76 3d e1 50 a9 bd 61 28 2d 3e d8 b9 d1 bd
       0.06017812 -0.082673796 0.16909935 -0.10240525
000100 83 cf 77 39 b1 b8 d7 3d fb e4 a1 bd 49 80 99 bc
       0.0002363306 0.10533274 -0.07905003 -0.018737929
000110 44 a8 48 be 5d b9 4c bd 89 1d ca bd d7 2d c8 3d
       -0.19595438 -0.049981464 -0.09868915 0.09774368
000120 ce 51 5f bd a1 f0 a0 b9 22 e7 e1 bd ab 76 38 bd
       -0.054521374 -0.0003069686 -0.11030413 -0.045035046
000130 13 55 6f 3d ce 91 0b 3d 83 cb 2f 3e 4a c1 2c be
       0.058430742 0.034074597 0.17167477 -0.16870609
000140 0a 2a 96 be eb ec 15 3e 52 8c ee bc 56 3d b8 bc
       -0.29328948 0.14641158 -0.029119644 -0.022490185
000150 38 37 35 bd e4 52 e0 3d 2c ec 02 bd 96 67 10 3d
       -0.044242114 0.1095331 -0.031963512 0.035255037
000160 fc 74 b3 bd e0 6a 21 3a 30 9b 4d 3d f1 ba bd 3d
       -0.087625474 0.0006157588 0.050196826 0.09264172
000170 d6 4c ea bd 56 7a a8 3c 22 8a 76 bd 92 5d 28 3d
       -0.114404365 0.020566147 -0.060190327 0.04110486
000180 98 84 f4 bb 2a a1 1f 3d 10 6b 95 3c 20 c9 34 3e
       -0.0074620955 0.038972057 0.018239528 0.17654848
000190 c5 68 ba 3d 58 01 df 3d 3e d0 ca bc 55 da 88 3d
       0.091020145 0.10888928 -0.0247575 0.066822685
0001a0 2b cf b0 3d 36 da be 3d 76 c7 97 3c d8 60 58 3d
       0.08633264 0.09318964 0.018527728 0.052826732
0001b0 23 02 0e 3d 9c b9 68 be 02 06 d6 bd 80 8e c4 3d
       0.034670006 -0.22727054 -0.10450365 0.09597492
0001c0 b8 c8 e0 bd 10 a1 48 bc 9f 84 94 3d 72 e0 17 bd
       -0.10975784 -0.012245432 0.07251858 -0.037079282
0001d0 21 c9 d1 3b e4 24 85 be 65 c0 8e 3c 13 36 84 bc
       0.0064021503 -0.26004708 0.017425725 -0.016139066
0001e0 de 64 ac bd 58 70 3d be 71 e3 24 be b4 63 c2 bd
       -0.084176764 -0.18499887 -0.16102387 -0.09491673
0001f0 4e df f5 3c 58 7c e3 3b ab 12 92 bd f3 b3 d7 3d
       0.030013707 0.006942313 -0.07132467 0.105323695
000200 99 ba d6 3d ce 23 26 3e c8 7f 2e 3e 1f bc 10 be
       0.104848094 0.16224596 0.17040932 -0.14134263
000210 28 e1 64 bd d0 09 05 3e 03 e2 c8 bd 5e cb 91 3d
       -0.05587879 0.12992024 -0.09808733 0.07118867
000220 b9 15 0b 3d 45 ea 09 bc 2f 72 f7 bb 65 33 4d 3d
       0.033956263 -0.008417671 -0.0075514535 0.05009784
000230 f1 c9 82 3d 4b f8 dd 3c be f1 32 bd a5 28 03 be
       0.063861735 0.027095934 -0.043687575 -0.12808473
000240 27 78 55 3d d7 9c 2b be 1b bd 55 3d 73 4b f3 bc
       0.05211654 -0.16759048 0.0521823 -0.029699063
000250 d8 b5 fc bd 64 90 96 bb b6 03 71 bb 21 cd 00 be
       -0.123393714 -0.0045948494 -0.0036775894 -0.1257825
000260 00 a4 37 bd 67 78 be bd 52 2e 5e 3d c2 93 ab 3d
       -0.044834137 -0.09300309 0.054243393 0.08377792
000270 e8 0c 3c 3e 2b fa e1 bd 1a 86 f0 3c 6b 85 22 be
       0.18364298 -0.11034044 0.02936082 -0.15871207
000280 ff 3d 57 3e 7e 83 30 3c 82 1d 2c 3e fc ac 3f bd
       0.21019743 0.010773538 0.16808131 -0.04679583
000290 cc 45 87 bd 56 0e 0a be 42 a6 a9 3d 47 06 ed bd
       -0.066051096 -0.13482031 0.08283664 -0.11573463
0002a0 f5 4a 5b bc ea 17 f3 bd 7d 50 73 bd 88 16 78 bd
       -0.01338457 -0.118697956 -0.05940293 -0.060568362
0002b0 6c 27 d4 3c 2b 23 b3 bd ca 1a 0d 3e 56 02 54 bb
       0.025897704 -0.08746942 0.1377975 -0.0032350025
0002c0 7c 4c d3 bd 01 9d fd bd 42 dc 04 3e 10 63 b9 3d
       -0.103173226 -0.12383462 0.12974647 0.09052098
0002d0 a5 9b 52 3d ee f2 fd bd 90 be 14 3e f3 15 7c bd
       0.051417965 -0.12399851 0.14525819 -0.06154437
0002e0 3c 2a 36 bd 5d 33 b8 bd 6f 47 de bd c2 b0 89 bd
       -0.04447387 -0.08994172 -0.108534686 -0.06723167
0002f0 fc b4 c8 bc 25 32 09 3d 61 98 cb 3d 0f c6 a3 bd
       -0.024500363 0.033495087 0.09941173 -0.07996761
000300 b4 7b 23 3e ec 38 4b be ce fb 62 be 68 c0 1a be
       0.15965158 -0.19845933 -0.22166368 -0.1511246
000310 41 bb 01 3e be 49 84 3d 40 54 f0 3d 36 64 b7 bd
       0.12669088 0.06459378 0.117348194 -0.089546606
000320 f5 74 0b 3e 42 c7 db 3c 54 d3 10 3e c6 f5 bf 3b
       0.13618834 0.026828412 0.14143115 0.005858156
000330 8c 07 8e 3c 36 30 7b bd 4b 9c ad 3c 23 21 15 3e
       0.017337583 -0.061325274 0.02119269 0.14563422
000340 07 b4 9e bd 02 16 ee bc c4 3d 5f be 92 d6 b4 bd
       -0.07749181 -0.029063229 -0.21800905 -0.088299885
000350 fc 4a 15 3c 08 09 63 bd 2a ca f3 bd 20 1a 42 3d
       0.009112116 -0.055428535 -0.11903794 0.047388196
000360 97 28 dc bd c5 14 2a 3d 98 a0 74 be 1c e7 05 3e
       -0.107499294 0.041523714 -0.23889387 0.13076442
000370 58 3a c5 bd dc 0b 01 be 17 ed 9b 3d cd f9 90 be
       -0.09630269 -0.1260218 0.07613581 -0.28315583
000380 83 6f 42 be fc bb 96 bc a1 0c 48 bc 6c 25 05 be
       -0.18987851 -0.018400185 -0.012210042 -0.13002557
000390 99 ab 15 bd f6 da d6 bd fe 85 4f bd c7 e9 c1 bd
       -0.0365406 -0.10490982 -0.050664894 -0.094684176
0003a0 87 70 ca 3c d4 b4 fc 3d 35 56 81 3d 73 2a 26 bd
       0.02471186 0.12339178 0.06315271 -0.040567826
0003b0 80 0b 9c bc 98 19 0b be 66 72 9d 3e fb 49 52 bd
       -0.019048452 -0.13583982 0.30751342 -0.051340085
0003c0 87 e4 ed bd 80 89 90 bd f2 3d 49 be 24 d5 f0 bd
       -0.11615854 -0.07057476 -0.19652537 -0.11759403
0003d0 68 09 b2 bd b2 b2 c8 3d 57 d2 17 bd 9e f4 a6 bc
       -0.086932 0.097997084 -0.03706583 -0.020380314
0003e0 a0 21 6c bc 58 b5 40 3e 7e a6 39 3e 72 91 f3 bd
       -0.014412314 0.18819177 0.18129918 -0.11892976
0003f0 43 3f 0c 3d 6a eb 0a bd fa 1c 37 3d e1 24 93 bd
       0.03424002 -0.033915915 0.04470537 -0.071847685

network.2.conv.0.bias f4 [128]
000000 7f 70 40 be 1f 6e cd 3c d4 97 1b be be 40 e5 3d
       -0.18792914 0.025076924 -0.15194637 0.11193989
000010 8a 35 40 be d2 3f 3e be 0b 05 25 3e 12 6c e6 3c
       -0.18770424 -0.18579033 0.16115205 0.028127704
000020 aa a6 56 bd e5 82 98 3c aa 62 80 3c 62 c4 a9 3d
       -0.052405037 0.018617103 0.015672047 0.0828941
000030 3c b7 30 3d ac 2c 1e 3e 92 62 2f bd 15 70 57 3d
       0.043143496 0.15446728 -0.042818613 0.052597124
000040 1c bf 28 3d a1 37 ab bc d5 4d b0 bd 9c 80 97 be
       0.04119788 -0.02090055 -0.08608595 -0.2959031
000050 f4 b7 ef bd 12 04 c8 3c d8 7e 20 bc 19 57 cd bd
       -0.11705008 0.024416003 -0.009795867 -0.10026378
000060 9d 18 af bd 4b 3f 0d be 8e b1 89 bc 6a fc d8 bd
       -0.085496165 -0.13793676 -0.016808297 -0.10595019
000070 9a de 0f bd f9 ca 68 bd 44 05 f0 3d 0e df 42 be
       -0.0351244 -0.056834195 0.11719754 -0.19030401
000080 ab c6 a4 bd 32 35 70 be 1c a5 ce bc 66 85 ca 3c
       -0.080457054 -0.23457792 -0.025225215 0.024721812
000090 e6 86 3f bd f5 88 58 be 71 ba 0a 3d c8 2d 6a bd
       -0.04675951 -0.21145995 0.03386921 -0.057172567
0000a0 f9 03 05 be 68 aa 40 3c 58 04 34 3d 68 84 e9 bd
       -0.12989797 0.011759378 0.043949455 -0.114022076
0000b0 b1 13 04 be 24 5e 8e 3d 07 34 d4 3d aa d8 0b be
       -0.12898137 0.0695155 0.10361486 -0.1365687
0000c0 b3 9c 60 be 4c f8 03 3d 03 06 d3 bc d7 2f 3d 3d
       -0.21934776 0.032219216 -0.025759703 0.0461882
0000d0 f7 6d 7b bd b0 63 05 3e 58 72 ad bb eb ce ee 3d
       -0.061384168 0.13026309 -0.005293172 0.1166056
0000e0 b6 73 15 3d 3f c0 0a bd 9e 89 2c be a2 4f 92 be
       0.036487304 -0.033874746 -0.16849372 -0.2857638
0000f0 fd 0a 8a be d3 9d 06 3c 59 5a aa bd d9 0b 1e 3e
       -0.26961508 0.008216339 -0.08318014 0.15434207
000100 e2 bd 45 3d 7f ff 30 3e 72 f6 59 be ab 04 4a 3e
       0.04827679 0.17284964 -0.21285418 0.19728343
000110 e5 6c 97 bc a8 92 4a 3d 42 87 bb bd 92 d4 f0 bd
       -0.018484542 0.04945627 -0.09156658 -0.117592946
000120 13 f2 4b 3e 3a e5 6a 3c 69 8d a8 3d c1 3e fa 3c
       0.19916563 0.014336878 0.08230097 0.030547502
000130 95 11 c6 bd 73 a1 b1 3d 89 8b f6 3d a8 e4 83 3d
       -0.09671322 0.08673372 0.12038333 0.06440097
000140 aa e7 b9 3c 2a d8 48 be 18 c6 ee bc 2c b5 40 3e
       0.022693474 -0.1961371 -0.029147193 0.18819112
000150 a5 a1 05 bd 36 e5 07 3d ef a5 ff bd d7 e2 aa 3d
       -0.03262486 0.033177577 -0.12482821 0.083440475
000160 ab c5 30 3d 59 0b ba 3d 32 b6 4a bd 89 16 5f be
       0.04315726 0.09084196 -0.04949016 -0.2178594
000170 0a 9a 15 be e2 99 d1 bd d4 de 35 3d cc 80 6c bd
       -0.14609542 -0.10234429 0.04440196 -0.057740018
000180 7a 79 fe bc ea 6d 04 be f8 be f4 3d 71 cb e0 3d
       -0.031063784 -0.12932554 0.11950487 0.10976303
000190 1a a2 06 be d2 06 da bd 05 2c be 3b f9 e0 ca 3d
       -0.13147774 -0.10645832 0.0058035874 0.099061914
0001a0 c7 ec 34 bc c1 74 96 3d 11 6e c3 bd 30 d5 56 bc
       -0.01104278 0.07346488 -0.09542478 -0.013112351
0001b0 39 45 57 be 4f f4 1e be c1 88 51 be 38 23 e4 3c
       -0.210225 -0.15522884 -0.20462324 0.027848825
0001c0 c5 31 db bc 43 57 13 bc 9b 65 9a bd 97 f6 c7 bd
       -0.02675713 -0.008992973 -0.07538911 -0.0976383
0001d0 ec 7f 6f be 3e 87 f9 bd c5 85 e9 bd 80 cd 04 bd
       -0.23388642 -0.121839985 -0.11402468 -0.032422543
0001e0 7d 38 36 3c a3 24 92 be 66 d4 e6 bc 2b e7 49 be
       0.011121866 -0.28543577 -0.028177451 -0.1971709
0001f0 cd 2b bd bd d4 10 55 be 26 a4 cb 3c c5 44 1d bd
       -0.0923687 -0.208072 0.024858546 -0.03839566

network.3.weight f4 [2, 128]
000000 44 a5 eb bc 59 4b 92 3c 2d c3 f5 bd 5c 7b 5e 3d
       -0.028765328 0.017858194 -0.120001175 0.054316863
000010 f6 ad 20 3c 2a 42 11 be 9b f8 3a 3e 0a 25 5f bd
       0.0098071005 -0.14185396 0.18258898 -0.054478683
000020 64 cf 08 3d bb f7 39 3d 8f ea 00 3b 15 39 ef bc
       0.033400908 0.04540227 0.0019671058 -0.029202024
000030 c0 93 5d 3d 6a 59 1c bd a3 d6 64 3c 6d 15 33 bc
       0.054095984 -0.03817121 0.013967189 -0.010930401
000040 19 72 bf bd d3 e3 20 bc b6 aa ec bd a3 f8 23 3e
       -0.09347934 -0.0098199425 -0.11555998 0.16012816
000050 01 4b 2e bc 1e 81 f5 bb b1 42 1f 3c 80 20 ab bd
       -0.0106379995 -0.0074921986 0.00972049 -0.08355808
000060 26 ba 56 3e c9 e5 9e bd cc aa 16 3d da f6 ce 3c
       0.20969447 -0.07758672 0.03678398 0.025264192
000070 5f 29 2e bc 93 2a 04 3e 59 10 44 3c 3d 61 82 3d
       -0.010629981 0.12906866 0.011966788 0.06366203
000080 3c 37 de 3d 15 99 3c be fd d3 69 3d 6d 2c 0b 3e
       0.10850379 -0.18417771 0.057086933 0.13591166
000090 a5 47 3d 3c c0 bd 80 be 64 c8 4c be fb fd ca bd
       0.011552726 -0.25144768 -0.19998318 -0.09911724
0000a0 47 e8 01 3e 36 4c a7 3d 8e 76 2e 3d f6 80 c9 bd
       0.12686263 0.08168833 0.04259353 -0.098390505
0000b0 42 6e a0 3d b8 9c aa bd 57 5c e0 3d a1 ba 22 3d
       0.0783353 -0.08330673 0.109551124 0.039728764
0000c0 a1 6a 13 be 3b cb 6c bd 3d 76 3d 3d 31 b3 69 3d
       -0.14396144 -0.057811003 0.04625534 0.057055656
0000d0 b6 7f b7 3d a8 6b 6c bd 13 2e f3 bc 67 80 2a be
       0.08959906 -0.057719857 -0.029685056 -0.16650544
0000e0 bf 0e 38 3c a1 14 6b bb 7d 17 f0 3d b7 6f 36 bd
       0.0112339845 -0.003587045 0.1172323 -0.044540133
0000f0 e9 7c ae bc 9f 32 03 3e 5a c8 0b bd 73 5b 09 be
       -0.021299796 0.12812279 -0.034126617 -0.13413791
000100 f7 c8 3d 3e 5e 2e 07 bd 76 61 33 3e b5 c3 3d be
       0.18533693 -0.033003204 0.17517647 -0.18531688
000110 c9 e3 a1 3c fc 2e f2 3d 23 9a e6 bd 51 86 5c 3d
       0.019761937 0.11825368 -0.11259868 0.05383903
000120 f5 f8 15 3d 27 40 36 be a7 da ea ba 79 ed 34 3e
       0.036614377 -0.1779791 -0.0017917947 0.17668714
000130 1c 6a 9e bd d3 92 4c bc 9c 8c 34 bd 06 dd c8 3c
       -0.077350825 -0.0124861775 -0.044079408 0.024519455
000140 28 bd 82 bd 9d 24 c2 3a ab 14 de 3b 72 56 e9 bc
       -0.06383735 0.0014811937 0.006777366 -0.028483603
000150 56 b7 fc 3d 4f 6e 04 3d 73 8b 90 3d 43 66 2e be
       0.12339656 0.03233176 0.07057848 -0.17031197
000160 a5 7f bd bc 30 10 ba 3d 2c fc 88 3c ca 97 08 3d
       -0.023132155 0.09085119 0.016721807 0.033347882
000170 95 42 57 be df 80 03 be a1 42 57 bd 31 8d 9f bb
       -0.21021493 -0.12842129 -0.052553777 -0.0048691262
000180 ad e4 d7 bb cd f6 dc 3b 29 45 22 bd b2 05 69 bc
       -0.0065885396 0.006743288 -0.039616738 -0.014222549
000190 94 c5 03 3e 29 20 fe bc 37 70 64 3e da 92 c0 bb
       0.12868339 -0.031021195 0.22308432 -0.005876881
0001a0 62 43 cb 3d 19 92 35 3e 36 cb 86 bb 3c e5 84 bd
       0.099249616 0.17731513 -0.00411358 -0.064890355
0001b0 30 2a 8e bc 85 a5 88 bd 6c 96 85 bd e5 d1 67 3d
       -0.017354101 -0.06672195 -0.06522831 0.056596655
0001c0 ae 7f 90 3d 39 07 02 3e 4b 9b 1e 3e bf 36 0c be
       0.07055603 0.12698068 0.15488927 -0.13692759
0001d0 11 d5 dc 3b 9b 51 48 3d 0f f6 17 be d4 98 5a 3d
       0.0067392667 0.04890595 -0.14839958 0.053368405
0001e0 f3 e5 00 3e fc d3 46 be 98 ca 5e 3e cc cc 83 bd
       0.12587719 -0.19416803 0.21756971 -0.06435546
0001f0 a7 1f 31 3e e3 27 37 be bd f3 cc bb 95 e0 09 bb
       0.1729723 -0.1788631 -0.006254642 -0.0021038402
000200 ee f4 16 be cb 1a 9d 3d 34 b4 f0 3c 3b 08 e6 bd
       -0.14741871 0.07671126 0.029382803 -0.112320386
000210 ee 6e cb 3d d3 1b 38 be f3 9f d9 bd 16 45 9a bc
       0.099332675 -0.17979364 -0.10626211 -0.01883177
000220 cf 22 42 bd 7e 97 a4 3d 44 f9 12 3d df 47 88 bd
       -0.047396477 0.08036707 0.03588225 -0.06654333
000230 2f f8 95 3d 69 0b 1a bc a1 14 b6 ba d3 b8 89 3c
       0.07322728 -0.009402134 -0.0013891646 0.016811764
000240 8c 54 16 bd f9 2d a4 3d d1 10 e6 bd dd 2c f7 3d
       -0.036701724 0.08016581 -0.11233676 0.12069104
000250 26 da ef bd 45 9b ec 3d 74 e2 76 3c ab 88 b8 3d
       -0.117115304 0.11553053 0.015068639 0.09010442
000260 d6 f4 06 3e a6 03 aa 3d bf 60 05 be 0f fb d2 bd
       0.13179335 0.08301477 -0.13025187 -0.10301792
000270 0e a1 03 3e 7a 15 64 3d d6 ba a9 3b e9 8b a6 bd
       0.12854406 0.055684544 0.0051797433 -0.081321545
000280 cc 8c bb bd 0c 7a f8 3d 3c 0d 32 3e 13 4b d6 bd
       -0.09157714 0.121326536 0.17387861 -0.10463538
000290 c9 56 8c 3d e8 c9 25 3d ae 62 3d 3d ce dd ec bd
       0.068524905 0.040475756 0.046236686 -0.115657434
0002a0 c3 b0 29 be af d0 26 3d 14 ab 4e bd 20 4b 8c bc
       -0.16571335 0.04072636 -0.05045612 -0.017125666
0002b0 99 05 14 3b 0b 84 08 3e c4 34 83 3e 09 da 9a bc
       0.0022586344 0.1333162 0.25626194 -0.018902795
0002c0 86 64 bc bd bb 13 df bd 02 87 40 3d e5 33 11 3d
       -0.09198861 -0.10892435 0.047003753 0.03544988
0002d0 72 b0 e5 3d 9c 6f 37 3e 67 b5 85 bb e7 2d 1e 3e
       0.11215295 0.1791367 -0.0040804627 0.15447198
0002e0 79 e2 96 3d 3c cc e8 3b 88 a0 d3 3d 82 1d 26 be
       0.07367415 0.0071044248 0.10333353 -0.16222194
0002f0 a1 4c 11 bd ff 9f 0b be 16 23 90 3d b7 37 9a be
       -0.03547347 -0.13635252 0.07037942 -0.30120632
000300 11 f8 ce bd 1a ae c8 3d 21 cc 05 3d 99 d3 29 3d
       -0.10105909 0.09798832 0.032665376 0.04146156
000310 30 79 b9 3d 5a be a6 be 02 4d 1a 3e d8 a8 8b 3c
       0.09056318 -0.32567102 0.15068439 0.017048284
000320 90 c9 c3 3d ac 4f 44 3b 67 1d 78 bd 12 9c a7 bd
       0.09559929 0.0029954715 -0.060574915 -0.08184065
000330 c4 a6 c2 3d 9c 97 06 3e 0f 41 2d 3e 7f 92 8e bd
       0.09504464 0.13143772 0.16919349 -0.06961536
000340 e9 51 94 3e e8 ef b2 3b cb c6 11 bb ce 14 89 3d
       0.28968742 0.005460728 -0.0022243734 0.06693421
000350 6e 9a 67 3c 43 28 9a bd b8 48 fd bd d9 c0 b4 3c
       0.01413594 -0.075272106 -0.123673856 0.022064613
000360 5a a2 08 be 3b 2e 4e be 44 63 ce 3d 27 ff 5a 3d
       -0.13343182 -0.20134823 0.10077527 0.05346599
000370 28 e9 42 3d 9c 32 f6 3d 03 2c 17 3e 9c a1 b4 bc
       0.047585636 0.12021372 0.14762883 -0.022049718
000380 94 36 9f 3d 93 67 3b 3e 88 4c bd 3d 56 1b 33 bd
       0.07774082 0.18301229 0.09243113 -0.04372724
000390 f8 9e 67 3d 80 c5 7a 3d 16 a1 03 bd 58 19 1e 3d
       0.05654809 0.061223507 -0.032136045 0.03859839
0003a0 dc 09 45 3d ee 0e f6 bd d1 d6 8d 3e d2 ab 4b 3d
       0.048105106 -0.12014566 0.27702954 0.049724407
0003b0 0d 47 47 3d a3 ba 89 3d b6 23 45 3d 15 1d 20 bd
       0.048651744 0.06725051 0.04812976 -0.039090235
0003c0 34 aa e2 bd ed cb 5b be 31 a9 b6 3d 29 fe 1a be
       -0.1106762 -0.2146451 0.089189894 -0.15136017
0003d0 f2 b2 a5 bc 35 11 e2 3d 70 d8 c3 3d ac 46 97 3d
       -0.02022693 0.11038438 0.095627666 0.073865265
0003e0 2f 88 b6 3d 62 06 d7 3d 0c e5 78 be 8e fd 04 be
       0.08912694 0.10499264 -0.24306124 -0.12987348
0003f0 97 6d 10 bd dd 93 03 be c5 71 07 bd 6a 2a d9 3d
       -0.035260763 -0.12849374 -0.033067483 0.10603793

network.3.bias f4 [2]
000000 04 42 83 bd 58 89 79 3e
       -0.06409076 0.24368799
