exomy/config/best_run_no_obstacles405k/checkpoints/381000_policy.pt (torch, 723582 bytes, 13 tensors)

log_std_parameter f4 [2]
000000 24 fc a7 bf bf 1b 36 bf
       -1.3123822 -0.7113609

network.0.conv.0.weight f4 [512, 5]
000000 4d 27 9c 3e 91 01 4b be c8 0a 4f 3c cc b3 a6 bd
       0.30498734 -0.19824816 0.012636848 -0.08139762
000010 2b 01 2a 3e d7 df 1a 3e 89 57 15 3e 65 3d 07 3e
       0.16602008 0.1512445 0.14584173 0.13207014
000020 1b 40 9e bd 47 4d 3c bc f1 94 a4 bc bd 15 ef 3b
       -0.07727071 -0.011493034 -0.020090552 0.0072962926
000030 7c f3 24 3c ac 20 82 be 6b d7 6b 3d 96 d6 23 3d
       0.010067817 -0.25415552 0.057578485 0.039999567
000040 31 d7 bd bd 0c 52 47 3e 91 97 81 3d 26 2d 2e 3e
       -0.0926956 0.19464892 0.06327737 0.1700941
000050 71 a5 55 3d 66 b2 4a bc cd dc a8 3d 47 60 45 3e
       0.05215973 -0.012371635 0.082452394 0.19275008
000060 a9 d5 00 3e cc 29 60 3e 51 d6 c2 3e 78 0e 71 3b
       0.12581505 0.21890944 0.38054135 0.0036782306
000070 dd 1f 30 be b5 db e3 bc 67 28 90 be 77 ae 67 bc
       -0.17199655 -0.027814725 -0.28155825 -0.014140717
000080 b6 a0 66 3d 32 7c b1 bc c7 c3 78 bd 56 36 d2 3b
       0.05630561 -0.021665666 -0.060733583 0.0064151688
000090 40 24 09 bd 2a 53 46 3d cd be c2 3d 60 cc 96 bd
       -0.033481836 0.048419155 0.095090486 -0.073632
0000a0 cd 0d 94 3d 32 c2 d2 be 13 b6 b1 bc 0f 5b 33 bd
       0.07229195 -0.41163784 -0.021693265 -0.043788012
0000b0 3c 90 a7 bc 62 e3 2e be a6 f4 36 be 46 f0 45 be
       -0.020454518 -0.17078927 -0.17866763 -0.19329938
0000c0 33 82 00 3d 5b c2 40 be 6d 61 b4 bc 20 64 d1 3e
       0.031374168 -0.1882414 -0.022019112 0.40896702
0000d0 5f 99 8e 3d 9c aa 2d 3e b9 9a 41 3b 95 f6 99 bc
       0.06962847 0.16959614 0.0029541685 -0.018794337
0000e0 48 23 85 3e 9e 5e ce bb a1 5f 0d 3e 3e 35 90 bd
       0.2600348 -0.0062979003 0.13806011 -0.07041405
0000f0 aa c1 85 3e 7c 95 92 bd a6 36 b9 3d 3e fb ff 3c
       0.26124316 -0.07157418 0.090436265 0.031247731
000100 27 97 02 3e ce db 5d 3e c4 f2 a0 be 9f ac f9 bb
       0.12752973 0.2166588 -0.31435215 -0.007619455
000110 a4 04 48 3e 5f 97 03 3c 97 9f f0 bd 45 b5 71 3c
       0.1953302 0.008031695 -0.11749189 0.014752691
000120 0b 15 09 3d 68 a9 aa 3d 23 fd 1b 3e 06 49 3f be
       0.033467334 0.08333093 0.15233283 -0.186802
000130 e3 da be 3e cb ab 1a 3d c1 f4 20 3e 4e e2 07 bd
       0.37276372 0.03776149 0.15718366 -0.033174805
000140 29 84 48 3e 46 e9 04 3f 54 77 17 3d d4 cb 18 be
       0.19581665 0.51918447 0.036979035 -0.14921504
000150 7b 76 17 3e b2 6a 36 be 5f 39 cc 3d e6 d9 93 3d
       0.1479129 -0.17814139 0.0997188 0.07219295
000160 16 e0 ea bd 03 47 46 3d 40 79 78 3e c7 3f 14 3e
       -0.11468522 0.048407566 0.24265003 0.14477454
000170 9f d0 54 bd 23 5f 1a 3c f3 a9 13 3d 25 0b e0 be
       -0.05195677 0.009422096 0.036050748 -0.43758503
000180 2c ac a8 be 2e b6 99 bc 0a b6 53 3d 39 64 19 bd
       -0.32943857 -0.018763628 0.051687278 -0.037449095
000190 24 a1 26 be c8 3e 80 3d de 58 dd bd dd 5e 82 bc
       -0.16272408 0.062619746 -0.10807966 -0.015914375
0001a0 e5 cf 9f 3d 7a 84 a3 be d6 4f 86 3e d3 12 6d bd
       0.078033246 -0.3193701 0.26232785 -0.05787928
0001b0 9d b4 86 be d7 fa 64 3e 9f 59 99 bd 94 bf de bd
       -0.26309672 0.22361313 -0.07487797 -0.108763844
0001c0 f4 90 87 3d ef ab 40 3d f6 d9 10 bc 0a 12 32 be
       0.066194445 0.04703897 -0.008841028 -0.17389694
0001d0 ef 81 b3 3e 4b 22 06 bc f8 83 e1 3b 8c 9d 2c bd
       0.3506007 -0.008186887 0.006882187 -0.042142436
0001e0 a7 f6 ba 3e 3a ca 96 3d 93 ca d6 3d be 2d 95 bc
       0.36516306 0.073627904 0.10487857 -0.018210288
0001f0 db 35 eb bd eb 8e 3e be 86 17 e1 be 01 4c c5 bc
       -0.114848815 -0.18609206 -0.4396326 -0.024084093
000200 65 84 9a 3d 4d 96 89 bd 9e 01 cb be 89 78 27 3d
       0.075447835 -0.06718121 -0.3964967 0.040886436
000210 ff 02 f5 3d d2 6c 01 bd 37 bb 87 bc a0 d9 ca be
       0.11963462 -0.03159792 -0.016568763 -0.3961916
000220 23 e8 e3 3e 88 41 6f bd 0f 28 b4 bd 6f 47 90 bd
       0.44513044 -0.058412105 -0.08796703 -0.07044875
000230 8c 93 2f 3e 49 ac c9 3d 86 f5 11 bc a9 5a 16 3e
       0.17146128 0.09847314 -0.008908635 0.14683022
000240 73 0d 74 bc d2 5c 96 3c 86 1d 93 3e 9f df b4 3d
       -0.014895785 0.018354807 0.28733462 0.08831715
000250 54 17 6d 3d e2 e6 1a bd 4b 18 46 be 44 0b e7 3d
       0.057883576 -0.037817843 -0.19345205 0.112814456
000260 7d 14 dc 3c 3c 0f 1e be 63 ce 51 be 58 d7 a6 be
       0.026865238 -0.15435499 -0.20488887 -0.3258617
000270 35 ce 87 be e7 a2 e6 3d f9 88 8c 3d 00 85 06 be
       -0.2652451 0.1126154 0.06862063 -0.13136673
000280 99 52 86 be ab 1b 48 be 15 5d 8b 3b 13 95 2e be
       -0.26234892 -0.19541804 0.0042530396 -0.17049055
000290 36 f2 c6 3d 11 11 88 be 04 a2 e1 bc f4 14 7b 3c
       0.09714167 -0.2657552 -0.027543075 0.01532482
0002a0 48 90 9b 3c c3 c8 ba bd e9 fe fa bc 18 96 dd 3e
       0.018989697 -0.091203235 -0.030639129 0.43278575
0002b0 b7 27 64 3c fd 43 f6 bc 7b 31 f6 bc 9e 35 a5 3e
       0.013925484 -0.030061716 -0.030052891 0.3226747
0002c0 77 86 97 3d 15 6e 35 3d 70 e9 92 bd a7 cc 8e bd
       0.07398694 0.044294436 -0.07173431 -0.06972628
0002d0 f2 d1 99 be 6e 60 ef 3e 00 e6 3b bd d2 5f 05 be
       -0.30042988 0.46753258 -0.045873642 -0.13024834
0002e0 63 2a 61 3e 73 54 b7 3e 00 88 f5 3b 14 9f ec bc
       0.21988826 0.35806617 0.007493019 -0.028884448
0002f0 9f 9d 75 3d 86 7f 84 3c 2b ba ff bd ad 47 7e be
       0.059964772 0.01617409 -0.124866806 -0.2483203
000300 31 82 57 3d 85 b4 e5 bc 7f 27 fe 3c 6d 7e cb bc
       0.052614395 -0.02804018 0.031024693 -0.024840558
000310 97 d1 21 bf 7d b0 7e bd a7 d8 3b bd 23 aa 03 3e
       -0.63210434 -0.06218003 -0.045860913 0.12857871
000320 46 a4 69 3d a4 2d 9d 3e f3 97 0c 3d 40 41 e4 3d
       0.05704143 0.30698884 0.034324598 0.11145258
000330 59 a1 b4 3c 6d 03 1b be db f8 9c be a3 71 29 3c
       0.022049593 -0.15138026 -0.30658612 0.0103420345
000340 a0 18 ed bd 3e 77 9c bd 7c a6 0f be ce da ad be
       -0.115769625 -0.07639931 -0.14028352 -0.33955997
000350 38 58 29 bd 1f dc 20 bd b0 dc 52 be 26 26 a1 3e
       -0.041343898 -0.039272424 -0.20591998 0.31474417
000360 50 46 e4 3e 4c b6 4d 3c 0b fb 95 bd 68 54 e1 3d
       0.44584894 0.01255567 -0.07323273 0.11002427
000370 bc 2b ae be 7a 23 16 be 8e 2d f0 3d 44 ad b7 3d
       -0.34017742 -0.1466197 0.11727439 0.08968595
000380 10 9b 38 be d3 ee cd 3d cd 66 0e 3e 9b e9 51 3d
       -0.18027902 0.10055318 0.13906403 0.051248174
000390 fe 21 91 bd be 71 a3 3d 7b 81 c7 3e 8c 95 4b be
       -0.070865616 0.07980679 0.38965973 -0.19881266
0003a0 e1 58 04 bc e4 82 97 bd bd 74 fa bd 74 46 98 3e
       -0.008077831 -0.07398012 -0.12229297 0.2974125
0003b0 81 74 de bd 07 6a d1 bc c8 db 82 bd 29 5d 99 3d
       -0.10862065 -0.025563253 -0.06389576 0.07488472
0003c0 dc da de bd 28 0d 22 3e 8b 84 05 3d d6 26 d8 bd
       -0.10881588 0.15825331 0.032597106 -0.10554282
0003d0 2b 44 84 bd 9a 0b 9b be f9 cd bd be 0e 55 3b 3b
       -0.064583145 -0.3028229 -0.37071207 0.0028584632
0003e0 33 a6 82 bd e3 c5 3a bd 94 61 57 3e de b4 b5 3e
       -0.06379356 -0.045598876 0.21033317 0.35489553
0003f0 a6 56 cd 3d 34 58 3e be 97 83 63 be 15 99 75 3e
       0.100262925 -0.18588334 -0.22218166 0.23984177

network.0.conv.0.bias f4 [512]
000000 38 0b a6 3d c1 f8 3b be 46 39 95 bd 2b e5 8f bd
       0.081076086 -0.18356611 -0.07286315 -0.07026132
000010 e0 5b 9f be 48 5c 31 3c eb 15 36 be cf c3 4b be
       -0.31124783 0.010825224 -0.17781799 -0.19898914
000020 3a f0 f5 3d 15 17 53 bd e2 bd 5d bd 94 b0 b7 bc
       0.1200871 -0.051535685 -0.054136164 -0.022423066
000030 37 d2 cc bd 13 69 33 3d 9f 25 bc bd 7d 3e 97 3d
       -0.10001033 0.04380138 -0.09186863 0.073849656
000040 22 3c 11 bc 9d a5 0c be 16 48 1d bc 33 12 9a 3d
       -0.008864434 -0.13735051 -0.009599706 0.075230025
000050 da 86 19 3e 51 4f 33 3d 69 91 0f be 3f e0 91 3c
       0.14992848 0.043776814 -0.14020313 0.017807124
000060 9b 5d 14 3e fa de 9d 3d 8e 27 3a 39 22 ee fe 3c
       0.14488833 0.07708545 0.00017753078 0.03111941
000070 f7 1f 1e be d4 1e ae bd e3 a8 96 bb ea 8f 06 be
       -0.15441881 -0.08501974 -0.0045977696 -0.13140836
000080 ee 2a ec 3d cb 37 6a 3b 43 8c 12 3d 9b c9 7f bc
       0.11531626 0.0035738822 0.035778295 -0.015612031
000090 58 fd 3d 3b 7e 9a 23 bd 56 04 e4 bc ed 55 1c 3d
       0.0028990116 -0.039942257 -0.027834099 0.038167883
0000a0 e8 32 a3 3d 0e 40 f3 3d a9 01 eb bd d4 02 b4 3c
       0.07968694 0.11877452 -0.11474926 0.021974005
0000b0 4f be 39 be 6d ab d5 3d b2 55 d6 3c af 71 b3 bd
       -0.18139003 0.104330875 0.02616391 -0.08761918
0000c0 6d 94 01 3c 10 99 c9 3d a3 3d a9 bd d8 da a6 3c
       0.007908923 0.098436475 -0.082637094 0.020368025
0000d0 7b 1a 23 3d cb e2 f5 3d 8a 9f 94 3d de 8a 0d 3e
       0.039820176 0.12006148 0.07256992 0.13822505
0000e0 37 a6 77 bc 44 c1 0b bd 8e 55 ae 3c 01 a7 47 be
       -0.015115312 -0.03411986 0.02128103 -0.194973
0000f0 f5 3d a5 3d dd 29 1b 3b ef 08 26 3e 59 7a 7f 3d
       0.08068458 0.0023676076 0.16214345 0.06237254
000100 4a 33 55 3e 17 40 e4 bc 25 3f 91 3d 56 70 6c 3d
       0.20820346 -0.027862592 0.07092122 0.05772432
000110 00 4f a0 bd 5e 12 dc 3d d7 c2 b7 bb c7 0e 86 3c
       -0.07827568 0.10745691 -0.0056079435 0.016364468
000120 19 73 92 bd a4 7f fa bc ac db d0 bd ec 19 82 bb
       -0.071508594 -0.030578442 -0.10198149 -0.0039703753
000130 18 72 20 be f3 ab d0 bc bd e9 6d bd 2e 1d 5f be
       -0.15668523 -0.025472617 -0.05808424 -0.21788475
000140 7d e0 80 3d 2e 6f 1e 3d e8 fc 7a bd 72 8e 3c 3e
       0.06292818 0.038680248 -0.061276346 0.18413714
000150 3c 27 11 3e e5 d0 25 3d b9 cc 37 3d 7f b5 ff bc
       0.14175123 0.04048242 0.044872973 -0.031214474
000160 78 43 a4 bc 94 a6 26 be ad e2 e5 3a c1 cb 0d be
       -0.020051703 -0.16274482 0.0017538868 -0.13847257
000170 f9 c5 2d 3d f5 17 82 be 76 df 88 bd e6 f6 67 3d
       0.04242513 -0.25408903 -0.06683247 0.056631945
000180 6b 25 ea 3d e3 b0 02 3e df 0b 34 bd ce 95 a1 bc
       0.11432918 0.1276279 -0.043956634 -0.019724753
000190 e5 26 ae 3d eb 35 7d 3d 24 c5 f5 3d cb c3 28 be
       0.08503512 0.061819 0.12000492 -0.16480939
0001a0 4a b3 17 3c 4b 7d 1c 3d 80 70 62 bd 35 ac 55 bd
       0.009259054 0.038205426 -0.05528307 -0.052166183
0001b0 3c 5e 96 bd a6 a9 c7 bd 32 3c 66 39 42 40 ae bb
       -0.073421925 -0.09749155 0.00021956934 -0.0053177187
0001c0 c2 2d a0 bd e0 45 c8 3d 50 f1 6f 3c 7f ea 1a be
       -0.078212276 0.097789526 0.014644936 -0.15128516
0001d0 92 45 84 3d af 8f 6c bd 90 62 ba 3c 09 f1 44 3d
       0.06458582 -0.057754215 0.022752076 0.04808143
0001e0 51 bb af bd ff 86 49 bb 12 81 9a 3d bc d2 cd bb
       -0.0858065 -0.003075063 0.075441495 -0.006281225
0001f0 18 79 1b be 8c ab 17 be 54 9f 35 be 30 8d a9 3d
       -0.15182912 -0.14811534 -0.1773656 0.082788825
000200 ff 02 ec bd 41 61 b7 3d 7d db b6 3c 46 51 20 be
       -0.11524009 0.089540966 0.022321457 -0.15656003
000210 d2 26 18 bd 3d d8 e4 3b 6f 8c ed 3c fd 8e a5 3c
       -0.037146397 0.0069837854 0.028997628 0.020209784
000220 e3 ed 3c 3c 4d 1d f9 3b 9b 35 fe 3c 11 3b 88 bb
       0.011531326 0.00760237 0.03103142 -0.004157432
000230 ca 4b 29 be fd eb 4b be 2d 43 39 3d 22 8c a4 bd
       -0.16532817 -0.19914241 0.04523008 -0.08034541
000240 f7 b4 2e bd d5 6f b2 bc e0 01 81 bd 23 73 e6 bd
       -0.04265305 -0.021781841 -0.06299186 -0.11252429
000250 1e 00 27 3d 48 49 91 bc bc e1 75 bc ce a2 9e bc
       0.040771596 -0.017735139 -0.015007433 -0.01936474
000260 fb 1b 4e be 01 e2 5e bd b5 ac 0c be ea 3e ab 3d
       -0.20127861 -0.054414753 -0.13737758 0.08361609
000270 0e 48 8c 3b 00 14 86 3d 3e 3e 82 bd 18 30 f0 bd
       0.0042810505 0.065467834 -0.06359528 -0.11727923
000280 69 62 4f bd 30 91 18 3c 9c 47 af bd 98 88 46 3e
       -0.05063096 0.009311959 -0.0855858 0.19388044
000290 64 a7 96 bd d7 96 6d bc 4d 0c 0a 3d 55 d8 4b 3e
       -0.07356146 -0.014501295 0.033703137 0.19906743
0002a0 be 19 ea bb 7b 04 73 be 14 60 77 bd 4b 03 30 be
       -0.007144182 -0.23732178 -0.06039436 -0.17188756
0002b0 0a 11 48 3e 6a f6 39 be 83 cd ad bd 66 cd 9e bd
       0.1953775 -0.18160406 -0.08486464 -0.077540204
0002c0 b4 b5 5b bc 8b cc bb bc 80 38 83 3c c6 b5 ce ba
       -0.013410021 -0.022924682 0.016018152 -0.0015770725
0002d0 1b 72 bb bc be 77 ce 3d 19 b0 9e bd 0d 30 5b be
       -0.022881558 0.10081433 -0.07748432 -0.21405049
0002e0 d0 be 1a be f8 de 82 3d f5 21 86 bd cc bf 2c be
       -0.15111852 0.06390184 -0.065494455 -0.1687004
0002f0 89 38 ca 3d 02 0f 24 be 84 a7 d1 3d 6e f8 12 be
       0.098740645 -0.1602135 0.10237029 -0.14352581
000300 72 1c 16 be 0d b5 21 be 4d 81 8a bd d8 d3 fc 3d
       -0.14659289 -0.15791722 -0.067629434 0.123450935
000310 b0 ab 0d be 9c 24 23 3d b8 bb 11 3b e4 af 5c bd
       -0.13835025 0.039829835 0.0022237133 -0.05387868
000320 a2 22 4f 3d a2 dd 84 be a7 81 81 3c 16 5f 0b bd
       0.050570138 -0.25950342 0.015808893 -0.034026228
000330 5a ec a8 bc 90 38 19 3c 0c aa 7a 3c a0 7f e8 bd
       -0.020620514 0.009351864 0.015299331 -0.113524675
000340 d0 ab 16 be e0 41 09 be 1f 02 89 be 6a 35 45 be
       -0.14713979 -0.13404036 -0.2675943 -0.19258657
000350 2b 29 8b bd 77 aa ad bd 24 a1 63 3d c1 09 f1 3d
       -0.067949615 -0.08479779 0.055573598 0.117694385
000360 03 c5 f8 3d b6 c6 9b 3d d6 6d 8e 3d ca a5 08 be
       0.12146952 0.076062605 0.06954543 -0.13344494
000370 76 ec 99 bd 63 5d 90 bd 19 d1 2e be e3 07 7a be
       -0.075158045 -0.07049062 -0.17071952 -0.24417071
000380 b3 62 2c be cd 27 0a 3d 81 bf 2a bd 15 e3 d0 bd
       -0.16834526 0.033729363 -0.04168654 -0.101995625
000390 3b 3f 0a be 50 15 13 3d 08 5a 27 be 34 a8 90 bc
       -0.13500683 0.035908997 -0.16342938 -0.01765833
0003a0 c5 8a 60 be f9 f9 a7 3d 31 91 37 be 1d 2a 41 be
       -0.21927936 0.082019754 -0.1792648 -0.18863721
0003b0 24 97 dc 3d 3f 35 ec bc 26 04 09 be 13 43 c9 3c
       0.10771015 -0.028833983 -0.13380489 0.024568116
0003c0 e4 28 fd 3b a8 fe 47 3d 1a f5 43 be 85 01 19 bd
       0.007725822 0.048826844 -0.19136468 -0.037354965
0003d0 83 cc 97 3c de a6 9a bc d5 3f 65 3c ad 28 04 3d
       0.018530136 -0.018878397 0.0139922695 0.032265354
0003e0 80 7f 33 3d 60 a4 24 be 15 04 7f ba ee 02 e8 bd
       0.043822765 -0.16078329 -0.00097280863 -0.11328684
0003f0 93 e1 e2 bc bb 87 87 bc d1 ef 05 be 16 0e 06 be
       -0.027695453 -0.016544214 -0.13079764 -0.13091311

network.1.conv.0.weight f4 [256, 512]
000000 58 f0 18 3d bd 91 1c be 6a 55 5d bd b4 9b 27 3d
       0.037338585 -0.1528997 -0.054036535 0.040919974
000010 fb 51 e3 ba 5f d3 a8 bd 83 63 20 be e5 0d 37 bd
       -0.0017343158 -0.08243441 -0.1566296 -0.044690985
000020 43 27 ac 3a 3f 3e bb bd 11 16 2b be 2d a6 85 3d
       0.001313426 -0.09142732 -0.16707636 0.06525836
000030 a9 c1 1f 3e ab 68 17 bd 59 39 d9 bd 8e 5b b3 3e
       0.15601219 -0.036965054 -0.10606641 0.35030788
000040 03 c7 5b be 81 b8 c6 3a c8 30 ab 3c 8c 30 4c 3e
       -0.21462636 0.0015161188 0.020897284 0.19940394
000050 f7 c2 e6 3d 9d ce 8b 3e 26 fb a4 3d 12 02 b4 3c
       0.11267655 0.2730607 0.08055715 0.021973643
000060 8d 2d 27 3e 6f 1b 51 bd a7 94 4d 3e 92 b7 0a 3e
       0.1632597 -0.051051553 0.20076238 0.13546589
000070 80 56 f4 bd 57 65 9d bc 33 e8 1d be f8 5b b5 bc
       -0.11930561 -0.019213362 -0.15420608 -0.02213858
000080 3b 0c fe 3d f2 e0 c8 3c f0 a9 d1 3c ab 0f 91 3d
       0.124046765 0.024521325 0.025593728 0.070830666
000090 76 f0 7a bd 8b a1 55 be bd ec cb bc 39 b3 6d be
       -0.061264478 -0.20862405 -0.024893159 -0.232129
0000a0 dc 31 09 3d af e9 98 3e 1b d7 78 bd 7b 3c ad be
       0.033494815 0.29865786 -0.060752016 -0.33835205
0000b0 6b 62 aa 3d 57 60 4b bd 82 9a db bd c8 38 fd bd
       0.08319553 -0.049652424 -0.107228294 -0.12364346
0000c0 53 84 0d 3d 30 24 8c 3c 94 cb 2b 3d 54 2e 87 bd
       0.034550022 0.0171071 0.041942194 -0.06600633
0000d0 f6 87 13 3e 36 c8 8b 3d 4e a5 99 3e bb 84 0c bd
       0.14407334 0.068252966 0.3000893 -0.03430627
0000e0 a0 c2 96 be f1 4d 62 be e9 fb 44 be 20 5a d4 be
       -0.29445362 -0.22100045 -0.19236721 -0.4147501
0000f0 11 15 19 bd f1 a5 01 3e 78 28 89 bc 0e 9d cf bc
       -0.037373606 0.12660958 -0.01674293 -0.025343444
000100 8e e5 aa 3c d2 bd 78 be aa 66 50 bd c8 a9 3f 3d
       0.020861413 -0.2429116 -0.050879158 0.046792775
000110 59 d1 42 bd a3 a5 c5 3c 4a 94 f4 3d 9c 0b 1e bd
       -0.04756293 0.024126833 0.119423464 -0.03858529
000120 1e 56 9b 3d e7 15 96 3e 87 11 bd bd 7f dc 45 be
       0.07584785 0.29313585 -0.09231859 -0.19322394
000130 16 db 6b be f5 c2 40 3c b9 36 c7 3d 57 7b 04 3e
       -0.23032793 0.011765231 0.097272344 0.12937675
000140 47 02 ce 3c 34 c5 e5 bd c7 22 65 be c3 5b 0d 3e
       0.02514757 -0.11219254 -0.22376548 0.13804536
000150 84 77 df bd dd 30 d6 3d 95 6e 6e be 4a 71 14 bd
       -0.10911468 0.10458539 -0.23284371 -0.036240853
000160 18 ad 32 3e 80 4b 83 3e 62 3c 69 3e c6 c3 e4 3d
       0.17448843 0.2564354 0.2277694 0.11170153
000170 2d 20 ad 3e 46 fb 8e be be e8 86 3d dc 7c 98 3c
       0.3381361 -0.2792608 0.06587361 0.018614225
000180 42 d7 9b bd a8 be 18 3e 0f 3e 16 bd 92 42 23 be
       -0.076094165 0.1491648 -0.036680277 -0.15943363
000190 d6 6a eb 3d 12 2d 05 3c 23 07 9c 3d 00 27 34 be
       0.11494987 0.008128421 0.07618549 -0.17593002
0001a0 9d 08 6a 3e 2b 0a 83 bc 37 0d 38 be 9a 8f 8b 3b
       0.22854848 -0.01599606 -0.17973791 0.004259062
0001b0 da f9 84 3e 27 5e fe 3d b9 a8 6b 3e eb 76 51 3d
       0.25971872 0.12420302 0.23013581 0.0511388
0001c0 69 c7 4f 3c 4d c0 f6 3d 11 60 84 3e 45 64 44 be
       0.01268182 0.12048397 0.25854543 -0.19178875
0001d0 56 86 c5 3d 38 de 18 be 25 42 d3 bd 14 f9 6a 3d
       0.09644763 -0.1492852 -0.103153504 0.057366446
0001e0 73 64 96 bd 7c 43 72 3e d8 67 b7 bd 4e 56 0b bd
       -0.07343378 0.23658556 -0.089553535 -0.034017853
0001f0 af f4 39 be 2a 53 a0 be 04 16 c2 be 00 37 5a 3c
       -0.18159746 -0.3131345 -0.37907422 0.013318777
000200 45 51 cb 3c a7 16 d0 bb 4d 28 5c 3e b9 c4 d9 bb
       0.024819026 -0.0063503566 0.21499749 -0.0066457656
000210 8c 0d 05 bd 79 4e e6 bc bd 21 cb bd 8c 91 48 3d
       -0.032483622 -0.02811359 -0.099185444 0.04896693
000220 cd 18 42 3d 0c b9 a3 3d 06 7f 25 3c b4 e0 69 3c
       0.047386933 0.07994279 0.0101010855 0.014274765
000230 8f d0 01 3d 1b ad 11 3d c4 9f 62 be 22 d2 02 3e
       0.031693038 0.035565477 -0.22131258 0.12775472
000240 bf 0c fb 3c 6f ed ca bd 7c 36 03 be 1a 3d 8b bd
       0.030645726 -0.09908568 -0.12813753 -0.067987636
000250 c5 8d 3b 3e 09 99 80 bd 5c 5c 2b 3c a2 5a dc 3b
       0.183158 -0.06279189 0.010459032 0.0067246715
000260 db ce 73 3d 09 3a 29 3e 64 cb b6 3c 42 97 23 3d
       0.059523445 0.16526045 0.022313781 0.039939173
000270 ae 3c 47 3e 3d 54 d7 3d 49 b1 ec bd ea 2f e3 3b
       0.19456741 0.10514114 -0.11557252 0.006933202
000280 da 65 36 bc 7a 8c 89 3c 23 ce 9c 3c 74 93 76 3d
       -0.011132682 0.016790617 0.019141262 0.060199216
000290 33 22 e7 bd ba 18 3d 3e fa 9f d5 3d d9 47 f7 3d
       -0.1128582 0.18466464 0.10430904 0.12074251
0002a0 64 c7 aa bc ad 26 d7 bd 43 8d 0e bc b7 3e 22 be
       -0.02084703 -0.10505424 -0.008700672 -0.15844236
0002b0 eb d7 21 3e 0b a3 7a bd de 48 0f 3d a7 ff 13 be
       0.15805022 -0.061190646 0.0349816 -0.14452992
0002c0 0b cd 4f bd 00 f0 30 3e 37 d1 bd 3d bc 9e 61 bb
       -0.050732654 0.17279053 0.0926842 -0.0034426888
0002d0 d8 19 b7 bd 44 5b 4e bb 29 e7 44 bb 80 6a 40 be
       -0.08940476 -0.0031487504 -0.0030045009 -0.18790627
0002e0 cd bd 80 be 74 af cb 3d 05 62 66 3d 61 65 e8 bd
       -0.25144807 0.099455744 0.056245822 -0.113474615
0002f0 89 46 37 bc 3b 67 73 3d 95 d9 5b 3d 41 e9 59 be
       -0.0111862505 0.05942462 0.0536743 -0.21280386
000300 4d c4 9c be 12 d6 4c 3c 50 07 5d 3d e6 6f c9 3c
       -0.30618516 0.01250221 0.053962052 0.02458949
000310 d3 04 f0 3d f2 2d 04 bd 0a 20 15 3e 03 1a 36 bd
       0.1171967 -0.03227038 0.14563003 -0.0444584
000320 4e 5b 1e bd 64 b1 2f be 94 b5 c0 bc 4b d8 ad bd
       -0.038661294 -0.17157513 -0.023524083 -0.0848852
000330 50 41 a6 3d 9f 23 c4 3d c8 cb 22 3e 5f 9d f7 be
       0.08117926 0.09577107 0.15898049 -0.48362252
000340 03 dc 49 3d ac e2 8d be 22 49 a3 3b 70 23 50 be
       0.049282085 -0.27712 0.0049830833 -0.20326018
000350 1c 3f a9 3d 95 5b a6 3c 94 de cb bc 65 20 54 3d
       0.0826399 0.020307342 -0.024886407 0.051788706
000360 90 31 a0 3d 97 8e 11 3e 5b 65 98 3d c9 8c 28 3d
       0.07821953 0.1421455 0.07441207 0.04114989
000370 52 70 5e 3d ad d2 82 3b 18 83 ec bd 3d ee 20 bd
       0.054306336 0.0039923997 -0.11548442 -0.0392897
000380 ef 90 21 be 46 2f 60 3c 03 0e a8 3d 5d 1a 59 be
       -0.15777944 0.013683146 0.082057975 -0.21201463
000390 14 c1 34 be 8d 44 0c be b8 b8 8e bc 88 05 c2 3d
       -0.17651778 -0.13698025 -0.017422065 0.09473711
0003a0 09 72 f0 bc b4 22 e0 3c ba ff d6 bc d4 8e 7f 3b
       -0.029351251 0.027360298 -0.026244987 0.0038995044
0003b0 8f 1b 93 3c 37 7b be 3c 33 13 a1 bd dd a1 36 3d
       0.017957477 0.023252113 -0.0786499 0.04458796
0003c0 f5 33 4d 3d 69 8b 06 3e db 7c be bd 0f 77 ba 3d
       0.05009838 0.13139118 -0.09301158 0.0910474
0003d0 a5 cc 5e bd 02 28 c6 bd dd 65 4a 3d 07 87 f1 bd
       -0.054394383 -0.096756 0.04941355 -0.117933325
0003e0 87 10 b0 bc d6 ee be be e7 29 69 3d 0d ba 07 be
       -0.021492256 -0.37291592 0.056924727 -0.13254566
0003f0 cf d8 5d 3e 75 ab 0a be 5c d0 a0 bd 73 3e ee 3c
       0.21664737 -0.13541968 -0.078522414 0.029082512

network.1.conv.0.bias f4 [256]
000000 ba 77 28 bd 9a 8b f0 b9 82 10 24 3d d4 d7 59 3c
       -0.041129805 -0.00045880378 0.040054806 0.013296086
000010 ec 9c f7 bb fc 2e 95 3d 40 c8 41 3d 50 97 42 3d
       -0.0075565483 0.07284352 0.047310114 0.047507584
000020 20 25 86 bd d7 33 64 3d f3 7e 6f bc f9 60 25 be
       -0.0655005 0.0557135 -0.014617669 -0.16150273
000030 ac c1 5a 3d 02 86 19 be 59 93 cf bd 6c 58 ce bd
       0.053407356 -0.14992526 -0.10135526 -0.10075459
000040 9e eb af bd 49 9c 5d ba bd ef 97 3d 58 b4 2d be
       -0.08589862 -0.0008453769 0.07418773 -0.16963327
000050 7e 27 a6 bd a7 38 54 3e bd fb a5 bd 10 c0 19 bd
       -0.08113001 0.20724736 -0.08104656 -0.03753668
000060 ce 57 91 bd cd f8 f9 3b 87 19 2e be d4 95 c4 3c
       -0.070968255 0.0076285363 -0.17001925 0.023997225
000070 41 02 12 be 01 0f 63 bc 92 ea 09 be 89 9b c5 3b
       -0.14258672 -0.013858558 -0.13468388 0.006030504
000080 0f 89 86 bd ea 83 76 be cd 7a 36 3e fb 02 c6 bd
       -0.065691106 -0.24073759 0.17820282 -0.09668537
000090 df 70 6a be b0 40 e8 3b 47 dd cc 3b 40 6b 34 bd
       -0.2289462 0.0070877895 0.0062519643 -0.044047594
0000a0 59 cb ee bd 10 58 fc bd 28 76 5c be db fb 93 3d
       -0.11659879 -0.12321484 -0.21529448 0.07225772
0000b0 92 89 b9 3c eb 93 11 3d 19 fb fe bd ed a8 cb 3b
       0.022648606 0.035541456 -0.12450237 0.006215206
0000c0 fc 16 7f bd 55 63 55 3d 01 b2 7a bd ff 9b 88 3d
       -0.06227778 0.052096684 -0.061204914 0.06670379
0000d0 67 5b 32 bd 12 fb 6f bc 20 8b 86 bd b8 fe 51 3b
       -0.0435442 -0.014647262 -0.06569505 0.0032042693
0000e0 e3 74 83 3c 34 1b 3c 3c 60 89 ab 3c 61 4b f3 3d
       0.016046947 0.011481095 0.020939529 0.11879612
0000f0 4f a0 0d be 67 64 8a bd dd c4 5f bc 0e 05 3d 3c
       -0.13830684 -0.067574315 -0.013657776 0.01153685
000100 cb 5f bc 3c cb c6 c6 3c 2c 22 15 3e 2c 23 4b bd
       0.022994896 0.024264714 0.14563817 -0.04959409
000110 0c 78 2e bd 06 16 9f bd 86 ae 0b bc 10 4a c7 bd
       -0.042594954 -0.077678725 -0.008525496 -0.09730923
000120 f2 75 48 3d c5 c9 fd bd 25 78 e6 bd bd 39 32 bc
       0.048940606 -0.12392 -0.112533845 -0.010878024
000130 2b 11 0c bc f5 41 b2 3b 3d a7 97 bb e6 b4 47 3e
       -0.008549015 0.0054399916 -0.0046280907 0.19502601
000140 7c 1d 01 be 1b 5c 18 3d 8d 4c 1d be be c0 46 3d
       -0.12608904 0.037197214 -0.15361233 0.048523657
000150 1b 5f 34 be 67 39 a8 bd da 41 7d bd c5 3f 3e bd
       -0.17614405 -0.08214074 -0.06183038 -0.046447534
000160 f7 18 9a 3d 40 ef 60 bc 3a b6 3d bc 6c db ed 3d
       0.07524293 -0.013728917 -0.011579091 0.11614117
000170 fb 6b 9d 3d 18 e2 10 3e 4b 2f 24 bd 73 fc 27 bc
       0.07686611 0.14148748 -0.040084165 -0.01025306
000180 90 3c 41 be 95 f8 8a bd 33 83 13 bd 22 e9 9e 3e
       -0.18870759 -0.067856945 -0.036013793 0.3103724
000190 4c c5 16 3d ed 88 8e bd 4c cb 8f 3d ef 80 28 be
       0.03680925 -0.0695971 0.07021198 -0.16455434
0001a0 9b 5d 52 be 76 aa 6b bd ae cb 03 3e c9 e5 30 be
       -0.2054352 -0.05753561 0.12870666 -0.17275156
0001b0 ce ad e6 3c ca eb e4 bc d9 bb 0a 3e eb 9b 30 be
       0.028159048 -0.027944464 0.1354822 -0.17246978
0001c0 ba 33 98 3d f9 b6 dc 3d 6a 62 e2 bd 41 a4 89 3d
       0.07431741 0.10777087 -0.11053927 0.06720782
0001d0 d8 7f 6d 3d 32 c2 0f bd 5a 82 20 bd 71 e7 fb 3d
       0.05798325 -0.03509731 -0.039186813 0.12300003
0001e0 46 b6 86 3c 30 08 e9 bc 4f 27 f6 3d 64 64 cd 3d
       0.016444337 -0.028446287 0.12019216 0.100289136
0001f0 f3 a4 03 be 6a 26 33 bd c6 69 0b 3e 94 b3 77 be
       -0.12855892 -0.043737806 0.13614568 -0.24189597
000200 96 3d 24 bd a0 df ec bd a8 1a 2a be cc 32 25 3d
       -0.040097795 -0.115660906 -0.16611731 0.040331647
000210 16 c0 77 bd 3e 65 bc 3b 3f 4b 37 3c d8 45 5f bc
       -0.06048592 0.0057493737 0.011187374 -0.013627492
000220 17 48 2a 3d 47 57 b6 bc 4a a9 89 bd 8b 12 c0 bc
       0.041572656 -0.022258414 -0.067217425 -0.023446342
000230 ec c8 50 bd aa 43 48 3d 94 8e a3 bb 27 2d c0 3c
       -0.050972864 0.048892654 -0.004991362 0.02345903
000240 61 bd 35 3d 82 f4 b3 3b 3d 5b 1a be 03 1e af 3d
       0.04437006 0.005491794 -0.15073867 0.08550646
000250 00 4b f1 3d ee 89 aa bd da 39 44 bd 44 a5 21 be
       0.11781883 -0.08327089 -0.047906734 -0.157857
000260 e4 d9 fa 3d 15 d9 97 3e 80 39 60 3d 8a a9 90 bd
       0.122485906 0.29657808 0.054742336 -0.07063587
000270 e6 f8 1b 3b 34 5b 50 3d 7f 1a 2a 3c df f7 04 bd
       0.0023799478 0.050868228 0.010382294 -0.03246295
000280 02 11 a1 bb 86 11 cb bd 2f be cb 3c f6 b6 2b 3e
       -0.0049153576 -0.09915452 0.02487096 0.16769013
000290 d0 e7 c3 bc 1a 98 00 3e a0 9f b1 bb ff 0c 35 bd
       -0.023914248 0.12558022 -0.00542064 -0.044201847
0002a0 70 bc 96 3d 96 be a0 3d 6e 1c d2 3d 89 b9 14 be
       0.0736016 0.078488514 0.10259329 -0.14523901
0002b0 cc 98 30 3c 65 ee 5a be 89 ce 36 3d 6d c4 0c be
       0.010778617 -0.21380003 0.04463056 -0.13746805
0002c0 b4 ed 7f bd de c0 c2 bd 70 7a fb bc ce 9e f5 3c
       -0.06248255 -0.09509443 -0.030698031 0.02998295
0002d0 29 13 4b bb 73 97 c5 bc 73 73 01 3d 9b 70 01 be
       -0.0030986762 -0.024120068 0.03160424 -0.12640612
0002e0 1c 47 88 bc 7b ec ba bd 04 67 3f 3d b6 13 87 be
       -0.01663547 -0.09127136 0.046729103 -0.26382226
0002f0 a6 44 61 bd c1 95 05 3e e6 79 ca bd 04 69 04 3c
       -0.05499711 0.13045408 -0.098865315 0.008081678
000300 6b 8a 86 bd 5c cf fe bd da 9c 29 be 18 c6 16 3d
       -0.0656937 -0.124418944 -0.1656374 0.03681001
000310 cf 86 e3 bd 4c e4 81 3d 02 42 c8 3d 61 25 bb bd
       -0.11109697 0.06342372 0.09778215 -0.09137989
000320 d6 bc b6 bd 45 c5 bf 3d 1e ac 0c be 8d 30 11 3e
       -0.08922736 0.09363798 -0.13737532 0.14178677
000330 39 71 11 bd 82 e9 92 bc 67 d2 45 be e8 ae 03 be
       -0.03550837 -0.01793361 -0.19318543 -0.1285969
000340 74 68 d9 bc a5 2d fa 3b d3 49 71 bc 5f 6a 7c bc
       -0.026539065 0.007634836 -0.014727074 -0.01540622
000350 e6 e5 29 be df f9 05 3c c8 4b 53 3d 16 e2 92 3d
       -0.16591606 0.00817725 0.051585943 0.07172029
000360 53 39 23 be ac 70 9d 3c 24 30 54 be 8a 7f 28 bd
       -0.15939836 0.019218765 -0.20721489 -0.041137256
000370 63 7e 99 3b 2e 74 fc bd 6f 71 55 be f9 1b bd bd
       0.004684256 -0.12326847 -0.20844053 -0.09233851
000380 7b b5 09 3c cf c8 5a 3c 3b 50 80 3d 6b af 01 be
       0.008405085 0.013353541 0.06265303 -0.12664573
000390 11 f8 57 3d d4 fa 2b 3e f3 ea 0b 3e ea 81 51 be
       0.05272681 0.16794902 0.13663845 -0.20459715
0003a0 a2 b9 7c bd cf 19 0d 3e 61 0c ad bd fa 39 a9 bc
       -0.06170047 0.13779376 -0.08449627 -0.020657528
0003b0 01 78 c0 bc b4 7f ec 3c 3c e7 74 bd 26 1a 44 3e
       -0.023494722 0.028869487 -0.059790835 0.191506
0003c0 a9 82 0d be d7 1e 75 3d 1c 94 0d be 8c bc 83 3c
       -0.13819374 0.059843864 -0.1382603 0.016081117
0003d0 5d a3 5f 3e 86 97 25 3d 02 a4 4b 3d 6d 0b e4 bb
       0.21839662 0.040427707 0.049716957 -0.00695937
0003e0 42 57 bb bd 54 ef 00 bd 6b c2 83 be 1d 19 fb bc
       -0.091475025 -0.03147824 -0.25734267 -0.030651623
0003f0 f2 32 75 3d 0b fb ba 3d 5f 0f 94 bd ab e7 c2 bd
       0.05986304 0.09129914 -0.07229494 -0.095168434

network.2.conv.0.weight f4 [128, 256]
000000 44 65 59 3c 31 91 c0 3a 15 de 92 bc 82 6e ea 3c
       0.0132687725 0.0014691708 -0.017928163 0.028617147
000010 c2 63 57 bd 02 33 b7 3d 02 89 67 3e f3 02 3d 3e
       -0.05258537 0.08945276 0.22610858 0.18458156
000020 5d d3 95 bd 26 23 89 3c 60 ef e0 bd 2f 41 50 bd
       -0.07315705 0.016740393 -0.10983157 -0.050843414
000030 8b 52 83 3d 9f a3 cd 3d e0 34 af 3d c5 48 c4 bd
       0.06412228 0.10040974 0.08555007 -0.09584192
000040 7a 3c c8 3e c3 81 e6 bd 23 13 d3 bd 76 af 90 3d
       0.3910864 -0.11255219 -0.103063844 0.070647165
000050 c7 ec bc 3d 73 89 4c bd 68 27 ab 3d 03 e1 e9 3d
       0.09224849 -0.04993577 0.083571255 0.11419871
000060 81 33 52 be 7a ec 88 3e cb 9a 08 be b0 e3 9f 3d
       -0.2052746 0.26742917 -0.13340299 0.078071
000070 5d 99 34 3e 2c 75 9a bd ac cb 42 3d 53 04 58 be
       0.17636628 -0.0754188 0.047557518 -0.210954
000080 a7 2c 1c be f2 19 f1 bd 01 9e 78 3d 02 1a 8c bd
       -0.15251409 -0.11772527 0.06069756 -0.06840898
000090 c4 48 c8 bd aa 71 2c bd a5 69 ee 3d 4f 59 53 bd
       -0.09779504 -0.042100586 0.11641244 -0.051598843
0000a0 28 53 91 3d cc e1 14 bd fa 26 11 3c 8e 82 bc 3d
       0.07095939 -0.03634815 0.00885939 0.09204589
0000b0 eb e5 f5 bd 3e b5 c3 bd 4a ab 55 3e 33 10 dd 3c
       -0.12006744 -0.095560536 0.20866123 0.026985263
0000c0 71 08 57 be d9 6b cf 3d 58 6e 3d be 1f 4f 43 bd
       -0.20999314 0.10127992 -0.18499124 -0.047682878
0000d0 ba ae 90 bd 34 2b b5 bc f6 60 27 3d 93 cf 25 bd
       -0.070645764 -0.022115327 0.040863954 -0.04048116
0000e0 9a 79 eb bc 56 e1 ad bd 32 1c 5f be 3f 64 fe bd
       -0.028744508 -0.08490245 -0.217881 -0.12421464
0000f0 55 7d 76 3d e1 50 a9 bd 61 28 2d 3e 8d 1a df bd
       0.06017812 -0.082673796 0.16909935 -0.10893736
000100 83 cf 77 39 b1 b8 d7 3d fb e4 a1 bd e7 03 ad bc
       0.0002363306 0.10533274 -0.07905003 -0.021120025
000110 b1 6d 31 be c9 3e 80 bd 89 1d ca bd d7 2d c8 3d
       -0.17327 -0.06261975 -0.09868915 0.09774368
000120 e0 d1 72 bd cb f7 b6 3a 22 e7 e1 bd ab 76 38 bd
       -0.059282184 0.0013959346 -0.11030413 -0.045035046
000130 32 a5 64 3d 39 08 06 3d 83 cb 2f 3e 4a c1 2c be
       0.055821605 0.032722685 0.17167477 -0.16870609
000140 0a 2a 96 be eb ec 15 3e 52 8c ee bc 58 3b 01 bd
       -0.29328948 0.14641158 -0.029119644 -0.031550735
000150 38 37 35 bd 6d b4 d0 3d 97 19 06 bd 96 67 10 3d
       -0.044242114 0.101906635 -0.032739248 0.035255037
000160 2f a9 b9 bd e0 6a 21 3a 30 9b 4d 3d 9a 1a c1 3d
       -0.09065472 0.0006157588 0.050196826 0.09428902
000170 6c b0 f9 bd 14 2d 5c 3b 22 8a 76 bd 92 5d 28 3d
       -0.12191853 0.0033596205 -0.060190327 0.04110486
000180 05 d7 47 bc 38 84 ef 3c 10 6b 95 3c 20 c9 34 3e
       -0.012197261 0.029237852 0.018239528 0.17654848
000190 fb a0 ab 3d 58 01 df 3d c0 41 1c bd 0c 0a ab 3d
       0.08380314 0.10888928 -0.03814864 0.08351526
0001a0 ad b6 9c 3d 36 da be 3d bc 8c 07 bb d8 60 58 3d
       0.0765203 0.09318964 -0.002068325 0.052826732
0001b0 d4 ea 58 3d b9 86 6f be f6 cf d7 bd 80 8e c4 3d
       0.052958325 -0.23391236 -0.10537712 0.09597492
0001c0 b8 c8 e0 bd a3 2f aa bc 9a 7f 85 3d 24 5f 16 bd
       -0.10975784 -0.020774668 0.06518479 -0.036711827
0001d0 21 c9 d1 3b 73 08 89 be 1e fd 41 3c 7e 73 96 bc
       0.0064021503 -0.2676426 0.011840133 -0.018365618
0001e0 10 92 ca bd 58 70 3d be 71 e3 24 be b4 63 c2 bd
       -0.098911405 -0.18499887 -0.16102387 -0.09491673
0001f0 43 aa f8 3c 58 7c e3 3b 0c 05 9a bd aa ce cc 3d
       0.030354625 0.006942313 -0.07520494 0.100003555
000200 ab 3a bf 3d df fe 30 3e c8 7f 2e 3e 1f bc 10 be
       0.09337362 0.17284726 0.17040932 -0.14134263
000210 37 b3 63 bd d6 bc f8 3d 03 e2 c8 bd 5e cb 91 3d
       -0.055590834 0.121453926 -0.09808733 0.07118867
000220 b9 15 0b 3d 45 ea 09 bc 2f 72 f7 bb b4 27 4c 3d
       0.033956263 -0.008417671 -0.0075514535 0.04984255
000230 86 6b 77 3d bf 4a f1 3c 07 5a 42 bd b9 30 03 be
       0.060405277 0.029454587 -0.047449138 -0.12811555
000240 1b 1d 58 3d d7 9c 2b be cb 6b 27 3d 73 4b f3 bc
       0.052762132 -0.16759048 0.040874284 -0.029699063
000250 b0 99 fd bd 64 90 96 bb b6 03 71 bb 37 96 02 be
       -0.12382829 -0.0045948494 -0.0036775894 -0.12752615
000260 fb 32 63 bd 67 78 be bd 52 2e 5e 3d c2 93 ab 3d
       -0.05546854 -0.09300309 0.054243393 0.08377792
000270 63 8f 3f 3e 48 5e cd bd 1a 86 f0 3c c1 30 31 be
       0.18707041 -0.10027748 0.02936082 -0.17303754
000280 2c 40 5e 3e 5b fe a9 3b 82 1d 2c 3e fc ac 3f bd
       0.21704167 0.0051877922 0.16808131 -0.04679583
000290 cc 45 87 bd 75 b5 0a be 42 a6 a9 3d 57 b4 db bd
       -0.066051096 -0.13545783 0.08283664 -0.107277565
0002a0 3c 1f 1d bc 90 6f 02 be f5 ff b3 bd 02 9b 5a bd
       -0.009589966 -0.1273787 -0.08789054 -0.053370483
0002b0 6c 27 d4 3c 2b 23 b3 bd ca 1a 0d 3e 63 a0 91 3b
       0.025897704 -0.08746942 0.1377975 0.0044441684
0002c0 9c e9 d5 bd 01 9d fd bd de 84 fd 3d 03 17 b9 3d
       -0.10444948 -0.12383462 0.12378858 0.09037592
0002d0 a5 9b 52 3d 63 c3 e4 bd be 35 23 3e f3 15 7c bd
       0.051417965 -0.111700796 0.1593847 -0.06154437
0002e0 3c 2a 36 bd 9f 8f b8 bd 6f 47 de bd b7 e6 90 bd
       -0.04447387 -0.090117685 -0.108534686 -0.07075255
0002f0 83 73 04 bd 31 46 41 3c 61 98 cb 3d 0f c6 a3 bd
       -0.032336723 0.01179652 0.09941173 -0.07996761
000300 b4 7b 23 3e ec 38 4b be ce fb 62 be 43 d1 19 be
       0.15965158 -0.19845933 -0.22166368 -0.15021233
000310 41 bb 01 3e be 49 84 3d 40 54 f0 3d 36 64 b7 bd
       0.12669088 0.06459378 0.117348194 -0.089546606
000320 f5 74 0b 3e 22 71 09 3c 87 72 11 3e 9a d2 d6 3a
       0.13618834 0.008388789 0.14203845 0.0016389668
000330 8c 07 8e 3c 36 30 7b bd 4b 9c ad 3c 23 21 15 3e
       0.017337583 -0.061325274 0.02119269 0.14563422
000340 07 b4 9e bd 02 16 ee bc 9d bb 6b be 8d 97 b8 bd
       -0.07749181 -0.029063229 -0.23020788 -0.09013281
000350 99 e5 ac b9 c2 b2 77 bd 0d 3a 03 be 20 1a 42 3d
       -0.0003297746 -0.06047321 -0.12815113 0.047388196
000360 56 8e dd bd c4 2e 21 3d 26 fa 69 be a4 2e ec 3d
       -0.10818164 0.03935124 -0.2284933 0.115323335
000370 58 3a c5 bd 8c 54 00 be 17 ed 9b 3d cd f9 90 be
       -0.09630269 -0.12532252 0.07613581 -0.28315583
000380 83 6f 42 be 76 eb bc bc e9 5b fd bc 6c 25 05 be
       -0.18987851 -0.023061495 -0.030927615 -0.13002557
000390 99 ab 15 bd 20 f7 db bd fe 85 4f bd c7 e9 c1 bd
       -0.0365406 -0.10740495 -0.050664894 -0.094684176
0003a0 87 70 ca 3c eb e3 05 3e 84 f5 b1 3d 73 2a 26 bd
       0.02471186 0.13075225 0.086894065 -0.040567826
0003b0 80 0b 9c bc 98 19 0b be 66 72 9d 3e df f8 bd bc
       -0.019048452 -0.13583982 0.30751342 -0.02318996
0003c0 87 e4 ed bd 70 c1 a4 bd e8 b3 49 be c8 4a f6 bd
       -0.11615854 -0.08044708 -0.19697535 -0.12025982
0003d0 29 5e dc bd b2 b2 c8 3d d9 d5 34 bd 9e f4 a6 bc
       -0.10760147 0.097997084 -0.044149254 -0.020380314
0003e0 c2 0c 56 bc 7e 38 3d 3e 7e a6 39 3e d2 a6 ea bd
       -0.013064565 0.18478581 0.18129918 -0.114576
0003f0 56 4f d9 3c 6a eb 0a bd ef 2b 3f 3d e1 24 93 bd
       0.026527088 -0.033915915 0.046672758 -0.071847685

network.2.conv.0.bias f4 [128]
000000 22 e2 52 be f2 a4 22 3d d4 97 1b be 8b 18 e3 3d
       -0.20594075 0.039708085 -0.15194637 0.110886656
000010 70 15 4c be 62 69 41 be e5 06 24 3e 98 b1 ed 3b
       -0.19930053 -0.18887857 0.16018255 0.007253837
000020 00 66 51 bd 29 da 59 3c e7 c1 19 3d 7e b7 87 3d
       -0.051122665 0.013296642 0.037538435 0.06626795
000030 23 58 5a 3d 9d 4d 0b 3e 92 62 2f bd 15 70 57 3d
       0.05330671 0.13603826 -0.042818613 0.052597124
000040 3a c7 08 3d 2a 12 54 bc 09 6e c3 bd f6 44 95 be
       0.033393122 -0.012943784 -0.09542472 -0.29154176
000050 3a 80 a4 bd 0a 44 11 3d d8 7e 20 bc 19 57 cd bd
       -0.0803227 0.035465278 -0.009795867 -0.10026378
000060 e5 5b 80 bd f9 49 07 be 87 04 8f bc dc 2d cc bd
       -0.062675275 -0.13211812 -0.017458213 -0.099696845
000070 29 b7 fe bc 2e 76 8e bd 0b db f0 3d 53 7d 4d be
       -0.031093197 -0.06956135 0.11760529 -0.20067339
000080 34 29 af bd 32 35 70 be 0e 26 8e bc ea 59 aa 3c
       -0.08552781 -0.23457792 -0.01735213 0.020794827
000090 a7 d8 1e bd f5 88 58 be 71 ba 0a 3d 8a 65 75 bd
       -0.038780835 -0.21145995 0.03386921 -0.05991129
0000a0 df d4 06 be cf 70 32 3c 6d da 99 3d 56 e5 08 be
       -0.13167141 0.0108911535 0.075123645 -0.13368735
0000b0 86 7a 11 be 58 a4 77 3d c3 62 d9 3d 40 b2 15 be
       -0.14206895 0.060459465 0.106145404 -0.14618778
0000c0 b3 9c 60 be 41 bd 94 3c 03 06 d3 bc c9 04 50 3d
       -0.21934776 0.01815665 -0.025759703 0.050785813
0000d0 ef 05 3c bd 71 77 08 3e 58 72 ad bb 06 d1 e4 3d
       -0.045904096 0.13326813 -0.005293172 0.111726806
0000e0 92 43 5b 3d 9f 8f 1b bd 9e 89 2c be cf ff 96 be
       0.053531237 -0.037978765 -0.16849372 -0.2949204
0000f0 b3 1c 8f be 7d be 57 3c e6 23 ba bd 2d 8b 19 3e
       -0.27951583 0.013167975 -0.09088878 0.14994498
000100 42 f0 32 3d f6 fc 37 3e 53 3c 5d be 90 51 3e 3e
       0.04368616 0.1796759 -0.21605043 0.18585801
000110 fb 6e 43 bc 6f a4 7f 3d 7c 8b bb bd be ec e9 bd
       -0.011928315 0.062412675 -0.09157464 -0.11422108
000120 3b d7 59 3e 10 7b 70 3c 0c eb 4e 3d 9f a8 16 3d
       0.2127351 0.014677778 0.050517127 0.036781903
000130 f0 fd cd bd 64 36 a4 3d be 38 ff 3d 1e 90 6e 3d
       -0.100582 0.08018187 0.124619946 0.05824291
000140 42 28 c6 bb bf e2 4c be 6f f4 0f bd b8 a5 43 3e
       -0.0060472796 -0.20008372 -0.03514522 0.19106185
000150 7e a2 11 bd 2f eb d7 3c 19 a4 ff bd d7 87 c7 3d
       -0.035555355 0.026357261 -0.12482471 0.09742706
000160 2d 00 13 3d 06 61 de 3d f7 1f 6d bd 9c b3 60 be
       0.03588884 0.108583495 -0.057891812 -0.21943516
000170 14 80 09 be 1d 19 da bd a9 1d 6a 3c 9b 84 5e bd
       -0.13427764 -0.10649321 0.014289298 -0.05432568
000180 8f c1 14 bd d7 2d 00 be 06 b2 e4 3d 71 cb e0 3d
       -0.036317404 -0.12517487 0.11166768 0.10976303
000190 43 f3 03 be f0 1d f7 bd a3 0d 30 3c f6 43 c6 3d
       -0.12885766 -0.12066257 0.010745439 0.09680931
0001a0 e3 c8 84 bc c6 00 ab 3d f4 be 9b bd e4 94 c8 bc
       -0.016209072 0.08349757 -0.07604781 -0.02448506
0001b0 96 18 51 be 4f f4 1e be c1 88 51 be ad 4a 06 3d
       -0.20419535 -0.15522884 -0.20462324 0.03278606
0001c0 06 3b 13 bd b9 ed 8a 3b f3 1e aa bd 05 b4 ef bd
       -0.03594496 0.0042397645 -0.08306684 -0.11704258
0001d0 2c ee 3b be f7 29 05 be 33 c1 d8 bd aa 86 e5 bc
       -0.18352574 -0.1300429 -0.10583725 -0.028018314
0001e0 7d 38 36 3c a3 24 92 be 2f 7e 24 bd 2b e7 49 be
       0.011121866 -0.28543577 -0.0401594 -0.1971709
0001f0 bf 52 ce bd d4 10 55 be 26 a4 cb 3c 4f b1 3b bd
       -0.10074376 -0.208072 0.024858546 -0.04582339

network.3.weight f4 [2, 128]
000000 a8 37 d9 bc 14 cb 8f 3c 2d c3 f5 bd f1 fa 66 3d
       -0.026515797 0.01755289 -0.120001175 0.05639166
000010 3f 02 6c 3b a9 0d 10 be e5 ae 3b 3e 2e 40 fe bc
       0.003601208 -0.14067711 0.18328436 -0.031036463
000020 2b 37 45 3d 6d 02 11 3d a7 35 67 bb bd d8 35 bc
       0.048148315 0.035402704 -0.0035279782 -0.011099038
000030 e4 fd 65 3d 4e d6 e1 bc a3 d6 64 3c 6d 15 33 bc
       0.056150332 -0.027568009 0.013967189 -0.010930401
000040 8e 32 a9 bd b8 cc 0a bc 4f a6 ec bd 5c 2f 18 3e
       -0.08261596 -0.00847166 -0.11555158 0.14861816
000050 6c b8 49 bc d5 99 98 bb b1 42 1f 3c 80 20 ab bd
       -0.012312036 -0.00465701 0.00972049 -0.08355808
000060 be 39 6e 3e 5f 83 80 bd 44 46 15 3d 0b 9b d3 3c
       0.23264214 -0.06275057 0.036443964 0.025830766
000070 52 10 3e bc c6 46 f4 3d 8e 67 14 3c 24 8e 84 3d
       -0.011600571 0.119275615 0.0090578925 0.06472424
000080 55 9d df 3d 15 99 3c be fc 72 71 3d 2c 48 09 3e
       0.109186806 -0.18417771 0.05894755 0.13406438
000090 9b 39 d9 bb c0 bd 80 be 64 c8 4c be f7 6f 01 be
       -0.0066291816 -0.25144768 -0.19998318 -0.12640367
0000a0 54 2e 06 3e 08 89 a0 3d 3f de 79 3d 32 0a cb bd
       0.1310361 0.07838637 0.061002966 -0.09914054
0000b0 6f 2e 8b 3d 18 f7 a8 bd f9 35 dd 3d ec bf 01 3d
       0.06795966 -0.082502544 0.1080131 0.03167717
0000c0 a1 6a 13 be b9 37 55 bd 3d 76 3d 3d 95 14 3c 3d
       -0.14396144 -0.052055094 0.04625534 0.045918066
0000d0 c8 d7 b1 3d 0b 39 48 bd 13 2e f3 bc 74 b7 22 be
       0.08683735 -0.048882525 -0.029685056 -0.15890294
0000e0 25 ab 1f 3c db 48 38 bb 7d 17 f0 3d bb f3 35 bd
       0.009745394 -0.0028119597 0.1172323 -0.044421893
0000f0 1d f1 65 bc ae 72 f7 3d fe 39 0d bd 70 ed e0 bd
       -0.014034537 0.1208242 -0.034479134 -0.109827876
000100 ee 49 3c 3e ac f3 cd bc d0 50 22 3e 07 a3 30 be
       0.18387577 -0.025140606 0.1585114 -0.1724969
000110 52 49 8e 3c b5 95 0d 3e e4 98 e6 bd 35 7d 13 3d
       0.017368946 0.1382664 -0.1125963 0.03600808
000120 30 88 1e 3d 85 67 4c be b2 59 ec 3b 9e 0b 28 3e
       0.038704097 -0.19961365 0.007212841 0.16410682
000130 86 51 8b bd 60 e0 11 bc 20 6a 2e bd 2f 6d a6 3c
       -0.06802659 -0.008903593 -0.042581677 0.020315735
000140 7f ef 97 bd 21 10 f3 39 21 68 b0 bb f4 fa cc bc
       -0.07418727 0.0004636059 -0.005383507 -0.025022008
000150 56 ae f9 3d d0 e8 19 3d c2 e6 a8 3d a7 28 57 be
       0.12191455 0.037575543 0.082471386 -0.21011601
000160 26 15 98 bc 0b 9f aa 3d e2 19 50 3c b6 5f 87 3c
       -0.018564772 0.08331116 0.012701483 0.01652513
000170 97 e5 5e be a7 4d 01 be d3 2c 36 bd fe ac dc 3b
       -0.21767269 -0.12627278 -0.04447634 0.0067344895
000180 f1 0b 23 bc 4a 86 2d 3c 11 fb 0c bd b2 05 69 bc
       -0.0099515775 0.010591099 -0.034419123 -0.014222549
000190 4b a4 fe 3d 77 49 ae bc dc c8 5b 3e cd e2 e3 bb
       0.1243368 -0.021275265 0.2146334 -0.006954527
0001a0 8b 37 c6 3d 56 00 2f 3e d3 5e 41 b9 83 13 33 bd
       0.09678563 0.17089972 -0.00018441239 -0.04371978
0001b0 27 9f 01 bd 85 a5 88 bd 6c 96 85 bd 92 d8 5d 3d
       -0.03164592 -0.06672195 -0.06522831 0.054161616
0001c0 97 da 77 3d 56 50 f1 3d 3e dc 12 3e ff 70 07 be
       0.060511198 0.11782901 0.14341828 -0.13226698
0001d0 f0 a7 16 3c 33 f2 58 3d b2 97 30 be 29 8f 61 3d
       0.009195313 0.052965354 -0.17245367 0.05506817
0001e0 f3 e5 00 3e fc d3 46 be 3b fb 63 3e cc cc 83 bd
       0.12587719 -0.19416803 0.22263806 -0.06435546
0001f0 ee ac 24 3e e3 27 37 be bd f3 cc bb 58 0b d0 bb
       0.16081592 -0.1788631 -0.006254642 -0.0063490085
000200 8b 70 0c be 36 b4 a7 3d 34 b4 f0 3c 91 f0 de bd
       -0.13714807 0.081886694 0.029382803 -0.10885728
000210 91 71 af 3d a1 21 2f be b7 36 9b bd 29 73 dd bc
       0.08566583 -0.17102672 -0.075787954 -0.027032452
000220 15 9a 44 bd 82 23 be 3d 7e b8 de 3c 71 ee 6f bd
       -0.047998507 0.09284116 0.027187582 -0.058577005
000230 b0 84 9b 3d 2f 76 68 bb a1 14 b6 ba d3 b8 89 3c
       0.075936675 -0.0035470834 -0.0013891646 0.016811764
000240 ba 04 4c bd ee 5a a0 3d 9a 6c e6 bd 59 67 d5 3d
       -0.049809195 0.078298435 -0.11251183 0.104201026
000250 76 64 29 be 58 1d e6 3d 74 e2 76 3c ab 88 b8 3d
       -0.16542229 0.112360656 0.015068639 0.09010442
000260 ce 5f f2 3d af 23 84 3d 5b 3d 05 be 4f ce ef bd
       0.118346795 0.064521186 -0.13011687 -0.11709272
000270 ea f4 06 3e e5 89 2a 3d b8 d7 54 3c cc b0 e2 bd
       0.13179365 0.041635413 0.0129908845 -0.110688776
000280 0a 0e c7 bd 0c 7a f8 3d e0 e1 2c 3e 61 78 d7 bd
       -0.097194746 0.121326536 0.1688304 -0.10521007
000290 47 51 97 3d e8 c9 25 3d ae 62 3d 3d 73 5a 23 be
       0.07388549 0.040475756 0.046236686 -0.15952472
0002a0 e7 30 41 be 7f ef 2c 3d 26 1a 85 bd 08 f2 95 3b
       -0.18866311 0.04222059 -0.06499128 0.0045759715
0002b0 05 eb 7c 3b 46 3b 0f 3e bf b2 83 3e d4 7e 58 bc
       0.003859223 0.13987455 0.2572231 -0.013213832
0002c0 86 64 bc bd 6f c5 d8 bd 02 87 40 3d e2 74 17 3d
       -0.09198861 -0.105845325 0.047003753 0.036976703
0002d0 ac 1e f7 3d 2b 6d 37 3e 67 b5 85 bb c3 59 22 3e
       0.12066397 0.17912738 -0.0040804627 0.15854554
0002e0 18 99 89 3d ee e3 08 3c 88 a0 d3 3d fb 18 26 be
       0.067186534 0.008355124 0.10333353 -0.16220467
0002f0 a0 ac cb bc d9 cc fe bd 8a ec 8f 3d 1d d4 94 be
       -0.024862587 -0.12441415 0.07027538 -0.2906808
000300 33 86 b9 bd 12 0b c4 3d de af d7 3c 6d ac 08 3d
       -0.090587996 0.09572424 0.026328977 0.033367563
000310 63 16 ac 3d b9 27 a3 be a3 4d 1a 3e ed 3d 85 3c
       0.084027074 -0.31866243 0.15068679 0.01626488
000320 b7 39 d0 3d 6f d4 ae 3c a6 ce 52 bd 19 1d 8a bd
       0.10167258 0.02134153 -0.051466607 -0.06743831
000330 1a 8e c5 3d 3f 0c 0b 3e 17 ab 35 3e ac 96 60 bd
       0.09646244 0.1357889 0.17741047 -0.054831192
000340 fb 67 90 3e ca 3f 7b 3b eb 09 8e 3c f4 20 a5 3d
       0.2820433 0.0038337582 0.017338714 0.08062926
000350 bf 12 5c 3c f0 66 72 bd 2a 33 0a be 66 cf f1 bb
       0.013432204 -0.0591802 -0.1349608 -0.00737946
000360 ea 2e ed bd e6 fe 53 be a5 f4 a7 3d 8e 79 2d 3d
       -0.11581214 -0.20702705 0.08200959 0.04235225
000370 45 22 76 3d c2 11 f3 3d c0 3b 12 3e af 91 ea bc
       0.060091276 0.118686214 0.14280605 -0.02863392
000380 65 53 79 3d f5 a7 2a 3e 0c 99 bf 3d 56 1b 33 bd
       0.060870547 0.16665633 0.09355363 -0.04372724
000390 4b 05 67 3d 0c 0b 8f 3d 9e 32 c7 bc f8 94 2e 3d
       0.056401532 0.06984529 -0.024316128 0.042622536
0003a0 4b c2 4c 3d 80 0c d7 bd 99 74 8e 3e a2 6e 99 3d
       0.04998998 -0.10500431 0.27823332 0.07491805
0003b0 35 0f 66 3d a3 ba 89 3d b6 23 45 3d e8 62 1f bd
       0.056166846 0.06725051 0.04812976 -0.038912684
0003c0 f3 82 ee bd ad 88 85 be 29 b3 a4 3d ab 37 2d be
       -0.1164607 -0.26080838 0.080419846 -0.16915767
0003d0 0b 79 4a bd 62 af c5 3d bf dd cd 3d 27 85 c9 3d
       -0.04943184 0.09652592 0.1005206 0.0983985
0003e0 2f 88 b6 3d 62 06 d7 3d 71 2b 80 be 8e fd 04 be
       0.08912694 0.10499264 -0.25033143 -0.12987348
0003f0 0e a5 0c bd dd 93 03 be c5 71 07 bd 97 13 d6 3d
       -0.034337096 -0.12849374 -0.033067483 0.10452955

network.3.bias f4 [2]
000000 ea cb 5f bd d0 cd 83 3e
       -0.054637827 0.2574296
