exomy/config/best_run_no_obstacles405k/checkpoints/42000_policy.pt (torch, 723582 bytes, 13 tensors)

log_std_parameter f4 [2]
0	0xbf001f69	-0.5004793
1	0xbf09fbbd	-0.5389975

network.0.conv.0.weight f4 [512, 5]
0	0x3e5efe8e	0.21776792
1	0xbdbeb4bf	-0.09311818
2	0xbba630c6	-0.005071732
3	0xbd885eba	-0.06658693
4	0x3e2a012b	0.16602008
5	0x3e06ba3c	0.1315698
6	0x3d3567d4	0.04428847
7	0x3e384291	0.17994143
8	0xbd589a3d	-0.052881468
9	0xbc3c4d47	-0.011493034
10	0xbcfc0263	-0.030762857
11	0xbb7d2fc6	-0.0038633212
12	0xba045080	-0.0005047396
13	0xbe8220ac	-0.25415552
14	0x3d6bd76b	0.057578485
15	0xb9613306	-0.0002147668
16	0xbd5001d1	-0.050782982
17	0x3e98529e	0.29750532
18	0x3d09eab6	0.033671103
19	0x3e2e2d26	0.1700941
20	0x3d55a571	0.05215973
21	0xbc4ab266	-0.012371635
22	0x3da8dccd	0.082452394
23	0x3e456047	0.19275008
24	0x3e00d5a9	0.12581505
25	0x3e140749	0.14455904
26	0x3e7e7085	0.2484761
27	0xbbaf8d4e	-0.005357421
28	0xbe48649a	-0.19569626
29	0xbce3dbb5	-0.027814725
30	0xbe9ef9d1	-0.3104997
31	0xbd016991	-0.031594817
32	0x3da3f916	0.08006494
33	0xbcc120fe	-0.023575302
34	0xbd78c3c7	-0.060733583
35	0x3bd23656	0.0064151688
36	0xbd092440	-0.033481836
37	0x3d46532a	0.048419155
38	0x3dc2becd	0.095090486
39	0xbd96cc60	-0.073632
40	0x3db2003b	0.0869145
41	0xbe2483d8	-0.1606592
42	0xbd4eb978	-0.050469846
43	0xbc1167bf	-0.008874833
44	0xbca7903c	-0.020454518
45	0xbdea3a8e	-0.1143695
46	0xbc0aefa4	-0.008479986
47	0xbe82bc71	-0.25534394
48	0x3d84c5d1	0.06483043
49	0xbe40c25b	-0.1882414
50	0xbc9ca85f	-0.019123254
51	0x3e8a027f	0.2695503
52	0x3d96c245	0.07361273
53	0x3e244a17	0.16043888
54	0x3b419ab9	0.0029541685
55	0xbdad57c5	-0.08464006
56	0x3d87d655	0.066326775
57	0xbda17245	-0.07883123
58	0x3e09cd9e	0.13457343
59	0xbd90353e	-0.07041405
60	0x3e1b2385	0.15150268
61	0xbd2f6b9b	-0.04282723
62	0x3db9dbd7	0.09075134
63	0x3ce30ea7	0.027716948
64	0x3e029727	0.12752973
65	0x3e25191b	0.16122858
66	0xbe4df432	-0.20112684
67	0x3b3b2024	0.0028553093
68	0x3e5ea6b0	0.21743274
69	0x3c03975f	0.008031695
70	0xbd144c89	-0.036205802
71	0x3d4d355b	0.050099712
72	0x3dfe9b82	0.124320045
73	0x3db2a61e	0.087230906
74	0x3e1bfd23	0.15233283
75	0xbda5a68e	-0.080884084
76	0x3e5e146b	0.21687476
77	0x3d3ea5a7	0.046544697
78	0x3e16867f	0.14699744
79	0xbd07e24e	-0.033174805
80	0x3e2d3a92	0.16916874
81	0x3eddf6ab	0.43352255
82	0x3cd9ea00	0.026600838
83	0xbe27078e	-0.16311476
84	0x3e17767b	0.1479129
85	0xbdd9e677	-0.10639661
86	0x3c62e906	0.013849502
87	0x3dfe5644	0.124187976
88	0xbdff95a7	-0.12479716
89	0x3d464703	0.048407566
90	0x3d823c6f	0.06359183
91	0x3e109b52	0.1412175
92	0xbdddb172	-0.10824861
93	0xbcf06932	-0.029347036
94	0x3d13a9f3	0.036050748
95	0xbe88cb05	-0.26717392
96	0xbe6a23fc	-0.2286529
97	0x3c3fd022	0.011707338
98	0x3db5b13b	0.08871695
99	0xbd196439	-0.037449095
100	0xbdc63143	-0.09677365
101	0xbbd84332	-0.006599807
102	0xbe27b0ae	-0.16375992
103	0xbc147228	-0.00906042
104	0x3d9fcfe5	0.078033246
105	0xbe69ed4f	-0.22844432
106	0x3d815fd0	0.06317103
107	0xbdaff55d	-0.08591721
108	0xbe8780d5	-0.2646548
109	0x3e64fad7	0.22361313
110	0xbd1094b3	-0.03529806
111	0xbdde3bf9	-0.108512826
112	0x3d764217	0.060121622
113	0x3d40abef	0.04703897
114	0xbc10d9f6	-0.008841028
115	0xbe04b7dd	-0.12960763
116	0x3e64d806	0.22348031
117	0x3c4df0a9	0.012569585
118	0xbc14cefb	-0.009082551
119	0xbd2c9d8c	-0.042142436
120	0x3e956856	0.29181165
121	0xbb4fbcff	-0.0031698344
122	0x3ddc6287	0.1076098
123	0xbceaee8f	-0.028678207
124	0xbdeb35db	-0.114848815
125	0xbdae4434	-0.085091025
126	0xbe5337d2	-0.20626763
127	0xbd8bdc1e	-0.068290934
128	0x3e001dfe	0.12511441
129	0xbd89964d	-0.06718121
130	0xbe04e1b4	-0.12976724
131	0x3d8c40e4	0.068483144
132	0x3e270608	0.16310894
133	0xbd2056da	-0.039145328
134	0xbc87bb37	-0.016568763
135	0xbea51fd5	-0.32250848
136	0x3e5bb618	0.21456182
137	0xbdafbba2	-0.0858071
138	0xbddbd6a7	-0.10734301
139	0xbd90476f	-0.07044875
140	0x3e16bbeb	0.14720123
141	0x3ddd24e7	0.10798054
142	0xbc586845	-0.013208454
143	0x3e1f38e1	0.15549041
144	0xbc740d73	-0.014895785
145	0x3bdf80b0	0.0068207607
146	0x3e47f691	0.19527651
147	0x3dc18c6c	0.094506115
148	0x3d82c811	0.06385816
149	0xbd1ae6e2	-0.037817843
150	0x3ca1775a	0.019710232
151	0x3e1760af	0.14782976
152	0x3d85e328	0.06537467
153	0xbe214892	-0.1575034
154	0xbe51ce63	-0.20488887
155	0xbe26d198	-0.16290891
156	0xbe30e1b5	-0.172736
157	0x3e262f3b	0.16228954
158	0x3d55a097	0.052155104
159	0xbe068500	-0.13136673
160	0xbe3aaddc	-0.18230385
161	0xbdd0b9a0	-0.10191655
162	0x3b46e8a4	0.0030351067
163	0xbe26cd71	-0.16289307
164	0x3dc6f236	0.09714167
165	0xbe00e29c	-0.12586445
166	0x3b7fa44d	0.0039007843
167	0xbd076182	-0.033051975
168	0x3c84031e	0.016114768
169	0xbdbac8c3	-0.091203235
170	0x3c3bbb58	0.01145824
171	0x3e7febb5	0.24992259
172	0x3cb940bc	0.022613876
173	0xbd71624a	-0.058931626
174	0xbcf6317b	-0.030052891
175	0x3e5166ed	0.2044942
176	0x3d16aa19	0.03678331
177	0x3d8a39ee	0.067493305
178	0xbd8d2f3e	-0.06893776
179	0xbd8ecca7	-0.06972628
180	0xbe8a86bc	-0.2705592
181	0x3e8d9377	0.2765157
182	0xbdab516d	-0.0836514
183	0xbe1d1fce	-0.15344164
184	0x3e612a63	0.21988826
185	0x3e779898	0.24179304
186	0x3d0fd927	0.035119202
187	0xbd81b663	-0.06333616
188	0x3d3734d7	0.044728126
189	0x3c847f86	0.01617409
190	0xbcafaecf	-0.02144566
191	0xbd7d1e09	-0.061796222
192	0x3dbee4a4	0.093209535
193	0xbd20ae57	-0.039228763
194	0x3cfe277f	0.031024693
195	0xbcfb69a9	-0.030690031
196	0xbee8ec0f	-0.45492598
197	0xbd9ba13d	-0.07599113
198	0xbbeaf297	-0.0071700322
199	0x3e03aa23	0.12857871
200	0x3dcb35e0	0.09922385
201	0x3e0e237f	0.13880728
202	0x3d4555f9	0.048177693
203	0x3dff931d	0.124792315
204	0x3cb4a159	0.022049593
205	0xbdf16d38	-0.1178841
206	0xbe3633d5	-0.1779321
207	0xbc93f5cd	-0.018061543
208	0xbdb86a20	-0.09004617
209	0xbd9c773e	-0.07639931
210	0xbd647ab4	-0.05578108
211	0xbdd92c8d	-0.106042005
212	0xbc19eac2	-0.0093943495
213	0xbc970434	-0.018434621
214	0xbe52dcb0	-0.20591998
215	0x3e4ab33e	0.19794938
216	0x3e9acc6d	0.3023409
217	0xbc5d5096	-0.013507983
218	0xbdc52f98	-0.096282184
219	0x3de15468	0.11002427
220	0xbe87001d	-0.26367274
221	0xbda07582	-0.07834913
222	0x3e1f3837	0.15548788
223	0x3d9d45af	0.07679307
224	0xbe389b10	-0.18027902
225	0x3dec3fc4	0.115356
226	0x3d8669ec	0.06563172
227	0x3cccc8ba	0.024998058
228	0xbd5f4301	-0.05450726
229	0x3da371be	0.07980679
230	0x3e83f7e0	0.2577505
231	0xbd4af178	-0.04954669
232	0xbdb5fea7	-0.08886462
233	0xbd82271b	-0.06355115
234	0xbdfa74bd	-0.12229297
235	0x3e01ca79	0.12674893
236	0x3cce923c	0.025216214
237	0xbd709f0e	-0.058745436
238	0xbda1a717	-0.07893198
239	0x3d995d29	0.07488472
240	0xbd81b9a5	-0.06334237
241	0x3d89637c	0.06708428
242	0x3c65a18a	0.014015565
243	0xbe1111fb	-0.14167015
244	0xbd84442b	-0.064583145
245	0xbe3cebd3	-0.18449335
246	0xbe9d9526	-0.30777854
247	0x3ca0587c	0.019573443
248	0xbd3231c9	-0.04350451
249	0xbd3ac5e3	-0.045598876
250	0x3e1219c8	0.14267647
251	0x3e848a43	0.25886735
252	0x3e22fc2f	0.15916513
253	0xbe38740a	-0.18013015
254	0xbe638397	-0.22218166
255	0x3e0c8d92	0.1372588

network.0.conv.0.bias f4 [512]
0	0x3dd76045	0.10516409
1	0xbe05f2ca	-0.13080898
2	0xbd7eb54e	-0.062184624
3	0x3d921910	0.071336865
4	0xbe9f5be0	-0.31124783
5	0x3c5483f2	0.012970911
6	0xbde364e9	-0.111032315
7	0xbe4bc3cf	-0.19898914
8	0x3dfc294f	0.123125665
9	0xbbb687f0	-0.005570404
10	0xbd8b1e21	-0.06792856
11	0xbc88a3b8	-0.01667963
12	0xbdab5815	-0.0836641
13	0x3cc7f3ce	0.024408247
14	0x3c827eef	0.015929667
15	0x3dbab048	0.09115654
16	0xbb85c535	-0.004082347
17	0xbda5a0ff	-0.08087348
18	0x3cd10279	0.025513874
19	0x3d6c7294	0.057726458
20	0x3e41ba53	0.18918733
21	0x3d94e31e	0.07269882
22	0xbe0aa0b0	-0.1353786
23	0x3d8eabce	0.06966363
24	0x3e422190	0.18958116
25	0x3dbb0dd6	0.09133498
26	0x3db03724	0.08604267
27	0x3d87b648	0.06626564
28	0xbe1adcb6	-0.15123257
29	0xbd97b1f0	-0.07406986
30	0x3d547bc4	0.051875845
31	0xbd96bd88	-0.07360369
32	0x3e2daae1	0.16959716
33	0x3d65d2ef	0.056109365
34	0x3da6814e	0.08130132
35	0x3cf84fa7	0.030311419
36	0xbcf06b12	-0.02934793
37	0x3c21bced	0.009871704
38	0x3d214f67	0.039382365
39	0x3c8a8a33	0.016911602
40	0x3e008b38	0.12553108
41	0x3e165b87	0.14683352
42	0xbdbf7ff0	-0.09350574
43	0x3cf1f331	0.029534908
44	0xbe176fe6	-0.1478878
45	0x3e3bff59	0.18359126
46	0x3cd082e4	0.025453039
47	0xbc999a87	-0.018750442
48	0x3de10ab0	0.109883666
49	0x3da3b469	0.07993395
50	0xbc9eb4d5	-0.019373337
51	0x3d0fa968	0.035073668
52	0x3da8394d	0.08214054
53	0x3e2aed8f	0.16692184
54	0x3d8e4b24	0.06947926
55	0x3e1e7408	0.1547395
56	0x39d7a62b	0.000411318
57	0x3ce53f13	0.027984178
58	0x3c826d91	0.015921386
59	0xbe111ceb	-0.14171188
60	0x3da03b4e	0.078238115
61	0x3c599324	0.01327971
62	0x3e623060	0.22088766
63	0x3e0226aa	0.12710062
64	0x3e8742c0	0.26418114
65	0x3b865db3	0.0041005253
66	0x3da8252f	0.08210217
67	0x3d35c35d	0.044375766
68	0xbcbfe36f	-0.023423878
69	0x3de020ed	0.1094378
70	0x3d802761	0.06257511
71	0x3c22cfa1	0.009937198
72	0xbd3394f4	-0.043843225
73	0xbcde5f1d	-0.027144963
74	0xbd8baff3	-0.06820669
75	0x3c04c654	0.008103926
76	0xbdee7284	-0.11642936
77	0xbc83e25c	-0.016099147
78	0xbd3e8051	-0.04650909
79	0xbe5f1d2e	-0.21788475
80	0x3e576a03	0.21036534
81	0x3dbd1e37	0.09234279
82	0xbd800399	-0.06250686
83	0x3e5c9dc4	0.21544558
84	0x3e41e1b1	0.1893375
85	0x3c918070	0.01776144
86	0x3d8d5c3f	0.0690236
87	0xbcd66860	-0.026172817
88	0xbca1ea38	-0.019765005
89	0xbe27a8b2	-0.16372946
90	0x3d18c5f2	0.03729815
91	0xbdba353f	-0.09092187
92	0x3d78e1ef	0.060762342
93	0xbe300365	-0.17188795
94	0x3d123e89	0.03570417
95	0x3e099a24	0.13437706
96	0x3e539d88	0.20665562
97	0x3e001dc7	0.12511359
98	0xbcabc7ef	-0.02096936
99	0x3b3a510f	0.0028429662
100	0x3e039d15	0.12852891
101	0x3db5bec9	0.0887428
102	0x3e307db1	0.17235447
103	0xbdfed61e	-0.12443183
104	0x3d0c9b62	0.034327872
105	0x3c8d0f39	0.017219173
106	0xbd594f1e	-0.053053968
107	0x3bd0266b	0.006352236
108	0xbd1d4e28	-0.038404614
109	0xbdcaf72a	-0.09910424
110	0x3d4df647	0.050283697
111	0x3cd620d1	0.026138695
112	0xbd30b262	-0.04313887
113	0x3dec2b45	0.115316905
114	0x3df0f642	0.1176572
115	0xbe01bca0	-0.12669611
116	0x3de6a494	0.112618595
117	0x3c24a03d	0.010047969
118	0x3cbb1aa9	0.022839861
119	0x3d31ed76	0.04343935
120	0xbd78420b	-0.06060986
121	0x3ca1d944	0.01975692
122	0x3dae4de1	0.08510948
123	0xbbb5131c	-0.0055259597
124	0xbdb7f2ad	-0.089818336
125	0xbdda04c9	-0.10645444
126	0xbe0750bb	-0.1321439
127	0x3dc3506a	0.09536822
128	0xbce9064f	-0.028445391
129	0x3e19d232	0.1502159
130	0x3cd9e9b2	0.026600692
131	0xbd87c665	-0.06629638
132	0x3c7c337a	0.015393132
133	0x3d5166ef	0.051123556
134	0x3de850b6	0.113435194
135	0x3d3b4af9	0.045725796
136	0xbb72aba4	-0.0037028575
137	0x3d1f12da	0.038836338
138	0x3d61abb6	0.055095397
139	0x3cdf7b12	0.027280364
140	0xbe0d2319	-0.1378292
141	0xbe263370	-0.1623056
142	0x3da764e0	0.08173537
143	0xbd4dcb64	-0.050242797
144	0x3cee8346	0.02911533
145	0x3dbd4d4c	0.09243259
146	0xbd1be9d8	-0.038064808
147	0xbda53158	-0.08066052
148	0x3d8777a2	0.06614615
149	0xbce3b2a2	-0.02779514
150	0x3cf96f15	0.030448476
151	0xbc13c23e	-0.009018479
152	0xbe4e1bfb	-0.20127861
153	0xbc6ae179	-0.014335983
154	0xbdc8b5fc	-0.09800336
155	0x3e15ac75	0.14616568
156	0x3d37943f	0.044819113
157	0x3d8717e9	0.065963574
158	0xbd50bf0c	-0.050963446
159	0xbd9e3074	-0.077240855
160	0xbd89308c	-0.06698713
161	0x3d9041ac	0.07043776
162	0xbdb18d6e	-0.08669554
163	0x3e57a8c7	0.21060477
164	0xbb1198e3	-0.0022216372
165	0x3da79c72	0.081841365
166	0x3ddd1146	0.1079431
167	0x3e6833a8	0.22675955
168	0xbcf0c67c	-0.02939152
169	0xbe601f2b	-0.2188689
170	0xbd7441b8	-0.059632987
171	0xbdd791b6	-0.10525839
172	0x3e71960a	0.23592392
173	0xbe3a7b34	-0.18211061
174	0xbd960837	-0.073257856
175	0xbd11ee44	-0.03562762
176	0xbbf9a675	-0.00761872
177	0x3d0ec905	0.034859676
178	0x3b98e2e7	0.0046657207
179	0xbb6aef4a	-0.0035848194
180	0xbc3821cf	-0.011238529
181	0x3de6b22b	0.112644516
182	0xbd702f05	-0.05863859
183	0xbe32cc69	-0.17460789
184	0xbe15a6ee	-0.1461446
185	0x3da38b26	0.07985525
186	0xbcda727d	-0.02666592
187	0xbe2eeaeb	-0.17081802
188	0x3e0baac8	0.13639367
189	0xbe072aa7	-0.13199864
190	0x3db207d5	0.086929
191	0xbd939153	-0.07205453
192	0xbe352e55	-0.17693456
193	0xbdea22b3	-0.114323996
194	0xbd5eda53	-0.05440743
195	0x3e2acb09	0.16679014
196	0xbe1cca22	-0.15311483
197	0x3d613165	0.054978747
198	0x3d2812b4	0.04103346
199	0xbba6d895	-0.0050917366
200	0x3cf775ab	0.030207476
201	0xbe5f94be	-0.21834084
202	0x3cb2aa09	0.021809595
203	0xbb9e0670	-0.0048225448
204	0xbb3c9b10	-0.0028778948
205	0x3d85426c	0.065068096
206	0x3dcc2b8b	0.09969243
207	0xbd81277b	-0.063063584
208	0xbdb86a9b	-0.090047084
209	0xbd742776	-0.059607945
210	0xbe80a983	-0.25129327
211	0xbdc91773	-0.09818926
212	0xbd076925	-0.033059258
213	0xbcbfbe9f	-0.023406325
214	0x3e15317f	0.14569663
215	0x3df6d27f	0.12051868
216	0x3e1ff83d	0.15622039
217	0x3e058334	0.13038331
218	0x3db18e78	0.08669752
219	0xbdd40437	-0.103523664
220	0xbdcdcdb6	-0.10049002
221	0xbcc5a6ae	-0.02412733
222	0xbe2ed119	-0.17071952
223	0xbe56ac76	-0.20964226
224	0xbe236302	-0.15955737
225	0x3d8207c8	0.063491404
226	0xbca52e98	-0.02016382
227	0xbdae80ca	-0.08520658
228	0xbe0733ec	-0.132034
229	0x3dadc63e	0.08485077
230	0xbe275a08	-0.16342938
231	0x3d0aa567	0.033849146
232	0xbe508df3	-0.2036665
233	0x3e2c6d92	0.16838673
234	0xbe04acd6	-0.12956557
235	0xbe28fc60	-0.16502523
236	0x3ddbcee5	0.107328214
237	0x3c398349	0.011322805
238	0xbdd0a6da	-0.101880744
239	0x3d97a48e	0.07404433
240	0x3dba95f4	0.091106325
241	0x3e0666bd	0.13125129
242	0xbe1094ef	-0.14119314
243	0x3d2c8ec0	0.042128325
244	0x3b9bb70b	0.004752045
245	0x3c491676	0.0122734215
246	0x3d8bcf7c	0.06826684
247	0x3dacea35	0.08443109
248	0x3d5888f8	0.052865
249	0xbe02621e	-0.12732741
250	0x3c9d0f5d	0.019172365
251	0xbdce0909	-0.10060317
252	0xbc7b02c0	-0.01532048
253	0x3b90dbcc	0.004420733
254	0xbde5cc44	-0.11220601
255	0xbdef6e1f	-0.11690926

network.1.conv.0.weight f4 [256, 512]
0	0x3da05264	0.07828215
1	0xbe5963e4	-0.21229511
2	0xbd789b12	-0.06069476
3	0x3c2b3e2c	0.010451835
4	0xbae351fb	-0.0017343158
5	0xbe062be0	-0.13102674
6	0xbde8cc0a	-0.11367042
7	0xbd370de5	-0.044690985
8	0x3ca56e7e	0.020194288
9	0xbda0e77a	-0.07856651
10	0xbe148df3	-0.14507274
11	0x3d164f69	0.036696825
12	0x3dc0ef77	0.09420674
13	0xbd4b492e	-0.049630336
14	0xbde7c7ed	-0.1131743
15	0x3eabc13b	0.3354586
16	0xbe51ddce	-0.20494768
17	0x3b1e744f	0.0024178212
18	0x3d03fc7d	0.032223213
19	0x3e2bf947	0.1679431
20	0x3df1c94b	0.11805972
21	0x3e80e7f6	0.25176972
22	0x3dbe00d7	0.09277504
23	0xba9390c4	-0.0011258353
24	0x3e35a279	0.1773776
25	0xbd371f27	-0.044707444
26	0x3e3c633c	0.1839723
27	0x3daa11be	0.08304165
28	0xbe1d662a	-0.15371004
29	0xbcb29b13	-0.02180246
30	0xbe1c82be	-0.15284249
31	0xbd595636	-0.053060733
32	0x3df9e9fe	0.122028336
33	0x3c82f941	0.015987994
34	0x3c62492b	0.01381139
35	0x3d611fa2	0.054961808
36	0xbe15806c	-0.1459977
37	0xbe288c0a	-0.1645967
38	0xbd5d236e	-0.053988867
39	0xbe2f3d1b	-0.17113154
40	0x3d2a1dae	0.04153221
41	0x3e9ca7c8	0.30596757
42	0x3e109dcb	0.14122693
43	0xbeaf248d	-0.34207574
44	0x3da533ca	0.080665186
45	0xbd24b1af	-0.040208515
46	0xbc9f7c03	-0.019468313
47	0xbd85dddb	-0.06536456
48	0x3d26b12c	0.040696308
49	0xbc1987c8	-0.009370752
50	0x3c9ad337	0.018899543
51	0xbd8ccb63	-0.068747304
52	0x3df292d9	0.11844415
53	0x3dccffb2	0.100097075
54	0x3e8f826f	0.280292
55	0xbcedbab9	-0.0290197
56	0xbe871f0a	-0.26390868
57	0xbe4018d6	-0.18759474
58	0xbe2cbc43	-0.16868691
59	0xbe0b35dc	-0.13594764
60	0xbd0cf612	-0.03441436
61	0x3d5b68e3	0.053566825
62	0xbbc06c33	-0.0058722734
63	0xbd052353	-0.03250439
64	0x3d0edbca	0.034877576
65	0xbe8f9bbf	-0.28048512
66	0xbb1f4cfb	-0.0024307359
67	0x3d83e362	0.06439854
68	0xbd19595e	-0.037438743
69	0x3d51e045	0.05123927
70	0x3d9f4f7a	0.07778831
71	0xbd750ce7	-0.059826758
72	0x3caedfc4	0.021346934
73	0x3e555aec	0.20835465
74	0x3dea5cf2	0.11443509
75	0xbe3be01a	-0.18347207
76	0xbe498508	-0.19679654
77	0xbbafed26	-0.0053688465
78	0x3cdd71c5	0.027031789
79	0x3e047b57	0.12937675
80	0x3cb0b5f4	0.021571137
81	0xbd8e4335	-0.069464125
82	0xbe59cc0d	-0.21269245
83	0x3e190ca6	0.14946231
84	0xbdf4d8a2	-0.11955382
85	0x3dd36c1c	0.103233546
86	0xbe6b4cb4	-0.22978479
87	0xbd0e3513	-0.034718584
88	0x3dfd4662	0.1236694
89	0x3e8ffb7a	0.2812155
90	0x3e2ef5f6	0.17086014
91	0x3d209c44	0.039211527
92	0x3e92dd7c	0.28684604
93	0xbe211d0f	-0.15733741
94	0x3d1466e1	0.036230925
95	0x3c23aab7	0.009989432
96	0xbd759e6a	-0.05996553
97	0x3e0e1c31	0.13877942
98	0x3d5bf49b	0.05370007
99	0xbe3f3499	-0.18672408
100	0x3df9953a	0.12186666
101	0xbc9fac3f	-0.019491313
102	0x3daaf703	0.08347895
103	0xbdb23561	-0.087015875
104	0x3e3e31d0	0.1857369
105	0xbd201f6b	-0.039092463
106	0xbe026617	-0.12734257
107	0x3bc38c32	0.0059676403
108	0x3e4b96cc	0.19881743
109	0x3d41e38a	0.04733614
110	0x3e4f33d4	0.20234615
111	0xbbe46fe5	-0.0069713467
112	0x3c540acc	0.012942027
113	0x3df03e58	0.11730641
114	0x3e729c49	0.2369243
115	0xbcf66240	-0.030076146
116	0x3dc27b05	0.0949612
117	0xbe4efcc8	-0.20213616
118	0xbd499f4d	-0.049224187
119	0xbc1f1dcf	-0.009711697
120	0xbd4567de	-0.04819476
121	0x3e5f509f	0.21808098
122	0xbdb98886	-0.09059243
123	0xbdbf7d81	-0.0935011
124	0xbdd37f55	-0.10327021
125	0xbe642ec6	-0.22283468
126	0xbe51bd32	-0.20482329
127	0x3caac2de	0.020844873
128	0x3c2a3c24	0.010390315
129	0xbc0ed108	-0.008716829
130	0x3e0dc1bb	0.13843434
131	0xbcb7aad6	-0.022420328
132	0xbca0bae1	-0.01962036
133	0xbcc0d33c	-0.023538224
134	0xbdf42ad6	-0.11922233
135	0x3d598a34	0.053110316
136	0x3b621ead	0.0034503147
137	0x3c74e4c9	0.014947125
138	0x3d4bb1ba	0.04973004
139	0x3d0c4180	0.034242153
140	0xbb8175b7	-0.0039508003
141	0x3ca632d4	0.020287909
142	0xbe54dd8a	-0.20787635
143	0x3dabbe1f	0.08385872
144	0x3d85b6e8	0.06529027
145	0xbdeabea0	-0.1146214
146	0xbdd2fd1d	-0.10302184
147	0xbd211521	-0.03932679
148	0x3e2a0463	0.16603236
149	0xbcf61544	-0.030039437
150	0xbc6cff8d	-0.014465225
151	0xbdb38a37	-0.08766597
152	0x3d73cedb	0.059523445
153	0x3dc94866	0.09828262
154	0x3b42de08	0.0029734392
155	0x3d3d61a9	0.046235714
156	0x3e229916	0.1587871
157	0x3de87139	0.113497205
158	0xbe1f9804	-0.15585333
159	0xbbfff2b9	-0.007810917
160	0xbd15dc2d	-0.03658693
161	0xbcb502a3	-0.022095984
162	0x3d253bf3	0.040340375
163	0x3da8eff5	0.08248893
164	0xbe162bca	-0.14665142
165	0x3e2786b8	0.16359985
166	0x3db10213	0.08642974
167	0x3df9a4d8	0.121896446
168	0xbd778704	-0.060431495
169	0xbdf3b6cb	-0.11900099
170	0x3c2dcce7	0.010607935
171	0xbe04cf6b	-0.12969749
172	0x3e352f3a	0.17693797
173	0xbdd82ef7	-0.10555833
174	0x3d705021	0.058670167
175	0xbe13b4a9	-0.14424385
176	0xbda19539	-0.0788979
177	0x3e052351	0.13001753
178	0x3dc12de5	0.09432582
179	0xbda8a81d	-0.0823519
180	0xbdad7a8b	-0.08470639
181	0xbc689de7	-0.014197803
182	0x3ce6194a	0.02808823
183	0xbdb10d85	-0.08645157
184	0xbe195c4d	-0.14976616
185	0x3dd8d3e9	0.10587294
186	0x3d7ded6d	0.061994005
187	0x3c856b21	0.016286435
188	0x3c8bd136	0.017067533
189	0x3d8a6a62	0.06758572
190	0x3da7a219	0.081852145
191	0xbe2bf928	-0.16794264
192	0xbe115342	-0.14191917
193	0x3d210d68	0.039319426
194	0x3d606230	0.05478114
195	0x3d4df2e0	0.05028045
196	0x3dd07d73	0.101801775
197	0xbd2fa24a	-0.04287938
198	0x3dad81a8	0.084719956
199	0xbd9d66fc	-0.07685658
200	0xbd367fc7	-0.04455545
201	0xbe13a2bf	-0.14417551
202	0x3d03ac0c	0.0321465
203	0xbe020370	-0.12696624
204	0x3da27f4a	0.07934435
205	0x3db231fb	0.08700939
206	0x3e3d429a	0.18482438
207	0xbe9583e0	-0.29202175
208	0x3c7e61c6	0.015526241
209	0xbe342ae7	-0.17594491
210	0x3ba34922	0.0049830833
211	0x3c59ec58	0.013300978
212	0x3d6a7379	0.05723903
213	0x3c3d3b9c	0.0115498565
214	0xbbf5d504	-0.0075022
215	0x3d977e08	0.073970854
216	0x3d88958c	0.06669149
217	0x3e17ce26	0.14824733
218	0x3dbcfb74	0.092276484
219	0x3cce0f92	0.025153909
220	0x3df8f142	0.12155391
221	0x3c6cc00e	0.014450086
222	0xbdec8318	-0.11548442
223	0x3d8a67d7	0.06758087
224	0xbe68990b	-0.22714631
225	0x3b732083	0.0037098236
226	0x3d9bcd5b	0.07607528
227	0xbdfda208	-0.12384421
228	0xbe406e61	-0.18792106
229	0xbda5a122	-0.08087374
230	0xbc8eb8b8	-0.017422065
231	0x3da18e7c	0.07888505
232	0xbb0fd610	-0.002194766
233	0x3cb4490a	0.022007484
234	0xbd15adb1	-0.0365426
235	0xbcda7e25	-0.026671479
236	0x3d32ca9c	0.043650255
237	0x3b8c80b3	0.004287803
238	0xbdfc2dd5	-0.12313429
239	0x3cc50218	0.02404885
240	0x3cd9b10a	0.026573677
241	0x3e0cfdc6	0.13768682
242	0xbdd5f705	-0.10447506
243	0x3d8b2239	0.06793637
244	0xbd000d22	-0.031262524
245	0xbdceb5c0	-0.1009326
246	0x3d5269e5	0.05137052
247	0xbdb84f20	-0.08999467
248	0xbcf97db8	-0.030455455
249	0xbe81524a	-0.25258094
250	0xbca888c1	-0.020573022
251	0xbdea7f8f	-0.11450111
252	0x3e2a2110	0.16614175
253	0xbe0d0247	-0.137704
254	0xbd8619bc	-0.06547877
255	0xbd12fc45	-0.035885114

network.1.conv.0.bias f4 [256]
0	0xbd115c05	-0.035488147
1	0x3cc0c6ac	0.023532234
2	0x3d241082	0.040054806
3	0x3cb45934	0.022015192
4	0xbbf79cec	-0.0075565483
5	0x3e04c3c6	0.12965307
6	0x3d41c840	0.047310114
7	0x3d98f701	0.07468987
8	0xbcbe9b2b	-0.02326735
9	0x3d3b9c87	0.045803573
10	0xbc6f7ef3	-0.014617669
11	0xbe1bb7e2	-0.15206864
12	0x3de37d9e	0.11107944
13	0xbde095c6	-0.10966067
14	0xbdc12b22	-0.09432055
15	0xbdce586c	-0.10075459
16	0xbc913990	-0.017727643
17	0x3b131554	0.0022443132
18	0x3db40c1d	0.08791373
19	0xbe4490d9	-0.1919588
20	0xbdb19a7f	-0.08672046
21	0x3e61a5e7	0.22035943
22	0xbd87f176	-0.06637852
23	0xbd19c010	-0.03753668
24	0xbdd37aac	-0.10326132
25	0x3c613ba4	0.01374713
26	0xbe2bdf63	-0.16784434
27	0x3cfb535d	0.0306794
28	0xbe120241	-0.14258672
29	0xbc052e4f	-0.008128717
30	0xbe09ea92	-0.13468388
31	0x3c90a26f	0.01765558
32	0xbd7a35a8	-0.061086327
33	0xbe3bc749	-0.1833774
34	0x3e775c68	0.24156344
35	0xbd060e77	-0.03272864
36	0xbe486019	-0.19567908
37	0xbc94b923	-0.018154686
38	0x3c35ae1c	0.011088874
39	0xbd1a9b5d	-0.037745822
40	0xbdc568e6	-0.096391484
41	0xbe00509a	-0.12530747
42	0xbe5c7628	-0.21529448
43	0x3dad8f5e	0.08474611
44	0x3cb98992	0.022648606
45	0x3d6125af	0.05496758
46	0xbd8802c7	-0.06641155
47	0xbc428a25	-0.011873757
48	0xbd4b3b3f	-0.04961705
49	0x3de5eb95	0.11226574
50	0xbd50194b	-0.05080537
51	0x3de637ff	0.11241149
52	0xbd894b48	-0.06703812
53	0xbb89b6f9	-0.0042027202
54	0xbd389b2b	-0.045069855
55	0x3d934d95	0.07192532
56	0x3d2fecbb	0.042950373
57	0x3d9ed6cd	0.07755814
58	0x3d479377	0.048724618
59	0x3e2ecc03	0.17070012
60	0xbe0da04f	-0.13830684
61	0xbd773f2f	-0.06036299
62	0xbc0fd8a5	-0.008779679
63	0x3d70b27d	0.05876397
64	0x3d0514dd	0.0324906
65	0x3d0605f7	0.032720532
66	0x3e1f7441	0.15571691
67	0xbc301575	-0.010747303
68	0xbba2b041	-0.0049648588
69	0xbd67f07b	-0.056625824
70	0xbc0257ce	-0.007955505
71	0xbdb40a07	-0.08790975
72	0x3da9428c	0.08264646
73	0xbdc3d7a4	-0.095626146
74	0xbdf6cc9d	-0.12050746
75	0xba1f94e7	-0.0006087557
76	0x3d814127	0.06311255
77	0x3cfe8dc9	0.031073468
78	0xbb97a73d	-0.0046280907
79	0x3e7942ad	0.24341841
80	0xbe09b81d	-0.1344914
81	0x3d2c7b1e	0.0421096
82	0xbe116107	-0.14197169
83	0x3d732d42	0.059369333
84	0xbe345f1b	-0.17614405
85	0xbd9b1361	-0.075720556
86	0xbd3dd644	-0.046346918
87	0xbd95c5b5	-0.073131
88	0x3d9650ee	0.07339655
89	0x3d25580e	0.04036718
90	0x39283da9	0.00016044699
91	0x3e39db4d	0.18150063
92	0x3dd50b7f	0.10402583
93	0x3e0d9631	0.13826825
94	0x3d285d2a	0.041104473
95	0xbb790450	-0.0037996955
96	0xbe2e6345	-0.17030056
97	0x3b988517	0.0046545374
98	0x3b319b48	0.0027100611
99	0x3ea8d452	0.32974488
100	0x3d63bf05	0.055602092
101	0xbd1b2439	-0.03787634
102	0x3d4466b6	0.047949515
103	0xbe27d604	-0.16390234
104	0xbe5d2af3	-0.21598415
105	0xbd54147a	-0.05177734
106	0x3de69898	0.11259574
107	0xbe30e5c9	-0.17275156
108	0x3d5b584e	0.05355101
109	0xbcc68b11	-0.024236234
110	0x3e02e0bb	0.1278104
111	0xbe309beb	-0.17246978
112	0x3d9833ba	0.07431741
113	0x3e08611f	0.13318299
114	0xbdc48e6d	-0.09597478
115	0x3e02ec81	0.12785532
116	0x3dd318b6	0.103074476
117	0xbcde0905	-0.02710391
118	0xbd0663d3	-0.032810044
119	0x3e18733f	0.14887713
120	0x3d36407b	0.044495087
121	0xbce90830	-0.028446287
122	0x3e026027	0.12731992
123	0x3dc77e60	0.09740901
124	0xbdb7df26	-0.08978109
125	0xbcf097e6	-0.029369306
126	0x3e1d27a7	0.15347157
127	0xbe63dba2	-0.22251752
128	0xbc80b4cf	-0.015711216
129	0xbd6cc094	-0.057800844
130	0xbe2a1aa8	-0.16611731
131	0x3d3ef624	0.046621457
132	0xbcdffc94	-0.027342118
133	0x3cbc93fe	0.023019787
134	0x3c990ca8	0.018682793
135	0xbbf19120	-0.0073720366
136	0x3d2a4817	0.041572656
137	0xbbc407e3	-0.0059823855
138	0xbd74b4b2	-0.059742637
139	0x3c92256a	0.017840106
140	0xbce4a1ad	-0.027909124
141	0x3d0c0fdb	0.03419481
142	0xbc717fb9	-0.014739924
143	0x3d27fb40	0.041011095
144	0x3d88e34b	0.06683978
145	0x3d6908a5	0.05689301
146	0xbe22a144	-0.1588183
147	0x3dc0a6ce	0.094068155
148	0x3e1a06d5	0.15041669
149	0xbdaa89ee	-0.08327089
150	0xbd4439da	-0.047906734
151	0xbd5df8ed	-0.054192472
152	0x3e10a5c7	0.14125739
153	0x3eb34b73	0.350185
154	0x3d8f2f8d	0.069914915
155	0xbd90a98a	-0.07063587
156	0x3c2bda11	0.010489003
157	0x3de19bc3	0.11016037
158	0x3ca26b78	0.019826636
159	0x3bbb8317	0.0057224142
160	0x3c813f40	0.01577723
161	0xbd869247	-0.06570869
162	0x3d09003e	0.033447497
163	0x3e5e4b4c	0.21708411
164	0xbc86ff67	-0.016479207
165	0x3e0af83d	0.13571258
166	0xbbb19fa0	-0.00542064
167	0xbb8c6db5	-0.004285539
168	0x3de4f14d	0.11178837
169	0x3e01acdc	0.12663597
170	0x3da3e9a5	0.080035485
171	0xbd9d50fe	-0.07681464
172	0x3d2ae222	0.041719563
173	0xbe0efe6e	-0.13964245
174	0x3d3e8f8c	0.046523616
175	0xbe073635	-0.13204272
176	0xbd75b0b6	-0.059982978
177	0xbdb595eb	-0.08866485
178	0xbc55c71a	-0.013047958
179	0x3d8f3703	0.069929145
180	0x3bb64d83	0.0055634393
181	0xbc164920	-0.009172708
182	0x3cd081e3	0.02545256
183	0xbe01709b	-0.12640612
184	0xbc88471c	-0.01663547
185	0xbd9f5690	-0.07780182
186	0x3d6073f3	0.054798078
187	0xbe714f20	-0.2356534
188	0xbd43f514	-0.047841147
189	0x3dd338dd	0.1031358
190	0xbdb88f44	-0.09011701
191	0x3c046904	0.008081678
192	0xbd51a64c	-0.051183984
193	0xbdf134a6	-0.1177762
194	0xbe202a80	-0.15641212
195	0x3d907e80	0.07055378
196	0xbd642466	-0.055698775
197	0x3da76482	0.08173467
198	0x3df290a7	0.118439965
199	0xbda244d7	-0.079232864
200	0xbdb6bcd6	-0.08922736
201	0x3e00e534	0.12587434
202	0xbe03bac2	-0.12864211
203	0x3e2168e7	0.15762673
204	0xbccc3cb3	-0.024931287
205	0xbc174d6e	-0.009234769
206	0xbe417d87	-0.18895541
207	0xbdfe4192	-0.1241485
208	0xbcd96874	-0.026539065
209	0x3bfa2da5	0.007634836
210	0x3d4bb768	0.049735457
211	0xbc74e97a	-0.014948243
212	0xbe1f0601	-0.15529634
213	0x3ad158f7	0.0015971948
214	0x3dbbab1b	0.09163495
215	0x3e03b7d4	0.12863094
216	0xbe0b34fa	-0.13594428
217	0x3ca433b1	0.02004418
218	0xbe4f3715	-0.20235856
219	0xbdb990aa	-0.090607956
220	0x3c8d1018	0.017219588
221	0xbe0739c7	-0.13205634
222	0xbe4f434e	-0.20240518
223	0xbdaaa96b	-0.08333095
224	0x3c3ef745	0.011655633
225	0x3c8a9984	0.016918905
226	0x3db06b29	0.08614189
227	0xbdfab2ba	-0.12241121
228	0x3d57f811	0.05272681
229	0x3e211eb9	0.15734376
230	0x3e129679	0.14315213
231	0xbdfa987f	-0.122361176
232	0x3a0cb54e	0.00053675927
233	0x3e0b358a	0.13594642
234	0xbd87f293	-0.06638064
235	0xbc6f2116	-0.014595291
236	0xbc9255f0	-0.017863244
237	0x3de00651	0.10938705
238	0xbd3d0828	-0.046150357
239	0x3e65943b	0.22419827
240	0xbe088a98	-0.1333412
241	0x3d9b9bb2	0.07598056
242	0xbde92437	-0.113838606
243	0xb95ee43a	-0.00021256591
244	0x3e54169e	0.20711753
245	0x3d327923	0.043572556
246	0x3d6d1901	0.057885174
247	0x3a937dbe	0.0011252684
248	0xbd983fb2	-0.07434024
249	0xbc1ba238	-0.009499125
250	0xbe83c26b	-0.25734267
251	0xbc96c3b1	-0.01840386
252	0x3db548d3	0.08851781
253	0x3e239492	0.15974644
254	0xbd9a33a4	-0.07529381
255	0xbdafdaea	-0.085866764

network.2.conv.0.weight f4 [128, 256]
0	0x3d91ac84	0.07112983
1	0x3d0e71ba	0.034776427
2	0xbc92de15	-0.017928163
3	0x3cea6e82	0.028617147
4	0xbd5763c2	-0.05258537
5	0x3db73302	0.08945276
6	0x3e678902	0.22610858
7	0x3e38adba	0.18035021
8	0xbdbbe6b1	-0.0917486
9	0xbb94f752	-0.0045460844
10	0xbde0ef60	-0.10983157
11	0xbd50412f	-0.050843414
12	0x3c6f9b13	0.014624375
13	0x3dcda39f	0.10040974
14	0x3dbbae21	0.09164072
15	0xbdc448c5	-0.09584192
16	0x3eab860b	0.33500704
17	0xbde681c3	-0.11255219
18	0xbd7aca30	-0.061227977
19	0x3d915be3	0.07097604
20	0x3dbcecc7	0.09224849
21	0xbd085adc	-0.033289775
22	0x3d93f945	0.07225279
23	0x3de9e103	0.11419871
24	0xbe30b20d	-0.17255421
25	0x3e88ec7a	0.26742917
26	0xbe089acb	-0.13340299
27	0x3d9fe3b0	0.078071
28	0x3e34995d	0.17636628
29	0xbddacf8e	-0.10684119
30	0x3d42cbac	0.047557518
31	0xbe580453	-0.210954
32	0xbe15217d	-0.14563556
33	0xbe0c1a52	-0.13681915
34	0x3d7dcc11	0.06196219
35	0xbdb82993	-0.08992305
36	0xbdc30f6b	-0.09524425
37	0x3c26cade	0.010180203
38	0x3dee69a5	0.11641244
39	0xbd53594f	-0.051598843
40	0x3d9a3586	0.0752974
41	0xbdaa62c7	-0.083196215
42	0x3c1126fa	0.00885939
43	0x3dbc828e	0.09204589
44	0xbdf5e5eb	-0.12006744
45	0xbd8fb803	-0.07017519
46	0x3e3fd317	0.18732868
47	0x3cf9bdea	0.030486066
48	0xbe509935	-0.20370944
49	0x3de58f43	0.11208966
50	0xbe3d6e58	-0.18499124
51	0xbd60a806	-0.05484774
52	0xbcbcb39d	-0.023034865
53	0xbcb52b34	-0.022115327
54	0x3c9dbc49	0.01925482
55	0xbd01521c	-0.031572446
56	0xbd2059d4	-0.039148167
57	0xbd055060	-0.032547355
58	0xbe52c851	-0.20584227
59	0xbe2d339b	-0.16914217
60	0x3d767d55	0.06017812
61	0xbda950e1	-0.082673796
62	0x3e2d2861	0.16909935
63	0xbdcd8592	-0.10035242
64	0x3977cf83	0.0002363306
65	0x3dd7b8b1	0.10533274
66	0xbda1e4fb	-0.07905003
67	0xbb6802c1	-0.0035402032
68	0xbe5a0991	-0.21292712
69	0xbd3fbd71	-0.046811525
70	0xbd89b568	-0.067240536
71	0x3dc82dd7	0.09774368
72	0xbd9892d2	-0.07449879
73	0xbbf462fa	-0.007458088
74	0xbde1e722	-0.11030413
75	0xbd3876ab	-0.045035046
76	0x3d0c29f3	0.034219693
77	0x3d3620d6	0.04446491
78	0x3e2fcb83	0.17167477
79	0xbe0361eb	-0.12830321
80	0xbe8a52cb	-0.2701629
81	0x3e15eceb	0.14641158
82	0xbcee8c52	-0.029119644
83	0xbb9ff618	-0.0048816316
84	0xbd353738	-0.044242114
85	0x3dde26d5	0.1084725
86	0xbd2f5e9c	-0.042814836
87	0x3d15f5d4	0.036611393
88	0xbd8d8fb8	-0.06912178
89	0xbd18e3b4	-0.03732653
90	0x3d1d809c	0.03845273
91	0x3d9951aa	0.07486279
92	0xbe0480c1	-0.1293974
93	0x3c147eb1	0.009063409
94	0xbd9ed4fc	-0.07755467
95	0x3d73b85c	0.05950199
96	0xbb0d3cba	-0.0021551088
97	0x3d10409a	0.03521786
98	0x3d24d4fd	0.040242184
99	0x3e2b5975	0.16733344
100	0x3db23563	0.08701589
101	0x3dd068ed	0.10176263
102	0xbcb3de86	-0.021956693
103	0x3d309443	0.043110143
104	0x3d8c49b3	0.068499945
105	0x3dbeda36	0.09318964
106	0x3cae8c45	0.02130712
107	0x3d5860d8	0.052826732
108	0x3d1dad63	0.038495433
109	0xbe3c0e1a	-0.18364754
110	0xbd99b587	-0.07505327
111	0x3dc48e80	0.09597492
112	0xbde0c8b8	-0.10975784
113	0x3c3ae1e1	0.011406393
114	0x3d986ba4	0.07442406
115	0xbd28d926	-0.041222714
116	0x3beaef6f	0.007169656
117	0xbe86f584	-0.2635919
118	0x3cc88f03	0.024482256
119	0xbc214206	-0.009842401
120	0xbdd4d8c5	-0.10392908
121	0xbe3d7058	-0.18499887
122	0xbe1d449b	-0.15358202
123	0xbd942a5e	-0.072346434
124	0x3d7854e2	0.060627826
125	0x3be37c58	0.006942313
126	0xbd9212ab	-0.07132467
127	0x3dc2e682	0.09516622
128	0x3dae393e	0.08507012
129	0x3e010f9d	0.12603612
130	0x3e2e7fc8	0.17040932
131	0xbe10bc1f	-0.14134263
132	0xbdaded6a	-0.08492549
133	0x3deb133c	0.11478278
134	0xbd97cd3c	-0.07412192
135	0x3d91cb5e	0.07118867
136	0x3d0b15b9	0.033956263
137	0xbc09ea45	-0.008417671
138	0xbbf7722f	-0.0075514535
139	0x3d793988	0.06084588
140	0x3d3c135d	0.045916904
141	0x3c93022b	0.01794537
142	0xbd6255de	-0.05525767
143	0xbe0a8cd3	-0.13530283
144	0x3cc7406e	0.024322715
145	0xbe2b9cd7	-0.16759048
146	0x3d667c7b	0.056271058
147	0xbcf34b73	-0.029699063
148	0xbdeb4bb0	-0.114890456
149	0xbb969064	-0.0045948494
150	0xbb7103b6	-0.0036775894
151	0xbe28659e	-0.16445014
152	0xbd6d7768	-0.057975203
153	0xbda9b803	-0.082870506
154	0x3d5e2e52	0.054243393
155	0x3dab93c2	0.08377792
156	0x3e20afce	0.15692064
157	0xbdab39d9	-0.08360643
158	0x3cf0861a	0.02936082
159	0xbe28011b	-0.16406672
160	0x3e34db23	0.17661719
161	0x3b0e4d4b	0.002171355
162	0x3e2c1d82	0.16808131
163	0xbd4ed5fc	-0.05049704
164	0xbd8745cc	-0.066051096
165	0xbde53ae3	-0.111928724
166	0x3da9a642	0.08283664
167	0xbe0c1dc4	-0.1368323
168	0xbd0b799a	-0.034051515
169	0xbdf672e3	-0.12033632
170	0xbd81505e	-0.06314157
171	0xbd844e15	-0.064602055
172	0x3cd4276c	0.025897704
173	0xbda4bc2c	-0.080437034
174	0x3dfb8837	0.1228184
175	0xbbb65676	-0.005564506
176	0xbdff5f3a	-0.12469335
177	0xbe005f78	-0.12536418
178	0x3e04dc42	0.12974647
179	0x3d7bd8ff	0.06148624
180	0x3d529ba5	0.051417965
181	0xbdcce40f	-0.10004436
182	0x3dd125b7	0.10212272
183	0xbd7c15f3	-0.06154437
184	0xbd362a3c	-0.04447387
185	0xbda1f0ab	-0.07907232
186	0xbdde476f	-0.108534686
187	0xbd904e8f	-0.07046234
188	0xbd231f2d	-0.039824653
189	0x3d146c10	0.03623587
190	0x3dcb9861	0.09941173
191	0xbda3c60f	-0.07996761
192	0x3e237bb4	0.15965158
193	0xbe4b38ec	-0.19845933
194	0xbe62fbce	-0.22166368
195	0xbe2d824b	-0.16944234
196	0x3df046d8	0.117322624
197	0x3db00193	0.0859405
198	0x3df05440	0.117348194
199	0xbdc7fb34	-0.0976471
200	0x3e0b74f5	0.13618834
201	0x3d24c739	0.040229056
202	0x3dd8fe5f	0.105953924
203	0x3bde936e	0.0067924773
204	0x3c8e078c	0.017337583
205	0xbd7b3036	-0.061325274
206	0x3cad9c4b	0.02119269
207	0x3e152123	0.14563422
208	0xbd9eb407	-0.07749181
209	0xbcee1602	-0.029063229
210	0xbe28d7e2	-0.16488603
211	0xbda9acb3	-0.08284893
212	0x3c0e63a3	0.008690747
213	0xbdd50408	-0.104011595
214	0xbe0bea9a	-0.13663712
215	0x3d67faeb	0.05663578
216	0xbe32e9cb	-0.17471997
217	0x3d634eb7	0.05549499
218	0xbe6f867b	-0.23391144
219	0x3e0f11d9	0.13971652
220	0xbdc53a58	-0.09630269
221	0xbdf971f7	-0.1217994
222	0x3d9bed17	0.07613581
223	0xbe90f9cd	-0.28315583
224	0xbe426f83	-0.18987851
225	0xbcd00b9d	-0.025396163
226	0x3c24275f	0.010019152
227	0xbe05256c	-0.13002557
228	0xbd15ab99	-0.0365406
229	0xbd33a6df	-0.043860313
230	0xbd4f85fe	-0.050664894
231	0xbe00a074	-0.12561208
232	0x3ccca7d8	0.024982378
233	0x3da2cb5b	0.07948943
234	0x3d78ce58	0.06074366
235	0xbd262a73	-0.040567826
236	0xbc9c0b80	-0.019048452
237	0xbe3188fd	-0.17337413
238	0x3e9d7266	0.30751342
239	0xbdb94f23	-0.09048297
240	0xbdede487	-0.11615854
241	0xbd835f95	-0.06414715
242	0xbe484a8c	-0.19559687
243	0xbd235d49	-0.039883886
244	0xbdb2edb5	-0.08736745
245	0x3dc8b2b2	0.097997084
246	0xbcbdd6f2	-0.023173783
247	0xbca6f49e	-0.020380314
248	0xbc66d6b0	-0.014089271
249	0x3e4122f5	0.18860991
250	0x3e39a67e	0.18129918
251	0xbe0cd5a8	-0.13753378
252	0x3d137f79	0.03601024
253	0x3ca25921	0.01981789
254	0x3d430a36	0.04761716
255	0xbd9324e1	-0.071847685

network.2.conv.0.bias f4 [128]
0	0xbe3d4c0b	-0.1848604
1	0x3cb32a16	0.021870654
2	0xbdff0c70	-0.12453544
3	0x3e150f3a	0.1455659
4	0xbde57274	-0.11203471
5	0xbe2535c8	-0.16133797
6	0x3e1297ce	0.14315721
7	0x3d71c808	0.059028655
8	0xbd3ac54c	-0.045598313
9	0x3d3466a0	0.044043183
10	0x3cf185b3	0.029482698
11	0x3db6708b	0.089081846
12	0x3d14f00d	0.036361743
13	0x3e39daa7	0.18149815
14	0xbcb08603	-0.021548277
15	0x3da575b5	0.080790915
16	0x3dab6a28	0.08369857
17	0xbca9f46e	-0.020746436
18	0xbd82ae31	-0.063808806
19	0xbe7a8132	-0.24463347
20	0xbd6174fd	-0.05504321
21	0x3baf669d	0.0053528086
22	0x3d44242f	0.04788607
23	0xbd8ff38f	-0.07028877
24	0x3ae74723	0.0017645102
25	0xbdeab78c	-0.1146079
26	0x3d711f6c	0.058867857
27	0xbdcdcecf	-0.10049211
28	0xbd8dd44a	-0.069252566
29	0x3ceb483a	0.028720964
30	0x3e25fb55	0.16209157
31	0xbe19eaaa	-0.15030923
32	0xbccc470c	-0.024936222
33	0xbe4b0f7e	-0.19830129
34	0xbcf716f4	-0.030162312
35	0x3c9f8e9b	0.01947718
36	0xbc8ae3ae	-0.01695427
37	0xbe4561c6	-0.19275579
38	0x3d5660ef	0.052338537
39	0xbcf5831c	-0.029969744
40	0xbd94f76b	-0.07273754
41	0x3c325d31	0.010886476
42	0x3d2e34d7	0.04253086
43	0xbd996823	-0.07490566
44	0xbde160ab	-0.11004766
45	0x3d7c0603	0.06152917
46	0x3dc76c66	0.09737472
47	0xbd8236a8	-0.06358081
48	0xbe2a6652	-0.16640595
49	0x3d3e48c8	0.04645613
50	0xbaf7c408	-0.0018903026
51	0x3d65a276	0.056063138
52	0xbd9cf9bc	-0.076648206
53	0x3dc85a88	0.097828925
54	0xbbad7258	-0.005293172
55	0x3db7fb1f	0.089834444
56	0x3ce2e3e6	0.027696561
57	0x3c8bf731	0.017085643
58	0xbe0e316b	-0.13886039
59	0xbe839777	-0.25701496
60	0xbe85cf1b	-0.2613457
61	0xb9ce4d4d	-0.00039348975
62	0xbd829504	-0.06376079
63	0x3e3b4727	0.18288861
64	0x3d4fc126	0.05072131
65	0x3e113fb7	0.14184462
66	0xbe1ecb64	-0.15507275
67	0x3e4e591c	0.2015118
68	0xbc0b74a4	-0.008511696
69	0x3c7368c3	0.01485652
70	0xbd493eea	-0.049132265
71	0xbdc79bc9	-0.097465105
72	0x3e405878	0.18783748
73	0x3d15eb5c	0.03660141
74	0x3ddca0fd	0.107728936
75	0x3cfd9816	0.03095631
76	0xbdf13efe	-0.11779593
77	0x3dc07dc8	0.09398991
78	0x3dafdfe3	0.08587625
79	0x3da3b3cc	0.07993278
80	0xbc84ad44	-0.0161959
81	0xbe2443c4	-0.16041476
82	0xbc926d0b	-0.017874261
83	0x3e2bb0bf	0.16766642
84	0xbc0a6cdb	-0.008448805
85	0x3cdebedd	0.02719062
86	0xbd8fa81e	-0.07014488
87	0x3de38489	0.111092634
88	0x3d37da94	0.044886187
89	0x3de0ee75	0.10982982
90	0x3c00428c	0.007828366
91	0xbe58a951	-0.21158339
92	0xbddd5901	-0.10807992
93	0xbdac9cac	-0.0842832
94	0x3cae43b3	0.021272516
95	0xbd1508e5	-0.036385436
96	0xbcb898bf	-0.022533773
97	0xbe0a1e82	-0.134882
98	0x3dd6a34d	0.10480366
99	0x3dfc6fd8	0.1232602
100	0xbdbbf083	-0.09176733
101	0xbd80ad48	-0.06283051
102	0xbc26789a	-0.01016059
103	0x3dc0e97f	0.09419536
104	0xbba51d9c	-0.00503893
105	0x3d67f34e	0.056628518
106	0xbdbf025b	-0.09326621
107	0x3d14eb66	0.036357306
108	0xbe6e5bba	-0.23277178
109	0xbe0b314a	-0.13593021
110	0xbe3db841	-0.18527319
111	0x3d63a07b	0.055572968
112	0xbc05efac	-0.008174818
113	0x3ce4435c	0.02786415
114	0x3cadb036	0.021202188
115	0xbe01bf00	-0.12670517
116	0xbe50a8fd	-0.20376964
117	0xbe0a3f71	-0.13500763
118	0xbd874993	-0.0660583
119	0xbc59ceed	-0.013293964
120	0x3d1874a1	0.0372206
121	0xbe8d5db6	-0.27610558
122	0x3c6f6c02	0.014613153
123	0xbe37be42	-0.17943671
124	0xbd388bab	-0.045055073
125	0xbe3c6e05	-0.18401344
126	0x3d2e0f59	0.042495105
127	0xbd45e5f1	-0.048314992

network.3.weight f4 [2, 128]
0	0xbd2bd9b2	-0.041955657
1	0x3d43aed8	0.047774166
2	0xbe1c25e2	-0.15248826
3	0x3d0bad7c	0.034100994
4	0x3c99afa7	0.018760515
5	0xbe24d9d0	-0.16098714
6	0x3e44ae9e	0.19207236
7	0xbd8132a2	-0.063084856
8	0x3d9fbc81	0.07799626
9	0x3da2ef34	0.079557806
10	0x3d143376	0.03618189
11	0xbd0db68e	-0.034597926
12	0x3dd9dae7	0.106374554
13	0xbd88f6ab	-0.06687673
14	0x3b053292	0.0020324332
15	0xbd18afb8	-0.037276953
16	0xbe12ad6c	-0.14323968
17	0x3cae7264	0.02129478
18	0xbe0a47e9	-0.13503994
19	0x3e189c02	0.14903262
20	0x3c54adce	0.012980891
21	0x3ce2ac24	0.027669974
22	0x3cb46952	0.022022877
23	0xbde89bb9	-0.11357827
24	0x3e505c1b	0.20347635
25	0xbe0e11d5	-0.1387399
26	0xbc191b3a	-0.00934487
27	0x3c88c60a	0.016695995
28	0xbcaa324a	-0.020775933
29	0x3db6f850	0.089340806
30	0x3ccf3c80	0.025297403
31	0x3d898703	0.067152046
32	0x3df81a92	0.12114443
33	0xbe46b159	-0.1940359
34	0x3d1e40d0	0.03863603
35	0x3e3be1cf	0.18347858
36	0x3d371d59	0.044705722
37	0xbe7ae7a6	-0.2450243
38	0xbe5b2c08	-0.21403515
39	0xbde152c3	-0.11002114
40	0x3e11c110	0.14233804
41	0x3ca453bc	0.020059459
42	0x3aa36a11	0.0012467523
43	0xbc88b9f8	-0.01669024
44	0x3db0e8de	0.08638166
45	0xbdb4063e	-0.08790253
46	0x3dfb2be2	0.12264229
47	0x3d19d6c1	0.03755832
48	0xbe31db5d	-0.17368837
49	0xbd3fbe66	-0.046812437
50	0x3d853229	0.06503708
51	0x3de556d3	0.11198201
52	0x3e071569	0.13191761
53	0xbd5521cd	-0.052034188
54	0xbcf32e13	-0.029685056
55	0xbe324729	-0.17409958
56	0x3d400621	0.046880845
57	0xbd2a5b14	-0.041590765
58	0x3dfbfc8f	0.12304031
59	0xbd42f66a	-0.04759828
60	0xbcb39ec9	-0.0219263
61	0x3e032458	0.12806833
62	0xbd0bc386	-0.034122013
63	0xbe115825	-0.1419378
64	0x3e5c440d	0.21510334
65	0xbd73a711	-0.0594855
66	0x3da5e6fb	0.08100697
67	0xbe409ba0	-0.18809366
68	0x3d4eaced	0.050457884
69	0x3df4433c	0.119268864
70	0xbe081456	-0.13289008
71	0x3c2abdd1	0.010421232
72	0x3d9443da	0.07239504
73	0xbe18eb2a	-0.14933458
74	0x3c9e9d63	0.019362157
75	0x3e3ef862	0.18649438
76	0xbda936e9	-0.082624264
77	0xbcd5bc35	-0.02609072
78	0xbce4f3d6	-0.027948301
79	0x3d3a3498	0.045460314
80	0xba58d3ff	-0.0008271336
81	0xbcfc60ac	-0.030807815
82	0x3d3fd648	0.046835214
83	0xbc49eba8	-0.012324251
84	0x3e04a924	0.12955147
85	0x3d75d2a3	0.060015332
86	0x3d48c34c	0.049014375
87	0xbe457a43	-0.1928492
88	0xbc814f65	-0.015784929
89	0x3dc4b51f	0.096048586
90	0x3d802309	0.062566824
91	0x3d3008c3	0.042977106
92	0xbe00f63c	-0.12593931
93	0xbdfe6d59	-0.124232
94	0xbd157d92	-0.036496706
95	0xbc16cbb6	-0.009203842
96	0xbccddac1	-0.025128724
97	0x3d2178b3	0.03942175
98	0xbd708602	-0.05872155
99	0x39ba7fcb	0.00035571898
100	0x3e104fc4	0.14092928
101	0xbcf4e12a	-0.029892523
102	0x3e57c617	0.21071659
103	0x3c6e3eb1	0.014541314
104	0x3dfa9d72	0.122370616
105	0x3e479221	0.19489338
106	0xbc8c0d90	-0.01709631
107	0xbdb9f096	-0.09079091
108	0x3cd94ecc	0.026526831
109	0xbda6475a	-0.08119078
110	0xbd676cf3	-0.056500386
111	0x3d904024	0.07043484
112	0x3d40ce03	0.047071468
113	0x3e261539	0.16219033
114	0x3e45aaf9	0.19303502
115	0xbdab9efe	-0.08379935
116	0x3c3e6ea5	0.011623059
117	0x3dbd9aad	0.09258018
118	0xbd2866f2	-0.0411138
119	0x3dc55a67	0.096363835
120	0x3e08edb3	0.13371925
121	0xbe403e69	-0.18773808
122	0x3e85c932	0.26130062
123	0xbd8b4775	-0.06800739
124	0x3de546d1	0.11195148
125	0xbe467821	-0.19381763
126	0xbc8a8463	-0.01690883
127	0x3ca9a6fa	0.020709503
128	0xbe2b5615	-0.16732056
129	0x3d77e332	0.060519405
130	0x3d41ed7b	0.04734562
131	0xbe06acf8	-0.1315192
132	0x3cbf5a0f	0.023358373
133	0xbe4e13ae	-0.20124695
134	0xbda98e56	-0.082791016
135	0xbca8c3d1	-0.020601185
136	0xbcf46386	-0.029832613
137	0x3d4e8e4d	0.050428677
138	0x3dadf9c9	0.08494908
139	0xbe19b260	-0.15009451
140	0x3d9dd18b	0.07705983
141	0xbd1cb44d	-0.038257886
142	0x3b979db2	0.004626953
143	0x3cc182c6	0.023621928
144	0xbc34fb80	-0.01104629
145	0x3d9f5327	0.07779532
146	0xbe01e745	-0.12685879
147	0x3dc04a6c	0.09389195
148	0xbe1562c0	-0.14588451
149	0x3d915c72	0.07097711
150	0xbba496af	-0.0050228457
151	0x3dae99d3	0.085254334
152	0x3e1e5065	0.15460356
153	0x3dbab9ec	0.09117493
154	0xbe06dfe3	-0.13171344
155	0xbdbff3bd	-0.09372661
156	0x3d6592c8	0.056048185
157	0x3c62e35e	0.013848154
158	0xbb808a64	-0.0039227474
159	0xbdc1b989	-0.09459216
160	0xbdef5d4c	-0.11687717
161	0x3e094cee	0.13408253
162	0x3ddf6c7f	0.10909366
163	0xbdebe49d	-0.11518214
164	0x3d4cca6c	0.049997732
165	0x3d252d81	0.0403266
166	0x3d0456bf	0.03230929
167	0xbdd5db3b	-0.104422055
168	0xbe24db29	-0.16099228
169	0x3c2717c1	0.0101985345
170	0xbd22b0bc	-0.03971933
171	0xbcc93d76	-0.02456544
172	0xbd099936	-0.03359338
173	0x3ddb71ab	0.1071504
174	0x3e6f2d10	0.23357034
175	0xbd56f529	-0.052479897
176	0xbda80b3d	-0.082052685
177	0xbddbaf21	-0.107267626
178	0x3d66607e	0.056244366
179	0x3d0a7578	0.033803433
180	0x3dce3cca	0.10070188
181	0x3e2ca32e	0.16859123
182	0xbb85b567	-0.0040804627
183	0x3e065c0d	0.13121052
184	0x3d69c0c1	0.05706859
185	0x3d0579c7	0.03258684
186	0x3dd64a3b	0.10463377
187	0xbe45430c	-0.19263858
188	0xbd155824	-0.03646101
189	0xbe1bc1d3	-0.15210657
190	0x3d921210	0.071323514
191	0xbe974287	-0.29542944
192	0xbde796f6	-0.113080904
193	0x3daaf067	0.08346634
194	0x3c20bdbe	0.009810863
195	0xbbf91bcd	-0.007602191
196	0x3d8b023e	0.06787537
197	0xbe892db8	-0.26792693
198	0x3dffa539	0.124826856
199	0xbc91f559	-0.017817186
200	0x3dacc241	0.084354885
201	0xbd401699	-0.04689655
202	0xbd7ca484	-0.06168033
203	0xbdc9f136	-0.098604605
204	0x3db0835e	0.08618806
205	0x3de39a0d	0.11113367
206	0x3e135fd2	0.14392021
207	0xbdcd2a38	-0.10017818
208	0x3e73556a	0.23763052
209	0xbc5b3d63	-0.013381335
210	0xbbf50700	-0.007477641
211	0x3d6be646	0.057592653
212	0xbc223a14	-0.009901542
213	0xbdc6b4e6	-0.097024724
214	0xbe0cd729	-0.13753952
215	0x3c5f68cc	0.013635825
216	0xbe1235f8	-0.142784
217	0xbe29eb4c	-0.16593665
218	0x3d2488a9	0.04016939
219	0x3bdc946d	0.006731561
220	0xbb766507	-0.0037596838
221	0x3dd33ce3	0.103143476
222	0x3dcea5f7	0.10090249
223	0xbcec8353	-0.028871214
224	0x3d98d71c	0.07462904
225	0x3e326938	0.1742295
226	0x3d9b8df0	0.07595432
227	0xbd848ebc	-0.06472537
228	0x3cfdb146	0.03096832
229	0x3d7ce914	0.061745718
230	0xbd233abd	-0.03985094
231	0x3d46aada	0.04850278
232	0x3cd98a75	0.02655528
233	0xbe062cad	-0.1310298
234	0x3e0aaffb	0.13543694
235	0x3dbc9bf4	0.09209433
236	0x3c250db2	0.010074066
237	0x3d9a8f89	0.075469084
238	0x3d6a3273	0.05717702
239	0xbd52ec03	-0.05149461
240	0xbe064b73	-0.13114719
241	0xbe56c299	-0.2097267
242	0x3ca5a8d2	0.020222101
243	0xbda2b431	-0.07944525
244	0x3b83d6da	0.004023415
245	0x3dbf9496	0.093545124
246	0x3e0d82ae	0.13819382
247	0x3d484462	0.04889334
248	0x3db3085f	0.08741831
249	0x3de1cbab	0.11025175
250	0xbe83b8c9	-0.25726917
251	0xbe1506df	-0.14553402
252	0xbd92dd64	-0.07171133
253	0xbe183481	-0.14863779
254	0xbcbcf429	-0.023065643
255	0x3de31a1c	0.11088964

network.3.bias f4 [2]
0	0xbd6586a1	-0.056036595
1	0x3e480a96	0.19535288
