exomy/config/best_run_no_obstacles405k/checkpoints/456000_policy.pt (torch, 723582 bytes, 13 tensors)

log_std_parameter f4 [2]
00000000: a06e b5bf 8a73 45bf
-1.4174385 -0.77129424

network.0.conv.0.weight f4 [512, 5]
00000000: 57f9 b83e e158 55be eb4f ac3b ccb3 a6bd
00000010: 2b01 2a3e cd4a 153e ca4b 0d3e c1c7 123e
00000020: 1b40 9ebd 474d 3cbc f194 a4bc bd15 ef3b
00000030: 7cf3 243c ac20 82be 6bd7 6b3d 777b 823d
00000040: e976 e9bd 6722 383e 9197 813d 262d 2e3e
00000050: 71a5 553d 66b2 4abc cddc a83d 4760 453e
00000060: a9d5 003e 2388 793e 062f dd3e 879c 6437
00000070: dd1f 30be b5db e3bc 7e5b 88be 58ce b7bc
00000080: 3f04 713d 327c b1bc c7c3 78bd 5636 d23b
00000090: 4024 09bd 2a53 463d cdbe c23d 60cc 96bd
000000a0: 3cc8 773d f92c fdbe 886c 43bc 0f5b 33bd
000000b0: 3c90 a7bc a885 43be 1e9e 4cbe 9e56 3abe
000000c0: 3382 003d 5bc2 40be 4043 073c 9c82 d83e
000000d0: 08f5 9e3d 9caa 2d3e b99a 413b 4769 4dbd
000000e0: 1fa6 733e df07 e2bc a15f 0d3e 3e35 90bd
000000f0: 708c 873e 4bb1 b9bd 4fbb c53d 3efb ff3c
00000100: 2797 023e ec08 5f3e f911 bfbe 78eb a6bb
00000110: a404 483e 5f97 033c 4fcc ddbd d575 953c
00000120: 3f0a b13c 68a9 aa3d 23fd 1b3e 856e 3cbe
00000130: d4f9 ce3e 7df6 393d c1f4 203e 4ee2 07bd
00000140: 5daf 643e 48e6 093f 8e4b 193d d4cb 18be
00000150: 7b76 173e 306e 39be 67f2 053e 8e34 b13d
00000160: 16e0 eabd 0347 463d fd7b 853e e655 2c3e
00000170: 83b2 80bd 235f 1a3c f3a9 133d 8125 fcbe
00000180: db7c bcbe a075 50bc 0ab6 533d 3964 19bd
00000190: b2be 63be 3ab3 0f3d 5105 abbd dd5e 82bc
000001a0: e5cf 9f3d b434 a5be 555e 993e 385f 64bd
000001b0: 9db4 86be d7fa 643e 7f0a 9bbd a0f2 13be
000001c0: 60e1 6b3d efab 403d f6d9 10bc 7435 25be
000001d0: 538d cf3e c1a8 36bc f883 e13b 8c9d 2cbd
000001e0: 95ad c43e c564 f13d 3172 e53d be2d 95bc
000001f0: db35 ebbd 5741 74be 80d9 f3be 2174 d1bc
00000200: 6584 9a3d 4d96 89bd 6aae d6be b345 573d
00000210: 0463 fa3d d26c 01bd 37bb 87bc 96a9 d0be
00000220: a279 f63e 44e3 20bd 0f28 b4bd 6f47 90bd
00000230: f375 423e 0363 cb3d 7b80 0ebd a95a 163e
00000240: 730d 74bc d879 443d 8a8c 9a3e 3962 c03d
00000250: 5417 6d3d e2e6 1abd 014a 32be a064 0b3e
00000260: 304c b93c 3c0f 1ebe 63ce 51be da70 97be
00000270: 1994 89be cbb3 c63d f988 8c3d 0085 06be
00000280: b133 98be f351 82be 63cd bd3c 1395 2ebe
00000290: 36f2 c63d 2fbe 9dbe ae23 55bd 6dec 803c
000002a0: 4890 9b3c c3c8 babd 9a7f 1e3c 2e77 f73e
000002b0: 9eaf 0c3c fd43 f6bc 7b31 f6bc c3ff ac3e
000002c0: 125d b63d d57e 383d 70e9 92bd a7cc 8ebd
000002d0: 6b54 92be efb6 013f f20c 18bd d25f 05be
000002e0: 632a 613e 965d bc3e faee fb3c 2385 0bbd
000002f0: 9f9d 753d 867f 843c 6f47 2fbe 36b2 9fbe
00000300: 5c4c d33c 85b4 e5bc 7f27 fe3c 6702 18bd
00000310: 96f7 2cbf 46af 9ebd a7d8 3bbd 23aa 033e
00000320: fa2e ac3d 46fe b83e 22ea 023d 4041 e43d
00000330: 59a1 b43c 8f52 2fbe b619 b4be 3e47 943c
00000340: a018 edbd 3e77 9cbd 5020 0dbe 779a b1be
00000350: d59f 5fbd 1fdc 20bd b0dc 52be 4936 b93e
00000360: 9704 fb3e 7979 d83b 0bfb 95bd 6854 e13d
00000370: 2fd6 9cbe eb4b 09be 202e ce3d 44ad b73d
00000380: 109b 38be 1238 d83d 9813 343e 2152 4c3d
00000390: fe21 91bd be71 a33d 1074 db3e a343 71be
000003a0: 9558 21bc e482 97bd bd74 fabd a147 a03e
000003b0: 76ff c6bd ec3b 47bd c8db 82bd 295d 993d
000003c0: cebe 1fbe 627b 403e 9471 0a3d d626 d8bd
000003d0: 2b44 84bd cb89 b2be b524 d6be 6219 b3bb
000003e0: 33a6 82bd e3c5 3abd e702 733e ff12 b33e
000003f0: 85fe de3d 3458 3ebe 9783 63be 17e8 843e
0.3612773 -0.20834686 0.0052585504 -0.08139762 0.16602008 0.14579315 0.13798442 0.14334013
-0.07727071 -0.011493034 -0.020090552 0.0072962926 0.010067817 -0.25415552 0.057578485 0.06371205
-0.113996334 0.17981873 0.06327737 0.1700941 0.05215973 -0.012371635 0.082452394 0.19275008
0.12581505 0.24368338 0.4319994 1.3626303e-05 -0.17199655 -0.027814725 -0.26632303 -0.02243726
0.05884194 -0.021665666 -0.060733583 0.0064151688 -0.033481836 0.048419155 0.095090486 -0.073632
0.060493693 -0.49448374 -0.011927731 -0.043788012 -0.020454518 -0.19093955 -0.19982192 -0.18197104
0.031374168 -0.1882414 0.00825578 0.42287147 0.0776158 0.16959614 0.0029541685 -0.05014923
0.23793839 -0.027591644 0.13806011 -0.07041405 0.26474333 -0.09067019 0.09654867 0.031247731
0.12752973 0.21780747 -0.373184 -0.005093988 0.1953302 0.008031695 -0.108299844 0.018244663
0.021611331 0.08333093 0.15233283 -0.18401535 0.4042498 0.045401085 0.15718366 -0.033174805
0.22332521 0.53867006 0.03742557 -0.14921504 0.1479129 -0.1810844 0.1308075 0.08652602
-0.11468522 0.048407566 0.26071158 0.16829643 -0.062840484 0.009422096 0.036050748 -0.49247363
-0.36814007 -0.0127233565 0.051687278 -0.037449095 -0.22240713 0.035083033 -0.083506234 -0.015914375
0.078033246 -0.32266772 0.29954782 -0.05575487 -0.26309672 0.22361313 -0.07570361 -0.14448023
0.05758798 0.04703897 -0.008841028 -0.16133672 0.4053751 -0.0111486325 0.006882187 -0.042142436
0.38413683 0.117867984 0.11203421 -0.018210288 -0.114848815 -0.2385305 -0.47626877 -0.02556807
0.075447835 -0.06718121 -0.41929942 0.052556705 0.12225917 -0.03159792 -0.016568763 -0.40754384
0.48139673 -0.039279237 -0.08796703 -0.07044875 0.18990307 0.09930994 -0.034790497 0.14683022
-0.014895785 0.04796776 0.30185348 0.093937345 0.057883576 -0.037817843 -0.17411043 0.13612604
0.022619337 -0.15435499 -0.20488887 -0.29578286 -0.26870802 0.097022615 0.06862063 -0.13136673
-0.29726937 -0.25453147 0.023169225 -0.17049055 0.09714167 -0.3080916 -0.05203598 0.015737737
0.018989697 -0.091203235 0.009673977 0.48333114 0.008586792 -0.030061716 -0.030052891 0.3378888
0.089044705 0.04504283 -0.07173431 -0.06972628 -0.2858003 0.5066976 -0.03712172 -0.13024834
0.21988826 0.3679015 0.030753601 -0.034062516 0.059964772 0.01617409 -0.17117094 -0.31190652
0.025793247 -0.02804018 0.031024693 -0.037111666 -0.67565286 -0.077482745 -0.045860913 0.12857871
0.084073976 0.36131495 0.031961568 0.11145258 0.022049593 -0.17121337 -0.35175866 0.018100377
-0.115769625 -0.07639931 -0.13781857 -0.3468816 -0.054595787 -0.039272424 -0.20591998 0.3617423
0.4902694 0.0066062775 -0.07323273 0.11002427 -0.3063216 -0.13407867 0.100673914 0.08968595
-0.18027902 0.105575696 0.175856 0.04988301 -0.070865616 0.07980679 0.42861986 -0.23560958
-0.00984778 -0.07398012 -0.12229297 0.3130465 -0.09716694 -0.04864113 -0.06389576 0.07488472
-0.1560013 0.18797067 0.033799723 -0.10554282 -0.064583145 -0.34870753 -0.4182488 -0.0054656724
-0.06379356 -0.045598876 0.23731576 0.3497543 0.108883895 -0.18588334 -0.22218166 0.2595832

network.0.conv.0.bias f4 [512]
00000000: 2ca4 683d 8b55 33be 4639 95bd 9fe8 b1bd
00000010: e05b 9fbe 9945 c93c 25f5 4abe cfc3 4bbe
00000020: 35af bc3d a614 7abd 507c 51bd 5c78 2fbd
00000030: e9d8 c2bd ce85 023d b990 d2bd fc2e 983d
00000040: e6d7 adbc d2fb fdbd ee51 0cbb 3019 993d
00000050: 428c 0e3e 4f97 1b3d 5f02 15be 7991 963c
00000060: 805c f83d 04f6 863d 97d2 893c a55c 453d
00000070: 631b 12be 44ab a6bd 3cb2 8a3c b772 11be
00000080: 30b3 c53d fcae 473c 3345 233d 862e cebc
00000090: 0332 303c 35e2 19bd d702 9ebc a967 f03c
000000a0: 9d77 a13d 868b e73d d100 e2bd e0ad d23c
000000b0: c02a 4cbe 638f bd3d 2c72 cf3b e929 97bd
000000c0: 2590 043c f8eb b53d a9e0 9abd d397 1a3d
000000d0: b6df 343d 6615 c83d 7407 903d 3263 053e
000000e0: 5144 883c 4cd6 05bd eb04 5a3c 8371 4bbe
000000f0: 13ea 813d 3d0b 603c 59a1 003e 5d9d 6e3d
00000100: 45e3 323e ff97 cabc 8039 753d d7c0 663d
00000110: c881 8abd 4e0c a63d 90bb 9e3b fa9d bb3c
00000120: 6d7f bdbd a1a5 ecbc ea25 e3bd 125f 3fbc
00000130: 0483 3abe 1e7a a2bc b59a 75bd 2e1d 5fbe
00000140: d487 d03c 3e61 003d 7276 42bd 8cf9 263e
00000150: 981c 073e 914f af3c 208b 2e3d 9f08 20bd
00000160: e6b6 a4bc 5045 32be 4947 103c 0f7a 21be
00000170: 9daa 533d d3f0 86be 658c 82bd 320e 0f3d
00000180: 7198 a63d 67c1 f53d 133a 36bd 7444 eebc
00000190: 7a46 a43d 09eb 633d c8f6 dc3d 5423 25be
000001a0: fc82 873c a92e 1a3d 0d31 43bd 8937 70bd
000001b0: 325d adbd 0d50 c2bd 5203 673c 086c 803a
000001c0: 3222 94bd 85a6 bf3d a913 283c 527e 25be
000001d0: 7269 553d ebd9 38bd 7969 3b3c 6309 513d
000001e0: dd04 97bd 2739 c83a fbc6 843d aeaf d8ba
000001f0: 01cb 2bbe cc3a 1dbe 9aaa 4abe 7fac 8b3d
00000200: 3bdd 01be 94ff bc3d a481 133d f246 0dbe
00000210: abab 35bd 9c7a 513c 414a 053d f2f5 7d3c
00000220: e5ad d03c 66f7 c43c af96 3c3c 7c8c 2bbc
00000230: c4a6 39be 18ed 4bbe 13f5 233d 60aa 8fbd
00000240: efea 19bd 341c 25bd a527 70bd 9c23 dbbd
00000250: 2c0c 343d e4b0 09b9 991e f9bb 4e93 82bc
00000260: fb1b 4ebe 68cd 2abd e145 14be 1e31 b53d
00000270: 2e32 8b3c 0873 0f3d ce0a 90bd 1830 f0bd
00000280: 7f20 8ebd 1c17 823c 2a86 b2bd 5251 433e
00000290: 1fa6 64bd 9fb7 bcbc 62f1 ee3c 1e79 353e
000002a0: 0bb9 65bc cdb7 63be 795b 65bd d72c 31be
000002b0: 1ae7 303e 7a9f 2ebe 812a d5bd e0a3 8cbd
000002c0: 085e 35bc 3bad 52bc eca5 1c3c 471b ef3b
000002d0: cf29 0fbd 9670 843d 787e 0ebd f0f1 63be
000002e0: 8ecc 23be bc3c 733d 45cb acbd fb4b 31be
000002f0: 4e71 b63d d475 24be 5077 b13d 9df6 0fbe
00000300: 05d8 12be e779 2ebe 801b 59bd d319 d43d
00000310: 19ea 1ebe 5aa8 823c 75ea 343c ff56 2cbd
00000320: d170 f43c 3fa1 8cbe 827e 203c cb33 01bd
00000330: c6b5 febc 277b 01bb 7426 e1bb 0802 f1bd
00000340: 9986 0abe 6a38 13be 1f02 89be f709 4cbe
00000350: fc42 35bd 7c7b c4bd 2f62 0d3d da31 a03d
00000360: 7be8 013e 8238 563d 91ab 473d caa5 08be
00000370: c185 aabd d0ee 93bd 19d1 2ebe 6d34 77be
00000380: 5005 27be cac5 e63c 692c 43bd 0f75 c5bd
00000390: f8d2 06be 3200 883c 085a 27be 8dfd 25bd
000003a0: 435a 68be 3116 963d 3191 37be 0d02 4bbe
000003b0: 3223 ba3d da50 00bd 593a ffbd 8188 b5b8
000003c0: 3b69 24bb ddb7 3b3d 7969 36be 2040 11bd
000003d0: 199e 243c eda2 04bd 7df9 8ebb 860b d73c
000003e0: 8432 6c3c 4e4e 2dbe 79ac 0ebc 1117 d8bd
000003f0: ae9b 3cbd 4626 babc 91d8 15be d39c ffbd
0.05679719 -0.17513101 -0.07286315 -0.08686947 -0.31124783 0.02456932 -0.19820078 -0.19898914
0.092131056 -0.061054848 -0.051143944 -0.042839393 -0.095140286 0.031865887 -0.1028151 0.074308366
-0.021221112 -0.124015465 -0.0021411139 0.07475507 0.13920692 0.037986096 -0.14551686 0.018379914
0.12127018 0.065898925 0.01682405 0.048184056 -0.1426826 -0.08138135 0.016930692 -0.14203916
0.09653318 0.012187716 0.039860915 -0.025168668 0.010754111 -0.037569243 -0.019288464 0.029346304
0.078841425 0.11305909 -0.11035312 0.025717676 -0.19938183 0.092558645 0.006330749 -0.073810406
0.008091007 0.08882898 -0.07562382 0.037742447 0.04415866 0.097697064 0.070326716 0.13026121
0.016634138 -0.032675073 0.013306837 -0.1986752 0.06343474 0.013674554 0.12561549 0.058255542
0.17469509 -0.02473068 0.05986929 0.05633625 -0.06763035 0.08107816 0.0048441365 0.022902478
-0.0925282 -0.028887572 -0.11091216 -0.011680381 -0.18214041 -0.01983362 -0.059961993 -0.21788475
0.025455393 0.031342737 -0.04747624 0.16306132 0.13194501 0.021400245 0.04261315 -0.03907072
-0.020106744 -0.17409253 0.008806058 -0.15769218 0.05167638 -0.2635561 -0.063744344 0.034925647
0.08134545 0.11999779 -0.044488978 -0.029085375 0.08021255 0.05564407 0.10789257 -0.16126758
0.01654195 0.037642155 -0.0476542 -0.058646712 -0.08465041 -0.09487925 0.014099913 0.0009797821
-0.07233085 0.09357933 0.010258594 -0.16161469 0.052102514 -0.045129698 0.011438721 0.051034342
-0.073739745 0.0015275822 0.06483265 -0.0016531849 -0.16776659 -0.1535446 -0.19791642 0.068200104
-0.12682049 0.09228435 0.036012307 -0.13796595 -0.04435317 0.01278558 0.032541517 0.015500532
0.025473544 0.02404375 0.011510535 -0.010470506 -0.18130022 -0.19914663 0.040028643 -0.07014918
-0.037577566 -0.0403101 -0.058631558 -0.10700151 0.04395692 -0.00013131235 -0.0076025245 -0.015939381
-0.20127861 -0.041699797 -0.14479782 0.08847259 0.016991701 0.03502181 -0.07033311 -0.11727923
-0.06939792 0.01588016 -0.08716996 0.1907399 -0.055822488 -0.023036776 0.029167835 0.17721984
-0.014021168 -0.22238083 -0.05599544 -0.17302261 0.17275658 -0.17053023 -0.104084976 -0.06867194
-0.011069782 -0.012858684 0.009561043 0.007296953 -0.03495198 0.064667866 -0.03478858 -0.2226026
-0.15996 0.059384093 -0.08437208 -0.1731414 0.0890833 -0.16060573 0.08665335 -0.14058919
-0.14340217 -0.1703869 -0.05300474 0.10356488 -0.15518989 0.015949417 0.011042227 -0.042075153
0.029838951 -0.2746677 0.009795787 -0.031543534 -0.031092536 -0.0019757242 -0.006871039 -0.117679656
-0.13527907 -0.14376989 -0.2675943 -0.19925676 -0.044253334 -0.09593865 0.034517463 0.078220084
0.1268634 0.052299984 0.048747603 -0.13344494 -0.08326293 -0.07223284 -0.17071952 -0.24141093
-0.1631062 0.028170485 -0.047649775 -0.09641468 -0.13166416 0.016601656 -0.16342938 -0.040525008
-0.22690682 0.073284514 -0.1792648 -0.19825001 0.09088744 -0.031327106 -0.12462301 -8.6561784e-05
-0.0025087136 0.045829643 -0.17813672 -0.035461545 0.010047459 -0.03238194 -0.0043632374 0.026250612
0.014416341 -0.16924402 -0.008708113 -0.105512746 -0.046046905 -0.022723328 -0.14633395 -0.12481084

network.1.conv.0.weight f4 [256, 512]
00000000: a2e8 e53c 1a46 35be 6a55 5dbd f1d6 2c3d
00000010: fb51 e3ba 678a aabd 69e1 1cbe e50d 37bd
00000020: d136 6fbc 0ee7 cfbd 0b16 35be cdfc a93d
00000030: 1958 163e f9a1 66bd a293 cabd 75f1 b23e
00000040: 742c 66be c78c a5bc ff45 913c 11bc 3e3e
00000050: db60 cf3d 04d6 873e 5950 753d 8701 e33c
00000060: 11d2 253e 153b 8fbd d132 503e 5a86 083e
00000070: 1c33 fabd 9687 0cbd 1d1d 1dbe 6edf a2bc
00000080: 98b0 ef3d 3d53 f93c 59fc ce3c 3cba 723d
00000090: 7656 70bd 4bc6 47be dfdb a3bc a107 86be
000000a0: 124f ff3c 3aab 933e 0847 6bbd 3cc1 aebe
000000b0: e72d a03d 7f12 5ebd 80eb 06be 63b7 2cbe
000000c0: d855 0d3d b8d0 be3b 6e25 ee3c 878b 87bd
000000d0: 658f 163e 9360 743d 9a98 9a3e c50e 17bd
000000e0: 39aa 9fbe fb59 65be c19b 4fbe 8691 d7be
000000f0: f88d 50bd cf68 033e 904d cabc d85a d2bc
00000100: 40bb 163c 4407 83be 8613 6ebd 7307 083d
00000110: 8bce 62bd 3bb6 323c 9f4d ff3d b903 40bd
00000120: 55cd 643d ca06 9a3e e68e adbd 8d8d 4fbe
00000130: 13c2 5fbe 2631 3e3c da85 c83d 577b 043e
00000140: db1e ce3c db29 f4bd 67d0 66be 604b 073e
00000150: 5e21 e0bd c07c db3d 1b5a 6ebe b1d5 44bd
00000160: 3af8 363e 0afb 723e 0f79 6f3e 46cb cf3d
00000170: 35f0 ab3e 5626 8ebe ca13 873d b364 763c
00000180: b351 b5bd d85e 123e beef 1ebd 1ae1 30be
00000190: 6fc2 d43d 34bb 593c a7f9 823d 87ae 4dbe
000001a0: e2c4 693e ff49 14bd 2013 22be f742 c1b9
000001b0: fe02 763e 2e80 f63d f55c 723e 3200 593d
000001c0: 7429 c4bb 2755 f73d 0767 853e e97e 48be
000001d0: 1770 a83d cc33 19be 643b e9bd cc3d 513d
000001e0: d838 9abd 26d8 5e3e 2f23 aebd 6e13 4fbd
000001f0: 5660 39be cc41 a5be ae59 cfbe 8adb 0bbb
00000200: 0ba1 9f3b b97b 7dbc 25a2 593e b53e ddbc
00000210: d1c5 dabc 8348 01bd c877 c6bd 1ba2 483d
00000220: 5b89 2a3d c4d3 ae3d 887c 90bc c6f5 5a3c
00000230: 8477 273c 56af 113d 6b70 61be 4676 db3d
00000240: 28eb 4c3d 4b6f c5bd 70e9 0dbe c3a0 a1bd
00000250: 39c9 3e3e 3aef a7bd ab3a 5d3c 70fb 423c
00000260: dbce 733d db3e 2f3e 47cb b63c 520f d43c
00000270: ca33 4e3e 7b68 dc3d cf16 0bbe ea2f e33b
00000280: a688 b339 6787 cc3c 88c9 033d b2af 3d3d
00000290: 9120 f1bd aa60 3f3e a27c d43d a63e e73d
000002a0: f501 8ebc 65b5 abbd 9007 fc3b 0ae5 2dbe
000002b0: c3bb 173e 9794 1abd a4a0 b43c 52ce 2cbe
000002c0: be84 46bd 93ae 3b3e 8bc8 8e3d e1a5 5ebc
000002d0: 4b9e ccbd fdd8 2dbc 7c3e 123c 39b9 49be
000002e0: 8e80 88be 3713 b53d 0d92 3b3d d6aa 01be
000002f0: c0da b9bc 3b70 033d 78c2 113d 0395 5ebe
00000300: 61a4 9dbe c544 b63c 93dc 833d adcf 5c3c
00000310: e903 bb3d ad3b 2ebd a32b 1a3e 717b 7dbd
00000320: 9baf 10bd 9d6e 35be 28be 2dbd e556 b3bd
00000330: 5d8f 8e3d 6f00 cb3d 809a 273e 33b8 fbbe
00000340: 12c6 ba3c 4752 90be 2249 a33b 5a0e 82be
00000350: 7ef9 bf3d e03a 8a3c 899a e7bc d494 213d
00000360: 26e2 8c3d a999 113e a5ce 923d c98c 283d
00000370: 7db9 793d 9a22 11bc 1883 ecbd f965 33bd
00000380: b837 0abe 654f 873c 5a50 873d b1cb 59be
00000390: cba0 48be 609e 1ebe b8b8 8ebc 9f9f ba3d
000003a0: 38a5 f0bc d32b ed3c baff d6bc dfa4 1cbc
000003b0: 1fb2 343c 584d ce3c aa5d d8bd c4f0 353d
000003c0: 0f2a 4c3d 2126 f53d c506 d1bd ab2f 993d
000003d0: 020c a6bd 696b debd 9bf5 243d 5075 f0bd
000003e0: cdec a0bc 7bd8 c4be 1be7 873d c467 f1bd
000003f0: 1198 613e e7db 11be a157 b6bd 9bae 683d
0.02806503 -0.17702523 -0.054036535 0.04219717 -0.0017343158 -0.083271794 -0.15320362 -0.044690985
-0.014600472 -0.10151492 -0.1768419 0.08300171 0.14682044 -0.056306813 -0.0989144 0.34949842
-0.22477895 -0.02020873 0.017733572 0.18626429 0.101258956 0.26530468 0.05989108 0.02771069
0.16193415 -0.06993691 0.20331885 0.13332501 -0.122167796 -0.034308992 -0.15343137 -0.01988193
0.117036045 0.030435199 0.025266813 0.05925964 -0.058676206 -0.19509237 -0.020002304 -0.26177695
0.031165633 0.28841573 -0.057440788 -0.341318 0.07821255 -0.054216858 -0.13175774 -0.16866831
0.034505695 0.005823221 0.029070582 -0.066184096 0.14703138 0.059662413 0.3019455 -0.03687932
-0.31184557 -0.22397606 -0.20274259 -0.42103213 -0.050916642 0.1283295 -0.024695188 -0.025678083
0.009199917 -0.2559148 -0.058124088 0.03321023 -0.055372756 0.010907705 0.12465977 -0.04687855
0.055859882 0.30083305 -0.08474521 -0.20268841 -0.21851377 0.011608398 0.09791155 0.12937675
0.025161197 -0.11922046 -0.22540437 0.13212347 -0.10943864 0.107171535 -0.2327656 -0.048055355
0.17868128 0.23728576 0.23386024 0.10146193 0.335817 -0.27763623 0.06595571 0.015038657
-0.088534735 0.14293993 -0.038802855 -0.1727337 0.10388648 0.013289262 0.06395274 -0.20086108
0.22829011 -0.03620338 -0.15827608 -0.0003686172 0.24024579 0.12036167 0.23668273 0.052978702
-0.005986387 0.120767884 0.26055166 -0.19579662 0.082245044 -0.14961165 -0.11388281 0.051084325
-0.07530373 0.21762142 -0.085028045 -0.05055564 -0.18103155 -0.32276762 -0.40498108 -0.0021340572
0.0048714927 -0.015471392 0.2125326 -0.02700744 -0.026705654 -0.031563293 -0.09690815 0.04898272
0.0416349 0.08536485 -0.017637506 0.013364261 0.010221366 0.035567604 -0.2201554 0.10715918
0.05002895 -0.09640368 -0.1385858 -0.07891991 0.18631448 -0.08199926 0.013502757 0.011900768
0.059523445 0.17113821 0.022313727 0.025886212 0.20136943 0.107621156 -0.1358292 0.006933202
0.00034243352 0.024966909 0.032174617 0.046310134 -0.1177379 0.18689218 0.10375334 0.11291246
-0.017334918 -0.08384208 0.007691331 -0.16981903 0.14817719 -0.037739363 0.022049256 -0.1687558
-0.048466437 0.18328314 0.06971844 -0.013589353 -0.099911295 -0.010610816 0.00892603 -0.19699563
-0.2666058 0.088415556 0.04579358 -0.12662825 -0.022687316 0.032089453 0.03558585 -0.21736531
-0.30789474 0.022249589 0.064385556 0.013477248 0.09131605 -0.04253738 0.15055709 -0.0618853
-0.03532372 -0.17717977 -0.042417675 -0.08756808 0.06960938 0.09912192 0.16367531 -0.4916397
0.022799525 -0.28187773 0.0049830833 -0.25401574 0.09373759 0.016873777 -0.02827193 0.039448574
0.06879072 0.14218773 0.071683206 0.04114989 0.06096791 -0.008858347 -0.11548442 -0.04379842
-0.13497818 0.01651735 0.06607123 -0.21269108 -0.19592588 -0.15490103 -0.017422065 0.091124766
-0.029375657 0.028951561 -0.026244987 -0.009560793 0.0110287955 0.025183365 -0.1056474 0.044419065
0.049844798 0.11970163 -0.10206369 0.07479795 -0.08107759 -0.108603306 0.04027329 -0.117411256
-0.019644165 -0.38446411 0.06635877 -0.1178737 0.22030665 -0.14244042 -0.08903433 0.05680714

network.1.conv.0.bias f4 [256]
00000000: eb1d 4fbd 0a3b d4bc 8210 243d d4d7 593c
00000010: ec9c f7bb fc2e 953d 40c8 413d d8ec b13d
00000020: ef00 a7bd d6bb 2e3d f37e 6fbc f960 25be
00000030: 1468 623d a757 f0bd ebf3 d6bd 6c58 cebd
00000040: 6502 d2bd 499c 5dba 361e 603d ffff 28be
00000050: 0ff5 c4bd 3960 443e b72d b0bd 10c0 19bd
00000060: 6a8f 91bd cdf8 f93b 8719 2ebe d495 c43c
00000070: 4102 12be aabf cdbc 92ea 09be 899b c53b
00000080: b1bd 91bd 377a 80be 22e7 2a3e fb02 c6bd
00000090: a7bb 76be 6739 20bc 47dd cc3b 406b 34bd
000000a0: 0662 e4bd b16e fdbd 970c 66be dbfb 933d
000000b0: 9289 b93c 0c2d c13c 19fb febd bb87 bc3b
000000c0: f36e 40bd d117 a53c 01b2 7abd e689 793d
000000d0: 5bb1 6abd 12fb 6fbc 53e9 10bd 3dab 35bb
000000e0: fbc4 a63b de03 91bc bd72 e23c 1796 de3d
000000f0: 4fa0 0dbe 6764 8abd ddc4 5fbc e140 443a
00000100: cb5f bc3c cbc6 c63c 2c22 153e 8b70 3abd
00000110: a12a ecbc 80e6 9fbd 86ae 0bbc 104a c7bd
00000120: aaa7 4f3d fb4b e8bd 98c5 e7bd bd39 32bc
00000130: a42e e8bc d686 ba3b 3da7 97bb 60ae 393e
00000140: d9e7 f1bd 3289 153d 9863 25be 56a7 3e3d
00000150: 1b5f 34be cdc4 a7bd a516 83bd d8d9 8dbd
00000160: 6c98 483d 38fb 6dbc 3ab6 3dbc 6cdb ed3d
00000170: f25a 743d b56f f13d 9c0b 31bd 73fc 27bc
00000180: 3118 40be b79c 6dbd 3383 13bd 22e9 9e3e
00000190: 2c20 d63c ed88 8ebd 56c9 9e3d 6a85 2cbe
000001a0: 3248 54be 76aa 6bbd c196 da3d c9e5 30be
000001b0: 6c64 173d ed15 02bd df35 ff3d eb9b 30be
000001c0: ba33 983d cb91 e43d 149a c3bd d234 5c3d
000001d0: d87f 6d3d 48fe 01bd 0e1d 10bd 414b 0f3e
000001e0: 4d23 9eb9 3008 e9bc 4f27 f63d 8dc9 df3d
000001f0: fa81 f8bd 6a26 33bd f31d f03d f35b 71be
00000200: 8065 60bd 3854 ddbd a81a 2abe cc32 253d
00000210: 16c0 77bd 0158 843c 3f4b 373c d845 5fbc
00000220: d68d 0b3d 4757 b6bc 4aa9 89bd ec78 53bc
00000230: 8b43 75bd caf8 213d 37cf 3a3c 2422 e63c
00000240: d492 363d 82f4 b33b b413 19be 031e af3d
00000250: 40e4 da3d ee89 aabd da39 44bd c226 2dbe
00000260: 7adc e43d 7a43 9c3e 1ce8 503d 8aa9 90bd
00000270: c036 ba3b 501e 8d3c 7f1a 2a3c 37b1 67bd
00000280: b5e0 cabc 2a66 c0bd 2fbe cb3c f6b6 2b3e
00000290: d0e7 c3bc 69db f53d 66d5 eebb a28f 6bbd
000002a0: 531d 983d dfa1 873d 182a b23d e13e 25be
000002b0: cc98 303c 7089 5cbe 89ce 363d 440f 13be
000002c0: 106a 45bd 30fe cebd 7576 babb ce9e f53c
000002d0: 2913 4bbb 1f56 02bc f30f 353d 9b70 01be
000002e0: 1c47 88bc 1f27 aabd 0467 3f3d 9ee2 81be
000002f0: 8944 81bd 2cd2 e83d e679 cabd 0469 043c
00000300: 6b8a 86bd 5ccf febd da9c 29be 286b 5c3d
00000310: 3318 9fbd 1613 7f3d 0242 c83d 6125 bbbd
00000320: d6bc b6bd da8f e03d b981 1bbe d6ec 1d3e
00000330: 3971 11bd 82e9 92bc 67d2 45be d8d3 0cbe
00000340: 7468 d9bc f0e8 dab8 1c89 acbb e37b 47bb
00000350: e31b 30be 097e 9cbb a970 ea3c fbc4 8b3d
00000360: bfe8 2ebe 93da 8fba cc17 61be bc77 2fbd
00000370: 637e 993b dd2a 0cbe 6f71 55be f91b bdbd
00000380: 7bb5 093c 7977 063c 7063 473d 6baf 01be
00000390: 11f8 573d d5d1 153e f3ea 0b3e ea81 51be
000003a0: 43b5 92bd 0c97 0d3e 1024 a7bd fa39 a9bc
000003b0: 0178 c0bc b47f ec3c 3ce7 74bd ac58 2d3e
000003c0: a982 0dbe 6d0a 8e3d d944 14be 4f46 463c
000003d0: 6b26 533e 8697 253d 291a 353d 6d0b e4bb
000003e0: 789b a6bd ee24 30bd 6bc2 83be 53e8 0cbd
000003f0: be83 843d 0bfb ba3d 08d9 8abd abe7 c2bd
-0.05056564 -0.025907058 0.040054806 0.013296086 -0.0075565483 0.07284352 0.047310114 0.086877525
-0.08154475 0.042659603 -0.014617669 -0.16150273 0.055275038 -0.11735468 -0.104957424 -0.10075459
-0.10254363 -0.0008453769 0.05471631 -0.16503905 -0.09617054 0.19177331 -0.086024694 -0.03753668
-0.07107432 0.0076285363 -0.17001925 0.023997225 -0.14258672 -0.025115807 -0.13468388 0.006030504
-0.07116259 -0.25093243 0.16689733 -0.09668537 -0.24095021 -0.009779311 0.0062519643 -0.044047594
-0.11151509 -0.12374628 -0.2246574 0.07225772 0.022648606 0.02358105 -0.12450237 0.005753485
-0.04698081 0.020152958 -0.061204914 0.060922526 -0.057298046 -0.014647262 -0.035378765 -0.0027720474
0.0050894 -0.01770204 0.027642602 0.10868471 -0.13830684 -0.067574315 -0.013657776 0.00074864744
0.022994896 0.024264714 0.14563817 -0.045517486 -0.02882892 -0.07807636 -0.008525496 -0.09730923
0.050697006 -0.11342617 -0.11316985 -0.010878024 -0.028342552 0.005692343 -0.0046280907 0.18132925
-0.118117996 0.036507793 -0.16151273 0.046546303 -0.17614405 -0.08191834 -0.064008035 -0.06926316
0.048973486 -0.014525227 -0.011579091 0.11614117 0.059657045 0.117888846 -0.043223962 -0.01025306
-0.18759228 -0.058010783 -0.036013793 0.3103724 0.026138388 -0.0695971 0.077532455 -0.16847768
-0.20730665 -0.05753561 0.10673285 -0.17275156 0.036961004 -0.03175919 0.12461447 -0.17246978
0.07431741 0.1116062 -0.095508724 0.05376131 0.05798325 -0.031736642 -0.03518396 0.13993551
-0.0003016241 -0.028446287 0.12019216 0.10927115 -0.12134166 -0.043737806 0.11724462 -0.23570232
-0.054784298 -0.10807079 -0.16611731 0.040331647 -0.06048592 0.016155245 0.011187374 -0.013627492
0.034070812 -0.022258414 -0.067217425 -0.012907248 -0.059878867 0.039543904 0.011401943 0.028092451
0.04457362 0.005491794 -0.14948922 0.08550646 0.106880665 -0.08327089 -0.047906734 -0.16909316
0.11174865 0.3052023 0.051002607 -0.07063587 0.0056827962 0.017226368 0.010382294 -0.05656549
-0.024765352 -0.09394486 0.02487096 0.16769013 -0.023914248 0.1200474 -0.0072886227 -0.057510026
0.07427468 0.06622671 0.08699435 -0.16137268 0.010778617 -0.21536803 0.04463056 -0.14361292
-0.048196852 -0.10107076 -0.0056903907 0.02998295 -0.0030986762 -0.007955103 0.044204663 -0.12640612
-0.01663547 -0.08308243 0.046729103 -0.25368208 -0.063119 0.11368212 -0.098865315 0.008081678
-0.0656937 -0.124418944 -0.1656374 0.05381313 -0.077682875 0.06227406 0.09778215 -0.09137989
-0.08922736 0.109649375 -0.15186204 0.15422377 -0.03550837 -0.01793361 -0.19318543 -0.13752687
-0.026539065 -0.00010438438 -0.005265368 -0.0030438832 -0.17198138 -0.0047757667 0.028618174 0.068246804
-0.17080973 -0.0010975174 -0.21981734 -0.042838797 0.004684256 -0.13688226 -0.20844053 -0.09233851
0.008405085 0.008207195 0.048678815 -0.12664573 0.05272681 0.14630826 0.13663845 -0.20459715
-0.07163479 0.13827151 -0.08161175 -0.020657528 -0.023494722 0.028869487 -0.059790835 0.16928357
-0.13819374 0.06935582 -0.14479388 0.012101724 0.20620124 0.040427707 0.0442144 -0.00695937
-0.08135122 -0.04300397 -0.25734267 -0.03440125 0.0647044 0.09129914 -0.06779677 -0.095168434

network.2.conv.0.weight f4 [128, 256]
00000000: eaff 003d 3191 c03a 15de 92bc 826e ea3c
00000010: c263 57bd 0233 b73d 0289 673e d614 4d3e
00000020: 8d0f 3dbd c392 953c 60ef e0bd 2f41 50bd
00000030: 1b43 923d 5522 bf3d 7aa1 c53d c548 c4bd
00000040: f9d8 cd3e c381 e6bd 55b4 80bd 5b66 a13d
00000050: c7ec bc3d f5a3 d7bc f694 b63d 03e1 e93d
00000060: f354 45be 7aec 883e cb9a 08be b0e3 9f3d
00000070: 5d99 343e 1af2 93bd accb 423d 5304 58be
00000080: 3e1b 0cbe 8aae b8bd db23 793d 021a 8cbd
00000090: 4735 8ebd 595a 913b a569 ee3d 4f59 53bd
000000a0: 5b71 a73d 074c 12bd 3717 0f3c 8e82 bc3d
000000b0: ebe5 f5bd e967 c1bd 4aab 553e 50a1 ea3c
000000c0: fb13 59be 8122 fe3d 586e 3dbe 1f4f 43bd
000000d0: 2650 4bbd 342b b5bc 7330 383d 93cf 25bd
000000e0: a1fe 28bd 6a44 babd 2c67 5fbe 3f64 febd
000000f0: 557d 763d e150 a9bd 6128 2d3e fb01 e0bd
00000100: 83cf 7739 b1b8 d73d fbe4 a1bd eeaf 043c
00000110: 480f 2fbe 86ed 60bd 891d cabd d72d c83d
00000120: 6bd2 ffbc cd1c 223c 1ff7 dcbd ab76 38bd
00000130: 428b 643d f753 313c 83cb 2f3e 88ab 2ebe
00000140: 2ef0 9ebe ab0b 123e 528c eebc b977 8bbc
00000150: 3837 35bd 9a97 d33d 2a1d 09bd 754c db3c
00000160: 1590 93bd e06a 213a 309b 4d3d 9a1a c13d
00000170: 6cb0 f9bd b876 063c 228a 76bd 925d 283d
00000180: 4d29 c33c 95cb 263d 106b 953c 20c9 343e
00000190: b39c 883d 5801 df3d ee55 d9bc 09fe ce3d
000001a0: 4933 b53d 36da be3d da9e f33c d860 583d
000001b0: 90f6 8e3d 4514 5fbe 1fde c1bd 808e c43d
000001c0: b8c8 e0bd c05f d43c a17c 003e f397 85bc
000001d0: 21c9 d13b 8eef 81be 3457 a63d ab3d a23c
000001e0: b205 d7bd 5870 3dbe 71e3 24be 2702 eebd
000001f0: 9e97 a53d 587c e33b c594 f8bd f466 f33d
00000200: d343 d93d 8eae 583e c87f 2e3e 1fbc 10be
00000210: 37b3 63bd 796c 093e 03e2 c8bd 5ecb 913d
00000220: b915 0b3d 45ea 09bc 2f72 f7bb 935d d23d
00000230: af89 9e3d 8175 f3ba 4b92 16bd 9f37 0cbe
00000240: 9e16 9a3d d79c 2bbe 607e 563d 734b f3bc
00000250: 5f03 01be 6490 96bb b603 71bb e4e4 11be
00000260: 2525 52bd 7173 9cbd 5090 ca3c c293 ab3d
00000270: fd47 503e aefa cabd 1a86 f03c 3e05 1dbe
00000280: c442 6a3e 40e0 4b3c 821d 2c3e fcac 3fbd
00000290: cc45 87bd b48d 06be 4146 a93d 3166 9dbd
000002a0: ad11 dbba 906f 02be 330a a7bd 1a84 67bd
000002b0: 6c27 d43c 2b23 b3bd ca1a 0d3e 6081 d73c
000002c0: 2815 9ebd 019d fdbd d1ee f43d 0317 b93d
000002d0: a59b 523d 461d 7bbd 5e0d 233e f315 7cbd
000002e0: 3c2a 36bd e52f 7ebd 6f47 debd 8335 7abd
000002f0: 667a 1cbd 53a9 f83b 6198 cb3d 0fc6 a3bd
00000300: b47b 233e ec38 4bbe cefb 62be 1f1a 25be
00000310: b855 e33d be49 843d 4054 f03d 3664 b7bd
00000320: f574 0b3e d704 243c c735 293e fe7d 0fbc
00000330: 8c07 8e3c 3630 7bbd 4b9c ad3c 2321 153e
00000340: 07b4 9ebd 0216 eebc 678d 49be d56b 7abd
00000350: 2b7c 463c ecde 9ebd 0058 05be 201a 423d
00000360: 0d39 09bd 79b8 113d 6ed1 3bbe 2e2a f73d
00000370: 583a c5bd cfe5 e8bd 17ed 9b3d cdf9 90be
00000380: 836f 42be d13d 84bc 3f0b c8bc 6c25 05be
00000390: 99ab 15bd f3a9 dabd fe85 4fbd c7e9 c1bd
000003a0: 8770 ca3c 3dcc 043e 34e0 c53d 732a 26bd
000003b0: 800b 9cbc 9819 0bbe 6672 9d3e 4e1c 51bc
000003c0: 87e4 edbd 8964 97bd 5e7c 62be c9c7 bfbd
000003d0: 345f eabd b2b2 c83d 3589 0bbd 9ef4 a6bc
000003e0: 4ac1 bfbb 03ff 563e 7ea6 393e 21a6 6ebd
000003f0: e3ac 0e3d 6aeb 0abd a225 c23d e124 93bd
0.03149406 0.0014691708 -0.017928163 0.028617147 -0.05258537 0.08945276 0.22610858 0.2002748
-0.04615741 0.018258458 -0.10983157 -0.050843414 0.071417056 0.0933272 0.0964994 -0.09584192
0.402046 -0.11255219 -0.062843956 0.07880851 0.09224849 -0.026323298 0.08915131 0.11419871
-0.19270687 0.26742917 -0.13340299 0.078071 0.17636628 -0.072239116 0.047557518 -0.210954
-0.13682267 -0.09017666 0.06082521 -0.06840898 -0.069437556 0.004435819 0.11641244 -0.051598843
0.08175918 -0.035717037 0.008733562 0.09204589 -0.12006744 -0.094436474 0.20866123 0.028641373
-0.21199028 0.12408925 -0.18499124 -0.047682878 -0.049636982 -0.022115327 0.04496808 -0.04048116
-0.041258458 -0.0909508 -0.218167 -0.12421464 0.06017812 -0.082673796 0.16909935 -0.10937878
0.0002363306 0.10533274 -0.07905003 0.0080985855 -0.17095673 -0.05491402 -0.09868915 0.09774368
-0.031228265 0.009894562 -0.10789322 -0.045035046 0.05579687 0.010823241 0.17167477 -0.17057621
-0.31042618 0.14262263 -0.029119644 -0.017024862 -0.044242114 0.1033165 -0.03347508 0.026769856
-0.07205216 0.0006157588 0.050196826 0.09428902 -0.12191853 0.008207016 -0.060190327 0.04110486
0.023823405 0.040721495 0.018239528 0.17654848 0.06670513 0.10888928 -0.026530232 0.10107047
0.088476725 0.09318964 0.029738832 0.052826732 0.06980622 -0.21785076 -0.09466194 0.09597492
-0.10975784 0.025924563 0.12547542 -0.016307807 0.0064021503 -0.25378078 0.081221014 0.019804796
-0.10499133 -0.18499887 -0.16102387 -0.11621504 0.08085559 0.006942313 -0.121377505 0.11884871
0.106086396 0.21160337 0.17040932 -0.14134263 -0.055590834 0.13420285 -0.09808733 0.07118867
0.033956263 -0.008417671 -0.0075514535 0.10271754 0.07741105 -0.0018574448 -0.03676061 -0.13693093
0.07523845 -0.16759048 0.052366614 -0.029699063 -0.12598942 -0.0045948494 -0.0036775894 -0.14247471
-0.051304955 -0.07639206 0.024727017 0.08377792 0.20339961 -0.099110946 0.02936082 -0.15334031
0.22877032 0.012443602 0.16808131 -0.04679583 -0.066051096 -0.13139993 0.08265353 -0.07685507
-0.0016713642 -0.1273787 -0.08156242 -0.056522466 0.025897704 -0.08746942 0.1377975 0.026306808
-0.07718879 -0.12383462 0.11959613 0.09037592 0.051417965 -0.061307214 0.15923068 -0.06154437
-0.04447387 -0.062057395 -0.108534686 -0.06108619 -0.038202666 0.0075885444 0.09941173 -0.07996761
0.15965158 -0.19845933 -0.22166368 -0.16123246 0.11100334 0.06459378 0.117348194 -0.089546606
0.13618834 0.0100109195 0.1652442 -0.008758066 0.017337583 -0.061325274 0.02119269 0.14563422
-0.07749181 -0.029063229 -0.19682847 -0.061137993 0.012114565 -0.07757363 -0.1302185 0.047388196
-0.033501673 0.035576317 -0.1834161 0.12068592 -0.09630269 -0.113719575 0.07613581 -0.28315583
-0.18987851 -0.016142758 -0.024419425 -0.13002557 -0.0365406 -0.106769465 -0.050664894 -0.094684176
0.02471186 0.12968536 0.09661904 -0.040567826 -0.019048452 -0.13583982 0.30751342 -0.012763096
-0.11615854 -0.073922224 -0.22117755 -0.09364278 -0.1144394 0.097997084 -0.034066398 -0.020380314
-0.0058518993 0.20995717 0.18129918 -0.0582639 0.034832846 -0.033915915 0.09479834 -0.071847685

network.2.conv.0.bias f4 [128]
00000000: 1b52 52be 44ca b73b d497 1bbe c974 c53d
00000010: 96ca 23be 7fbe 3abe bbce 123e 98b1 ed3b
00000020: c057 71bd 29da 593c 95ba 843c acf8 803d
00000030: 79d0 2a3d 8183 023e 1697 55bd 1570 573d
00000040: aae4 383c f570 f3bc 096e c3bd 7a5b 90be
00000050: 70a5 a6bd 06c2 cc3c d87e 20bc 1957 cdbd
00000060: 9122 90bd d161 0cbe aaa8 90bc f15c c8bd
00000070: 6c60 8cbd 3ed1 c0bd 5908 e73d 4090 3cbe
00000080: aed0 b1bd 3235 70be f70e 45bd a679 a33c
00000090: 0838 5dbd f588 58be 71ba 0a3d 8a7a a4bd
000000a0: 4dd4 f4bd a6b7 333c 9ce3 733d 0716 26be
000000b0: 943d 06be f246 2a3d c41e c93d c2a1 23be
000000c0: b39c 60be f747 da3c 0306 d3bc 9370 103d
000000d0: 1d32 7fbd ea04 063e 58f3 57bc b1f3 ec3d
000000e0: 0820 293d 9f8f 1bbd 9e89 2cbe cfff 96be
000000f0: b31c 8fbe 3cd5 f13b dad3 bebd e8d9 283e
00000100: bc3d f63c 8c5e 323e 240b 4cbe 6606 443e
00000110: 7cc4 bbbc e2c6 253d 38df ddbd 3ca5 f0bd
00000120: 6825 4f3e f879 ddba 382f 803c 269c e33c
00000130: a8a7 d5bd 1078 f63d c07c e43d 3662 363d
00000140: a223 533c 7263 5cbe d78b 28bd 208f 263e
00000150: c80a 1dbd e07b a33c 53bc 17be 0fe7 aa3d
00000160: 9446 f73c 893a 983d 8ad9 aebd 8b43 4cbe
00000170: 349d 1abe 1d19 dabd 1de7 563c 9b84 5ebd
00000180: 1d7a 36bd 5624 20be 9905 c43d 71cb e03d
00000190: d603 0bbe f01d f7bd 4487 613b 1204 773d
000001a0: bf23 ecbc 6a66 983d 12f4 9dbd e494 c8bc
000001b0: 4577 47be 4ff4 1ebe e167 5cbe b1db 0f3d
000001c0: 22a3 983b 957a 613c eb8a c2bd a4c9 e9bd
000001d0: d8fc 29be db46 2ebe 3875 edbd fd26 93bc
000001e0: 7d38 363c a324 92be 4ce1 55bd 2be7 49be
000001f0: baa1 e4bd d410 55be 26a4 cb3c e69c d0bc
-0.20539133 0.0056088287 -0.15194637 0.096414156 -0.15995249 -0.18236731 0.14336674 0.007253837
-0.058921576 0.013296642 0.01620225 0.062974304 0.04170272 0.12745477 -0.05214604 0.052597124
0.0112849865 -0.029716948 -0.09542472 -0.2819479 -0.081370234 0.024994861 -0.009795867 -0.10026378
-0.07037843 -0.13709189 -0.01765855 -0.09783352 -0.068543285 -0.0941491 0.11280889 -0.18414402
-0.086823806 -0.23457792 -0.048109975 0.019955467 -0.054008514 -0.21145995 0.03386921 -0.08031185
-0.11954556 0.010969078 0.059543237 -0.1621934 -0.13109428 0.041571565 0.09820321 -0.15979674
-0.21934776 0.026645644 -0.025759703 0.03526361 -0.06230365 0.13087812 -0.013180576 0.11569918
0.041290313 -0.037978765 -0.16849372 -0.2949204 -0.27951583 0.007380156 -0.09317751 0.16489375
0.030058734 0.1741888 -0.19926125 0.19143066 -0.02292084 0.040472873 -0.10833591 -0.11750266
0.20229113 -0.0016897311 0.015647516 0.027784418 -0.104323685 0.12034619 0.11156607 0.044527255
0.0128869135 -0.2152231 -0.041148987 0.16265535 -0.03834036 0.01995653 -0.14817934 0.08344852
0.030185021 0.0743304 -0.08537586 -0.1994764 -0.1509903 -0.10649321 0.013116625 -0.05432568
-0.04455005 -0.15638861 0.0957138 0.10976303 -0.13575682 -0.12066257 0.00344129 0.060306616
-0.028825639 0.07441409 -0.07712568 -0.02448506 -0.19479091 -0.15522884 -0.21524002 0.035121623
0.004658119 0.013762136 -0.09499153 -0.11415413 -0.16600358 -0.17019217 -0.11594623 -0.017962927
0.011121866 -0.28543577 -0.052216813 -0.1971709 -0.111636594 -0.208072 0.024858546 -0.02546544

network.3.weight f4 [2, 128]
00000000: bd15 dcbc bb2a bb3b 2dc3 f5bd 53e8 6e3d
00000010: 9c08 e939 73b7 11be 89b9 383e 2e40 febc
00000020: a464 043d 6d02 113d 6783 9ebb 79c8 25ba
00000030: aec4 233d ab17 2abc 3ea1 4f3c 6d15 33bc
00000040: 3ec3 84bd 7a54 89bc 4fa6 ecbd f389 fe3d
00000050: ce30 b13c ab19 e9ba b142 1f3c 8020 abbd
00000060: 855c 723e 6b3a 66bd c63b 143d 1536 023d
00000070: 11f6 d8bb 4258 be3d 69d2 c0ba 350b 6a3d
00000080: 0049 d53d 1599 3cbe 9ca1 673d 720e 113e
00000090: 2da4 5fbc c0bd 80be 64c8 4cbe c4da d2bd
000000a0: 3f65 dc3d 9ec6 7e3d c9ec 703d cf4b 8ebd
000000b0: 65f4 aa3d 7203 9ebd aeea c13d a9da 0e3d
000000c0: a16a 13be f218 5fbd 3d76 3d3d d45b f73c
000000d0: 443f a63d 80d8 66bd bb84 dabc da63 2bbe
000000e0: 83ea 95bb db48 38bb 7d17 f03d bbf3 35bd
000000f0: 1df1 65bc 568f 073e b034 01bd 3ed0 b3bd
00000100: 1404 3e3e df1d 0cbd 02db 163e dd4c 33be
00000110: c572 bd3b 95c5 1c3e fbfb bdbd a129 183d
00000120: a054 943c 2d54 44be ee5f 483c e037 2e3e
00000130: 711d 78bd faf0 fbbc 6166 52bd c79f 823c
00000140: 1705 79bd 1300 88bb 1ae5 023d 6f5f b8bc
00000150: d1de e53d dea3 2a3d 9684 053d 059f 52be
00000160: f944 cf3b 95b3 c93d 225e b0bb d86a 4b3b
00000170: f360 52be a74d 01be 01d4 07bd feac dc3b
00000180: 61d3 e73a 8d63 99ba f0ad ebbc b205 69bc
00000190: 5a16 c13d 7749 aebc ba2b 573e 3529 89bc
000001a0: fa18 ae3d d624 2b3e ee85 9bbb 8313 33bd
000001b0: 2fc0 cbbb 85a5 88bd d4cf 4dbd a52c 693d
000001c0: c58f 9d3d 25b6 253e 183e 023e 344f 01be
000001d0: 3b84 3c3c 0216 ee3c d963 20be 4e30 293d
000001e0: f3e5 003e fcd3 46be 6133 3c3e cccc 83bd
000001f0: ff14 243e e327 37be bdf3 ccbb c870 86bc
00000200: 4d06 10be 03f5 a13d 34b4 f03c 9a7c d1bd
00000210: 6824 d03d 62d3 29be 7125 57bd 2973 ddbc
00000220: 8c8c 75bd 8223 be3d f6ec 7e39 6157 49bd
00000230: affd 973d 3594 993b 37ef fbba d3b8 893c
00000240: b640 0cbd 34b4 823d 9a6c e6bd 97a5 0f3e
00000250: 6a9d 00be 7919 003e 74e2 763c ab88 b83d
00000260: ac3b dd3d 25a7 ba3d 0854 05be 20b9 bfbd
00000270: 8c28 d63d 771d 0b3d 6b33 333d 16b8 cfbd
00000280: 5438 9ebd 0c7a f83d f11d 1c3e b0cd dabd
00000290: 7ce5 c03d e8c9 253d ae62 3d3d 278c 35be
000002a0: 4afe 28be b00b 743d 3a68 9fbd ebee 833c
000002b0: d57b 83bc ff95 413e b596 853e bbc8 1abc
000002c0: 8664 bcbd c380 bebd 0287 403d 2f39 753c
000002d0: 0873 e83d 5edb 303e 2dd8 83bb 796f 123e
000002e0: 61a9 8d3d eee3 083c 88a0 d33d fb18 26be
000002f0: a0ac cbbc 2bb0 c8bd b30b 663d 659c 8bbe
00000300: ba9f 98bd 9757 8c3d 99cb 693d 9cbb 0c3d
00000310: 699f af3d 10f2 9abe beeb 193e 7332 313c
00000320: 485d c23d 28b8 453d 20b2 a3bd 4092 34bd
00000330: 5a47 b33d 2028 173e 2471 2c3e 6baa 33bd
00000340: e0e7 b33e 56ff 0aba e9bb 8b3d 176f 933d
00000350: dfb1 133c c261 0cbd 8030 31be 67e3 8bbb
00000360: 99af d0bd a6b7 51be 5cde 6a3d ae1a ae3d
00000370: 80c2 db3d c211 f33d ea51 553e af91 eabc
00000380: b2e2 5b3d 72fd 1e3e f487 a93d 561b 33bd
00000390: 9630 9a3d 0c0b 8f3d 3c06 80bc a0b0 203d
000003a0: 7327 433d 06c7 a3bd 8d01 973e a26e 993d
000003b0: 32bd 8f3d a3ba 893d 7be6 343d 6d5d 65bc
000003c0: 9fdd c1bd 8fc1 75be 24de b73d 747e 20be
000003d0: 10c3 ddbc a943 a23d ad85 0a3e 42e5 013e
000003e0: 2f88 b63d 6206 d73d f255 4ebe 8efd 04be
000003f0: 9da9 0dbd dd93 03be c571 07bd 445e 153e
-0.026865834 0.005711881 -0.120001175 0.05832703 0.00044447638 -0.14230137 0.18039526 -0.031036463
0.03232254 0.035402704 -0.0048374417 -0.0006324123 0.03998249 -0.010381619 0.0126727205 -0.010930401
-0.06482552 -0.016763914 -0.11555158 0.124286555 0.021629717 -0.0017784139 0.00972049 -0.08355808
0.23668106 -0.056208055 0.036189817 0.031789858 -0.0066211303 0.092941776 -0.0014711145 0.057139594
0.10414314 -0.18417771 0.056550607 0.14165667 -0.013649982 -0.25144768 -0.19998318 -0.102956325
0.10761499 0.062201135 0.058819566 -0.06948053 0.08347396 -0.07715501 0.0946859 0.0348765
-0.14396144 -0.05446715 0.04625534 0.030195154 0.08117536 -0.056358814 -0.026674619 -0.16737309
-0.004575075 -0.0028119597 0.1172323 -0.044421893 -0.014034537 0.13238272 -0.031544387 -0.087799534
0.18556243 -0.034208175 0.14731982 -0.1750979 0.005781504 0.15309747 -0.09276577 0.037149075
0.018106759 -0.19172736 0.012229903 0.17013502 -0.060574953 -0.030754555 -0.051367167 0.015945328
-0.06079587 -0.0041503995 0.03195677 -0.022506444 0.112241395 0.041660182 0.032597147 -0.20568474
0.006325361 0.09848706 -0.0053823153 0.0031039026 -0.20544796 -0.12627278 -0.033161167 0.0067344895
0.0017686897 -0.0011702642 -0.028769463 -0.014222549 0.09428091 -0.021275265 0.21012774 -0.016743282
0.08500858 0.1671327 -0.0047461903 -0.04371978 -0.0062179784 -0.06672195 -0.05024703 0.056927342
0.076934375 0.16182764 0.12719 -0.1262787 0.011506136 0.029063229 -0.15663089 0.041305833
0.12587719 -0.19416803 0.18378974 -0.06435546 0.16023634 -0.1788631 -0.006254642 -0.0164112
-0.14064904 0.079080604 0.029382803 -0.10228844 0.10163194 -0.16584542 -0.05252594 -0.027032452
-0.05994849 0.09284116 0.00024311602 -0.049155597 0.07421433 0.004686857 -0.0019221072 0.016811764
-0.0342414 0.06382027 -0.11251183 0.14028011 -0.12560049 0.12509717 0.015068639 0.09010442
0.10802397 0.091139115 -0.13020337 -0.09361482 0.104569525 0.033963647 0.043750208 -0.101425335
-0.077255875 0.121326536 0.15245797 -0.10683763 0.09418771 0.040475756 0.046236686 -0.17729245
-0.16503254 0.05958146 -0.077835515 0.016105136 -0.016050259 0.18904875 0.26091543 -0.009447272
-0.09198861 -0.09301903 0.047003753 0.014967247 0.113500655 0.17271182 -0.004023573 0.14300336
0.06917072 0.008355124 0.10333353 -0.16220467 -0.024862587 -0.097992264 0.0561635 -0.27267757
-0.074523404 0.06852644 0.05707893 0.034358606 0.08575327 -0.30262804 0.15031335 0.010815251
0.09490448 0.04827133 -0.07992959 -0.044084787 0.087538436 0.147614 0.16840035 -0.043863695
0.35137844 -0.000530233 0.068229504 0.07198923 0.009014576 -0.034272917 -0.17303658 -0.004269052
-0.101897426 -0.20480213 0.057340965 0.085011825 0.10730457 0.118686214 0.20832029 -0.02863392
0.05368299 0.15526369 0.08277884 -0.04372724 0.07528798 0.06984529 -0.015627973 0.039230943
0.047645044 -0.07996945 0.2949337 0.07491805 0.07018508 0.06725051 0.044165116 -0.013999325
-0.09466099 -0.23999618 0.08977917 -0.15673238 -0.027070552 0.079230614 0.13527556 0.12685111
0.08912694 0.10499264 -0.20149973 -0.12987348 -0.034585584 -0.12849374 -0.033067483 0.1458674

network.3.bias f4 [2]
00000000: abe0 75bd 1fcd 813e
-0.060028713 0.25351807

encoder.0.conv.0.weight f4 [80, 150]
00000000: ff2d 9d3d aa83 20be b4ac f03d d1ac 353d
00000010: 6f68 a5bc f69c e73c 3992 063d e2c2 293d
00000020: 3a2e 1bbe 1d3a 2dbd 4dbf b8bc 9265 f93c
00000030: 4fdf adbc bd47 d53d 893a b33d 2976 02bd
00000040: f0b2 83bd c2cb 983d bcef 573d 9948 753c
00000050: afbc 07be bf8a 473d 6264 13be 34ba 2b3e
00000060: cb73 c93b 15c3 bbbd bdc8 24bd 212a 0dbc
00000070: c099 8b3d d7a4 ab3c 11e4 d7bd ab8a 92bc
00000080: 6f7d 5f3d 3de9 0fbc f6c7 d0bd 11a4 1ebd
00000090: 7520 a13d 010c 57bd c7b1 e9bd 5341 61bc
000000a0: 8d00 8a3c b14f 84bd 7044 2e3d 1a82 463d
000000b0: 638a 8cbd 4ee4 33bc c43b 1f3d 29d9 85bd
000000c0: 8f7f 72bd ddb3 8b3c c311 15bd 6f66 34bd
000000d0: ef94 15be 2483 523d b777 78bd 8970 c23d
000000e0: 2f1a ebbd d1b4 c13d d823 a2bd c6fa f1bd
000000f0: 5b88 0abe 7c5e 3e3d baf7 3bbd d081 2a3e
00000100: f629 1f3d 37f1 073d c41d 733d b03e aebd
00000110: 1e28 c7bd 5ed4 9c3d 8ca2 e4bc e5c4 81be
00000120: 402a a6bd da00 6abe 2901 783d 3583 273d
00000130: 7ec8 ecbc a6d1 02bd 0707 f23d 725a 1fbc
00000140: 9f61 2fbe bded febd efae 853d e2c8 d93d
00000150: 5551 b53d 17d9 3e3d ea1f 473e 2e35 94bd
00000160: eae0 193e 3e8f a3bd 38d6 4f3b 39cb 56bc
00000170: de98 6cbd b5ab f23d 21c5 1ebc 22fe 57be
00000180: a1b9 b7bd f894 b6bd 2c8b 1f3c b2cc 56be
00000190: e722 983d 3b0b 7c3c 5f2b 0a3e 0179 0fbe
000001a0: 53cb 573c 30c8 3dbd ee0f 373e 0eca 533c
000001b0: 276f 5ebd 2e47 e2bd a7be 663d 80a0 6f3e
000001c0: c447 5abc 4e20 bcbd 7ba4 1cbd 570e 7d3d
000001d0: ea17 79bd 8f37 72bb a074 8f3d 082a aebd
000001e0: 9dc3 d43d 61b4 3cbe c798 783e d48b 14be
000001f0: 6916 7e3e 4e79 65be 7df2 97bd 646b 3d3e
00000200: 28d8 e7bd 16e1 1ebe ff57 c2bd e537 a0bc
00000210: e590 663d 60ee 17bd 854a b4bd 28a3 8b3d
00000220: 1345 2d3d 1745 cfbc dd1a 28be a1f0 8d3d
00000230: 78b7 35bc e977 2abe e1cb 043e 8663 dabd
00000240: be88 2e3d 4c19 2fbd 8517 26be 757f de3d
00000250: 996d f13c 818f f43c e7a0 18bd b9af 9abd
00000260: 4da4 9e3d 2304 513e 8fee b2bd 3bb2 a63d
00000270: e961 41be 31a3 60bd a0cc 313d a707 943d
00000280: 8946 3f3e ba75 32be a419 8abd 6075 9f3d
00000290: 002c efbc f143 093d 4924 fabd c4d1 703d
000002a0: ffd1 a13d fc8f 313d 43a3 123e a847 203e
000002b0: e03a 85bd 5de8 d6bd 97e1 653c 54ab 203d
000002c0: e664 843d e5d6 be3d ac43 3a3e 947a 253e
000002d0: 64e5 40bd dd65 393c 3dfb 943d 3bf1 93bc
000002e0: 20ac d5bd 06a9 c53d ece5 2cbe 72c3 fcbd
000002f0: 2d3e 873d 9770 8fbd 5421 4dbe 1216 92bc
00000300: 9bbc acbc ab18 673d de69 e13d 9ffc 6ebd
00000310: ec75 6abc ba72 8e3d 49d2 fe3b 43d1 203d
00000320: 827b e63c 461b 3fbd a104 09bd 80c5 3bbc
00000330: 3f69 34be fd4c ed3d 9f78 90ba 751c 1a3e
00000340: d3ba 483e 9f34 853d 5271 36be 1f33 8bbc
00000350: 7762 f2bc 35f3 8cbc 2574 a3bd 94af ee3d
00000360: 6906 e63d 464d bf3d 3562 aabd 3ea5 c73d
00000370: 52bb d43b db57 6dbd 6f01 4b3d 4ef2 b13c
00000380: db39 ba3d d56b 183d 8473 a5bd 8185 14bd
00000390: 2962 bcbc 15a2 bcbd 28d7 8abd 49b3 06be
000003a0: 4cb4 813d 7442 99bc ff43 9ebd f8dd bb3c
000003b0: 1f78 af3c df82 193e 2526 473e 58e7 493e
000003c0: a677 933e 2854 cc3d de21 42bd 382c 133e
000003d0: 5240 f53d 0a45 193e 6938 85bd f2b2 d3bc
000003e0: b918 893d 34aa 743d c53a 723d 1cab 2bbe
000003f0: 7240 1abd 941b 30be 3cac 573e 2b9f f4bd
0.07674789 -0.15675226 0.117516905 0.044354264 -0.0201914 0.028273087 0.032854293 0.04144562
-0.15154353 -0.04229175 -0.022552157 0.03044394 -0.021224646 0.104140736 0.08751399 -0.031850968
-0.06430614 0.07460739 0.052718863 0.014970922 -0.13255571 0.048716303 -0.14393762 0.1677025
0.006147837 -0.09168068 -0.0402305 -0.008616001 0.06816435 0.020952625 -0.10541547 -0.017888388
0.054562982 -0.008783636 -0.101943895 -0.038730685 0.07867519 -0.052501682 -0.114108615 -0.013748485
0.016845966 -0.064605124 0.042545736 0.04846392 -0.06862333 -0.010979725 0.038875356 -0.06535561
-0.05920368 0.017053539 -0.036393892 -0.044043 -0.14607595 0.051394597 -0.060661044 0.09494121
-0.114796035 0.09458316 -0.07916993 -0.11815409 -0.13528578 0.046476826 -0.045890547 0.16651082
0.038858376 0.033189025 0.05935456 -0.085080504 -0.097244486 0.07657693 -0.02790954 -0.2534553
-0.08113527 -0.22851887 0.06054798 0.040896613 -0.028904196 -0.031938218 0.118177466 -0.009726154
-0.17127083 -0.12447689 0.065275066 0.106340185 0.088534035 0.04659375 0.19445768 -0.07236706
0.15027204 -0.07986306 0.0031713378 -0.0131099755 -0.057762973 0.11849157 -0.009690554 -0.21093038
-0.08970953 -0.08915132 0.009737771 -0.20976523 0.07428532 0.015383537 0.13493107 -0.14011003
0.013171035 -0.04633349 0.1787717 0.012926592 -0.054305222 -0.11048733 0.056334164 0.2340107
-0.013322774 -0.09185849 -0.0382428 0.061781254 -0.06081382 -0.0036959385 0.07004666 -0.085041106
0.10388873 -0.18428184 0.2427703 -0.14506465 0.24813236 -0.22409555 -0.07419298 0.18497998
-0.113205254 -0.15515551 -0.0948944 -0.019557903 0.056290526 -0.037092566 -0.08803276 0.06818229
0.042302202 -0.0253015 -0.16416498 0.06930662 -0.011091106 -0.16647305 0.12968399 -0.10663514
0.042610876 -0.042748734 -0.1621991 0.10864154 0.029471206 0.029853584 -0.037262823 -0.07553048
0.07746182 0.20411734 -0.08736908 0.081394635 -0.18885006 -0.05484313 0.043408036 0.07228022
0.18679251 -0.17427722 -0.06743172 0.077860594 -0.029195786 0.03351206 -0.12213952 0.058793798
0.07901382 0.043350205 0.14320092 0.15652335 -0.0650537 -0.104935385 0.014030836 0.03922589
0.06464557 0.09318332 0.18189877 0.16160041 -0.047093764 0.01131579 0.072744824 -0.018059364
-0.10433221 0.09651379 -0.16884583 -0.12341966 0.06603656 -0.07003897 -0.20032245 -0.01783279
-0.021086028 0.05642001 0.11006521 -0.058346387 -0.014310341 0.06955476 0.007776533 0.039262068
0.028135065 -0.04665687 -0.03345168 -0.011460662 -0.17618273 0.1158695 -0.0011022276 0.15049918
0.19602518 0.06504177 -0.17816666 -0.01699215 -0.029587967 -0.017205814 -0.07981137 0.116545826
0.112316914 0.093409106 -0.08319513 0.09748314 0.006492057 -0.057945114 0.049561914 0.021721985
0.09093066 0.03721221 -0.080786735 -0.03626013 -0.022996025 -0.09210602 -0.06779319 -0.1315433
0.06333217 -0.018708445 -0.07727813 0.022932991 0.021419583 0.1499133 0.19448145 0.19717157
0.28802222 0.09976989 -0.04739558 0.14372337 0.11975159 0.14967743 -0.065049 -0.025842164
0.066941686 0.05973263 0.05913808 -0.16764492 -0.037659116 -0.1719802 0.21061796 -0.119444214

encoder.0.conv.0.bias f4 [80]
00000000: b7e9 d9ba b53c 3f3d 6bcf 9a3d 5ae1 f7bd
00000010: 8293 d03d 25d8 203c 5265 c1bc b2f6 5b3e
00000020: 0b74 16be 8aa2 333c 8794 0dbc 16ad c83c
00000030: 98f7 0fbe abd5 fbbd f728 e73c eb8a 64be
00000040: 40d9 553d e99b 39bc 3339 4ebe 1b77 b13c
00000050: b57e 75bd abb8 0e3e ee7b 5a3e d878 02be
00000060: 5633 423e f17f 7b3d 065e 693c bf5a 393c
00000070: 2bcb a5bd 9121 10be 7399 043c b550 84bc
00000080: d8c1 91bd f7b3 c93c 42e8 ca3d 6c9a 96bd
00000090: 9799 ffbd 3b8d 57be 8bfd dd3d 0a93 ef3d
000000a0: d372 1fbc b874 4fbd 34b7 82bd 1eb1 613e
000000b0: 1023 863d 82c9 32bd b85d 273d ff32 00be
000000c0: 034f eb3d b825 233e 698d 593d 47e5 093e
000000d0: 6b99 f3bd fabc f03c c8ea a83c 7c7a 4c3d
000000e0: 634b a3bd 2f28 4a3e a617 4abc c893 633e
000000f0: 3eaa 183e 717d 6e3a 588e 1abd a1d5 c03b
00000100: 9d84 8fbd 0cc4 5f3e 1039 3b3d 43c6 f83d
00000110: 2396 383d c476 23be ee8f 08be c854 efbd
00000120: 8be9 573d 0040 3f3e 483f c3bd 4333 ab3d
00000130: a3b1 8a3d 9e7d c5bd cf86 8f3d 6c9e 293d
-0.0016625439 0.046688754 0.07559093 -0.12103529 0.10184385 0.009817158 -0.023607884 0.21480826
-0.14692704 0.010964045 -0.008641369 0.024496596 -0.14059293 -0.12296613 0.028217776 -0.22318618
0.05220914 -0.011328676 -0.20139007 0.02166324 -0.05993529 0.13937633 0.21336338 -0.1274141
0.18964896 0.06140131 0.014243608 0.011313139 -0.08095392 -0.14075305 0.008093226 -0.016151765
-0.07117051 0.024621947 0.09907581 -0.073536724 -0.12480467 -0.21049969 0.10839375 0.11697967
-0.009731966 -0.05064842 -0.063825995 0.22040221 0.065496564 -0.043649204 0.04086086 -0.12519453
0.1148968 0.15932357 0.053113375 0.13466369 -0.118944965 0.029386986 0.020619765 0.049921498
-0.07973363 0.19741891 -0.01233474 0.22224343 0.14908692 0.0009097672 -0.037733406 0.0058848416
-0.07007716 0.2185213 0.045708716 0.121471904 0.045065057 -0.15963274 -0.13336155 -0.116860926
0.05271296 0.18676758 -0.09533554 0.08359387 0.06772163 -0.096431 0.070081346 0.04141085
