exomy/config/best_run_no_obstacles405k/checkpoints/465000_policy.pt (torch, 723582 bytes, 13 tensors)

log_std_parameter f4 [2]
0	0xbfb76225	-1.4326826
1	0xbf47f8a3	-0.78113765

network.0.conv.0.weight f4 [512, 5]
0	0x3eb7dd5a	0.35911065
1	0xbe5b113a	-0.2139329
2	0x3c4288e9	0.011873462
3	0xbda6b3cc	-0.08139762
4	0x3e2a012b	0.16602008
5	0x3e22a68e	0.15883848
6	0x3e03f297	0.1288551
7	0x3e17855a	0.14796963
8	0xbd9e401b	-0.07727071
9	0xbc3c4d47	-0.011493034
10	0xbca494f1	-0.020090552
11	0x3bef15bd	0.0072962926
12	0x3c24f37c	0.010067817
13	0xbe8220ac	-0.25415552
14	0x3d6bd76b	0.057578485
15	0x3d8a5305	0.06754116
16	0xbdef61f0	-0.11688602
17	0x3e335443	0.17512612
18	0x3d819791	0.06327737
19	0x3e2e2d26	0.1700941
20	0x3d55a571	0.05215973
21	0xbc4ab266	-0.012371635
22	0x3da8dccd	0.082452394
23	0x3e456047	0.19275008
24	0x3e00d5a9	0.12581505
25	0x3e82084e	0.2539696
26	0x3edeeaed	0.4353861
27	0xb84fd68a	-4.955245e-05
28	0xbe301fdd	-0.17199655
29	0xbce3dbb5	-0.027814725
30	0xbe86dab9	-0.26338747
31	0xbd017a26	-0.03161063
32	0x3d458021	0.048217896
33	0xbcb17c32	-0.021665666
34	0xbd78c3c7	-0.060733583
35	0x3bd23656	0.0064151688
36	0xbd092440	-0.033481836
37	0x3d46532a	0.048419155
38	0x3dc2becd	0.095090486
39	0xbd96cc60	-0.073632
40	0x3d500d8b	0.050794166
41	0xbf003017	-0.5007338
42	0xbbd01cd1	-0.0063510914
43	0xbd335b0f	-0.043788012
44	0xbca7903c	-0.020454518
45	0xbe47a1eb	-0.1949536
46	0xbe4c93de	-0.19978282
47	0xbe39d005	-0.1814576
48	0x3d008233	0.031374168
49	0xbe40c25b	-0.1882414
50	0x3c83083b	0.015995136
51	0x3ed87415	0.42276064
52	0x3d9bcaba	0.076070264
53	0x3e2daa9c	0.16959614
54	0x3b419ab9	0.0029541685
55	0xbd6b023c	-0.057375178
56	0x3e74135e	0.23835513
57	0xbcd15207	-0.025551809
58	0x3e0d5fa1	0.13806011
59	0xbd90353e	-0.07041405
60	0x3e883258	0.2660091
61	0xbdbe2c6c	-0.092858166
62	0x3dc62b11	0.09676183
63	0x3cfffb3e	0.031247731
64	0x3e029727	0.12752973
65	0x3e5b9735	0.214444
66	0xbebfaa75	-0.37434736
67	0x392d0d4a	0.00016503516
68	0x3e4804a4	0.1953302
69	0x3c03975f	0.008031695
70	0xbdc70eab	-0.097195946
71	0x3c11fe94	0.008910794
72	0x3c592f82	0.013255956
73	0x3daaa968	0.08333093
74	0x3e1bfd23	0.15233283
75	0xbe3bb868	-0.18332064
76	0x3ecfd90b	0.40595278
77	0x3d3c2182	0.045930393
78	0x3e20f4c1	0.15718366
79	0xbd07e24e	-0.033174805
80	0x3e73d313	0.23810987
81	0x3f0a1a3c	0.5394628
82	0x3d1f32fa	0.038866974
83	0xbe18cbd4	-0.14921504
84	0x3e17767b	0.1479129
85	0xbe339239	-0.17536248
86	0x3e06b6f1	0.13155724
87	0x3da55a66	0.08073883
88	0xbdeae016	-0.11468522
89	0x3d464703	0.048407566
90	0x3e855bd6	0.26046628
91	0x3e2d144a	0.16902271
92	0xbd832761	-0.06403995
93	0x3c1a5f23	0.009422096
94	0x3d13a9f3	0.036050748
95	0xbf015391	-0.5051814
96	0xbebd774d	-0.37005082
97	0xbc460b85	-0.012087707
98	0x3d53b60a	0.051687278
99	0xbd196439	-0.037449095
100	0xbe707813	-0.23483305
101	0x3d118519	0.035527322
102	0xbda106bc	-0.078626126
103	0xbc825edd	-0.015914375
104	0x3d9fcfe5	0.078033246
105	0xbea79f8c	-0.32738912
106	0x3e97d582	0.2965508
107	0xbd816727	-0.06318503
108	0xbe86b49d	-0.26309672
109	0x3e64fad7	0.22361313
110	0xbdac9108	-0.084261
111	0xbe0f9a11	-0.14023615
112	0x3d6e39d0	0.058160603
113	0x3d40abef	0.04703897
114	0xbc10d9f6	-0.008841028
115	0xbe1eb554	-0.15498859
116	0x3ed30431	0.41214135
117	0xbc540b42	-0.012942137
118	0x3be183f8	0.006882187
119	0xbd2c9d8c	-0.042142436
120	0x3ec759c7	0.38935682
121	0x3df73eec	0.12072548
122	0x3de0b955	0.10972849
123	0xbc952dbe	-0.018210288
124	0xbdeb35db	-0.114848815
125	0xbe7971d4	-0.24359828
126	0xbef1f786	-0.47259158
127	0xbccefae4	-0.025266118
128	0x3d9a8465	0.075447835
129	0xbd89964d	-0.06718121
130	0xbed818e2	-0.42206484
131	0x3d4966fd	0.049170483
132	0x3df81d21	0.12114931
133	0xbd016cd2	-0.03159792
134	0xbc87bb37	-0.016568763
135	0xbed545dd	-0.41654864
136	0x3ef52152	0.47876984
137	0xbd1cf738	-0.038321704
138	0xbdb4280f	-0.08796703
139	0xbd90476f	-0.07044875
140	0x3e5a98e9	0.21347393
141	0x3e0189bf	0.12650202
142	0xbd4707e7	-0.04859152
143	0x3e165aa9	0.14683022
144	0xbc740d73	-0.014895785
145	0x3d71b282	0.05900813
146	0x3e98bba8	0.2983067
147	0x3dc2a2c5	0.09503702
148	0x3d6d1754	0.057883576
149	0xbd1ae6e2	-0.037817843
150	0xbe2ef805	-0.170868
151	0x3e021304	0.12702566
152	0x3cf7f0df	0.030266223
153	0xbe1e0f3c	-0.15435499
154	0xbe51ce63	-0.20488887
155	0xbe92e07d	-0.28686896
156	0xbe8b8185	-0.27247253
157	0x3db4c612	0.088268414
158	0x3d8c88f9	0.06862063
159	0xbe068500	-0.13136673
160	0xbe9ccf42	-0.30626875
161	0xbe7ee784	-0.24893004
162	0x3c92c252	0.017914925
163	0xbe2e9513	-0.17049055
164	0x3dc6f236	0.09714167
165	0xbea25028	-0.3170178
166	0xbd45947b	-0.048237305
167	0x3c8d33c3	0.017236596
168	0x3c9b9048	0.018989697
169	0xbdbac8c3	-0.091203235
170	0x3ca807c4	0.020511515
171	0x3ef827c9	0.48467854
172	0x3bd0279d	0.0063523785
173	0xbcf643fd	-0.030061716
174	0xbcf6317b	-0.030052891
175	0x3eb04b43	0.3443242
176	0x3dbb757b	0.09153267
177	0x3d335c76	0.04378935
178	0xbd92e970	-0.07173431
179	0xbd8ecca7	-0.06972628
180	0xbe926ed2	-0.28600174
181	0x3f012001	0.5043946
182	0xbd2f0645	-0.04273059
183	0xbe055fd2	-0.13024834
184	0x3e612a63	0.21988826
185	0x3ebb35ac	0.36564386
186	0x3cf4ce9a	0.029883672
187	0xbd00ea62	-0.031473525
188	0x3d759d9f	0.059964772
189	0x3c847f86	0.01617409
190	0xbe2a4d31	-0.16631009
191	0xbea04ee1	-0.3131018
192	0x3cd477d6	0.025936048
193	0xbce5b485	-0.02804018
194	0x3cfe277f	0.031024693
195	0xbd25736f	-0.04039329
196	0xbf2bf9b6	-0.67177904
197	0xbd92086d	-0.07130513
198	0xbd3bd8a7	-0.045860913
199	0x3e03aa23	0.12857871
200	0x3dc0ad58	0.09408063
201	0x3eb9c19a	0.3628052
202	0x3d1071f1	0.035264913
203	0x3de44140	0.11145258
204	0x3cb4a159	0.022049593
205	0xbe31d5e1	-0.17366745
206	0xbeb17c41	-0.3466511
207	0x3cb2bd0f	0.021818666
208	0xbded18a0	-0.115769625
209	0xbd9c773e	-0.07639931
210	0xbe107646	-0.14107618
211	0xbeb90977	-0.36140034
212	0xbd4edb00	-0.050501823
213	0xbd20dc1f	-0.039272424
214	0xbe52dcb0	-0.20591998
215	0x3ebf5bfd	0.3737487
216	0x3efca9e8	0.49348378
217	0x3ba7f4b9	0.0051256088
218	0xbd95fb0b	-0.07323273
219	0x3de15468	0.11002427
220	0xbe96c730	-0.29448843
221	0xbe13b3fa	-0.14424124
222	0x3dbd4bbe	0.09242962
223	0x3db7ad44	0.08968595
224	0xbe389b10	-0.18027902
225	0x3ddfefdf	0.10934424
226	0x3e36b51e	0.17842528
227	0x3d504010	0.050842345
228	0xbd9121fe	-0.070865616
229	0x3da371be	0.07980679
230	0x3edc50e1	0.43030456
231	0xbe74a291	-0.23890139
232	0xb9e4faa8	-0.00043674302
233	0xbd9782e4	-0.07398012
234	0xbdfa74bd	-0.12229297
235	0x3e9edd10	0.31028032
236	0xbddcb3e4	-0.10776499
237	0xbd3c2834	-0.04593678
238	0xbd82dbc8	-0.06389576
239	0x3d995d29	0.07488472
240	0xbe292e15	-0.16521485
241	0x3e3b1898	0.182711
242	0x3ccb2fdc	0.024803095
243	0xbdd826d6	-0.10554282
244	0xbd84442b	-0.064583145
245	0xbeb74293	-0.3579298
246	0xbed4f21b	-0.41590962
247	0xbbb85d85	-0.005626383
248	0xbd82a633	-0.06379356
249	0xbd3ac5e3	-0.045598876
250	0x3e7edbb3	0.24888496
251	0x3eb1a4d3	0.34696063
252	0x3ddb93ab	0.10721525
253	0xbe3e5834	-0.18588334
254	0xbe638397	-0.22218166
255	0x3e8c47cd	0.2739853

network.0.conv.0.bias f4 [512]
0	0x3d50686a	0.050880827
1	0xbe2dab31	-0.16959836
2	0xbd953946	-0.07286315
3	0xbdc05097	-0.09390371
4	0xbe9f5be0	-0.31124783
5	0x3ceae4f2	0.028673623
6	0xbe4f2a33	-0.20230941
7	0xbe4bc3cf	-0.19898914
8	0x3dba9f45	0.091124095
9	0xbd73cab1	-0.059519473
10	0xbd529cbf	-0.051419016
11	0xbd2bf757	-0.04198393
12	0xbdc81381	-0.09769345
13	0x3cf4edf0	0.029898614
14	0xbde67647	-0.11253028
15	0x3d95a11f	0.07306122
16	0xbc57edf5	-0.013179292
17	0xbe04b84c	-0.12960929
18	0xbb0467ce	-0.0020203474
19	0x3d878ec2	0.06619026
20	0x3e0b317a	0.13593093
21	0x3cc2b259	0.023766683
22	0xbe1430a5	-0.14471681
23	0x3c9fd614	0.01951126
24	0x3dfb8f7c	0.12283227
25	0x3d763294	0.06010683
26	0x3c7edd79	0.015555733
27	0x3d41ab27	0.047282364
28	0xbe021e0d	-0.12706776
29	0xbd9f5ee7	-0.07781773
30	0x3c557d36	0.013030341
31	0xbe1a16d5	-0.15047772
32	0x3dbaae45	0.091152705
33	0x3c020ea6	0.007938063
34	0x3d242eac	0.040083572
35	0xbcde165e	-0.027110275
36	0x3bdaf2cd	0.006681776
37	0xbd24ff53	-0.04028256
38	0xbc938cdb	-0.018011501
39	0x3ccdc3c0	0.025117755
40	0x3d9cde2c	0.076595634
41	0x3dcd6c15	0.10030381
42	0xbdebc12c	-0.11511454
43	0x3d09ade5	0.033613104
44	0xbe5551c8	-0.20831978
45	0x3db32dad	0.08748946
46	0x3c1476fc	0.009061571
47	0xbd9cc1cd	-0.07654152
48	0xbb843246	-0.0040343134
49	0x3dabd7ef	0.083907954
50	0xbd9d42c2	-0.07678749
51	0x3d25df2a	0.04049603
52	0x3d41a41b	0.047275644
53	0x3dc5f8b3	0.09666576
54	0x3d950cc2	0.07277824
55	0x3e080b93	0.13285665
56	0x3c7f45a5	0.015580569
57	0xbd1c4523	-0.03815187
58	0x3ca4c167	0.020111753
59	0xbe51dbb9	-0.20493974
60	0x3d76dbc5	0.060268182
61	0x3bd82fab	0.0065974793
62	0x3df53c08	0.11974341
63	0x3d4f3037	0.05058309
64	0x3e26db75	0.16294654
65	0xbcb87411	-0.022516282
66	0x3d6d59dc	0.057947025
67	0x3d5dce97	0.054152098
68	0xbd9644b9	-0.073373266
69	0x3daad3a7	0.08341151
70	0xba1274e3	-0.00055868755
71	0x3ce7180c	0.028209709
72	0xbdb0ad02	-0.086267486
73	0xbcd2fedc	-0.025756292
74	0xbdec20d9	-0.11529703
75	0xbc15cab3	-0.009142566
76	0xbe473b66	-0.19456252
77	0xbc96e7b6	-0.018421035
78	0xbd82d248	-0.06387764
79	0xbe5f1d2e	-0.21788475
80	0x3cbbfed3	0.022948658
81	0x3d0edcce	0.034878545
82	0xbd4854dc	-0.048909053
83	0x3e26e325	0.16297586
84	0x3e0491a7	0.12946187
85	0x3cb02a5e	0.021504577
86	0x3d4ba41d	0.049717057
87	0xbd1ed767	-0.038779642
88	0xbc91f341	-0.017816188
89	0xbe33bbc2	-0.17552093
90	0x3bf67016	0.007520686
91	0xbe19b16e	-0.1500909
92	0x3d49128f	0.049089964
93	0xbe875503	-0.26432046
94	0xbd847b72	-0.06468858
95	0x3cf37ff7	0.029724104
96	0x3da1de56	0.07903735
97	0x3ddef430	0.10886419
98	0xbd31ad61	-0.043378238
99	0xbce9e0c8	-0.028549567
100	0x3d913a2d	0.07091174
101	0x3d65e5fa	0.056127526
102	0x3dcf5fbb	0.10125681
103	0xbe25fb0f	-0.16209053
104	0x3c05af3d	0.008159456
105	0x3d0ca566	0.034337424
106	0xbd5eeefd	-0.054427136
107	0xbd6a336a	-0.05717794
108	0xbdaa895a	-0.08326979
109	0xbdcdf50c	-0.100565046
110	0x3c0d09f2	0.008608328
111	0xbaf8cf91	-0.0018982758
112	0xbda55e3b	-0.08074614
113	0x3dc279a1	0.09495855
114	0x3c1a6692	0.009423869
115	0xbe2529c9	-0.16129221
116	0x3d3feee1	0.046858672
117	0xbd4088fe	-0.047005646
118	0x3c8e4852	0.01736847
119	0x3d3521b4	0.044221595
120	0xbd9cbfda	-0.0765378
121	0xb9fe3a6e	-0.0004849019
122	0x3d8fe267	0.07025605
123	0xbb9756aa	-0.0046184855
124	0xbe28d52a	-0.16487566
125	0xbe1bd131	-0.15216519
126	0xbe4944b1	-0.1965511
127	0x3d8ea758	0.06965512
128	0xbe0bcb89	-0.13651861
129	0x3db34d9d	0.08755038
130	0x3cfd90ef	0.030952899
131	0xbe0f34bc	-0.1398496
132	0xbd55d31e	-0.05220329
133	0x3ca18a50	0.019719273
134	0x3ce6db37	0.028180702
135	0x3ca44a9c	0.020055108
136	0x3ca48fea	0.020088155
137	0x3c9b20d1	0.018936547
138	0x3be11bed	0.006869784
139	0xbc4d2780	-0.012521625
140	0xbe3cbcb2	-0.18431357
141	0xbe4bed18	-0.19914663
142	0x3d368450	0.044559777
143	0xbd995eb4	-0.07488766
144	0xbd329e94	-0.043608263
145	0xbd2deff9	-0.042465184
146	0xbd67057b	-0.05640171
147	0xbde483a8	-0.11157924
148	0x3d339c88	0.04385045
149	0xbb2a3901	-0.0025973918
150	0xbc8719a9	-0.016491728
151	0xbc5f092b	-0.013613026
152	0xbe4e1bfb	-0.20127861
153	0xbd171e77	-0.036894288
154	0xbe1445e1	-0.14479782
155	0x3da244f0	0.07923305
156	0x3c30ceed	0.010791522
157	0x3d18989e	0.037254922
158	0xbd91f16c	-0.07126126
159	0xbdf03018	-0.11727923
160	0xbd87021e	-0.06592201
161	0x3c3e887b	0.011629219
162	0xbdab9a38	-0.08379024
163	0x3e3c32c1	0.18378736
164	0xbd7767be	-0.06040167
165	0xbce6a687	-0.028155578
166	0x3c9d9945	0.019238124
167	0x3e2c5d36	0.16832432
168	0xbc14f93d	-0.009092626
169	0xbe633295	-0.22187264
170	0xbd5a5a2b	-0.053308647
171	0xbe354683	-0.1770268
172	0x3e30b0c7	0.17254935
173	0xbe2d5471	-0.16926743
174	0xbdd7a4e9	-0.10529501
175	0xbd91efbb	-0.07125803
176	0xbc15ea71	-0.0091501335
177	0xbc0a15c7	-0.008428044
178	0x3bc10777	0.0058907825
179	0x3bc29569	0.0059382212
180	0xbd164a2c	-0.03669183
181	0x3d6a4078	0.05719039
182	0xbd2a3a66	-0.0415596
183	0xbe64e452	-0.22352722
184	0xbe2521b8	-0.16126144
185	0x3d5eba6b	0.054377
186	0xbda9c909	-0.082902975
187	0xbe31c422	-0.17359975
188	0x3dc3bf8f	0.09558021
189	0xbe28ce51	-0.16484953
190	0x3da4277a	0.08015342
191	0xbe128616	-0.14308962
192	0xbe126373	-0.1429575
193	0xbe33cb70	-0.17558074
194	0xbd2ee6ae	-0.042700462
195	0x3ddfed1d	0.10933898
196	0xbe1d5ca0	-0.15367365
197	0x3ca1c111	0.019745382
198	0x3bb44410	0.0055012777
199	0xbd2583c2	-0.040408857
200	0x3cfa7ac6	0.030576121
201	0xbe90f6e5	-0.28313366
202	0x3c83e5b5	0.016100744
203	0xbd0eddb1	-0.03487939
204	0xbce6fa2a	-0.02819546
205	0xbc0b2b61	-0.008494229
206	0xbc1eb772	-0.009687291
207	0xbdf362f8	-0.11884111
208	0xbe0a8c3b	-0.13530056
209	0xbe1b1b83	-0.15147214
210	0xbe89021f	-0.2675943
211	0xbe4c2d23	-0.19939093
212	0xbd2d6494	-0.042332247
213	0xbdc24115	-0.0948507
214	0x3d1b50ff	0.03791904
215	0x3d9d397c	0.0767698
216	0x3e001067	0.12506257
217	0x3d636805	0.055519123
218	0x3d49df4b	0.049285214
219	0xbe08a5ca	-0.13344494
220	0xbdb5cacc	-0.08876571
221	0xbd963cc9	-0.073358126
222	0xbe2ed119	-0.17071952
223	0xbe76ecdd	-0.24113794
224	0xbe2a629a	-0.16639176
225	0x3d145dd8	0.03622231
226	0xbd414449	-0.047184262
227	0xbdce9dcb	-0.1008869
228	0xbe0572c3	-0.1303206
229	0x3cb0e844	0.021595128
230	0xbe275a08	-0.16342938
231	0xbd1ab5c6	-0.03777101
232	0xbe69f4e6	-0.22847328
233	0x3d686ed1	0.056746308
234	0xbe379131	-0.1792648
235	0xbe51843b	-0.20460598
236	0x3dbec439	0.0931477
237	0xbd024ed2	-0.03181345
238	0xbe01bb23	-0.12669043
239	0x3b5a1a0e	0.003327969
240	0xbbadf090	-0.0053082183
241	0x3d2e9d64	0.04263057
242	0xbe41ed11	-0.1893809
243	0xbd06d923	-0.03292192
244	0x3b9199d9	0.004443389
245	0xbd0f1d92	-0.03494031
246	0xbb46248b	-0.0030234184
247	0x3d04f5a3	0.03246082
248	0x3bd92505	0.0066267275
249	0xbe2c7408	-0.16841137
250	0xbbccf11a	-0.0062543275
251	0xbddc53f7	-0.107582025
252	0xbd1632b3	-0.036669444
253	0xbcd26e51	-0.025687369
254	0xbe18220d	-0.1485674
255	0xbe018a43	-0.12650399

network.1.conv.0.weight f4 [256, 512]
0	0x3c978913	0.01849798
1	0xbe3302d8	-0.17481554
2	0xbd5d556a	-0.054036535
3	0x3d262975	0.04056688
4	0xbae351fb	-0.0017343158
5	0xbdb3b5fc	-0.08774945
6	0xbe179e34	-0.14806443
7	0xbd370de5	-0.044690985
8	0xbca8c6de	-0.02060264
9	0xbdcc0250	-0.099613786
10	0xbe32ae9f	-0.17449425
11	0x3db1b041	0.08676196
12	0x3e11ad71	0.14226319
13	0xbd83954c	-0.064249605
14	0xbdc028b1	-0.09382761
15	0x3eb08aed	0.34480992
16	0xbe6738b8	-0.2258023
17	0xbc633833	-0.013868379
18	0x3cac2542	0.02101386
19	0x3e3cc4fa	0.18434516
20	0x3dcae6db	0.099073134
21	0x3e8866b8	0.26640868
22	0x3d7645db	0.060125213
23	0x3cf28603	0.029604917
24	0x3e1e5c30	0.15464854
25	0xbd9464a3	-0.072457574
26	0x3e4f2838	0.20230186
27	0x3e098a4b	0.13431661
28	0xbde93781	-0.1138754
29	0xbd010369	-0.031497393
30	0xbe207cbf	-0.15672587
31	0xbc80f4eb	-0.015741786
32	0x3de5ae0f	0.1121484
33	0x3cf91bae	0.030408707
34	0x3cb7c613	0.022433316
35	0x3d5ac329	0.053408775
36	0xbd6552c8	-0.05598715
37	0xbe46da56	-0.19419226
38	0xbca13cf0	-0.019682378
39	0xbe85d385	-0.2613794
40	0x3cce2990	0.025166303
41	0x3e909dfc	0.28245533
42	0xbd76e06b	-0.060272615
43	0xbeb1c8a8	-0.347234
44	0x3da88678	0.08228773
45	0xbd793012	-0.06083686
46	0xbe11778d	-0.14205761
47	0xbe2b86eb	-0.16750686
48	0x3d09dc8e	0.033657603
49	0x3b0bda60	0.0021339878
50	0x3ceeaa75	0.029134015
51	0xbd903ec1	-0.07043219
52	0x3e158da9	0.1460482
53	0x3d4e7924	0.050408497
54	0x3e986d1a	0.29770738
55	0xbd2fdb43	-0.042933714
56	0xbe9ed366	-0.3102066
57	0xbe656b60	-0.22404242
58	0xbe57d7c8	-0.21078408
59	0xbed8e48f	-0.42361876
60	0xbd6d8103	-0.057984363
61	0x3e055740	0.13021564
62	0xbd00b308	-0.031420738
63	0xbcf5a7f3	-0.029987311
64	0x3b69de44	0.003568546
65	0xbe850a57	-0.2598445
66	0xbd8ca3ee	-0.068672046
67	0x3ccc8ecf	0.02497044
68	0xbd50936d	-0.050921846
69	0x3aee8f53	0.0018200673
70	0x3dfb0646	0.12257056
71	0xbd574819	-0.052558992
72	0x3d653e20	0.05596745
73	0x3e99a2a3	0.30006894
74	0xbdacee62	-0.084439054
75	0xbe548a44	-0.20755869
76	0xbe5b5637	-0.21419607
77	0x3c7419e8	0.014898755
78	0x3dbe08fd	0.09279058
79	0x3e047b57	0.12937675
80	0x3ca77b7e	0.020444628
81	0xbe03a88e	-0.12857267
82	0xbe64351a	-0.22285882
83	0x3e00270d	0.12514897
84	0xbdeb5556	-0.11490886
85	0x3dc9ed18	0.09859675
86	0xbe727f44	-0.2368136
87	0xbd3222e0	-0.04349029
88	0x3e3a98e5	0.18222387
89	0x3e716158	0.2357229
90	0x3e71fac6	0.23630819
91	0x3dc31815	0.09526078
92	0x3eac4aa9	0.3365071
93	0xbe8cb6d4	-0.27483237
94	0x3d8504d2	0.0649506
95	0x3c4ad629	0.012380161
96	0xbdbd255e	-0.09235643
97	0x3e0c8ddc	0.1372599
98	0xbd208a7f	-0.03919458
99	0xbe372800	-0.17886353
100	0x3dd01cb8	0.10161728
101	0x3c237441	0.009976448
102	0x3d7dd6b2	0.061972328
103	0xbe4aa13a	-0.19788066
104	0x3e6bb1b9	0.23017015
105	0xbd20fe37	-0.03930494
106	0xbe294fab	-0.16534297
107	0xbb378cd1	-0.0028007517
108	0x3e71ae2e	0.236016
109	0x3deb8ade	0.11501096
110	0x3e72cf8f	0.2371199
111	0x3d66dba3	0.056361806
112	0xba0b6280	-0.0005317107
113	0x3dec3918	0.11534327
114	0x3e83b989	0.2572749
115	0xbe50d9b6	-0.2039555
116	0x3da27aae	0.079335555
117	0xbe1eb55f	-0.15498875
118	0xbdf9181a	-0.121628
119	0x3d4f4a36	0.050607882
120	0xbd78aaa5	-0.060709614
121	0x3e5f6b6f	0.21818326
122	0xbdb7bb64	-0.08971289
123	0xbd4eed44	-0.050519243
124	0xbe3df0e5	-0.18548925
125	0xbea79236	-0.32728738
126	0xbecfe81c	-0.40606773
127	0xbaec3150	-0.0018020067
128	0x3c3c0019	0.011474633
129	0xbc88a280	-0.016679049
130	0x3e59e607	0.21279155
131	0xbcadd07e	-0.02121758
132	0xbc982e66	-0.018576812
133	0xbd1a9457	-0.037739124
134	0xbdcd7254	-0.10031572
135	0x3d36c8ce	0.044625096
136	0x3d30e1e4	0.043184176
137	0x3daa60f8	0.083192766
138	0xbcba748f	-0.022760658
139	0x3c64f254	0.013973791
140	0x3c476c3e	0.012171803
141	0x3d11af56	0.035567604
142	0xbe67c9c9	-0.22635569
143	0x3dddd49a	0.10831566
144	0x3d349cfe	0.044095032
145	0xbdc6fed4	-0.09716573
146	0xbe10d6f7	-0.14144503
147	0xbd91df45	-0.071226634
148	0x3e3b2539	0.18275918
149	0xbda8a3e6	-0.08234386
150	0x3c5b1446	0.013371533
151	0x3c8388e3	0.016056484
152	0x3d73cedb	0.059523445
153	0x3e2d4e53	0.1692441
154	0x3cb6cb47	0.022313727
155	0x3cbe322d	0.023217285
156	0x3e4d5e17	0.20055424
157	0x3dccdf0d	0.10003481
158	0xbe0cba81	-0.1374302
159	0x3be32fea	0.006933202
160	0x39093bd9	0.00013087633
161	0x3cd707ce	0.026248839
162	0x3d0b74af	0.034046825
163	0x3d28d8e0	0.041222453
164	0xbdf80b05	-0.12111477
165	0x3e3cdc81	0.1844349
166	0x3dce6774	0.10078326
167	0x3ddaa776	0.10676472
168	0xbc50a796	-0.012735268
169	0xbdad0238	-0.08447689
170	0x3c0b77bf	0.008512436
171	0xbe2babe8	-0.16764796
172	0x3e118f59	0.14214839
173	0xbd15c2dd	-0.03656279
174	0x3cbb12ae	0.022836056
175	0xbe2078ae	-0.15671036
176	0xbd3c51e2	-0.045976527
177	0x3e3c9b20	0.1841855
178	0x3d8e2236	0.06940119
179	0xbc44933b	-0.011997993
180	0xbdc7b27f	-0.09750842
181	0xbc83bdff	-0.016081808
182	0x3bc5efb8	0.0060405396
183	0xbe44fe54	-0.19237643
184	0xbe8a2f59	-0.26989248
185	0x3db04d7c	0.08608529
186	0x3d1385c1	0.03601623
187	0xbe030f0c	-0.12798709
188	0xbce5c8dd	-0.02804988
189	0x3d201373	0.03908105
190	0x3ce78f49	0.028266566
191	0xbe5d2af7	-0.21598421
192	0xbe9fc640	-0.3120594
193	0x3cc2a4b1	0.023760172
194	0x3d8b3bce	0.06798516
195	0x3c0d6f4c	0.008632492
196	0x3dbf853b	0.093515836
197	0xbd24beae	-0.04022091
198	0x3e1b074f	0.15139507
199	0xbd894422	-0.067024484
200	0xbd2c2fc8	-0.042037755
201	0xbe31b389	-0.17353643
202	0xbd487250	-0.048937142
203	0xbdb52af5	-0.08846084
204	0x3d918987	0.071063094
205	0x3dd371fd	0.10324476
206	0x3e267a43	0.16257577
207	0xbefc46f4	-0.49272883
208	0x3cddb94e	0.0270659
209	0xbe90e3c1	-0.28298762
210	0x3ba34922	0.0049830833
211	0xbe840b19	-0.25789717
212	0x3dc5f07d	0.0966501
213	0x3c9cfd4c	0.01916375
214	0xbd080d22	-0.03321565
215	0x3d05386c	0.03252451
216	0x3d8b1745	0.06791548
217	0x3e0e264c	0.13881797
218	0x3d86942c	0.0657123
219	0x3d288cc9	0.04114989
220	0x3d81d1ed	0.06338868
221	0xba111595	-0.0005534527
222	0xbdec8318	-0.11548442
223	0xbd31334c	-0.04326181
224	0xbe08d132	-0.13361052
225	0x3c5c1292	0.013432162
226	0x3d8c2418	0.06842822
227	0xbe5a171b	-0.21297877
228	0xbe467770	-0.193815
229	0xbe2b4a08	-0.1672746
230	0xbc8eb8b8	-0.017422065
231	0x3dbf4018	0.09338397
232	0xbcfd3003	-0.030906683
233	0x3cbba824	0.022907324
234	0xbcd6ffba	-0.026244987
235	0xbbee1ead	-0.0072668404
236	0x3b13f002	0.0022573476
237	0x3cea7829	0.02862175
238	0xbdd2a73f	-0.10285806
239	0x3d255244	0.040361658
240	0x3d4430f6	0.047898255
241	0x3df26a24	0.11836651
242	0xbdc35eec	-0.09539589
243	0x3d9306cd	0.071790315
244	0xbda701a8	-0.08154613
245	0xbdda178d	-0.10649023
246	0x3d2a85d2	0.041631527
247	0xbe00335b	-0.1251959
248	0xbcd706e6	-0.026248407
249	0xbec2f420	-0.38076878
250	0x3d90c61e	0.07069038
251	0xbdee03ce	-0.116218194
252	0x3e656be6	0.22404441
253	0xbe0fe986	-0.14053926
254	0xbdad68c3	-0.08467247
255	0x3d728120	0.059205174

network.1.conv.0.bias f4 [256]
0	0xbd6513ba	-0.055927016
1	0xbce91738	-0.028453454
2	0x3d241082	0.040054806
3	0x3c59d7d4	0.013296086
4	0xbbf79cec	-0.0075565483
5	0x3d952efc	0.07284352
6	0x3d41c840	0.047310114
7	0x3daeda55	0.08537737
8	0xbda8c2d9	-0.08240289
9	0x3d331a34	0.04372616
10	0xbc6f7ef3	-0.014617669
11	0xbe2560f9	-0.16150273
12	0x3d73e5ad	0.059545208
13	0xbe01c5b6	-0.12673077
14	0xbde26f7b	-0.110564195
15	0xbdce586c	-0.10075459
16	0xbdd20265	-0.10254363
17	0xba5d9c49	-0.0008453769
18	0x3d69aa9c	0.05704747
19	0xbe2f1e90	-0.17101502
20	0xbdc4f50f	-0.09617054
21	0x3e41ee42	0.18938544
22	0xbda3c59a	-0.07996674
23	0xbd19c010	-0.03753668
24	0xbda4854f	-0.08033239
25	0x3bf9f8cd	0.0076285363
26	0xbe2e1987	-0.17001925
27	0x3cc495d4	0.023997225
28	0xbe120241	-0.14258672
29	0xbc750f9b	-0.014957334
30	0xbe09ea92	-0.13468388
31	0x3bc59b89	0.006030504
32	0xbd9e3f4a	-0.07726915
33	0xbe821d44	-0.25412953
34	0x3e2ae722	0.16689733
35	0xbdc602fb	-0.09668537
36	0xbe7a143d	-0.24421783
37	0xbbebac6a	-0.007192184
38	0x3bccdd47	0.0062519643
39	0xbd346b40	-0.044047594
40	0xbddd2377	-0.1079778
41	0xbe000553	-0.12502031
42	0xbe660c97	-0.2246574
43	0x3d93fbdb	0.07225772
44	0x3cb98992	0.022648606
45	0x3cca7d54	0.024717964
46	0xbdfefb19	-0.12450237
47	0x3c023790	0.007947817
48	0xbd49ceab	-0.04926936
49	0x3cb961f6	0.02262972
50	0xbd7ab201	-0.061204914
51	0x3d7989e6	0.060922526
52	0xbd5a2af5	-0.053263623
53	0xbc6ffb12	-0.014647262
54	0xbd3d149e	-0.04616224
55	0xbad9a083	-0.0016603622
56	0x3c32e691	0.010919229
57	0xbbb1bf5f	-0.0054244245
58	0x3cab13af	0.02088341
59	0x3dde9617	0.10868471
60	0xbe0da04f	-0.13830684
61	0xbd8a6467	-0.067574315
62	0xbc5fc4dd	-0.013657776
63	0x3a4440e1	0.00074864744
64	0x3cbc5fcb	0.022994896
65	0x3c78a35c	0.015175667
66	0x3e15222c	0.14563817
67	0xbd3b9177	-0.045793023
68	0xbd037afe	-0.032099716
69	0xbd98e928	-0.07466346
70	0xbc0bae86	-0.008525496
71	0xbdc74a10	-0.09730923
72	0x3d3be54d	0.045872975
73	0xbde6a060	-0.11261058
74	0xbdebcb3a	-0.11513372
75	0xbc3239bd	-0.010878024
76	0xbcf59c56	-0.029981773
77	0x3c670864	0.014101122
78	0xbb97a73d	-0.0046280907
79	0x3e52008d	0.20508023
80	0xbdf1fb38	-0.11815494
81	0x3d158932	0.036507793
82	0xbe256398	-0.16151273
83	0x3d36e8a9	0.044655476
84	0xbe345f1b	-0.17614405
85	0xbdb083f9	-0.08618922
86	0xbd844b4c	-0.06459674
87	0xbd966792	-0.07343973
88	0x3d45e4d9	0.04831395
89	0xbc6dfb38	-0.014525227
90	0xbc3db63a	-0.011579091
91	0x3deddb6c	0.11614117
92	0x3d646c1c	0.055767164
93	0x3dfb94c9	0.12284238
94	0xbd310b9c	-0.043223962
95	0xbc27fc73	-0.01025306
96	0xbe3c0aef	-0.18363546
97	0xbd65ffc1	-0.05615211
98	0xbd138333	-0.036013793
99	0x3e9ee922	0.3103724
100	0x3d10a03e	0.03530907
101	0xbd8e88ed	-0.0695971
102	0x3d9df808	0.07713324
103	0xbe2ad2d8	-0.16681993
104	0xbe54d6e7	-0.20785104
105	0xbd6baa76	-0.05753561
106	0x3df89aea	0.121389225
107	0xbe30e5c9	-0.17275156
108	0x3d24d3e9	0.040241156
109	0xbd049dc5	-0.032377023
110	0x3df5074b	0.11964282
111	0xbe309beb	-0.17246978
112	0x3d9833ba	0.07431741
113	0x3dea316f	0.1143521
114	0xbddabf87	-0.10681062
115	0x3d499936	0.04921838
116	0x3d6d7fd8	0.05798325
117	0xbce69397	-0.028146548
118	0xbd0f1f39	-0.034941886
119	0x3e0a6f8b	0.13519113
120	0x3aec6d9b	0.0018038036
121	0xbce90830	-0.028446287
122	0x3df6274f	0.12019216
123	0x3ddd2dea	0.10799773
124	0xbdff2977	-0.12459081
125	0xbd33266a	-0.043737806
126	0x3dede95a	0.11616774
127	0xbe6fbe79	-0.23412503
128	0xbd4f8056	-0.0506595
129	0xbde66fb5	-0.11251775
130	0xbe2a1aa8	-0.16611731
131	0x3d2532cc	0.040331647
132	0xbd77c016	-0.06048592
133	0x3bb38ea5	0.005479651
134	0x3c374b3f	0.011187374
135	0xbc5f45d8	-0.013627492
136	0x3d0b8dd6	0.034070812
137	0xbcb65747	-0.022258414
138	0xbd89a94a	-0.067217425
139	0xbc4fa235	-0.0126729505
140	0xbd6fc476	-0.05853697
141	0x3d1768e7	0.036965277
142	0x3b8165ba	0.0039488943
143	0x3cd910a2	0.026497189
144	0x3d5097ce	0.050926022
145	0x3bb3f482	0.005491794
146	0xbe16a4e0	-0.14711332
147	0x3daf1e03	0.08550646
148	0x3dd0163d	0.101604916
149	0xbdaa89ee	-0.08327089
150	0xbd4439da	-0.047906734
151	0xbe296a5c	-0.16544479
152	0x3dd0e95a	0.10200758
153	0x3e96804d	0.2939476
154	0x3d41d224	0.047319546
155	0xbd90a98a	-0.07063587
156	0xbba9722b	-0.0051710806
157	0x3ca9b730	0.020717233
158	0x3c2a1a7f	0.010382294
159	0xbd7da7ea	-0.061927713
160	0xbc9accb3	-0.018896436
161	0xbdc9d902	-0.09855844
162	0x3ccbbe2f	0.02487096
163	0x3e2bb6f6	0.16769013
164	0xbcc3e7d0	-0.023914248
165	0x3df4206a	0.11920245
166	0xbbeed566	-0.0072886227
167	0xbd6b8fa2	-0.057510026
168	0x3d9852f2	0.074376956
169	0x3d858fb3	0.06521549
170	0x3db4e626	0.0883296
171	0xbe25c1bf	-0.1618719
172	0x3c3098cc	0.010778617
173	0xbe5c8970	-0.21536803
174	0x3d36ce89	0.04463056
175	0xbe0d5d91	-0.13805224
176	0xbd488f8c	-0.048965022
177	0xbdcefe30	-0.10107076
178	0xbc1e7e72	-0.009673702
179	0x3cf59ece	0.02998295
180	0xbb4b1329	-0.0030986762
181	0xbc20bee9	-0.0098111415
182	0x3d4fe978	0.050759763
183	0xbe01709b	-0.12640612
184	0xbc88471c	-0.01663547
185	0xbdb53134	-0.088472754
186	0x3d3f6704	0.046729103
187	0xbe82bf87	-0.2553675
188	0xbd92f0c9	-0.071748324
189	0x3dede6d1	0.1161629
190	0xbdca79e6	-0.098865315
191	0x3c046904	0.008081678
192	0xbd868a6b	-0.0656937
193	0xbdfecf5c	-0.124418944
194	0xbe299cda	-0.1656374
195	0x3d70fa39	0.05883238
196	0xbd9f5242	-0.07779361
197	0x3d7f1316	0.06227406
198	0x3dc84202	0.09778215
199	0xbdbb2561	-0.09137989
200	0xbdb6bcd6	-0.08922736
201	0x3de8c839	0.113663144
202	0xbe1c7cfc	-0.15282053
203	0x3e189784	0.14901549
204	0xbd117139	-0.03550837
205	0xbc92e982	-0.01793361
206	0xbe45d267	-0.19318543
207	0xbe0cd3d8	-0.13752687
208	0xbcd96874	-0.026539065
209	0xb8dae8f0	-0.00010438438
210	0xbbb9857a	-0.0056616636
211	0xba910a38	-0.0011065667
212	0xbe3204c9	-0.17384638
213	0xba71f038	-0.0009229216
214	0x3cf42023	0.02980048
215	0x3d8bc4fb	0.068246804
216	0xbe24e604	-0.16103369
217	0x3a081027	0.0005190395
218	0xbe5e846b	-0.21730201
219	0xbd3e15a8	-0.04640737
220	0x3b997e63	0.004684256
221	0xbe1152e2	-0.14191774
222	0xbe55716f	-0.20844053
223	0xbdbd1bf9	-0.09233851
224	0x3c09b57b	0.008405085
225	0x39e57800	0.0004376769
226	0x3d476ff5	0.048690755
227	0xbe01af6b	-0.12664573
228	0x3d57f811	0.05272681
229	0x3e0cbf3c	0.13744825
230	0x3e0beaf3	0.13663845
231	0xbe5181ea	-0.20459715
232	0xbd7fa5bc	-0.062413916
233	0x3e0c6e86	0.13714036
234	0xbd9ee351	-0.07758201
235	0xbca939fa	-0.020657528
236	0xbcc07801	-0.023494722
237	0x3cec7fb4	0.028869487
238	0xbd74e73c	-0.059790835
239	0x3e2a5508	0.16634
240	0xbe0d82a9	-0.13819374
241	0x3d7cdad1	0.061732117
242	0xbe0cbaa1	-0.13743068
243	0x3c2583bc	0.010102209
244	0x3e4fe8fd	0.20303722
245	0x3d259786	0.040427707
246	0x3d43d96c	0.04781477
247	0xbbe40b6d	-0.00695937
248	0xbd9f6a9c	-0.07784006
249	0xbd4d54e9	-0.050129805
250	0xbe83c26b	-0.25734267
251	0xbcef97d7	-0.029247208
252	0x3d62fa55	0.055414516
253	0x3dbafb0b	0.09129914
254	0xbd8db0dd	-0.069184996
255	0xbdc2e7ab	-0.095168434

network.2.conv.0.weight f4 [128, 256]
0	0x3cea2724	0.028583117
1	0x3ac09131	0.0014691708
2	0xbc92de15	-0.017928163
3	0x3cea6e82	0.028617147
4	0xbd5763c2	-0.05258537
5	0x3db73302	0.08945276
6	0x3e678902	0.22610858
7	0x3e5297d3	0.20565729
8	0xbd1e870d	-0.038703013
9	0x3c2617ad	0.010137481
10	0xbde0ef60	-0.10983157
11	0xbd50412f	-0.050843414
12	0x3d923a6c	0.07140049
13	0x3daf88d8	0.08571023
14	0x3dab6378	0.083685815
15	0xbdc448c5	-0.09584192
16	0x3ecdd8f9	0.402046
17	0xbde681c3	-0.11255219
18	0xbd2cc03c	-0.042175516
19	0x3da5c00b	0.0809327
20	0x3dbcecc7	0.09224849
21	0xbc9b3925	-0.018948147
22	0x3db91457	0.09037083
23	0x3de9e103	0.11419871
24	0xbe3b8ffa	-0.18316641
25	0x3e88ec7a	0.26742917
26	0xbe089acb	-0.13340299
27	0x3d9fe3b0	0.078071
28	0x3e34995d	0.17636628
29	0xbdab797a	-0.08372779
30	0x3d42cbac	0.047557518
31	0xbe580453	-0.210954
32	0xbe167a3c	-0.14695066
33	0xbdb863f7	-0.09003442
34	0x3d7923db	0.06082521
35	0xbd8c1a02	-0.06840898
36	0xbd836e24	-0.06417492
37	0x3c70545e	0.014668552
38	0x3dee69a5	0.11641244
39	0xbd53594f	-0.051598843
40	0x3db0f04d	0.08639584
41	0xbd3788d4	-0.044808224
42	0x3c0f1737	0.008733562
43	0x3dbc828e	0.09204589
44	0xbdf5e5eb	-0.12006744
45	0xbdc002af	-0.09375512
46	0x3e55ab4a	0.20866123
47	0x3c98fea8	0.018676117
48	0xbe535c42	-0.20640662
49	0x3e03270e	0.12807867
50	0xbe3d6e58	-0.18499124
51	0xbd434f1f	-0.047682878
52	0xbd7842e4	-0.060610667
53	0xbcb52b34	-0.022115327
54	0x3d0a2638	0.033727854
55	0xbd25cf93	-0.04048116
56	0xbcddabe0	-0.027059495
57	0xbdd159b8	-0.102221906
58	0xbe5b55b6	-0.21419415
59	0xbdfe643f	-0.12421464
60	0x3d767d55	0.06017812
61	0xbda950e1	-0.082673796
62	0x3e2d2861	0.16909935
63	0xbde001fb	-0.10937878
64	0x3977cf83	0.0002363306
65	0x3dd7b8b1	0.10533274
66	0xbda1e4fb	-0.07905003
67	0x3bf4e23b	0.007473258
68	0xbe2be1e7	-0.16785394
69	0xbd581ed9	-0.052763794
70	0xbdca1d89	-0.09868915
71	0x3dc82dd7	0.09774368
72	0xbcdd117f	-0.026985882
73	0x3c574467	0.013138867
74	0xbdf3be7a	-0.11901565
75	0xbd3876ab	-0.045035046
76	0x3d446d46	0.047955774
77	0xb9794311	-0.00023771475
78	0x3e2fcb83	0.17167477
79	0xbe57d96a	-0.2107903
80	0xbe95f980	-0.29291916
81	0x3e120bab	0.14262263
82	0xbcee8c52	-0.029119644
83	0xbb8e6e2e	-0.0043466305
84	0xbd353738	-0.044242114
85	0x3dbc4c14	0.09194198
86	0xbd03253d	-0.032017935
87	0x3cd863ae	0.026414718
88	0xbd8576e6	-0.06516819
89	0x3a216ae0	0.0006157588
90	0x3d4d9b30	0.050196826
91	0x3dc11a9a	0.09428902
92	0xbdf9b06c	-0.12191853
93	0x3c80b1cc	0.01570978
94	0xbd768a22	-0.060190327
95	0x3d285d92	0.04110486
96	0x3bb91de8	0.005649317
97	0x3d1369a0	0.035989404
98	0x3c956b10	0.018239528
99	0x3e34c920	0.17654848
100	0x3d344277	0.0440087
101	0x3ddf0158	0.10888928
102	0xbc9ee358	-0.019395515
103	0x3dc9b378	0.09848684
104	0x3da66c51	0.081261285
105	0x3dbeda36	0.09318964
106	0x3cca4470	0.024690837
107	0x3d5860d8	0.052826732
108	0x3da5fc30	0.081047416
109	0xbe6be90f	-0.23038124
110	0xbdccd5b8	-0.10001701
111	0x3dc48e80	0.09597492
112	0xbde0c8b8	-0.10975784
113	0x3d1aa7d2	0.037757702
114	0x3e074dec	0.13213319
115	0xbc83503b	-0.016029468
116	0x3bd1c921	0.0064021503
117	0xbe842074	-0.2580601
118	0x3dc62a1f	0.09676003
119	0x3d06f078	0.032944173
120	0xbdcdc466	-0.10047226
121	0xbe3d7058	-0.18499887
122	0xbe24e371	-0.16102387
123	0xbdee0227	-0.11621504
124	0x3dc13f60	0.09435916
125	0x3be37c58	0.006942313
126	0xbe032e8f	-0.1281073
127	0x3e006d11	0.12541606
128	0x3dde33a9	0.10849697
129	0x3e596cc4	0.21232897
130	0x3e2e7fc8	0.17040932
131	0xbe10bc1f	-0.14134263
132	0xbd63b337	-0.055590834
133	0x3dfc0e7d	0.12307451
134	0xbdc8e203	-0.09808733
135	0x3d91cb5e	0.07118867
136	0x3d0b15b9	0.033956263
137	0xbc09ea45	-0.008417671
138	0xbbf7722f	-0.0075514535
139	0x3deb6f0c	0.1149579
140	0x3d9d813b	0.076906644
141	0x3cd56544	0.026049264
142	0xbd31e91a	-0.043435194
143	0xbe06c1a4	-0.13159806
144	0x3d9c4f65	0.07632331
145	0xbe2b9cd7	-0.16759048
146	0x3d64e62a	0.055883564
147	0xbcf34b73	-0.029699063
148	0xbe03c04f	-0.12866329
149	0xbb969064	-0.0045948494
150	0xbb7103b6	-0.0036775894
151	0xbe26b907	-0.1628152
152	0xbd74e6ae	-0.059790306
153	0xbd96e29a	-0.073674396
154	0x3c7d54b4	0.015462089
155	0x3dab93c2	0.08377792
156	0x3e44dfbb	0.19225971
157	0xbde683f4	-0.11255637
158	0x3cf0861a	0.02936082
159	0xbe157308	-0.14594662
160	0x3e6da8b7	0.23208891
161	0x3ca83315	0.02053217
162	0x3e2c1d82	0.16808131
163	0xbd3facfc	-0.04679583
164	0xbd8745cc	-0.066051096
165	0xbe136fb1	-0.14398076
166	0x3da94641	0.08265353
167	0xbd9d6631	-0.07685507
168	0x3b0f345a	0.0021851272
169	0xbe026f90	-0.1273787
170	0xbdbf2296	-0.093327686
171	0xbd678419	-0.056522463
172	0x3cd4276c	0.025897704
173	0xbdb3232b	-0.08746942
174	0x3e0d1aca	0.1377975
175	0x3c988c02	0.018621448
176	0xbda1e7f1	-0.079055674
177	0xbdfd9d01	-0.12383462
178	0x3df9ed0b	0.122034155
179	0x3db91703	0.09037592
180	0x3d529ba5	0.051417965
181	0xbd467a5f	-0.048456546
182	0x3e234f2d	0.15948172
183	0xbd7c15f3	-0.06154437
184	0xbd362a3c	-0.04447387
185	0xbd486e28	-0.04893318
186	0xbdde476f	-0.108534686
187	0xbd68e7bd	-0.056861628
188	0xbd39f636	-0.04540082
189	0x3adcb473	0.0016838446
190	0x3dcb9861	0.09941173
191	0xbda3c60f	-0.07996761
192	0x3e237bb4	0.15965158
193	0xbe4b38ec	-0.19845933
194	0xbe62fbce	-0.22166368
195	0xbe1dead2	-0.15421608
196	0x3dcb44d3	0.099252366
197	0x3d8449be	0.06459378
198	0x3df05440	0.117348194
199	0xbdb76436	-0.089546606
200	0x3e0b74f5	0.13618834
201	0x3c64f013	0.013973254
202	0x3e2b52d8	0.16730821
203	0xbc0ea4c0	-0.008706272
204	0x3c8e078c	0.017337583
205	0xbd7b3036	-0.061325274
206	0x3cad9c4b	0.02119269
207	0x3e152123	0.14563422
208	0xbd9eb407	-0.07749181
209	0xbcee1602	-0.029063229
210	0xbe4f24b5	-0.20228846
211	0xbd858a65	-0.06520537
212	0x3c80145a	0.015634704
213	0xbd9eff2f	-0.07763516
214	0xbe057a05	-0.13034828
215	0x3d421a20	0.047388196
216	0xbc89bc5e	-0.016813453
217	0x3d124976	0.03571459
218	0xbe28eb10	-0.16495919
219	0x3e02c6a0	0.12771082
220	0xbdc53a58	-0.09630269
221	0xbde6e81e	-0.112747416
222	0x3d9bed17	0.07613581
223	0xbe90f9cd	-0.28315583
224	0xbe426f83	-0.18987851
225	0xbcc7b788	-0.024379507
226	0xbc6e6f3e	-0.014552889
227	0xbe05256c	-0.13002557
228	0xbd15ab99	-0.0365406
229	0xbdecf71c	-0.1157057
230	0xbd4f85fe	-0.050664894
231	0xbdc1e9c7	-0.094684176
232	0x3cca7087	0.02471186
233	0x3e03743c	0.12837309
234	0x3dd04f9e	0.10171436
235	0xbd262a73	-0.040567826
236	0xbc9c0b80	-0.019048452
237	0xbe0b1998	-0.13583982
238	0x3e9d7266	0.30751342
239	0xb92a90d7	-0.0001626642
240	0xbdede487	-0.11615854
241	0xbd975fe1	-0.07391334
242	0xbe69fd31	-0.22850491
243	0xbda0eafd	-0.078573205
244	0xbe0018e3	-0.12509494
245	0x3dc8b2b2	0.097997084
246	0xbd439845	-0.047752637
247	0xbca6f49e	-0.020380314
248	0xbb90c07f	-0.0044174786
249	0x3e5d4c2d	0.2161109
250	0x3e39a67e	0.18129918
251	0xbd339b06	-0.043849014
252	0x3d30a6f7	0.04312798
253	0xbd0aeb6a	-0.033915915
254	0x3dde5614	0.10856262
255	0xbd9324e1	-0.071847685

network.2.conv.0.bias f4 [128]
0	0xbe4e302d	-0.20135565
1	0x3bc29478	0.005938109
2	0xbe1b97d4	-0.15194637
3	0x3dcd3849	0.10020501
4	0xbe2bb901	-0.16769792
5	0xbe387b3d	-0.18015762
6	0x3e17cf31	0.14825131
7	0x3bedb198	0.007253837
8	0xbd6f13ad	-0.058368374
9	0x3c59da29	0.013296642
10	0x3c6fd320	0.0146377385
11	0x3d4e00e6	0.050293826
12	0x3d1ef12c	0.03880422
13	0x3e07c4d8	0.13258684
14	0xbd7b0b61	-0.06129015
15	0x3d577015	0.052597124
16	0x3cbf90c8	0.023384467
17	0xbcfb20c8	-0.03065528
18	0xbdc36e09	-0.09542472
19	0xbe8d867f	-0.27641675
20	0xbdb023ae	-0.08600555
21	0x3c7422f9	0.014900916
22	0xbc207ed8	-0.009795867
23	0xbdcd5719	-0.10026378
24	0xbd92efd4	-0.0717465
25	0xbe0e79ba	-0.13913622
26	0xbc90a8aa	-0.01765855
27	0xbdda8fdd	-0.10671971
28	0xbd7730d4	-0.0603493
29	0xbdbd1f7c	-0.09234521
30	0x3dc6e0aa	0.0971082
31	0xbe47105a	-0.19439831
32	0xbdb627af	-0.08894288
33	0xbe703532	-0.23457792
34	0xbd3d9b27	-0.046290543
35	0x3c8fb353	0.017541563
36	0xbd710629	-0.058843765
37	0xbe5888f5	-0.21145995
38	0x3d0aba71	0.03386921
39	0xbdaa1803	-0.08305361
40	0xbdf5a202	-0.11993791
41	0x3c88562b	0.01664265
42	0x3d83d903	0.06437876
43	0xbe24bb5b	-0.16087095
44	0xbe06a9c2	-0.13150695
45	0x3d357afb	0.044306736
46	0x3db591ff	0.08865737
47	0xbde96cbc	-0.113976926
48	0xbe609cb3	-0.21934776
49	0x3d680b64	0.056651488
50	0xbcd30603	-0.025759703
51	0x3d00ba53	0.031427693
52	0xbd738c87	-0.05946019
53	0x3dfdaff8	0.12387079
54	0xbc57f358	-0.013180576
55	0x3de57e67	0.1120575
56	0x3cfa6be7	0.03056903
57	0xbd1b8f9f	-0.037978765
58	0xbe2c899e	-0.16849372
59	0xbe96ffcf	-0.2949204
60	0xbe8f1cb3	-0.27951583
61	0x3c42d7f9	0.011892312
62	0xbdbed3da	-0.09317751
63	0x3e2cb695	0.16866525
64	0x3ce85853	0.028362429
65	0x3e296091	0.16540743
66	0xbe46254f	-0.1935017
67	0x3e437d97	0.19090877
68	0xbd0ca2ce	-0.03433495
69	0x3d1581e0	0.03650081
70	0xbddddf38	-0.10833591
71	0xbdf69557	-0.12040203
72	0x3e48e69c	0.1961922
73	0xbbf7aa28	-0.007558126
74	0x3d005b68	0.03133717
75	0x3cefdda9	0.0292805
76	0xbde28856	-0.1106116
77	0x3dcf66a5	0.10127
78	0x3df1afa7	0.11801081
79	0x3d2383fb	0.03992079
80	0x3c1e6464	0.00966749
81	0xbe5c6372	-0.2152231
82	0xbd029bb5	-0.031886775
83	0x3e2546a5	0.1614023
84	0xbd1330f7	-0.03593537
85	0x3cc10084	0.023559816
86	0xbe1c01a7	-0.15235005
87	0x3daae70f	0.08344852
88	0x3cab153d	0.02088415
89	0x3d8eebe3	0.069785856
90	0xbdae5268	-0.085118115
91	0xbe51e556	-0.20497641
92	0xbe18775e	-0.14889285
93	0xbdda191d	-0.10649321
94	0x3c5b17a7	0.013372338
95	0xbd5e849b	-0.05432568
96	0xbd367a1d	-0.04455005
97	0xbe28068e	-0.1640875
98	0x3dbbb35c	0.091650695
99	0x3de0cb71	0.10976303
100	0xbe02d42f	-0.12776254
101	0xbdf71df0	-0.12066257
102	0x3bf38b5c	0.0074323844
103	0x3d5ca350	0.053866684
104	0xbccffcee	-0.025389161
105	0x3d9842dc	0.074346274
106	0xbdb742fd	-0.08948324
107	0xbcc894e4	-0.02448506
108	0xbe41b62b	-0.18917148
109	0xbe1ef44f	-0.15522884
110	0xbe5c67e1	-0.21524002
111	0x3d1ffc64	0.039059058
112	0x3c25c896	0.010118624
113	0x3bd07e16	0.006362687
114	0xbdc268bb	-0.09492632
115	0xbdf7827a	-0.12085433
116	0xbe2c93c5	-0.16853245
117	0xbe33b156	-0.17548117
118	0xbded9c94	-0.116021305
119	0xbcc9e94e	-0.024647381
120	0x3c36387d	0.011121866
121	0xbe9224a3	-0.28543577
122	0xbd53aa78	-0.051676244
123	0xbe49e72b	-0.1971709
124	0xbde4a1ba	-0.111636594
125	0xbe5510d4	-0.208072
126	0x3c981f35	0.018569568
127	0xbce53660	-0.02798003

network.3.weight f4 [2, 128]
0	0xbc9d7a24	-0.01922328
1	0x3c17fb4b	0.0092762215
2	0xbdf5c32d	-0.120001175
3	0x3d73678c	0.059424922
4	0x3a641cc2	0.0008701795
5	0xbe1c6df5	-0.1527632
6	0x3e35e89d	0.17764516
7	0xbcfe402e	-0.031036463
8	0x3d1c13c6	0.038104795
9	0x3d11026d	0.035402704
10	0xbb1aa539	-0.0023597016
11	0xbb158baf	-0.0022818854
12	0x3d31ded1	0.043425385
13	0xbcb03f2f	-0.021514503
14	0x3b95d1eb	0.0045721433
15	0xbc33156d	-0.010930401
16	0xbda86f36	-0.08224337
17	0xbc45a178	-0.012062423
18	0xbdeca64f	-0.11555158
19	0x3e023576	0.12715706
20	0x3c95497a	0.018223513
21	0xbb0e9aa8	-0.0021759663
22	0x3c1f42b1	0.00972049
23	0xbdab2080	-0.08355808
24	0x3e6f2f2c	0.23357838
25	0xbd6110a4	-0.05494751
26	0x3d143bc6	0.036189817
27	0x3cfe07f9	0.031009661
28	0x3a772f0f	0.00094293145
29	0x3dc14371	0.094366916
30	0xbb96a0b4	-0.004596794
31	0x3d612d9b	0.054975133
32	0x3dd652ba	0.104649976
33	0xbe3c9915	-0.18417771
34	0x3d5f24ad	0.054478336
35	0x3e0e4695	0.13894112
36	0xba162fdf	-0.0005729179
37	0xbe80bdc0	-0.25144768
38	0xbe4cc864	-0.19998318
39	0xbdd23615	-0.102642216
40	0x3dd79c24	0.10527828
41	0x3d83c7ac	0.06434569
42	0x3d8178a4	0.063218385
43	0xbd8fc73c	-0.07020423
44	0x3da6dd5b	0.08147689
45	0xbd947858	-0.07249516
46	0x3dbde7cf	0.092727296
47	0x3d5d8368	0.054080397
48	0xbe136aa1	-0.14396144
49	0xbda69f78	-0.08135885
50	0x3d3d763d	0.04625534
51	0x3cf5db02	0.030011658
52	0x3dadaa64	0.08479765
53	0xbd58114c	-0.05275087
54	0xbcda84bb	-0.026674619
55	0xbe2a444d	-0.16627617
56	0xbb4daf76	-0.00313851
57	0xbb3848db	-0.0028119597
58	0x3df0177d	0.1172323
59	0xbd35f3bb	-0.044421893
60	0xbc65f11d	-0.014034537
61	0x3e0563ba	0.13026324
62	0xbd0134b0	-0.031544387
63	0xbdaf74c8	-0.08567196
64	0x3e3d10ea	0.18463483
65	0xbce3de38	-0.027815923
66	0x3e1def34	0.1542328
67	0xbe361bc6	-0.17784032
68	0x3ba9c5ac	0.005181035
69	0x3e19d393	0.15022115
70	0xbdbdfbfb	-0.09276577
71	0x3ce03ec2	0.027373675
72	0x3cb2c97a	0.021824587
73	0xbe40d031	-0.18829419
74	0x3c8b7a0f	0.017025976
75	0x3e2a96c7	0.1665908
76	0xbd746ad4	-0.05967219
77	0xbccb65b8	-0.024828777
78	0xbd5229ab	-0.05130927
79	0x3c864c16	0.016393702
80	0xbd61f0ea	-0.055161394
81	0xbb880013	-0.0041503995
82	0x3d028dce	0.031873517
83	0xbc8e232e	-0.01735076
84	0x3def69ac	0.11690077
85	0x3d16259a	0.036656953
86	0x3cd3dd30	0.025862306
87	0xbe529f05	-0.20568474
88	0x3bc7d145	0.006097945
89	0x3dc60f63	0.096709035
90	0xbb5f818e	-0.003410432
91	0x3c1bdb79	0.009512776
92	0xbe5069b8	-0.20352829
93	0xbe014da7	-0.12627278
94	0xbcec7789	-0.028865593
95	0x3bdcacfe	0.0067344895
96	0x3ae7d361	0.0017686897
97	0xbbf2db19	-0.0074113724
98	0xbcc49631	-0.023997398
99	0xbc6905b2	-0.014222549
100	0x3dc28107	0.09497266
101	0xbcae4977	-0.021275265
102	0x3e582835	0.21109088
103	0xbbde5577	-0.0067850905
104	0x3db02d73	0.08602419
105	0x3e28b03c	0.16473478
106	0xbbb2707f	-0.0054455395
107	0xbd331383	-0.04371978
108	0xbbbeb44d	-0.0058198334
109	0xbd88a585	-0.06672195
110	0xbd4dcfd4	-0.05024703
111	0x3d608063	0.05480994
112	0x3d93d548	0.072184145
113	0x3e24e7f3	0.16104107
114	0x3e032f92	0.12811115
115	0xbe0192e0	-0.12653685
116	0x3c3a0d0d	0.011355651
117	0x3cf9e913	0.030506646
118	0xbe23cf58	-0.15997064
119	0x3d22715b	0.039658885
120	0x3e00e5f3	0.12587719
121	0xbe46d3fc	-0.19416803
122	0x3e3907d5	0.18069394
123	0xbd83cccc	-0.06435546
124	0x3e2414ff	0.16023634
125	0xbe3727e3	-0.1788631
126	0xbbd06c91	-0.0063605984
127	0xbc4b9bf5	-0.01242732
128	0xbe1a058e	-0.15041181
129	0x3d971b13	0.07378211
130	0x3cf0b434	0.029382803
131	0xbdd64ad9	-0.10463495
132	0x3dd85ba3	0.10564353
133	0xbe2d2908	-0.16910183
134	0xbd64b168	-0.05583325
135	0xbcdd7329	-0.027032452
136	0xbd5c1bab	-0.053737324
137	0x3dbe2382	0.09284116
138	0x3b04841a	0.002022034
139	0xbd2d7e2a	-0.042356648
140	0x3d8584b9	0.065194555
141	0xbc198919	-0.009371066
142	0xbbbe8c7e	-0.005815088
143	0x3c89b8d3	0.016811764
144	0xbd4f572f	-0.050620254
145	0x3d8a1156	0.06741588
146	0xbde66c9a	-0.11251183
147	0x3e091cd4	0.13389903
148	0xbdf837fd	-0.12120054
149	0x3df2f5e8	0.11863309
150	0x3c76e274	0.015068639
151	0x3db888ab	0.09010442
152	0x3dd1d5b8	0.10245842
153	0x3dc1effb	0.09469601
154	0xbe055408	-0.13020337
155	0xbdbb7889	-0.0915385
156	0x3ddcb209	0.10776145
157	0x3d197b49	0.03747109
158	0x3d0c12ae	0.0341975
159	0xbdce3075	-0.10067836
160	0xbda2ff22	-0.07958819
161	0x3df87a0c	0.121326536
162	0x3e1ddc0b	0.15415971
163	0xbdda9712	-0.106733456
164	0x3daa11c5	0.083041705
165	0x3d25c9e8	0.040475756
166	0x3d3d62ae	0.046236686
167	0xbe2e79e8	-0.17038691
168	0xbe334043	-0.17504983
169	0x3d577991	0.05260617
170	0xbda3947f	-0.07987308
171	0x3bfa0fa6	0.00763126
172	0xbc94bf90	-0.01815775
173	0x3e3b4128	0.18286574
174	0x3e81a6e3	0.25322637
175	0xbc7fa4bd	-0.0156032415
176	0xbdbc6486	-0.09198861
177	0xbdea7c15	-0.11449448
178	0x3d408702	0.047003753
179	0x3c700b59	0.014651143
180	0x3de7967d	0.11308
181	0x3e27f308	0.16401303
182	0xbb83d82d	-0.004023573
183	0x3e02c18d	0.12769146
184	0x3d770a99	0.06031284
185	0x3c08e3ee	0.008355124
186	0x3dd3a088	0.10333353
187	0xbe2618fb	-0.16220467
188	0xbccbaca0	-0.024862587
189	0xbdcc519a	-0.09976502
190	0x3d660bb3	0.0561635
191	0xbe93693a	-0.2879122
192	0xbda9c117	-0.08288782
193	0x3d76f7e2	0.060294993
194	0x3d433b58	0.047664016
195	0x3c8784c6	0.016542803
196	0x3da29177	0.079379015
197	0xbe9f5ecc	-0.31127012
198	0x3e19ebbe	0.15031335
199	0x3c56cd15	0.013110419
200	0x3daf2f03	0.08553889
201	0x3d5238f3	0.051323842
202	0xbdc276fd	-0.094953515
203	0xbd5749b8	-0.052560538
204	0x3da3ff00	0.08007622
205	0x3e0687da	0.13137761
206	0x3e388531	0.18019558
207	0xbd1daeb6	-0.038496695
208	0x3eb1b00e	0.34704632
209	0xba0aff56	-0.000530233
210	0x3d99bcee	0.075067386
211	0x3d90eb63	0.070761465
212	0x3c268f54	0.010166008
213	0xbd14013c	-0.03613399
214	0xbe41624c	-0.18885154
215	0xbb8be367	-0.004269052
216	0xbdd78782	-0.10523893
217	0xbe535d1d	-0.20640989
218	0x3d668b7c	0.056285366
219	0x3d9fa4b9	0.0779509
220	0x3de54214	0.11194244
221	0x3df311c2	0.118686214
222	0x3e4d271e	0.20034453
223	0xbcea91af	-0.02863392
224	0x3d5be2b2	0.05368299
225	0x3e14f5c0	0.14546871
226	0x3da3c38b	0.07996281
227	0xbd331b56	-0.04372724
228	0x3d8abc32	0.06774177
229	0x3d8f0b0c	0.06984529
230	0xbcc0f12d	-0.023552502
231	0x3cf1c499	0.02951269
232	0x3d3cedf2	0.04612536
233	0xbdaf5018	-0.085601985
234	0x3e9617f8	0.29315162
235	0x3d996ea2	0.07491805
236	0x3d94b4e3	0.07261064
237	0x3d89baa3	0.06725051
238	0x3d34e67b	0.044165116
239	0xbc9509b8	-0.01819311
240	0xbdcaabc7	-0.09896045
241	0xbe7631bd	-0.24042411
242	0x3dbb6cc9	0.091516085
243	0xbe2042e0	-0.15650511
244	0xbccaa4e9	-0.024736838
245	0x3da0a427	0.078438096
246	0x3e1d1dfa	0.15343466
247	0x3e005012	0.12530544
248	0x3db6882f	0.08912694
249	0x3dd70662	0.10499264
250	0xbe57d6c4	-0.2107802
251	0xbe04fd8e	-0.12987348
252	0xbd0da99d	-0.034585584
253	0xbe0393dd	-0.12849374
254	0xbd077762	-0.033072837
255	0x3e0c8701	0.13723375

network.3.bias f4 [2]
0	0xbd6f68a7	-0.058449414
1	0x3e7bf97d	0.24606891
