exomy/config/best_run_no_obstacles405k/checkpoints/519000_policy.pt (torch, 723582 bytes, 13 tensors)

log_std_parameter f4 [2]
000000 81 36 b6 bf b2 f5 4e bf
       -1.4235383 -0.8084365

network.0.conv.0.weight f4 [512, 5]
000000 9e 22 cd 3e 75 77 68 be c5 57 1c 3c cc b3 a6 bd
       0.40065473 -0.22701819 0.00954241 -0.08139762
000010 2b 01 2a 3e 74 16 2b 3e 3c 5f 27 3e ac 6d 17 3e
       0.16602008 0.16707784 0.16344923 0.1478793
000020 1b 40 9e bd 47 4d 3c bc f1 94 a4 bc bd 15 ef 3b
       -0.07727071 -0.011493034 -0.020090552 0.0072962926
000030 7c f3 24 3c ac 20 82 be 6b d7 6b 3d 2c 91 b1 3d
       0.010067817 -0.25415552 0.057578485 0.086702675
000040 a8 94 fd bd 8d 93 2e 3e 91 97 81 3d 26 2d 2e 3e
       -0.123818696 0.17048474 0.06327737 0.1700941
000050 71 a5 55 3d 66 b2 4a bc cd dc a8 3d 47 60 45 3e
       0.05215973 -0.012371635 0.082452394 0.19275008
000060 a9 d5 00 3e a1 2d 76 3e 6b c3 ed 3e d3 8e 81 3c
       0.12581505 0.24040844 0.46438155 0.015815174
000070 dd 1f 30 be b5 db e3 bc e3 d5 83 be cc ab 22 bd
       -0.17199655 -0.027814725 -0.2574912 -0.03971462
000080 0c ce 0d 3d 32 7c b1 bc c7 c3 78 bd 56 36 d2 3b
       0.03462033 -0.021665666 -0.060733583 0.0064151688
000090 40 24 09 bd 2a 53 46 3d cd be c2 3d 60 cc 96 bd
       -0.033481836 0.048419155 0.095090486 -0.073632
0000a0 fd 61 b0 3d 7d fd 01 bf 50 b8 4c bc 0f 5b 33 bd
       0.0861244 -0.5077742 -0.012495115 -0.043788012
0000b0 3c 90 a7 bc 78 b9 36 be 6d 8b 53 be 37 53 3e be
       -0.020454518 -0.17844188 -0.20658655 -0.18586431
0000c0 33 82 00 3d 5b c2 40 be ed be 2d 3c 48 86 ea 3e
       0.031374168 -0.1882414 0.010604602 0.45805573
0000d0 ea 9d 98 3d 9c aa 2d 3e b9 9a 41 3b f4 d6 46 bd
       0.07451995 0.16959614 0.0029541685 -0.04854484
0000e0 7e ca 5d 3e 67 97 34 bd a1 5f 0d 3e 3e 35 90 bd
       0.21659276 -0.0440897 0.13806011 -0.07041405
0000f0 28 ee 8c 3e 94 24 cb bd 34 7d bc 3d 3e fb ff 3c
       0.2752545 -0.09919086 0.09203568 0.031247731
000100 27 97 02 3e 60 5a 85 3e 00 4f c3 be cd fe 2c bc
       0.12752973 0.26045513 -0.3814621 -0.010558796
000110 a4 04 48 3e 5f 97 03 3c 8a 53 bf bd 18 70 ba b9
       0.1953302 0.008031695 -0.09342106 -0.000355602
000120 83 0d 17 3b 68 a9 aa 3d 23 fd 1b 3e 90 49 77 be
       0.0023048825 0.08333093 0.15233283 -0.24149156
000130 e5 7c d5 3e cf 00 24 3d c1 f4 20 3e 4e e2 07 bd
       0.4169685 0.040039834 0.15718366 -0.033174805
000140 bc be 79 3e 75 79 10 3f 77 f4 43 3d d4 cb 18 be
       0.24389166 0.5643533 0.04784056 -0.14921504
000150 7b 76 17 3e 3b b3 28 be cb 5c 1e 3e 89 cb a2 3d
       0.1479129 -0.16474621 0.15465085 0.079489775
000160 16 e0 ea bd 03 47 46 3d 9c de 78 3e 77 87 29 3e
       -0.11468522 0.048407566 0.24303669 0.16555582
000170 f1 4d 87 bd 23 5f 1a 3c f3 a9 13 3d cc 8b fb be
       -0.06606663 0.009422096 0.036050748 -0.49130094
000180 64 aa bd be 66 e4 7b bc 0a b6 53 3d 39 64 19 bd
       -0.3704406 -0.015374279 0.051687278 -0.037449095
000190 3e 15 6b be 9e 9e 41 3c 58 da 9c bd dd 5e 82 bc
       -0.22957322 0.011817602 -0.07658833 -0.015914375
0001a0 e5 cf 9f 3d 49 c0 af be 2c 1d 8a 3e 13 98 86 bd
       0.078033246 -0.3432639 0.2697538 -0.065719746
0001b0 9d b4 86 be d7 fa 64 3e 01 ee f0 bd 46 ed 05 be
       -0.26309672 0.22361313 -0.11764146 -0.13078794
0001c0 af e0 a5 3d ef ab 40 3d f6 d9 10 bc f5 a0 39 be
       0.080994956 0.04703897 -0.008841028 -0.18127806
0001d0 13 ba d0 3e 64 9c 38 bc f8 83 e1 3b 8c 9d 2c bd
       0.40766963 -0.011267755 0.006882187 -0.042142436
0001e0 9f 6f c4 3e 37 d6 0d 3e 05 26 f6 3d be 2d 95 bc
       0.3836641 0.13851248 0.120189704 -0.018210288
0001f0 db 35 eb bd b7 77 4c be 7e 7c 00 bf 8e 66 cf bc
       -0.114848815 -0.19967543 -0.5018996 -0.025317457
000200 65 84 9a 3d 4d 96 89 bd 3f 14 f3 be 60 c7 15 3d
       0.075447835 -0.06718121 -0.47476384 0.036567092
000210 11 6b e9 3d d2 6c 01 bd 37 bb 87 bc 79 b0 df be
       0.113973744 -0.03159792 -0.016568763 -0.43689325
000220 2c 2e e9 3e f7 b1 19 bd 0f 28 b4 bd 6f 47 90 bd
       0.4554304 -0.037523236 -0.08796703 -0.07044875
000230 06 63 46 3e cf 0b 1f 3e 42 b6 39 bd a9 5a 16 3e
       0.19373712 0.15531848 -0.04533983 0.14683022
000240 73 0d 74 bc fb 31 80 3d aa 22 a8 3e 9f ca c2 3d
       -0.014895785 0.06259533 0.32838947 0.09511303
000250 54 17 6d 3d e2 e6 1a bd eb 02 59 be 5c 29 0f 3e
       0.057883576 -0.037817843 -0.2119252 0.13980621
000260 69 31 59 3c 3c 0f 1e be 63 ce 51 be 03 b7 8b be
       0.013256409 -0.15435499 -0.20488887 -0.27288064
000270 63 f6 8f be 01 c6 b0 3d f9 88 8c 3d 00 85 06 be
       -0.28117666 0.08631516 0.06862063 -0.13136673
000280 84 0c 8f be db 0d 83 be e7 93 e6 3c 13 95 2e be
       -0.27939236 -0.25596508 0.028146697 -0.17049055
000290 36 f2 c6 3d ff 87 a0 be a0 02 8b bd 3c 92 57 3c
       0.09714167 -0.31353757 -0.0678761 0.013157424
0002a0 48 90 9b 3c c3 c8 ba bd 32 53 a8 bb a6 ab 05 3f
       0.018989697 -0.091203235 -0.005136871 0.5221504
0002b0 c8 b3 8a 3c fd 43 f6 bc 7b 31 f6 bc 8b f0 b4 3e
       0.01693143 -0.030061716 -0.030052891 0.3533977
0002c0 d1 1d d5 3d 5e 27 62 3d 70 e9 92 bd a7 cc 8e bd
       0.10406078 0.055213325 -0.07173431 -0.06972628
0002d0 c2 fd 9f be 24 56 f3 3e 72 4c 4a bd d2 5f 05 be
       -0.3124829 0.47526658 -0.04938931 -0.13024834
0002e0 63 2a 61 3e e6 17 b7 3e da 04 0c 3d 09 34 a7 bc
       0.21988826 0.3576042 0.034184314 -0.020410554
0002f0 9f 9d 75 3d 86 7f 84 3c 1d d1 fd bd 2e 31 a0 be
       0.059964772 0.01617409 -0.12393401 -0.3128752
000300 0c 9a bf 3c 85 b4 e5 bc 7f 27 fe 3c 2e 49 0d 3c
       0.023388885 -0.02804018 0.031024693 0.008623404
000310 43 22 2f bf 3b 6c 90 bd a7 d8 3b bd 23 aa 03 3e
       -0.68411654 -0.07051893 -0.045860913 0.12857871
000320 5b 1b 5a 3d 73 28 c3 3e c6 4a de 3c 40 41 e4 3d
       0.053248744 0.38116798 0.027135264 0.11145258
000330 59 a1 b4 3c c9 4c 2b be 77 f5 af be cc 08 1c 3c
       0.022049593 -0.1672851 -0.34366962 0.009523582
000340 a0 18 ed bd 3e 77 9c bd 5f 47 08 be 68 8c c7 be
       -0.115769625 -0.07639931 -0.13308476 -0.3897431
000350 d5 02 37 bd 1f dc 20 bd b0 dc 52 be 6d 16 bc 3e
       -0.044680435 -0.039272424 -0.20591998 0.3673586
000360 e6 3c 06 3f 81 eb ae 3c 0b fb 95 bd 68 54 e1 3d
       0.52436674 0.021352531 -0.07323273 0.11002427
000370 f2 49 93 be 57 d8 1e be 4d c8 a0 3d 44 ad b7 3d
       -0.28767353 -0.15512215 0.07850704 0.08968595
000380 10 9b 38 be ac 8d c3 3d e4 b3 52 3e 8a 38 5c 3d
       -0.18027902 0.09548506 0.20576435 0.053764857
000390 fe 21 91 bd be 71 a3 3d bf 7a ef 3e bd d0 76 be
       -0.070865616 0.07980679 0.46773335 -0.24103065
0003a0 c6 29 b0 bb e4 82 97 bd bd 74 fa bd c5 e5 8f 3e
       -0.0053760735 -0.07398012 -0.12229297 0.28104988
0003b0 8f 2f f7 bd 16 ae 4a bd c8 db 82 bd 29 5d 99 3d
       -0.12069618 -0.049482428 -0.06389576 0.07488472
0003c0 3f 89 4b be 50 2d 3b 3e 6f 8c 30 3c d6 26 d8 bd
       -0.19876574 0.18279004 0.0107756695 -0.10554282
0003d0 2b 44 84 bd 06 97 a5 be d1 a9 de be 1a 6f 44 bc
       -0.064583145 -0.32341784 -0.43488935 -0.011989379
0003e0 33 a6 82 bd e3 c5 3a bd 72 9e 82 3e 30 f4 bf 3e
       -0.06379356 -0.045598876 0.2551151 0.37490988
0003f0 80 e4 de 3d 34 58 3e be 97 83 63 be 23 c5 86 3e
       0.10883427 -0.18588334 -0.22218166 0.26322278

network.0.conv.0.bias f4 [512]
000000 51 4b 40 3d 95 43 30 be 46 39 95 bd 06 86 c9 bd
       0.046946827 -0.1721328 -0.07286315 -0.09840016
000010 e0 5b 9f be cd f2 fd 3c e8 ec 57 be cf c3 4b be
       -0.31124783 0.030999565 -0.21086466 -0.19898914
000020 e1 a0 c3 3d 7d 48 69 bd ec ae 77 bd 9e 7c 00 bd
       0.095521696 -0.056953896 -0.060469553 -0.031368844
000030 ff 44 db bd cc 10 f1 3c fa 6c ed bd db e0 a0 3d
       -0.10706519 0.029426955 -0.11593051 0.07855388
000040 6c 0f b9 ba 4b 59 07 be 25 fe 5e bc 4a b4 84 3d
       -0.0014118976 -0.13217656 -0.013610397 0.064797
000050 cb 8a 0c 3e da c3 0f 3d c9 4f fb bd 38 1a d9 3c
       0.1372482 0.035098888 -0.12271077 0.02650176
000060 14 72 02 3e 89 7d 94 3d 18 ed 90 3c 88 e0 4d 3d
       0.1273883 0.072505064 0.01769118 0.050262958
000070 b7 e6 00 be 4e 67 a7 bd fe c2 84 3c 61 dc 1e be
       -0.1258801 -0.08174001 0.01620626 -0.15513755
000080 1b 33 90 3d 7b 73 3a ba f5 e4 fb 3c 54 66 49 bc
       0.070409976 -0.0007112545 0.030748824 -0.012292463
000090 bd 02 a9 3c 86 e9 5b bd e5 4d 72 bd c1 65 92 3c
       0.020631189 -0.053689502 -0.059156317 0.017870786
0000a0 9a 4b b2 3d b2 53 d4 3d f8 8b 02 be fa f7 05 3d
       0.08705826 0.10367526 -0.12748706 0.032707192
0000b0 94 c8 5f be 29 f3 94 3d 63 bc 4a 3c 62 61 aa bd
       -0.21853858 0.072729416 0.012374016 -0.083193555
0000c0 20 18 4e 3b 03 bf b8 3d 45 71 a2 bd 24 5c 15 3d
       0.0031447485 0.090208076 -0.07931761 0.036464825
0000d0 6c 7b 56 3d 09 a3 a5 3d 4d 46 a7 3d b6 37 0c 3e
       0.052363798 0.08087737 0.08167706 0.13693127
0000e0 55 d4 85 bb 11 fd 10 bd c0 fb e4 3c 38 b4 52 be
       -0.00408415 -0.035397593 0.027952075 -0.2057656
0000f0 97 60 6b 3d 6a 35 d6 3c 90 7f e4 3d 5d c7 3e 3d
       0.057465162 0.026148517 0.11157143 0.046576846
000100 e8 6d 21 3e 2b 4e 0a bd 05 9b 57 3d 46 c8 65 3d
       0.15764582 -0.033765953 0.052638073 0.0560992
000110 94 f9 7f bd 6e e5 9a 3d 46 de 9b ba a5 5e e5 3c
       -0.062493876 0.075632915 -0.0011891804 0.027999232
000120 e0 98 a3 bd 1d f1 00 bd 76 3c e9 bd fe 09 77 3a
       -0.07988143 -0.031479944 -0.11388485 0.0009423791
000130 22 ac 3e be d1 9d 90 bc dc 1c 79 bd 2e 1d 5f be
       -0.18620351 -0.017653378 -0.060818538 -0.21788475
000140 02 9b f2 3c a0 2e f1 3c 80 34 2c bd 06 6e 27 3e
       0.02961493 0.029441178 -0.042042255 0.16350564
000150 76 54 10 3e 25 15 65 3c b5 c4 39 3d a3 ea 0f bd
       0.1409472 0.013982092 0.04535361 -0.035135876
000160 b6 f6 b9 bc 60 64 33 be ac e3 59 3c aa 50 26 be
       -0.022700649 -0.17518759 0.01329891 -0.16241708
000170 ae 15 83 3d bf e7 84 be 9d f8 a9 bd 41 50 18 3d
       0.064006194 -0.25958058 -0.08299372 0.03718591
000180 87 80 51 3d db dc d4 3d b5 46 72 bd 9d e0 67 bc
       0.051147964 0.10393687 -0.059149463 -0.014152673
000190 5c 6a 88 3d 06 04 8e 3d 22 00 d1 3d b5 1e 26 be
       0.066609114 0.06934361 0.102051035 -0.16222651
0001a0 c3 b8 a2 3c 01 ab 05 3d 98 00 6e bd 48 ab 89 bd
       0.019863492 0.032633785 -0.058106035 -0.067221224
0001b0 c9 da a9 bd 70 35 e0 bd 11 a5 53 3c 60 3d 8e ba
       -0.08293683 -0.109476924 0.012917773 -0.0010852031
0001c0 33 e2 a0 bd b2 d8 bd 3d 06 1a 07 bb 56 2d 1c be
       -0.07855644 0.09269847 -0.0020614876 -0.1525167
0001d0 ac b6 52 3d e6 df 87 bd 99 bc 94 3c cf 94 43 3d
       0.05144374 -0.06634502 0.018156337 0.047749337
0001e0 ee 38 bb bd f4 0d 4f bc 0d 38 9a 3d 16 fa 81 bc
       -0.09141718 -0.012637604 0.07530222 -0.01586632
0001f0 2b a0 2f be 36 f7 1f be 47 03 44 be ac 90 70 3d
       -0.17150943 -0.15621647 -0.19141875 0.05873172
000200 04 3d df bd 89 8b a5 3d 16 56 08 3d 90 9a ff bd
       -0.1090031 0.08083255 0.033285223 -0.12480652
000210 5d 42 80 bd 0e ff cb 3c d4 58 b7 3c 2f c6 cf 3c
       -0.06262658 0.024901893 0.022381224 0.025363056
000220 4e 05 a5 3c 45 58 72 3c d3 c3 33 3b 5d b1 db bc
       0.020144131 0.014791553 0.0027429953 -0.026817972
000230 4b 3c 36 be 18 ed 4b be 40 da 04 3d a4 e8 86 bd
       -0.17796437 -0.19914663 0.032434702 -0.065873414
000240 a6 50 e2 bc 21 25 3b bd c9 28 68 bd f5 7b d1 bd
       -0.027626347 -0.045689706 -0.05667952 -0.10228721
000250 f4 ce 55 3d 90 37 d0 bc ea b0 25 bd 77 38 93 bc
       0.05219932 -0.02541712 -0.04045192 -0.01797126
000260 fb 1b 4e be 72 f7 44 bd e1 45 14 be 5e d7 97 3d
       -0.20127861 -0.048087545 -0.14479782 0.07414125
000270 19 c3 60 3c 9d f0 06 3d ee 09 95 bd 18 30 f0 bd
       0.01371839 0.03294431 -0.072772846 -0.11727923
000280 bb d7 2b bd 4c e4 89 3c 99 c9 d7 bd 9d d1 3a 3e
       -0.041953783 0.016832493 -0.105364986 0.18244024
000290 5a 04 87 bd 9e ea 0a bd 8c 10 b8 3b 86 2c 1b 3e
       -0.06592627 -0.033915155 0.005617207 0.15153703
0002a0 52 bb 1f bc 29 e7 4f be e0 ce 91 bd 18 d9 3d be
       -0.0097492505 -0.20303024 -0.071195364 -0.18539846
0002b0 9f d0 3f 3e 0c 76 30 be 27 35 db bd 70 42 8d bd
       0.18731926 -0.17232531 -0.107034974 -0.068974376
0002c0 f6 25 c5 bc 95 d2 8a bc 3a bb cf 39 bf 54 1c 3c
       -0.024065953 -0.016946116 0.0003962161 0.009541689
0002d0 dc a8 18 bd db 15 7e 3d ba b1 ac bd df 73 64 be
       -0.03727041 0.06203256 -0.08432336 -0.22309826
0002e0 17 ff 14 be e3 8a 57 3d 50 5a a6 bd 50 0b 37 be
       -0.14550434 0.052622687 -0.081226945 -0.17875409
0002f0 7c 80 b8 3d 34 c4 29 be 88 cc a4 3d d0 cb 1e be
       0.090088814 -0.16578752 0.08046824 -0.15507436
000300 ce 56 15 be 02 63 2a be ba 5e 81 bd 2a 12 ce 3d
       -0.14583895 -0.16639331 -0.06316896 0.10062058
000310 23 09 31 be 6e 69 9a 3c 84 9c e2 3b 20 16 12 bd
       -0.17288642 0.0188491 0.006915631 -0.03566563
000320 b6 1a 62 3c ff eb 93 be 32 e9 6b 3c 02 2f 8c bd
       0.013800314 -0.28890988 0.01439886 -0.068449035
000330 cf 75 0a bd b8 f4 c0 bc f2 50 c5 bc 5c f6 e3 bd
       -0.033803757 -0.023554191 -0.02408645 -0.11130974
000340 c2 b5 06 be 20 43 03 be 1f 02 89 be ba d6 44 be
       -0.13155273 -0.12818575 -0.2675943 -0.19222537
000350 61 f1 8d bd b7 92 b3 bd 84 97 0e 3d 2c 9b 89 3d
       -0.06930805 -0.08768218 0.034812465 0.0671905
000360 50 ff 05 3e e7 99 80 3d 3c 9b 36 3d ca a5 08 be
       0.13085675 0.062793545 0.044581637 -0.13344494
000370 d7 ca ce bd 79 59 9a bd 19 d1 2e be fb c7 76 be
       -0.100972824 -0.07536597 -0.17071952 -0.24099724
000380 dc a0 2c be 76 b1 f5 3c b7 d8 31 bd 8d 4c e8 bd
       -0.16858238 0.029991847 -0.043419566 -0.11342726
000390 dc 2c 03 be ae 16 d6 3c 08 5a 27 be 25 96 ef bc
       -0.12810081 0.026133861 -0.16342938 -0.0292464
0003a0 da 56 7e be 4a 9e 3c 3d 31 91 37 be 20 b5 50 be
       -0.24837819 0.046049394 -0.1792648 -0.20381594
0003b0 fe e1 c2 3d 40 98 af bc ed 64 04 be df d2 18 3c
       0.09515761 -0.021434903 -0.12929125 0.009327619
0003c0 70 51 1b bd e0 d0 08 3d bf 9a 42 be ce a5 4a bc
       -0.03791946 0.033402324 -0.19004343 -0.0123686325
0003d0 6a 16 29 bc 63 91 0b bd 15 0f 31 b9 c0 d8 c5 3c
       -0.010320285 -0.0340742 -0.00016885654 0.024151206
0003e0 b4 20 6a 3c bc 5d 2c be 2a de 71 bc 6a 06 fa bd
       0.014290024 -0.16832632 -0.014762441 -0.12208255
0003f0 2a 92 32 bd fa 56 9c bc 03 9a 27 be 26 1f 0e be
       -0.043596424 -0.019084442 -0.16367345 -0.1387907

network.1.conv.0.weight f4 [256, 512]
000000 2b 9b 72 3c 40 39 3f be 6a 55 5d bd ca d2 1c 3d
       0.014807503 -0.18674183 -0.054036535 0.03828696
000010 fb 51 e3 ba 30 1d d3 bd 66 4e 0d be e5 0d 37 bd
       -0.0017343158 -0.103083014 -0.13799438 -0.044690985
000020 28 41 88 bc b5 92 c7 bd 8d b1 51 be f5 ef b7 3d
       -0.016632631 -0.09744779 -0.20477886 0.08981315
000030 83 fe 16 3e 88 73 8c bd 1d 41 bd bd 80 5e ad 3e
       0.14745526 -0.06857973 -0.09240935 0.3386116
000040 c6 2e 84 be c7 ef b0 bc c8 ca ce 3c 37 63 4c 3e
       -0.25816935 -0.02159871 0.025243178 0.19959722
000050 e2 b7 de 3d c0 83 8d 3e de a8 b3 3d a1 3c 01 3d
       0.108749166 0.2763958 0.08772443 0.03155196
000060 a0 bd 16 3e 97 c1 75 bd 35 0a 4a 3e 06 8a 12 3e
       0.14720774 -0.059999075 0.19730456 0.14310464
000070 65 db fb bd 5b 11 63 bd 3f 86 2b be 1c 28 9d 3b
       -0.122977056 -0.055436473 -0.1675043 0.004796041
000080 ab 11 f7 3d 43 42 33 3d a4 1a 5f 3c e9 0d 1d 3d
       0.12063917 0.043764364 0.013617191 0.038343344
000090 a1 b8 54 bd da 93 41 be 24 6b 3b bb 7a f8 80 be
       -0.05193389 -0.18904057 -0.0028597796 -0.25189573
0000a0 bf a2 87 3c 1a 9b 93 3e d9 b5 95 bd 60 51 bc be
       0.016557096 0.2882927 -0.07310075 -0.36780834
0000b0 24 1b ad 3d 51 7d 85 bd e5 28 1b be 31 f7 29 be
       0.08452442 -0.06518043 -0.15152319 -0.16598202
0000c0 d6 47 84 3c b3 b5 65 3c e7 d5 d7 3b 87 04 ae bd
       0.016147535 0.014020371 0.0065867784 -0.08496957
0000d0 33 c0 11 3e 3c f9 30 3d 74 d7 93 3e 69 23 45 bd
       0.14233474 0.04320644 0.28875315 -0.048129473
0000e0 05 e7 9b be f4 ac 66 be 85 f2 69 be 7d 05 e2 be
       -0.3044969 -0.22526914 -0.2284642 -0.44144812
0000f0 7f 76 68 bd f1 aa 09 3e 7d d4 e9 bc 2a bc df bc
       -0.05675363 0.13444115 -0.028543705 -0.027311403
000100 00 03 1b 3c bb 78 92 be 06 52 9a bd 08 95 ca 3c
       0.0094611645 -0.28607735 -0.07535176 0.024729267
000110 fe 2e a1 bd eb 0d fc b9 d0 40 fe 3d b6 2a 93 bd
       -0.07870291 -0.00048075555 0.12414706 -0.07185881
000120 f1 97 16 3d 28 db 9b 3e 40 70 c8 bd db 59 77 be
       0.036765996 0.3044064 -0.09787035 -0.24155371
000130 90 e7 5c be 47 7b b1 3c b5 31 bf 3d 57 7b 04 3e
       -0.21572709 0.021665229 0.09335653 0.12937675
000140 f4 d3 2f 3c 5a 7a 16 be 36 c3 65 be e6 19 f6 3d
       0.010731686 -0.14695111 -0.22437748 0.120166585
000150 c5 1e f2 bd 2d 9a bc 3d a5 7a 79 be e0 9b 8a bd
       -0.11822275 0.09209094 -0.24363191 -0.06768012
000160 7e 44 3c 3e a5 f4 63 3e d5 8f 72 3e 2b 0b c6 3d
       0.18385503 0.22261293 0.2368768 0.09670099
000170 7f 51 b0 3e bc b2 97 be 5f 02 67 3d a9 f9 ab 3c
       0.34437177 -0.2962855 0.056398746 0.02099307
000180 f7 c3 af bd 43 14 13 3e 13 39 37 bd 51 e7 43 be
       -0.08582299 0.14363198 -0.044732165 -0.19131209
000190 4f 66 eb 3d d3 4b 48 3b 8a fb 9b 3d 90 be 60 be
       0.11494123 0.0030562773 0.07616337 -0.21947694
0001a0 ab dd 6e 3e df be 00 bd 8e 92 2b be ff b0 e6 bb
       0.23326747 -0.03143203 -0.16755125 -0.0070401425
0001b0 a6 95 75 3e ea 7b f9 3d ad 60 7b 3e 6a 94 75 3d
       0.23982868 0.12181838 0.24548598 0.05995599
0001c0 34 cb bb bc 0f c0 d5 3d c2 79 83 3e 9c 30 65 be
       -0.022924043 0.10437023 0.2567883 -0.22381824
0001d0 1d bc bc 3d e2 3f 17 be 3b a9 0a be d5 ed 8e 3d
       0.09215567 -0.14770463 -0.13541119 0.069789566
0001e0 fe 23 91 bd d7 d6 6b 3e 57 11 d3 bd 62 93 17 bd
       -0.07086943 0.23031174 -0.10306042 -0.03700579
0001f0 1b 62 40 be f1 d1 a8 be 5e 00 dd be f5 2c 0b 3c
       -0.18787424 -0.32972673 -0.43164343 0.008494605
000200 25 c3 4c 3b 8b 90 b3 bb 92 f8 6c 3e 88 e9 db bc
       0.0031244245 -0.0054798773 0.23141697 -0.026844755
000210 41 d7 c2 bc 73 3b 6f bd 8f 6a be bd 56 c8 c9 3c
       -0.023784282 -0.058406305 -0.09297668 0.02463166
000220 74 f0 83 3d 94 78 c3 3d 82 ed ad bc a6 23 98 3c
       0.06442347 0.09544483 -0.021231417 0.018571686
000230 0d ac 36 bb 56 af 11 3d 4f 9e 73 be af 67 be 3d
       -0.0027873546 0.035567604 -0.23790859 0.0929712
000240 98 df 51 3d 30 2b b9 bd 89 22 0e be 36 dc 99 bd
       0.051238626 -0.090414405 -0.13880362 -0.07512705
000250 b6 2b 31 3e 21 fb a3 bd ee 53 eb 3c b2 61 92 3c
       0.1730183 -0.080068834 0.028726544 0.01786885
000260 db ce 73 3d 6c 63 2c 3e 47 cb b6 3c 7c 38 0f 3d
       0.059523445 0.16834801 0.022313727 0.034965977
000270 c9 60 51 3e 93 20 c6 3d 3f df 21 be ea 2f e3 3b
       0.20447077 0.09674182 -0.15807818 0.006933202
000280 09 2a c6 bc 06 cb c0 3c f9 cb 3e 3d eb ab 3f 3d
       -0.024189966 0.02353431 0.046581242 0.046794813
000290 f4 b0 04 be 66 05 3b 3e 70 1c d8 3d d5 2a e5 3d
       -0.12958127 0.18263778 0.10552299 0.1118981
0002a0 89 e5 25 bc f5 bc 84 bd 34 f6 61 3c c1 c7 2a be
       -0.010125526 -0.06481353 0.01379161 -0.16677763
0002b0 42 12 14 3e 26 93 d4 bc ae ba 09 3d fa 0d 28 be
       0.1446009 -0.025949072 0.033625297 -0.16411582
0002c0 9b ca 2c bd 2a fc 44 3e 18 1e b2 3d 66 1b 2f 3c
       -0.042185407 0.19236818 0.08697146 0.010687685
0002d0 c4 88 06 be 2e a9 2a bc 78 63 f9 3b 5a 76 5a be
       -0.1313811 -0.010416312 0.0076107346 -0.2133421
0002e0 f4 53 89 be e6 5c cc 3d b1 0e 03 3d af e2 0d be
       -0.26821864 0.099786565 0.031996433 -0.13856004
0002f0 99 2e fd bc eb 26 10 3d f0 29 f2 3c 77 fc 61 be
       -0.030906009 0.035193365 0.029561013 -0.22068964
000300 33 2f a6 be b1 b3 b9 3c e0 26 a8 3d 79 e4 59 3c
       -0.32457885 0.022668691 0.0821054 0.013299101
000310 af a3 7c 3d 33 ac f5 bc 79 a6 25 3e f4 2c a0 bd
       0.06167954 -0.029989338 0.16176786 -0.07821074
000320 5a 2d 31 bd e2 a2 34 be cc 6e 6c bd 1f af a5 bd
       -0.04325614 -0.1764026 -0.05772285 -0.08090042
000330 01 fc 10 3d d7 5a d2 3d 17 ec 1d 3e 1e 17 00 bf
       0.03539658 0.102712326 0.15422092 -0.50035274
000340 77 b6 c0 3b 28 82 99 be 22 49 a3 3b 02 f2 98 be
       0.0058811265 -0.29982114 0.0049830833 -0.29872137
000350 1f 66 d5 3d 72 32 b4 3c b2 a5 3d bd 77 5a 11 3d
       0.10419869 0.02199671 -0.046300597 0.035486665
000360 d6 0b a4 3d 52 48 0b 3e 2d a1 64 3d c9 8c 28 3d
       0.0801007 0.13601807 0.05581777 0.04114989
000370 c1 b6 8e 3d 72 7e 4f bb 18 83 ec bd 55 12 ae bd
       0.06968451 -0.003166106 -0.11548442 -0.0849959
000380 cc 1a 10 be d0 0b f4 3a 9c 02 15 3d 16 06 65 be
       -0.14072722 0.0018619243 0.03637944 -0.22365603
000390 b5 37 5d be d6 76 35 be b8 b8 8e bc 93 ca ce 3d
       -0.21603282 -0.17721114 -0.017422065 0.10097232
0003a0 9e f3 9c bc ba 4d 94 3c ba ff d6 bc c1 66 42 bc
       -0.019159134 0.01810347 -0.026244987 -0.011865319
0003b0 46 2c 95 bb 3d 1d 04 3d 1a 7c 00 be 22 1f d7 3c
       -0.004552397 0.032254446 -0.12547341 0.026259962
0003c0 f9 47 45 3d ed 0c 06 3e 55 b4 e8 bd bd 3e 4e 3d
       0.04816434 0.13090868 -0.113625206 0.0503528
0003d0 dd a1 92 bd 0c 3c 11 be 25 a6 76 3d 46 45 11 be
       -0.07159779 -0.14183062 0.06021704 -0.14186582
0003e0 4b 56 05 bd e4 d5 ca be f4 13 82 3d cf ac d1 bd
       -0.032553 -0.3961631 0.06351462 -0.10238039
0003f0 5e fa 66 3e b2 25 15 be 26 31 9e bd fb 4b 71 3d
       0.22556445 -0.14565161 -0.07724218 0.05891035

network.1.conv.0.bias f4 [256]
000000 09 38 53 bd 44 43 01 bd cd 5d 03 3d d4 d7 59 3c
       -0.05156711 -0.03155829 0.032071877 0.013296086
000010 ec 9c f7 bb fc 2e 95 3d 40 c8 41 3d dd 88 b1 3d
       -0.0075565483 0.07284352 0.047310114 0.08668683
000020 ce 6f b5 bd ab 46 3a 3d f3 7e 6f bc f9 60 25 be
       -0.08859216 0.04547755 -0.014617669 -0.16150273
000030 5b e1 69 3d 0d f0 18 be 46 f8 ee bd 6c 58 ce bd
       0.05709968 -0.14935322 -0.11668448 -0.10075459
000040 65 02 d2 bd 49 9c 5d ba ec 88 4b 3d 09 7a 24 be
       -0.10254363 -0.0008453769 0.049691126 -0.16062178
000050 73 25 d0 bd ff 97 3b 3e e6 86 c0 bd 10 c0 19 bd
       -0.10163393 0.183197 -0.0940073 -0.03753668
000060 46 bc a3 bd cd f8 f9 3b 87 19 2e be d4 95 c4 3c
       -0.07994895 0.0076285363 -0.17001925 0.023997225
000070 41 02 12 be de de b3 39 92 ea 09 be 89 9b c5 3b
       -0.14258672 0.0003430759 -0.13468388 0.006030504
000080 94 56 8a bd c8 8a 70 be 4d 64 2a 3e fb 02 c6 bd
       -0.06754795 -0.23490441 0.16639824 -0.09668537
000090 8c cc 6d be 2c a9 ca bc 47 dd cc 3b 40 6b 34 bd
       -0.2322256 -0.02473887 0.0062519643 -0.044047594
0000a0 05 02 bb bd 44 25 07 be 97 0c 66 be db fb 93 3d
       -0.091312446 -0.1319781 -0.2246574 0.07225772
0000b0 92 89 b9 3c 1a bc 9e 3c 19 fb fe bd 73 2e 8a 3c
       0.022648606 0.019376803 -0.12450237 0.016867852
0000c0 95 00 6d bd a2 c3 37 3d 01 b2 7a bd e6 89 79 3d
       -0.057861883 0.044864304 -0.061204914 0.060922526
0000d0 8c e7 72 bd 12 fb 6f bc 33 31 48 bd 72 f9 b9 bb
       -0.05930285 -0.014647262 -0.048875045 -0.005675488
0000e0 89 54 48 ba 1e 24 f0 bc 87 84 69 3c 17 96 de 3d
       -0.0007641991 -0.029314097 0.014252788 0.10868471
0000f0 4f a0 0d be 67 64 8a bd dd c4 5f bc 66 06 77 bb
       -0.13830684 -0.067574315 -0.013657776 -0.0037693023
000100 cb 5f bc 3c 5c a3 78 3c 2c 22 15 3e be 71 45 bd
       0.022994896 0.015175667 0.14563817 -0.048204176
000110 1f 54 f2 bc 48 94 92 bd 86 ae 0b bc 10 4a c7 bd
       -0.029581128 -0.07157189 -0.008525496 -0.09730923
000120 56 ba 22 3d 84 f1 d8 bd 9d b7 03 be bd 39 32 bc
       0.039728485 -0.105929404 -0.12863012 -0.010878024
000130 56 9c f5 bc 3d a1 46 3a 3d a7 97 bb fa dd 57 3e
       -0.029981773 0.0007577127 -0.0046280907 0.21080771
000140 14 ee fe bd 32 89 15 3d 98 63 25 be 1f 56 4d 3d
       -0.124477535 0.036507793 -0.16151273 0.05013096
000150 1b 5f 34 be b0 6a b4 bd f6 af 56 bd 42 fe a7 bd
       -0.17614405 -0.088094115 -0.052413903 -0.08202793
000160 38 77 59 3d 2e c9 82 bc 3a b6 3d bc 6c db ed 3d
       0.05309221 -0.01596507 -0.011579091 0.11614117
000170 1c 6c 64 3d 0d 92 13 3e 9c 0b 31 bd 73 fc 27 bc
       0.055767164 0.14411183 -0.043223962 -0.01025306
000180 31 14 3d be d3 5c 40 bd 33 83 13 bd 22 e9 9e 3e
       -0.18464734 -0.046963524 -0.036013793 0.3103724
000190 b6 2f 14 3d ed 88 8e bd b0 57 94 3d 88 51 3c be
       0.036178313 -0.0695971 0.072432876 -0.18390477
0001a0 67 09 5f be 76 aa 6b bd 1a 93 e1 3d c9 e5 30 be
       -0.2178093 -0.05753561 0.110143855 -0.17275156
0001b0 a7 7a 16 3d 80 56 21 bd 3f de fd 3d eb 9b 30 be
       0.036738064 -0.039389133 0.12395906 -0.17246978
0001c0 cd b0 9b 3d a9 0f e5 3d a4 75 df bd 09 9b a2 3d
       0.076020814 0.111846276 -0.1091111 0.07939727
0001d0 d8 7f 6d 3d 70 8a c7 bc 4b 65 8e bc b9 13 11 3e
       0.05798325 -0.024358004 -0.017382285 0.1416768
0001e0 72 bc 1c bc 30 08 e9 bc 4f 27 f6 3d 57 6c e5 3d
       -0.009566413 -0.028446287 0.12019216 0.11202305
0001f0 d0 d8 eb bd 6a 26 33 bd db 42 df 3d 94 a2 6d be
       -0.11515963 -0.043737806 0.109014235 -0.2320655
000200 66 9b 89 bd bd 05 f5 bd a8 1a 2a be bf 71 1e 3d
       -0.06719093 -0.11963985 -0.16611731 0.038682695
000210 16 c0 77 bd bb af 67 3b 3f 4b 37 3c d8 45 5f bc
       -0.06048592 0.0035352546 0.011187374 -0.013627492
000220 d6 8d 0b 3d 47 57 b6 bc 4a a9 89 bd 08 05 08 bd
       0.034070812 -0.022258414 -0.067217425 -0.033207923
000230 9f 7e 39 bd 84 17 f3 3c e0 86 c7 3b d6 76 58 bb
       -0.04528677 0.029674299 0.0060890764 -0.0033029816
000240 bb 8e 58 3d 82 f4 b3 3b 6e 8e 24 be 03 1e af 3d
       0.052870493 0.005491794 -0.16069958 0.08550646
000250 0c 9a 21 3e ee 89 aa bd da 39 44 bd e5 05 32 be
       0.1578142 -0.08327089 -0.047906734 -0.17385061
000260 c2 c2 dd 3d 55 b0 90 3e 26 ab 29 3d 8a a9 90 bd
       0.10828163 0.2825953 0.041422985 -0.07063587
000270 e2 86 07 bb d4 09 83 3a 7f 1a 2a 3c c5 f8 74 bd
       -0.0020679762 0.0009997436 0.010382294 -0.059807558
000280 24 49 1e bb f7 ab ab bd 1a ce 7b 3c f6 b6 2b 3e
       -0.0024152482 -0.08382409 0.015368963 0.16769013
000290 d0 e7 c3 bc 21 0c dd 3d ab 39 f0 bb 92 e3 6d bd
       -0.023914248 0.10793329 -0.0073310933 -0.058078356
0002a0 b1 52 65 3d 21 8d 85 3d 13 ec a4 3d 0a 92 27 be
       0.055987064 0.06521059 0.0805284 -0.16364303
0002b0 cc 98 30 3c a2 a2 62 be 89 ce 36 3d ce fd 0b be
       0.010778617 -0.22132352 0.04463056 -0.13671038
0002c0 cb 22 62 bd 30 fe ce bd eb 6e 00 bd bb 60 ec 3c
       -0.055208962 -0.10107076 -0.03135578 0.028854718
0002d0 29 13 4b bb 50 63 56 b9 76 22 19 3d 9b 70 01 be
       -0.0030986762 -0.00020445627 0.03738638 -0.12640612
0002e0 1c 47 88 bc 73 b1 ac bd 04 67 3f 3d 36 85 84 be
       -0.01663547 -0.08432283 0.046729103 -0.25882882
0002f0 05 33 a1 bd cb 77 e5 3d e6 79 ca bd 04 69 04 3c
       -0.07871059 0.11204489 -0.098865315 0.008081678
000300 6b 8a 86 bd 5c cf fe bd da 9c 29 be 4e 9a 5a 3d
       -0.0656937 -0.124418944 -0.1656374 0.053369813
000310 96 e2 99 bd 1d 78 7b 3d 02 42 c8 3d 61 25 bb bd
       -0.07513921 0.061393846 0.09778215 -0.09137989
000320 d6 bc b6 bd 6e bb dd 3d 8a 9c 12 be 89 db 18 3e
       -0.08922736 0.10826765 -0.14317527 0.14927496
000330 39 71 11 bd 82 ba e3 bc 67 d2 45 be d8 d3 0c be
       -0.03550837 -0.027798895 -0.19318543 -0.13752687
000340 74 68 d9 bc f0 e8 da b8 f2 0d 5d bc b1 e7 f1 bb
       -0.026539065 -0.00010438438 -0.013492094 -0.007382356
000350 23 1e 37 be db 9b a8 bb 48 de d9 3c fb c4 8b 3d
       -0.1788259 -0.0051455325 0.02659525 0.068246804
000360 34 2e 0c be 37 ab ad 3b 9a 15 83 be 46 8f 38 bd
       -0.136895 0.0052999514 -0.25602418 -0.04505851
000370 63 7e 99 3b c5 ea 0a be 6f 71 55 be f9 1b bd bd
       0.004684256 -0.1356612 -0.20844053 -0.09233851
000380 7b b5 09 3c a5 c3 5c bb 8f 7b 7a 3d 6b af 01 be
       0.008405085 -0.003368595 0.06115299 -0.12664573
000390 11 f8 57 3d eb 91 18 3e f3 ea 0b 3e ea 81 51 be
       0.05272681 0.14899413 0.13663845 -0.20459715
0003a0 3f d0 69 bd a9 26 0c 3e a8 ce 9d bd fa 39 a9 bc
       -0.057083365 0.13686623 -0.07705432 -0.020657528
0003b0 01 78 c0 bc b4 7f ec 3c 3c e7 74 bd 80 a6 25 3e
       -0.023494722 0.028869487 -0.059790835 0.16176796
0003c0 a9 82 0d be 05 d1 6f 3d 96 09 02 be 9b 4f a7 3b
       -0.13819374 0.058548946 -0.12698969 0.0051059253
0003d0 9a d7 4e 3e 86 97 25 3d 5a 10 1c 3d 6d 0b e4 bb
       0.20199433 0.040427707 0.03810153 -0.00695937
0003e0 4c 79 b4 bd d1 86 15 bd 6b c2 83 be 94 ce ab bc
       -0.08812198 -0.036505524 -0.25734267 -0.020972528
0003f0 e0 0f 7e 3d 0b fb ba 3d b6 46 83 bd ab e7 c2 bd
       0.06202686 0.09129914 -0.064099714 -0.095168434

network.2.conv.0.weight f4 [128, 256]
000000 0e 7b 52 3a 31 91 c0 3a 15 de 92 bc 82 6e ea 3c
       0.0008029201 0.0014691708 -0.017928163 0.028617147
000010 c2 63 57 bd 02 33 b7 3d 02 89 67 3e dc b8 45 3e
       -0.05258537 0.08945276 0.22610858 0.193088
000020 b1 fe 49 bd 42 20 27 3c 60 ef e0 bd 2f 41 50 bd
       -0.04931516 0.010200562 -0.10983157 -0.050843414
000030 6c 3a 92 3d 7d 2f bd 3d 1d 25 ab 3d c5 48 c4 bd
       0.07140049 0.09237573 0.08356688 -0.09584192
000040 f9 d8 cd 3e c3 81 e6 bd 50 2b df bc 8d fa a2 3d
       0.402046 -0.11255219 -0.027242333 0.07957945
000050 c7 ec bc 3d 93 3a c5 bc 9a 8b a2 3d 03 e1 e9 3d
       0.09224849 -0.024075782 0.07936783 0.11419871
000060 a3 a9 57 be 7a ec 88 3e cb 9a 08 be b0 e3 9f 3d
       -0.21060805 0.26742917 -0.13340299 0.078071
000070 5d 99 34 3e 64 a2 a3 bd ac cb 42 3d 53 04 58 be
       0.17636628 -0.07989958 0.047557518 -0.210954
000080 34 f1 16 be 48 be b4 bd 6f 24 79 3d 02 1a 8c bd
       -0.14740449 -0.08825356 0.06082576 -0.06840898
000090 b7 dd 93 bd a9 a3 ee bb a5 69 ee 3d 4f 59 53 bd
       -0.07220023 -0.0072826934 0.11641244 -0.051598843
0000a0 6b 06 9f 3d ff b4 2d bd 37 17 0f 3c 8e 82 bc 3d
       0.07764896 -0.04240894 0.008733562 0.09204589
0000b0 eb e5 f5 bd 1c 16 f6 bd 4a ab 55 3e 3f c5 26 3b
       -0.12006744 -0.12015936 0.20866123 0.0025447158
0000c0 7f 1a 62 be 13 e4 e4 3d 58 6e 3d be 1f 4f 43 bd
       -0.2208042 0.11176314 -0.18499124 -0.047682878
0000d0 c5 5d 5f bd 34 2b b5 bc 2c 4c 0a 3d 93 cf 25 bd
       -0.054532785 -0.022115327 0.03376405 -0.04048116
0000e0 6f e8 24 bd df 5b a8 bd 39 50 5b be 3f 64 fe bd
       -0.04026073 -0.08220648 -0.21417321 -0.12421464
0000f0 55 7d 76 3d e1 50 a9 bd 61 28 2d 3e b4 9b e0 bd
       0.06017812 -0.082673796 0.16909935 -0.10967198
000100 83 cf 77 39 b1 b8 d7 3d fb e4 a1 bd 93 01 4c 3b
       0.0002363306 0.10533274 -0.07905003 0.0031128868
000110 7b 96 33 be 4a df 85 bd 89 1d ca bd d7 2d c8 3d
       -0.17537872 -0.0653673 -0.09868915 0.09774368
000120 1b de 19 bd e0 de fb 3a 1b a9 f3 bd ab 76 38 bd
       -0.037565332 0.0019216202 -0.11897489 -0.045035046
000130 46 6d 44 3d 07 ac d9 3c 83 cb 2f 3e 14 0c 56 be
       0.047955774 0.026571287 0.17167477 -0.20903045
000140 d3 75 9a be ab 0b 12 3e 52 8c ee bc 2a 77 e3 bb
       -0.30168018 0.14262263 -0.029119644 -0.0069416957
000150 38 37 35 bd e4 5c bc 3d 00 8a 1a bd 9a c5 06 3d
       -0.044242114 0.09197405 -0.037729263 0.03290329
000160 11 80 8a bd e0 6a 21 3a 30 9b 4d 3d 9a 1a c1 3d
       -0.06762708 0.0006157588 0.050196826 0.09428902
000170 6c b0 f9 bd 65 42 85 3c 22 8a 76 bd 92 5d 28 3d
       -0.12191853 0.016267011 -0.060190327 0.04110486
000180 eb 33 c0 3c ea f0 24 3d 10 6b 95 3c 20 c9 34 3e
       0.023462256 0.040268816 0.018239528 0.17654848
000190 75 94 3b 3d 58 01 df 3d 4b f7 d6 bc 28 94 d5 3d
       0.045795877 0.10888928 -0.026240965 0.10428649
0001a0 e1 a0 a5 3d 36 da be 3d 95 de 0a 3d d8 60 58 3d
       0.08087326 0.09318964 0.033903677 0.052826732
0001b0 de ca 90 3d e4 fa 66 be ac 78 b2 bd 80 8e c4 3d
       0.07069944 -0.22556645 -0.087144226 0.09597492
0001c0 75 4f d8 bd 39 65 f7 3c 1e 5f df 3d 96 0e 0a bd
       -0.1056203 0.030199634 0.10906814 -0.033705316
0001d0 21 c9 d1 3b af e7 87 be fb e8 c1 3d f6 59 a0 3c
       0.0064021503 -0.26543948 0.094682656 0.019574147
0001e0 3a c8 d5 bd 58 70 3d be 71 e3 24 be f7 f8 99 bd
       -0.10438581 -0.18499887 -0.16102387 -0.075181894
0001f0 a3 f4 9f 3d 58 7c e3 3b f3 0a ff bd 7b 20 e9 3d
       0.078103326 0.006942313 -0.1245326 0.11383148
000200 bf 9d b0 3d 3d 80 52 3e c8 7f 2e 3e 96 c8 10 be
       0.08623838 0.20556732 0.17040932 -0.14139017
000210 37 b3 63 bd b4 d6 f9 3d 03 e2 c8 bd 5e cb 91 3d
       -0.055590834 0.121991545 -0.09808733 0.07118867
000220 b9 15 0b 3d 45 ea 09 bc 2f 72 f7 bb 72 27 eb 3d
       0.033956263 -0.008417671 -0.0075514535 0.11482133
000230 48 7e e9 3d 83 53 f0 3c b5 0f 73 bd d1 19 05 be
       0.11401039 0.029336696 -0.05934115 -0.1299813
000240 38 67 84 3d d7 9c 2b be 58 ee 3d 3d 73 4b f3 bc
       0.06465 -0.16759048 0.04636988 -0.029699063
000250 7d 70 14 be 64 90 96 bb b6 03 71 bb ff 25 0e be
       -0.14496036 -0.0045948494 -0.0036775894 -0.13881682
000260 55 8d 82 bd ea a7 8b bd 00 3c 62 3c c2 93 ab 3d
       -0.06374613 -0.068191364 0.01380825 0.08377792
000270 3b fc 44 3e 58 63 e7 bd 1a 86 f0 3c 6d d2 1b be
       0.19236843 -0.11298245 0.02936082 -0.1521699
000280 2e 33 67 3e 46 9d f0 3b 95 64 2d 3e fc ac 3f bd
       0.22578117 0.007342967 0.169329 -0.04679583
000290 cc 45 87 bd 4d 6b 13 be 71 3e a9 3d 3c 4b 9d bd
       -0.066051096 -0.14396401 0.08263863 -0.076803654
0002a0 f5 d3 c3 bb 90 6f 02 be a6 7e a8 bd 6a 94 55 bd
       -0.005976195 -0.1273787 -0.08227281 -0.05214349
0002b0 6c 27 d4 3c 2b 23 b3 bd ca 1a 0d 3e 55 cf b8 3b
       0.025897704 -0.08746942 0.1377975 0.0056399503
0002c0 33 1a a4 bd 01 9d fd bd 88 3b 14 3e ba f6 b8 3d
       -0.080128096 -0.12383462 0.14475834 0.09031434
0002d0 a5 9b 52 3d 00 54 63 bd 8d d3 18 3e f3 15 7c bd
       0.051417965 -0.05550003 0.1492445 -0.06154437
0002e0 3c 2a 36 bd 20 3a 4c bd 6f 47 de bd ac 4b 81 bd
       -0.04447387 -0.04986012 -0.108534686 -0.063132614
0002f0 e3 c1 37 bd a2 5d 77 3c 61 98 cb 3d 0f c6 a3 bd
       -0.04486264 0.015098007 0.09941173 -0.07996761
000300 b4 7b 23 3e ec 38 4b be ce fb 62 be 3c 8a 1d be
       0.15965158 -0.19845933 -0.22166368 -0.15384763
000310 5f 5a e2 3d be 49 84 3d 40 54 f0 3d 36 64 b7 bd
       0.11052393 0.06459378 0.117348194 -0.089546606
000320 f5 74 0b 3e d2 0b 27 bb 2c 0a 1c 3e 9d 25 a0 bc
       0.13618834 -0.0025489223 0.15238255 -0.019549185
000330 8c 07 8e 3c 36 30 7b bd 4b 9c ad 3c 23 21 15 3e
       0.017337583 -0.061325274 0.02119269 0.14563422
000340 07 b4 9e bd 02 16 ee bc a9 f8 4f be 69 67 ae bd
       -0.07749181 -0.029063229 -0.203097 -0.08515818
000350 b7 e6 d1 3b 93 97 33 bd 6e b5 05 be 20 1a 42 3d
       0.006405677 -0.043845724 -0.13057491 0.047388196
000360 8d 30 41 bd 50 d0 30 3d a5 b8 31 be e7 a4 fc 3d
       -0.047165442 0.043167412 -0.17355593 0.1233614
000370 58 3a c5 bd 04 a5 f8 bd 17 ed 9b 3d cd f9 90 be
       -0.09630269 -0.12140849 0.07613581 -0.28315583
000380 83 6f 42 be 0c 12 81 bc 8d 9a 3c bd 6c 25 05 be
       -0.18987851 -0.015755676 -0.04604583 -0.13002557
000390 99 ab 15 bd 13 1e 05 be fe 85 4f bd c7 e9 c1 bd
       -0.0365406 -0.12999754 -0.050664894 -0.094684176
0003a0 87 70 ca 3c b3 a8 1e 3e c0 7b c8 3d 73 2a 26 bd
       0.02471186 0.15494041 0.097892284 -0.040567826
0003b0 80 0b 9c bc 98 19 0b be 66 72 9d 3e 8a a6 9b bc
       -0.019048452 -0.13583982 0.30751342 -0.01900031
0003c0 87 e4 ed bd df d4 c2 bd 3b 1e 70 be 0c ad 75 bd
       -0.11615854 -0.09513258 -0.23449032 -0.059979483
0003d0 d9 8b e7 bd b2 b2 c8 3d 03 e9 3a bd 9e f4 a6 bc
       -0.11305971 0.097997084 -0.045632374 -0.020380314
0003e0 7b 03 a2 bc 6e 8e 4e 3e 7e a6 39 3e 2d ac f3 bc
       -0.01977705 0.2017152 0.18129918 -0.029745186
0003f0 0e 3b 1a 3d 6a eb 0a bd 72 b0 ce 3d e1 24 93 bd
       0.037653975 -0.033915915 0.10092248 -0.071847685

network.2.conv.0.bias f4 [128]
000000 28 51 53 be da 5a c1 3b d4 97 1b be da 7c cc 3d
       -0.20636427 0.005900723 -0.15194637 0.09984751
000010 44 b6 30 be 6a 43 44 be 9f 85 19 3e 98 b1 ed 3b
       -0.17257029 -0.19166341 0.14992379 0.007253837
000020 e1 8a 6a bd 58 85 e6 3c 29 18 76 bb bd 38 12 3d
       -0.05726135 0.028139755 -0.0037551022 0.03569864
000030 3c ad 54 3d 8c 01 c1 3d 61 0b 7b bd 15 70 57 3d
       0.05192302 0.09424123 -0.06129015 0.052597124
000040 72 75 76 3c 71 62 ca bc 09 6e c3 bd 3d 4e 92 be
       0.01504265 -0.024705144 -0.09542472 -0.28575316
000050 e3 b2 cb bd 9e 1d b1 3c d8 7e 20 bc 19 57 cd bd
       -0.09946229 0.021620568 -0.009795867 -0.10026378
000060 a1 9e d0 bd 59 68 02 be 13 78 bf bc 12 27 db bd
       -0.10186506 -0.12735118 -0.023372686 -0.107008114
000070 1e 8d 47 bd 07 14 81 bd f5 15 b9 3d f2 95 51 be
       -0.048718564 -0.06302648 0.09037391 -0.20467356
000080 73 95 aa bd 32 35 70 be 7f e7 51 bd 4a cb ce 3c
       -0.083292864 -0.23457792 -0.051246163 0.02524342
000090 e8 ba 6d bd f5 88 58 be 71 ba 0a 3d 4c 83 bd bd
       -0.058039576 -0.21145995 0.03386921 -0.092535585
0000a0 73 b1 ed bd 2b 43 d4 3c 0f c3 82 3d 0f 36 40 be
       -0.116061114 0.025910934 0.06384861 -0.18770622
0000b0 cb d6 04 be 8f 67 25 3d 4f cb b7 3d 85 07 da bd
       -0.12972562 0.040381964 0.08974325 -0.106459655
0000c0 b3 9c 60 be 01 1e 27 3d f2 88 0b bd 3d ab ab 3c
       -0.21934776 0.0408001 -0.034066148 0.020955676
0000d0 dd a4 32 bd 8d 6e 00 3e 58 f3 57 bc 4a ca e4 3d
       -0.043614257 0.12542172 -0.013180576 0.11171396
0000e0 49 58 f0 3c 9f 8f 1b bd 9e 89 2c be cf ff 96 be
       0.029338973 -0.037978765 -0.16849372 -0.2949204
0000f0 b3 1c 8f be 34 23 a5 3c da d3 be bd 91 fe 19 3e
       -0.27951583 0.020158388 -0.09317751 0.15038516
000100 a8 aa c2 3c a2 12 22 3e b3 88 50 be 95 6c 44 3e
       0.023763016 0.1582742 -0.20364647 0.19182046
000110 5a 3f 6f bd 61 a8 28 3d 38 df dd bd e2 58 a2 bd
       -0.058410026 0.041176204 -0.10833591 -0.07927109
000120 57 17 54 3e bd 8b 27 3c 23 af 98 3c 98 df fa 3c
       0.20712028 0.010226187 0.0186382 0.030624196
000130 1a 5e 03 be 3c 16 bf 3d 3f 2d e0 3d d7 43 1a 3d
       -0.12828866 0.09330413 0.1094613 0.037662353
000140 af b3 ca 3c 72 63 5c be aa d8 42 bd 18 60 21 3e
       0.024743883 -0.2152231 -0.04756991 0.15759313
000150 2a d5 c6 bc 45 75 27 3d 68 84 1e be 0f e7 aa 3d
       -0.024271566 0.04088332 -0.15480196 0.08344852
000160 42 7b 90 3c ce 44 88 3d 59 46 c2 bd 5d 75 40 be
       0.017636899 0.066537485 -0.09486074 -0.1879477
000170 fe db 10 be 1d 19 da bd 7a e9 b7 3c 9b 84 5e bd
       -0.1414642 -0.10649321 0.022450197 -0.05432568
000180 20 ee 21 bd 63 92 ff bd 4c b4 c6 3d 71 cb e0 3d
       -0.039533734 -0.12479093 0.09702358 0.10976303
000190 b0 f8 f3 bd 92 db ff bd a0 50 03 3c ad 2c 52 3d
       -0.11912668 -0.124930516 0.008014828 0.051312137
0001a0 15 12 88 bc 0f 57 a8 3d f3 63 d1 bd e4 94 c8 bc
       -0.016610185 0.0821973 -0.10224142 -0.02448506
0001b0 57 2b 4f be 4f f4 1e be e1 67 5c be 84 d8 2b 3d
       -0.20231377 -0.15522884 -0.21524002 0.041954532
0001c0 a3 a9 5e 3a 9b 49 32 bb b8 19 d5 bd b3 5b 12 be
       0.0008493906 -0.0027204517 -0.10405296 -0.14292793
0001d0 fc b3 21 be b8 4a 3e be 92 c1 07 be 16 08 a1 bc
       -0.15791315 -0.1858319 -0.13257435 -0.019657176
0001e0 7d 38 36 3c a3 24 92 be c3 10 27 bd 2b e7 49 be
       0.011121866 -0.28543577 -0.04078747 -0.1971709
0001f0 20 94 e8 bd d4 10 55 be 35 1f 98 3c c2 1d f5 bc
       -0.113563776 -0.208072 0.018569568 -0.029921416

network.3.weight f4 [2, 128]
000000 7f d1 7b 3a 3f 44 14 bb 2d c3 f5 bd 5d 47 77 3d
       0.00096061075 -0.0022623686 -0.120001175 0.06037079
000010 92 00 61 3b 55 0e 16 be dd dd 48 3e 2e 40 fe bc
       0.0034332615 -0.14653905 0.19615884 -0.031036463
000020 b2 76 17 3d ba 41 07 3d d5 8f ac ba 0c dd 98 bc
       0.03697843 0.033021666 -0.0013165424 -0.01866009
000030 8f 17 34 3d e2 17 29 bc eb d1 95 3b 6d 15 33 bc
       0.04396778 -0.0103206355 0.0045721433 -0.010930401
000040 50 5b a4 bd ee ec c6 bc 4f a6 ec bd df 1c f7 3d
       -0.08025229 -0.024282899 -0.11555158 0.120660536
000050 f8 cf 00 3d af 58 65 bc b1 42 1f 3c 80 20 ab bd
       0.031448334 -0.013998195 0.00972049 -0.08355808
000060 14 37 5a 3e fd 51 75 bd f1 75 13 3d 89 12 39 3d
       0.21310073 -0.059892643 0.03600115 0.045183692
000070 47 5f c4 bc 6a b3 d4 3d b9 87 ff bb 21 99 78 3d
       -0.023971213 0.10385783 -0.007798162 0.06069291
000080 11 93 da 3d 15 99 3c be be 7c 64 3d f5 35 1a 3e
       0.10672582 -0.18417771 0.055783026 0.15059645
000090 68 f1 f1 bb c0 bd 80 be 64 c8 4c be d9 25 b8 bd
       -0.007383514 -0.25144768 -0.19998318 -0.08991594
0000a0 63 13 eb 3d a3 68 86 3d 8c 60 87 3d c8 68 1f bd
       0.11478307 0.065629266 0.06610212 -0.038918287
0000b0 8f 54 d1 3d 84 06 92 bd 75 41 b6 3d 08 12 62 3d
       0.102212064 -0.07130149 0.08899204 0.055192977
0000c0 a1 6a 13 be 08 02 a8 bd 9d 12 26 3d 54 57 e1 3c
       -0.14396144 -0.082035124 0.040545095 0.027507462
0000d0 cc 7c 94 3d a0 c5 56 bd bb 84 da bc e2 c8 29 be
       0.072503656 -0.052434564 -0.026674619 -0.16580537
0000e0 8f ae 07 bc db 48 38 bb 7d 17 f0 3d bb f3 35 bd
       -0.008281364 -0.0028119597 0.1172323 -0.044421893
0000f0 1d f1 65 bc 40 f6 17 3e b0 34 01 bd 90 af 86 bd
       -0.014034537 0.1484003 -0.031544387 -0.06576455
000100 1b c4 50 3e e0 ad bd bc 72 b3 1e 3e 8a 09 33 be
       0.20387308 -0.0231542 0.1549814 -0.17484108
000110 d9 62 ee bb 9f af 28 3e fb fb bd bd 9a f5 60 3d
       -0.007274967 0.16473244 -0.09276577 0.054921724
000120 b2 1f ca 3c 1f 3d 48 be 9c 12 27 3d 03 62 3a 3e
       0.024673317 -0.19554566 0.04078923 0.18201451
000130 80 66 69 bd 2a dc a0 bc 32 0c 73 bd 54 55 8b 3c
       -0.056982517 -0.019636232 -0.059337802 0.017008461
000140 d2 3a 7c bd 13 00 88 bb 65 c7 d9 3c 6d ee 9b bc
       -0.061579533 -0.0041503995 0.026584337 -0.019034589
000150 5d 63 e5 3d b7 64 61 3d f1 f5 bd 3c 05 9f 52 be
       0.11200593 0.05502769 0.023188563 -0.20568474
000160 b6 29 f6 3c 99 80 ec 3d e7 0c 0e 3c 20 f5 4d 3b
       0.030049186 0.115479656 0.008670068 0.0031426623
000170 9a ff 51 be a7 4d 01 be 2e 21 31 bd fe ac dc 3b
       -0.2050766 -0.12627278 -0.043244533 0.0067344895
000180 70 3a 12 3d 4a 7d 13 bc ed 35 d7 bc b2 05 69 bc
       0.03570026 -0.009002039 -0.026270831 -0.014222549
000190 37 33 dc 3d 1b 00 8f bc 45 4a 4b 3e 42 fd 11 bc
       0.10751956 -0.017456105 0.1985255 -0.008910479
0001a0 a5 eb c0 3d 25 e7 37 3e 2e 46 28 bb 83 13 33 bd
       0.094199456 0.17959268 -0.0025676596 -0.04371978
0001b0 8e 98 c3 bc 85 a5 88 bd d4 cf 4d bd 62 66 68 3d
       -0.023876455 -0.06672195 -0.05024703 0.056738265
0001c0 60 02 b6 3d a3 1f 39 3e cd 6d 01 3e 71 84 e7 bd
       0.08887172 0.18078475 0.12639542 -0.11304558
0001d0 f3 be 62 3c f5 1d 20 3d 32 58 18 be 3e 2f 38 3d
       0.013839471 0.03909107 -0.14877394 0.04496693
0001e0 f3 e5 00 3e fc d3 46 be 60 bd 51 3e cc cc 83 bd
       0.12587719 -0.19416803 0.20482397 -0.06435546
0001f0 87 a8 18 3e e3 27 37 be 91 6c d0 bb 86 8d a8 bc
       0.14908038 -0.1788631 -0.0063605984 -0.020575296
000200 88 be 0f be 30 68 96 3d 34 b4 f0 3c 07 09 c9 bd
       -0.14037526 0.07344091 0.029382803 -0.09816175
000210 e5 9d e6 3d 85 71 2f be 0c a1 0d bd 29 73 dd bc
       0.11260585 -0.17133148 -0.034577414 -0.027032452
000220 08 a2 81 bd 18 b3 ce 3d 11 76 01 3c cf b2 16 bd
       -0.06329733 0.10092753 0.007901684 -0.03679162
000230 76 bf 94 3d 47 7e f6 bc 7e 8c be bb d3 b8 89 3c
       0.07263081 -0.03008951 -0.005815088 0.016811764
000240 ef 50 8f bd 37 17 7c 3d 9a 6c e6 bd 26 b9 0e 3e
       -0.06997859 0.061545577 -0.11251183 0.13937816
000250 e5 03 de bd cb b5 e9 3d 74 e2 76 3c ab 88 b8 3d
       -0.108405866 0.114116274 0.015068639 0.09010442
000260 90 53 d2 3d 3b ca ab 3d 30 41 05 be 57 1b a2 bd
       0.102698445 0.08388182 -0.13013148 -0.07915371
000270 5e 4d cc 3d e8 fc 26 3d 0a e8 b7 3c 89 93 c7 bd
       0.09975694 0.040768534 0.022449512 -0.09744937
000280 1d d0 8b bd 0c 7a f8 3d 70 19 2a 3e 74 d3 c8 bd
       -0.06826804 0.121326536 0.16611266 -0.098059565
000290 40 17 94 3d e8 c9 25 3d ae 62 3d 3d 96 29 33 be
       0.07230997 0.040475756 0.046236686 -0.17496333
0002a0 df fb 20 be 10 da 76 3d 62 dc 86 bd 8e af 51 3c
       -0.15721081 0.060266554 -0.065850034 0.012798203
0002b0 f7 12 16 3a 86 8c 46 3e d0 d1 83 3e 8d e4 1e 3b
       0.0005724872 0.19389543 0.25746012 0.0024245114
0002c0 86 64 bc bd 3d d5 0b be 15 b5 00 3d b4 7b db 3c
       -0.09198861 -0.13655563 0.031422693 0.026792385
0002d0 fc d7 f1 3d 4a 67 2e 3e 2d d8 83 bb eb 0f 0b 3e
       0.11808774 0.17031589 -0.004023573 0.13580291
0002e0 c1 72 6c 3d ee e3 08 3c 88 a0 d3 3d fb 18 26 be
       0.057726625 0.008355124 0.10333353 -0.16220467
0002f0 a0 ac cb bc 66 49 aa bd b3 0b 66 3d fe b0 8e be
       -0.024862587 -0.08314781 0.0561635 -0.2786941
000300 12 a6 98 bd 76 5e 67 3d 9a 0e 53 3d 22 8b bf 3c
       -0.074535504 0.05648657 0.051527597 0.023381773
000310 b2 1b a0 3d 38 3c 9d be be eb 19 3e 11 d2 d3 3c
       0.078177825 -0.30710006 0.15031335 0.025857003
000320 9d 13 cc 3d 40 c1 46 3d 6f c7 a1 bd 69 3b 1f bd
       0.099646784 0.04852414 -0.07899367 -0.038875017
000330 7d 58 c1 3d d1 cb 06 3e 00 07 3d 3e fe 2f e7 bc
       0.09440706 0.13163687 0.18459702 -0.028221127
000340 8a 69 b9 3e 56 ff 0a ba ec b0 aa 3d 5e 69 9d 3d
       0.36213332 -0.000530233 0.083345264 0.07686113
000350 05 37 58 3c 4c e9 6b bc 88 0d 30 be 67 e3 8b bb
       0.013196711 -0.014398884 -0.17192662 -0.004269052
000360 32 c2 bf bd f7 0e 53 be b4 2d 3b 3d 6f 5e 93 3d
       -0.09363212 -0.20611177 0.045697883 0.07195746
000370 3a 36 0d 3e c2 11 f3 3d 33 26 5b 3e af 91 ea bc
       0.13790217 0.118686214 0.2140129 -0.02863392
000380 b2 f0 ad 3d 4b 73 12 3e 29 72 91 3d 56 1b 33 bd
       0.084931746 0.14301793 0.071018524 -0.04372724
000390 1a d4 ad 3d 64 44 8f 3d ca 12 c7 bc 08 f3 18 3d
       0.08487721 0.06995466 -0.024300952 0.037341148
0003a0 c4 7a 6d 3d af c0 88 bd 66 98 99 3e a2 6e 99 3d
       0.057978407 -0.066773765 0.29999083 0.07491805
0003b0 92 5e 93 3d a3 ba 89 3d 7b e6 34 3d a1 77 4c bc
       0.07195772 0.06725051 0.044165116 -0.012479694
0003c0 f8 59 b0 bd 08 d8 7b be dd 6f bd 3d 91 c7 25 be
       -0.0861091 -0.24594128 0.09249852 -0.1618941
0003d0 65 bc 0d bd f0 18 a9 3d 61 7e fc 3d fd da 03 3e
       -0.034603495 0.082567096 0.12328792 0.12876506
0003e0 2f 88 b6 3d 62 06 d7 3d b0 c7 4d be 8e fd 04 be
       0.08912694 0.10499264 -0.20095706 -0.12987348
0003f0 8e 2b f1 bc dd 93 03 be 62 77 07 bd e9 4b 02 3e
       -0.029439714 -0.12849374 -0.033072837 0.1272427

network.3.bias f4 [2]
000000 a3 9d 4f bd e1 78 84 3e
       -0.050687443 0.25873473
