exomy/config/best_run_no_obstacles405k/checkpoints/537000_policy.pt (torch, 723582 bytes, 13 tensors)

log_std_parameter f4 [2]
-1.4386772 -0.8126548
00000000: 9326 b8bf 250a 50bf

network.0.conv.0.weight f4 [512, 5]
0.40318358 -0.24074782 -0.0006168447 -0.08139762 0.16602008 0.17048045 0.16251832 0.15154324
-0.07727071 -0.011493034 -0.020090552 0.0072962926 0.010067817 -0.25415552 0.057578485 0.10214176
-0.13487206 0.15636848 0.06327737 0.1700941 0.05215973 -0.012371635 0.082452394 0.19275008
0.12581505 0.24317715 0.46332824 0.011479445 -0.17199655 -0.027814725 -0.2732504 -0.04639962
0.058830302 -0.021665666 -0.060733583 0.0064151688 -0.033481836 0.048419155 0.095090486 -0.073632
0.08702824 -0.5228226 -0.0058363234 -0.043788012 -0.020454518 -0.17529625 -0.20641257 -0.18170562
0.031374168 -0.1882414 0.02068635 0.45876852 0.0716194 0.16959614 0.0029541685 -0.04575186
0.21572079 -0.045715336 0.13806011 -0.07041405 0.26955777 -0.09845281 0.091109514 0.031247731
0.12752973 0.270566 -0.39172944 -0.0103421835 0.1953302 0.008031695 -0.089793056 -0.0020789665
0.0024084477 0.08333093 0.15233283 -0.23456952 0.4266056 0.045825336 0.15718366 -0.033174805
0.24863139 0.5605553 0.04670247 -0.14921504 0.1479129 -0.1767028 0.16688353 0.08292818
-0.11468522 0.048407566 0.24379358 0.1579513 -0.06937233 0.009422096 0.036050748 -0.49688354
-0.3613972 -0.012639183 0.051687278 -0.037449095 -0.23046868 0.019544682 -0.06966566 -0.015914375
0.078033246 -0.33516845 0.26466328 -0.06635577 -0.26309672 0.22361313 -0.12261891 -0.13601555
0.074394226 0.04703897 -0.008841028 -0.18276723 0.40975985 -0.008890648 0.006882187 -0.042142436
0.3924681 0.1307208 0.12016559 -0.018210288 -0.114848815 -0.21639614 -0.4875502 -0.023017015
0.075447835 -0.06718121 -0.49016044 0.048789386 0.10547322 -0.03159792 -0.016568763 -0.44194618
0.45306566 -0.03065891 -0.08796703 -0.07044875 0.1864033 0.15413491 -0.039882883 0.14683022
-0.014895785 0.07125095 0.32664534 0.0930982 0.057883576 -0.037817843 -0.20912781 0.1455576
0.013561494 -0.15435499 -0.20488887 -0.28062165 -0.26745382 0.08731367 0.06862063 -0.13136673
-0.2814174 -0.26099285 0.029819291 -0.17049055 0.09714167 -0.32079497 -0.060221042 0.013888645
0.018989697 -0.091203235 -0.0011593471 0.53003603 0.014799407 -0.030061716 -0.030052891 0.3655659
0.09040159 0.053238627 -0.07173431 -0.06972628 -0.32470164 0.4723785 -0.044284776 -0.13024834
0.21988826 0.367 0.026489615 -0.024836136 0.059964772 0.01617409 -0.14122818 -0.32010642
0.009713797 -0.02804018 0.031024693 0.017914556 -0.6918192 -0.068127975 -0.045860913 0.12857871
0.05948017 0.3873667 0.024480004 0.11145258 0.022049593 -0.16897488 -0.34726423 0.0142875975
-0.115769625 -0.07639931 -0.13446324 -0.3912141 -0.040492386 -0.039272424 -0.20591998 0.37434328
0.5203704 0.015296606 -0.07323273 0.11002427 -0.29664463 -0.17503557 0.08305037 0.08968595
-0.18027902 0.10677708 0.18931022 0.059832476 -0.070865616 0.07980679 0.4813409 -0.2531351
-0.009215289 -0.07398012 -0.12229297 0.28917795 -0.1225719 -0.05088299 -0.06389576 0.07488472
-0.19229725 0.18965828 0.02570835 -0.10554282 -0.064583145 -0.3351552 -0.43725753 -0.010578804
-0.06379356 -0.045598876 0.26439714 0.3745859 0.10433603 -0.18588334 -0.22218166 0.2687807
00000000: 146e ce3e 9986 76be bfb3 21ba ccb3 a6bd
00000010: 2b01 2a3e 6d92 2e3e 346b 263e 272e 1b3e
00000020: 1b40 9ebd 474d 3cbc f194 a4bc bd15 ef3b
00000030: 7cf3 243c ac20 82be 6bd7 6b3d b32f d13d
00000040: e71b 0abe 0f1f 203e 9197 813d 262d 2e3e
00000050: 71a5 553d 66b2 4abc cddc a83d 4760 453e
00000060: a9d5 003e 6e03 793e 5c39 ed3e 4814 3c3c
00000070: dd1f 30be b5db e3bc 7ae7 8bbe 870d 3ebd
00000080: 0bf8 703d 327c b1bc c7c3 78bd 5636 d23b
00000090: 4024 09bd 2a53 463d cdbe c23d 60cc 96bd
000000a0: dd3b b23d b4d7 05bf a13e bfbb 0f5b 33bd
000000b0: 3c90 a7bc dc80 33be d15d 53be 0a11 3abe
000000c0: 3382 003d 5bc2 40be 6c76 a93c b5e3 ea3e
000000d0: 31ad 923d 9caa 2d3e b99a 413b 4d66 3bbd
000000e0: e9e5 5c3e 0140 3bbd a15f 0d3e 3e35 90bd
000000f0: 7a03 8a3e a0a1 c9bd a097 ba3d 3efb ff3c
00000100: 2797 023e a087 8a3e c390 c8be 4372 29bc
00000110: a404 483e 5f97 033c 6ce5 b7bd 453f 08bb
00000120: 0cd7 1d3b 68a9 aa3d 23fd 1b3e fe32 70be
00000130: 0d6c da3e 59b3 3b3d c1f4 203e 4ee2 07bd
00000140: 3a99 7e3e 8d80 0f3f 174b 3f3d d4cb 18be
00000150: 7b76 173e 94f1 34be 84e3 2a3e 40d6 a93d
00000160: 16e0 eabd 0347 463d 06a5 793e fcbd 213e
00000170: 1513 8ebd 235f 1a3c f3a9 133d 8567 febe
00000180: 0e09 b9be 9314 4fbc 0ab6 533d 3964 19bd
00000190: fbff 6bbe 2b1c a03c dfac 8ebd dd5e 82bc
000001a0: e5cf 9f3d 339b abbe f281 873e 89e5 87bd
000001b0: 9db4 86be d7fa 643e a01f fbbd a947 0bbe
000001c0: 005c 983d efab 403d f6d9 10bc 5527 3bbe
000001d0: 0bcc d13e 15aa 11bc f883 e13b 8c9d 2cbd
000001e0: 94f1 c83e acdb 053e 6019 f63d be2d 95bc
000001f0: db35 ebbd f396 5dbe 2ea0 f9be 2e8e bcbc
00000200: 6584 9a3d 4d96 89bd 4ff6 fabe 61d7 473d
00000210: 5802 d83d d26c 01bd 37bb 87bc c546 e2be
00000220: 39f8 e73e 6528 fbbc 0f28 b4bd 6f47 90bd
00000230: 82e0 3e3e 8bd5 1d3e 3c5c 23bd a95a 163e
00000240: 730d 74bc 05ec 913d 0f3e a73e 45aa be3d
00000250: 5417 6d3d e2e6 1abd 9a25 56be 0d0d 153e
00000260: 0731 5e3c 3c0f 1ebe 63ce 51be a4ad 8fbe
00000270: b5ef 88be 82d1 b23d f988 8c3d 0085 06be
00000280: f115 90be dba0 85be 9647 f43c 1395 2ebe
00000290: 36f2 c63d 3d3f a4be 57aa 76bd 338d 633c
000002a0: 4890 9b3c c3c8 babd 3cf5 97ba 71b0 073f
000002b0: 3679 723c fd43 f6bc 7b31 f6bc 742b bb3e
000002c0: 7824 b93d bf10 5a3d 70e9 92bd a7cc 8ebd
000002d0: 4b3f a6be 98db f13e f463 35bd d25f 05be
000002e0: 632a 613e 6de7 bb3e c000 d93c 2775 cbbc
000002f0: 9f9d 753d 867f 843c 1f9e 10be fde4 a3be
00000300: 9e26 1f3c 85b4 e5bc 7f27 fe3c 8cc1 923c
00000310: 101b 31bf ae86 8bbd a7d8 3bbd 23aa 033e
00000320: 7ba1 733d ee54 c63e 4a8a c83c 4041 e43d
00000330: 59a1 b43c c007 2dbe 9ecc b1be 8716 6a3c
00000340: a018 edbd 3e77 9cbd bbb0 09be 374d c8be
00000350: 58db 25bd 1fdc 20bd b0dc 52be eca9 bf3e
00000360: ff36 053f 9e9e 7a3c 0bfb 95bd 6854 e13d
00000370: cee1 97be 863c 33be 5016 aa3d 44ad b73d
00000380: 109b 38be f1ad da3d 8ada 413e e612 753d
00000390: fe21 91bd be71 a33d 5072 f63e ec9a 81be
000003a0: b9fb 16bc e482 97bd bd74 fabd 220f 943e
000003b0: fa06 fbbd af6a 50bd c8db 82bd 295d 993d
000003c0: 92e9 44be c835 423e 519a d23c d626 d8bd
000003d0: 2b44 84bd 7699 abbe 38e0 dfbe b852 2dbc
000003e0: 33a6 82bd e3c5 3abd 105f 873e b9c9 bf3e
000003f0: 21ae d53d 3458 3ebe 9783 63be a09d 893e

network.0.conv.0.bias f4 [512]
0.05650888 -0.16978072 -0.07286315 -0.11338326 -0.31124783 0.023543583 -0.19132458 -0.19898914
0.10399039 -0.0583361 -0.066819005 -0.033981293 -0.11196697 0.037479505 -0.119095385 0.06893973
-0.008527222 -0.12722543 -0.007216949 0.06779273 0.13995261 0.028844163 -0.13148336 0.018467734
0.12783395 0.085846536 0.009751417 0.054065913 -0.13390858 -0.087880604 0.0029044573 -0.15780814
0.06569183 0.0010671596 0.017550137 -0.017978005 0.016421495 -0.04802902 -0.059405047 0.02940639
0.07317356 0.108828485 -0.12965286 0.024003044 -0.20946239 0.07041725 0.028688172 -0.077251785
0.0017432173 0.088681854 -0.08661125 0.028938765 0.044646516 0.08561317 0.069907464 0.124915496
0.007330321 -0.041660283 0.028484253 -0.21154155 0.0685621 0.023442704 0.122051954 0.036260925
0.16930036 -0.03749925 0.06000415 0.072556995 -0.06433023 0.085810244 0.00037457052 0.02348673
-0.072568335 -0.027002117 -0.11088361 -0.0073896395 -0.17872429 -0.013726714 -0.06310741 -0.21788475
0.02005316 0.027743233 -0.028752107 0.16768798 0.12565084 0.021479813 0.04761944 -0.043535933
-0.025956206 -0.17131335 0.0072090896 -0.15584365 0.065107174 -0.25428253 -0.08727956 0.03198492
0.052035753 0.105787076 -0.05639628 -0.017394576 0.06709958 0.057832487 0.10365525 -0.15934508
0.017566707 0.03025604 -0.052257538 -0.06604419 -0.0751088 -0.11875841 0.008347203 -0.0059409603
-0.07129284 0.078432865 -0.0059279036 -0.15060285 0.055702765 -0.07386153 0.018977163 0.047273275
-0.08295664 -0.009631573 0.05992163 -0.017513463 -0.17747703 -0.15605247 -0.18786138 0.068530545
-0.11433286 0.08513228 0.034369584 -0.12518117 -0.061539333 0.019925425 0.010729645 0.011987139
0.02323212 0.009744423 0.011260575 -0.01802168 -0.17378086 -0.19914663 0.031912208 -0.06650146
-0.028588422 -0.043393396 -0.055514615 -0.10745215 0.039773267 -0.023345789 -0.03972406 -0.021932997
-0.20127861 -0.045874648 -0.14479782 0.079699576 0.0073996163 0.038595535 -0.07487393 -0.11727923
-0.029016826 0.010951645 -0.09552909 0.1836761 -0.07465602 -0.03447472 0.0028707548 0.15218052
-0.011208309 -0.20294991 -0.068524785 -0.18410489 0.17653358 -0.17788076 -0.11040408 -0.067056656
-0.020802168 -0.012842523 0.0067396746 0.01312373 -0.047039967 0.06612171 -0.07999417 -0.22025353
-0.14492033 0.0544096 -0.07481923 -0.17763826 0.09212896 -0.15935917 0.09470769 -0.15231423
-0.14526877 -0.15755862 -0.06392742 0.1022401 -0.17429756 0.013976713 0.0100679565 -0.04229297
0.025203185 -0.26528537 0.016923936 -0.07143686 -0.04520269 -0.022945726 -0.032116584 -0.110767916
-0.123302005 -0.120099045 -0.2675943 -0.192867 -0.07023416 -0.08746088 0.025503699 0.072975285
0.13380574 0.052985996 0.029595993 -0.13344494 -0.10126937 -0.0725196 -0.17071952 -0.23792775
-0.1756839 0.019227095 -0.05037758 -0.107725106 -0.13271321 0.032731913 -0.16342938 -0.030347822
-0.24958347 0.043790903 -0.1792648 -0.20940551 0.09880644 -0.024900904 -0.119831175 0.0014779998
-0.046027597 0.027618058 -0.1831816 -0.013352014 -0.004710623 -0.04267192 0.0014069563 0.020107998
0.022637429 -0.16694666 -0.015297255 -0.12323889 -0.04626038 -0.021621585 -0.17002882 -0.13386661
00000000: db75 673d ffda 2dbe 4639 95bd 7c35 e8bd
00000010: e05b 9fbe 79de c03c 97ea 43be cfc3 4bbe
00000020: eaf8 d43d d6f1 6ebd 67d8 88bd f82f 0bbd
00000030: f04e e5bd 1c84 193d 48e8 f3bd 4630 8d3d
00000040: c3b5 0bbc 6247 02be 287c ecbb ead6 8a3d
00000050: bd4f 0f3e 984a ec3c 93a3 06be a549 973c
00000060: e7e6 023e 4fd0 af3d 68c4 1f3c 3874 5d3d
00000070: 551f 09be bffa b3bd b558 3e3b 7598 21be
00000080: 7089 863d efdf 8b3a 4ec5 8f3c 9c46 93bc
00000090: 5f86 863c 14ba 44bd b552 73bd abe5 f03c
000000a0: 05dc 953d 78e1 de3d b8c3 04be 08a2 c43c
000000b0: 4f7d 56be eb36 903d 7503 eb3c 2f36 9ebd
000000c0: ab7c e43a d59e b53d 3d61 b1bd fd10 ed3c
000000d0: 44df 363d f555 af3d a52b 8f3d b2d3 ff3d
000000e0: 3033 f03b f9a3 2abd cf57 e93c 599e 58be
000000f0: 496a 8c3d ea0a c03c 60f6 f93d 5686 143d
00000100: 135d 2d3e d098 19bd e9c6 753d c398 943d
00000110: 91bf 83bd 48bd af3d 0162 c439 3e67 c03c
00000120: b59e 94bd 8b33 ddbc f216 e3bd ca24 f2bb
00000130: 8003 37be 03e6 60bc 753e 81bd 2e1d 5fbe
00000140: 8646 a43c c745 e33c 8a89 ebbc 66b6 2b3e
00000150: 9daa 003e 6ff6 af3c 9a0c 433d bc52 32bd
00000160: 1ca2 d4bc c46c 2fbe 3a3a ec3b 7a95 1fbe
00000170: e956 853d 5231 82be a0bf b2bd 9f02 033d
00000180: 7123 553d e5a6 d83d c9ff 66bd 127f 8ebc
00000190: 816b 893d c2e1 6c3d 3449 d43d 5b2b 23be
000001a0: 0ee8 8f3c 84db f73c 000c 56bd 2d42 87bd
000001b0: a4d2 99bd 9c37 f3bd b5c2 083c 63ac c2bb
000001c0: fb01 92bd 69a1 a03d dc3e c2bb a237 1abe
000001d0: 9528 643d b744 97bd ff75 9b3c 9fa1 413d
000001e0: 2ce5 a9bd bfcd 1dbc 6270 753d 6578 8fbc
000001f0: 8abc 35be 38cc 1fbe bc5e 40be be59 8c3d
00000200: 5927 eabd d559 ae3d 1fc7 0c3d 7e2f 00be
00000210: ab10 7cbd a53a a33c 65cb 2f3c b465 443c
00000220: 4951 be3c 13a7 1f3c 467e 383c 34a2 93bc
00000230: 9cf3 31be 18ed 4bbe 60b6 023d eb31 88bd
00000240: 4432 eabc 46bd 31bd 4b63 63bd df0f dcbd
00000250: 4be9 223d ab3f bfbc b2b5 22bd d4ac b3bc
00000260: fb1b 4ebe 0ee7 3bbd e145 14be 8839 a33d
00000270: 7b78 f23b 5a16 1e3d 8157 99bd 1830 f0bd
00000280: b2b4 edbc 876e 333c c1a4 c3bd 9615 3c3e
00000290: 41e5 98bd 5d35 0dbd 4623 3c3b 36d5 1b3e
000002a0: 0ea3 37bc 1ad2 4fbe b956 8cbd fe85 3cbe
000002b0: 38c5 343e 6026 36be 891b e2bd 0055 89bd
000002c0: 4f69 aabc 7269 52bc 7dd8 dc3b ea04 573c
000002d0: fbac 40bd d26a 873d fcd3 a3bd 248a 61be
000002e0: ff65 14be 9adc 5e3d d33a 99bd cee6 35be
000002f0: 1cae bc3d 0d2f 23be 1bf6 c13d 43f8 1bbe
00000300: 56c1 14be 0c57 21be 61ec 82bd 4263 d13d
00000310: 0f7b 32be 95fe 643c 12f4 243c 653b 2dbd
00000320: e976 ce3c 7cd3 87be 11a4 8a3c 7d4d 92bd
00000330: 7526 39bd adf8 bbbc ae8c 03bd 4ada e2bd
00000340: c385 fcbd 7df6 f5bd 1f02 89be ed7e 45be
00000350: edd6 8fbd b11e b3bd 22ed d03c 1174 953d
00000360: 5f04 093e d807 593d 4c73 f23c caa5 08be
00000370: 5166 cfbd 2885 94bd 19d1 2ebe 55a3 73be
00000380: 7be6 33be 2482 9d3c b958 4ebd fb9e dcbd
00000390: f9e5 07be e611 063d 085a 27be ff9b f8bc
000003a0: cf92 7fbe 175e 333d 3191 37be 666e 56be
000003b0: 085b ca3d fbfc cbbc 0c6a f5bd 72b9 c13a
000003c0: 6f87 3cbd 443f e23c f593 3bbe 68c2 5abc
000003d0: 925b 9abb c0c8 2ebd 9f69 b83a 87b9 a43c
000003e0: 2172 b93c 11f4 2abe 56a1 7abc ac64 fcbd
000003f0: 867b 3dbd c01f b1bc 091c 2ebe 5414 09be

network.1.conv.0.weight f4 [256, 512]
-0.002148818 -0.19078867 -0.054036535 0.030946853 -0.0017343158 -0.102526665 -0.14425924 -0.044690985
-0.02900443 -0.10101318 -0.20728654 0.08880217 0.1398902 -0.08955173 -0.086849034 0.3372413
-0.2552156 -0.028898079 0.021781992 0.19092971 0.101438336 0.26934922 0.0921849 0.029039675
0.14449261 -0.07319346 0.19832534 0.1370377 -0.11670436 -0.05955332 -0.16949046 0.0017882732
0.11484302 0.04151489 0.014898953 0.03469395 -0.058404032 -0.1868749 -0.009866368 -0.26204032
0.014007938 0.2796681 -0.07910806 -0.3676782 0.08142891 -0.06735051 -0.17841882 -0.17421669
0.017889503 0.0047466587 0.0022349784 -0.08495338 0.14132385 0.0364015 0.28812912 -0.05136971
-0.30976716 -0.2237786 -0.22842869 -0.44831574 -0.07149526 0.12917589 -0.035440233 -0.030792134
0.00016458493 -0.29110235 -0.09179817 0.0104580475 -0.08559538 -0.011099248 0.120370105 -0.0720949
0.0319613 0.29846153 -0.10558103 -0.23932557 -0.22056115 0.018552674 0.080373205 0.12937675
0.008670784 -0.14774999 -0.22665629 0.11501007 -0.120622866 0.08190989 -0.24509369 -0.07277245
0.18464118 0.21170719 0.2316094 0.0922515 0.3384555 -0.29389518 0.05223776 0.016086519
-0.093869485 0.13749972 -0.0471792 -0.19608702 0.1070905 0.002677759 0.06814292 -0.21698733
0.2261391 -0.046543483 -0.16717368 -0.007614132 0.23213056 0.107240215 0.24634956 0.056093305
-0.03417931 0.10398401 0.2520144 -0.21840997 0.08278141 -0.1639487 -0.13809271 0.06341094
-0.076600626 0.22685786 -0.101473555 -0.038635977 -0.18083107 -0.34331322 -0.4306324 0.00021660648
-0.00092565594 -0.012101693 0.22587068 -0.030478772 -0.021212155 -0.05696245 -0.09398677 0.025841625
0.059244536 0.09500387 -0.041685328 0.019839576 -0.0076887575 0.035567604 -0.23761642 0.08637914
0.047911137 -0.10911396 -0.14088984 -0.08252313 0.17167388 -0.08339295 0.014309973 0.017833756
0.059523445 0.16056721 0.022313727 0.02622883 0.2052605 0.09118732 -0.16464618 0.006933202
-0.0267489 0.024071416 0.047612533 0.03715638 -0.13406624 0.17720395 0.10267646 0.105703406
-0.012831223 -0.059798524 0.013158826 -0.16876727 0.13806865 -0.017453643 0.0417775 -0.17141925
-0.040643826 0.18835628 0.08120007 0.0048615853 -0.13805394 -0.018873187 0.004630935 -0.21270137
-0.26428697 0.09165736 0.034124065 -0.14591788 -0.038418714 0.03003551 0.01658591 -0.22070293
-0.3225203 0.015150628 0.084086984 0.005121556 0.06500817 -0.036158137 0.16111545 -0.0837438
-0.051698092 -0.18354288 -0.058845725 -0.083681546 0.027848044 0.103211194 0.15327537 -0.5086919
0.002905591 -0.30109128 0.0049830833 -0.29553598 0.10633052 0.019338237 -0.04344292 0.025911639
0.07347862 0.13355346 0.05599226 0.04114989 0.085235626 -0.007933562 -0.11548442 -0.09571531
-0.13161251 0.0029693816 0.0324064 -0.22613476 -0.22097163 -0.19778515 -0.017422065 0.09773239
-0.021483367 0.014977774 -0.026244987 -0.01838888 -0.011133981 0.029769003 -0.1287189 0.025726808
0.039205164 0.123327374 -0.1257334 0.051554125 -0.07812978 -0.14767876 0.058443718 -0.14135669
-0.03912144 -0.3989115 0.061965927 -0.09922172 0.22604476 -0.14683825 -0.07021313 0.064221874
00000000: 2fd3 0cbb 1b5e 43be 6a55 5dbd 4184 fd3c
00000010: fb51 e3ba 80f9 d1bd b2b8 13be e50d 37bd
00000020: b39a edbc 00e0 cebd ec42 54be e9dd b53d
00000030: 603f 0f3e e666 b7bd e8dd b1bd e4aa ac3e
00000040: 9eab 82be aabb ecbc 2670 b23c 1483 433e
00000050: e7be cf3d 24e8 893e 70cb bc3d 9de4 ed3c
00000060: dff5 133e 74e6 95bd cc15 4b3e 9c53 0c3e
00000070: b202 efbd 2fee 73bd e88e 2dbe 7e64 ea3a
00000080: d132 eb3d 840b 2a3d bd1a 743c 3e1b 0e3d
00000090: 1139 6fbd 225c 3fbe 8ca6 21bc 262a 86be
000000a0: 8d81 653c a830 8f3e 6803 a2bd 5140 bcbe
000000b0: 33c4 a63d 10ef 89bd 6cb3 36be dc65 32be
000000c0: 028d 923c dc89 9b3b b778 123b 0afc adbd
000000d0: 33b7 103e bd19 153d a985 933e 0c69 52bd
000000e0: cd99 9ebe 3826 65be 36e9 69be a489 e5be
000000f0: 1b6c 92bd af46 043e c729 11bd c93f fcbc
00000100: 6e94 2c39 5e0b 95be ae00 bcbd 3b58 2b3c
00000110: a14c afbd 9fd9 35bc 9a84 f63d 7ea6 93bd
00000120: dae9 023d f3cf 983e de3a d8bd c311 75be
00000130: c8da 61be c7fb 973c b59a a43d 577b 043e
00000140: e70f 0e3c c64b 17be 9618 68be 668a eb3d
00000150: 1f09 f7bd 5fc0 a73d d7f9 7abe b909 95bd
00000160: 9412 3d3e c5c9 583e 042b 6d3e 5bee bc3d
00000170: 0a4a ad3e 6e79 96be 43f7 553d e0c7 833c
00000180: a53e c0bd bacc 0c3e fa3e 41bd 09cb 48be
00000190: 4452 db3d 577d 2f3b 848e 8b3d ed31 5ebe
000001a0: 0291 673e 61a4 3ebd 942f 2bbe f87f f9bb
000001b0: a2b3 6d3e c2a0 db3d 0f43 7c3e 18c2 653d
000001c0: 9bff 0bbd 92f5 d43d 0808 813e dda6 5fbe
000001d0: 4d89 a93d 2be2 27be 2d68 0dbe 98dd 813d
000001e0: cae0 9cbd 6d4d 683e 5ed1 cfbd c240 1ebd
000001f0: c82b 39be c0c6 afbe da7b dcbe dc20 6339
00000200: b8a7 72ba 2e46 46bc a54a 673e 9eae f9bc
00000210: 1dc5 adbc 7551 69bd 237c c0bd d1b1 d33c
00000220: 66aa 723d 6491 c23d 3cbe 2abd 9b86 a23c
00000230: f9f1 fbbb 56af 113d b851 73be 8ce7 b03d
00000240: 783e 443d 2477 dfbd 6d45 10be e301 a9bd
00000250: 47cb 2f3e ecc9 aabd 6174 6a3c 1918 923c
00000260: dbce 733d bb6b 243e 47cb b63c d8dd d63c
00000270: cf2f 523e 6bc0 ba3d 0299 28be ea2f e33b
00000280: 8220 dbbc 6b31 c53c 5c05 433d 4a31 183d
00000290: a948 09be f474 353e 0948 d23d 077b d83d
000002a0: 0d3a 52bc 4cef 74bd 1e98 573c 54d1 2cbe
000002b0: de61 0d3e f1fa 8ebc e21e 2b3d 8788 2fbe
000002c0: 247a 26bd 78e0 403e 394c a63d ef4d 9f3b
000002d0: 035e 0dbe f19b 9abc 19bf 973b 63ce 59be
000002e0: 9f50 87be dbb6 bb3d adc5 0b3d 7f6b 15be
000002f0: f15c 1dbd 080d f63c 2ddf 873c f3ff 61be
00000300: 6121 a5be 573a 783c cc35 ac3d bad2 a73b
00000310: 0123 853d 8e1a 14bd 73fb 243e df81 abbd
00000320: 61c1 53bd aaf2 3bbe 3708 71bd 3b61 abbd
00000330: 9521 e43c 6460 d33d 38f4 1c3e a239 02bf
00000340: ba6b 3e3b a328 9abe 2249 a33b 7e50 97be
00000350: d1c3 d93d 396b 9e3c 34f1 31bd a544 d43c
00000360: f57b 963d 3dc2 083e 2458 653d c98c 283d
00000370: 0490 ae3d c5fb 01bc 1883 ecbd 6306 c4bd
00000380: 6ec5 06be f599 423b 93bc 043d df8f 67be
00000390: 6346 62be 3188 4abe b8b8 8ebc eb27 c83d
000003a0: e3fd afbc 5665 753c baff d6bc 47a4 96bc
000003b0: 4d6b 36bc 20de f33c e3ce 03be 07c1 d23c
000003c0: 9895 203d 1093 fc3d 42c0 00be 6b2a 533d
000003d0: 8202 a0bd 1a39 17be ae62 6f3d cfbf 10be
000003e0: ce3d 20bd 213e ccbe fccf 7d3d c234 cbbd
000003f0: 4778 673e c45c 16be e7cb 8fbd c286 833d

network.1.conv.0.bias f4 [256]
-0.059233915 -0.03155829 0.032071877 0.013296086 -0.0075565483 0.07284352 0.047310114 0.08559868
-0.081146955 0.04835085 -0.014617669 -0.16150273 0.08804884 -0.15666242 -0.12126409 -0.10075459
-0.10254363 -0.0008453769 0.048439223 -0.16164055 -0.10163393 0.17488597 -0.09241993 -0.03753668
-0.089093104 0.0076285363 -0.17001925 0.023997225 -0.14258672 -0.00023438635 -0.13468388 0.006030504
-0.075888954 -0.23994644 0.16639824 -0.09668537 -0.23192021 -0.0272653 0.0062519643 -0.044047594
-0.09184554 -0.1442622 -0.2246574 0.07225772 0.022648606 0.01403869 -0.12450237 0.027549567
-0.06142308 0.055107273 -0.061204914 0.060922526 -0.05194902 -0.014647262 -0.05488662 -0.005884226
-0.00073113013 -0.021035329 0.015427338 0.10868471 -0.13830684 -0.067574315 -0.013657776 -0.0037693023
0.022994896 0.015175667 0.14563817 -0.060159523 -0.029581128 -0.06389042 -0.008525496 -0.09730923
0.029415803 -0.1038046 -0.124284185 -0.010878024 -0.029981773 -0.0071299155 -0.0046280907 0.20271483
-0.119342834 0.036507793 -0.16151273 0.05465012 -0.17614405 -0.08616836 -0.061920602 -0.07973683
0.047412362 -0.01596507 -0.011579091 0.11614117 0.055767164 0.1514242 -0.043223962 -0.01025306
-0.18807405 -0.02796678 -0.036013793 0.3103724 0.04293676 -0.0695971 0.07551336 -0.18144538
-0.22654256 -0.05753561 0.1108706 -0.17275156 0.03858969 -0.037624937 0.134392 -0.17246978
0.076020814 0.11917015 -0.11764853 0.07720836 0.05798325 -0.026976539 -0.016479691 0.14063671
-0.0008778328 -0.028446287 0.12019216 0.12726282 -0.123441495 -0.043737806 0.09260405 -0.2241867
-0.0725848 -0.11963985 -0.16611731 0.03812433 -0.06048592 0.006894123 0.011187374 -0.013627492
0.034070812 -0.022258414 -0.067217425 -0.030492602 -0.037936043 0.024423651 0.0008930769 0.0010564692
0.033189118 0.005491794 -0.16138013 0.08550646 0.16394061 -0.08327089 -0.047906734 -0.1714458
0.10650529 0.28490508 0.03787702 -0.07063587 -0.0026417023 -0.0035995778 0.010382294 -0.044040557
0.0022724343 -0.08575204 0.015368963 0.16769013 -0.023914248 0.10371182 -0.0073310933 -0.058078356
0.045958076 0.06251824 0.085212015 -0.16053069 0.010778617 -0.22132352 0.04463056 -0.14324304
-0.0514883 -0.10107076 -0.037381053 0.028854718 -0.0030986762 0.003954725 0.027583122 -0.12640612
-0.01663547 -0.08227892 0.046729103 -0.24970254 -0.08749511 0.11378467 -0.098865315 0.008081678
-0.0656937 -0.124418944 -0.1656374 0.059843473 -0.053901136 0.060431723 0.09778215 -0.09137989
-0.08922736 0.10102252 -0.1438876 0.14909256 -0.03550837 -0.027798895 -0.19318543 -0.13752687
-0.026539065 -0.00010438438 0.0032854523 -0.020818861 -0.1734015 0.0012844757 0.025693221 0.068246804
-0.14632177 0.0062248455 -0.25207135 -0.047827806 0.004684256 -0.15533234 -0.20844053 -0.09233851
0.008405085 0.0036687106 0.045109753 -0.12664573 0.05272681 0.14989492 0.13663845 -0.20459715
-0.064181454 0.1482346 -0.0764292 -0.020657528 -0.023494722 0.028869487 -0.059790835 0.16266517
-0.13819374 0.053370345 -0.13106155 0.007162575 0.20927088 0.040427707 0.039219078 -0.00695937
-0.10153664 -0.024645742 -0.25734267 -0.014130287 0.068593085 0.09129914 -0.057279076 -0.095168434
00000000: 439f 72bd 4443 01bd cd5d 033d d4d7 593c
00000010: ec9c f7bb fc2e 953d 40c8 413d 5c4e af3d
00000020: 6030 a6bd 8a0b 463d f37e 6fbc f960 25be
00000030: f352 b43d 1d6c 20be 4f59 f8bd 6c58 cebd
00000040: 6502 d2bd 499c 5dba 3568 463d 1a85 25be
00000050: 7325 d0bd 4f15 333e a946 bdbd 10c0 19bd
00000060: 7276 b6bd cdf8 f93b 8719 2ebe d495 c43c
00000070: 4102 12be 9bc5 75b9 92ea 09be 899b c53b
00000080: ab6b 9bbd 85b4 75be 4d64 2a3e fb02 c6bd
00000090: 7e7c 6dbe 7a5b dfbc 47dd cc3b 406b 34bd
000000a0: 8419 bcbd 78b9 13be 970c 66be dbfb 933d
000000b0: 9289 b93c 8902 663c 19fb febd a1af e13c
000000c0: c496 7bbd 2ab8 613d 01b2 7abd e689 793d
000000d0: 7fc8 54bd 12fb 6fbc cbd0 60bd 77d0 c0bb
000000e0: 50a9 3fba 4852 acbc f2c2 7c3c 1796 de3d
000000f0: 4fa0 0dbe 6764 8abd ddc4 5fbc 6606 77bb
00000100: cb5f bc3c 5ca3 783c 2c22 153e d569 76bd
00000110: 1f54 f2bc fbd8 82bd 86ae 0bbc 104a c7bd
00000120: 69f9 f03c 8297 d4bd b588 febd bd39 32bc
00000130: 569c f5bc 11a2 e9bb 3da7 97bb 7a94 4f3e
00000140: 046a f4bd 3289 153d 9863 25be ced8 5f3d
00000150: 1b5f 34be 0a79 b0bd 75a0 7dbd 104d a3bd
00000160: 7733 423d 2ec9 82bc 3ab6 3dbc 6cdb ed3d
00000170: 1c6c 643d f20e 1b3e 9c0b 31bd 73fc 27bc
00000180: 7c96 40be 971a e5bc 3383 13bd 22e9 9e3e
00000190: 75de 2f3d ed88 8ebd c0a6 9a3d d1cc 39be
000001a0: c6fa 67be 76aa 6bbd 2010 e33d c9e5 30be
000001b0: 3910 1e3d 9b1c 1abd 0e9e 093e eb9b 30be
000001c0: cdb0 9b3d 7b0f f43d b6f1 f0bd 6b1f 9e3d
000001d0: d87f 6d3d e7fd dcbc 6b00 87bc 1203 103e
000001e0: 5d1e 66ba 3008 e9bc 4f27 f63d 2f51 023e
000001f0: e5ce fcbd 6a26 33bd 31a7 bd3d 3391 65be
00000200: 57a7 94bd bd05 f5bd a81a 2abe 4228 1c3d
00000210: 16c0 77bd 18e8 e13b 3f4b 373c d845 5fbc
00000220: d68d 0b3d 4757 b6bc 4aa9 89bd 9fcb f9bc
00000230: d362 1bbd 1c14 c83c 601d 6a3a 3979 8a3a
00000240: 50f1 073d 82f4 b33b d540 25be 031e af3d
00000250: 0ce0 273e ee89 aabd da39 44bd 7d8f 2fbe
00000260: 721f da3d 14df 913e ef24 1b3d 8aa9 90bd
00000270: 6920 2dbb e5e6 6bbb 7f1a 2a3c df63 34bd
00000280: 1fed 143b c49e afbd 1ace 7b3c f6b6 2b3e
00000290: d0e7 c3bc dd66 d43d ab39 f0bb 92e3 6dbd
000002a0: 893e 3c3d 9009 803d a383 ae3d 2862 24be
000002b0: cc98 303c a2a2 62be 89ce 363d 4eae 12be
000002c0: 65e5 52bd 30fe cebd e01c 19bd bb60 ec3c
000002d0: 2913 4bbb a396 813b 00f6 e13c 9b70 01be
000002e0: 1c47 88bc da81 a8bd 0467 3f3d 06b2 7fbe
000002f0: a330 b3bd f007 e93d e679 cabd 0469 043c
00000300: 6b8a 86bd 5ccf febd da9c 29be 6e1e 753d
00000310: 70c7 5cbd 4187 773d 0242 c83d 6125 bbbd
00000320: d6bc b6bd e5e4 ce3d 4557 13be b8ab 183e
00000330: 3971 11bd 82ba e3bc 67d2 45be d8d3 0cbe
00000340: 7468 d9bc f0e8 dab8 be50 573b 518c aabc
00000350: 2a90 31be da5b a83a 977a d23c fbc4 8b3d
00000360: 60d5 15be caf9 cb3b 7f0f 81be 17e7 43bd
00000370: 637e 993b 710f 1fbe 6f71 55be f91b bdbd
00000380: 7bb5 093c c06e 703b 01c5 383d 6baf 01be
00000390: 11f8 573d 0e7e 193e f3ea 0b3e ea81 51be
000003a0: 9171 83bd d0ca 173e ea86 9cbd fa39 a9bc
000003b0: 0178 c0bc b47f ec3c 3ce7 74bd b391 263e
000003c0: a982 0dbe dd9a 5a3d 0035 06be 09b4 ea3b
000003d0: 1b4b 563e 8697 253d 2fa4 203d 6d0b e4bb
000003e0: 71f2 cfbd dee5 c9bc 6bc2 83be b882 67bc
000003f0: 887a 8c3d 0bfb ba3d 779d 6abd abe7 c2bd

network.2.conv.0.weight f4 [128, 256]
0.016238471 0.0014691708 -0.017928163 0.028617147 -0.05258537 0.08945276 0.22610858 0.1820936
-0.063831374 0.010200562 -0.10983157 -0.050843414 0.08013802 0.09247391 0.08356688 -0.09584192
0.402046 -0.11255219 -0.023948047 0.073342115 0.09224849 -0.024733417 0.07877432 0.11419871
-0.19954976 0.26742917 -0.13340299 0.078071 0.17636628 -0.07908539 0.047557518 -0.210954
-0.15001772 -0.081376724 0.06082576 -0.06840898 -0.06890398 0.011075212 0.11641244 -0.051598843
0.06789781 -0.043697096 0.008733562 0.09204589 -0.12006744 -0.11803328 0.20866123 -0.017276064
-0.21279217 0.10066769 -0.18499124 -0.047682878 -0.051397376 -0.022115327 0.03376405 -0.04048116
-0.043971114 -0.08565695 -0.21691878 -0.12421464 0.06017812 -0.082673796 0.16909935 -0.10967198
0.0002363306 0.10533274 -0.07905003 -1.1683537e-05 -0.17537872 -0.08430896 -0.09868915 0.09774368
-0.041616593 -0.006540435 -0.11897489 -0.045035046 0.047955774 0.024619648 0.17167477 -0.20903045
-0.29409918 0.14262263 -0.029119644 -0.02251512 -0.044242114 0.09197405 -0.042902235 0.032907806
-0.06968108 0.0006157588 0.050196826 0.09428902 -0.12191853 0.018521246 -0.060190327 0.04110486
0.021085933 0.044838984 0.018239528 0.17654848 0.043268505 0.10888928 -0.03605913 0.1061886
0.08007598 0.09318964 0.042038042 0.052826732 0.081181586 -0.22640227 -0.08603365 0.09597492
-0.1056203 0.040351376 0.114840694 -0.0486602 0.0064021503 -0.26879543 0.09909363 0.03267919
-0.09644593 -0.18499887 -0.16102387 -0.07529609 0.07788119 0.006942313 -0.12453249 0.11939244
0.09061293 0.20556732 0.17040932 -0.14139017 -0.055590834 0.121991545 -0.09808733 0.07118867
0.033956263 -0.008417671 -0.0075514535 0.11762531 0.11349614 0.02636167 -0.062751144 -0.12995681
0.0656959 -0.16759048 0.033224422 -0.029699063 -0.15068942 -0.0045948494 -0.0036775894 -0.14174062
-0.06507754 -0.07173587 0.01380825 0.08377792 0.19240513 -0.11298348 0.02936082 -0.16694693
0.21281813 -0.0025575396 0.169329 -0.04679583 -0.066051096 -0.14396401 0.08263863 -0.076803654
-0.00166081 -0.1273787 -0.079038076 -0.049849074 0.025897704 -0.08746942 0.1377975 0.008393525
-0.087804936 -0.12383462 0.14463855 0.09031434 0.051417965 -0.04670844 0.14628467 -0.06154437
-0.04447387 -0.057333972 -0.108534686 -0.06349341 -0.04486264 0.014456639 0.09941173 -0.07996761
0.15965158 -0.19845933 -0.22166368 -0.15598775 0.11052492 0.06459378 0.117348194 -0.089546606
0.13618834 -0.013847038 0.15227611 -0.02679363 0.017337583 -0.061325274 0.02119269 0.14563422
-0.07749181 -0.029063229 -0.19763184 -0.08283611 -0.007922314 -0.048200972 -0.13057491 0.047388196
-0.049498476 0.041030303 -0.16725978 0.12565182 -0.09630269 -0.122509524 0.07613581 -0.28315583
-0.18987851 -0.015755676 -0.025810366 -0.13002557 -0.0365406 -0.12825462 -0.050664894 -0.094684176
0.02471186 0.1530588 0.10856093 -0.040567826 -0.019048452 -0.13583982 0.30751342 -0.015202319
-0.11615854 -0.09326328 -0.23449032 -0.05660745 -0.11536188 0.097997084 -0.047625333 -0.020380314
-0.017719267 0.2052111 0.18129918 -0.025367672 0.024074975 -0.033915915 0.107564606 -0.071847685
00000000: 8b06 853c 3191 c03a 15de 92bc 826e ea3c
00000010: c263 57bd 0233 b73d 0289 673e bf76 3a3e
00000020: 06ba 82bd 4220 273c 60ef e0bd 2f41 50bd
00000030: 671f a43d f662 bd3d 1d25 ab3d c548 c4bd
00000040: f9d8 cd3e c381 e6bd b22e c4bc 6434 963d
00000050: c7ec bc3d bc9d cabc 6e54 a13d 03e1 e93d
00000060: c656 4cbe 7aec 883e cb9a 08be b0e3 9f3d
00000070: 5d99 343e 85f7 a1bd accb 423d 5304 58be
00000080: 3f9e 19be d7a8 a6bd 6f24 793d 021a 8cbd
00000090: 881d 8dbd ce74 353c a569 ee3d 4f59 53bd
000000a0: 020e 8b3d bafb 32bd 3717 0f3c 8e82 bc3d
000000b0: ebe5 f5bd 6fbb f1bd 4aab 553e 8886 8dbc
000000c0: 31e6 59be dd2a ce3d 586e 3dbe 1f4f 43bd
000000d0: 0e86 52bd 342b b5bc 2c4c 0a3d 93cf 25bd
000000e0: 0e1b 34bd e96c afbd f51f 5ebe 3f64 febd
000000f0: 557d 763d e150 a9bd 6128 2d3e b49b e0bd
00000100: 83cf 7739 b1b8 d73d fbe4 a1bd 6904 44b7
00000110: 7b96 33be 2daa acbd 891d cabd d72d c83d
00000120: 2976 2abd 2551 d6bb 1ba9 f3bd ab76 38bd
00000130: 466d 443d 25af c93c 83cb 2f3e 140c 56be
00000140: 2b94 96be ab0b 123e 528c eebc a171 b8bc
00000150: 3837 35bd e45c bc3d 41ba 2fbd 56ca 063d
00000160: f4b4 8ebd e06a 213a 309b 4d3d 9a1a c13d
00000170: 6cb0 f9bd deb9 973c 228a 76bd 925d 283d
00000180: 68bc ac3c 15a9 373d 106b 953c 20c9 343e
00000190: 513a 313d 5801 df3d bdb2 13bd 6979 d93d
000001a0: e0fe a33d 36da be3d 1530 2c3d d860 583d
000001b0: 8842 a63d ffd5 67be 6932 b0bd 808e c43d
000001c0: 754f d8bd 7c47 253d 9931 eb3d eb4f 47bd
000001d0: 21c9 d13b 8e9f 89be 9af1 ca3d 9dda 053d
000001e0: 7285 c5bd 5870 3dbe 71e3 24be d634 9abd
000001f0: 2c80 9f3d 587c e33b e40a ffbd 0684 f43d
00000200: 4693 b93d 3d80 523e c87f 2e3e 96c8 10be
00000210: 37b3 63bd b4d6 f93d 03e2 c8bd 5ecb 913d
00000220: b915 0b3d 45ea 09bc 2f72 f7bb 8ae5 f03d
00000230: aa70 e83d 6ef4 d73c ac83 80bd 6613 05be
00000240: 928b 863d d79c 2bbe 5516 083d 734b f3bc
00000250: 544e 1abe 6490 96bb b603 71bb 7424 11be
00000260: 6047 85bd 41ea 92bd 003c 623c c293 ab3d
00000270: da05 453e e263 e7bd 1a86 f03c 23f4 2abe
00000280: ffec 593e 659c 27bb 9564 2d3e fcac 3fbd
00000290: cc45 87bd 4d6b 13be 713e a93d 3c4b 9dbd
000002a0: 89af d9ba 906f 02be b7de a1bd 8b2e 4cbd
000002b0: 6c27 d43c 2b23 b3bd ca1a 0d3e ff84 093c
000002c0: 13d3 b3bd 019d fdbd 211c 143e baf6 b83d
000002d0: a59b 523d 5951 3fbd a6cb 153e f315 7cbd
000002e0: 3c2a 36bd 07d7 6abd 6f47 debd d508 82bd
000002f0: e3c1 37bd 8adb 6c3c 6198 cb3d 0fc6 a3bd
00000300: b47b 233e ec38 4bbe cefb 62be 41bb 1fbe
00000310: e45a e23d be49 843d 4054 f03d 3664 b7bd
00000320: f574 0b3e b0de 62bc 45ee 1b3e 517e dbbc
00000330: 8c07 8e3c 3630 7bbd 4b9c ad3c 2321 153e
00000340: 07b4 9ebd 0216 eebc 0060 4abe faa5 a9bd
00000350: 98cc 01bc 626e 45bd 6eb5 05be 201a 423d
00000360: eabe 4abd 640f 283d 2646 2bbe dfaa 003e
00000370: 583a c5bd 46e6 fabd 17ed 9b3d cdf9 90be
00000380: 836f 42be 0c12 81bc 4370 d3bc 6c25 05be
00000390: 99ab 15bd 2e55 03be fe85 4fbd c7e9 c1bd
000003a0: 8770 ca3c 72bb 1c3e 3155 de3d 732a 26bd
000003b0: 800b 9cbc 9819 0bbe 6672 9d3e 2613 79bc
000003c0: 87e4 edbd d200 bfbd 3b1e 70be 37dd 67bd
000003d0: d942 ecbd b2b2 c83d c812 43bd 9ef4 a6bc
000003e0: ff27 91bc dc22 523e 7ea6 393e ddcf cfbc
000003f0: e238 c53c 6aeb 0abd d54a dc3d e124 93bd

network.2.conv.0.bias f4 [128]
-0.21244471 0.007895313 -0.15194637 0.10142403 -0.16780284 -0.19166341 0.14779754 -0.0011811603
-0.050805744 0.028139755 -0.01317182 0.032422 0.058414873 0.089642085 -0.06129015 0.052597124
0.014300474 -0.026968991 -0.09542472 -0.2926392 -0.09811944 0.016584307 -0.00814378 -0.10026378
-0.11217446 -0.13027532 -0.023372686 -0.10256959 -0.05578865 -0.06244879 0.085431635 -0.20539425
-0.07156138 -0.23457792 -0.04823626 0.025143268 -0.04863612 -0.21145995 0.03386921 -0.07901313
-0.1143048 0.034819912 0.05375751 -0.19206037 -0.12574765 0.042381402 0.09796419 -0.10222877
-0.21934776 0.03160484 -0.034066148 0.022907231 -0.03660726 0.12176782 -0.013180576 0.10422262
0.032159615 -0.037978765 -0.16849372 -0.2949204 -0.27951583 0.024255121 -0.09317751 0.14656158
0.021181438 0.15520112 -0.2132679 0.17858101 -0.055497218 0.029515278 -0.10833591 -0.06604685
0.21397993 0.0029303017 0.013394856 0.031554405 -0.14174582 0.09564388 0.098651715 0.04802103
0.02749291 -0.2152231 -0.04994295 0.1536461 -0.025880825 0.042074904 -0.15482455 0.08344852
0.030115418 0.06640355 -0.08935878 -0.17879477 -0.14970179 -0.10649321 0.026793754 -0.05432568
-0.041325264 -0.122883044 0.08726023 0.10976303 -0.109096974 -0.124930516 0.018179107 0.057051256
-0.011507541 0.087767966 -0.09552798 -0.02448506 -0.21145937 -0.15522884 -0.21524002 0.03890205
-0.0042977156 -0.0039982786 -0.10405296 -0.13877174 -0.15674618 -0.18389042 -0.13906138 -0.020133156
0.011121866 -0.28543577 -0.045765918 -0.1971709 -0.113563776 -0.208072 0.018569568 -0.021304809
00000000: 1b8b 59be 585b 013c d497 1bbe 67b7 cf3d
00000010: 82d4 2bbe 6a43 44be 3d58 173e 2ad1 9aba
00000020: af19 50bd 5885 e63c 9ece 57bc eecc 043d
00000030: 6f44 6f3d 4596 b73d 610b 7bbd 1570 573d
00000040: 894c 6a3c 13ee dcbc 096e c3bd ced4 95be
00000050: d8f2 c8bd d0db 873c 7d6d 05bc 1957 cdbd
00000060: b9bb e5bd e566 05be 1378 bfbc 0110 d2bd
00000070: a482 64bd 4dca 7fbd c8f6 ae3d df52 52be
00000080: c68e 92bd 3235 70be 6293 45bd 41f9 cd3c
00000090: ab36 47bd f588 58be 71ba 0a3d a3d1 a1bd
000000a0: a318 eabd 539f 0e3d d630 5c3d 79ab 44be
000000b0: fec3 00be 1f98 2d3d 73a1 c83d 515d d1bd
000000c0: b39c 60be 1474 013d f288 0bbd f2a7 bb3c
000000d0: 7ff1 15bd 6861 f93d 58f3 57bc ab72 d53d
000000e0: cdb9 033d 9f8f 1bbd 9e89 2cbe cfff 96be
000000f0: b31c 8fbe adb2 c63c dad3 bebd 3d14 163e
00000100: b284 ad3c 0bed 1e3e e662 5abe f1dd 363e
00000110: 0d51 63bd 06ca f13c 38df ddbd 9243 87bd
00000120: 8e1d 5b3e 4e0a 403b 1976 5b3c 313f 013d
00000130: d125 11be f0e0 c33d e909 ca3d b3b1 443d
00000140: d038 e13c 7263 5cbe fb90 4cbd 6755 1d3e
00000150: 0604 d4bc bc56 2c3d 548a 1ebe 0fe7 aa3d
00000160: 9cb4 f63c 96fe 873d bc01 b7bd fa15 37be
00000170: 6d4b 19be 1d19 dabd 937e db3c 9b84 5ebd
00000180: ae44 29bd 1baa fbbd 7eb5 b23d 71cb e03d
00000190: 3c6e dfbd 92db ffbd 5aec 943c 94ae 693d
000001a0: 208a 3cbc b1bf b33d 2ca4 c3bd e494 c8bc
000001b0: ce88 58be 4ff4 1ebe e167 5cbe c257 1f3d
000001c0: dad3 8cbb fe03 83bb b819 d5bd 2e1a 0ebe
000001d0: 1282 20be c54d 3cbe 1b66 0ebe 4aee a4bc
000001e0: 7d38 363c a324 92be 0b75 3bbd 2be7 49be
000001f0: 2094 e8bd d410 55be 351f 983c 6c87 aebc

network.3.weight f4 [2, 128]
-0.00602498 0.0065156394 -0.120001175 0.060479693 0.017850704 -0.14653905 0.20128827 -0.020661684
0.035105456 0.033021666 -0.002730717 -0.017093893 0.04986237 -0.006757093 0.0045721433 -0.010930401
-0.08011892 -0.019304994 -0.11555158 0.11926865 0.030012136 -0.003248747 -0.0028220068 -0.08355808
0.21296906 -0.061443493 0.03600115 0.042612292 -0.017256794 0.10703462 -0.010524588 0.06152476
0.10653919 -0.18417771 0.061087925 0.14969479 -0.009958305 -0.25144768 -0.19998318 -0.082242206
0.11395496 0.060817417 0.056338232 -0.03661266 0.108189404 -0.06375076 0.099548765 0.058640476
-0.14396144 -0.081176445 0.040545095 0.03795393 0.07221347 -0.041667152 -0.026674619 -0.148752
-6.7577865e-05 -0.0028119597 0.1172323 -0.044421893 -0.014034537 0.15522887 -0.031544387 -0.066049285
0.2061458 -0.018448947 0.15885253 -0.15898766 0.0025845938 0.1712564 -0.09276577 0.061165415
0.034914967 -0.19474371 0.03649637 0.18545592 -0.040877804 -0.023935305 -0.051333282 0.008903004
-0.058656048 -0.0041503995 0.029982083 -0.012699944 0.10510555 0.057374503 0.02379871 -0.20568474
0.029233275 0.119251154 0.010320435 0.0043423 -0.20651148 -0.12627278 -0.040866863 0.0067344895
0.038353484 -0.012693972 -0.015285396 -0.014222549 0.10426364 -0.017456105 0.2044281 -0.00097031967
0.09112238 0.19047755 0.00846996 -0.04371978 -0.019299297 -0.06672195 -0.05024703 0.056585804
0.09232017 0.18268499 0.12639542 -0.114344314 0.008958634 0.043575153 -0.1499722 0.05308039
0.12587719 -0.19416803 0.20778789 -0.06435546 0.14908038 -0.1788631 -0.0063605984 -0.021641606
-0.14128438 0.076935746 0.029382803 -0.09397353 0.11154449 -0.17133148 -0.03307727 -0.017373338
-0.061736133 0.10092753 0.0026674422 -0.032519277 0.07456564 -0.005656519 -0.005815088 0.016811764
-0.069820225 0.055551562 -0.11251183 0.14509839 -0.107483014 0.12131015 0.011278903 0.09010442
0.10546459 0.097376294 -0.13013148 -0.077917345 0.09320784 0.056326643 0.022530884 -0.09249882
-0.072496004 0.121326536 0.1687856 -0.099850446 0.08698699 0.040475756 0.046236686 -0.18936186
-0.1541622 0.06248868 -0.073290184 0.01153334 0.0046667014 0.21407779 0.2635619 0.016460156
-0.09198861 -0.12645356 0.031422693 0.025389934 0.11314443 0.17690037 -0.004023573 0.14608294
0.056345407 0.008355124 0.10333353 -0.16220467 -0.024862587 -0.08223805 0.0561635 -0.27718815
-0.07082722 0.055173494 0.059821274 0.03228278 0.07735186 -0.29852432 0.15031335 0.0432249
0.10810934 0.048979435 -0.075998425 -0.036336366 0.10405129 0.1360337 0.1762328 -0.04306593
0.38062233 -0.000530233 0.08255179 0.08609156 0.0039020234 -0.011101085 -0.16573314 -0.004269052
-0.099480465 -0.20411916 0.06278685 0.083595894 0.175138 0.118686214 0.2357506 -0.02863392
0.08197972 0.14265099 0.06869188 -0.04372724 0.09027482 0.06995466 -0.03423242 0.052933153
0.0614412 -0.06731429 0.3035611 0.07491805 0.06335797 0.06725051 0.044165116 -0.0009236703
-0.083879456 -0.24382567 0.09249852 -0.16195421 -0.04775597 0.08313568 0.11833931 0.12739176
0.08912694 0.10499264 -0.19552295 -0.12987348 -0.029439714 -0.12849374 -0.033072837 0.1311327
00000000: 326d c5bb 2581 d53b 2dc3 f5bd 8eb9 773d
00000010: a43b 923c 550e 16be 831e 4e3e b142 a9bc
00000020: bdca 0f3d ba41 073d d4f5 32bb 7e08 8cbc
00000030: 7c3c 4c3d 9b6a ddbb ebd1 953b 6d15 33bc
00000040: 6315 a4bd 8225 9ebc 4fa6 ecbd 1f43 f43d
00000050: 03dc f53c eee8 54bb 6bf1 38bb 8020 abbd
00000060: 9014 5a3e 2cac 7bbd f175 133d 3a8a 2e3d
00000070: 1f5e 8dbc f834 db3d 526f 2cbc 6301 7c3d
00000080: 3831 da3d 1599 3cbe 5537 7a3d 9749 193e
00000090: 2928 23bc c0bd 80be 64c8 4cbe 9a6e a8bd
000000a0: 3861 e93d af1b 793d ebc2 663d 28f7 15bd
000000b0: 6892 dd3d c28f 82bd 39e0 cb3d ff30 703d
000000c0: a16a 13be d63f a6bd 9d12 263d 9575 1b3d
000000d0: a8e4 933d 2dab 2abd bb84 dabc 7252 18be
000000e0: 97b8 8db8 db48 38bb 7d17 f03d bbf3 35bd
000000f0: 1df1 65bc 51f4 1e3e b034 01bd d944 87bd
00000100: e217 533e 3f22 97bc 3daa 223e a9cd 22be
00000110: 4a62 293b d65d 2f3e fbfb bdbd 9688 7a3d
00000120: ff02 0f3d e56a 47be 387d 153d 28e8 3d3e
00000130: 7c6f 27bd f913 c4bc d942 52bd e8dd 113c
00000140: 5341 70bd 1300 88bb fc9c f53c 6d13 50bc
00000150: 9441 d73d 8701 6b3d 83f5 c23c 059f 52be
00000160: 9f7a ef3c f339 f43d 0b17 293c da49 8e3b
00000170: bf77 53be a74d 01be 0364 27bd feac dc3b
00000180: 8b18 1d3d 61fa 4fbc 996f 7abc b205 69bc
00000190: 2d88 d53d 1b00 8fbc 9a55 513e 0d5d 7eba
000001a0: 5f9e ba3d 8c0c 433e 96c5 0a3c 8313 33bd
000001b0: 8f19 9ebc 85a5 88bd d4cf 4dbd 84c6 673d
000001c0: 5b12 bd3d c611 3b3e cd6d 013e 5a2d eabd
000001d0: 3cc7 123c dc7b 323d 5092 19be d36a 593d
000001e0: f3e5 003e fcd3 46be 59c6 543e cccc 83bd
000001f0: 87a8 183e e327 37be 916c d0bb bd49 b1bc
00000200: daac 10be 7d90 9d3d 34b4 f03c 3275 c0bd
00000210: 7071 e43d 8571 2fbe 087c 07bd 8852 8ebc
00000220: 07df 7cbd 18b3 ce3d 41d0 2e3b ef32 05bd
00000230: dfb5 983d 525a b9bb 7e8c bebb d3b8 893c
00000240: e8fd 8ebd 098a 633d 9a6c e6bd ac94 143e
00000250: 0e20 dcbd 7571 f83d 26cb 383c ab88 b83d
00000260: d2fd d73d 396d c73d 3041 05be 2193 9fbd
00000270: c1e3 be3d c4b6 663d b092 b83c 0570 bdbd
00000280: c978 94bd 0c7a f83d 22d6 2c3e 647e ccbd
00000290: 3c26 b23d e8c9 253d ae62 3d3d 13e8 41be
000002a0: b2dc 1dbe 21f4 7f3d 2a19 96bd 56f6 3c3c
000002b0: 21eb 983b 3537 5b3e 96f1 863e 73d7 863c
000002c0: 8664 bcbd 0b7d 01be 15b5 003d 8dfe cf3c
000002d0: 44b8 e73d 5f25 353e 2dd8 83bb c496 153e
000002e0: 71ca 663d eee3 083c 88a0 d33d fb18 26be
000002f0: a0ac cbbc 6c6c a8bd b30b 663d 9beb 8dbe
00000300: dd0d 91bd 9afd 613d 2707 753d f33a 043d
00000310: a76a 9e3d 2ed8 98be beeb 193e 980c 313d
00000320: 6e68 dd3d a99e 483d 10a5 9bbd 71d5 14bd
00000330: d818 d53d 6b4c 0b3e 5f76 343e e765 30bd
00000340: eee0 c23e 56ff 0aba ea10 a93d c650 b03d
00000350: 17b9 7f3b 53e1 35bc f3b5 29be 67e3 8bbb
00000360: 6abc cbbd 9d04 51be 6496 803d 5334 ab3d
00000370: 6057 333e c211 f33d 9b68 713e af91 eabc
00000380: fce4 a73d 1a13 123e 54ae 8c3d 561b 33bd
00000390: 01e2 b83d 6444 8f3d 4b37 0cbd 6fd0 583d
000003a0: c5a9 7b3d 13dc 89bd 5c6c 9b3e a26e 993d
000003b0: d3c1 813d a3ba 893d 7be6 343d 7722 72ba
000003c0: fec8 abbd 70ad 79be dd6f bd3d 53d7 25be
000003d0: c49b 43bd 0a43 aa3d e15b f23d fc72 023e
000003e0: 2f88 b63d 6206 d73d 2b37 48be 8efd 04be
000003f0: 8e2b f1bc dd93 03be 6277 07bd a747 063e

network.3.bias f4 [2]
-0.042327344 0.26023674
00000000: 705f 2dbd c03d 853e

encoder.0.conv.0.weight f4 [80, 150]
0.07674789 -0.15675226 0.117516905 0.044354264 -0.0201914 0.028273087 0.032854293 0.04144562
-0.15154353 -0.04229175 -0.022552157 0.03044394 -0.021224646 0.104140736 0.08751399 -0.031850968
-0.06430614 0.07460739 0.052718863 0.014970922 -0.13255571 0.048716303 -0.14393762 0.1677025
0.006147837 -0.09168068 -0.0402305 -0.008616001 0.06816435 0.020952625 -0.10541547 -0.017888388
0.054562982 -0.008783636 -0.101943895 -0.038730685 0.07867519 -0.052501682 -0.114108615 -0.013748485
0.016845966 -0.064605124 0.042545736 0.04846392 -0.06862333 -0.010979725 0.038875356 -0.06535561
-0.05920368 0.017053539 -0.036393892 -0.044043 -0.14607595 0.051394597 -0.060661044 0.09494121
-0.114796035 0.09458316 -0.07916993 -0.11815409 -0.13528578 0.046476826 -0.045890547 0.16651082
0.038858376 0.033189025 0.05935456 -0.085080504 -0.097244486 0.07657693 -0.02790954 -0.2534553
-0.08113527 -0.22851887 0.06054798 0.040896613 -0.028904196 -0.031938218 0.118177466 -0.009726154
-0.17127083 -0.12447689 0.065275066 0.106340185 0.088534035 0.04659375 0.19445768 -0.07236706
0.15027204 -0.07986306 0.0031713378 -0.0131099755 -0.057762973 0.11849157 -0.009690554 -0.21093038
-0.08970953 -0.08915132 0.009737771 -0.20976523 0.07428532 0.015383537 0.13493107 -0.14011003
0.013171035 -0.04633349 0.1787717 0.012926592 -0.054305222 -0.11048733 0.056334164 0.2340107
-0.013322774 -0.09185849 -0.0382428 0.061781254 -0.06081382 -0.0036959385 0.07004666 -0.085041106
0.10388873 -0.18428184 0.2427703 -0.14506465 0.24813236 -0.22409555 -0.07419298 0.18497998
-0.113205254 -0.15515551 -0.0948944 -0.019557903 0.056290526 -0.037092566 -0.08803276 0.06818229
0.042302202 -0.0253015 -0.16416498 0.06930662 -0.011091106 -0.16647305 0.12968399 -0.10663514
0.042610876 -0.042748734 -0.1621991 0.10864154 0.029471206 0.029853584 -0.037262823 -0.07553048
0.07746182 0.20411734 -0.08736908 0.081394635 -0.18885006 -0.05484313 0.043408036 0.07228022
0.18679251 -0.17427722 -0.06743172 0.077860594 -0.029195786 0.03351206 -0.12213952 0.058793798
0.07901382 0.043350205 0.14320092 0.15652335 -0.0650537 -0.104935385 0.014030836 0.03922589
0.06464557 0.09318332 0.18189877 0.16160041 -0.047093764 0.01131579 0.072744824 -0.018059364
-0.10433221 0.09651379 -0.16884583 -0.12341966 0.06603656 -0.07003897 -0.20032245 -0.01783279
-0.021086028 0.05642001 0.11006521 -0.058346387 -0.014310341 0.06955476 0.007776533 0.039262068
0.028135065 -0.04665687 -0.03345168 -0.011460662 -0.17618273 0.1158695 -0.0011022276 0.15049918
0.19602518 0.06504177 -0.17816666 -0.01699215 -0.029587967 -0.017205814 -0.07981137 0.116545826
0.112316914 0.093409106 -0.08319513 0.09748314 0.006492057 -0.057945114 0.049561914 0.021721985
0.09093066 0.03721221 -0.080786735 -0.03626013 -0.022996025 -0.09210602 -0.06779319 -0.1315433
0.06333217 -0.018708445 -0.07727813 0.022932991 0.021419583 0.1499133 0.19448145 0.19717157
0.28802222 0.09976989 -0.04739558 0.14372337 0.11975159 0.14967743 -0.065049 -0.025842164
0.066941686 0.05973263 0.05913808 -0.16764492 -0.037659116 -0.1719802 0.21061796 -0.119444214
00000000: ff2d 9d3d aa83 20be b4ac f03d d1ac 353d
00000010: 6f68 a5bc f69c e73c 3992 063d e2c2 293d
00000020: 3a2e 1bbe 1d3a 2dbd 4dbf b8bc 9265 f93c
00000030: 4fdf adbc bd47 d53d 893a b33d 2976 02bd
00000040: f0b2 83bd c2cb 983d bcef 573d 9948 753c
00000050: afbc 07be bf8a 473d 6264 13be 34ba 2b3e
00000060: cb73 c93b 15c3 bbbd bdc8 24bd 212a 0dbc
00000070: c099 8b3d d7a4 ab3c 11e4 d7bd ab8a 92bc
00000080: 6f7d 5f3d 3de9 0fbc f6c7 d0bd 11a4 1ebd
00000090: 7520 a13d 010c 57bd c7b1 e9bd 5341 61bc
000000a0: 8d00 8a3c b14f 84bd 7044 2e3d 1a82 463d
000000b0: 638a 8cbd 4ee4 33bc c43b 1f3d 29d9 85bd
000000c0: 8f7f 72bd ddb3 8b3c c311 15bd 6f66 34bd
000000d0: ef94 15be 2483 523d b777 78bd 8970 c23d
000000e0: 2f1a ebbd d1b4 c13d d823 a2bd c6fa f1bd
000000f0: 5b88 0abe 7c5e 3e3d baf7 3bbd d081 2a3e
00000100: f629 1f3d 37f1 073d c41d 733d b03e aebd
00000110: 1e28 c7bd 5ed4 9c3d 8ca2 e4bc e5c4 81be
00000120: 402a a6bd da00 6abe 2901 783d 3583 273d
00000130: 7ec8 ecbc a6d1 02bd 0707 f23d 725a 1fbc
00000140: 9f61 2fbe bded febd efae 853d e2c8 d93d
00000150: 5551 b53d 17d9 3e3d ea1f 473e 2e35 94bd
00000160: eae0 193e 3e8f a3bd 38d6 4f3b 39cb 56bc
00000170: de98 6cbd b5ab f23d 21c5 1ebc 22fe 57be
00000180: a1b9 b7bd f894 b6bd 2c8b 1f3c b2cc 56be
00000190: e722 983d 3b0b 7c3c 5f2b 0a3e 0179 0fbe
000001a0: 53cb 573c 30c8 3dbd ee0f 373e 0eca 533c
000001b0: 276f 5ebd 2e47 e2bd a7be 663d 80a0 6f3e
000001c0: c447 5abc 4e20 bcbd 7ba4 1cbd 570e 7d3d
000001d0: ea17 79bd 8f37 72bb a074 8f3d 082a aebd
000001e0: 9dc3 d43d 61b4 3cbe c798 783e d48b 14be
000001f0: 6916 7e3e 4e79 65be 7df2 97bd 646b 3d3e
00000200: 28d8 e7bd 16e1 1ebe ff57 c2bd e537 a0bc
00000210: e590 663d 60ee 17bd 854a b4bd 28a3 8b3d
00000220: 1345 2d3d 1745 cfbc dd1a 28be a1f0 8d3d
00000230: 78b7 35bc e977 2abe e1cb 043e 8663 dabd
00000240: be88 2e3d 4c19 2fbd 8517 26be 757f de3d
00000250: 996d f13c 818f f43c e7a0 18bd b9af 9abd
00000260: 4da4 9e3d 2304 513e 8fee b2bd 3bb2 a63d
00000270: e961 41be 31a3 60bd a0cc 313d a707 943d
00000280: 8946 3f3e ba75 32be a419 8abd 6075 9f3d
00000290: 002c efbc f143 093d 4924 fabd c4d1 703d
000002a0: ffd1 a13d fc8f 313d 43a3 123e a847 203e
000002b0: e03a 85bd 5de8 d6bd 97e1 653c 54ab 203d
000002c0: e664 843d e5d6 be3d ac43 3a3e 947a 253e
000002d0: 64e5 40bd dd65 393c 3dfb 943d 3bf1 93bc
000002e0: 20ac d5bd 06a9 c53d ece5 2cbe 72c3 fcbd
000002f0: 2d3e 873d 9770 8fbd 5421 4dbe 1216 92bc
00000300: 9bbc acbc ab18 673d de69 e13d 9ffc 6ebd
00000310: ec75 6abc ba72 8e3d 49d2 fe3b 43d1 203d
00000320: 827b e63c 461b 3fbd a104 09bd 80c5 3bbc
00000330: 3f69 34be fd4c ed3d 9f78 90ba 751c 1a3e
00000340: d3ba 483e 9f34 853d 5271 36be 1f33 8bbc
00000350: 7762 f2bc 35f3 8cbc 2574 a3bd 94af ee3d
00000360: 6906 e63d 464d bf3d 3562 aabd 3ea5 c73d
00000370: 52bb d43b db57 6dbd 6f01 4b3d 4ef2 b13c
00000380: db39 ba3d d56b 183d 8473 a5bd 8185 14bd
00000390: 2962 bcbc 15a2 bcbd 28d7 8abd 49b3 06be
000003a0: 4cb4 813d 7442 99bc ff43 9ebd f8dd bb3c
000003b0: 1f78 af3c df82 193e 2526 473e 58e7 493e
000003c0: a677 933e 2854 cc3d de21 42bd 382c 133e
000003d0: 5240 f53d 0a45 193e 6938 85bd f2b2 d3bc
000003e0: b918 893d 34aa 743d c53a 723d 1cab 2bbe
000003f0: 7240 1abd 941b 30be 3cac 573e 2b9f f4bd

encoder.0.conv.0.bias f4 [80]
-0.0016625439 0.046688754 0.07559093 -0.12103529 0.10184385 0.009817158 -0.023607884 0.21480826
-0.14692704 0.010964045 -0.008641369 0.024496596 -0.14059293 -0.12296613 0.028217776 -0.22318618
0.05220914 -0.011328676 -0.20139007 0.02166324 -0.05993529 0.13937633 0.21336338 -0.1274141
0.18964896 0.06140131 0.014243608 0.011313139 -0.08095392 -0.14075305 0.008093226 -0.016151765
-0.07117051 0.024621947 0.09907581 -0.073536724 -0.12480467 -0.21049969 0.10839375 0.11697967
-0.009731966 -0.05064842 -0.063825995 0.22040221 0.065496564 -0.043649204 0.04086086 -0.12519453
0.1148968 0.15932357 0.053113375 0.13466369 -0.118944965 0.029386986 0.020619765 0.049921498
-0.07973363 0.19741891 -0.01233474 0.22224343 0.14908692 0.0009097672 -0.037733406 0.0058848416
-0.07007716 0.2185213 0.045708716 0.121471904 0.045065057 -0.15963274 -0.13336155 -0.116860926
0.05271296 0.18676758 -0.09533554 0.08359387 0.06772163 -0.096431 0.070081346 0.04141085
00000000: b7e9 d9ba b53c 3f3d 6bcf 9a3d 5ae1 f7bd
00000010: 8293 d03d 25d8 203c 5265 c1bc b2f6 5b3e
00000020: 0b74 16be 8aa2 333c 8794 0dbc 16ad c83c
00000030: 98f7 0fbe abd5 fbbd f728 e73c eb8a 64be
00000040: 40d9 553d e99b 39bc 3339 4ebe 1b77 b13c
00000050: b57e 75bd abb8 0e3e ee7b 5a3e d878 02be
00000060: 5633 423e f17f 7b3d 065e 693c bf5a 393c
00000070: 2bcb a5bd 9121 10be 7399 043c b550 84bc
00000080: d8c1 91bd f7b3 c93c 42e8 ca3d 6c9a 96bd
00000090: 9799 ffbd 3b8d 57be 8bfd dd3d 0a93 ef3d
000000a0: d372 1fbc b874 4fbd 34b7 82bd 1eb1 613e
000000b0: 1023 863d 82c9 32bd b85d 273d ff32 00be
000000c0: 034f eb3d b825 233e 698d 593d 47e5 093e
000000d0: 6b99 f3bd fabc f03c c8ea a83c 7c7a 4c3d
000000e0: 634b a3bd 2f28 4a3e a617 4abc c893 633e
000000f0: 3eaa 183e 717d 6e3a 588e 1abd a1d5 c03b
00000100: 9d84 8fbd 0cc4 5f3e 1039 3b3d 43c6 f83d
00000110: 2396 383d c476 23be ee8f 08be c854 efbd
00000120: 8be9 573d 0040 3f3e 483f c3bd 4333 ab3d
00000130: a3b1 8a3d 9e7d c5bd cf86 8f3d 6c9e 293d
