exomy/config/best_run_no_obstacles405k/checkpoints/546000_policy.pt (torch, 723582 bytes, 13 tensors)

log_std_parameter f4 [2]
00000000: 85f8 b6bf ca70 4fbf
-1.4294592 -0.8103148

network.0.conv.0.weight f4 [512, 5]
00000000: 70a0 d03e 9606 6ebe 0aea 03bc ccb3 a6bd
00000010: 2b01 2a3e 76fa 263e 4393 3a3e 132c 163e
00000020: 1b40 9ebd 474d 3cbc f194 a4bc bd15 ef3b
00000030: 7cf3 243c ac20 82be 6bd7 6b3d edcf d63d
00000040: ad20 17be 0e94 183e 9197 813d 262d 2e3e
00000050: 71a5 553d 66b2 4abc cddc a83d 4760 453e
00000060: a9d5 003e c78e 6f3e c3c8 f73e fceb 7d3c
00000070: dd1f 30be b5db e3bc 4c02 96be 5183 0dbd
00000080: 2d0b 743d 327c b1bc c7c3 78bd 5636 d23b
00000090: 4024 09bd 2a53 463d cdbe c23d 60cc 96bd
000000a0: 0b3a ae3d 2ac6 04bf cb58 9ebb 0f5b 33bd
000000b0: 3c90 a7bc 5eb8 31be 8eb3 58be 3944 2fbe
000000c0: 3382 003d 5bc2 40be 27c6 143c 98af f43e
000000d0: 9790 963d 9caa 2d3e b99a 413b 6b31 febc
000000e0: b13a 523e f43a 42bd a15f 0d3e 3e35 90bd
000000f0: a4a0 8b3e fedd d4bd f271 a43d 3efb ff3c
00000100: 2797 023e d44f 8b3e a617 c5be 03bf 96bc
00000110: a404 483e 5f97 033c 78b0 90bd 6eb7 57bb
00000120: 096f 0fba 68a9 aa3d 23fd 1b3e 4d0c 71be
00000130: 3259 dd3e ce56 513d c1f4 203e 4ee2 07bd
00000140: aba5 753e 1b3a 143f 2b8f 4e3d d4cb 18be
00000150: 7b76 173e fd95 3ebe 4127 443e b231 bf3d
00000160: 16e0 eabd 0347 463d 1a55 7a3e 3940 2a3e
00000170: 3d91 87bd 235f 1a3c f3a9 133d 8c01 f9be
00000180: 6fc0 c6be 223a 56bc 0ab6 533d 3964 19bd
00000190: 69fe 61be aa24 843a 76b0 97bd dd5e 82bc
000001a0: e5cf 9f3d 4f6a a8be 0fbb 823e 86b8 92bd
000001b0: 9db4 86be d7fa 643e d87d ffbd 6faa 14be
000001c0: 84ca a03d efab 403d f6d9 10bc 3172 42be
000001d0: d847 d83e 17b2 ebbb f883 e13b 8c9d 2cbd
000001e0: f109 c83e ae7e 153e 4db3 ea3d be2d 95bc
000001f0: db35 ebbd 70ab 5cbe 503b febe 53aa d2bc
00000200: 6584 9a3d 4d96 89bd 089f f5be 03c4 473d
00000210: 4d38 f43d d26c 01bd 37bb 87bc 336c debe
00000220: 5af7 e13e 8369 26bd 0f28 b4bd 6f47 90bd
00000230: fde6 393e 9b63 1b3e 31a7 11bd a95a 163e
00000240: 730d 74bc 8f41 7b3d 16b9 b03e 7ce7 bf3d
00000250: 5417 6d3d e2e6 1abd 8e65 53be 3260 253e
00000260: 1cc4 b03c 3c0f 1ebe 63ce 51be 06d4 94be
00000270: 075a 8ebe 7fac be3d f988 8c3d 0085 06be
00000280: 4c02 8ebe 6979 8fbe 582c e03c 1395 2ebe
00000290: 36f2 c63d 8e05 9fbe 9c0d 99bd 51fb 753c
000002a0: 4890 9b3c c3c8 babd b9ab 39bc 0c7b 0d3f
000002b0: 80cd 663c fd43 f6bc 7b31 f6bc 142c b93e
000002c0: cdc6 d03d b3db 373d 70e9 92bd a7cc 8ebd
000002d0: 1248 a6be b0d7 f23e dc90 29bd d25f 05be
000002e0: 632a 613e 0f6b bc3e effb 153d af02 b5bc
000002f0: 9f9d 753d 867f 843c b1c2 1cbe de28 a7be
00000300: d64b a73b 85b4 e5bc 7f27 fe3c 9579 6b3c
00000310: 200e 30bf 09e9 90bd a7d8 3bbd 23aa 033e
00000320: ca6f 653d 9a0e cc3e 81e7 cc3c 4041 e43d
00000330: 59a1 b43c 6b68 29be 03a8 b9be f22c ed3b
00000340: a018 edbd 3e77 9cbd d886 febd 6854 c2be
00000350: d2d2 1bbd 1fdc 20bd b0dc 52be bc8d b83e
00000360: b238 0a3f a8d2 aa3c 0bfb 95bd 6854 e13d
00000370: f2a8 9dbe 5748 3abe 0581 923d 44ad b73d
00000380: 109b 38be 3d86 d03d 591a 533e 3fb9 713d
00000390: fe21 91bd be71 a33d c7da f43e 1a6d 7ebe
000003a0: a8da abbc e482 97bd bd74 fabd 6d02 943e
000003b0: 2971 f4bd 50c5 45bd c8db 82bd 295d 993d
000003c0: 6aba 42be 60df 503e c4d0 2a3d d626 d8bd
000003d0: 2b44 84bd 2764 acbe 0bca edbe 9956 0ebc
000003e0: 33a6 82bd e3c5 3abd 024b 823e a7cf c83e
000003f0: 60a9 d33d 3458 3ebe 9783 63be 9dae 843e
0.40747404 -0.232447 -0.008051405 -0.08139762 0.16602008 0.16306481 0.18220238 0.1466525
-0.07727071 -0.011493034 -0.020090552 0.0072962926 0.010067817 -0.25415552 0.057578485 0.104888774
-0.14758559 0.14900228 0.06327737 0.1700941 0.05215973 -0.012371635 0.082452394 0.19275008
0.12581505 0.23394309 0.48395357 0.015498158 -0.17199655 -0.027814725 -0.29298627 -0.03454906
0.05958097 -0.021665666 -0.060733583 0.0064151688 -0.033481836 0.048419155 0.095090486 -0.073632
0.085071646 -0.51864874 -0.0048323623 -0.043788012 -0.020454518 -0.17355487 -0.21162245 -0.17115869
0.031374168 -0.1882414 0.009080446 0.47790217 0.07351797 0.16959614 0.0029541685 -0.031029424
0.20530201 -0.047419503 0.13806011 -0.07041405 0.27270997 -0.10393904 0.08029546 0.031247731
0.12752973 0.27209342 -0.38494605 -0.018401628 0.1953302 0.008031695 -0.07064909 -0.003291573
-0.00054715626 0.08333093 0.15233283 -0.23539849 0.43232113 0.051108174 0.15718366 -0.033174805
0.23988979 0.5790116 0.050429504 -0.14921504 0.1479129 -0.18611903 0.19155599 0.093356505
-0.11468522 0.048407566 0.24446526 0.16626061 -0.06619499 0.009422096 0.036050748 -0.48633993
-0.3881869 -0.013075383 0.051687278 -0.037449095 -0.22069706 0.0010081728 -0.07406704 -0.015914375
0.078033246 -0.32893607 0.2553334 -0.07164101 -0.26309672 0.22361313 -0.12475175 -0.1451814
0.07851127 0.04703897 -0.008841028 -0.18988873 0.42242312 -0.007192861 0.006882187 -0.042142436
0.39070085 0.14599106 0.1145998 -0.018210288 -0.114848815 -0.21549773 -0.49654627 -0.025715983
0.075447835 -0.06718121 -0.47972894 0.048770916 0.11924801 -0.03159792 -0.016568763 -0.43441924
0.44134027 -0.040627968 -0.08796703 -0.07044875 0.18154521 0.15174715 -0.035559837 0.14683022
-0.014895785 0.06134182 0.3451621 0.09370324 0.057883576 -0.037817843 -0.20644209 0.16149977
0.021577887 -0.15435499 -0.20488887 -0.2906801 -0.2780306 0.09310245 0.06862063 -0.13136673
-0.27736127 -0.28022316 0.027364895 -0.17049055 0.09714167 -0.31058925 -0.07473299 0.015013532
0.018989697 -0.091203235 -0.011332446 0.5526588 0.014087081 -0.030061716 -0.030052891 0.3616644
0.10194168 0.044887256 -0.07173431 -0.06972628 -0.3247686 0.47430182 -0.041397914 -0.13024834
0.21988826 0.3680043 0.036617216 -0.022096006 0.059964772 0.01617409 -0.15308644 -0.32648367
0.005105476 -0.02804018 0.031024693 0.014372249 -0.68771553 -0.07075698 -0.045860913 0.12857871
0.056014813 0.3985489 0.025012733 0.11145258 0.022049593 -0.16543739 -0.36260995 0.007238024
-0.115769625 -0.07639931 -0.12428063 -0.37955022 -0.03804285 -0.039272424 -0.20591998 0.36045635
0.5399276 0.020852402 -0.07323273 0.11002427 -0.30792958 -0.18191658 0.07153515 0.08968595
-0.18027902 0.10181854 0.2061552 0.059014555 -0.070865616 0.07980679 0.47823164 -0.24846306
-0.020978287 -0.07398012 -0.12229297 0.289081 -0.11935646 -0.048283875 -0.06389576 0.07488472
-0.19016424 0.20397711 0.041703 -0.10554282 -0.064583145 -0.3367016 -0.4644321 -0.008687639
-0.06379356 -0.045598876 0.2544785 0.39220926 0.1033504 -0.18588334 -0.22218166 0.2591447

network.0.conv.0.bias f4 [512]
00000000: 5c73 5d3d 8bff 32be 4639 95bd 4432 f3bd
00000010: e05b 9fbe 39a5 ec3c 6a4c 3cbe cfc3 4bbe
00000020: 2c8e d63d f7d5 85bd 9195 8bbd 437e 17bd
00000030: 9ab1 f9bd 1788 123d 5d2e 0bbe f626 8d3d
00000040: 1c2a a0bb 7b59 f1bd 3622 14bc fa16 893d
00000050: 01ee 083e 071f c63c 980c 02be fe6e b93c
00000060: 2968 f63d 763d af3d 2ca2 263c 1d58 463d
00000070: 2da7 0ebe 3322 b9bd 9857 ba3b 04b4 19be
00000080: b9ae 833d 6467 3bb9 915b a73c 3283 cfbc
00000090: f2dd 4e3c 78ff 44bd e2be 5fbd e8c8 023d
000000a0: 1a75 953d 0266 d23d 6e61 09be 47e3 f33c
000000b0: d5f6 59be fbbb 843d e263 cc3c c54b a1bd
000000c0: 6f97 683b 2e53 b43d 9d15 b8bd f0c9 113d
000000d0: 35a0 583d 451a a53d 0f9d 983d ee3c 013e
000000e0: 4fa0 2f3c d401 2abd d4d5 063d 6165 5dbe
000000f0: b015 8c3d 6e0b 893c 2719 ef3d a32f 243d
00000100: 5fab 263e b999 1ebd 7866 703d bb62 8f3d
00000110: 6c85 52bd 4593 b33d df3a 18bb 6cb7 f63c
00000120: ae09 98bd e518 c9bc 6d17 f1bd 786f c3bb
00000130: 8404 2abe 08e8 54bc fbe0 95bd 2e1d 5fbe
00000140: afd5 7d3c 6bc8 de3c f105 0dbd 9195 253e
00000150: 03d8 003e bfcc 913c 15a9 4f3d b600 2cbd
00000160: 09c0 b7bc 041b 37be 1a59 183c cb5e 26be
00000170: b97a 723d 6f1b 84be 9a6d afbd 5e93 ef3c
00000180: 1b0f 5a3d 126a cd3d f40f 6cbd 91ef dcbc
00000190: b623 813d 8057 723d e723 cf3d 43bb 26be
000001a0: dd24 1b3c 4655 0e3d 47a8 31bd 9936 8ebd
000001b0: 3d6b b5bd 2561 02be 8d8b fe3b 8696 71bb
000001c0: 1fa1 84bd eba6 aa3d 0b16 bfbb 6c20 20be
000001d0: 72c0 633d 65b7 84bd 5891 933c 68fb 493d
000001e0: e894 8ebd cb4f 9bbb bbdb 823d 6384 89bc
000001f0: 8081 31be f8d1 22be fce9 43be 9b35 8d3d
00000200: b84a e2bd 0823 9d3d 5d1b 0b3d a482 f0bd
00000210: f687 49bd 4691 c83c 7bd2 203c 7e9e 903c
00000220: c93d c23c ec28 153c 465d 3a3c 6046 9ebc
00000230: 3d64 36be 18ed 4bbe 0b58 123d de8c 8fbd
00000240: 3af4 bbbc 6048 3abd 3f4a 80bd bece c4bd
00000250: 0c1d 323d 2e4f d6bc 30af ffbc b9f3 73bc
00000260: fb1b 4ebe c888 37bd e145 14be a288 a03d
00000270: e1b3 643b 3f77 083d 0fc0 a8bd 1830 f0bd
00000280: 4c3e 99bc 1356 483c bb2a c1bd cf9d 363e
00000290: 3b39 aabd ae71 30bd 5378 3fbb c047 1a3e
000002a0: 898b 5dbc bc2c 56be 7c86 8cbd 9db0 3abe
000002b0: cd7d 273e e147 32be 81e8 d7bd bb9a 7fbd
000002c0: 6314 b2bc dd10 32bc 0284 c73b d05b be3b
000002d0: 329e 40bd 3223 633d 478c 93bd 78e1 68be
000002e0: c373 16be 4a02 613d f91a 92bd 734c 39be
000002f0: af43 c93d 3ac2 17be 3cbb c13d ec79 1fbe
00000300: f317 16be f3cd 0dbe 5d29 84bd 37da c93d
00000310: b558 36be bb04 403c 41bd cb3b 4fd3 47bd
00000320: d0d2 b73c a797 8cbe e2fc 7f3c dfbc 8cbd
00000330: 665b 32bd 2a2e 9abc 190d 0dbd a92a eebd
00000340: 14c6 fcbd fb32 f7bd 1f02 89be dd89 4bbe
00000350: dded 8fbd 0d74 babd a383 d23c f695 913d
00000360: 576e 023e a8cd 5e3d 67b0 b43c caa5 08be
00000370: b307 dbbd c4cf 88bd 19d1 2ebe e00a 7abe
00000380: 962d 35be 0f1d ed3c 5114 4ebd de28 e2bd
00000390: 1cd2 0fbe 34e9 ef3c 085a 27be 0495 03bd
000003a0: 2c24 84be 5cba 113d 3191 37be 06c2 4ebe
000003b0: b183 cb3d 68e3 c3bc 6dae f6bd ce01 073b
000003c0: bbfa 1cbd ce42 b53c 1510 2dbe 5515 86bc
000003d0: 2900 b8bb 05c5 31bd acc1 c739 668b d23c
000003e0: 0fc6 9c3c c145 2fbe 8ebf 09bc 3f47 00be
000003f0: 9b66 3abd 1470 c9bc dd85 21be a1c6 04be
0.054065093 -0.17480294 -0.07286315 -0.11874822 -0.31124783 0.028887378 -0.18388525 -0.19898914
0.10476336 -0.06534951 -0.06815637 -0.036985647 -0.12192078 0.035774317 -0.13591905 0.06892197
-0.0048878323 -0.11784645 -0.00904136 0.066938356 0.13372041 0.024184717 -0.12700117 0.022635933
0.12031586 0.085566446 0.010170501 0.048423875 -0.1393096 -0.09039726 0.0056867115 -0.15010077
0.0642981 -0.00017872226 0.020429404 -0.025331113 0.012626158 -0.048095196 -0.0546254 0.03192988
0.07297726 0.10273363 -0.13416073 0.02977146 -0.21285565 0.06481167 0.024949972 -0.0787578
0.0035490652 0.08804928 -0.089884974 0.035592973 0.05288716 0.08061651 0.074518315 0.12620899
0.010719373 -0.04150565 0.032918766 -0.21620704 0.06840074 0.016729083 0.11674719 0.040084492
0.1627631 -0.03872082 0.05869147 0.07001253 -0.051396772 0.08768324 -0.002322845 0.03011676
-0.07423721 -0.024548003 -0.11772046 -0.005964216 -0.16603285 -0.012994774 -0.07318302 -0.21788475
0.015492841 0.027195176 -0.034429494 0.16170336 0.12582402 0.017797826 0.05069836 -0.041992866
-0.022430437 -0.178814 0.009298587 -0.16247098 0.05919907 -0.2580218 -0.08565827 0.029245075
0.053237062 0.10029997 -0.0576324 -0.026969703 0.063056394 0.059165478 0.1011427 -0.16282372
0.009469238 0.03474929 -0.043373372 -0.069440074 -0.08858345 -0.1273237 0.0077681006 -0.00368634
-0.06476044 0.08332618 -0.005831485 -0.15637368 0.055603452 -0.06480292 0.018013641 0.049312025
-0.06961995 -0.0047397367 0.063895665 -0.01678676 -0.17334557 -0.15900409 -0.19132227 0.0689499
-0.11049408 0.07672697 0.033961643 -0.11743668 -0.049201928 0.024483334 0.009815807 0.0176537
0.023711102 0.009103995 0.011374777 -0.019320667 -0.17811675 -0.19914663 0.035728496 -0.0700929
-0.022943605 -0.04547918 -0.06264161 -0.096097454 0.043484733 -0.026160803 -0.031211466 -0.014889651
-0.20127861 -0.04480818 -0.14479782 0.07838561 0.0034897255 0.033316847 -0.08239757 -0.11727923
-0.018706463 0.012227553 -0.09431978 0.17833637 -0.08311697 -0.043077163 -0.0029216006 0.15066433
-0.013522037 -0.20915502 -0.06861588 -0.18231435 0.16356583 -0.17410232 -0.105423935 -0.06240342
-0.021738237 -0.010868278 0.0060887346 0.0058092847 -0.047025867 0.055453487 -0.0720449 -0.2274226
-0.14692597 0.054933824 -0.07134051 -0.1809557 0.09827363 -0.14820185 0.0945954 -0.15573853
-0.14657573 -0.13848095 -0.06453202 0.09856074 -0.17807277 0.011719878 0.006217629 -0.048785504
0.02243939 -0.27459452 0.015624257 -0.06871962 -0.043544196 -0.01882084 -0.03443632 -0.116292305
-0.12342468 -0.12070271 -0.2675943 -0.1987681 -0.07027791 -0.09104166 0.025697535 0.07108681
0.12737404 0.054395348 0.022056771 -0.13344494 -0.10694828 -0.06680253 -0.17071952 -0.24418211
-0.17693171 0.02894452 -0.050312344 -0.11042951 -0.14044994 0.029286005 -0.16342938 -0.032124534
-0.25808847 0.035578117 -0.1792648 -0.20191202 0.099372275 -0.023912147 -0.12044988 0.002060044
-0.038325053 0.022126582 -0.16900666 -0.016367594 -0.0056152535 -0.043400783 0.00038100535 0.025701236
0.01913741 -0.17116453 -0.008407487 -0.12527178 -0.04550801 -0.024589576 -0.15773721 -0.12966396

network.1.conv.0.weight f4 [256, 512]
00000000: 44c5 1db8 dd55 4cbe 6a55 5dbd cd2f 063d
00000010: fb51 e3ba 9b5f ecbd 1b10 31be e50d 37bd
00000020: a16b e7bc c1bd c9bd 0b34 64be 487c b43d
00000030: c635 133e 939b b4bd c050 dcbd 4356 a73e
00000040: 645c 89be 159d 42bd 7f76 c53c b129 413e
00000050: 7a7d ca3d fafe 883e 2e6f bb3d b493 943c
00000060: ffce 103e fd74 95bd 61e0 433e 0052 043e
00000070: cc23 f6bd ff6b 95bd d74b 3cbe 20c6 daba
00000080: b025 e33d 8214 f23c 7761 aa3a c7cb 1a3d
00000090: 7d9c 84bd e61a 49be dbe1 6dbc c2f3 85be
000000a0: 9cb6 c83b 587d 8e3e 8baa aabd be53 c2be
000000b0: 8cac 8e3d a806 95bd 0ae2 32be 0c89 36be
000000c0: a774 c53a 93c7 813b 6b47 04bc 8a8f c7bd
000000d0: 39fd 053e 1411 113d 2033 8e3e 9dd9 6fbd
000000e0: 4e5b 9dbe 66d1 67be 5f2d 70be 1cd4 e7be
000000f0: d857 90bd d9d8 f33d 2c3f 17bd e8a4 27bd
00000100: bf72 4fba 840a 99be 1d4b b7bd 32b5 3d3c
00000110: 8f2e d7bd 62a5 26bc face f93d 0474 aabd
00000120: 2227 be3c c286 9a3e 4cf4 dabd 762c 7fbe
00000130: a110 72be ec95 ae3c 740c b53d 577b 043e
00000140: efbd 093c 2811 1abe a9dd 65be c87c e13d
00000150: bd7c 03be 755b b13d 23ff 80be bbcf bbbd
00000160: a665 3a3e 08d2 583e 8d91 623e 0ee6 bc3d
00000170: 6409 a93e 089c 98be 6c88 4f3d 1faa de3b
00000180: 2036 c5bd 5ee7 093e 241e 37bd 979d 44be
00000190: 8988 d33d 58a2 0ebc 3156 843d 484a 62be
000001a0: 9a40 643e 3159 43bd 0154 32be 397e 43bc
000001b0: 4dff 713e 1820 e83d 6847 723e 2477 5e3d
000001c0: 1ef7 73bd c16d c13d 180e 823e 17b2 60be
000001d0: 6418 a53d d061 23be c6bc 0ebe bc27 6b3d
000001e0: 0905 dcbd a3a1 683e 7f83 e4bd 9d52 22bd
000001f0: f1b7 3bbe 1419 aebe 5c87 ddbe f634 953a
00000200: 9e9e 82bc fcba 8ebc 68b0 5f3e ea10 22bd
00000210: cdc6 0abd d53c 8cbd b244 d5bd 0c06 463c
00000220: ea96 5c3d 1a55 b03d 142f 21bd 67ef 7c3c
00000230: 72b9 82bc 56af 113d be58 7abe 513b a43d
00000240: 8e3b 403d a007 dfbd b6a6 10be 5017 cbbd
00000250: c6ea 223e ed91 b0bd e488 823c 9017 763c
00000260: dbce 733d 703e 293e 47cb b63c 435c c43c
00000270: d134 483e a0fa bf3d c3ca 2fbe ea2f e33b
00000280: 4888 00bd cd32 283c 58fd 283d a9c4 143d
00000290: b548 07be e7b9 393e 8525 cf3d 9e77 d43d
000002a0: f9cd 73bc ae88 83bd 22d5 e13b 74c2 33be
000002b0: 1558 0a3e c1fb cfbc 7afe 833c 850e 44be
000002c0: 9897 3cbd d26d 413e e287 a53d 5169 0aba
000002d0: f33d 20be 5079 a6bc 574f 50bb c990 5dbe
000002e0: 9043 89be 975d b23d bfdd c13c aec2 12be
000002f0: 7649 26bd 0fc4 403c 1705 903c 165d 62be
00000300: 8d90 a5be 543e 22bc 807e 9c3d 6da4 953b
00000310: f51a 593d d021 0abd 916b 1f3e 9b2f a6bd
00000320: 7370 41bd 2fbe 47be e8df 6fbd cae0 bbbd
00000330: 00f6 203c 44cc ce3d 913a 1a3e b984 02bf
00000340: d8c3 32bc c823 9abe 2249 a33b 0169 98be
00000350: c801 ce3d e139 b03c afb9 5ebd d8f0 db3c
00000360: c0c0 8e3d a22b 013e 124c 3d3d c98c 283d
00000370: e023 8d3d 365f cebc 1883 ecbd 20a1 c5bd
00000380: 7375 11be e693 2abc 31e4 8b3c 849c 68be
00000390: 7a07 6ebe 3235 47be b8b8 8ebc 340a cb3d
000003a0: c2fe e7bc 1c47 5b3c baff d6bc 7874 bebc
000003b0: 435f 4ebc 476c ef3c 8a8b 11be 86e1 c53c
000003c0: 982e 113d 90bc f53d b5b0 18be bd90 473d
000003d0: e2d9 a3bd 353c 29be f624 383d 6a60 18be
000003e0: 659d 14bd e277 cdbe 00b9 4a3d c12d d8bd
000003f0: f361 653e 3501 15be 9dd8 abbd dd31 4f3d
-3.7615435e-05 -0.19954629 -0.054036535 0.03276043 -0.0017343158 -0.11541673 -0.172913 -0.044690985
-0.028249564 -0.09850646 -0.22285478 0.08812767 0.14375982 -0.08818736 -0.10757589 0.32683
-0.268283 -0.047513086 0.024104355 0.1886356 0.09887214 0.26757032 0.09152065 0.018136837
0.14141463 -0.07297704 0.19128563 0.12921906 -0.120185465 -0.07295989 -0.18388306 -0.0016691126
0.11091173 0.029550795 0.0012999017 0.037791993 -0.0647516 -0.19639167 -0.01451918 -0.26162535
0.0061252844 0.27830005 -0.0833331 -0.37954515 0.069665045 -0.0727666 -0.1746904 -0.17825717
0.0015064672 0.0039605587 -0.008073668 -0.09744175 0.13084878 0.035416678 0.2777338 -0.05855714
-0.30733722 -0.22638473 -0.23454808 -0.45279014 -0.07048005 0.11906595 -0.03692548 -0.04092875
-0.0007913522 -0.29890835 -0.089498736 0.011578845 -0.10506927 -0.010171266 0.12197681 -0.083229095
0.02321202 0.30180937 -0.10691127 -0.24919304 -0.23639156 0.021311723 0.08840266 0.12937675
0.0084071 -0.15045607 -0.22447838 0.11010128 -0.12840553 0.08660022 -0.25194654 -0.09170481
0.18202838 0.2117387 0.22125836 0.09223567 0.33014977 -0.29806542 0.05066721 0.0067951824
-0.09629464 0.13467166 -0.04470648 -0.19200741 0.103287764 -0.008705698 0.06461752 -0.22098649
0.22290269 -0.04769248 -0.17414857 -0.011931949 0.23632546 0.113342464 0.23660052 0.05431284
-0.05956184 0.09444762 0.25401378 -0.21942936 0.08061293 -0.15955281 -0.13939199 0.05741094
-0.10743148 0.2271791 -0.111578934 -0.039629567 -0.18331887 -0.34003508 -0.43267334 0.0011383581
-0.015944775 -0.017423145 0.21844637 -0.03956691 -0.033880997 -0.0684754 -0.10413493 0.012086403
0.05385486 0.08609982 -0.039351538 0.015437937 -0.015957568 0.035567604 -0.24447915 0.08019126
0.046931796 -0.10890126 -0.14126095 -0.09916556 0.15909871 -0.08621583 0.015934415 0.015020266
0.059523445 0.16527724 0.022313727 0.023969775 0.19551398 0.09373975 -0.17167191 0.006933202
-0.031379968 0.010266018 0.041257232 0.036320362 -0.1321133 0.18137322 0.10114578 0.10374378
-0.014880651 -0.06422554 0.0068918625 -0.17554647 0.13510163 -0.0253886 0.016112555 -0.19146164
-0.04604301 0.1888955 0.08082558 -0.00052799756 -0.15648632 -0.020321518 -0.0031785571 -0.21637262
-0.2680936 0.08709257 0.023665307 -0.14332077 -0.0405974 0.011765494 0.017580552 -0.22105822
-0.32336846 -0.0099025555 0.076413155 0.00456672 0.053004224 -0.033723652 0.15568377 -0.08114549
-0.04722638 -0.19506143 -0.058563143 -0.091737345 0.009824276 0.10097554 0.15061404 -0.5098377
-0.010910951 -0.30105424 0.0049830833 -0.29767612 0.100589335 0.021511974 -0.0543763 0.026848242
0.06970358 0.12614301 0.046215124 0.04114989 0.06891608 -0.025191884 -0.11548442 -0.09649873
-0.1420496 -0.010411238 0.017076584 -0.22715956 -0.2324504 -0.19453886 -0.017422065 0.099140555
-0.02831972 0.013383653 -0.026244987 -0.023248896 -0.012595954 0.029226435 -0.14213386 0.02415539
0.035444826 0.11998856 -0.14911158 0.048722018 -0.08000542 -0.16526873 0.044957124 -0.14880529
-0.036282916 -0.40130526 0.049492836 -0.10555602 0.22400646 -0.14551242 -0.08390925 0.050584663

network.1.conv.0.bias f4 [256]
00000000: 5fdc 7ebd 4443 01bd cd5d 033d d4d7 593c
00000010: 94ba 40bc fc2e 953d 40c8 413d c3d4 a13d
00000020: 7721 a3bd f41d 1f3d f37e 6fbc f960 25be
00000030: 5c16 b63d a60e 19be 0c3b 02be 6c58 cebd
00000040: 6502 d2bd 499c 5dba 0348 613d a1a2 28be
00000050: 7325 d0bd 8a23 3b3e 1ca9 b4bd 10c0 19bd
00000060: 38ae b6bd cdf8 f93b 8719 2ebe d495 c43c
00000070: 4102 12be a3c1 60ba 92ea 09be 899b c53b
00000080: a9b5 96bd a7cd 72be 4d64 2a3e fb02 c6bd
00000090: f7d0 71be ac33 11bd 47dd cc3b 406b 34bd
000000a0: 5e72 c6bd af62 0dbe 970c 66be dbfb 933d
000000b0: 9289 b93c 00f4 713c 19fb febd e008 c63c
000000c0: 56ef 72bd a7d3 583d 01b2 7abd e689 793d
000000d0: 5f7d 48bd 12fb 6fbc 4415 6ebd 77d0 c0bb
000000e0: 6728 253d 5f4b debc 8cb4 a33c 1796 de3d
000000f0: 4fa0 0dbe 6764 8abd ddc4 5fbc 6606 77bb
00000100: cb5f bc3c 5ca3 783c 2c22 153e 386d 68bd
00000110: 2e05 fdbc 07c1 89bd 86ae 0bbc 104a c7bd
00000120: 5a3b 0a3d e55a d4bd 52b1 f9bd bd39 32bc
00000130: 569c f5bc 56a2 f9bb 3da7 97bb 9c4d 503e
00000140: e4f5 f8bd 3289 153d 9863 25be f15f 493d
00000150: 1b5f 34be b22e d0bd fdfb 4cbd a9bd acbd
00000160: 4233 4a3d 2ec9 82bc 3ab6 3dbc 6cdb ed3d
00000170: 1c6c 643d cbbe 153e 9c0b 31bd 73fc 27bc
00000180: 8741 3ebe 6efe 20bc 3383 13bd 22e9 9e3e
00000190: 8fa8 e63c ed88 8ebd d08e 933d ad8a 33be
000001a0: d036 68be 76aa 6bbd 53a8 ef3d c9e5 30be
000001b0: e73d 1a3d a656 21bd 92a8 043e eb9b 30be
000001c0: cdb0 9b3d 19f7 ea3d 1531 efbd 7a9f 903d
000001d0: d87f 6d3d 4baf babc 6a6e afbc 4dc5 0f3e
000001e0: 7920 ed3b 3008 e9bc 4f27 f63d 7071 023e
000001f0: e3eb e0bd 6a26 33bd aff0 bb3d 6bd0 68be
00000200: 72f6 92bd bd05 f5bd a81a 2abe 4228 1c3d
00000210: 16c0 77bd c3c1 98bb 3f4b 373c d845 5fbc
00000220: d68d 0b3d 4757 b6bc 4aa9 89bd 7732 07bd
00000230: 5d45 3bbd d228 dc3c 4f9d 823a a9f5 1dba
00000240: d7b4 543d 82f4 b33b 25fc 29be 031e af3d
00000250: 2df7 1f3e ee89 aabd da39 44bd 6d13 35be
00000260: 0c02 d43d 21f8 913e fd25 073d 8aa9 90bd
00000270: 39ae 82bc e5e6 6bbb 7f1a 2a3c 65a6 4fbd
00000280: 7f7b c0bb 02d7 a5bd 1ace 7b3c f6b6 2b3e
00000290: d0e7 c3bc 7c51 ca3d ab39 f0bb 92e3 6dbd
000002a0: 60ef 373d 9009 803d 3e20 aa3d 98b7 1ebe
000002b0: cc98 303c a2a2 62be 89ce 363d b090 14be
000002c0: a44b 34bd 30fe cebd dc26 eabc 1d74 d13c
000002d0: 2913 4bbb f184 c13b b9a8 0b3d 9b70 01be
000002e0: 1c47 88bc e814 a7bd 0467 3f3d 8d54 7fbe
000002f0: aff9 b4bd 4cbe e23d e679 cabd 0469 043c
00000300: 6b8a 86bd 5ccf febd da9c 29be 82c2 963d
00000310: 1cdf 81bd 4187 773d 0242 c83d 6125 bbbd
00000320: d6bc b6bd f537 cb3d 00a1 0fbe db81 163e
00000330: 3971 11bd 82ba e3bc 67d2 45be d8d3 0cbe
00000340: 7468 d9bc f0e8 dab8 cd2f 6e3b fc83 acbc
00000350: bf46 35be dd97 a83a 977a d23c fbc4 8b3d
00000360: 7c2e 15be 9072 c03b 2420 80be f6df 55bd
00000370: 637e 993b 9053 10be 6f71 55be f91b bdbd
00000380: 7bb5 093c 6a57 43bb 3276 273d 6baf 01be
00000390: 11f8 573d 9f48 123e f3ea 0b3e ea81 51be
000003a0: 11f0 6ebd 1b7d 1b3e 366d 9bbd fa39 a9bc
000003b0: 0178 c0bc b47f ec3c 3ce7 74bd 93bf 2e3e
000003c0: a982 0dbe a63a 7a3d 0aad 0abe f020 423c
000003d0: 772b 543e 8697 253d 0131 223d 6d0b e4bb
000003e0: b1fc c3bd 8595 dabc 6bc2 83be 1560 61bc
000003f0: 956a 803d 0bfb ba3d 5932 64bd abe7 c2bd
-0.06222188 -0.03155829 0.032071877 0.013296086 -0.011763234 0.07284352 0.047310114 0.07901909
-0.07965367 0.038846925 -0.014617669 -0.16150273 0.088909835 -0.14946994 -0.12717837 -0.10075459
-0.10254363 -0.0008453769 0.055000316 -0.16468288 -0.10163393 0.18275276 -0.088213176 -0.03753668
-0.08919948 0.0076285363 -0.17001925 0.023997225 -0.14258672 -0.0008573776 -0.13468388 0.006030504
-0.07358868 -0.23711263 0.16639824 -0.09668537 -0.2361487 -0.03544967 0.0062519643 -0.044047594
-0.096897826 -0.13807176 -0.2246574 0.07225772 0.022648606 0.014767647 -0.12450237 0.024174154
-0.05931028 0.052936222 -0.061204914 0.060922526 -0.04894769 -0.014647262 -0.05812575 -0.005884226
0.040321734 -0.02713555 0.019983552 0.10868471 -0.13830684 -0.067574315 -0.013657776 -0.0037693023
0.022994896 0.015175667 0.14563817 -0.056744784 -0.030886259 -0.0672627 -0.008525496 -0.09730923
0.03374801 -0.10368899 -0.12192024 -0.010878024 -0.029981773 -0.007618229 -0.0046280907 0.20342106
-0.12156275 0.036507793 -0.16151273 0.049163762 -0.17614405 -0.101651564 -0.050045002 -0.08434612
0.04936529 -0.01596507 -0.011579091 0.11614117 0.055767164 0.14623563 -0.043223962 -0.01025306
-0.18579684 -0.009826286 -0.036013793 0.3103724 0.028156547 -0.0695971 0.07204974 -0.1753337
-0.2267716 -0.05753561 0.11702027 -0.17275156 0.03765669 -0.039389275 0.1295493 -0.17246978
0.076020814 0.114729114 -0.116792835 0.07061668 0.05798325 -0.022788664 -0.021414954 0.14040108
0.007236537 -0.028446287 0.12019216 0.12738585 -0.10982492 -0.043737806 0.09176766 -0.22735755
-0.07175912 -0.11963985 -0.16611731 0.03812433 -0.06048592 -0.00466177 0.011187374 -0.013627492
0.034070812 -0.022258414 -0.067217425 -0.03300711 -0.045720447 0.026874933 0.0009965095 -0.0006025681
0.051930275 0.005491794 -0.16600092 0.08550646 0.15621634 -0.08327089 -0.047906734 -0.17683192
0.10351953 0.2850962 0.032995213 -0.07063587 -0.015952216 -0.0035995778 0.010382294 -0.050695796
-0.005874097 -0.0809765 0.015368963 0.16769013 -0.023914248 0.09878823 -0.0073310933 -0.058078356
0.04490602 0.06251824 0.08306931 -0.15499723 0.010778617 -0.22132352 0.04463056 -0.14508319
-0.04401745 -0.10107076 -0.028582983 0.025568062 -0.0030986762 0.0059057404 0.034096453 -0.12640612
-0.01663547 -0.081582844 0.046729103 -0.24934597 -0.08836686 0.110714525 -0.098865315 0.008081678
-0.0656937 -0.124418944 -0.1656374 0.07361318 -0.06341383 0.060431723 0.09778215 -0.09137989
-0.08922736 0.09922782 -0.1402626 0.14697973 -0.03550837 -0.027798895 -0.19318543 -0.13752687
-0.026539065 -0.00010438438 0.003634441 -0.021059029 -0.17702769 0.0012862642 0.025693221 0.068246804
-0.14568514 0.005873032 -0.2502452 -0.05221554 0.004684256 -0.14094377 -0.20844053 -0.09233851
0.008405085 -0.0029806742 0.040884204 -0.12664573 0.05272681 0.14285515 0.13663845 -0.20459715
-0.058334414 0.15184443 -0.0758919 -0.020657528 -0.023494722 0.028869487 -0.059790835 0.17065267
-0.13819374 0.061091088 -0.13542572 0.011848673 0.20719706 0.040427707 0.039597515 -0.00695937
-0.095696814 -0.026682625 -0.25734267 -0.013755818 0.06270329 0.09129914 -0.055712078 -0.095168434

network.2.conv.0.weight f4 [128, 256]
00000000: fbb3 473a 3191 c03a 15de 92bc 826e ea3c
00000010: 9368 57bd 0233 b73d 0289 673e a1d6 353e
00000020: 8184 87bd 4220 273c 60ef e0bd 2f41 50bd
00000030: 671f a43d fe3c be3d 1d25 ab3d c548 c4bd
00000040: f9d8 cd3e c381 e6bd ec90 debc 8dc8 8b3d
00000050: c7ec bc3d eb5d adbc 7683 a43d 03e1 e93d
00000060: 7471 5bbe 7aec 883e cb9a 08be b0e3 9f3d
00000070: 5d99 343e 2b76 a6bd accb 423d 5304 58be
00000080: 74d3 18be 5452 adbd 6f24 793d 021a 8cbd
00000090: 365d 8abd b807 93bb a569 ee3d 4f59 53bd
000000a0: 7880 823d ea7e 48bd 3717 0f3c 8e82 bc3d
000000b0: ebe5 f5bd 6fbb f1bd 4aab 553e 4cbb adbc
000000c0: 018e 63be 5edc ca3d 586e 3dbe 1f4f 43bd
000000d0: 014e 5fbd 342b b5bc 2c4c 0a3d 93cf 25bd
000000e0: 4c9f 32bd e96c afbd 1768 63be 3f64 febd
000000f0: 557d 763d e150 a9bd 6128 2d3e b49b e0bd
00000100: 83cf 7739 b1b8 d73d fbe4 a1bd 7614 00bc
00000110: 403e 33be cf0f b3bd 891d cabd d72d c83d
00000120: 33bb 39bd 930b 24bc 1ba9 f3bd ab76 38bd
00000130: 466d 443d 25af c93c 83cb 2f3e 140c 56be
00000140: ea59 97be ab0b 123e 528c eebc d3ce d8bc
00000150: 3837 35bd e45c bc3d 64f4 f5bc 56ca 063d
00000160: adf4 96bd e06a 213a 309b 4d3d 9a1a c13d
00000170: 6cb0 f9bd 2e2e 373c 228a 76bd 925d 283d
00000180: 88d1 ac3c 5dee 213d 106b 953c 20c9 343e
00000190: c8d7 303d 5801 df3d 0419 2abd c033 d83d
000001a0: 3053 983d 36da be3d bd9b 1f3d d860 583d
000001b0: 11c3 953d b8df 67be 7d53 b9bd 808e c43d
000001c0: 754f d8bd 39c2 f63c 6a08 e83d 5890 4cbd
000001d0: 21c9 d13b 15dd 89be e388 bc3d 8a64 9c3c
000001e0: 157e c7bd 5870 3dbe 71e3 24be c119 9cbd
000001f0: d47f 973d 587c e33b e40a ffbd 34ff eb3d
00000200: c158 ba3d 3d80 523e c87f 2e3e 96c8 10be
00000210: 37b3 63bd b4d6 f93d 03e2 c8bd 5ecb 913d
00000220: b915 0b3d 45ea 09bc 2f72 f7bb e9de f13d
00000230: 4671 e83d c3fc cf3c b84d 83bd 6613 05be
00000240: 78b8 5a3d d79c 2bbe 8488 013d 734b f3bc
00000250: f00a 21be 6490 96bb b603 71bb 031b 11be
00000260: b7d2 85bd e106 93bd 003c 623c c293 ab3d
00000270: da05 453e e263 e7bd 1a86 f03c b80f 2ebe
00000280: fe48 563e 0f0c b4bb 9564 2d3e fcac 3fbd
00000290: cc45 87bd 4d6b 13be 713e a93d 3c4b 9dbd
000002a0: 1bb7 ecba 906f 02be 5ca2 a0bd a383 1abd
000002b0: 6c27 d43c 2b23 b3bd ca1a 0d3e beeb 8b3b
000002c0: 4cd6 ccbd 019d fdbd 211c 143e baf6 b83d
000002d0: a59b 523d 53aa 68bd 14ff 0d3e f315 7cbd
000002e0: 3c2a 36bd d24e 74bd 6f47 debd 70f3 8abd
000002f0: e3c1 37bd 4dd1 6c3c 6198 cb3d 0fc6 a3bd
00000300: b47b 233e ec38 4bbe cefb 62be 1a86 2bbe
00000310: e45a e23d be49 843d 4054 f03d 3664 b7bd
00000320: f574 0b3e c14b 9cbc 102d 1e3e c0e2 03bd
00000330: 8c07 8e3c 3630 7bbd 4b9c ad3c 2321 153e
00000340: 07b4 9ebd 0216 eebc 5516 49be 59d1 afbd
00000350: 2b66 28bc 0a54 45bd 6eb5 05be 201a 423d
00000360: 70c6 4dbd 890a 283d acfb 2bbe 4be8 f43d
00000370: 583a c5bd 31e1 08be 17ed 9b3d cdf9 90be
00000380: 836f 42be 0c12 81bc 8531 18bd 6c25 05be
00000390: 99ab 15bd 884d 0abe fe85 4fbd c7e9 c1bd
000003a0: 8770 ca3c 2bc8 1c3e 83c1 d43d 732a 26bd
000003b0: 800b 9cbc 9819 0bbe 6672 9d3e 9ed3 81bc
000003c0: 87e4 edbd 0dab c7bd 3b1e 70be 3cab 7cbd
000003d0: d942 ecbd b2b2 c83d 86b5 44bd 9ef4 a6bc
000003e0: 31ed 92bc 59af 4e3e 7ea6 393e 4f5a 0abd
000003f0: 9485 a63c 6aeb 0abd 3cec c83d e124 93bd
0.0007618067 0.0014691708 -0.017928163 0.028617147 -0.052589964 0.08945276 0.22610858 0.17757656
-0.0661707 0.010200562 -0.10983157 -0.050843414 0.08013802 0.09288977 0.08356688 -0.09584192
0.402046 -0.11255219 -0.027168714 0.068253614 0.09224849 -0.021162948 0.08032887 0.11419871
-0.21429998 0.26742917 -0.13340299 0.078071 0.17636628 -0.081280075 0.047557518 -0.210954
-0.14924413 -0.084629685 0.06082576 -0.06840898 -0.0675606 -0.004487004 0.11641244 -0.051598843
0.0637216 -0.04894916 0.008733562 0.09204589 -0.12006744 -0.11803328 0.20866123 -0.021207474
-0.22222139 0.09905313 -0.18499124 -0.047682878 -0.05451775 -0.022115327 0.03376405 -0.04048116
-0.04360895 -0.08565695 -0.22207676 -0.12421464 0.06017812 -0.082673796 0.16909935 -0.10967198
0.0002363306 0.10533274 -0.07905003 -0.007817378 -0.17504215 -0.087432496 -0.09868915 0.09774368
-0.045344543 -0.010012525 -0.11897489 -0.045035046 0.047955774 0.024619648 0.17167477 -0.20903045
-0.29560786 0.14262263 -0.029119644 -0.026465809 -0.044242114 0.09197405 -0.030023761 0.032907806
-0.07370887 0.0006157588 0.050196826 0.09428902 -0.12191853 0.011180444 -0.060190327 0.04110486
0.021096006 0.03953396 0.018239528 0.17654848 0.043174535 0.10888928 -0.041527763 0.105567455
0.07437742 0.09318964 0.038966883 0.052826732 0.073125966 -0.22643936 -0.09049127 0.09597492
-0.1056203 0.03012191 0.1132973 -0.049942344 0.0064021503 -0.26926485 0.092057966 0.01909091
-0.09740845 -0.18499887 -0.16102387 -0.076221 0.07397428 0.006942313 -0.12453249 0.115232855
0.0909896 0.20556732 0.17040932 -0.14139017 -0.055590834 0.121991545 -0.09808733 0.07118867
0.033956263 -0.008417671 -0.0075514535 0.11810095 0.1134973 0.02538908 -0.06411308 -0.12995681
0.05339858 -0.16759048 0.031624332 -0.029699063 -0.15726829 -0.0045948494 -0.0036775894 -0.1417046
-0.06534331 -0.071790464 0.01380825 0.08377792 0.19240513 -0.11298348 0.02936082 -0.16998184
0.20926282 -0.0054946016 0.169329 -0.04679583 -0.066051096 -0.14396401 0.08263863 -0.076803654
-0.0018059941 -0.1273787 -0.078434676 -0.037723195 0.025897704 -0.08746942 0.1377975 0.004270046
-0.100018114 -0.12383462 0.14463855 0.09031434 0.051417965 -0.05680306 0.13866836 -0.06154437
-0.04447387 -0.05964548 -0.108534686 -0.06784713 -0.04486264 0.014454198 0.09941173 -0.07996761
0.15965158 -0.19845933 -0.22166368 -0.16750374 0.11052492 0.06459378 0.117348194 -0.089546606
0.13618834 -0.019079091 0.15446877 -0.032198668 0.017337583 -0.061325274 0.02119269 0.14563422
-0.07749181 -0.029063229 -0.19637425 -0.08584852 -0.010278265 -0.04817585 -0.13057491 0.047388196
-0.050238073 0.041025672 -0.16795224 0.11958369 -0.09630269 -0.13367154 0.07613581 -0.28315583
-0.18987851 -0.015755676 -0.0371566 -0.13002557 -0.0365406 -0.13506138 -0.050664894 -0.094684176
0.02471186 0.15310733 0.10388472 -0.040567826 -0.019048452 -0.13583982 0.30751342 -0.015847977
-0.11615854 -0.09749422 -0.23449032 -0.06168674 -0.11536188 0.097997084 -0.048024677 -0.020380314
-0.017935367 0.20184077 0.18129918 -0.03377753 0.020327367 -0.033915915 0.09810683 -0.071847685

network.2.conv.0.bias f4 [128]
00000000: c513 60be e13c 1e3a d497 1bbe 863e c73d
00000010: ba38 2ebe 6a43 44be 765e 183e f2ec 9aba
00000020: 512e 43bd 5885 e63c 9fce 57bc 2800 fc3c
00000030: ecdd 583d 849c c93d 610b 7bbd 1570 573d
00000040: 48e5 903c 6c61 a7bc 096e c3bd d96e 95be
00000050: 9e75 dcbd a1a6 653c 7d6d 05bc 1957 cdbd
00000060: 0779 d1bd 0551 06be 1378 bfbc 7eb1 d2bd
00000070: 2c4c 3abd 1253 7fbd bc3d aa3d c379 4ebe
00000080: c5c3 96bd 3235 70be 8b59 49bd e3f6 e03c
00000090: db7e 50bd f588 58be 71ba 0a3d 99d0 42bd
000000a0: fc71 efbd c4aa 113d 3643 6a3d 011b 4cbe
000000b0: ba9d f4bd 1867 193d 510c bb3d 6bde d4bd
000000c0: b39c 60be f003 493d f288 0bbd 35b6 893c
000000d0: 5e05 1dbd 7814 f43d 58f3 57bc 65d6 d53d
000000e0: 7dfe e23c 9f8f 1bbd 9e89 2cbe cfff 96be
000000f0: b31c 8fbe 58ea c63c dad3 bebd 37fb 1c3e
00000100: d7bb a33c 87ae 1d3e 0bb7 54be 2f82 363e
00000110: 1123 79bd 45e6 1f3d 38df ddbd 02ab 87bd
00000120: 9388 543e acde 0b3b abd4 1d3c 4f6b 073d
00000130: 2d89 11be 7e9c bc3d b996 f13d 7ea4 2d3d
00000140: e16f c03c 7263 5cbe 1418 3abd 9962 233e
00000150: 55c6 e2bc 2430 203d 4204 21be 0fe7 aa3d
00000160: 23b8 063d a07c 8a3d 746f c0bd 087d 38be
00000170: b91f 17be 1d19 dabd a995 a03c 9b84 5ebd
00000180: 89bf 16bd 8377 f8bd d90f af3d 71cb e03d
00000190: e33a d9bd 92db ffbd 222c 8e3c a7ff 743d
000001a0: a8ef 83bc d02d b43d ef15 c7bd e494 c8bc
000001b0: 4269 4bbe 4ff4 1ebe e167 5cbe 1aa7 f23c
000001c0: ccbe 54bb ba5c 663c b819 d5bd ecdc 13be
000001d0: e4b2 22be 5024 3dbe 3078 08be f78c edbc
000001e0: 7d38 363c a324 92be 5acc 05bd 2be7 49be
000001f0: 2094 e8bd d410 55be 351f 983c 2d68 88bc
-0.21882541 0.00060362933 -0.15194637 0.09728722 -0.17013827 -0.19166341 0.14879784 -0.0011819883
-0.047651593 0.028139755 -0.013171821 0.030761793 0.052946016 0.09844306 -0.06129015 0.052597124
0.017687455 -0.020432197 -0.09542472 -0.29186133 -0.10764621 0.014016778 -0.00814378 -0.10026378
-0.10228162 -0.13116844 -0.023372686 -0.1028776 -0.0454828 -0.06233508 0.08312556 -0.20163636
-0.07361559 -0.23457792 -0.04915766 0.027461475 -0.05090223 -0.21145995 0.03386921 -0.047562215
-0.11691663 0.035563245 0.057193004 -0.19932176 -0.119441465 0.037451833 0.091332085 -0.10393985
-0.21934776 0.04907602 -0.034066148 0.016810516 -0.038335197 0.119179666 -0.013180576 0.10441283
0.02770924 -0.037978765 -0.16849372 -0.2949204 -0.27951583 0.024281666 -0.09317751 0.15330206
0.01998703 0.15398608 -0.2077295 0.17823099 -0.060824458 0.03903796 -0.10833591 -0.06624414
0.20755224 0.002134244 0.0096332235 0.03306132 -0.14212485 0.09209536 0.11796326 0.0423932
0.023490848 -0.2152231 -0.04543312 0.15955581 -0.027682463 0.03910841 -0.1572428 0.08344852
0.03289045 0.067620516 -0.09396258 -0.18016446 -0.14758195 -0.10649321 0.019602614 -0.05432568
-0.036803756 -0.1213217 0.085479446 0.10976303 -0.10606935 -0.124930516 0.017355029 0.05981412
-0.016105488 0.087978005 -0.097209804 -0.02448506 -0.19864371 -0.15522884 -0.21524002 0.029620696
-0.0032462357 0.014060194 -0.10405296 -0.14439744 -0.15888554 -0.18470883 -0.13327098 -0.028997881
0.011121866 -0.28543577 -0.032665588 -0.1971709 -0.113563776 -0.208072 0.018569568 -0.016651237

network.3.weight f4 [2, 128]
00000000: 119a b6bb 9689 b63b 2dc3 f5bd f859 8f3d
00000010: c8d0 523c 550e 16be d8bc 543e eb40 a9bc
00000020: 48a0 403d ba41 073d d4f5 32bb 83b7 7bbc
00000030: 5085 4d3d e6bb a3bc ebd1 953b 6d15 33bc
00000040: d775 a0bd 2345 a4bc 4fa6 ecbd cc9e f43d
00000050: 8c4d 053d 88e2 20bc 6bf1 38bb 8020 abbd
00000060: 1f1e 653e 0ca9 3cbd f175 133d 3a6c 633d
00000070: 8be5 9bbc 72fb d33d 0cf3 16bc 9fcd a33d
00000080: 855e e53d 1599 3cbe 9f36 7d3d 9541 273e
00000090: 8ec8 01bc c0bd 80be 64c8 4cbe dbf4 debd
000000a0: 8a4f 063e b201 813d 06db 833d e646 f8bc
000000b0: 6d52 f43d 8ad8 83bd 9505 bb3d 4501 833d
000000c0: a16a 13be 4cd2 bfbd 9d12 263d d1bc 0f3d
000000d0: b2f8 9b3d bebb 3cbd bb84 dabc 1c90 1ebe
000000e0: 3a09 a5ba db48 38bb 7d17 f03d bbf3 35bd
000000f0: 1df1 65bc c48b 233e b034 01bd cb59 7cbd
00000100: aab9 593e d1ae c3bc 0db6 2e3e d7eb 2bbe
00000110: ca71 99ba 040d 413e fbfb bdbd 743b 713d
00000120: cad6 033d 0f50 47be 0882 513d b36f 443e
00000130: 826d 30bd 7a37 a8bc 6fe2 5dbd 8189 153c
00000140: 7828 76bd 1300 88bb 9b4e 0b3d 9815 f7bb
00000150: 1d9a dc3d 7b4b 7d3d c685 fd3c 059f 52be
00000160: e5b2 373d 1536 093e aa48 2a3c 49c2 a13b
00000170: fe36 57be a74d 01be 7ef1 23bd feac dc3b
00000180: 75bc 353d 4da6 c9bb 2afc 77bc b205 69bc
00000190: aa23 d83d 1b00 8fbc f113 4d3e 269a 4cbb
000001a0: c0e5 c73d 702c 453e 23c5 ac3a 8313 33bd
000001b0: b87c 8fbc 85a5 88bd d4cf 4dbd 3bcb 873d
000001c0: dfcc ca3d 6b0e 4b3e cd6d 013e 16b8 e4bd
000001d0: 179b 823b 3595 183d f1ec 1dbe f0cb 503d
000001e0: f3e5 003e fcd3 46be 0340 653e cccc 83bd
000001f0: 87a8 183e e327 37be 916c d0bb 8b71 9fbc
00000200: 10b8 12be 727c a53d 34b4 f03c 9b69 b4bd
00000210: 516d f13d 8571 2fbe 71fd dbbc c950 8ebc
00000220: 1ccb 7bbd 18b3 ce3d 39d0 2e3b 27f9 ffbc
00000230: 44ad 963d 7ddd 0ebc 7e8c bebb d3b8 893c
00000240: dc72 93bd bfac 863d 9a6c e6bd 00e9 183e
00000250: 42b1 d3bd d36f f03d 26cb 383c ab88 b83d
00000260: 945b e33d 6627 d03d 3041 05be 3ed8 9cbd
00000270: e624 c73d 17ef 583d 3172 a73c 7da5 b0bd
00000280: ed6a 8fbd 0c7a f83d 22f6 363e 798d bebd
00000290: 034b b53d e8c9 253d ae62 3d3d 8f18 45be
000002a0: 3fe7 17be 77e0 7d3d 5ad8 9cbd ee85 453c
000002b0: f9d8 ef3b e235 583e cf2d 853e 4da5 5e3c
000002c0: 8664 bcbd 764f 09be 15b5 003d cc1f 163d
000002d0: a28c ec3d 886a 323e 2dd8 83bb b6af 0c3e
000002e0: 2923 6e3d eee3 083c 88a0 d33d fb18 26be
000002f0: a0ac cbbc 223a 9fbd b30b 663d a6ce 8fbe
00000300: 7141 8abd eb6d 583d e0fc 713d d69f b03c
00000310: 8071 a13d 95ed 98be beeb 193e f72b 1b3d
00000320: 769c d43d 700c 493d 5317 9bbd 7904 0abd
00000330: 830c ce3d b0e2 093e 8389 473e 8370 36bd
00000340: 9af3 c03e 56ff 0aba 22c2 b13d c033 b53d
00000350: 0c53 ea3b 5389 08bc 2aca 24be 67e3 8bbb
00000360: 66c6 c2bd 449b 4ebe d631 963d 50ea a53d
00000370: 1f55 303e c211 f33d 224b 6d3e af91 eabc
00000380: 103a a83d 13b2 143e 57a6 893d 561b 33bd
00000390: ae1e b43d 6444 8f3d 7c27 ffbc 1f98 503d
000003a0: f10b 823d c99f 83bd 8591 9c3e a26e 993d
000003b0: 470c 9e3d a3ba 893d 7be6 343d 4f92 9b3a
000003c0: 3c7c a5bd 5054 77be dd6f bd3d cffe 28be
000003d0: 47c3 35bd 42ae b63d 4b06 f13d eb14 0a3e
000003e0: 2f88 b63d 6206 d73d 37fb 46be 8efd 04be
000003f0: 8e2b f1bc dd93 03be 6277 07bd 2bdd 073e
-0.0055725654 0.0055706007 -0.120001175 0.06999582 0.01286716 -0.14653905 0.20775163 -0.020660838
0.047027856 0.033021666 -0.002730717 -0.015363577 0.050175965 -0.019987058 0.0045721433 -0.010930401
-0.07834976 -0.020052498 -0.11555158 0.119443506 0.032544658 -0.009819634 -0.0028220068 -0.08355808
0.22374772 -0.046059653 0.03600115 0.055523135 -0.019030353 0.10350694 -0.00921322 0.079982035
0.11199669 -0.18417771 0.06181967 0.16333611 -0.007921351 -0.25144768 -0.19998318 -0.10886546
0.13116279 0.062991515 0.0643826 -0.030307245 0.11929784 -0.06437786 0.09131924 0.063967265
-0.14396144 -0.09366283 0.040545095 0.03509218 0.07615794 -0.046077482 -0.026674619 -0.15484661
-0.0012591251 -0.0028119597 0.1172323 -0.044421893 -0.014034537 0.15971285 -0.031544387 -0.06160907
0.21262231 -0.02388707 0.17061634 -0.16789185 -0.0011706885 0.18852621 -0.09276577 0.05889459
0.03218726 -0.19464134 0.051149398 0.19183235 -0.043073185 -0.020534266 -0.054171022 0.009127022
-0.060097188 -0.0041503995 0.03401051 -0.007540416 0.10771582 0.061839562 0.030947577 -0.20568474
0.04484834 0.13399537 0.010393301 0.0049364907 -0.21017072 -0.12627278 -0.040025227 0.0067344895
0.04436918 -0.006153858 -0.015135804 -0.014222549 0.105536774 -0.017456105 0.20027138 -0.003121981
0.09760618 0.19255233 0.001318131 -0.04371978 -0.017515525 -0.06672195 -0.05024703 0.0663056
0.09902357 0.19829719 0.12639542 -0.11167924 0.0039857733 0.03725167 -0.15422417 0.05097574
0.12587719 -0.19416803 0.223877 -0.06435546 0.14908038 -0.1788631 -0.0063605984 -0.019463321
-0.14328027 0.08080377 0.029382803 -0.08809205 0.117884286 -0.17133148 -0.026854249 -0.017372506
-0.061472997 0.10092753 0.0026674403 -0.031246735 0.073572665 -0.008719799 -0.005815088 0.016811764
-0.07199642 0.065759175 -0.11251183 0.14932632 -0.103365436 0.11740079 0.011278903 0.09010442
0.111014515 0.10163765 -0.13013148 -0.076584324 0.09723835 0.05296239 0.020440193 -0.086253144
-0.07002816 0.121326536 0.1786733 -0.093043275 0.08852198 0.040475756 0.046236686 -0.1924765
-0.14834307 0.061981644 -0.07658453 0.012055857 0.0073195663 0.21114305 0.26011512 0.013589215
-0.09198861 -0.13409218 0.031422693 0.036651418 0.11550261 0.17423451 -0.004023573 0.13738903
0.058139 0.008355124 0.10333353 -0.16220467 -0.024862587 -0.0777476 0.0561635 -0.28087348
-0.06750763 0.0528392 0.05907905 0.02156059 0.078829765 -0.2986876 0.15031335 0.037883725
0.10381405 0.049084127 -0.07572808 -0.03369567 0.1006098 0.1346538 0.1948605 -0.044540893
0.37685853 -0.000530233 0.08679606 0.08847761 0.0071510132 -0.008333522 -0.16092744 -0.004269052
-0.09510498 -0.20176417 0.07333724 0.08101332 0.17219971 0.118686214 0.23173192 -0.02863392
0.082141995 0.14521055 0.0672118 -0.04372724 0.08794914 0.06995466 -0.031146757 0.050926324
0.06349934 -0.06426961 0.30579773 0.07491805 0.077171855 0.06725051 0.044165116 0.0011869165
-0.080803365 -0.24153256 0.09249852 -0.16503452 -0.044375684 0.08919956 0.117687784 0.13484542
0.08912694 0.10499264 -0.19431768 -0.12987348 -0.029439714 -0.12849374 -0.033072837 0.13267963

network.3.bias f4 [2]
00000000: e600 3abd 4ac8 823e
-0.045411013 0.25543433

encoder.0.conv.0.weight f4 [80, 150]
00000000: ff2d 9d3d aa83 20be b4ac f03d d1ac 353d
00000010: 6f68 a5bc f69c e73c 3992 063d e2c2 293d
00000020: 3a2e 1bbe 1d3a 2dbd 4dbf b8bc 9265 f93c
00000030: 4fdf adbc bd47 d53d 893a b33d 2976 02bd
00000040: f0b2 83bd c2cb 983d bcef 573d 9948 753c
00000050: afbc 07be bf8a 473d 6264 13be 34ba 2b3e
00000060: cb73 c93b 15c3 bbbd bdc8 24bd 212a 0dbc
00000070: c099 8b3d d7a4 ab3c 11e4 d7bd ab8a 92bc
00000080: 6f7d 5f3d 3de9 0fbc f6c7 d0bd 11a4 1ebd
00000090: 7520 a13d 010c 57bd c7b1 e9bd 5341 61bc
000000a0: 8d00 8a3c b14f 84bd 7044 2e3d 1a82 463d
000000b0: 638a 8cbd 4ee4 33bc c43b 1f3d 29d9 85bd
000000c0: 8f7f 72bd ddb3 8b3c c311 15bd 6f66 34bd
000000d0: ef94 15be 2483 523d b777 78bd 8970 c23d
000000e0: 2f1a ebbd d1b4 c13d d823 a2bd c6fa f1bd
000000f0: 5b88 0abe 7c5e 3e3d baf7 3bbd d081 2a3e
00000100: f629 1f3d 37f1 073d c41d 733d b03e aebd
00000110: 1e28 c7bd 5ed4 9c3d 8ca2 e4bc e5c4 81be
00000120: 402a a6bd da00 6abe 2901 783d 3583 273d
00000130: 7ec8 ecbc a6d1 02bd 0707 f23d 725a 1fbc
00000140: 9f61 2fbe bded febd efae 853d e2c8 d93d
00000150: 5551 b53d 17d9 3e3d ea1f 473e 2e35 94bd
00000160: eae0 193e 3e8f a3bd 38d6 4f3b 39cb 56bc
00000170: de98 6cbd b5ab f23d 21c5 1ebc 22fe 57be
00000180: a1b9 b7bd f894 b6bd 2c8b 1f3c b2cc 56be
00000190: e722 983d 3b0b 7c3c 5f2b 0a3e 0179 0fbe
000001a0: 53cb 573c 30c8 3dbd ee0f 373e 0eca 533c
000001b0: 276f 5ebd 2e47 e2bd a7be 663d 80a0 6f3e
000001c0: c447 5abc 4e20 bcbd 7ba4 1cbd 570e 7d3d
000001d0: ea17 79bd 8f37 72bb a074 8f3d 082a aebd
000001e0: 9dc3 d43d 61b4 3cbe c798 783e d48b 14be
000001f0: 6916 7e3e 4e79 65be 7df2 97bd 646b 3d3e
00000200: 28d8 e7bd 16e1 1ebe ff57 c2bd e537 a0bc
00000210: e590 663d 60ee 17bd 854a b4bd 28a3 8b3d
00000220: 1345 2d3d 1745 cfbc dd1a 28be a1f0 8d3d
00000230: 78b7 35bc e977 2abe e1cb 043e 8663 dabd
00000240: be88 2e3d 4c19 2fbd 8517 26be 757f de3d
00000250: 996d f13c 818f f43c e7a0 18bd b9af 9abd
00000260: 4da4 9e3d 2304 513e 8fee b2bd 3bb2 a63d
00000270: e961 41be 31a3 60bd a0cc 313d a707 943d
00000280: 8946 3f3e ba75 32be a419 8abd 6075 9f3d
00000290: 002c efbc f143 093d 4924 fabd c4d1 703d
000002a0: ffd1 a13d fc8f 313d 43a3 123e a847 203e
000002b0: e03a 85bd 5de8 d6bd 97e1 653c 54ab 203d
000002c0: e664 843d e5d6 be3d ac43 3a3e 947a 253e
000002d0: 64e5 40bd dd65 393c 3dfb 943d 3bf1 93bc
000002e0: 20ac d5bd 06a9 c53d ece5 2cbe 72c3 fcbd
000002f0: 2d3e 873d 9770 8fbd 5421 4dbe 1216 92bc
00000300: 9bbc acbc ab18 673d de69 e13d 9ffc 6ebd
00000310: ec75 6abc ba72 8e3d 49d2 fe3b 43d1 203d
00000320: 827b e63c 461b 3fbd a104 09bd 80c5 3bbc
00000330: 3f69 34be fd4c ed3d 9f78 90ba 751c 1a3e
00000340: d3ba 483e 9f34 853d 5271 36be 1f33 8bbc
00000350: 7762 f2bc 35f3 8cbc 2574 a3bd 94af ee3d
00000360: 6906 e63d 464d bf3d 3562 aabd 3ea5 c73d
00000370: 52bb d43b db57 6dbd 6f01 4b3d 4ef2 b13c
00000380: db39 ba3d d56b 183d 8473 a5bd 8185 14bd
00000390: 2962 bcbc 15a2 bcbd 28d7 8abd 49b3 06be
000003a0: 4cb4 813d 7442 99bc ff43 9ebd f8dd bb3c
000003b0: 1f78 af3c df82 193e 2526 473e 58e7 493e
000003c0: a677 933e 2854 cc3d de21 42bd 382c 133e
000003d0: 5240 f53d 0a45 193e 6938 85bd f2b2 d3bc
000003e0: b918 893d 34aa 743d c53a 723d 1cab 2bbe
000003f0: 7240 1abd 941b 30be 3cac 573e 2b9f f4bd
0.07674789 -0.15675226 0.117516905 0.044354264 -0.0201914 0.028273087 0.032854293 0.04144562
-0.15154353 -0.04229175 -0.022552157 0.03044394 -0.021224646 0.104140736 0.08751399 -0.031850968
-0.06430614 0.07460739 0.052718863 0.014970922 -0.13255571 0.048716303 -0.14393762 0.1677025
0.006147837 -0.09168068 -0.0402305 -0.008616001 0.06816435 0.020952625 -0.10541547 -0.017888388
0.054562982 -0.008783636 -0.101943895 -0.038730685 0.07867519 -0.052501682 -0.114108615 -0.013748485
0.016845966 -0.064605124 0.042545736 0.04846392 -0.06862333 -0.010979725 0.038875356 -0.06535561
-0.05920368 0.017053539 -0.036393892 -0.044043 -0.14607595 0.051394597 -0.060661044 0.09494121
-0.114796035 0.09458316 -0.07916993 -0.11815409 -0.13528578 0.046476826 -0.045890547 0.16651082
0.038858376 0.033189025 0.05935456 -0.085080504 -0.097244486 0.07657693 -0.02790954 -0.2534553
-0.08113527 -0.22851887 0.06054798 0.040896613 -0.028904196 -0.031938218 0.118177466 -0.009726154
-0.17127083 -0.12447689 0.065275066 0.106340185 0.088534035 0.04659375 0.19445768 -0.07236706
0.15027204 -0.07986306 0.0031713378 -0.0131099755 -0.057762973 0.11849157 -0.009690554 -0.21093038
-0.08970953 -0.08915132 0.009737771 -0.20976523 0.07428532 0.015383537 0.13493107 -0.14011003
0.013171035 -0.04633349 0.1787717 0.012926592 -0.054305222 -0.11048733 0.056334164 0.2340107
-0.013322774 -0.09185849 -0.0382428 0.061781254 -0.06081382 -0.0036959385 0.07004666 -0.085041106
0.10388873 -0.18428184 0.2427703 -0.14506465 0.24813236 -0.22409555 -0.07419298 0.18497998
-0.113205254 -0.15515551 -0.0948944 -0.019557903 0.056290526 -0.037092566 -0.08803276 0.06818229
0.042302202 -0.0253015 -0.16416498 0.06930662 -0.011091106 -0.16647305 0.12968399 -0.10663514
0.042610876 -0.042748734 -0.1621991 0.10864154 0.029471206 0.029853584 -0.037262823 -0.07553048
0.07746182 0.20411734 -0.08736908 0.081394635 -0.18885006 -0.05484313 0.043408036 0.07228022
0.18679251 -0.17427722 -0.06743172 0.077860594 -0.029195786 0.03351206 -0.12213952 0.058793798
0.07901382 0.043350205 0.14320092 0.15652335 -0.0650537 -0.104935385 0.014030836 0.03922589
0.06464557 0.09318332 0.18189877 0.16160041 -0.047093764 0.01131579 0.072744824 -0.018059364
-0.10433221 0.09651379 -0.16884583 -0.12341966 0.06603656 -0.07003897 -0.20032245 -0.01783279
-0.021086028 0.05642001 0.11006521 -0.058346387 -0.014310341 0.06955476 0.007776533 0.039262068
0.028135065 -0.04665687 -0.03345168 -0.011460662 -0.17618273 0.1158695 -0.0011022276 0.15049918
0.19602518 0.06504177 -0.17816666 -0.01699215 -0.029587967 -0.017205814 -0.07981137 0.116545826
0.112316914 0.093409106 -0.08319513 0.09748314 0.006492057 -0.057945114 0.049561914 0.021721985
0.09093066 0.03721221 -0.080786735 -0.03626013 -0.022996025 -0.09210602 -0.06779319 -0.1315433
0.06333217 -0.018708445 -0.07727813 0.022932991 0.021419583 0.1499133 0.19448145 0.19717157
0.28802222 0.09976989 -0.04739558 0.14372337 0.11975159 0.14967743 -0.065049 -0.025842164
0.066941686 0.05973263 0.05913808 -0.16764492 -0.037659116 -0.1719802 0.21061796 -0.119444214

encoder.0.conv.0.bias f4 [80]
00000000: b7e9 d9ba b53c 3f3d 6bcf 9a3d 5ae1 f7bd
00000010: 8293 d03d 25d8 203c 5265 c1bc b2f6 5b3e
00000020: 0b74 16be 8aa2 333c 8794 0dbc 16ad c83c
00000030: 98f7 0fbe abd5 fbbd f728 e73c eb8a 64be
00000040: 40d9 553d e99b 39bc 3339 4ebe 1b77 b13c
00000050: b57e 75bd abb8 0e3e ee7b 5a3e d878 02be
00000060: 5633 423e f17f 7b3d 065e 693c bf5a 393c
00000070: 2bcb a5bd 9121 10be 7399 043c b550 84bc
00000080: d8c1 91bd f7b3 c93c 42e8 ca3d 6c9a 96bd
00000090: 9799 ffbd 3b8d 57be 8bfd dd3d 0a93 ef3d
000000a0: d372 1fbc b874 4fbd 34b7 82bd 1eb1 613e
000000b0: 1023 863d 82c9 32bd b85d 273d ff32 00be
000000c0: 034f eb3d b825 233e 698d 593d 47e5 093e
000000d0: 6b99 f3bd fabc f03c c8ea a83c 7c7a 4c3d
000000e0: 634b a3bd 2f28 4a3e a617 4abc c893 633e
000000f0: 3eaa 183e 717d 6e3a 588e 1abd a1d5 c03b
00000100: 9d84 8fbd 0cc4 5f3e 1039 3b3d 43c6 f83d
00000110: 2396 383d c476 23be ee8f 08be c854 efbd
00000120: 8be9 573d 0040 3f3e 483f c3bd 4333 ab3d
00000130: a3b1 8a3d 9e7d c5bd cf86 8f3d 6c9e 293d
-0.0016625439 0.046688754 0.07559093 -0.12103529 0.10184385 0.009817158 -0.023607884 0.21480826
-0.14692704 0.010964045 -0.008641369 0.024496596 -0.14059293 -0.12296613 0.028217776 -0.22318618
0.05220914 -0.011328676 -0.20139007 0.02166324 -0.05993529 0.13937633 0.21336338 -0.1274141
0.18964896 0.06140131 0.014243608 0.011313139 -0.08095392 -0.14075305 0.008093226 -0.016151765
-0.07117051 0.024621947 0.09907581 -0.073536724 -0.12480467 -0.21049969 0.10839375 0.11697967
-0.009731966 -0.05064842 -0.063825995 0.22040221 0.065496564 -0.043649204 0.04086086 -0.12519453
0.1148968 0.15932357 0.053113375 0.13466369 -0.118944965 0.029386986 0.020619765 0.049921498
-0.07973363 0.19741891 -0.01233474 0.22224343 0.14908692 0.0009097672 -0.037733406 0.0058848416
-0.07007716 0.2185213 0.045708716 0.121471904 0.045065057 -0.15963274 -0.13336155 -0.116860926
0.05271296 0.18676758 -0.09533554 0.08359387 0.06772163 -0.096431 0.070081346 0.04141085
