exomy/config/best_run_no_obstacles405k/checkpoints/561000_policy.pt (torch, 723582 bytes, 13 tensors)

log_std_parameter f4 [2]
000000 a2 43 b6 bf e4 b7 53 bf
       -1.423939 -0.8270247

network.0.conv.0.weight f4 [512, 5]
000000 2c 39 d3 3e 00 e7 7a be 32 dc 4c bb cc b3 a6 bd
       0.41254556 -0.24502182 -0.0031259176 -0.08139762
000010 2b 01 2a 3e de 61 27 3e a8 4b 32 3e b7 78 1a 3e
       0.16602008 0.16345927 0.17411673 0.15085112
000020 1b 40 9e bd 47 4d 3c bc f1 94 a4 bc bd 15 ef 3b
       -0.07727071 -0.011493034 -0.020090552 0.0072962926
000030 7c f3 24 3c ac 20 82 be 6b d7 6b 3d b1 82 d8 3d
       0.010067817 -0.25415552 0.057578485 0.105718024
000040 1c 61 1e be 24 fc 18 3e 91 97 81 3d 26 2d 2e 3e
       -0.15466732 0.14939934 0.06327737 0.1700941
000050 71 a5 55 3d 66 b2 4a bc cd dc a8 3d 47 60 45 3e
       0.05215973 -0.012371635 0.082452394 0.19275008
000060 a9 d5 00 3e ff 84 67 3e 0b b5 f2 3e 04 bb 83 3c
       0.12581505 0.22609328 0.4740375 0.016080387
000070 dd 1f 30 be b5 db e3 bc 5d c2 8e be 01 34 2a bd
       -0.17199655 -0.027814725 -0.27882662 -0.0415535
000080 6e 75 62 3d 32 7c b1 bc c7 c3 78 bd 56 36 d2 3b
       0.05528777 -0.021665666 -0.060733583 0.0064151688
000090 40 24 09 bd 2a 53 46 3d cd be c2 3d 60 cc 96 bd
       -0.033481836 0.048419155 0.095090486 -0.073632
0000a0 d1 97 c0 3d ee f5 03 bf 70 c7 e4 ba 0f 5b 33 bd
       0.09403957 -0.51547134 -0.0017454457 -0.043788012
0000b0 3c 90 a7 bc 06 5b 35 be 9b 7c 60 be d1 66 24 be
       -0.020454518 -0.17710504 -0.21922533 -0.16054846
0000c0 33 82 00 3d 5b c2 40 be cf 2c f6 3b 8a 7b ef 3e
       0.031374168 -0.1882414 0.007512666 0.4677394
0000d0 34 cb 96 3d 9c aa 2d 3e b9 9a 41 3b 80 5e bf bc
       0.07362977 0.16959614 0.0029541685 -0.02336049
0000e0 34 7a 5b 3e 7d 9c 29 bd a1 5f 0d 3e 3e 35 90 bd
       0.21433336 -0.041409004 0.13806011 -0.07041405
0000f0 e9 45 8e 3e 09 13 e2 bd 10 6d ab 3d 3e fb ff 3c
       0.27787712 -0.11038787 0.083704114 0.031247731
000100 27 97 02 3e 39 66 91 3e 9c ec c6 be a7 da 0f bc
       0.12752973 0.28398302 -0.38852394 -0.008780158
000110 a4 04 48 3e 5f 97 03 3c 7e ba 81 bd 3c e7 f1 3a
       0.1953302 0.008031695 -0.06334399 0.0018455754
000120 87 c5 4a bb 68 a9 aa 3d 23 fd 1b 3e 57 56 76 be
       -0.003094049 0.08333093 0.15233283 -0.24056374
000130 9e a8 dc 3e 20 42 4c 3d c1 f4 20 3e 4e e2 07 bd
       0.43097395 0.04986775 0.15718366 -0.033174805
000140 9d 12 72 3e 1f 85 12 3f 34 9d 4a 3d d4 cb 18 be
       0.23639913 0.57234377 0.049466327 -0.14921504
000150 7b 76 17 3e 7f f2 33 be f1 68 3b 3e a1 39 c2 3d
       0.1479129 -0.17572974 0.1830175 0.09483648
000160 16 e0 ea bd 03 47 46 3d 74 57 81 3e 8b 62 28 3e
       -0.11468522 0.048407566 0.25262034 0.16443841
000170 05 4b 8a bd 23 5f 1a 3c f3 a9 13 3d ae fd fb be
       -0.0675259 0.009422096 0.036050748 -0.4921698
000180 0b b4 c4 be 2e 2a e6 bb 0a b6 53 3d 39 64 19 bd
       -0.38418612 -0.007024071 0.051687278 -0.037449095
000190 f4 5e 65 be 0c f3 02 3c 31 60 85 bd dd 5e 82 bc
       -0.22399503 0.007992517 -0.06512488 -0.015914375
0001a0 e5 cf 9f 3d a5 a8 aa be 98 6e 87 3e 0a 67 7f bd
       0.078033246 -0.3333179 0.26451564 -0.062354125
0001b0 9d b4 86 be d7 fa 64 3e 19 99 ee bd e9 2f 0a be
       -0.26309672 0.22361313 -0.11650295 -0.13494839
0001c0 ab 8d 8b 3d ef ab 40 3d f6 d9 10 bc fa 73 36 be
       0.068141304 0.04703897 -0.008841028 -0.17817679
0001d0 90 a1 d9 3e 4f bd 0f bc f8 83 e1 3b 8c 9d 2c bd
       0.42506075 -0.008773162 0.006882187 -0.042142436
0001e0 af 0c c5 3e ab 3b 0e 3e a6 ac e6 3d be 2d 95 bc
       0.3848624 0.13889949 0.11263399 -0.018210288
0001f0 db 35 eb bd 28 ed 58 be d3 f9 fc be bb 75 ca bc
       -0.114848815 -0.21184218 -0.4940935 -0.024714341
000200 65 84 9a 3d 4d 96 89 bd 6b 2b f8 be da 27 4f 3d
       0.075447835 -0.06718121 -0.48470625 0.050575115
000210 4e 7d e8 3d d2 6c 01 bd 37 bb 87 bc 5c 54 dd be
       0.11352025 -0.03159792 -0.016568763 -0.43228424
000220 d0 9c e8 3e 0c 4f 25 bd 0f 28 b4 bd 6f 47 90 bd
       0.45432138 -0.040358588 -0.08796703 -0.07044875
000230 f4 97 2e 3e 7f b4 1b 3e 0f 34 41 bd a9 5a 16 3e
       0.17050153 0.15205573 -0.047168788 0.14683022
000240 73 0d 74 bc 11 a2 79 3d 04 8a ab 3e 42 07 c2 3d
       -0.014895785 0.060945574 0.33503735 0.094740406
000250 54 17 6d 3d e2 e6 1a bd 6c a5 54 be 35 d3 20 3e
       0.057883576 -0.037817843 -0.20766228 0.15705569
000260 4c ac c7 3c 3c 0f 1e be 63 ce 51 be 0c 09 8f be
       0.02437415 -0.15435499 -0.20488887 -0.2793659
000270 1e b8 8a be 34 7a ab 3d f9 88 8c 3d 00 85 06 be
       -0.27093595 0.08372918 0.06862063 -0.13136673
000280 a6 c2 90 be a5 ad 8b be e7 b1 af 3c 13 95 2e be
       -0.28273505 -0.27280918 0.021447135 -0.17049055
000290 36 f2 c6 3d 1c 63 a1 be b5 d8 8d bd a5 09 65 3c
       0.09714167 -0.31520927 -0.06926099 0.01397935
0002a0 48 90 9b 3c c3 c8 ba bd da a7 ca bc c0 5f 0b 3f
       0.018989697 -0.091203235 -0.024738241 0.5444298
0002b0 9f 01 56 bb fd 43 f6 bc 7b 31 f6 bc a1 c9 b7 3e
       -0.0032654775 -0.030061716 -0.030052891 0.35896018
0002c0 77 61 c8 3d f8 6f 39 3d 70 e9 92 bd a7 cc 8e bd
       0.09784215 0.045272797 -0.07173431 -0.06972628
0002d0 16 7f a7 be 8f ea f5 3e b9 b6 3f bd d2 5f 05 be
       -0.32714146 0.48030517 -0.046805117 -0.13024834
0002e0 63 2a 61 3e 9e 91 b6 3e 62 e9 19 3d 19 c6 bc bc
       0.21988826 0.35657972 0.037576087 -0.02304368
0002f0 9f 9d 75 3d 86 7f 84 3c e6 a7 14 be 16 1f a9 be
       0.059964772 0.01617409 -0.14517173 -0.3303153
000300 26 5d d2 3b 85 b4 e5 bc 7f 27 fe 3c c1 39 a6 3c
       0.0064197956 -0.02804018 0.031024693 0.020291211
000310 65 b7 31 bf 5b 9a 70 bd a7 d8 3b bd 23 aa 03 3e
       -0.6942046 -0.058740955 -0.045860913 0.12857871
000320 d5 c3 4a 3d 5a b8 c9 3e bc b7 e3 3c 40 41 e4 3d
       0.049503166 0.39398462 0.027797572 0.11145258
000330 59 a1 b4 3c 1c 90 25 be 47 29 b7 be 25 a9 2b 3c
       0.022049593 -0.16168255 -0.3577368 0.010477339
000340 a0 18 ed bd 3e 77 9c bd 09 5c 02 be 6d 4a c4 be
       -0.115769625 -0.07639931 -0.12730421 -0.38338032
000350 16 d2 20 bd 1f dc 20 bd b0 dc 52 be d7 ea b6 3e
       -0.039262854 -0.039272424 -0.20591998 0.35726044
000360 8c fa 07 3f 36 7e aa 3c 0b fb 95 bd 68 54 e1 3d
       0.5311668 0.020812135 -0.07323273 0.11002427
000370 84 01 95 be e0 d6 38 be 4b 79 83 3d 44 ad b7 3d
       -0.2910272 -0.18050718 0.06419619 0.08968595
000380 10 9b 38 be 81 dd c7 3d e3 11 4e 3e c0 f3 4b 3d
       -0.18027902 0.097590454 0.2012401 0.049793005
000390 fe 21 91 bd be 71 a3 3d 38 3b f5 3e 17 f3 83 be
       -0.070865616 0.07980679 0.47896743 -0.257714
0003a0 20 91 37 bc e4 82 97 bd bd 74 fa bd 07 ce 90 3e
       -0.011204034 -0.07398012 -0.12229297 0.28282186
0003b0 7f c5 f4 bd 96 4c 59 bd c8 db 82 bd 29 5d 99 3d
       -0.11951732 -0.053051554 -0.06389576 0.07488472
0003c0 0c 2a 41 be 1b 65 4a 3e a0 25 14 3d d6 26 d8 bd
       -0.18863696 0.19765131 0.036168694 -0.10554282
0003d0 2b 44 84 bd 7e a7 ab be 2f 40 ed be 89 d5 d5 ba
       -0.064583145 -0.33526224 -0.4633803 -0.0016314249
0003e0 33 a6 82 bd e3 c5 3a bd 32 36 81 3e 73 cb c3 3e
       -0.06379356 -0.045598876 0.2523666 0.38241157
0003f0 ff 60 d4 3d 34 58 3e be 97 83 63 be f1 87 80 3e
       0.10370063 -0.18588334 -0.22218166 0.25103715

network.0.conv.0.bias f4 [512]
000000 ca ea 5f 3d 23 54 31 be 46 39 95 bd c0 85 ee bd
       0.05466727 -0.17317252 -0.07286315 -0.116466045
000010 e0 5b 9f be f7 e8 0a 3d 05 5c 44 be cf c3 4b be
       -0.31124783 0.03391358 -0.19175728 -0.19898914
000020 f7 3c d0 3d 4e 62 96 bd fb e1 8c bd dd fc 29 bd
       0.10167878 -0.07342969 -0.0687904 -0.041500915
000030 7e f6 ef bd b4 fb 04 3d 47 02 12 be 24 be 8d 3d
       -0.117169365 0.032466605 -0.14258681 0.06921032
000040 79 ea b3 bb 35 6d ef bd 46 30 63 bc 80 fc 72 3d
       -0.005490598 -0.116907515 -0.01386649 0.059322834
000050 62 e0 08 3e d8 64 03 3d ff d1 0d be 8d bb e3 3c
       0.13366845 0.032078594 -0.13849638 0.027799392
000060 66 1b fd 3d 03 de 9b 3d ab a5 0e 3b d6 b7 54 3d
       0.123587415 0.07610705 0.0021766226 0.051933132
000070 07 c4 05 be 26 53 b9 bd 7c 63 c9 3b 20 72 23 be
       -0.1306306 -0.090490624 0.0061458927 -0.15961504
000080 c2 26 6e 3d cd 3e 84 ba 07 65 e9 3c e0 49 d6 bc
       0.05814243 -0.0010089517 0.028490556 -0.026158273
000090 5f 53 ef 3c 8e ab 43 bd c7 85 5f bd 5a 5f ef 3c
       0.02921456 -0.04777103 -0.05457094 0.029220272
0000a0 62 b0 9f 3d fb 65 b8 3d 92 f0 0b be 1d 8b 04 3d
       0.07797314 0.09003826 -0.13665989 0.03235923
0000b0 e5 52 65 be 54 32 7a 3d b8 cc b0 3c bc ba 9d bd
       -0.22394903 0.061083153 0.021581993 -0.077016324
0000c0 3f e2 9b bb c5 27 9c 3d 92 20 bb bd 15 b1 2a 3d
       -0.0047571952 0.07624773 -0.09137072 0.041672785
0000d0 5f 45 6b 3d 35 4b ab 3d fa a1 96 3d 85 1b 04 3e
       0.057439204 0.08363954 0.07355113 0.12901123
0000e0 a6 fc 96 bb 41 6f 37 bd 45 f4 09 3d 53 af 60 be
       -0.0046077548 -0.044783834 0.03368022 -0.21941881
0000f0 c4 89 77 3d 7a eb c2 3c 8e d2 ea 3d ca 30 1e 3d
       0.060434118 0.023793925 0.11465941 0.038620748
000100 39 b1 26 3e f6 44 28 bd 1b 95 65 3d 9d 13 80 3d
       0.16278543 -0.04108139 0.0560504 0.06253741
000110 aa f0 5f bd 82 60 ab 3d 19 d1 fd bb ef d0 ec 3c
       -0.054672875 0.08368017 -0.0077458736 0.028908221
000120 f6 b3 92 bd 65 23 fc bc 68 20 f1 bd 8f bc a1 bb
       -0.07163231 -0.030778596 -0.11773759 -0.004935808
000130 71 94 3b be 98 0c d5 bb 1c 59 92 bd 2e 1d 5f be
       -0.18318345 -0.0065017454 -0.071459025 -0.21788475
000140 6a dd 35 3c 85 ce d1 3c 4b e4 1e bd 2e 24 23 3e
       0.0111001525 0.025611171 -0.038791936 0.1593177
000150 ef 7e 06 3e b0 8f 86 3c e7 a1 5b 3d 4f 12 28 bd
       0.13134359 0.016425937 0.0536212 -0.041033085
000160 81 6b b1 bc 12 c9 36 be 94 2d af 3c 49 77 2a be
       -0.021657707 -0.1785014 0.021384038 -0.16647066
000170 2e 88 6c 3d f7 4e 83 be 1d 35 bd bd 6a bb b2 3c
       0.05774706 -0.25646183 -0.09238646 0.021817882
000180 31 5d 40 3d 50 71 ba 3d b4 0f 7f bd 84 c9 d2 bc
       0.046963874 0.09103644 -0.062270835 -0.025730856
000190 89 25 73 3d 54 c0 80 3d 95 3d c4 3d 0b 77 24 be
       0.05936197 0.06286684 0.09582058 -0.16061036
0001a0 ec ed b3 3c 51 c0 d2 3c 41 26 4f bd 21 b3 85 bd
       0.021964036 0.02572647 -0.05057359 -0.06528307
0001b0 77 1b ae bd dc 8e f3 bd 97 f1 0c 3c 0f 3d fe 3a
       -0.08501332 -0.11892483 0.008602521 0.0019396859
0001c0 4b c1 8b bd 55 f0 ba 3d ad 04 a4 bc f6 f8 21 be
       -0.06823977 0.09127871 -0.02002176 -0.15817627
0001d0 f6 e7 4f 3d a9 7f 77 bd 90 ef 93 3c fd 98 3a 3d
       0.050758325 -0.06042448 0.018058568 0.045556057
0001e0 bb 40 94 bd 41 f0 7e bc f8 31 91 3d de d7 d0 bc
       -0.07238909 -0.015560211 0.07089609 -0.025493558
0001f0 f8 bc 2d be 5d e9 22 be 04 57 40 be fa 68 81 3d
       -0.16966617 -0.15909334 -0.18783194 0.06318851
000200 2e dc e1 bd c4 82 94 3d ea f4 fb 3c 1e 58 ef bd
       -0.11028324 0.07251504 0.030756433 -0.11686729
000210 52 bf 68 bd 82 62 eb 3c 6f 88 38 3c 67 12 bc 3c
       -0.056823082 0.028733496 0.011262997 0.022957994
000220 10 05 8e 3c bf 0c 39 3c f6 85 1e 3c ac db 37 bc
       0.017336398 0.011294543 0.009675493 -0.011221807
000230 02 69 37 be 18 ed 4b be a8 21 15 3d 25 29 8f bd
       -0.17911151 -0.19914663 0.03640905 -0.069902696
000240 8e 89 a6 bc f3 84 25 bd 9f c4 7c bd 2e c5 cd bd
       -0.020329263 -0.040409993 -0.06171095 -0.10047375
000250 cb 95 3b 3d 3c 7d 01 bd 7f fa 04 bd c2 e2 8c bc
       0.04579715 -0.031613573 -0.032465454 -0.01719797
000260 fb 1b 4e be cf 96 67 bd e1 45 14 be 6f 1a 91 3d
       -0.20127861 -0.056540307 -0.14479782 0.0708512
000270 58 50 18 39 29 c6 09 3d 33 fb aa bd 18 30 f0 bd
       0.0001452578 0.033636246 -0.08348694 -0.11727923
000280 67 71 aa bc b2 47 e5 3c be 4b aa bd 3f 70 33 3e
       -0.020806028 0.027988289 -0.08315228 0.17523287
000290 f5 51 b2 bd e2 18 60 bd d3 27 9a bb 92 a5 11 3e
       -0.08707038 -0.05471123 -0.0047044544 0.14223316
0002a0 b7 3b fb bb 9b da 5d be b9 a4 91 bd 15 44 2b be
       -0.0076670307 -0.21665423 -0.071114965 -0.1672519
0002b0 b1 b4 24 3e 5e 79 2c be 89 22 e3 bd 3d b5 88 bd
       0.16084553 -0.16843173 -0.110905714 -0.066751935
0002c0 7b 86 79 bc e6 ea a6 bc 0c 0b 89 bb 56 5b dc 3b
       -0.015229817 -0.02037568 -0.004182225 0.0067247553
0002d0 5d 86 2d bd 07 69 2f 3d f0 a0 9e bd e3 ad 68 be
       -0.042364467 0.04282477 -0.0774554 -0.22722583
0002e0 ce c6 12 be a4 85 57 3d 72 79 a9 bd 0b c5 3e be
       -0.1433365 0.052617684 -0.08275117 -0.18629853
0002f0 38 52 c5 3d 21 f8 17 be 0e a7 b9 3d 50 b1 21 be
       0.096348226 -0.14840747 0.09065066 -0.15790296
000300 72 0d 14 be f9 f4 0f be c7 7a 7d bd da c2 b9 3d
       -0.14458254 -0.14058293 -0.061884668 0.09070368
000310 73 3f 3c be 86 58 19 3c 7a 84 69 3b 30 06 51 bd
       -0.18383579 0.009359485 0.003563194 -0.05103129
000320 8c dd aa 3c bb 92 90 be 42 22 99 3c 1c ba 86 bd
       0.020857595 -0.28236946 0.018693093 -0.06578466
000330 84 7d 20 bd 02 0c bf bc 09 29 17 bd 84 19 f2 bd
       -0.0391822 -0.023321155 -0.03690437 -0.11821273
000340 11 df fa bd 2c be 01 be 1f 02 89 be 8f 45 49 be
       -0.12249578 -0.12670201 -0.2675943 -0.19655441
000350 7d 0e 91 bd be f4 c4 bd 11 1a e7 3c 91 c4 8f 3d
       -0.070828415 -0.09616993 0.028210672 0.07019914
000360 67 6e fa 3d 55 4c 61 3d 3d cc 08 3d ca a5 08 be
       0.12228089 0.055004437 0.0333979 -0.13344494
000370 93 d8 dc bd 2e 50 91 bd 19 d1 2e be 99 c6 78 be
       -0.10783496 -0.07095371 -0.17071952 -0.24294509
000380 cd 34 2f be c6 29 06 3d c2 67 4d bd b7 77 e0 bd
       -0.17109986 0.032754682 -0.05014778 -0.10960334
000390 8d 3e 11 be 91 ff da 3c 08 5a 27 be ba db 11 bd
       -0.14184017 0.026733192 -0.16342938 -0.03560994
0003a0 07 e8 84 be 8b f1 17 3d 31 91 37 be 57 64 49 be
       -0.25958273 0.037095588 -0.1792648 -0.19667183
0003b0 91 18 cc 3d 71 c9 e3 bc 8c a5 f8 bd ea e9 4c 3b
       0.09965623 -0.027806016 -0.121409506 0.0031267353
0003c0 d2 fc 19 bd 96 2e 86 3c 4c d7 29 be ba 5d 42 bc
       -0.037594624 0.016379636 -0.16586035 -0.0118631665
0003d0 dc 91 90 bc 4f 82 20 bd 25 20 92 bb 5d 6f e0 3c
       -0.017647676 -0.039186772 -0.0044593983 0.027396852
0003e0 bb 03 9a 3c fe d6 2c be a5 2c 6e bb 23 5f f7 bd
       0.018800607 -0.16878888 -0.0036342528 -0.12078693
0003f0 ae 4d 39 bd 3a e2 e5 bc 27 0e 2c be 6f 95 02 be
       -0.045240097 -0.028061975 -0.16802274 -0.12752317

network.1.conv.0.weight f4 [256, 512]
000000 fc f0 27 ba 32 f6 50 be 6a 55 5d bd 7f 7c f9 3c
       -0.0006406454 -0.20406416 -0.054036535 0.030454872
000010 fb 51 e3 ba 3a c2 f5 bd de a1 24 be e5 0d 37 bd
       -0.0017343158 -0.119999364 -0.16077372 -0.044690985
000020 6a 1d ef bc 40 6e ce bd 84 03 69 be d2 97 b0 3d
       -0.02918883 -0.10079622 -0.22755247 0.086227074
000030 9b 2c 11 3e 5e a5 b1 bd 68 fb db bd e2 ee a5 3e
       0.14177172 -0.086741194 -0.10741311 0.32408816
000040 a1 a5 8c be 08 4b 4f bd ec 4c b5 3c f2 7a 42 3e
       -0.27470115 -0.050608665 0.022131406 0.18992212
000050 b9 90 cd 3d a6 60 8a 3e 02 8e a7 3d 39 23 9b 3c
       0.10037369 0.27026862 0.08181383 0.018937694
000060 34 fc 0b 3e 72 54 93 bd 2d 24 40 3e a2 f7 06 3e
       0.13670427 -0.07193841 0.187638 0.13180402
000070 1f f3 08 be e7 53 9e bd cd 98 3b be 58 d3 b3 bb
       -0.13373993 -0.07730847 -0.18320008 -0.0054878406
000080 c7 f7 de 3d 0f 6e e8 3c ce 5c 45 bb 50 5d 1c 3d
       0.108871035 0.028372793 -0.003011513 0.038174927
000090 36 27 83 bd 73 cf 51 be 8c 0f ac bb 00 ef 84 be
       -0.06403963 -0.20489292 -0.005250877 -0.25963593
0000a0 41 e2 90 3b ef e6 8d 3e 59 7b ac bd 9a 93 c5 be
       0.004421503 0.2771525 -0.08421964 -0.38589174
0000b0 87 5d 9d 3d 8d 63 9e bd 1b 8e 34 be 45 c0 3f be
       0.076838546 -0.077338316 -0.17632334 -0.18725689
0000c0 11 96 f1 ba 6e eb 80 3b 02 5d 43 bc 36 cc d0 bd
       -0.0018431564 0.0039343154 -0.01192403 -0.101952
0000d0 1b b4 04 3e 71 93 03 3d da 13 8d 3e 13 43 7c bd
       0.1295933 0.032123033 0.27554208 -0.061587404
0000e0 82 3c 9c be 8b d1 6b be 93 bb 76 be 18 8b e9 be
       -0.30514914 -0.23029153 -0.24094991 -0.45613933
0000f0 dc 5d 94 bd e2 bc f6 3d a6 81 21 bd 93 c1 31 bd
       -0.07244465 0.12047745 -0.039430283 -0.043397497
000100 ba 6f d5 ba f4 83 9a be bb be b8 bd c8 9c 21 3c
       -0.0016283907 -0.30178797 -0.09020754 0.00986404
000110 f4 93 df bd be 02 3c bc bb 8b ed 3d 9b da b3 bd
       -0.10916892 -0.011475263 0.11598917 -0.0878193
000120 51 0b a4 3c df cc 97 3e da b6 d5 bd 64 0f 82 be
       0.020024927 0.29648492 -0.10435267 -0.25402367
000130 a2 4e 67 be 45 7b 95 3c c9 9b b3 3d 57 7b 04 3e
       -0.2258859 0.018247256 0.08769948 0.12937675
000140 83 83 22 3b 9e 6a 1f be a1 53 67 be 73 e1 db 3d
       0.0024797625 -0.15568015 -0.22590496 0.107363604
000150 2d 07 06 be ed a4 a5 3d b8 e1 82 be 65 46 c5 bd
       -0.13088675 0.08088098 -0.25562835 -0.09632567
000160 3d 00 35 3e 36 d8 54 3e 7b 96 62 3e a9 66 ba 3d
       0.17675872 0.20785603 0.22127716 0.09101612
000170 d9 1f aa 3e 34 7c 9b be 8b 66 47 3d a6 27 13 3c
       0.33227423 -0.30368197 0.048681777 0.008981621
000180 b1 6f c4 bd 6c 85 07 3e 5e 38 2b bd 41 21 44 be
       -0.09591616 0.1323449 -0.041801803 -0.1915331
000190 3e c5 d6 3d 72 84 36 bc 03 5e 88 3d ae 2b 68 be
       0.1048684 -0.011139976 0.06658556 -0.22672912
0001a0 63 64 64 3e 4a 6c 4e bd 35 1d 2f be 92 b5 f9 bb
       0.2230392 -0.05039624 -0.17100985 -0.007620522
0001b0 b8 74 72 3e d2 6b e6 3d f6 fd 6f 3e 4b 4d 4e 3d
       0.23677337 0.11251034 0.23436722 0.05036668
0001c0 99 24 7c bd 17 83 ba 3d e3 46 7e 3e b1 e6 62 be
       -0.06155834 0.09107035 0.24831729 -0.22158314
0001d0 e9 a7 a0 3d ab ae 21 be 97 5e 15 be 21 2c 72 3d
       0.07844526 -0.15789287 -0.14586864 0.059124116
0001e0 59 6b e0 bd 14 b6 6c 3e 0f 43 ed bd dc 18 16 bd
       -0.10957975 0.23116332 -0.11585056 -0.0366448
0001f0 1d a5 42 be 2e 2a a8 be aa 49 e3 be 0a 87 a0 3b
       -0.19008298 -0.3284468 -0.4439214 0.0048989104
000200 f9 2f 99 bc 34 c7 71 bc 28 e6 61 3e aa fa 29 bd
       -0.018699633 -0.014756966 0.22060454 -0.041498818
000210 10 21 a6 bc 59 a4 97 bd 9d 98 d8 bd d8 12 d8 3b
       -0.020279437 -0.07404394 -0.10575984 0.006594043
000220 f1 32 62 3d b2 25 ac 3d 57 e5 1f bd fa ca 21 3c
       0.055224363 0.08405627 -0.039037075 0.009875054
000230 12 6a a4 bc 56 af 11 3d e2 98 80 be 58 64 9f 3d
       -0.02007011 0.035567604 -0.2511664 0.07782811
000240 8c ca 44 3d fa 22 d2 bd 23 b4 12 be 1a c2 cd bd
       0.048044726 -0.102605775 -0.14326529 -0.100467876
000250 3b 7b 20 3e d4 67 b3 bd 5e 21 b5 3c b7 dc 22 3c
       0.15672009 -0.08760038 0.022110637 0.009940318
000260 db ce 73 3d a0 2d 24 3e 47 cb b6 3c b4 3d cf 3c
       0.059523445 0.1603303 0.022313727 0.025297977
000270 8f 97 45 3e 55 5e b4 3d 64 c1 32 be ea 2f e3 3b
       0.19296096 0.08807055 -0.17456585 0.006933202
000280 22 df 04 bd a9 c2 f6 3b 08 41 05 3d 48 3c 16 3d
       -0.03243936 0.0075305295 0.03253272 0.036678582
000290 79 cf 09 be c7 fd 37 3e 29 ab c5 3d b7 db cf 3d
       -0.13458051 0.17967902 0.09651787 0.10149329
0002a0 f6 ec a1 bc 3d 60 8e bd e2 b3 be 3a 81 8f 30 be
       -0.019766312 -0.0695195 0.0014549459 -0.17242242
0002b0 d0 f6 08 3e ba 8c 13 bd 0b 46 db 3c f1 b8 45 be
       0.13375401 -0.03602288 0.026766798 -0.19308831
0002c0 83 8f 5f bd e9 ad 3c 3e 37 de b1 3d 98 79 ac 3b
       -0.054580223 0.18425716 0.08684962 0.0052635185
0002d0 ee f6 26 be 64 d9 b0 bc 53 f5 2e 3b c0 73 5e be
       -0.16305134 -0.021588035 0.0026696518 -0.21723843
0002e0 be a3 8e be 0b b6 b4 3d cd b5 e0 3c df 17 0b be
       -0.278593 0.088237844 0.02743044 -0.13583325
0002f0 0b a2 2c bd b4 67 fc 3b 3b 69 84 3c 30 99 63 be
       -0.042146724 0.007702792 0.016163459 -0.22226405
000300 28 f8 a7 be 17 ed 32 bc 7b bf 84 3d 70 94 9b 3b
       -0.32806516 -0.010920784 0.064818345 0.0047479197
000310 87 15 63 3d f7 b4 09 bd 08 e9 1b 3e 75 f0 a6 bd
       0.055440452 -0.033619847 0.15225613 -0.08151332
000320 d8 53 59 bd f7 c1 40 be b7 80 81 bd 0f 55 b2 bd
       -0.053058475 -0.18823992 -0.063233785 -0.0870763
000330 18 c6 1f 3b 54 64 c4 3d 33 eb 1b 3e 85 ed 01 bf
       0.0024379548 0.095894486 0.1522644 -0.5075305
000340 d7 65 76 bc 06 c2 9a be 22 49 a3 3b 3c c7 9a be
       -0.015038929 -0.30226153 0.0049830833 -0.3023013
000350 22 01 c0 3d f6 f8 98 3c 2e 44 6d bd 7d 9f d2 3c
       0.09375216 0.018673401 -0.05792635 0.025710816
000360 ee 70 94 3d d5 8a 01 3e f9 2d 2a 3d c9 8c 28 3d
       0.07248102 0.12650616 0.04154775 0.04114989
000370 8b 1b 9b 3d c9 2e cd bc 18 83 ec bd b9 37 ca bd
       0.07573613 -0.025046723 -0.11548442 -0.098739095
000380 f0 57 1c be f6 9d 80 bc c1 44 41 3c 3b a4 6e be
       -0.1526792 -0.015700322 0.011796177 -0.23304836
000390 25 8b 72 be 54 4f 4b be b8 b8 8e bc 5c 12 c4 3d
       -0.23685892 -0.1985448 -0.017422065 0.09573814
0003a0 64 3f d4 bc 38 36 08 3c ba ff d6 bc ef c1 d9 bc
       -0.025909133 0.008313708 -0.026244987 -0.026581733
0003b0 d3 74 6f bc d4 5f cb 3c 5c 17 16 be 60 fa 94 3c
       -0.014615255 0.024825968 -0.14657348 0.018185794
0003c0 1e 04 33 3d a5 1f 00 3e cb 82 1c be 2a 79 37 3d
       0.0437051 0.12512071 -0.15284269 0.044793285
0003d0 f8 33 9e bd ec cd 30 be a5 48 27 3d fc 1a 20 be
       -0.07724756 -0.17266053 0.040840764 -0.15635294
0003e0 45 cc 31 bd 1f d4 cf be 9d dc 28 3d f2 d6 f1 bd
       -0.043407697 -0.40591523 0.04122602 -0.11808576
0003f0 be 05 60 3e 33 98 14 be d5 3b 92 bd 5b 6f 35 3d
       0.2187719 -0.14511184 -0.07140318 0.04429565

network.1.conv.0.bias f4 [256]
000000 f5 d8 80 bd 44 43 01 bd cd 5d 03 3d d4 d7 59 3c
       -0.06291381 -0.03155829 0.032071877 0.013296086
000010 94 ba 40 bc fc 2e 95 3d 40 c8 41 3d fd f9 9b 3d
       -0.011763234 0.07284352 0.047310114 0.07616041
000020 c3 95 a2 bd 3f b4 21 3d f3 7e 6f bc f9 60 25 be
       -0.07938721 0.039478537 -0.014617669 -0.16150273
000030 17 7e bf 3d 5f 52 1a be 59 b2 fc bd 6c 58 ce bd
       0.093502216 -0.15070485 -0.123387046 -0.10075459
000040 65 02 d2 bd 49 9c 5d ba 59 e1 3f 3d a7 c0 2a be
       -0.10254363 -0.0008453769 0.046845768 -0.16675054
000050 73 25 d0 bd 20 80 32 3e d4 f3 9d bd 10 c0 19 bd
       -0.10163393 0.17431688 -0.07712522 -0.03753668
000060 f5 b4 b8 bd cd f8 f9 3b 87 19 2e be d4 95 c4 3c
       -0.0901889 0.0076285363 -0.17001925 0.023997225
000070 41 02 12 be 72 cf db 39 92 ea 09 be 89 9b c5 3b
       -0.14258672 0.00041925494 -0.13468388 0.006030504
000080 6c 2b 98 bd d9 63 6e be 4d 64 2a 3e fb 02 c6 bd
       -0.07430157 -0.23280276 0.16639824 -0.09668537
000090 b6 b5 74 be 44 b5 07 bd 47 dd cc 3b 40 6b 34 bd
       -0.23897442 -0.033131853 0.0062519643 -0.044047594
0000a0 ae 57 c2 bd 15 51 0e be 97 0c 66 be db fb 93 3d
       -0.0948938 -0.13898118 -0.2246574 0.07225772
0000b0 92 89 b9 3c bb a1 99 3c 19 fb fe bd b6 cd 81 3c
       0.022648606 0.018753877 -0.12450237 0.015845161
0000c0 67 2d 89 bd 05 0f 37 3d 01 b2 7a bd e6 89 79 3d
       -0.06698113 0.044692058 -0.061204914 0.060922526
0000d0 ce 04 53 bd 12 fb 6f bc 78 e2 62 bd 77 d0 c0 bb
       -0.051518254 -0.014647262 -0.05539176 -0.005884226
0000e0 b5 8b 94 3c 1d 58 10 bd e3 7f 8e 3c 0e bf d7 3d
       0.018133024 -0.03524028 0.017394966 0.10534488
0000f0 4f a0 0d be 67 64 8a bd dd c4 5f bc 66 06 77 bb
       -0.13830684 -0.067574315 -0.013657776 -0.0037693023
000100 cb 5f bc 3c 5c a3 78 3c 2c 22 15 3e ce 58 58 bd
       0.022994896 0.015175667 0.14563817 -0.052819066
000110 2e 05 fd bc ad 3e 72 bd 86 ae 0b bc 10 4a c7 bd
       -0.030886259 -0.059141804 -0.008525496 -0.09730923
000120 fe b8 0e 3d cb 23 dc bd a1 0d f6 bd bd 39 32 bc
       0.03484439 -0.107490145 -0.12014318 -0.010878024
000130 56 9c f5 bc 97 a2 15 bc 3d a7 97 bb a5 bf 41 3e
       -0.029981773 -0.009133003 -0.0046280907 0.18920763
000140 c1 44 00 be 32 89 15 3d 98 63 25 be 46 a6 33 3d
       -0.12526228 0.036507793 -0.16151273 0.043859743
000150 1b 5f 34 be 6b d6 cb bd c0 31 5e bd e6 34 aa bd
       -0.17614405 -0.09953006 -0.054246664 -0.08310871
000160 3f b9 38 3d 2e c9 82 bc 3a b6 3d bc 6c db ed 3d
       0.04509854 -0.01596507 -0.011579091 0.11614117
000170 1c 6c 64 3d 33 29 06 3e 9c 0b 31 bd 73 fc 27 bc
       0.055767164 0.13101654 -0.043223962 -0.01025306
000180 28 c1 42 be 74 0c 97 bc 33 83 13 bd 22 e9 9e 3e
       -0.19018996 -0.018438555 -0.036013793 0.3103724
000190 fb 49 f8 3c ed 88 8e bd d9 c8 9a 3d ee 37 35 be
       0.030308714 -0.0695971 0.0755784 -0.17697117
0001a0 64 2e 64 be 76 aa 6b bd 66 f0 fc 3d c9 e5 30 be
       -0.22283322 -0.05753561 0.1235054 -0.17275156
0001b0 7a 77 06 3d e4 22 2d bd bd be 04 3e eb 9b 30 be
       0.032828785 -0.042269602 0.12963386 -0.17246978
0001c0 65 04 9b 3d 0b 70 d8 3d 3a 21 f3 bd 3c 0b 9f 3d
       0.075691976 0.105682455 -0.11871572 0.07765815
0001d0 d8 7f 6d 3d 65 80 f4 bc 7a 66 c3 bc 89 1e 13 3e
       0.05798325 -0.02984638 -0.023852576 0.14367117
0001e0 58 56 80 3c 30 08 e9 bc 4f 27 f6 3d 74 fe fc 3d
       0.015666172 -0.028446287 0.12019216 0.123532206
0001f0 d1 05 e8 bd 6a 26 33 bd e9 6a c5 3d cb d6 69 be
       -0.113292344 -0.043737806 0.09639532 -0.22835843
000200 97 54 89 bd bd 05 f5 bd a8 1a 2a be 42 28 1c 3d
       -0.06705587 -0.11963985 -0.16611731 0.03812433
000210 16 c0 77 bd 73 d4 ce ba 3f 4b 37 3c d8 45 5f bc
       -0.06048592 -0.0015779868 0.011187374 -0.013627492
000220 d6 8d 0b 3d 47 57 b6 bc 4a a9 89 bd 1e 35 2a bd
       0.034070812 -0.022258414 -0.067217425 -0.041554563
000230 84 55 46 bd 84 95 a2 3c 19 f5 a5 3b d2 3f 04 3b
       -0.048421398 0.019846685 0.0050646183 0.0020179641
000240 c3 aa 41 3d 82 f4 b3 3b 9d 03 27 be 03 1e af 3d
       0.04728199 0.005491794 -0.16309972 0.08550646
000250 e6 83 1e 3e ee 89 aa bd da 39 44 bd 3e 1f 39 be
       0.15480003 -0.08327089 -0.047906734 -0.18078324
000260 46 0e d9 3d 9d b0 92 3e 9f bd f4 3c 8a a9 90 bd
       0.105984256 0.2865037 0.029875575 -0.07063587
000270 d0 11 80 bc e5 e6 6b bb 7f 1a 2a 3c 44 4e 3b bd
       -0.015633494 -0.0035995778 0.010382294 -0.045728937
000280 7b 21 da bb e1 66 b4 bd 1a ce 7b 3c f6 b6 2b 3e
       -0.006656823 -0.08808685 0.015368963 0.16769013
000290 d0 e7 c3 bc b6 7e d8 3d ab 39 f0 bb 92 e3 6d bd
       -0.023914248 0.10571043 -0.0073310933 -0.058078356
0002a0 ee cb 35 3d 90 09 80 3d 4c 19 a6 3d 3c 82 26 be
       0.044383936 0.06251824 0.08110294 -0.16260618
0002b0 cc 98 30 3c a2 a2 62 be 89 ce 36 3d 1c da 18 be
       0.010778617 -0.22132352 0.04463056 -0.14926952
0002c0 c9 47 64 bd 30 fe ce bd 99 16 d3 bc 0b be b2 3c
       -0.055732522 -0.10107076 -0.025767611 0.021819135
0002d0 29 13 4b bb 4a d9 5b 3b 9d 20 0b 3d 9b 70 01 be
       -0.0030986762 0.0033546262 0.03396665 -0.12640612
0002e0 1c 47 88 bc eb a9 c4 bd 04 67 3f 3d 76 fe 7f be
       -0.01663547 -0.09602722 0.046729103 -0.24999413
0002f0 40 a9 b7 bd 29 89 d0 3d e6 79 ca bd 04 69 04 3c
       -0.08967829 0.10182411 -0.098865315 0.008081678
000300 6b 8a 86 bd 5c cf fe bd da 9c 29 be 6c 37 8d 3d
       -0.0656937 -0.124418944 -0.1656374 0.068953365
000310 b9 5c 88 bd 41 87 77 3d 02 42 c8 3d 61 25 bb bd
       -0.066583104 0.060431723 0.09778215 -0.09137989
000320 d6 bc b6 bd 36 2f cd 3d de db 0c be a5 0d 1d 3e
       -0.08922736 0.100187704 -0.13755748 0.15337236
000330 39 71 11 bd 82 ba e3 bc 67 d2 45 be d8 d3 0c be
       -0.03550837 -0.027798895 -0.19318543 -0.13752687
000340 74 68 d9 bc f0 e8 da b8 52 51 55 ba 8a b7 e7 bc
       -0.026539065 -0.00010438438 -0.0008137423 -0.02828576
000350 e5 84 34 be 6a 6b b5 3a 97 7a d2 3c fb c4 8b 3d
       -0.1762882 0.0013841216 0.025693221 0.068246804
000360 25 1b 16 be 03 80 18 3c f2 57 79 be f6 8c 5c bd
       -0.14658792 0.009307864 -0.24349955 -0.05384537
000370 63 7e 99 3b a9 a4 0c be 6f 71 55 be f9 1b bd bd
       0.004684256 -0.13734688 -0.20844053 -0.09233851
000380 7b b5 09 3c 41 24 80 3b 56 17 39 3d 6b af 01 be
       0.008405085 0.003910572 0.04518827 -0.12664573
000390 11 f8 57 3d d4 02 0b 3e f3 ea 0b 3e ea 81 51 be
       0.05272681 0.13575298 0.13663845 -0.20459715
0003a0 09 e0 6a bd 3b 05 16 3e ac f1 94 bd fa 39 a9 bc
       -0.057342563 0.14650433 -0.07272658 -0.020657528
0003b0 01 78 c0 bc b4 7f ec 3c 3c e7 74 bd 47 0b 29 3e
       -0.023494722 0.028869487 -0.059790835 0.16508208
0003c0 a9 82 0d be 87 b7 6a 3d 94 67 f7 bd 2a 5e 9f 3b
       -0.13819374 0.05730393 -0.12080303 0.00486352
0003d0 d7 af 51 3e 86 97 25 3d 03 c6 2e 3d 6d 0b e4 bb
       0.20477234 0.040427707 0.042669307 -0.00695937
0003e0 0a ca b4 bd 89 e2 d9 bc 6b c2 83 be a2 77 b3 bc
       -0.088275984 -0.026597278 -0.25734267 -0.021907631
0003f0 8e f3 69 3d 0b fb ba 3d 67 7b 74 bd ab e7 c2 bd
       0.057117037 0.09129914 -0.059688 -0.095168434

network.2.conv.0.weight f4 [128, 256]
000000 7c 1e 74 3a 31 91 c0 3a 15 de 92 bc 82 6e ea 3c
       0.0009312404 0.0014691708 -0.017928163 0.028617147
000010 93 68 57 bd 02 33 b7 3d 02 89 67 3e f2 8f 39 3e
       -0.052589964 0.08945276 0.22610858 0.18121317
000020 7a b2 8f bd 42 20 27 3c 60 ef e0 bd 2f 41 50 bd
       -0.070164636 0.010200562 -0.10983157 -0.050843414
000030 67 1f a4 3d 54 b1 bc 3d 1d 25 ab 3d c5 48 c4 bd
       0.08013802 0.0921351 0.08356688 -0.09584192
000040 f9 d8 cd 3e c3 81 e6 bd 00 b9 c9 bc 04 92 8a 3d
       0.402046 -0.11255219 -0.024624348 0.067661315
000050 c7 ec bc 3d 77 20 aa bc 2d bd bd 3d 03 e1 e9 3d
       0.09224849 -0.020767434 0.09264598 0.11419871
000060 72 0c 55 be 7a ec 88 3e cb 9a 08 be b0 e3 9f 3d
       -0.20805529 0.26742917 -0.13340299 0.078071
000070 5d 99 34 3e 6c 58 b4 bd ac cb 42 3d 53 04 58 be
       0.17636628 -0.08805928 0.047557518 -0.210954
000080 db 3a 1b be fb 19 b3 bd 6f 24 79 3d 02 1a 8c bd
       -0.1515917 -0.0874519 0.06082576 -0.06840898
000090 0b 03 85 bd 4f 69 19 bb a5 69 ee 3d 4f 59 53 bd
       -0.06494721 -0.0023408716 0.11641244 -0.051598843
0000a0 fe f8 8b 3d 3a 93 40 bd 37 17 0f 3c 8e 82 bc 3d
       0.06834601 -0.047015406 0.008733562 0.09204589
0000b0 eb e5 f5 bd 6f bb f1 bd 4a ab 55 3e a5 2a c1 bc
       -0.12006744 -0.11803328 0.20866123 -0.023579905
0000c0 2d bc 5f be 41 e5 ca 3d 58 6e 3d be 1f 4f 43 bd
       -0.21849127 0.09907008 -0.18499124 -0.047682878
0000d0 34 74 7c bd 34 2b b5 bc 2c 4c 0a 3d 93 cf 25 bd
       -0.061634257 -0.022115327 0.03376405 -0.04048116
0000e0 72 b6 5c bd e9 6c af bd 6c 93 59 be 3f 64 fe bd
       -0.05388493 -0.08565695 -0.21247643 -0.12421464
0000f0 55 7d 76 3d e1 50 a9 bd 61 28 2d 3e b4 9b e0 bd
       0.06017812 -0.082673796 0.16909935 -0.10967198
000100 83 cf 77 39 b1 b8 d7 3d fb e4 a1 bd 6d 75 8e bb
       0.0002363306 0.10533274 -0.07905003 -0.0043474943
000110 40 3e 33 be d2 b1 b0 bd 89 1d ca bd d7 2d c8 3d
       -0.17504215 -0.086276665 -0.09868915 0.09774368
000120 5c 8e 44 bd 06 e2 a3 bb 1b a9 f3 bd ab 76 38 bd
       -0.047987327 -0.0050013093 -0.11897489 -0.045035046
000130 46 6d 44 3d 25 af c9 3c 83 cb 2f 3e 14 0c 56 be
       0.047955774 0.024619648 0.17167477 -0.20903045
000140 5b c7 96 be ab 0b 12 3e 52 8c ee bc 4d 92 e0 bc
       -0.2944897 0.14262263 -0.029119644 -0.027413512
000150 38 37 35 bd e4 5c bc 3d cc ba 16 bd 56 ca 06 3d
       -0.044242114 0.09197405 -0.036799237 0.032907806
000160 e5 c2 96 bd e0 6a 21 3a 30 9b 4d 3d 9a 1a c1 3d
       -0.07361392 0.0006157588 0.050196826 0.09428902
000170 6c b0 f9 bd f8 6d 51 3c 22 8a 76 bd 92 5d 28 3d
       -0.12191853 0.012782566 -0.060190327 0.04110486
000180 ef f4 93 3c b7 42 3c 3d 10 6b 95 3c 20 c9 34 3e
       0.01806113 0.04596206 0.018239528 0.17654848
000190 c8 d7 30 3d 58 01 df 3d 26 50 24 bd 44 ba cf 3d
       0.043174535 0.10888928 -0.040115498 0.10142949
0001a0 79 5d 9a 3d 36 da be 3d 92 51 0d 3d d8 60 58 3d
       0.0753736 0.09318964 0.03450162 0.052826732
0001b0 01 07 9f 3d 47 de 64 be 53 5f b1 bd 80 8e c4 3d
       0.07765008 -0.22350417 -0.0866076 0.09597492
0001c0 22 50 d8 bd 9b ce 13 3d b6 39 fa 3d 82 c1 3d bd
       -0.10562159 0.036085706 0.12218039 -0.04632712
0001d0 21 c9 d1 3b 5e 86 8a be 08 54 c2 3d 3b 16 d2 3c
       0.0064021503 -0.2705564 0.09488684 0.025645366
0001e0 f7 25 c8 bd 58 70 3d be 71 e3 24 be 2c ca 9e bd
       -0.09772866 -0.18499887 -0.16102387 -0.07753405
0001f0 1d e3 a1 3d 58 7c e3 3b e4 0a ff bd 47 78 fd 3d
       0.079046465 0.006942313 -0.12453249 0.12376457
000200 66 73 d0 3d 3d 80 52 3e c8 7f 2e 3e 96 c8 10 be
       0.101782605 0.20556732 0.17040932 -0.14139017
000210 37 b3 63 bd b4 d6 f9 3d 03 e2 c8 bd 5e cb 91 3d
       -0.055590834 0.121991545 -0.09808733 0.07118867
000220 b9 15 0b 3d 45 ea 09 bc 2f 72 f7 bb d0 24 00 3e
       0.033956263 -0.008417671 -0.0075514535 0.12514043
000230 46 71 e8 3d f7 64 d5 3c 01 71 94 bd 66 13 05 be
       0.1134973 0.02604912 -0.07248116 -0.12995681
000240 ba 41 74 3d d7 9c 2b be a5 f4 0d 3d 73 4b f3 bc
       0.059632994 -0.16759048 0.03465714 -0.029699063
000250 b9 02 1d be 64 90 96 bb b6 03 71 bb e4 08 11 be
       -0.1533307 -0.0045948494 -0.0036775894 -0.14163548
000260 37 4d 99 bd 47 f5 93 bd 00 3c 62 3c c2 93 ab 3d
       -0.07485431 -0.07224517 0.01380825 0.08377792
000270 da 05 45 3e e2 63 e7 bd 1a 86 f0 3c ca 58 30 be
       0.19240513 -0.11298348 0.02936082 -0.1722137
000280 d6 35 5b 3e 57 e3 1c 3a 95 64 2d 3e fc ac 3f bd
       0.21407256 0.0005984804 0.169329 -0.04679583
000290 cc 45 87 bd 4d 6b 13 be 71 3e a9 3d 3c 4b 9d bd
       -0.066051096 -0.14396401 0.08263863 -0.076803654
0002a0 12 43 ec ba 90 6f 02 be 38 fc ae bd c2 cb 74 bc
       -0.001802536 -0.1273787 -0.08544201 -0.014941158
0002b0 6c 27 d4 3c 2b 23 b3 bd ca 1a 0d 3e 05 c0 db 3a
       0.025897704 -0.08746942 0.1377975 0.00167656
0002c0 0c f7 da bd 01 9d fd bd 21 1c 14 3e ba f6 b8 3d
       -0.10691652 -0.12383462 0.14463855 0.09031434
0002d0 a5 9b 52 3d fc 84 55 bd cf 0a 0e 3e f3 15 7c bd
       0.051417965 -0.052128777 0.1387131 -0.06154437
0002e0 3c 2a 36 bd 3b 04 79 bd 6f 47 de bd 3a 12 6c bd
       -0.04447387 -0.06079505 -0.108534686 -0.05763457
0002f0 e3 c1 37 bd 4d d1 6c 3c 61 98 cb 3d 0f c6 a3 bd
       -0.04486264 0.014454198 0.09941173 -0.07996761
000300 b4 7b 23 3e ec 38 4b be ce fb 62 be 9a ce 2c be
       0.15965158 -0.19845933 -0.22166368 -0.16875687
000310 9c ad ef 3d be 49 84 3d 40 54 f0 3d 36 64 b7 bd
       0.11703035 0.06459378 0.117348194 -0.089546606
000320 f5 74 0b 3e 26 98 8e bc 48 99 2a 3e 79 fb d3 bc
       0.13618834 -0.017406534 0.16660035 -0.025876747
000330 8c 07 8e 3c 36 30 7b bd 4b 9c ad 3c 23 21 15 3e
       0.017337583 -0.061325274 0.02119269 0.14563422
000340 07 b4 9e bd 02 16 ee bc 6b 86 4b be 5f ec bd bd
       -0.07749181 -0.029063229 -0.19875495 -0.092736
000350 e0 6a c8 bb 36 e4 45 bd 6e b5 05 be 20 1a 42 3d
       -0.006116256 -0.048313342 -0.13057491 0.047388196
000360 69 0d 29 bd d3 09 28 3d cd 28 2e be d1 ec fb 3d
       -0.041272555 0.041024994 -0.17007752 0.123010285
000370 58 3a c5 bd 49 7e 05 be 17 ed 9b 3d cd f9 90 be
       -0.09630269 -0.13036455 0.07613581 -0.28315583
000380 83 6f 42 be 64 d0 7f bc 3e 80 0f bd 6c 25 05 be
       -0.18987851 -0.015613649 -0.03503441 -0.13002557
000390 99 ab 15 bd d9 c4 0d be fe 85 4f bd c7 e9 c1 bd
       -0.0365406 -0.13844623 -0.050664894 -0.094684176
0003a0 87 70 ca 3c cd 2b 1b 3e c6 d4 df 3d 73 2a 26 bd
       0.02471186 0.15153427 0.10929255 -0.040567826
0003b0 80 0b 9c bc 98 19 0b be 66 72 9d 3e 07 ec ea 3a
       -0.019048452 -0.13583982 0.30751342 0.0017923125
0003c0 87 e4 ed bd e1 ec ba bd 3b 1e 70 be 73 cb 81 bd
       -0.11615854 -0.09127212 -0.23449032 -0.06337633
0003d0 1a 40 ee bd b2 b2 c8 3d d4 01 48 bd 9e f4 a6 bc
       -0.1163332 0.097997084 -0.04882987 -0.020380314
0003e0 b1 00 c9 bb 7c 40 50 3e 7e a6 39 3e 6f 12 fa bc
       -0.0061341156 0.20337099 0.18129918 -0.030526368
0003f0 0e db 8b 3c 6a eb 0a bd 0d c9 d1 3d e1 24 93 bd
       0.017072227 -0.033915915 0.102434255 -0.071847685

network.2.conv.0.bias f4 [128]
000000 76 77 5d be 65 bb a1 bb d4 97 1b be d5 bf cb 3d
       -0.21627602 -0.0049356692 -0.15194637 0.099486984
000010 11 d8 27 be 6a 43 44 be 77 bd 1d 3e f2 ec 9a ba
       -0.16391017 -0.19166341 0.15404306 -0.0011819883
000020 c8 ca 86 bd 58 85 e6 3c 7f 9a 6f bc a3 57 fc 3c
       -0.06581646 0.028139755 -0.014624237 0.030803507
000030 a2 4d 4b 3d 29 6f a9 3d 61 0b 7b bd 15 70 57 3d
       0.049634583 0.08273155 -0.06129015 0.052597124
000040 32 d2 01 3d be 4c 43 bc 09 6e c3 bd 08 1f 99 be
       0.0316946 -0.011920152 -0.09542472 -0.29906487
000050 e0 b5 e2 bd 8c 14 74 3c d0 00 9e 3a 19 57 cd bd
       -0.11069846 0.014897477 0.0012054686 -0.10026378
000060 56 6f b3 bd f6 37 05 be 13 78 bf bc f5 2c e4 bd
       -0.0876147 -0.13009629 -0.023372686 -0.111413874
000070 ec 21 31 bd 3f 7e 66 bd e0 f7 a0 3d 5d 42 4e be
       -0.04324524 -0.05627274 0.078597784 -0.20142503
000080 ef 4d 9c bd 32 35 70 be 82 18 6f bd 13 64 cc 3c
       -0.07632052 -0.23457792 -0.05837298 0.024950063
000090 d9 c6 22 bd f5 88 58 be 71 ba 0a 3d 88 05 c5 bc
       -0.039740417 -0.21145995 0.03386921 -0.024050489
0000a0 c0 9b f2 bd 16 ca 12 3d 80 5a 42 3d b5 f4 4a be
       -0.11846113 0.035837255 0.04744959 -0.19819911
0000b0 10 e5 f8 bd 3b 25 13 3d ec de b9 3d a2 47 d7 bd
       -0.12153065 0.035924178 0.09075722 -0.1051171
0000c0 b3 9c 60 be 2c 4d f4 3c f2 88 0b bd f2 a8 58 3c
       -0.21934776 0.029821955 -0.034066148 0.013223873
0000d0 01 94 3d bd 0d 89 f2 3d 58 f3 57 bc 43 2a d9 3d
       -0.046283726 0.118425466 -0.013180576 0.10603764
0000e0 75 b7 ce 3c 9f 8f 1b bd 9e 89 2c be cf ff 96 be
       0.025233964 -0.037978765 -0.16849372 -0.2949204
0000f0 b3 1c 8f be 08 78 96 3c da d3 be bd 9c e8 1e 3e
       -0.27951583 0.018367782 -0.09317751 0.15518421
000100 dc 9e ac 3c 6f c6 18 3e b5 51 55 be 06 e2 34 3e
       0.021071844 0.14919446 -0.2083195 0.17664346
000110 13 ef 64 bd f8 50 26 3d 38 df dd bd b5 95 82 bd
       -0.05589206 0.04060456 -0.10833591 -0.063762106
000120 88 e7 50 3e 9f de 0b 3b 59 4d ca 3b 40 ad e6 3c
       0.20400822 0.002134241 0.0061737713 0.028158784
000130 32 0c 0f be 53 df bb 3d 25 eb e3 3d aa 56 2d 3d
       -0.13969496 0.09173455 0.11128835 0.042318977
000140 76 63 c5 3c 70 4d 63 be d6 51 13 bd 6d 16 24 3e
       0.024095278 -0.22197509 -0.035966717 0.1602418
000150 57 70 0a bd 0f 71 0b 3d e5 18 27 be 0f e7 aa 3d
       -0.033798542 0.034043368 -0.1631809 0.08344852
000160 e7 53 f6 3c c2 45 6a 3d ee 50 d0 bd 9f bb 31 be
       0.030069305 0.057195432 -0.10171686 -0.17356728
000170 b5 fb 17 be 1d 19 da bd e1 b2 99 3c 9b 84 5e bd
       -0.14842112 -0.10649321 0.018762054 -0.05432568
000180 86 90 0f bd 0f d7 eb bd 25 08 ad 3d 71 cb e0 3d
       -0.035049938 -0.115156285 0.08448819 0.10976303
000190 5f 6a d6 bd 92 db ff bd 80 f8 18 3c d4 8e 69 3d
       -0.104695074 -0.124930516 0.009336591 0.057020977
0001a0 c3 2e a8 bc 93 23 a7 3d 55 ca c6 bd e4 94 c8 bc
       -0.02053011 0.08161082 -0.097065605 -0.02448506
0001b0 65 2f 55 be 4f f4 1e be e1 67 5c be d3 fb 18 3d
       -0.20818861 -0.15522884 -0.21524002 0.037349533
0001c0 9e 8f 98 bb 13 7c 77 3c 12 65 d7 bd 8c 6d 0e be
       -0.0046557924 0.015105265 -0.105173245 -0.13908976
0001d0 de ac 19 be 9e 73 38 be 9f 83 fd bd ed 34 1b bd
       -0.1500735 -0.18012854 -0.1237862 -0.03789227
0001e0 7d 38 36 3c a3 24 92 be 1c 62 39 bd 2b e7 49 be
       0.011121866 -0.28543577 -0.04525958 -0.1971709
0001f0 20 94 e8 bd d4 10 55 be f5 f4 72 3c 20 60 ac bc
       -0.113563776 -0.208072 0.01482891 -0.02104193

network.3.weight f4 [2, 128]
000000 91 4a 48 bb 09 8e 09 3b 2d c3 f5 bd 7a 03 79 3d
       -0.0030562023 0.00209892 -0.120001175 0.06079433
000010 b4 31 59 3c 55 0e 16 be cd 8f 49 3e eb 40 a9 bc
       0.013256479 -0.14653905 0.19683762 -0.020660838
000020 37 36 f2 3c ba 41 07 3d 51 51 94 b9 a3 05 66 bc
       0.029566867 0.033021666 -0.00028289345 -0.01403943
000030 78 53 37 3d fc 63 d4 bb eb d1 95 3b 6d 15 33 bc
       0.044757336 -0.0064816456 0.0045721433 -0.010930401
000040 27 39 c8 bd f7 20 f3 bc 4f a6 ec bd 09 41 f1 3d
       -0.09776526 -0.029678805 -0.11555158 0.117799826
000050 56 19 b5 3c c9 e2 dc bb 80 31 30 bc 80 20 ab bd
       0.022106808 -0.006740902 -0.010753989 -0.08355808
000060 5a 27 5c 3e 1c 34 44 bd f1 75 13 3d f1 bb 1b 3d
       0.21499386 -0.047901258 0.03600115 0.03802103
000070 b6 56 ab bc b5 c3 d9 3d fc 6f 6b bc 2a 82 80 3d
       -0.02091537 0.10633031 -0.014369961 0.06274827
000080 1d ca d5 3d 15 99 3c be 60 6e 83 3d 53 a7 14 3e
       0.10438941 -0.18417771 0.06417537 0.14516954
000090 3e 3c 03 bc c0 bd 80 be 64 c8 4c be 81 fb d1 bd
       -0.008009968 -0.25144768 -0.19998318 -0.10253049
0000a0 13 c4 f8 3d df 69 8a 3d a8 c0 46 3d 49 8b ee bc
       0.12146773 0.067584746 0.048523575 -0.02911915
0000b0 a9 83 d9 3d 8c 53 82 bd 2d 3d bf 3d 01 4e 73 3d
       0.10620815 -0.063635916 0.0933784 0.059400562
0000c0 a1 6a 13 be 41 19 a3 bd 9d 12 26 3d c6 76 f7 3c
       -0.14396144 -0.07963801 0.040545095 0.030208003
0000d0 0b 47 90 3d ea be 38 bd bb 84 da bc aa df 1a be
       0.070448 -0.045103945 -0.026674619 -0.15124384
0000e0 06 a7 b0 bb db 48 38 bb 7d 17 f0 3d bb f3 35 bd
       -0.0053910045 -0.0028119597 0.1172323 -0.044421893
0000f0 1d f1 65 bc 86 3e 19 3e b0 34 01 bd fb f4 89 bd
       -0.014034537 0.14965257 -0.031544387 -0.067361794
000100 d7 63 4f 3e 7f 76 9b bc 3b ab 1e 3e f0 1d 25 be
       0.2025293 -0.018977402 0.15495007 -0.16124701
000110 92 16 9e 3b fb 44 34 3e fb fb bd bd 31 db 7c 3d
       0.004824468 0.17604439 -0.09276577 0.061732475
000120 c2 38 eb 3c 0f 50 47 be 9b a2 14 3d 54 3c 3a 3e
       0.028713588 -0.19464134 0.036287885 0.18187076
000130 81 3d 35 bd 18 f5 d6 bc ae 7f 84 bd 79 72 18 3c
       -0.044248108 -0.026239917 -0.064696655 0.009304636
000140 f1 0c 6f bd 54 6d ff b8 65 4c f8 3c cb db 1c bc
       -0.05836195 -0.000121797115 0.030309865 -0.009573887
000150 c7 fb d5 3d 9a b5 4f 3d d1 02 ee 3c 05 9f 52 be
       0.10448413 0.050710298 0.029054077 -0.20568474
000160 5d c4 cb 3c c5 1f f0 3d 6f 6a 99 3c 06 0b e8 3b
       0.024873907 0.117248096 0.01872751 0.007081392
000170 b8 13 53 be a7 4d 01 be 21 9f 2e bd fe ac dc 3b
       -0.20612991 -0.12627278 -0.042632226 0.0067344895
000180 03 96 0d 3d 04 82 ec bb 72 8b d1 bc b2 05 69 bc
       0.03456689 -0.0072176475 -0.025579188 -0.014222549
000190 5b 0e dd 3d 1b 00 8f bc 78 61 49 3e 45 30 78 bb
       0.10793754 -0.017456105 0.19666088 -0.0037870568
0001a0 2f 6c b5 3d 25 d8 3c 3e 04 9f bb 3a 83 13 33 bd
       0.08858525 0.18441828 0.0014314358 -0.04371978
0001b0 7a 98 c3 bc 85 a5 88 bd d4 cf 4d bd 20 fa 7f 3d
       -0.023876417 -0.06672195 -0.05024703 0.062494397
0001c0 31 79 b0 3d 43 f7 3a 3e 56 70 01 3e 30 80 00 be
       0.086168654 0.18258385 0.12640509 -0.125489
0001d0 fe b0 8f bb b0 b0 2e 3d 27 be 24 be fc 76 56 3d
       -0.004385113 0.04264897 -0.16088162 0.052359566
0001e0 f3 e5 00 3e fc d3 46 be 8b 20 54 3e cc cc 83 bd
       0.12587719 -0.19416803 0.20715539 -0.06435546
0001f0 87 a8 18 3e e3 27 37 be 46 ff 1e 3b e0 33 a1 bc
       0.14908038 -0.1788631 0.0024261042 -0.019678056
000200 d3 c2 1a be d1 36 9f 3d 34 b4 f0 3c 7c 29 b6 bd
       -0.15113382 0.07774127 0.029382803 -0.08894631
000210 fd 06 db 3d 85 71 2f be 1f 4c dd bc c9 50 8e bc
       0.10694692 -0.17133148 -0.027013836 -0.017372506
000220 1a 03 83 bd 18 b3 ce 3d 46 d1 c0 b9 00 93 f0 bc
       -0.06397076 0.10092753 -0.00036777015 -0.02936697
000230 99 6e 90 3d 10 a2 26 3c 7e 8c be bb d3 b8 89 3c
       0.07052345 0.010170475 -0.005815088 0.016811764
000240 54 cc a7 bd 3b 67 68 3d 9a 6c e6 bd 6b 36 14 3e
       -0.08193269 0.056739073 -0.11251183 0.14473884
000250 5d b7 d6 bd e6 8b f1 3d bf 25 ac 3c ab 88 b8 3d
       -0.104841925 0.11794262 0.021014092 0.09010442
000260 51 bc f0 3d 4f 85 c5 3d 30 41 05 be 6e 62 9f bd
       0.117546685 0.09644567 -0.13013148 -0.07782446
000270 4b 33 ce 3d 75 ad 85 3d 76 a2 4f 3c cd ab af bd
       0.10068377 0.06527225 0.012673011 -0.0857769
000280 26 07 8e bd 0c 7a f8 3d 67 3a 33 3e f8 2a c8 bd
       -0.06934957 0.121326536 0.17502747 -0.09773821
000290 67 50 bc 3d e8 c9 25 3d ae 62 3d 3d 2d 9f 36 be
       0.09195023 0.040475756 0.046236686 -0.17834158
0002a0 fe 19 14 be 62 3a 8d 3d 27 6c a2 bd 15 72 36 3c
       -0.1446304 0.06895901 -0.07930785 0.011135598
0002b0 a7 96 8d 3b de 75 62 3e 7b 0f 84 3e fd f2 b3 3c
       0.0043209377 0.22115275 0.2579306 0.021966452
0002c0 86 64 bc bd dd c6 fa bd 15 b5 00 3d 42 3b fa 3c
       -0.09198861 -0.122449614 0.031422693 0.030545834
0002d0 46 1e ea 3d 82 01 32 3e 2d d8 83 bb 6f ba 10 3e
       0.114315554 0.17383388 -0.004023573 0.14133619
0002e0 46 f5 47 3d ee e3 08 3c 88 a0 d3 3d fb 18 26 be
       0.048817895 0.008355124 0.10333353 -0.16220467
0002f0 a0 ac cb bc 50 05 9f bd b3 0b 66 3d 2c 29 91 be
       -0.024862587 -0.07764685 0.0561635 -0.28351724
000300 e1 96 8b bd de 54 3f 3d 4d 6f 74 3d 2a fe cf 3c
       -0.06815887 0.046711795 0.059676457 0.02538975
000310 00 ba 91 3d 91 0e 97 be be eb 19 3e b6 7f 43 3d
       0.07115555 -0.295033 0.15031335 0.047729217
000320 7c 84 d3 3d 70 0c 49 3d f2 be a0 bd b5 86 09 bd
       0.10328004 0.049084127 -0.0784892 -0.033575732
000330 99 c1 d6 3d 11 02 0a 3e dc b8 42 3e 78 ea 1f bd
       0.104861446 0.13477351 0.19015831 -0.039041966
000340 cd 30 c5 3e 1b b9 52 3c 17 e2 a3 3d 86 c9 ad 3d
       0.38513795 0.012861515 0.080021076 0.08485703
000350 36 bc 80 3b fc 48 03 bc cf 75 21 be 67 e3 8b bb
       0.0039286865 -0.008013006 -0.15767597 -0.004269052
000360 f9 a3 cb bd 0e b7 4f be 59 68 86 3d af bc b5 3d
       -0.09943385 -0.20284674 0.065628715 0.08873879
000370 8f 76 37 3e c2 11 f3 3d 1a 7b 73 3e af 91 ea bc
       0.1791632 0.118686214 0.23777428 -0.02863392
000380 1f 61 9d 3d 76 a9 18 3e 43 45 83 3d 56 1b 33 bd
       0.0768454 0.14908394 0.06409695 -0.04372724
000390 f4 c0 c1 3d 64 44 8f 3d 57 cc 0e bd 62 b0 62 3d
       0.09460631 0.06995466 -0.034862842 0.055343993
0003a0 76 0d 76 3d 22 a0 8d bd 74 a7 9a 3e a2 6e 99 3d
       0.06007143 -0.069153085 0.30205882 0.07491805
0003b0 3d 8c 9d 3d a3 ba 89 3d 7b e6 34 3d e7 cd 8e 3b
       0.07692764 0.06725051 0.044165116 0.0043580416
0003c0 8a aa a8 bd 7a fc 76 be 51 1f bd 3d d0 ad 30 be
       -0.08235653 -0.2411975 0.09234489 -0.17253804
0003d0 4b a8 4f bd 6d e1 b0 3d c9 e3 e1 3d e9 db 03 3e
       -0.050697606 0.086367466 0.11029775 0.12876858
0003e0 2f 88 b6 3d 62 06 d7 3d 6d 4a 4a be 8e fd 04 be
       0.08912694 0.10499264 -0.19754954 -0.12987348
0003f0 8e 2b f1 bc dd 93 03 be c9 ae ed bc 27 bd 0f 3e
       -0.029439714 -0.12849374 -0.029014008 0.14037

network.3.bias f4 [2]
000000 0a 43 44 bd f9 fb 81 3e
       -0.047915496 0.25387552
