exomy/config/best_run_no_obstacles405k/checkpoints/594000_policy.pt (torch, 723582 bytes, 13 tensors)

log_std_parameter f4 [2]
00000000: 5774 b2bf 69a2 51bf
-1.3941754 -0.81888443

network.0.conv.0.weight f4 [512, 5]
00000000: 31c0 d73e eaac 88be 41f2 26bc ccb3 a6bd
00000010: 2b01 2a3e b5e5 1d3e e9e4 413e b190 103e
00000020: 1b40 9ebd 474d 3cbc f194 a4bc bd15 ef3b
00000030: 7cf3 243c ac20 82be 6bd7 6b3d d790 cf3d
00000040: 44ef 1ebe 71b9 0e3e 9197 813d 262d 2e3e
00000050: 71a5 553d 66b2 4abc cddc a83d 4760 453e
00000060: a9d5 003e ba93 643e d587 f43e 8d9b 673c
00000070: dd1f 30be b5db e3bc ba66 96be 30f1 bebc
00000080: 4540 893d 327c b1bc c7c3 78bd 5636 d23b
00000090: 4024 09bd 2a53 463d cdbe c23d 60cc 96bd
000000a0: 07a3 ba3d 540b 0abf 2f46 d9bb 0f5b 33bd
000000b0: 3c90 a7bc f88a 3bbe 85d9 56be 16aa 2ebe
000000c0: 3382 003d 5bc2 40be 5b4f ba3b 5cb2 f23e
000000d0: 4a84 8d3d 9caa 2d3e b99a 413b 8ee0 4cbc
000000e0: a1b1 583e d4aa c3bc a15f 0d3e 3e35 90bd
000000f0: b9ed 8d3e 6211 edbd 2eb1 a13d 3efb ff3c
00000100: 2797 023e 8802 983e 3dba cfbe d693 66bc
00000110: a404 483e 5f97 033c 7eba 81bd 3ce7 f13a
00000120: 87c5 4abb 68a9 aa3d 23fd 1b3e d6bb 74be
00000130: d980 e23e 199d 3d3d c1f4 203e 4ee2 07bd
00000140: b868 703e f8b9 123f c58c 343d d4cb 18be
00000150: 7b76 173e 4098 39be 534a 3a3e a19b ae3d
00000160: 16e0 eabd 0347 463d 466c 7f3e 53d4 253e
00000170: 5d13 66bd 235f 1a3c f3a9 133d c7c1 f9be
00000180: bdc4 c8be 1999 07bc 0ab6 533d 3964 19bd
00000190: d9b1 5ebe f92a 133c 80b5 6dbd dd5e 82bc
000001a0: e5cf 9f3d 1c55 a5be 54a2 8b3e d99e 47bd
000001b0: 9db4 86be d7fa 643e a4d1 f9bd 54b2 fcbd
000001c0: 070c 7e3d efab 403d f6d9 10bc f64d 4cbe
000001d0: c3c8 dd3e 9f88 573b f883 e13b 8c9d 2cbd
000001e0: 0184 c03e be01 0e3e 1fcb e83d be2d 95bc
000001f0: db35 ebbd 193e 51be b25d 08bf 1ab5 babc
00000200: 6584 9a3d 4d96 89bd 95df fcbe 5d18 563d
00000210: aea0 cf3d d26c 01bd 37bb 87bc 4cc3 ddbe
00000220: 42e0 ea3e 122c 18bd 0f28 b4bd 6f47 90bd
00000230: 9245 2a3e b2c3 1d3e ec7a 10bd a95a 163e
00000240: 730d 74bc 6895 633d 5acd b03e e17d b33d
00000250: 5417 6d3d e2e6 1abd 3877 5cbe babd 293e
00000260: 5177 0c3c 3c0f 1ebe 63ce 51be 29b6 8cbe
00000270: c5be 88be 7480 a03d f988 8c3d 0085 06be
00000280: 5dc1 87be eb09 8fbe e6e0 c83c 1395 2ebe
00000290: 36f2 c63d 3f32 9fbe 3f47 96bd 661f 1d3c
000002a0: 4890 9b3c c3c8 babd 9a7f 00bd 9ec6 0b3f
000002b0: 2fac 133c fd43 f6bc 7b31 f6bc 3d61 b63e
000002c0: 8034 cf3d e3f7 113d 70e9 92bd a7cc 8ebd
000002d0: 36e0 afbe 05c6 f83e 9ffe 01bd d25f 05be
000002e0: 632a 613e e91c b23e 00d1 213d 509b d9bc
000002f0: 9f9d 753d 867f 843c 8af3 16be 490f adbe
00000300: 12f8 4e3c 85b4 e5bc 7f27 fe3c be0e 033d
00000310: 19e2 36bf 3c8f 5dbd a7d8 3bbd 23aa 033e
00000320: 518c 6f3d e230 ce3e 7933 df3c 4041 e43d
00000330: 59a1 b43c 9f5d 24be 8d74 babe 3187 203c
00000340: a018 edbd 3e77 9cbd 21aa f0bd fd2b c3be
00000350: 4dc8 70bd 1fdc 20bd b0dc 52be 3192 b33e
00000360: f924 093f 7dcf 7a3c 0bfb 95bd 6854 e13d
00000370: 2abc 92be bf67 2dbe 4f7a 933d 44ad b73d
00000380: 109b 38be 09ad a53d 50f4 613e 1548 a73c
00000390: fe21 91bd be71 a33d 9541 fa3e fddc 8abe
000003a0: a462 adbc e482 97bd bd74 fabd 78c6 963e
000003b0: bb46 e8bd beb8 3cbd c8db 82bd 295d 993d
000003c0: 4882 49be a247 503e 53d7 bb3c d626 d8bd
000003d0: 2b44 84bd a940 a9be e7d9 f5be 8b70 b8bb
000003e0: 33a6 82bd e3c5 3abd 1c23 783e 3af2 c83e
000003f0: 8752 c73d 3458 3ebe 9783 63be 7c97 7c3e
0.42138818 -0.26694423 -0.010189594 -0.08139762 0.16602008 0.15419658 0.18934979 0.14117695
-0.07727071 -0.011493034 -0.020090552 0.0072962926 0.010067817 -0.25415552 0.057578485 0.10135048
-0.1552096 0.13937928 0.06327737 0.1700941 0.05215973 -0.012371635 0.082452394 0.19275008
0.12581505 0.22321978 0.47759882 0.014136207 -0.17199655 -0.027814725 -0.2937525 -0.023308367
0.067017116 -0.021665666 -0.060733583 0.0064151688 -0.033481836 0.048419155 0.095090486 -0.073632
0.09113126 -0.53923535 -0.006630681 -0.043788012 -0.020454518 -0.18314731 -0.20981415 -0.1705707
0.031374168 -0.1882414 0.0056857294 0.47401702 0.06909998 0.16959614 0.0029541685 -0.01250471
0.2116151 -0.023885168 0.13806011 -0.07041405 0.2772043 -0.11575581 0.078951225 0.031247731
0.12752973 0.2968943 -0.40571776 -0.014073333 0.1953302 0.008031695 -0.06334399 0.0018455754
-0.003094049 0.08333093 0.15233283 -0.23899779 0.44238928 0.046292398 0.15718366 -0.033174805
0.23477447 0.57315016 0.04407956 -0.14921504 0.1479129 -0.18124485 0.18192415 0.085257776
-0.11468522 0.048407566 0.24943647 0.16194277 -0.05617081 0.009422096 0.036050748 -0.48780653
-0.392126 -0.008276247 0.051687278 -0.037449095 -0.21747531 0.008982413 -0.05803442 -0.015914375
0.078033246 -0.32291496 0.27272284 -0.048735473 -0.26309672 0.22361313 -0.12198189 -0.12338701
0.06202319 0.04703897 -0.008841028 -0.19951615 0.43317232 0.003288783 0.006882187 -0.042142436
0.3760071 0.13867852 0.11366867 -0.018210288 -0.114848815 -0.20433845 -0.5326797 -0.022791434
0.075447835 -0.06718121 -0.4938933 0.05226933 0.10138069 -0.03159792 -0.016568763 -0.43313062
0.4587422 -0.037151404 -0.08796703 -0.07044875 0.16628101 0.15406683 -0.035273477 0.14683022
-0.014895785 0.055562407 0.3453167 0.08764244 0.057883576 -0.037817843 -0.21529853 0.16576281
0.008573369 -0.15435499 -0.20488887 -0.27482727 -0.26708046 0.078370005 0.06862063 -0.13136673
-0.26514712 -0.27937254 0.024521302 -0.17049055 0.09714167 -0.31093022 -0.07337808 0.0095900055
0.018989697 -0.091203235 -0.03137169 0.5459994 0.00901322 -0.030061716 -0.030052891 0.35621062
0.101174355 0.035636794 -0.07173431 -0.06972628 -0.34350747 0.48588577 -0.031736966 -0.13024834
0.21988826 0.34787682 0.03950596 -0.026563317 0.059964772 0.01617409 -0.1474134 -0.33800724
0.012632387 -0.02804018 0.031024693 0.03199648 -0.7143875 -0.054091677 -0.045860913 0.12857871
0.058483426 0.4027167 0.027246224 0.11145258 0.022049593 -0.16051339 -0.36417046 0.009797857
-0.115769625 -0.07639931 -0.117511995 -0.38119498 -0.05878477 -0.039272424 -0.20591998 0.35072473
0.5357204 0.015308258 -0.07323273 0.11002427 -0.28659183 -0.16934107 0.07201063 0.08968595
-0.18027902 0.080896445 0.22065854 0.020420114 -0.070865616 0.07980679 0.4887816 -0.27121726
-0.0211652 -0.07398012 -0.12229297 0.29448295 -0.11341616 -0.04607462 -0.06389576 0.07488472
-0.19678605 0.20339826 0.022929823 -0.10554282 -0.064583145 -0.33057144 -0.4801781 -0.0056286505
-0.06379356 -0.045598876 0.24232143 0.39247304 0.09732538 -0.18588334 -0.22218166 0.24667162

network.0.conv.0.bias f4 [512]
00000000: 79ab 803d b832 3dbe 4639 95bd 5c86 04be
00000010: e05b 9fbe cde6 ee3c e924 3abe cfc3 4bbe
00000020: d516 ce3d 0ba4 95bd 22ed 95bd 0659 78bd
00000030: 28b8 fabd f49e 0f3d 4702 12be 11f2 823d
00000040: c967 8ebc d351 03be 6b98 c8bc a937 6e3d
00000050: 1905 063e d287 fc3c ddec 13be 3246 033d
00000060: 1e8c e43d a8b0 a43d d706 a8bb 0c50 383d
00000070: 153d 10be a646 c8bd b726 fd3b 382f 2abe
00000080: b0a2 3d3d f044 30bc 71b1 c93c e0eb 0bbd
00000090: b9ce fa3c 7477 4dbd 8bc4 3dbd 0562 243d
000000a0: b5b3 8f3d 5f54 be3d dbab f6bd 1b2d 083d
000000b0: 892d 67be 4004 503d 9162 ff3c 1686 a7bd
000000c0: 86e8 87bc a387 8d3d b6ba c8bd c8a6 063d
000000d0: 6748 533d 07b4 9e3d 3ec5 a43d c022 073e
000000e0: 5bff c4bb 8ebc 65bd f202 1a3d 79b5 4ebe
000000f0: dd6a 863d 784b 9d3c 0e06 003e ad4f 103d
00000100: bddc 2a3e d476 36bd 476b 803d aef2 893d
00000110: b345 5fbd b654 b73d a449 2abc ccce 053d
00000120: 302e aabd 2f5a 22bd c134 ebbd fd0e 4abc
00000130: ae43 35be 5dc1 b1bc 73e2 8fbd 2e1d 5fbe
00000140: 132a a13a f0c4 0d3d 1e58 60bd 004b 263e
00000150: a24d 013e a650 5a3c 7272 623d c010 2bbd
00000160: 2a95 23bd eb2c 37be 9ddd a43c db0a 32be
00000170: 8873 5c3d a56a 87be 37e8 f7bd b080 a03c
00000180: 80e6 8d3d ebf2 b33d 8e24 95bd 13cd d7bc
00000190: 117a 683d c508 743d 6d4b c23d 6649 2fbe
000001a0: a884 d33c 2ceb f93c 03b6 56bd 953c 25bd
000001b0: 67c3 c7bd fcba f3bd cc97 8137 001c b43b
000001c0: dfb5 9abd aece c93d ffc0 f6bc cd56 19be
000001d0: 1580 5a3d 7cb3 7cbd 900d 9e3c 0a6e 2f3d
000001e0: eca1 96bd deb4 cebc ead2 8d3d 9f87 cfbc
000001f0: 063d 32be d50c 22be 5038 46be 00c5 733d
00000200: a33e fabd 9161 813d fc3e f33c ee1f f8bd
00000210: 1652 4abd e038 fc3c 2018 513b 5e5b 973c
00000220: 760b 793c 8f4a 0a3c 91cd b63c 33c0 edbc
00000230: 1208 45be 1117 56be a9db 0d3d 1a31 a2bd
00000240: dc77 c2bc 97c0 d7bc 8ad5 5bbd 479a dabd
00000250: 3b9a 333d 5c13 08bd b9fe d1bc d514 2abd
00000260: fb1b 4ebe 1a73 89bd e145 14be 9427 983d
00000270: be94 76bb 78ad db3c 7093 b6bd 1830 f0bd
00000280: 750b e9bc ee99 c93c ebdd e1bd e51d 343e
00000290: ff4b b2bd 4e07 8ebd cedc 77bc 558d 183e
000002a0: 489d 983a a470 6dbe 29fb 92bd feea 33be
000002b0: b12e 2a3e 2312 3abe 0b8c e3bd 5ea4 9cbd
000002c0: 1eb0 febc 7f6f e7bc 996d 0fbb 6c8c ddba
000002d0: 7470 35bd 3b3f dd3c a611 91bd 5678 6fbe
000002e0: 3e09 20be 88aa 573d aba0 a9bd 4ef1 42be
000002f0: 0c42 cc3d 08e6 21be 81f2 c43d 1b03 1dbe
00000300: 00d3 07be eef7 12be 2fd9 84bd 7a3d cc3d
00000310: 407e 44be 9e48 67bc 0b59 9ebb 5c11 84bd
00000320: a4d1 b83c baf1 8abe c56b c83c 07db 8fbd
00000330: e2d1 33bd b833 1abd 627a 15bd d79e f2bd
00000340: db53 07be c35a eebd 1f02 89be 4760 50be
00000350: d07a a5bd 05b4 e2bd a953 553c 9670 a13d
00000360: 03e8 e83d 0cf2 663d 45d3 0c3d caa5 08be
00000370: 793b d9bd 9eef a5bd 19d1 2ebe cc2b 7cbe
00000380: 01a5 37be 354b 0a3d 2715 68bd cfde e7bd
00000390: 35b4 19be 094b 0b3d 085a 27be b114 5abd
000003a0: 880b 85be a8fa 613c 3191 37be 0e33 4fbe
000003b0: 1460 d13d 792d 0abd f7c2 08be eaf5 37ba
000003c0: 9014 ecbc 0194 6f3c a728 28be 9794 23bc
000003d0: 9d5a 86bc f3e4 37bd 8902 0bbc f808 cd3c
000003e0: 7f43 4f3c 7596 36be bd1b 24bc fb69 02be
000003f0: be98 7bbd c0ad 07bd 01c6 0fbe b283 09be
0.06282706 -0.18476379 -0.07286315 -0.12941879 -0.31124783 0.029162789 -0.18178143 -0.19898914
0.100629486 -0.07306679 -0.0732062 -0.060631774 -0.12242156 0.0350637 -0.14258681 0.06393827
-0.017383473 -0.12824182 -0.024486741 0.05815855 0.13087882 0.030826483 -0.14445825 0.032049365
0.11159538 0.08041507 -0.0051277685 0.044998214 -0.14085801 -0.097791 0.0077255624 -0.16619575
0.04629773 -0.0107586235 0.024620743 -0.034160495 0.030616151 -0.050162748 -0.046330016 0.04013254
0.07016698 0.09293436 -0.120444976 0.03324614 -0.22575964 0.050785303 0.03117493 -0.08179872
-0.016590368 0.06910636 -0.09801237 0.0328739 0.05158272 0.07749181 0.080454335 0.1319685
-0.006011886 -0.056088023 0.037600465 -0.20186414 0.06563351 0.019201025 0.1250231 0.035232235
0.16685767 -0.044546917 0.062704615 0.067357406 -0.05450983 0.08951704 -0.010393534 0.03266792
-0.08309591 -0.039636787 -0.114846714 -0.012332675 -0.17701599 -0.021698648 -0.07025614 -0.21788475
0.0012295864 0.034611642 -0.054771535 0.16239548 0.12627271 0.013324892 0.055284925 -0.04176402
-0.039937176 -0.17888229 0.020125205 -0.17386954 0.053821117 -0.2644855 -0.12104838 0.019592613
0.0692873 0.08786567 -0.07282363 -0.026342904 0.056757037 0.059578676 0.094870426 -0.17117843
0.025820091 0.030507647 -0.052419674 -0.04034098 -0.09754067 -0.11900899 1.5448684e-05 0.005496502
-0.075542204 0.09853874 -0.030121325 -0.14974518 0.053344805 -0.061694607 0.019293576 0.04282955
-0.07355103 -0.025232729 0.06924994 -0.025333224 -0.17406091 -0.15825208 -0.19357419 0.059514046
-0.12218978 0.063174374 0.02969312 -0.12115465 -0.04939469 0.030788839 0.0031905249 0.018476184
0.015200486 0.008440628 0.022314819 -0.029022312 -0.1924136 -0.20907237 0.034633312 -0.07919522
-0.023738794 -0.026336951 -0.053670444 -0.10673957 0.043848258 -0.033221588 -0.025634157 -0.041523773
-0.20127861 -0.06711407 -0.14479782 0.07429424 -0.0037625278 0.026816115 -0.0891484 -0.11727923
-0.028447846 0.024609532 -0.110286556 0.17589529 -0.08705901 -0.06934987 -0.0151283275 0.14897664
0.0011643553 -0.231875 -0.07176811 -0.17570111 0.16619374 -0.18170981 -0.111106955 -0.07648538
-0.031089839 -0.028251408 -0.0021885394 -0.0016902811 -0.044296697 0.02700769 -0.07083444 -0.23385748
-0.15628526 0.052652866 -0.08282598 -0.19037363 0.09973535 -0.15810406 0.096165664 -0.15333216
-0.13264084 -0.1435239 -0.06486737 0.09972663 -0.19188786 -0.014116434 -0.004832392 -0.064486235
0.022560902 -0.27137548 0.024465451 -0.07024198 -0.04390133 -0.03764698 -0.036493666 -0.118467025
-0.13215582 -0.11638405 -0.2675943 -0.20349227 -0.08080065 -0.11069492 0.013020434 0.07882802
0.11372378 0.056383178 0.03438117 -0.13344494 -0.10607047 -0.08102344 -0.17071952 -0.24626082
-0.17934038 0.03376313 -0.056660797 -0.11321794 -0.1501015 0.034007106 -0.16342938 -0.05324239
-0.2598536 0.013792671 -0.1792648 -0.2023432 0.102234036 -0.033734772 -0.13355623 -0.000701754
-0.028818399 0.014622689 -0.16421758 -0.009984157 -0.01640063 -0.044896077 -0.008484491 0.02502869
0.01265037 -0.17830832 -0.010016379 -0.12735741 -0.061424963 -0.033124685 -0.14040376 -0.13429144

network.1.conv.0.weight f4 [256, 512]
00000000: 5e0e 42bc 8163 4abe 6a55 5dbd 7b13 273d
00000010: fb51 e3ba 14d8 e6bd 9d02 37be e50d 37bd
00000020: ad78 1abd e927 d5bd 3185 6cbe c0d2 b63d
00000030: a0a2 173e 7976 cabd 68fb dbbd fd8b a53e
00000040: 1185 8cbe c997 41bd abc1 c33c 131b 3b3e
00000050: 837f c03d 407b 893e 947b b03d fecd b23c
00000060: d6c9 093e 687f a5bd 9a61 433e 6db4 073e
00000070: d2a3 fabd 6406 9bbd 9f6e 39be 4084 b53b
00000080: 68a5 d63d d0b7 f33c 7a85 cf3a 9c2d 2d3d
00000090: 31f7 81bd 2680 3fbe 2e6f b33b 80bf 8bbe
000000a0: b16f 413b 7d8d 8a3e 5112 9cbd 67ee c1be
000000b0: a5ec 8e3d 2ba9 9fbd ed01 44be 14c0 33be
000000c0: d341 923a 2405 24bb aa84 3abc c8fa c3bd
000000d0: 8ee5 083e 2462 d13c fee6 8c3e c572 82bd
000000e0: 8371 9ebe 3f55 5ebe 20df 75be 7a7a e7be
000000f0: 1d56 a2bd e55b f83d 58f3 33bd 5d1d 3cbd
00000100: e45b 13bc fd33 9cbe 0374 cdbd 3119 2c3b
00000110: 308b e6bd 940f a2bc 1f08 f23d f768 a8bd
00000120: 2ce0 c33c 0719 9a3e bb2b c9bd 0a83 82be
00000130: 0b6c 71be 13c2 a83c ba9c c43d 577b 043e
00000140: 846a 633b e902 1ebe 70d6 65be 27c8 d43d
00000150: dd2d 08be 2ef2 963d e86b 82be fb64 cebd
00000160: 4246 3d3e f62f 553e 1174 643e 6790 c03d
00000170: 721b aa3e 9083 94be d6c9 653d 6cdd 9e3b
00000180: 5d67 d1bd 20e0 033e f38e 13bd 2c2b 40be
00000190: d59b c73d cb8c 3bbc 4bcb 733d 16f9 5fbe
000001a0: 2870 633e 8c26 68bd a38b 36be a1cd b1bc
000001b0: b82a 783e 680c f33d 97f5 713e 4905 5a3d
000001c0: 253a 80bd fae3 b93d 0501 813e 3577 6abe
000001d0: c4df 933d 1793 16be 377c 05be 689c 5a3d
000001e0: a556 dcbd 2836 663e 317a eabd 678a 3ebd
000001f0: 372d 44be 4765 a1be 6590 e0be 465d 413b
00000200: 2964 65bc 2f2b 98bc dacf 5c3e f2d2 03bd
00000210: 525f e5bc e708 8dbd 2876 d8bd fd40 843c
00000220: d933 563d e1c0 ad3d 7766 4ebd ef40 a63c
00000230: 9d0a 6ebc 6b07 3a3d df39 80be 0b37 aa3d
00000240: cae2 293d ea1d e2bd 60a4 1ebe 446c c7bd
00000250: 9c9b 203e f61b b9bd dfe8 c73c 6ac6 903c
00000260: dbce 733d 8f41 293e 47cb b63c 99bf 923c
00000270: dd7a 473e e247 aa3d 42ea 30be ea2f e33b
00000280: c941 dbbc 26c1 3e3c 3afd 3d3d dd6d eb3c
00000290: 247e 04be 4b32 3e3e 1428 cb3d 96c3 c63d
000002a0: 9cd9 9fbc 39bd 89bd 1d3c 343c 8c24 2dbe
000002b0: fc10 043e 4c1c f5bc 0992 253c 2dca 48be
000002c0: 62f5 2dbd 6ffe 413e 19ee aa3d e39e 8d3a
000002d0: a6f9 2bbe cfb3 d5bc fbc4 323b 8c10 58be
000002e0: 790f 8dbe ce6e a53d ec30 fe3b ed74 ffbd
000002f0: 301c 41bd f8a0 5e3c 3800 de3b 1621 64be
00000300: e929 acbe bfc0 10bc 8f65 a83d 5c48 21bb
00000310: 3669 4d3d 7dc2 0fbd 663e 1e3e 5ce5 9cbd
00000320: a263 6fbd 6be2 50be 6fd1 81bd ec60 c6bd
00000330: 5520 a4bb d64e cf3d 5885 173e 35c9 01bf
00000340: d1a7 29bc 02d4 9cbe 2249 a33b 519c 9bbe
00000350: 517c dc3d d214 903c 1dc1 54bd 9c9b 933c
00000360: 5c6c 8b3d ce9d 013e 7055 2f3d c98c 283d
00000370: 0466 713d 0e0c d8bc 1883 ecbd 0813 cdbd
00000380: 1da9 1cbe 7008 0abc 7816 aa3b ea14 6cbe
00000390: d9ef 6fbe a078 55be b8b8 8ebc 774c c13d
000003a0: 89a4 d8bc 74b3 ed3b baff d6bc ae23 83bc
000003b0: 177e a5bc 1bbe c93c 5c5d 12be b3a9 a13c
000003c0: 2ca2 473d 0377 f13d 3361 1cbe 968b 403d
000003d0: d987 adbd a05c 38be 1dad 263d 101a 1cbe
000003e0: 2637 3dbd 0c6e d0be f5b1 573d 0856 cabd
000003f0: 3770 623e ff00 14be 6551 c5bd 0ea6 293d
-0.011844246 -0.1976452 -0.054036535 0.040790062 -0.0017343158 -0.112716824 -0.1787209 -0.044690985
-0.03771274 -0.10408003 -0.23097683 0.08926916 0.1480813 -0.09885878 -0.10741311 0.32333365
-0.27445272 -0.047263894 0.023896059 0.18272047 0.09399321 0.26851845 0.08617321 0.02182674
0.134559 -0.080809414 0.19080201 0.1325242 -0.122382775 -0.07569578 -0.18108605 0.005539447
0.104807675 0.029750735 0.0015832626 0.042279825 -0.06345976 -0.18701228 0.0054759 -0.2729454
0.0029516036 0.27061072 -0.07620681 -0.378772 0.0697873 -0.07795938 -0.1914136 -0.1755374
0.0011158533 -0.0025027478 -0.011384169 -0.09569317 0.13368818 0.025559492 0.27519983 -0.06369547
-0.30945978 -0.21712206 -0.24010897 -0.4521063 -0.07926581 0.121269025 -0.043933243 -0.04592644
-0.008994076 -0.30508414 -0.10031893 0.0026260132 -0.11257017 -0.019782819 0.11817955 -0.082231455
0.023910604 0.3009722 -0.09822794 -0.254906 -0.23576371 0.020600354 0.09600206 0.12937675
0.003470094 -0.15430798 -0.22445083 0.103897385 -0.13298745 0.07370411 -0.2547295 -0.10077854
0.18483832 0.20819077 0.22309901 0.094025426 0.33224064 -0.29006624 0.05610069 0.004848173
-0.10224793 0.12878466 -0.036025 -0.18766469 0.097465195 -0.011447142 0.059520047 -0.21872362
0.22210753 -0.056677386 -0.17826705 -0.021704497 0.24235046 0.11867601 0.23628841 0.053227697
-0.0626109 0.09076686 0.2519609 -0.22897036 0.07220414 -0.14704548 -0.13035665 0.053371817
-0.10758714 0.22481596 -0.114490874 -0.04651871 -0.19157873 -0.3152258 -0.43860164 0.0029505058
-0.014000931 -0.018575279 0.21563664 -0.032183595 -0.027999554 -0.068864636 -0.105694115 0.01614427
0.05229554 0.08484054 -0.050390687 0.020294635 -0.014528898 0.04541723 -0.25044152 0.0831128
0.04147605 -0.11040862 -0.15492392 -0.09737447 0.1568436 -0.09038536 0.024403034 0.017672736
0.059523445 0.16528915 0.022313727 0.017913627 0.19480462 0.08314492 -0.17276862 0.006933202
-0.026764767 0.01164273 0.046384074 0.02873891 -0.12938744 0.18573873 0.09919754 0.09705274
-0.019512944 -0.067255445 0.01100066 -0.16908473 0.12897104 -0.02992072 0.010105618 -0.19608374
-0.042470343 0.18944715 0.08346195 0.0010804798 -0.16794452 -0.026086716 0.0027278054 -0.21100062
-0.27550867 0.08077775 0.007757297 -0.12473474 -0.047146022 0.013588183 0.0067749284 -0.22278246
-0.33625725 -0.008835017 0.08222496 -0.002460978 0.050149165 -0.035097588 0.1545349 -0.07660934
-0.058444627 -0.20398872 -0.063387744 -0.09686455 -0.005008737 0.10122459 0.1479696 -0.5069764
-0.010354952 -0.306305 0.0049830833 -0.30392697 0.10765899 0.017588053 -0.05194198 0.018018536
0.06807777 0.12657854 0.04280609 0.04114989 0.05893518 -0.026372936 -0.11548442 -0.100133955
-0.15298887 -0.008424863 0.0051906668 -0.23054853 -0.23431338 -0.20846796 -0.017422065 0.09438413
-0.026445644 0.0072540585 -0.026244987 -0.016008224 -0.020201726 0.024626782 -0.14293426 0.01973424
0.048738644 0.11790278 -0.15271454 0.04700812 -0.084731765 -0.18004084 0.040692437 -0.15244317
-0.04619517 -0.4070896 0.052659947 -0.098796904 0.22113119 -0.14453505 -0.096346654 0.041418128

network.1.conv.0.bias f4 [256]
00000000: 472f 8cbd 4443 01bd cd5d 033d d4d7 593c
00000010: 94ba 40bc fc2e 953d 40c8 413d 7a0b 9d3d
00000020: ed6b 9fbd 21b4 f43c f37e 6fbc f960 25be
00000030: 3b27 b93d 1181 27be bad9 fcbd 6c58 cebd
00000040: 6502 d2bd 499c 5dba d060 0d3d 7249 37be
00000050: 7325 d0bd f9ad 313e b9e5 babd 10c0 19bd
00000060: 6623 80bd cdf8 f93b 8719 2ebe d495 c43c
00000070: 4102 12be 5fd8 033a 92ea 09be 899b c53b
00000080: d37d a6bd da60 75be 4d64 2a3e fb02 c6bd
00000090: 3353 69be 09e8 d7bc 47dd cc3b 406b 34bd
000000a0: 5698 c1bd b8bc 15be 970c 66be dbfb 933d
000000b0: 9289 b93c c6ab 2e3d 19fb febd 2898 f13c
000000c0: e74d a1bd cc8f 423d 01b2 7abd e689 793d
000000d0: cdd4 4ebd 12fb 6fbc da67 89bd 77d0 c0bb
000000e0: d17f 4a3c d3de 13bd efdb 013d 0ebf d73d
000000f0: 4fa0 0dbe 6764 8abd ddc4 5fbc 6606 77bb
00000100: cb5f bc3c 5ca3 783c 2c22 153e 2763 72bd
00000110: 2e05 fdbc bfc1 7fbd e2e1 17bc 104a c7bd
00000120: e1af ec3c 5051 dbbd 2cea 05be bd39 32bc
00000130: 569c f5bc 24bf 61bc 3da7 97bb 893e 433e
00000140: 66c5 fdbd 3289 153d 9863 25be 9571 583d
00000150: 1b5f 34be 148e d9bd 916a 62bd d555 c3bd
00000160: 7b89 f23c 2ec9 82bc 3ab6 3dbc 6cdb ed3d
00000170: 1c6c 643d 8e5e 133e 9c0b 31bd 73fc 27bc
00000180: 38e7 44be 2fd7 e63a 3383 13bd 22e9 9e3e
00000190: bdb9 a43c ed88 8ebd 62ea 6b3d 1466 41be
000001a0: 0bc3 67be 76aa 6bbd b0ee fb3d c9e5 30be
000001b0: 410e 093d 776d 5abd c396 0b3e eb9b 30be
000001c0: 6504 9b3d c85d e33d 0dfc fdbd 5878 893d
000001d0: d87f 6d3d e0f5 e0bc df85 c1bc 4edf 133e
000001e0: bc8f 053c 3008 e9bc 4f27 f63d 515a 073e
000001f0: bc63 f1bd 6a26 33bd 26c9 c83d 96d4 73be
00000200: 6bb7 96bd bd05 f5bd a81a 2abe 4228 1c3d
00000210: 16c0 77bd 7e23 b0bb 3f4b 373c d845 5fbc
00000220: d68d 0b3d 4757 b6bc 4aa9 89bd 8594 a6bc
00000230: 76c4 34bd 4ff6 803c a6bc 04bb f7c4 803c
00000240: 7fb4 ff3c 82f4 b33b bcf3 2dbe 031e af3d
00000250: 90cb 173e ee89 aabd da39 44bd 405b 39be
00000260: 263c c93d b870 9b3e ee0b e43c 8aa9 90bd
00000270: d2cc 8dbc e5e6 6bbb 7f1a 2a3c 9547 25bd
00000280: 44e6 bbbc 82e0 a3bd 1ace 7b3c f6b6 2b3e
00000290: d0e7 c3bc 7089 d63d ab39 f0bb 92e3 6dbd
000002a0: de35 333d 9009 803d f347 a73d 60e4 2cbe
000002b0: cc98 303c a2a2 62be 89ce 363d 8f04 25be
000002c0: 6920 52bd 30fe cebd ffbf 08bd 0bbe b23c
000002d0: 2913 4bbb f126 0bbc d882 ae3c 9b70 01be
000002e0: 1c47 88bc 8b72 adbd 0467 3f3d 79d4 63be
000002f0: 40a9 b7bd 50f0 cd3d e679 cabd 0469 043c
00000300: 6b8a 86bd 5ccf febd da9c 29be f892 873d
00000310: 8b5a aabd 4187 773d 0242 c83d 6125 bbbd
00000320: d6bc b6bd 118e d43d eb41 15be a3a5 113e
00000330: 3971 11bd 82ba e3bc 67d2 45be d8d3 0cbe
00000340: 7468 d9bc f0e8 dab8 5708 40bc f5c1 f0bc
00000350: 1180 38be 9676 0e3c 977a d23c fbc4 8b3d
00000360: 67e3 18be 23c7 833c d55b 81be 39ea 8ebd
00000370: 637e 993b a3f1 18be 6f71 55be f91b bdbd
00000380: 7bb5 093c 55e9 d5bb 8c8b 2b3d 6baf 01be
00000390: 11f8 573d 52e6 073e f3ea 0b3e ea81 51be
000003a0: 8c2e 88bd faf3 1a3e 8a88 9cbd fa39 a9bc
000003b0: 0178 c0bc b47f ec3c 3ce7 74bd 7a13 293e
000003c0: a982 0dbe a7f5 823d e797 f0bd 201e 773c
000003d0: b10f 4e3e 8697 253d 5f35 173d 6d0b e4bb
000003e0: a380 cabd 97e1 cabc 6bc2 83be cd6d e8bc
000003f0: 8774 793d 0bfb ba3d fdd4 87bd abe7 c2bd
-0.06844955 -0.03155829 0.032071877 0.013296086 -0.011763234 0.07284352 0.047310114 0.076682046
-0.07784257 0.029871048 -0.014617669 -0.16150273 0.09040686 -0.16357829 -0.123462155 -0.10075459
-0.10254363 -0.0008453769 0.034516156 -0.17899111 -0.10163393 0.17351522 -0.09125847 -0.03753668
-0.06256752 0.0076285363 -0.17001925 0.023997225 -0.14258672 0.0005029495 -0.13468388 0.006030504
-0.08129468 -0.23962727 0.16639824 -0.09668537 -0.22785644 -0.02635576 0.0062519643 -0.044047594
-0.09452884 -0.14622772 -0.2246574 0.07225772 0.022648606 0.042644285 -0.12450237 0.029491499
-0.07876187 0.047500417 -0.061204914 0.060922526 -0.05049591 -0.014647262 -0.06709261 -0.005884226
0.012359575 -0.036101174 0.031703886 0.10534488 -0.13830684 -0.067574315 -0.013657776 -0.0037693023
0.022994896 0.015175667 0.14563817 -0.05917659 -0.030886259 -0.06244063 -0.009270163 -0.09730923
0.02889246 -0.107088685 -0.1307761 -0.010878024 -0.029981773 -0.013778482 -0.0046280907 0.19066824
-0.123911664 0.036507793 -0.16151273 0.052842695 -0.17614405 -0.106228024 -0.05527741 -0.095378555
0.029606571 -0.01596507 -0.011579091 0.11614117 0.055767164 0.14391539 -0.043223962 -0.01025306
-0.19228828 0.0017611737 -0.036013793 0.3103724 0.020108098 -0.0695971 0.05759657 -0.18886596
-0.22632997 -0.05753561 0.123013854 -0.17275156 0.03346086 -0.05332705 0.1363173 -0.17246978
0.075691976 0.11101872 -0.124015905 0.06712407 0.05798325 -0.027460992 -0.023623405 0.14440653
0.008151945 -0.028446287 0.12019216 0.13218047 -0.11786601 -0.043737806 0.09803991 -0.23811564
-0.07359203 -0.11963985 -0.16611731 0.03812433 -0.06048592 -0.0053753247 0.011187374 -0.013627492
0.034070812 -0.022258414 -0.067217425 -0.020334492 -0.044132672 0.01574245 -0.0020254045 0.01571892
0.031213997 0.005491794 -0.16987509 0.08550646 0.14823747 -0.08327089 -0.047906734 -0.18101215
0.098259255 0.30359435 0.02783772 -0.07063587 -0.01730958 -0.0035995778 0.010382294 -0.04035147
-0.022936948 -0.08001806 0.015368963 0.16769013 -0.023914248 0.10475433 -0.0073310933 -0.058078356
0.043752544 0.06251824 0.0816802 -0.16883993 0.010778617 -0.22132352 0.04463056 -0.1611502
-0.05130044 -0.10107076 -0.033386227 0.021819135 -0.0030986762 -0.008493171 0.021302626 -0.12640612
-0.01663547 -0.08469113 0.046729103 -0.2224902 -0.08967829 0.100556016 -0.098865315 0.008081678
-0.0656937 -0.124418944 -0.1656374 0.06619829 -0.08318051 0.060431723 0.09778215 -0.09137989
-0.08922736 0.103786595 -0.14575927 0.14223342 -0.03550837 -0.027798895 -0.19318543 -0.13752687
-0.026539065 -0.00010438438 -0.011720738 -0.02938936 -0.18017603 0.008695265 0.025693221 0.068246804
-0.14930497 0.016086167 -0.25265375 -0.06978268 0.004684256 -0.14935927 -0.20844053 -0.09233851
0.008405085 -0.0065280595 0.04188113 -0.12664573 0.05272681 0.13271454 0.13663845 -0.20459715
-0.06649503 0.15132132 -0.0764323 -0.020657528 -0.023494722 0.028869487 -0.059790835 0.16511336
-0.13819374 0.06394511 -0.11747723 0.015082866 0.20123173 0.040427707 0.036916133 -0.00695937
-0.09887817 -0.024765773 -0.25734267 -0.02837267 0.060902145 0.09129914 -0.06632421 -0.095168434

network.2.conv.0.weight f4 [128, 256]
00000000: 1805 e13a 3191 c03a 15de 92bc 826e ea3c
00000010: 9368 57bd 0233 b73d 0289 673e cffd 403e
00000020: f27f 8bbd 4220 273c 60ef e0bd 2f41 50bd
00000030: 671f a43d b4ad c23d 1d25 ab3d c548 c4bd
00000040: f9d8 cd3e c381 e6bd 0b28 abbc fc91 943d
00000050: c7ec bc3d 4688 adbc 260f d03d 03e1 e93d
00000060: 0524 6bbe 7aec 883e cb9a 08be b0e3 9f3d
00000070: 5d99 343e c0d7 b6bd accb 423d 5304 58be
00000080: 9ee4 08be a965 a4bd 6f24 793d 021a 8cbd
00000090: 8379 70bd 7560 65bc a569 ee3d 4f59 53bd
000000a0: 9eab 9b3d 2e60 6dbd 3717 0f3c 8e82 bc3d
000000b0: ebe5 f5bd a7fb e3bd 4aab 553e ab5b a1bc
000000c0: 1a4a 5ebe 3db5 d63d 586e 3dbe 1f4f 43bd
000000d0: d059 44bd 342b b5bc 2c4c 0a3d 93cf 25bd
000000e0: 3422 49bd e96c afbd 3967 51be 3f64 febd
000000f0: 557d 763d e150 a9bd 6128 2d3e b49b e0bd
00000100: 83cf 7739 b1b8 d73d fbe4 a1bd a2a2 b2bc
00000110: 403e 33be 28ca 9dbd ef36 d1bd d72d c83d
00000120: 170f 4dbd 7eea ad3a 1ba9 f3bd ab76 38bd
00000130: 466d 443d 25af c93c 83cb 2f3e 140c 56be
00000140: 43c8 8dbe ab0b 123e 528c eebc b6fd cfbc
00000150: 3837 35bd e45c bc3d 440a 7dbc 56ca 063d
00000160: 1eec a9bd e06a 213a 309b 4d3d 9a1a c13d
00000170: 6cb0 f9bd c592 193c 228a 76bd 925d 283d
00000180: 6bd3 a73c 04e6 023d 106b 953c 20c9 343e
00000190: c8d7 303d 5801 df3d f617 10bd 7a98 c23d
000001a0: ad67 7c3d 36da be3d 0754 153d d860 583d
000001b0: 3b6a 913d 259b 65be 062c ddbd 808e c43d
000001c0: 2250 d8bd 61ff ac3c 70a9 033e a6a2 0cbd
000001d0: 21c9 d13b 6817 86be 1b85 ae3d bb7c 903c
000001e0: 801a d2bd 5870 3dbe 71e3 24be 61a3 97bd
000001f0: fe70 a83d 587c e33b e40a ffbd 0c8a 023e
00000200: 4606 c13d 3d80 523e c87f 2e3e 96c8 10be
00000210: 37b3 63bd b4a0 f83d 03e2 c8bd 5ecb 913d
00000220: b915 0b3d 45ea 09bc 2f72 f7bb 808e 0a3e
00000230: 4671 e83d 9f20 ce3c 684c 48bd 2787 e6bd
00000240: 7230 3f3d d79c 2bbe b8a0 373d 734b f3bc
00000250: b4c0 1abe 6490 96bb b603 71bb e408 11be
00000260: 09bc 61bd bedd 73bd 003c 623c c293 ab3d
00000270: da05 453e e263 e7bd 1a86 f03c c964 2cbe
00000280: f396 653e 9029 3e3c 9564 2d3e fcac 3fbd
00000290: cc45 87bd 4d6b 13be 713e a93d 3c4b 9dbd
000002a0: 13f1 eeba 906f 02be fd56 8ebd 5d5b ccbc
000002b0: 6c27 d43c 2b23 b3bd ca1a 0d3e e789 e13b
000002c0: 65a8 d6bd 019d fdbd 62e9 133e baf6 b83d
000002d0: a59b 523d a24a 7abd 8643 053e f315 7cbd
000002e0: 3c2a 36bd 782f 8fbd 6f47 debd 4892 3cbd
000002f0: e3c1 37bd 4dd1 6c3c 6198 cb3d 0fc6 a3bd
00000300: b47b 233e ec38 4bbe cefb 62be 7d69 3ebe
00000310: d2fa ef3d be49 843d 4054 f03d 3664 b7bd
00000320: f574 0b3e 31a3 d9bb d044 373e cef4 9cbc
00000330: 8c07 8e3c 3630 7bbd 4b9c ad3c 2321 153e
00000340: 07b4 9ebd 0216 eebc 2b7b 4dbe 188f 88bd
00000350: be03 c33b 85f4 fdbc 6eb5 05be 201a 423d
00000360: 3c6f eabc 09ad 3b3d 0994 0fbe 03b7 f43d
00000370: 583a c5bd 9ac1 1bbe 17ed 9b3d cdf9 90be
00000380: 836f 42be fef7 65bc 22bf 4dbd 6c25 05be
00000390: 99ab 15bd 3321 0bbe fe85 4fbd c7e9 c1bd
000003a0: 8770 ca3c 9afe 2b3e 5f94 df3d 732a 26bd
000003b0: 800b 9cbc 9819 0bbe 6672 9d3e 9e25 883c
000003c0: 87e4 edbd a381 bebd 3b1e 70be 545b 7bbd
000003d0: 9766 e3bd b2b2 c83d 8091 4fbd 9ef4 a6bc
000003e0: 3ae1 a33b dc33 4c3e 7ea6 393e 052b 15bd
000003f0: 8d2e 7c3c 6aeb 0abd fdd5 c33d e124 93bd
0.0017167656 0.0014691708 -0.017928163 0.028617147 -0.052589964 0.08945276 0.22610858 0.1884682
-0.06811513 0.010200562 -0.10983157 -0.050843414 0.08013802 0.095057875 0.08356688 -0.09584192
0.402046 -0.11255219 -0.020893117 0.07254407 0.09224849 -0.021183144 0.10159139 0.11419871
-0.22962959 0.26742917 -0.13340299 0.078071 0.17636628 -0.0892787 0.047557518 -0.210954
-0.1336846 -0.08027203 0.06082576 -0.06840898 -0.058709633 -0.014000048 0.11641244 -0.051598843
0.07601093 -0.057953052 0.008733562 0.09204589 -0.12006744 -0.11131983 0.20866123 -0.019697031
-0.21707955 0.10483787 -0.18499124 -0.047682878 -0.047937214 -0.022115327 0.03376405 -0.04048116
-0.049104884 -0.08565695 -0.20449533 -0.12421464 0.06017812 -0.082673796 0.16909935 -0.10967198
0.0002363306 0.10533274 -0.07905003 -0.021806065 -0.17504215 -0.07704574 -0.10215556 0.09774368
-0.05006322 0.0013268737 -0.11897489 -0.045035046 0.047955774 0.024619648 0.17167477 -0.20903045
-0.2769185 0.14262263 -0.029119644 -0.025389533 -0.044242114 0.09197405 -0.015444342 0.032907806
-0.08296989 0.0006157588 0.050196826 0.09428902 -0.12191853 0.0093733715 -0.060190327 0.04110486
0.020486554 0.03195764 0.018239528 0.17654848 0.043174535 0.10888928 -0.0351791 0.09501739
0.06162231 0.09318964 0.036457088 0.052826732 0.0710034 -0.22422464 -0.107994124 0.09597492
-0.10562159 0.021117868 0.12857604 -0.0343348 0.0064021503 -0.26189733 0.085214816 0.017637601
-0.10258961 -0.18499887 -0.16102387 -0.07404209 0.082246765 0.006942313 -0.12453249 0.12747973
0.09425025 0.20556732 0.17040932 -0.14139017 -0.055590834 0.12140027 -0.09808733 0.07118867
0.033956263 -0.008417671 -0.0075514535 0.13530922 0.1134973 0.02516204 -0.04890099 -0.11256247
0.04667706 -0.16759048 0.044831008 -0.029699063 -0.15112573 -0.0045948494 -0.0036775894 -0.14163548
-0.055110965 -0.05953764 0.01380825 0.08377792 0.19240513 -0.11298348 0.02936082 -0.16835321
0.22420864 0.011606589 0.169329 -0.04679583 -0.066051096 -0.14396401 0.08263863 -0.076803654
-0.0018229805 -0.1273787 -0.069501854 -0.02494591 0.025897704 -0.08746942 0.1377975 0.0068828943
-0.104813375 -0.12383462 0.14444497 0.09031434 0.051417965 -0.06110633 0.1301404 -0.06154437
-0.04447387 -0.06991476 -0.108534686 -0.046037942 -0.04486264 0.014454198 0.09941173 -0.07996761
0.15965158 -0.19845933 -0.22166368 -0.18594928 0.11717762 0.06459378 0.117348194 -0.089546606
0.13618834 -0.0066417684 0.17897344 -0.0191597 0.017337583 -0.061325274 0.02119269 0.14563422
-0.07749181 -0.029063229 -0.20066516 -0.06667918 0.005951374 -0.031000385 -0.13057491 0.047388196
-0.028617494 0.045819316 -0.14021315 0.11948969 -0.09630269 -0.15210572 0.07613581 -0.28315583
-0.18987851 -0.014036177 -0.050231107 -0.13002557 -0.0365406 -0.13586883 -0.050664894 -0.094684176
0.02471186 0.16796342 0.109169714 -0.040567826 -0.019048452 -0.13583982 0.30751342 0.0166195
-0.11615854 -0.0930207 -0.23449032 -0.061366394 -0.11103552 0.097997084 -0.05067587 -0.020380314
0.0050012143 0.19941658 0.18129918 -0.03641798 0.015391958 -0.033915915 0.095622994 -0.071847685

network.2.conv.0.bias f4 [128]
00000000: 1ac8 62be 7093 9ebc d497 1bbe 32f8 b43d
00000010: 3d68 29be 6a43 44be dd62 283e f2ec 9aba
00000020: 732a 95bd a943 df3c a9e1 debc 8697 563d
00000030: 2ad1 093d 0bc3 ca3d 610b 7bbd 1570 573d
00000040: 90f3 133d 0e11 c9bc 096e c3bd 2755 98be
00000050: a8e9 02be bd5f 853b 7a4d eabb 1957 cdbd
00000060: 761f cebd eebc ffbd 1378 bfbc 2e1a fabd
00000070: 5589 54bd 17a5 93bd b66f b13d f8d0 4bbe
00000080: ba28 9fbd 3235 70be 6668 8fbd 0689 423c
00000090: 71fb 3fbd f588 58be e5bc c73c 0e7e a2bc
000000a0: a49d 02be 10fa ce3c 8563 1c3d b5f4 4abe
000000b0: d717 f2bd 2519 f63c 571d a13d 9194 efbd
000000c0: b39c 60be 3929 f03c f288 0bbd a1e4 3abb
000000d0: 7432 6fbd f94f d43d bd41 b7bc bd8f d73d
000000e0: 420c 073c 9f8f 1bbd 9e89 2cbe cfff 96be
000000f0: b31c 8fbe 8e50 bb3c dad3 bebd 7d11 183e
00000100: a402 e53b 3d53 143e 221d 53be 317c 2e3e
00000110: 8518 88bd 5d5e b63c 38df ddbd 61b7 8dbd
00000120: 3cd0 3c3e 9fde 0b3b c32e 6e3c 4e16 e03c
00000130: 88cf 1bbe 7156 b83d 10e6 f23d ed20 633d
00000140: 5b3c 063c 704d 63be 41ad 70bd e6f3 203e
00000150: cb0b 51bd 9ce3 ce3c 2e02 39be 0fe7 aa3d
00000160: d32b 213d 0fc9 7e3d cf23 dabd 4766 36be
00000170: d89d eabd 1d19 dabd e946 993b 9b84 5ebd
00000180: a2b0 36bd a0af e6bd f2ab 953d 71cb e03d
00000190: 50e0 e7bd 92db ffbd d18f 0d3c 1bbd 1b3d
000001a0: ac1d d9bc ed6f a83d 88f8 d9bd e494 c8bc
000001b0: 15c4 42be 4ff4 1ebe e167 5cbe 9845 883c
000001c0: f88e a63c 0f10 78bb 1265 d7bd c80f fbbd
000001d0: 38e5 13be 053b 47be fb34 e0bd 359b 42bd
000001e0: 7d38 363c a324 92be fce2 58bd 2be7 49be
000001f0: 2094 e8bd d410 55be 255e 4c3c c0bf 6abc
-0.22146645 -0.019357413 -0.15194637 0.08836402 -0.1654367 -0.19166341 0.16443963 -0.0011819883
-0.07283487 0.027253943 -0.027207213 0.052390598 0.03364674 0.09900483 -0.06129015 0.052597124
0.03612095 -0.024544265 -0.09542472 -0.29752466 -0.12784445 0.004070251 -0.007150349 -0.10026378
-0.100645944 -0.12487207 -0.023372686 -0.12212025 -0.051888783 -0.07209223 0.08663885 -0.19903934
-0.0777144 -0.23457792 -0.07002334 0.011873489 -0.046870653 -0.21145995 0.024382064 -0.019835498
-0.12755448 0.025265723 0.038180847 -0.19819911 -0.11820953 0.030041287 0.07866924 -0.11698259
-0.21934776 0.029316531 -0.034066148 -0.002851762 -0.058397725 0.10366816 -0.022370214 0.10525463
0.008242669 -0.037978765 -0.16849372 -0.2949204 -0.27951583 0.02286556 -0.09317751 0.14850421
0.00698884 0.14484878 -0.20616582 0.17039563 -0.06645302 0.022261793 -0.10833591 -0.069197424
0.1843881 0.002134241 0.014537516 0.027354386 -0.15215886 0.090008624 0.11860287 0.055451322
0.008193101 -0.22197509 -0.058758978 0.1571804 -0.051036637 0.025255017 -0.18067238 0.08344852
0.039348435 0.062203463 -0.10651361 -0.17812453 -0.114558876 -0.10649321 0.0046776426 -0.05432568
-0.044602044 -0.112639666 0.073081866 0.10976303 -0.11322081 -0.124930516 0.008640246 0.038022142
-0.026503406 0.08224473 -0.10643107 -0.02448506 -0.19020112 -0.15522884 -0.21524002 0.016634747
0.020331845 -0.0037851369 -0.105173245 -0.122588694 -0.14442909 -0.19456108 -0.10947605 -0.0475113
0.011121866 -0.28543577 -0.052950844 -0.1971709 -0.113563776 -0.208072 0.012473618 -0.014327943

network.3.weight f4 [2, 128]
00000000: 4911 debb 997b 39bb 2dc3 f5bd 7b41 5d3d
00000010: 74b6 213b 550e 16be 1730 3e3e eb40 a9bc
00000020: b257 ae3c 7f46 073d 0797 273a cf00 0ebc
00000030: a975 103d 5c44 6abc ebd1 953b 6d15 33bc
00000040: d0a5 bbbd da00 16bd 4fa6 ecbd f66f ef3d
00000050: ed5c 883c 6f7d 65bc ed1a 12bc 8020 abbd
00000060: 07a9 503e 9342 4cbd f175 133d e775 dc3c
00000070: 2187 a3bc 7f5a d13d c0ab 95bc 742c 793d
00000080: 31fd bb3d 1599 3cbe 453f 723d 1bf9 0d3e
00000090: b10d 11bc c0bd 80be c9ba 46be a47d c8bd
000000a0: e79e e53d cc8e 633d e260 283d 498b eebc
000000b0: f80a d13d 4e1a 87bd f8ab b03d c0ae 4c3d
000000c0: a16a 13be 8d79 acbd 9d12 263d b6b9 733c
000000d0: df9c 803d 13c2 5bbd 4e67 d4bc d771 1ebe
000000e0: f499 5dbc db48 38bb 7d17 f03d bbf3 35bd
000000f0: 1df1 65bc 8772 103e b034 01bd 39fc 8cbd
00000100: 859f 463e 613c a6bc 412a 193e 7f22 2abe
00000110: 00d2 1c3b 607a 303e fbfb bdbd 193e 4d3d
00000120: 6d24 9b3c 0f50 47be 2c28 b23c 618d 323e
00000130: 2d93 46bd 76f7 20bd 486e 8dbd bd4b 343b
00000140: 4155 82bd 546d ffb8 ce9d ad3c baef d8bc
00000150: d3c2 bf3d 4871 353d 1bf7 f93c 059f 52be
00000160: bd3d 923c f7ed e93d af42 7e3c fb3d 8b3b
00000170: e6cf 5cbe a74d 01be 4009 35bd feac dc3b
00000180: a196 c83c 8d27 bdbc 0795 15bd b205 69bc
00000190: b65f c73d 1b00 8fbc a934 493e 19de 69bb
000001a0: 2dc0 9c3d 58a2 353e 09f7 22bc 8313 33bd
000001b0: a9ba a2bc 85a5 88bd d4cf 4dbd c3ba 503d
000001c0: 3e24 a63d 98cc 363e 5670 013e ebb7 04be
000001d0: 5750 65bb b5bb 1f3d 03c1 1ebe 16bb 263d
000001e0: f3e5 003e fcd3 46be 9762 4d3e cccc 83bd
000001f0: 87a8 183e e327 37be 6eee deba e48e e9bc
00000200: d66f 21be 900a 8e3d 34b4 f03c 1f9e a9bd
00000210: 58f3 d93d 8571 2fbe 0d94 c7bc c950 8ebc
00000220: 95d1 6cbd ecb8 ce3d b0c8 54bb 304e 77bd
00000230: 5148 6e3d d36c 773c 7e8c bebb d3b8 893c
00000240: b055 98bd 8076 673d 9a6c e6bd ed8f 0b3e
00000250: b912 c0bd 79c8 e73d 100c 9f3c ab88 b83d
00000260: 6e3f 033e 66b8 b33d 3041 05be ff55 9fbd
00000270: c4f4 cf3d cc40 743d bc34 fa3c 341f 94bd
00000280: be75 a2bd 0c7a f83d 0799 2e3e 4a1a bbbd
00000290: 581d b43d e8c9 253d 6dad 483d 2e87 35be
000002a0: de30 0fbe 0017 863d 1ebb 8cbd 1572 363c
000002b0: bd86 cf3b 4612 5d3e f6e0 7e3e ce36 923c
000002c0: 8664 bcbd aed2 e5bd 15b5 003d cc23 163d
000002d0: 95cc c53d 4960 253e d458 82bb 1f14 063e
000002e0: 78b9 1f3d eee3 083c 88a0 d33d fb18 26be
000002f0: a0ac cbbc 3aad a1bd b30b 663d 0837 8cbe
00000300: 37e9 82bd e713 2f3d 2aea 713d 1480 c43c
00000310: 7d23 9a3d ba1c 93be beeb 193e 04db 193d
00000320: 892b ba3d 700c 493d b8c2 a1bd 6717 05bd
00000330: 19f5 d83d 6563 0f3e daa8 523e 9f5d 53bd
00000340: f679 c03e 1bb9 523c 39aa a33d b154 ac3d
00000350: 1231 69bb c493 e4bb 5e24 1abe 67e3 8bbb
00000360: 01a2 d1bd a411 47be a831 743d a418 a83d
00000370: 66ef 373e c211 f33d b679 6d3e af91 eabc
00000380: 5817 983d e7a2 173e 4692 523d 561b 33bd
00000390: 97d5 b03d 6444 8f3d 6d2a 48bd b9f4 483d
000003a0: 2d1b 663d 06a7 a4bd 52da 993e a26e 993d
000003b0: 0335 ad3d a3ba 893d 7be6 343d 4888 9d3b
000003c0: 0c0a a1bd f04a 6cbe 511f bd3d c0d0 3abe
000003d0: 46d5 55bd 011f a93d 3619 183e 10ab 0b3e
000003e0: 2f88 b63d 6206 d73d b283 42be 8efd 04be
000003f0: 8e2b f1bc dd93 03be 42f0 f6bc 49bf 0c3e
-0.006776963 -0.002830243 -0.120001175 0.054017525 0.00246754 -0.14653905 0.18573032 -0.020660838
0.02128205 0.033026215 0.0006393049 -0.008667185 0.03526846 -0.014298525 0.0045721433 -0.010930401
-0.091624856 -0.036621906 -0.11555158 0.11691277 0.016645873 -0.0140069565 -0.008917552 -0.08355808
0.20376979 -0.049868178 0.03600115 0.026911689 -0.019961895 0.10222339 -0.018270373 0.06083341
0.09179152 -0.18417771 0.05914237 0.13864557 -0.008853362 -0.25144768 -0.1940719 -0.09789589
0.11211949 0.055556104 0.04110802 -0.02911915 0.1020717 -0.06596814 0.086265504 0.049971342
-0.14396144 -0.084216215 0.040545095 0.01487582 0.06279921 -0.05365188 -0.025928166 -0.15473114
-0.013525475 -0.0028119597 0.1172323 -0.044421893 -0.014034537 0.14106189 -0.031544387 -0.06884045
0.1939679 -0.020292463 0.14957525 -0.16614722 0.002392888 0.17234182 -0.09276577 0.05010805
0.018938268 -0.19464134 0.021747671 0.17436744 -0.0484802 -0.039298497 -0.069058 0.0027510964
-0.06363917 -0.000121797115 0.021193411 -0.026481498 0.09363332 0.044297487 0.030513337 -0.20568474
0.017851705 0.11422341 0.015518828 0.004249332 -0.21563682 -0.12627278 -0.044198275 0.0067344895
0.024485888 -0.023090148 -0.036519077 -0.014222549 0.09735052 -0.017456105 0.19648995 -0.003568536
0.07653842 0.1773771 -0.009946593 -0.04371978 -0.019864397 -0.06672195 -0.05024703 0.05095936
0.081123814 0.17851484 0.12640509 -0.12960784 -0.0034990513 0.03899737 -0.15503316 0.040705763
0.12587719 -0.19416803 0.2005714 -0.06435546 0.14908038 -0.1788631 -0.0017008313 -0.028510518
-0.15765318 0.069356084 0.029382803 -0.08282112 0.10642117 -0.17133148 -0.024362588 -0.017372506
-0.05781706 0.10093865 -0.0032468252 -0.0603773 0.058174435 0.015101629 -0.005815088 0.016811764
-0.074382186 0.056509495 -0.11251183 0.13629122 -0.09378571 0.11317534 0.019414932 0.09010442
0.12817165 0.087754056 -0.13013148 -0.07780074 0.10154107 0.059632108 0.030542724 -0.07232514
-0.07932614 0.121326536 0.17050563 -0.091358736 0.087946594 0.040475756 0.048993517 -0.17727348
-0.13983485 0.06547356 -0.06871627 0.011135598 0.0063332007 0.21589002 0.24890503 0.017848399
-0.09198861 -0.112218246 0.031422693 0.036655232 0.096581616 0.16150011 -0.0039778743 0.13093613
0.038995236 0.008355124 0.10333353 -0.16220467 -0.024862587 -0.078943685 0.0561635 -0.27385736
-0.063921385 0.04274359 0.059061207 0.023986854 0.075263 -0.28732854 0.15031335 0.037562385
0.09090335 0.049084127 -0.07898468 -0.03249302 0.10593624 0.1400276 0.20572224 -0.051602956
0.3759305 0.012861515 0.07991452 0.08414591 -0.0035582227 -0.006975623 -0.15052935 -0.004269052
-0.10235978 -0.19440323 0.05961767 0.08207825 0.17962417 0.118686214 0.2319096 -0.02863392
0.074263275 0.14808236 0.05140903 -0.04372724 0.08634489 0.06995466 -0.048868585 0.04906151
0.05617826 -0.0803967 0.30049378 0.07491805 0.08457377 0.06725051 0.044165116 0.0048075058
-0.078632444 -0.23075461 0.09234489 -0.18243694 -0.052205347 0.08257867 0.14853367 0.13639474
0.08912694 0.10499264 -0.1899555 -0.12987348 -0.029439714 -0.12849374 -0.03014386 0.13744844

network.3.bias f4 [2]
00000000: 22a2 62bd 6d00 6e3e
-0.055330403 0.2324235

encoder.0.conv.0.weight f4 [80, 150]
00000000: ff2d 9d3d aa83 20be b4ac f03d d1ac 353d
00000010: 6f68 a5bc f69c e73c 3992 063d e2c2 293d
00000020: 3a2e 1bbe 1d3a 2dbd 4dbf b8bc 9265 f93c
00000030: 4fdf adbc bd47 d53d 893a b33d 2976 02bd
00000040: f0b2 83bd c2cb 983d bcef 573d 9948 753c
00000050: afbc 07be bf8a 473d 6264 13be 34ba 2b3e
00000060: cb73 c93b 15c3 bbbd bdc8 24bd 212a 0dbc
00000070: c099 8b3d d7a4 ab3c 11e4 d7bd ab8a 92bc
00000080: 6f7d 5f3d 3de9 0fbc f6c7 d0bd 11a4 1ebd
00000090: 7520 a13d 010c 57bd c7b1 e9bd 5341 61bc
000000a0: 8d00 8a3c b14f 84bd 7044 2e3d 1a82 463d
000000b0: 638a 8cbd 4ee4 33bc c43b 1f3d 29d9 85bd
000000c0: 8f7f 72bd ddb3 8b3c c311 15bd 6f66 34bd
000000d0: ef94 15be 2483 523d b777 78bd 8970 c23d
000000e0: 2f1a ebbd d1b4 c13d d823 a2bd c6fa f1bd
000000f0: 5b88 0abe 7c5e 3e3d baf7 3bbd d081 2a3e
00000100: f629 1f3d 37f1 073d c41d 733d b03e aebd
00000110: 1e28 c7bd 5ed4 9c3d 8ca2 e4bc e5c4 81be
00000120: 402a a6bd da00 6abe 2901 783d 3583 273d
00000130: 7ec8 ecbc a6d1 02bd 0707 f23d 725a 1fbc
00000140: 9f61 2fbe bded febd efae 853d e2c8 d93d
00000150: 5551 b53d 17d9 3e3d ea1f 473e 2e35 94bd
00000160: eae0 193e 3e8f a3bd 38d6 4f3b 39cb 56bc
00000170: de98 6cbd b5ab f23d 21c5 1ebc 22fe 57be
00000180: a1b9 b7bd f894 b6bd 2c8b 1f3c b2cc 56be
00000190: e722 983d 3b0b 7c3c 5f2b 0a3e 0179 0fbe
000001a0: 53cb 573c 30c8 3dbd ee0f 373e 0eca 533c
000001b0: 276f 5ebd 2e47 e2bd a7be 663d 80a0 6f3e
000001c0: c447 5abc 4e20 bcbd 7ba4 1cbd 570e 7d3d
000001d0: ea17 79bd 8f37 72bb a074 8f3d 082a aebd
000001e0: 9dc3 d43d 61b4 3cbe c798 783e d48b 14be
000001f0: 6916 7e3e 4e79 65be 7df2 97bd 646b 3d3e
00000200: 28d8 e7bd 16e1 1ebe ff57 c2bd e537 a0bc
00000210: e590 663d 60ee 17bd 854a b4bd 28a3 8b3d
00000220: 1345 2d3d 1745 cfbc dd1a 28be a1f0 8d3d
00000230: 78b7 35bc e977 2abe e1cb 043e 8663 dabd
00000240: be88 2e3d 4c19 2fbd 8517 26be 757f de3d
00000250: 996d f13c 818f f43c e7a0 18bd b9af 9abd
00000260: 4da4 9e3d 2304 513e 8fee b2bd 3bb2 a63d
00000270: e961 41be 31a3 60bd a0cc 313d a707 943d
00000280: 8946 3f3e ba75 32be a419 8abd 6075 9f3d
00000290: 002c efbc f143 093d 4924 fabd c4d1 703d
000002a0: ffd1 a13d fc8f 313d 43a3 123e a847 203e
000002b0: e03a 85bd 5de8 d6bd 97e1 653c 54ab 203d
000002c0: e664 843d e5d6 be3d ac43 3a3e 947a 253e
000002d0: 64e5 40bd dd65 393c 3dfb 943d 3bf1 93bc
000002e0: 20ac d5bd 06a9 c53d ece5 2cbe 72c3 fcbd
000002f0: 2d3e 873d 9770 8fbd 5421 4dbe 1216 92bc
00000300: 9bbc acbc ab18 673d de69 e13d 9ffc 6ebd
00000310: ec75 6abc ba72 8e3d 49d2 fe3b 43d1 203d
00000320: 827b e63c 461b 3fbd a104 09bd 80c5 3bbc
00000330: 3f69 34be fd4c ed3d 9f78 90ba 751c 1a3e
00000340: d3ba 483e 9f34 853d 5271 36be 1f33 8bbc
00000350: 7762 f2bc 35f3 8cbc 2574 a3bd 94af ee3d
00000360: 6906 e63d 464d bf3d 3562 aabd 3ea5 c73d
00000370: 52bb d43b db57 6dbd 6f01 4b3d 4ef2 b13c
00000380: db39 ba3d d56b 183d 8473 a5bd 8185 14bd
00000390: 2962 bcbc 15a2 bcbd 28d7 8abd 49b3 06be
000003a0: 4cb4 813d 7442 99bc ff43 9ebd f8dd bb3c
000003b0: 1f78 af3c df82 193e 2526 473e 58e7 493e
000003c0: a677 933e 2854 cc3d de21 42bd 382c 133e
000003d0: 5240 f53d 0a45 193e 6938 85bd f2b2 d3bc
000003e0: b918 893d 34aa 743d c53a 723d 1cab 2bbe
000003f0: 7240 1abd 941b 30be 3cac 573e 2b9f f4bd
0.07674789 -0.15675226 0.117516905 0.044354264 -0.0201914 0.028273087 0.032854293 0.04144562
-0.15154353 -0.04229175 -0.022552157 0.03044394 -0.021224646 0.104140736 0.08751399 -0.031850968
-0.06430614 0.07460739 0.052718863 0.014970922 -0.13255571 0.048716303 -0.14393762 0.1677025
0.006147837 -0.09168068 -0.0402305 -0.008616001 0.06816435 0.020952625 -0.10541547 -0.017888388
0.054562982 -0.008783636 -0.101943895 -0.038730685 0.07867519 -0.052501682 -0.114108615 -0.013748485
0.016845966 -0.064605124 0.042545736 0.04846392 -0.06862333 -0.010979725 0.038875356 -0.06535561
-0.05920368 0.017053539 -0.036393892 -0.044043 -0.14607595 0.051394597 -0.060661044 0.09494121
-0.114796035 0.09458316 -0.07916993 -0.11815409 -0.13528578 0.046476826 -0.045890547 0.16651082
0.038858376 0.033189025 0.05935456 -0.085080504 -0.097244486 0.07657693 -0.02790954 -0.2534553
-0.08113527 -0.22851887 0.06054798 0.040896613 -0.028904196 -0.031938218 0.118177466 -0.009726154
-0.17127083 -0.12447689 0.065275066 0.106340185 0.088534035 0.04659375 0.19445768 -0.07236706
0.15027204 -0.07986306 0.0031713378 -0.0131099755 -0.057762973 0.11849157 -0.009690554 -0.21093038
-0.08970953 -0.08915132 0.009737771 -0.20976523 0.07428532 0.015383537 0.13493107 -0.14011003
0.013171035 -0.04633349 0.1787717 0.012926592 -0.054305222 -0.11048733 0.056334164 0.2340107
-0.013322774 -0.09185849 -0.0382428 0.061781254 -0.06081382 -0.0036959385 0.07004666 -0.085041106
0.10388873 -0.18428184 0.2427703 -0.14506465 0.24813236 -0.22409555 -0.07419298 0.18497998
-0.113205254 -0.15515551 -0.0948944 -0.019557903 0.056290526 -0.037092566 -0.08803276 0.06818229
0.042302202 -0.0253015 -0.16416498 0.06930662 -0.011091106 -0.16647305 0.12968399 -0.10663514
0.042610876 -0.042748734 -0.1621991 0.10864154 0.029471206 0.029853584 -0.037262823 -0.07553048
0.07746182 0.20411734 -0.08736908 0.081394635 -0.18885006 -0.05484313 0.043408036 0.07228022
0.18679251 -0.17427722 -0.06743172 0.077860594 -0.029195786 0.03351206 -0.12213952 0.058793798
0.07901382 0.043350205 0.14320092 0.15652335 -0.0650537 -0.104935385 0.014030836 0.03922589
0.06464557 0.09318332 0.18189877 0.16160041 -0.047093764 0.01131579 0.072744824 -0.018059364
-0.10433221 0.09651379 -0.16884583 -0.12341966 0.06603656 -0.07003897 -0.20032245 -0.01783279
-0.021086028 0.05642001 0.11006521 -0.058346387 -0.014310341 0.06955476 0.007776533 0.039262068
0.028135065 -0.04665687 -0.03345168 -0.011460662 -0.17618273 0.1158695 -0.0011022276 0.15049918
0.19602518 0.06504177 -0.17816666 -0.01699215 -0.029587967 -0.017205814 -0.07981137 0.116545826
0.112316914 0.093409106 -0.08319513 0.09748314 0.006492057 -0.057945114 0.049561914 0.021721985
0.09093066 0.03721221 -0.080786735 -0.03626013 -0.022996025 -0.09210602 -0.06779319 -0.1315433
0.06333217 -0.018708445 -0.07727813 0.022932991 0.021419583 0.1499133 0.19448145 0.19717157
0.28802222 0.09976989 -0.04739558 0.14372337 0.11975159 0.14967743 -0.065049 -0.025842164
0.066941686 0.05973263 0.05913808 -0.16764492 -0.037659116 -0.1719802 0.21061796 -0.119444214

encoder.0.conv.0.bias f4 [80]
00000000: b7e9 d9ba b53c 3f3d 6bcf 9a3d 5ae1 f7bd
00000010: 8293 d03d 25d8 203c 5265 c1bc b2f6 5b3e
00000020: 0b74 16be 8aa2 333c 8794 0dbc 16ad c83c
00000030: 98f7 0fbe abd5 fbbd f728 e73c eb8a 64be
00000040: 40d9 553d e99b 39bc 3339 4ebe 1b77 b13c
00000050: b57e 75bd abb8 0e3e ee7b 5a3e d878 02be
00000060: 5633 423e f17f 7b3d 065e 693c bf5a 393c
00000070: 2bcb a5bd 9121 10be 7399 043c b550 84bc
00000080: d8c1 91bd f7b3 c93c 42e8 ca3d 6c9a 96bd
00000090: 9799 ffbd 3b8d 57be 8bfd dd3d 0a93 ef3d
000000a0: d372 1fbc b874 4fbd 34b7 82bd 1eb1 613e
000000b0: 1023 863d 82c9 32bd b85d 273d ff32 00be
000000c0: 034f eb3d b825 233e 698d 593d 47e5 093e
000000d0: 6b99 f3bd fabc f03c c8ea a83c 7c7a 4c3d
000000e0: 634b a3bd 2f28 4a3e a617 4abc c893 633e
000000f0: 3eaa 183e 717d 6e3a 588e 1abd a1d5 c03b
00000100: 9d84 8fbd 0cc4 5f3e 1039 3b3d 43c6 f83d
00000110: 2396 383d c476 23be ee8f 08be c854 efbd
00000120: 8be9 573d 0040 3f3e 483f c3bd 4333 ab3d
00000130: a3b1 8a3d 9e7d c5bd cf86 8f3d 6c9e 293d
-0.0016625439 0.046688754 0.07559093 -0.12103529 0.10184385 0.009817158 -0.023607884 0.21480826
-0.14692704 0.010964045 -0.008641369 0.024496596 -0.14059293 -0.12296613 0.028217776 -0.22318618
0.05220914 -0.011328676 -0.20139007 0.02166324 -0.05993529 0.13937633 0.21336338 -0.1274141
0.18964896 0.06140131 0.014243608 0.011313139 -0.08095392 -0.14075305 0.008093226 -0.016151765
-0.07117051 0.024621947 0.09907581 -0.073536724 -0.12480467 -0.21049969 0.10839375 0.11697967
-0.009731966 -0.05064842 -0.063825995 0.22040221 0.065496564 -0.043649204 0.04086086 -0.12519453
0.1148968 0.15932357 0.053113375 0.13466369 -0.118944965 0.029386986 0.020619765 0.049921498
-0.07973363 0.19741891 -0.01233474 0.22224343 0.14908692 0.0009097672 -0.037733406 0.0058848416
-0.07007716 0.2185213 0.045708716 0.121471904 0.045065057 -0.15963274 -0.13336155 -0.116860926
0.05271296 0.18676758 -0.09533554 0.08359387 0.06772163 -0.096431 0.070081346 0.04141085
