exomy/config/best_run_no_obstacles405k/checkpoints/600000_policy.pt (torch, 723582 bytes, 13 tensors)

log_std_parameter f4 [2]
-1.394853 -0.8182198
00000000: 8b8a b2bf da76 51bf

network.0.conv.0.weight f4 [512, 5]
0.41552326 -0.27834108 -0.0017876549 -0.08139762 0.16602008 0.16159488 0.17279857 0.14147756
-0.07727071 -0.011493034 -0.020090552 0.0072962926 0.010067817 -0.25415552 0.057578485 0.09812407
-0.15536553 0.1382868 0.06327737 0.1700941 0.05215973 -0.012371635 0.082452394 0.19275008
0.12581505 0.23652892 0.47089562 0.015320338 -0.17199655 -0.027814725 -0.2830084 -0.040134367
0.055009138 -0.021665666 -0.060733583 0.0064151688 -0.033481836 0.048419155 0.095090486 -0.073632
0.084801726 -0.5372864 -0.0052382443 -0.043788012 -0.020454518 -0.19537659 -0.21461315 -0.17259514
0.031374168 -0.1882414 0.013994385 0.46294993 0.0679477 0.16959614 0.0029541685 -0.018471668
0.22061506 -0.024617523 0.13806011 -0.07041405 0.275424 -0.12306532 0.0792971 0.031247731
0.12752973 0.288098 -0.40750703 -0.009384409 0.1953302 0.008031695 -0.06334399 0.0018455754
-0.003094049 0.08333093 0.15233283 -0.23695405 0.4434018 0.0496103 0.15718366 -0.033174805
0.24261463 0.5632259 0.045086473 -0.14921504 0.1479129 -0.16699988 0.17423746 0.08343629
-0.11468522 0.048407566 0.26535323 0.16047087 -0.051977813 0.009422096 0.036050748 -0.50589126
-0.3787059 -0.0150804855 0.051687278 -0.037449095 -0.23150697 0.025528904 -0.05794076 -0.015914375
0.078033246 -0.33614028 0.28317282 -0.051757768 -0.26309672 0.22361313 -0.12189618 -0.1235408
0.062317595 0.04703897 -0.008841028 -0.1941511 0.44412404 -0.0034298578 0.006882187 -0.042142436
0.3745269 0.12392321 0.1186215 -0.018210288 -0.114848815 -0.21186526 -0.5283973 -0.023852078
0.075447835 -0.06718121 -0.48439863 0.055812176 0.09797461 -0.03159792 -0.016568763 -0.44309995
0.46563205 -0.039652433 -0.08796703 -0.07044875 0.16628113 0.15593514 -0.041722573 0.14683022
-0.014895785 0.06552376 0.3300167 0.08643602 0.057883576 -0.037817843 -0.20197439 0.16428952
0.013861987 -0.15435499 -0.20488887 -0.2759485 -0.26534092 0.07665586 0.06862063 -0.13136673
-0.2749778 -0.26444542 0.016748568 -0.17049055 0.09714167 -0.3219274 -0.058791965 0.004532387
0.018989697 -0.091203235 -0.018896641 0.54286987 0.0036939592 -0.030061716 -0.030052891 0.3500161
0.09381733 0.038586307 -0.07173431 -0.06972628 -0.33900678 0.49027535 -0.033059012 -0.13024834
0.21988826 0.35833967 0.04246984 -0.027573504 0.059964772 0.01617409 -0.15918924 -0.33911708
0.005052917 -0.02804018 0.031024693 0.021971216 -0.7145756 -0.053642225 -0.045860913 0.12857871
0.06686953 0.40326616 0.03055641 0.11145258 0.022049593 -0.16016671 -0.36142734 0.010475083
-0.115769625 -0.07639931 -0.119183585 -0.38880897 -0.049776465 -0.039272424 -0.20591998 0.36272886
0.52753115 0.015815886 -0.07323273 0.11002427 -0.28284207 -0.17368448 0.07095838 0.08968595
-0.18027902 0.08446582 0.20833331 0.024900932 -0.070865616 0.07980679 0.48715258 -0.27649042
-0.0134717645 -0.07398012 -0.12229297 0.306605 -0.124527544 -0.03988788 -0.06389576 0.07488472
-0.18386611 0.19862778 0.01765767 -0.10554282 -0.064583145 -0.34666225 -0.4773957 -0.009660921
-0.06379356 -0.045598876 0.25207436 0.37788796 0.09840366 -0.18588334 -0.22218166 0.25994658
00000000: 77bf d43e b982 8ebe bf4f eaba ccb3 a6bd
00000010: 2b01 2a3e 2179 253e 1cf2 303e 7edf 103e
00000020: 1b40 9ebd 474d 3cbc f194 a4bc bd15 ef3b
00000030: 7cf3 243c ac20 82be 6bd7 6b3d 46f5 c83d
00000040: 2418 1fbe 0e9b 0d3e 9197 813d 262d 2e3e
00000050: 71a5 553d 66b2 4abc cddc a83d 4760 453e
00000060: a9d5 003e a334 723e 3b19 f13e 2802 7b3c
00000070: dd1f 30be b5db e3bc 7ae6 90be ef63 24bd
00000080: 4351 613d 327c b1bc c7c3 78bd 5636 d23b
00000090: 4024 09bd 2a53 463d cdbe c23d 60cc 96bd
000000a0: 87ac ad3d 9a8b 09bf 94a5 abbb 0f5b 33bd
000000b0: 3c90 a7bc cd10 48be 8dc3 5bbe c8bc 30be
000000c0: 3382 003d 5bc2 40be b448 653c c607 ed3e
000000d0: 2a28 8b3d 9caa 2d3e b99a 413b e551 97bc
000000e0: eae8 613e b0aa c9bc a15f 0d3e 3e35 90bd
000000f0: 6004 8d3e ac09 fcbd 8566 a23d 3efb ff3c
00000100: 2797 023e 9581 933e c3a4 d0be 10c1 19bc
00000110: a404 483e 5f97 033c 7eba 81bd 3ce7 f13a
00000120: 87c5 4abb 68a9 aa3d 23fd 1b3e 15a4 72be
00000130: 9005 e33e 2c34 4b3d c1f4 203e 4ee2 07bd
00000140: f86f 783e 932f 103f 98ac 383d d4cb 18be
00000150: 7b76 173e 0402 2bbe 4e6b 323e a5e0 aa3d
00000160: 16e0 eabd 0347 463d 61dc 873e 7a52 243e
00000170: b0e6 54bd 235f 1a3c f3a9 133d 1782 01bf
00000180: bde5 c1be 2414 77bc 0ab6 533d 3964 19bd
00000190: 2a10 6dbe fe21 d13c 4a53 6dbd dd5e 82bc
000001a0: e5cf 9f3d 941a acbe 07fc 903e f4ff 53bd
000001b0: 9db4 86be d7fa 643e b4a4 f9bd f502 fdbd
000001c0: bc40 7f3d efab 403d f6d9 10bc 8ccf 46be
000001d0: 3a64 e33e 77c7 60bb f883 e13b 8c9d 2cbd
000001e0: fdc1 bf3e 74cb fd3d d4ef f23d be2d 95bc
000001f0: db35 ebbd 35f3 58be 0c45 07bf 6f65 c3bc
00000200: 6584 9a3d 4d96 89bd 1903 f8be 4f9b 643d
00000210: eaa6 c83d d26c 01bd 37bb 87bc ffdd e2be
00000220: 5367 ee3e 976a 22bd 0f28 b4bd 6f47 90bd
00000230: 9a45 2a3e 76ad 1f3e 4ae5 2abd a95a 163e
00000240: 730d 74bc 5231 863d f3f7 a83e 5e05 b13d
00000250: 5417 6d3d e2e6 1abd 60d2 4ebe 833b 283e
00000260: 631d 633c 3c0f 1ebe 63ce 51be 1f49 8dbe
00000270: c4da 87be bffd 9c3d f988 8c3d 0085 06be
00000280: e4c9 8cbe 6465 87be 4b34 893c 1395 2ebe
00000290: 36f2 c63d abd3 a4be d8cf 70bd 6b84 943b
000002a0: 4890 9b3c c3c8 babd 21cd 9abc 85f9 0a3f
000002b0: 5a16 723b fd43 f6bc 7b31 f6bc 4f35 b33e
000002c0: 4d23 c03d ad0c 1e3d 70e9 92bd a7cc 8ebd
000002d0: 4c92 adbe 5f05 fb3e e368 07bd d25f 05be
000002e0: 632a 613e 4c78 b73e dbf4 2d3d d4e1 e1bc
000002f0: 9f9d 753d 867f 843c 8102 23be c1a0 adbe
00000300: f192 a53b 85b4 e5bc 7f27 fe3c fbfc b33c
00000310: 6dee 36bf f3b7 5bbd a7d8 3bbd 23aa 033e
00000320: e4f2 883d e778 ce3e 7051 fa3c 4041 e43d
00000330: 59a1 b43c be02 24be 010d b9be af9f 2b3c
00000340: a018 edbd 3e77 9cbd 8616 f4bd f811 c7be
00000350: 68e2 4bbd 1fdc 20bd b0dc 52be 99b7 b93e
00000360: 480c 073f 5190 813c 0bfb 95bd 6854 e13d
00000370: add0 90be 58da 31be a152 913d 44ad b73d
00000380: 109b 38be 6afc ac3d 5455 553e 0afd cb3c
00000390: fe21 91bd be71 a33d 106c f93e 2790 8dbe
000003a0: adb8 5cbc e482 97bd bd74 fabd 55fb 9c3e
000003b0: 4c08 ffbd 7961 23bd c8db 82bd 295d 993d
000003c0: 6647 3cbe 1565 4b3e d1a6 903c d626 d8bd
000003d0: 2b44 84bd b77d b1be 366d f4be d748 1ebc
000003e0: 33a6 82bd e3c5 3abd e40f 813e 887a c13e
000003f0: dc87 c93d 3458 3ebe 9783 63be b817 853e

network.0.conv.0.bias f4 [512]
0.062004965 -0.18435219 -0.07286315 -0.13116486 -0.31124783 0.027983053 -0.19402388 -0.19898914
0.10312548 -0.06768136 -0.07402973 -0.05886188 -0.121688955 0.037384424 -0.14258681 0.060586613
-0.0152485045 -0.13042882 -0.027372874 0.05975149 0.1318611 0.03484069 -0.14413245 0.032556295
0.11820976 0.08029751 -0.008826343 0.04670435 -0.13553837 -0.09953023 0.0019186707 -0.16783343
0.0473928 -0.013306076 0.024824314 -0.03229538 0.029379837 -0.047868952 -0.044780944 0.041098025
0.06645902 0.09377885 -0.12900023 0.033248004 -0.22751527 0.053950544 0.031736694 -0.08440884
-0.020110758 0.07115062 -0.0971457 0.03381591 0.04954117 0.082820386 0.07379546 0.12851469
-0.0063944967 -0.055543456 0.040789723 -0.21315788 0.06821204 0.017259387 0.12516946 0.034551274
0.1674859 -0.04282789 0.06432847 0.07031713 -0.056757893 0.090167925 -0.011389226 0.033938125
-0.08906999 -0.040291023 -0.12363216 -0.008659045 -0.18105678 -0.02381586 -0.063884884 -0.21788475
0.0029224735 0.033848867 -0.05170862 0.16601618 0.118615255 0.012511454 0.058979414 -0.044199247
-0.041707713 -0.18203714 0.02205641 -0.17824318 0.05603909 -0.2682025 -0.12651886 0.021172127
0.0662115 0.09213085 -0.06771882 -0.020105636 0.05815453 0.054612998 0.093701884 -0.17708062
0.026838658 0.030862952 -0.047971025 -0.038193095 -0.09808475 -0.120940916 -0.0025168199 0.0049953116
-0.08176327 0.09564073 -0.031260595 -0.1603506 0.055247497 -0.06254756 0.022148022 0.043525275
-0.07824345 -0.019168412 0.06944644 -0.016879318 -0.17819574 -0.1615958 -0.20352678 0.06271587
-0.121878155 0.06575572 0.032126576 -0.12846807 -0.058330074 0.032325346 -0.0016566785 0.019570136
0.015642479 0.0050608115 0.022504015 -0.027455816 -0.19439408 -0.20907237 0.03474999 -0.083796896
-0.02440359 -0.021882696 -0.054255076 -0.10621371 0.03908613 -0.029910138 -0.027101746 -0.043370068
-0.20127861 -0.06925965 -0.14479782 0.075063676 -0.0053255577 0.029437115 -0.089597546 -0.11727923
-0.028760005 0.0243618 -0.10377447 0.17447549 -0.083509974 -0.065672874 -0.013771667 0.15115343
0.0026060864 -0.23555614 -0.0707752 -0.17652644 0.16771187 -0.18050718 -0.12070742 -0.083451964
-0.03231299 -0.03062621 0.0010595884 0.0045668404 -0.04255579 0.02705985 -0.066251054 -0.23943038
-0.16735658 0.052960955 -0.09718344 -0.19429208 0.09880592 -0.16063197 0.09590684 -0.15557773
-0.13721426 -0.14667647 -0.0648605 0.10092186 -0.19561172 -0.0024837372 -0.0042414824 -0.06375646
0.023006674 -0.27579045 0.028363014 -0.06287018 -0.04269011 -0.035031088 -0.042440034 -0.124995336
-0.13430323 -0.11971513 -0.2675943 -0.21275185 -0.071351014 -0.104895405 0.009564181 0.079535566
0.11791093 0.05989419 0.029159939 -0.13344494 -0.11420427 -0.085843295 -0.17071952 -0.2506571
-0.18018246 0.036464628 -0.05776399 -0.11259789 -0.14955604 0.03701668 -0.16342938 -0.050735295
-0.25805628 0.019931374 -0.1792648 -0.20821223 0.1042081 -0.036404066 -0.13543049 -0.002308633
-0.028390445 0.012348 -0.16482306 -0.0072655883 -0.013205978 -0.042895686 -0.007526637 0.027391354
0.01638508 -0.1807777 -0.0077713868 -0.123557836 -0.06743139 -0.038074955 -0.15500963 -0.133536
00000000: ebf8 7d3d d2c6 3cbe 4639 95bd 1550 06be
00000010: e05b 9fbe b73c e53c 32ae 46be cfc3 4bbe
00000020: 7433 d33d 869c 8abd e69c 97bd 2819 71bd
00000030: 0f38 f9bd 6920 193d 4702 12be ab29 783d
00000040: ddd4 79bc 228f 05be 143d e0bc fabd 743d
00000050: 9906 073e 1db5 0e3d 7597 13be c059 053d
00000060: f517 f23d 0573 a43d 5e9c 10bc 0f4d 3f3d
00000070: 92ca 0abe 81d6 cbbd e87b fb3a 87dc 2bbe
00000080: f41e 423d ba01 5abc 5c5c cb3c 2948 04bd
00000090: fcad f03c 3c12 44bd 396c 37bd 6756 283d
000000a0: ab1b 883d 200f c03d a318 04be 0f2f 083d
000000b0: c3f9 68be 3ffb 5c3d 56fe 013d 8bde acbd
000000c0: 51bf a4bc 6bb7 913d 53f4 c6bd 8d82 0a3d
000000d0: afeb 4a3d bc9d a93d 1322 973d 5b99 033e
000000e0: ed88 d1bb 8981 63bd 2013 273d 0f46 5abe
000000f0: c1b2 8b3d 8f63 8d3c 6c2c 003e a385 0d3d
00000100: 6c81 2b3e 4c6c 2fbd a5be 833d 6d02 903d
00000110: f77a 68bd f6a9 b83d e099 3abc b402 0b3d
00000120: 546a b6bd 3308 25bd dc32 fdbd abde 0dbc
00000130: f366 39be 7a19 c3bc 14d6 82bd 2e1d 5fbe
00000140: f886 3f3b 1ca5 0a3d 6bcc 53bd 2500 2a3e
00000150: 8eec f23d d7fc 4c3c 6694 713d 450a 35bd
00000160: b5d5 2abd f267 3abe a5af b43c 6185 36be
00000170: 3f89 653d d751 89be 298e 01be 2b71 ad3c
00000180: e599 873d 19af bc3d 2ab0 8abd 93b4 a4bc
00000190: 7233 6e3d e1b1 5f3d c6e6 bf3d 9f54 35be
000001a0: bfdc db3c 4dd4 fc3c 447d 44bd 5d70 1cbd
000001b0: a8e0 c8bd dfaf f7bd 3bf1 24bb b6af a33b
000001c0: 8073 a7bd 49df c33d 1c0b 00bd f332 24be
000001d0: 334b 623d ef18 80bd c56f b53c 8f47 323d
000001e0: 1a3e a0bd 1307 9dbc ef39 8e3d 7f46 8abc
000001f0: f278 36be 5f79 25be 5369 50be 2e71 803d
00000200: 419b f9bd efaa 863d 2897 033d 228d 03be
00000210: 84eb 6ebd 9567 043d e824 d9ba 8d51 a03c
00000220: a824 803c 2ad5 a53b 575a b83c 05eb e0bc
00000230: 3e0f 47be 1117 56be 0156 0e3d b59d abbd
00000240: 0aea c7bc 5743 b3bc 923a 5ebd 9386 d9bd
00000250: c718 203d 1b06 f5bc 7b04 debc d0a4 31bd
00000260: fb1b 4ebe 01d8 8dbd e145 14be fcba 993d
00000270: 0482 aebb 1b26 f13c eb7e b7bd 1830 f0bd
00000280: 1a9a ebbc 6692 c73c b687 d4bd b4a9 323e
00000290: 4707 abbd 807f 86bd 8fa2 61bc f7c7 1a3e
000002a0: e0ca 2a3b a135 71be 97f2 90bd 59c3 34be
000002b0: a9bc 2b3e e0d6 38be 7435 f7bd dde8 aabd
000002c0: a05a 04bd d1e3 fabc e3e1 8a3a 6fa5 953b
000002d0: fb4e 2ebd 9eac dd3c a2ae 87bd 3d2d 75be
000002e0: 865f 2bbe 96ed 583d 1d08 c7bd 81f4 46be
000002f0: c25a ca3d b57c 24be ce6a c43d c54f 1fbe
00000300: e581 0cbe 5b32 16be 95d5 84bd 1fb0 ce3d
00000310: 704e 48be 32c6 22bb 22fc 8abb bf92 82bd
00000320: 7e78 bc3c 6834 8dbe 8d59 e83c 15c2 80bd
00000330: d3db 2ebd c27c 0fbd 9ad5 2dbd 8efd ffbd
00000340: c986 09be 352d f5bd 1f02 89be 9fdb 59be
00000350: 7b20 92bd 67d3 d6bd 15b3 1c3c 8be3 a23d
00000360: 497b f13d 9c53 753d d3e0 ee3c caa5 08be
00000370: eee3 e9bd 9cce afbd 19d1 2ebe 2156 80be
00000380: c081 38be ef5b 153d ef99 6cbd b999 e6bd
00000390: 3825 19be cd9e 173d 085a 27be d0cf 4fbd
000003a0: f41f 84be 1f47 a33c 3191 37be 9635 55be
000003b0: 0e6b d53d 6e1c 15bd 4aae 0abe 6f4c 17bb
000003c0: 1493 e8bc 444f 4a3c 60c7 28be 2c14 eebb
000003d0: e35d 58bc 63b3 2fbd 02a2 f6bb d563 e03c
000003e0: 013a 863c ca1d 39be 1ea7 febb e40b fdbd
000003f0: 7819 8abd 7cf4 1bbd d8ba 1ebe a9bd 08be

network.1.conv.0.weight f4 [256, 512]
-0.0126838125 -0.19670326 -0.054036535 0.037612442 -0.0017343158 -0.106370576 -0.16976243 -0.044690985
-0.03804414 -0.10453083 -0.22102241 0.09432023 0.14550373 -0.09878731 -0.10741311 0.3268419
-0.26819006 -0.03650816 0.025200041 0.18347171 0.09546424 0.27102333 0.086661376 0.029110797
0.1342303 -0.08050277 0.19237313 0.13653772 -0.12156185 -0.06930342 -0.17400149 0.0058753267
0.10503639 0.035122123 0.010153522 0.039434493 -0.058927506 -0.18527496 0.0071908706 -0.2715706
0.0052235723 0.2702962 -0.07764199 -0.37356868 0.07209285 -0.0766238 -0.19124396 -0.17727168
0.0084103905 -0.0022568016 -0.008107035 -0.0890859 0.14073877 0.024591798 0.2791382 -0.061994426
-0.309691 -0.20677254 -0.24006669 -0.45337823 -0.07939638 0.1276759 -0.044518698 -0.04280976
-0.009295783 -0.30095214 -0.10123021 0.00245962 -0.10093845 -0.020197108 0.11604145 -0.078181565
0.024725154 0.29852974 -0.1014008 -0.25265115 -0.230674 0.020848658 0.091282755 0.12937675
0.0010859094 -0.15524769 -0.22253193 0.10449162 -0.13084848 0.07035577 -0.25292492 -0.08871356
0.18745829 0.20772868 0.23047505 0.09403015 0.33681935 -0.2894196 0.054516274 0.009678742
-0.10215486 0.1286234 -0.038843405 -0.19179541 0.0991031 -0.0068915808 0.060869794 -0.21899948
0.22516291 -0.055794347 -0.17913228 -0.020908603 0.24172232 0.11455353 0.23937687 0.05735034
-0.047102172 0.09340899 0.24942057 -0.22360806 0.07238331 -0.14995612 -0.13012347 0.055461418
-0.09706188 0.22620107 -0.111412816 -0.04374809 -0.18935563 -0.32373518 -0.43201953 0.0035760913
-0.0052831196 -0.01633946 0.21883117 -0.030223805 -0.021714145 -0.064916626 -0.101495884 0.024777744
0.05396813 0.08734656 -0.050479557 0.022208635 -0.013627343 0.04541723 -0.24982956 0.08428936
0.04119574 -0.11063477 -0.15485206 -0.08549873 0.16208275 -0.09119858 0.025561353 0.022326136
0.059523445 0.16189066 0.022313727 0.018853676 0.19784395 0.081071325 -0.1718263 0.006933202
-0.026932051 0.020205013 0.050908934 0.02886944 -0.13283835 0.18246403 0.097799435 0.096749224
-0.014361928 -0.06160907 0.007900384 -0.16771404 0.12918887 -0.023861054 0.018981608 -0.18133162
-0.040578444 0.1879135 0.08627062 0.004814998 -0.15811247 -0.026061375 0.0019281497 -0.21287008
-0.27227718 0.082189634 0.014012848 -0.1327753 -0.047362722 0.02146552 0.0063223517 -0.22022372
-0.33285978 0.004653454 0.08235659 -0.0027500568 0.052844714 -0.035244256 0.15518776 -0.07899003
-0.060386136 -0.19886069 -0.06543178 -0.09752725 0.00523282 0.10916184 0.14774792 -0.5111836
-0.0056437002 -0.3052418 0.0049830833 -0.30325428 0.107169114 0.018601324 -0.04516344 0.01756797
0.07017441 0.13017483 0.045858208 0.04114989 0.067205206 -0.0134329265 -0.11548442 -0.10324775
-0.14586082 -0.002361569 0.015926166 -0.23332414 -0.23050903 -0.21107826 -0.017422065 0.095592484
-0.027601015 0.0055589536 -0.026244987 -0.017345373 -0.021255445 0.029134348 -0.13867863 0.017914958
0.050339445 0.120999336 -0.14213924 0.04513014 -0.08282235 -0.16959822 0.044244293 -0.15066099
-0.04886072 -0.40962097 0.060787715 -0.09454175 0.22638908 -0.13960904 -0.07748905 0.052505225
00000000: c4cf 4fbc 946c 49be 6a55 5dbd 810f 1a3d
00000010: fb51 e3ba d1d8 d9bd 34d6 2dbe e50d 37bd
00000020: 2cd4 1bbd 4314 d6bd b353 62be f72a c13d
00000030: eefe 143e 0051 cabd 68fb dbbd d257 a73e
00000040: 3550 89be 9589 15bd 5170 ce3c 02e0 3b3e
00000050: c182 c33d 92c3 8a3e 857b b13d c479 ee3c
00000060: ab73 093e a3de a4bd 76fd 443e 8bd0 0b3e
00000070: 6bf5 f8bd f4ee 8dbd 722d 32be d085 c03b
00000080: 521d d73d 37dc 0f3d f55a 263c 1086 213d
00000090: f85d 71bd b8b8 3dbe 65a1 eb3b 4d0b 8bbe
000000a0: 802a ab3b 4364 8a3e c302 9fbd 6544 bfbe
000000b0: 6ba5 933d f0ec 9cbd 75d5 43be b586 35be
000000c0: bccb 093c d9e6 13bb 5fd3 04bc ab72 b6bd
000000d0: d31d 103e bd74 c93c 34eb 8e3e deed 7dbd
000000e0: d28f 9ebe 2ebc 53be 0bd4 75be 3121 e8be
000000f0: 929a a2bd 79bd 023e 3d59 36bd 4959 2fbd
00000100: 574d 18bc 6616 9abe c951 cfbd 9331 213b
00000110: d1b8 cebd 6874 a5bc 24a7 ed3d a81d a0bd
00000120: 688c ca3c e4d8 983e 39ab cfbd 7e5b 81be
00000130: ce35 6cbe ceca aa3c 74f2 ba3d 577b 043e
00000140: 1355 8e3a 40f9 1ebe 69df 63be b4ff d53d
00000150: 25fd 05be b016 903d 607f 81be 74af b5bd
00000160: 11f5 3f3e d4b6 543e a701 6c3e e192 c03d
00000170: 9673 ac3e ce2e 94be 754c 5f3d 9693 1e3c
00000180: 9136 d1bd dab5 033e 431a 1fbd 0466 44be
00000190: 91f6 ca3d c5d2 e1bb 9b52 793d 6641 60be
000001a0: 1b91 663e 9d88 64bd 746e 37be 8548 abbc
000001b0: 0e86 773e 0b9b ea3d 361f 753e 31e8 6a3d
000001c0: 35ee 40bd 364d bf3d 1b68 7f3e 83f9 64be
000001d0: b33d 943d 198e 19be 163f 05be 832b 633d
000001e0: 61c8 c6bd 41a1 673e 672c e4bd 3231 33bd
000001f0: 71e6 41be 9ec0 a5be aa31 ddbe db5c 6a3b
00000200: 051e adbb 55da 85bc 4715 603e ea97 f7bc
00000210: dde1 b1bc 02f3 84bd 13dd cfbd b2fa ca3c
00000220: b00d 5d3d c1e2 b23d a7c3 4ebd e2ee b53c
00000230: 3845 5fbc 6b07 3a3d 52d3 7fbe e69f ac3d
00000240: ddbc 283d 7b94 e2bd 8a91 1ebe f519 afbd
00000250: 05f9 253e 52c6 babd 0b66 d13c 4de5 b63c
00000260: dbce 733d aac6 253e 47cb b63c 0673 9a3c
00000270: 9b97 4a3e b908 a63d 3cf3 2fbe ea2f e33b
00000280: 9ba0 dcbc fc84 a53c e385 503d 9b7f ec3c
00000290: c706 08be dad7 3a3e 124b c83d 7524 c63d
000002a0: 4b4e 6bbc cb59 7cbd 9d70 013c 3bbd 2bbe
000002b0: 164a 043e 4278 c3bc 517f 9b3c ffae 39be
000002c0: 9535 26bd 666c 403e a7ae b03d 21c7 9d3b
000002d0: 3ce8 21be aa7e d5bc f8b9 fc3a 9dfa 59be
000002e0: ea67 8bbe 0a53 a83d 2596 653c 40f6 07be
000002f0: 6aff 41bd 75d8 af3c bb2b cf3b 5482 61be
00000300: 996c aabe 007c 983b 92aa a83d 4c3a 34bb
00000310: b373 583d 485c 10bd 8ae9 1e3e 86c5 a1bd
00000320: 7457 77bd 23a2 4bbe 1901 86bd 5ebc c7bd
00000330: 1378 ab3b 3e90 df3d 3b4b 173e eedc 02bf
00000340: caee b8bb a748 9cbe 2249 a33b 2544 9bbe
00000350: 7b7b db3d ce61 983c 4dfd 38bd b4ea 8f3c
00000360: 9ab7 8f3d 8d4c 053e d1d5 3b3d c98c 283d
00000370: e2a2 893d c715 5cbc 1883 ecbd 8e73 d3bd
00000380: 8a5c 15be 8ec4 1abb 9777 823c 86ec 6ebe
00000390: 8f0a 6cbe e624 58be b8b8 8ebc fec5 c33d
000003a0: 861b e2bc e227 b63b baff d6bc e217 8ebc
000003b0: e61f aebc 28ab ee3c c501 0ebe 64c2 923c
000003c0: bc30 4e3d 80ce f73d f38c 11be 62da 383d
000003d0: c49e a9bd 28ab 2dbe 8139 353d e046 1abe
000003e0: 2e22 48bd d7b9 d1be 8afc 783d 1b9f c1bd
000003f0: 8ad2 673e acf5 0ebe 94b2 9ebd b80f 573d

network.1.conv.0.bias f4 [256]
-0.06789382 -0.03155829 0.032071877 0.013296086 -0.011763234 0.07284352 0.047310114 0.07607129
-0.088365994 0.027341664 -0.014617669 -0.16150273 0.0825132 -0.16476724 -0.12547024 -0.10075459
-0.10254363 -0.0008453769 0.0265702 -0.17908521 -0.10163393 0.17349885 -0.086309075 -0.03753668
-0.06384767 0.0076285363 -0.17001925 0.023997225 -0.14258672 0.0018730216 -0.13468388 0.006030504
-0.08743614 -0.24361421 0.16639824 -0.09668537 -0.22489062 -0.028076865 0.0062519643 -0.044047594
-0.09928528 -0.14680283 -0.2246574 0.07225772 0.022648606 0.038474414 -0.12450237 0.032164343
-0.0852753 0.046229832 -0.061204914 0.060922526 -0.05263448 -0.014647262 -0.069597915 -0.005884226
0.012428236 -0.036101174 0.0294967 0.10534488 -0.13830684 -0.067574315 -0.013657776 -0.0037693023
0.022994896 0.015175667 0.14563817 -0.061849385 -0.030886259 -0.06670375 -0.012935543 -0.09730923
0.026058797 -0.114825904 -0.13450517 -0.010878024 -0.029981773 -0.014694452 -0.0046280907 0.19191137
-0.11699423 0.036507793 -0.16151273 0.05329679 -0.17614405 -0.1074215 -0.0570536 -0.09862191
0.025227388 -0.01596507 -0.011579091 0.11614117 0.055767164 0.15226895 -0.043223962 -0.01025306
-0.19476943 0.009533214 -0.036013793 0.3103724 0.01793843 -0.0695971 0.06292855 -0.19052003
-0.223088 -0.05753561 0.12427155 -0.17275156 0.03855599 -0.056885812 0.13743499 -0.17246978
0.075691976 0.1126271 -0.12706733 0.06714218 0.05798325 -0.03369445 -0.020752797 0.1410638
0.0042020166 -0.028446287 0.12019216 0.13564521 -0.12449985 -0.043737806 0.10260245 -0.23653845
-0.07481404 -0.11963985 -0.16611731 0.03812433 -0.06048592 0.0012332422 0.011187374 -0.013627492
0.034070812 -0.022258414 -0.067217425 -0.01649817 -0.05056622 0.013734419 -0.006348801 0.012730985
0.024862772 0.005491794 -0.17829111 0.08550646 0.14977236 -0.08327089 -0.047906734 -0.17944767
0.100278534 0.29683855 0.02716155 -0.07063587 -0.012570456 -0.0035995778 0.010382294 -0.036054395
-0.023522183 -0.08600377 0.015368963 0.16769013 -0.023914248 0.10346363 -0.0073310933 -0.058078356
0.043752544 0.06251824 0.08716884 -0.16793478 0.010778617 -0.22132352 0.04463056 -0.15849595
-0.055430476 -0.10107076 -0.04773342 0.021819135 -0.0030986762 -0.0047920966 0.01647947 -0.12640612
-0.01663547 -0.0906954 0.046729103 -0.22108829 -0.08967829 0.106844336 -0.098865315 0.008081678
-0.0656937 -0.124418944 -0.1656374 0.058973067 -0.084968686 0.060431723 0.09778215 -0.09137989
-0.08922736 0.097913034 -0.1520837 0.1414699 -0.03550837 -0.027798895 -0.19318543 -0.13752687
-0.026539065 -0.00010438438 -0.01082262 -0.03592156 -0.18511291 0.010834296 0.025693221 0.068246804
-0.153701 0.019918762 -0.23355533 -0.06799124 0.004684256 -0.15442407 -0.20844053 -0.09233851
0.008405085 0.003351023 0.037240114 -0.12664573 0.05272681 0.13919051 0.13663845 -0.20459715
-0.06311265 0.15038377 -0.07382956 -0.020657528 -0.023494722 0.028869487 -0.059790835 0.16379133
-0.13819374 0.056217477 -0.1122645 0.019874103 0.20491652 0.040427707 0.04014851 -0.00695937
-0.09760358 -0.026695624 -0.25734267 -0.025391214 0.053007863 0.09129914 -0.065010265 -0.095168434
00000000: ea0b 8bbd 4443 01bd cd5d 033d d4d7 593c
00000010: 94ba 40bc fc2e 953d 40c8 413d 44cb 9b3d
00000020: 3bf9 b4bd a0fb df3c f37e 6fbc f960 25be
00000030: aefc a83d beb8 28be 457b 00be 6c58 cebd
00000040: 6502 d2bd 499c 5dba c0a9 d93c 1d62 37be
00000050: 7325 d0bd afa9 313e d0c2 b0bd 10c0 19bd
00000060: 91c2 82bd cdf8 f93b 8719 2ebe d495 c43c
00000070: 4102 12be 2d80 f53a 92ea 09be 899b c53b
00000080: b811 b3bd 0176 79be 4d64 2a3e fb02 c6bd
00000090: ba49 66be 7401 e6bc 47dd cc3b 406b 34bd
000000a0: 1556 cbbd 7b53 16be 970c 66be dbfb 933d
000000b0: 9289 b93c 5997 1d3d 19fb febd c2be 033d
000000c0: d1a4 aebd 7e5b 3d3d 01b2 7abd e689 793d
000000d0: 4197 57bd 12fb 6fbc 5a89 8ebd 77d0 c0bb
000000e0: cd9f 4b3c d3de 13bd 10a3 f13c 0ebf d73d
000000f0: 4fa0 0dbe 6764 8abd ddc4 5fbc 6606 77bb
00000100: cb5f bc3c 5ca3 783c 2c22 153e c855 7dbd
00000110: 2e05 fdbc fa9b 88bd 9aef 53bc 104a c7bd
00000120: 4279 d53c d829 ebbd b9bb 09be bd39 32bc
00000130: 569c f5bc 00c1 70bc 3da7 97bb 6a84 443e
00000140: ac9a efbd 3289 153d 9863 25be bc4d 5a3d
00000150: 1b5f 34be ceff dbbd 09b1 69bd 49fa c9bd
00000160: aba9 ce3c 2ec9 82bc 3ab6 3dbc 6cdb ed3d
00000170: 1c6c 643d 64ec 1b3e 9c0b 31bd 73fc 27bc
00000180: a371 47be 3331 1c3c 3383 13bd 22e9 9e3e
00000190: 9df3 923c ed88 8ebd afe0 803d af17 43be
000001a0: 2e71 64be 76aa 6bbd 1582 fe3d c9e5 30be
000001b0: e3ec 1d3d 1901 69bd c2bb 0c3e eb9b 30be
000001c0: 6504 9b3d 09a9 e63d f01d 02be d781 893d
000001d0: d87f 6d3d 3103 0abd c501 aabc 0773 103e
000001e0: 12b1 893b 3008 e9bc 4f27 f63d 94e6 0a3e
000001f0: c7f9 febd 6a26 33bd 3c21 d23d 2337 72be
00000200: 1a38 99bd bd05 f5bd a81a 2abe 4228 1c3d
00000210: 16c0 77bd bea4 a13a 3f4b 373c d845 5fbc
00000220: d68d 0b3d 4757 b6bc 4aa9 89bd 2c27 87bc
00000230: 861e 4fbd 5406 613c 9a09 d0bb 9f95 503c
00000240: 03ad cb3c 82f4 b33b f291 36be 031e af3d
00000250: ed5d 193e ee89 aabd da39 44bd 21c1 37be
00000260: d55e cd3d 39fb 973e e681 de3c 8aa9 90bd
00000270: 50f4 4dbc e5e6 6bbb 7f1a 2a3c c6ad 13bd
00000280: 98b1 c0bc bf22 b0bd 1ace 7b3c f6b6 2b3e
00000290: d0e7 c3bc bde4 d33d ab39 f0bb 92e3 6dbd
000002a0: de35 333d 9009 803d 9485 b23d 18f7 2bbe
000002b0: cc98 303c a2a2 62be 89ce 363d c34c 22be
000002c0: 110b 63bd 30fe cebd 1e84 43bd 0bbe b23c
000002d0: 2913 4bbb 0507 9dbb f4ff 863c 9b70 01be
000002e0: 1c47 88bc 83be b9bd 0467 3f3d f864 62be
000002f0: 40a9 b7bd 34d1 da3d e679 cabd 0469 043c
00000300: 6b8a 86bd 5ccf febd da9c 29be be8d 713d
00000310: 1004 aebd 4187 773d 0242 c83d 6125 bbbd
00000320: d6bc b6bd a186 c83d d4bb 1bbe 7cdd 103e
00000330: 3971 11bd 82ba e3bc 67d2 45be d8d3 0cbe
00000340: 7468 d9bc f0e8 dab8 5c51 31bc 7c22 13bd
00000350: 3d8e 3dbe 5582 313c 977a d23c fbc4 8b3d
00000360: cc63 1dbe ac2c a33c 2129 6fbe fe3e 8bbd
00000370: 637e 993b 5821 1ebe 6f71 55be f91b bdbd
00000380: 7bb5 093c d69c 5b3b 1789 183d 6baf 01be
00000390: 11f8 573d f587 0e3e f3ea 0b3e ea81 51be
000003a0: 3441 81bd 34fe 193e f433 97bd fa39 a9bc
000003b0: 0178 c0bc b47f ec3c 3ce7 74bd eab8 273e
000003c0: a982 0dbe 4c44 663d eeea e5bd 04cf a23c
000003d0: a3d5 513e 8697 253d c472 243d 6d0b e4bb
000003e0: 63e4 c7bd c8b0 dabc 6bc2 83be 3c01 d0bc
000003f0: c61e 593d 0bfb ba3d 1a24 85bd abe7 c2bd

network.2.conv.0.weight f4 [128, 256]
-0.0025202776 0.0014691708 -0.017928163 0.028617147 -0.052589964 0.08945276 0.22610858 0.19031408
-0.061323028 0.010200562 -0.10983157 -0.050843414 0.08013802 0.09494233 0.08356688 -0.09584192
0.402046 -0.11255219 -0.016310995 0.07328201 0.09224849 -0.022578916 0.10133579 0.11419871
-0.24050413 0.26742917 -0.13340299 0.078071 0.17636628 -0.09526105 0.047557518 -0.210954
-0.13381207 -0.074824385 0.06082576 -0.06840898 -0.06621323 -0.02378467 0.11641244 -0.051598843
0.07814021 -0.057594992 0.008733562 0.09204589 -0.12006744 -0.099858835 0.20866123 -0.011922209
-0.22073759 0.111141965 -0.18499124 -0.047682878 -0.04891917 -0.022115327 0.03376405 -0.04048116
-0.05191934 -0.08565695 -0.20476481 -0.12421464 0.06017812 -0.082673796 0.16909935 -0.10967198
0.0002363306 0.10533274 -0.07905003 -0.027074963 -0.17504215 -0.071781345 -0.10215556 0.09774368
-0.0514511 0.0056341486 -0.11897489 -0.045035046 0.047955774 0.024619648 0.17167477 -0.20903045
-0.26969907 0.14262263 -0.029119644 -0.022078237 -0.044242114 0.09197405 -0.015708843 0.032907806
-0.08243444 0.0006157588 0.050196826 0.09428902 -0.12191853 0.0023611628 -0.060190327 0.04110486
0.019643677 0.027040597 0.018239528 0.17654848 0.043174535 0.10888928 -0.03182317 0.09438455
0.057439554 0.09318964 0.03857722 0.052826732 0.070848875 -0.22423145 -0.111942835 0.09597492
-0.10562159 0.016780434 0.12911198 -0.0304575 0.0064021503 -0.26360264 0.086324744 0.009339428
-0.10389841 -0.18499887 -0.16102387 -0.07658279 0.07787253 0.006942313 -0.1245572 0.12585066
0.091956295 0.20556732 0.17040932 -0.14139017 -0.055590834 0.12139241 -0.09808733 0.07118867
0.033956263 -0.008417671 -0.0075514535 0.14180614 0.1124349 0.026259843 -0.049866296 -0.11256963
0.041255012 -0.16759048 0.049768344 -0.029699063 -0.15372418 -0.0045948494 -0.0036775894 -0.14163548
-0.05413441 -0.051357817 0.01380825 0.08377792 0.19240513 -0.11298348 0.02936082 -0.16149266
0.22640437 0.012582058 0.169329 -0.04679583 -0.066051096 -0.14396401 0.08263863 -0.076803654
-0.0018229805 -0.1273787 -0.06966392 -0.02562785 0.025897704 -0.08746942 0.1377975 0.008986788
-0.106415585 -0.12383462 0.14444497 0.09031434 0.051417965 -0.062899806 0.12890121 -0.06154437
-0.04447387 -0.059844833 -0.108534686 -0.052132983 -0.04486264 0.014454198 0.09941173 -0.07996761
0.15965158 -0.19845933 -0.22166368 -0.18809979 0.11717762 0.06459378 0.117348194 -0.089546606
0.13618834 -0.0040948777 0.17498882 -0.01761293 0.017337583 -0.061325274 0.02119269 0.14563422
-0.07749181 -0.029063229 -0.2021518 -0.06750099 0.009743929 -0.027146436 -0.13057491 0.047388196
-0.029650787 0.053932145 -0.13620906 0.115831956 -0.09630269 -0.15666778 0.07613581 -0.28315583
-0.18987851 -0.012077978 -0.05716561 -0.13002557 -0.0365406 -0.1401924 -0.050664894 -0.094684176
0.02471186 0.17185715 0.11032556 -0.040567826 -0.019048452 -0.13583982 0.30751342 0.01642664
-0.11615854 -0.10059257 -0.23449032 -0.058628306 -0.10682628 0.097997084 -0.055286538 -0.020380314
0.0037524393 0.19589041 0.18129918 -0.033149965 0.023063753 -0.033915915 0.09595393 -0.071847685
00000000: 3e2b 25bb 3191 c03a 15de 92bc 826e ea3c
00000010: 9368 57bd 0233 b73d 0289 673e b2e1 423e
00000020: db2d 7bbd 4220 273c 60ef e0bd 2f41 50bd
00000030: 671f a43d 2071 c23d 1d25 ab3d c548 c4bd
00000040: f9d8 cd3e c381 e6bd a39e 85bc e114 963d
00000050: c7ec bc3d 6bf7 b8bc 2389 cf3d 03e1 e93d
00000060: b746 76be 7aec 883e cb9a 08be b0e3 9f3d
00000070: 5d99 343e 3a18 c3bd accb 423d 5304 58be
00000080: 0806 09be 873d 99bd 6f24 793d 021a 8cbd
00000090: cd9a 87bd 11d8 c2bc a569 ee3d 4f59 53bd
000000a0: f907 a03d bae8 6bbd 3717 0f3c 8e82 bc3d
000000b0: ebe5 f5bd ca82 ccbd 4aab 553e 5e55 43bc
000000c0: 0909 62be 669e e33d 586e 3dbe 1f4f 43bd
000000d0: 785f 48bd 342b b5bc 2c4c 0a3d 93cf 25bd
000000e0: 60a9 54bd e96c afbd dead 51be 3f64 febd
000000f0: 557d 763d e150 a9bd 6128 2d3e b49b e0bd
00000100: 83cf 7739 b1b8 d73d fbe4 a1bd 50cc ddbc
00000110: 403e 33be 1902 93bd ef36 d1bd d72d c83d
00000120: 63be 52bd aa9e b83b 1ba9 f3bd ab76 38bd
00000130: 466d 443d 25af c93c 83cb 2f3e 140c 56be
00000140: ff15 8abe ab0b 123e 528c eebc 6bdd b4bc
00000150: 3837 35bd e45c bc3d d5af 80bc 56ca 063d
00000160: 63d3 a8bd e06a 213a 309b 4d3d 9a1a c13d
00000170: 6cb0 f9bd bdbd 1a3b 228a 76bd 925d 283d
00000180: c7eb a03c 3e84 dd3c 106b 953c 20c9 343e
00000190: c8d7 303d 5801 df3d 0359 02bd b04c c13d
000001a0: bd45 6b3d 36da be3d 2603 1e3d d860 583d
000001b0: 3719 913d ee9c 65be 4942 e5bd 808e c43d
000001c0: 2250 d8bd 1f77 893c ee35 043e 0282 f9bc
000001d0: 21c9 d13b edf6 86be 07cb b03d 6604 193c
000001e0: b1c8 d4bd 5870 3dbe 71e3 24be 70d7 9cbd
000001f0: a27b 9f3d 587c e33b d817 ffbd ffde 003e
00000200: 9553 bc3d 3d80 523e c87f 2e3e 96c8 10be
00000210: 37b3 63bd 959c f83d 03e2 c8bd 5ecb 913d
00000220: b915 0b3d 45ea 09bc 2f72 f7bb a135 113e
00000230: 4544 e63d e21e d73c 9a40 4cbd e88a e6bd
00000240: 04fb 283d d79c 2bbe e4d9 4b3d 734b f3bc
00000250: df69 1dbe 6490 96bb b603 71bb e408 11be
00000260: 0bbc 5dbd 935c 52bd 003c 623c c293 ab3d
00000270: da05 453e e263 e7bd 1a86 f03c 555e 25be
00000280: 8cd6 673e fa24 4e3c 9564 2d3e fcac 3fbd
00000290: cc45 87bd 4d6b 13be 713e a93d 3c4b 9dbd
000002a0: 13f1 eeba 906f 02be f5ab 8ebd 7ff1 d1bc
000002b0: 6c27 d43c 2b23 b3bd ca1a 0d3e 523d 133c
000002c0: 6af0 d9bd 019d fdbd 62e9 133e baf6 b83d
000002d0: a59b 523d 9dd1 80bd aefe 033e f315 7cbd
000002e0: 3c2a 36bd db1f 75bd 6f47 debd 6589 55bd
000002f0: e3c1 37bd 4dd1 6c3c 6198 cb3d 0fc6 a3bd
00000300: b47b 233e ec38 4bbe cefb 62be 3b9d 40be
00000310: d2fa ef3d be49 843d 4054 f03d 3664 b7bd
00000320: f574 0b3e 532e 86bb 4530 333e fe48 90bc
00000330: 8c07 8e3c 3630 7bbd 4b9c ad3c 2321 153e
00000340: 07b4 9ebd 0216 eebc e200 4fbe f63d 8abd
00000350: 00a5 1f3c 3462 debc 6eb5 05be 201a 423d
00000360: 35e6 f2bc f4e7 5c3d 637a 0bbe 4e39 ed3d
00000370: 583a c5bd 856d 20be 17ed 9b3d cdf9 90be
00000380: 836f 42be b6e2 45bc 7d26 6abd 6c25 05be
00000390: 99ab 15bd 998e 0fbe fe85 4fbd c7e9 c1bd
000003a0: 8770 ca3c 52fb 2f3e 5ef2 e13d 732a 26bd
000003b0: 800b 9cbc 9819 0bbe 6672 9d3e 2991 863c
000003c0: 87e4 edbd 7a03 cebd 3b1e 70be 3c24 70bd
000003d0: bdc7 dabd b2b2 c83d 2374 62bd 9ef4 a6bc
000003e0: 7ceb 753b 7f97 483e 7ea6 393e 42c8 07bd
000003f0: 32f0 bc3c 6aeb 0abd 7e83 c43d e124 93bd

network.2.conv.0.bias f4 [128]
-0.21953337 -0.023066636 -0.15194637 0.09370744 -0.16659203 -0.19166341 0.1601526 -0.0011819883
-0.07864089 0.027253943 -0.027207213 0.058091518 0.042941462 0.10172879 -0.06129015 0.052597124
0.04015605 -0.02937463 -0.09542472 -0.29582825 -0.13219507 0.012201502 -0.0057379785 -0.10026378
-0.10252204 -0.12904744 -0.023372686 -0.120670564 -0.047418945 -0.0766176 0.086060725 -0.19382039
-0.07387415 -0.23457792 -0.07312417 0.014723726 -0.041702505 -0.21145995 0.024382064 -0.02997008
-0.1257572 0.023657557 0.043588266 -0.19819911 -0.121971026 0.02740036 0.087867945 -0.11606422
-0.21934776 0.029332321 -0.034066148 -0.0016894795 -0.046683777 0.1044276 -0.022370214 0.09847603
0.005702412 -0.037978765 -0.16849372 -0.2949204 -0.27951583 0.024190487 -0.09317751 0.1521299
0.005216955 0.14346203 -0.20655602 0.16469319 -0.06252961 0.018415615 -0.10833591 -0.065496705
0.19422434 0.002134241 0.01097797 0.02334724 -0.15606831 0.09348769 0.118158005 0.050815936
0.007955624 -0.22197509 -0.05665081 0.15564093 -0.04514197 0.027986612 -0.18558836 0.08344852
0.035160407 0.059201118 -0.11093441 -0.18087576 -0.1250039 -0.10649321 0.002787614 -0.05432568
-0.05079218 -0.110394865 0.067670844 0.10976303 -0.10874536 -0.124930516 0.018052919 0.03715955
-0.015361091 0.09212547 -0.10017507 -0.02448506 -0.19358839 -0.15522884 -0.21524002 0.02229526
0.024686787 -0.019322965 -0.105173245 -0.12739891 -0.14784795 -0.19501068 -0.102767296 -0.04447273
0.011121866 -0.28543577 -0.061420165 -0.1971709 -0.113563776 -0.208072 0.012473618 -0.012862731
00000000: 5bcd 60be 3ef6 bcbc d497 1bbe b0e9 bf3d
00000010: 1a97 2abe 6a43 44be 0bff 233e f2ec 9aba
00000020: 7a0e a1bd a943 df3c a9e1 debc 5ff1 6d3d
00000030: 63e3 2f3d 2f57 d03d 610b 7bbd 1570 573d
00000040: ac7a 243d 10a3 f0bc 096e c3bd cd76 97be
00000050: 255e 07be cfe8 473c a705 bcbb 1957 cdbd
00000060: 13f7 d1bd 0325 04be 1378 bfbc 2122 f7bd
00000070: 5e3a 42bd b0e9 9cbd 9b40 b03d da78 46be
00000080: 554b 97bd 3235 70be 20c2 95bd c83b 713c
00000090: 3fd0 2abd f588 58be e5bc c73c d083 f5bc
000000a0: 7fc6 00be 7ecd c13c 9c89 323d b5f4 4abe
000000b0: f2cb f9bd b876 e03c 1cf4 b33d 14b3 edbd
000000c0: b39c 60be 564a f03c f288 0bbd 8671 ddba
000000d0: 7d37 3fbd 23de d53d bd41 b7bc cdad c93d
000000e0: 4ddb ba3b 9f8f 1bbd 9e89 2cbe cfff 96be
000000f0: b31c 8fbe 212b c63c dad3 bebd f1c7 1b3e
00000100: fef2 aa3b b6e7 123e 6c83 53be 55a5 283e
00000110: 860f 80bd 58dc 963c 38df ddbd 2323 86bd
00000120: bfe2 463e 9fde 0b3b f2dc 333c b642 bf3c
00000130: 5fd0 1fbe 7976 bf3d d3fc f13d 5f24 503d
00000140: 4e58 023c 704d 63be ae0a 68bd 5660 1f3e
00000150: c9e6 38bd 2e44 e53c e00a 3ebe 0fe7 aa3d
00000160: 5c04 103d df7c 723d 9431 e3bd 7f37 39be
00000170: 0601 00be 1d19 dabd 67b0 363b 9b84 5ebd
00000180: 760b 50bd b416 e2bd 0397 8a3d 71cb e03d
00000190: e3b5 debd 92db ffbd b7e3 933c 9d34 183d
000001a0: 16ad 7bbc 47ac bc3d 9628 cdbd e494 c8bc
000001b0: 093c 46be 4ff4 1ebe e167 5cbe 8da4 b63c
000001c0: f23b ca3c 324b 9ebc 1265 d7bd dc74 02be
000001d0: 7465 17be e1b0 47be a977 d2bd 0a29 36bd
000001e0: 7d38 363c a324 92be b693 7bbd 2be7 49be
000001f0: 2094 e8bd d410 55be 255e 4c3c 34be 52bc

network.3.weight f4 [2, 128]
-0.00082707894 -0.00067482673 -0.120001175 0.055551853 -0.00083008694 -0.14653905 0.17822103 -0.020660838
0.01943046 0.033026215 0.0006393049 -0.0137665635 0.036827844 -0.017328355 0.0045721433 -0.010930401
-0.096725 -0.030413661 -0.11555158 0.123899944 0.015084213 -0.005849339 -0.012658586 -0.08355808
0.2066172 -0.046146512 0.03600115 0.028239554 -0.0042960783 0.10698499 -0.0104819015 0.057328977
0.09665664 -0.18417771 0.058614135 0.13456923 -0.005997437 -0.25144768 -0.1940719 -0.09699631
0.10527643 0.054567084 0.044879984 -0.02911915 0.09565979 -0.061409477 0.08970752 0.049248252
-0.14396144 -0.08421546 0.040545095 0.011155075 0.073411986 -0.04463101 -0.025928166 -0.14474417
-0.00956888 -0.0028119597 0.1172323 -0.044421893 -0.014034537 0.13434736 -0.031544387 -0.07206938
0.18629485 -0.01969474 0.14911015 -0.15775093 0.012368977 0.16484015 -0.09276577 0.052754235
0.022563035 -0.19464134 0.018854419 0.16688778 -0.04226823 -0.036609482 -0.06383111 0.009883615
-0.059898093 -0.000121797115 0.02402395 -0.025076091 0.10256245 0.037398003 0.03134391 -0.20568474
0.017791007 0.10849263 0.01560921 0.0058737993 -0.2060919 -0.12627278 -0.04104942 0.0067344895
0.022071939 -0.021933889 -0.035304084 -0.014222549 0.09855213 -0.017456105 0.20471022 -0.0007265957
0.07513758 0.17359453 -0.009621594 -0.04371978 -0.015194543 -0.06672195 -0.05024703 0.04822401
0.0753029 0.17114891 0.12640509 -0.122738004 -3.7445443e-06 0.035074607 -0.16890596 0.032254633
0.12587719 -0.19416803 0.19301534 -0.06435546 0.14908038 -0.1788631 -0.0017008313 -0.025759088
-0.15694828 0.06887763 0.029382803 -0.079494745 0.104539014 -0.17133148 -0.024917793 -0.017372506
-0.06245048 0.10093865 -0.0032468252 -0.06374114 0.06267837 0.012425545 -0.005815088 0.016811764
-0.077392325 0.056566812 -0.11251183 0.13917187 -0.09656653 0.12078509 0.01943314 0.09010442
0.13815558 0.08930415 -0.13013148 -0.07213396 0.11720916 0.058374353 0.030250084 -0.06755057
-0.068330035 0.121326536 0.16840203 -0.08829206 0.087661594 0.040475756 0.048993517 -0.1692183
-0.13710499 0.066576384 -0.072484605 0.011135598 0.004139562 0.21313238 0.25274783 0.016343072
-0.09198861 -0.11221845 0.031422693 0.039054062 0.1083032 0.1637991 -0.0039778743 0.13591668
0.041069508 0.008355124 0.10333353 -0.16220467 -0.024862587 -0.07693876 0.0561635 -0.27538162
-0.06625338 0.042319227 0.05564189 0.030258417 0.083637916 -0.28846008 0.15031335 0.035757076
0.094218805 0.049084127 -0.08029948 -0.033142406 0.10706153 0.14215122 0.20971332 -0.037013322
0.37347952 0.012861515 0.08018106 0.07961803 0.006106856 -0.008134242 -0.14726098 -0.004269052
-0.096503556 -0.19377425 0.061479747 0.082200296 0.17740074 0.118686214 0.229636 -0.02863392
0.07101224 0.14824706 0.04809116 -0.04372724 0.08639982 0.06995466 -0.032193057 0.049776692
0.058798168 -0.07331449 0.3008892 0.07491805 0.09253631 0.06725051 0.044165116 0.0066087763
-0.080192685 -0.2291669 0.09234489 -0.17959365 -0.042810407 0.084809996 0.14358315 0.1342822
0.08912694 0.10499264 -0.18914126 -0.12987348 -0.029439714 -0.12849374 -0.03014386 0.13668945
00000000: 54d0 58ba dbe6 30ba 2dc3 f5bd 578a 633d
00000010: 319a 59ba 550e 16be 937f 363e eb40 a9bc
00000020: a12c 9f3c 7f46 073d 0797 273a 278d 61bc
00000030: cbd8 163d 32f4 8dbc ebd1 953b 6d15 33bc
00000040: c217 c6bd 1226 f9bc 4fa6 ecbd 41bf fd3d
00000050: c623 773c d0ab bfbb f565 4fbc 8020 abbd
00000060: 7693 533e 2004 3dbd f175 133d a356 e73c
00000070: 1ec6 8cbb f21a db3d 48bc 2bbc cad1 6a3d
00000080: ebf3 c53d 1599 3cbe 6015 703d 84cc 093e
00000090: 2686 c4bb c0bd 80be c9ba 46be 00a6 c6bd
000000a0: 2b9b d73d bc81 5f3d 13d4 373d 498b eebc
000000b0: 48e9 c33d 8188 7bbd 94b8 b73d 89b8 493d
000000c0: a16a 13be 2879 acbd 9d12 263d c7c3 363c
000000d0: 0659 963d 02cf 36bd 4e67 d4bc d137 14be
000000e0: cbc6 1cbc db48 38bb 7d17 f03d bbf3 35bd
000000f0: 1df1 65bc 5b92 093e b034 01bd 1c99 93bd
00000100: 14c4 3e3e dd56 a1bc 55b0 183e 7689 21be
00000110: 40a7 4a3c dbcb 283e fbfb bdbd d314 583d
00000120: 1dd6 b83c 0f50 47be 9574 9a3c a1e4 2a3e
00000130: 7421 2dbd d3f3 15bd e3b9 82bd e3ee 213c
00000140: b457 75bd 546d ffb8 e0cd c43c 606c cdbc
00000150: 430c d23d a62e 193d 7962 003d 059f 52be
00000160: 72be 913c 6231 de3d c6bd 7f3c 0079 c03b
00000170: c109 53be a74d 01be 7023 28bd feac dc3b
00000180: 36d0 b43c b3ae b3bc 049b 10bd b205 69bc
00000190: b3d5 c93d 1b00 8fbc 8e9f 513e 0379 3eba
000001a0: bbe1 993d c4c2 313e e4a3 1dbc 8313 33bd
000001b0: 88f2 78bc 85a5 88bd d4cf 4dbd 8a86 453d
000001c0: 6838 9a3d a941 2f3e 5670 013e 105e fbbd
000001d0: c84a 7bb6 64aa 0f3d aff5 2cbe 6f1d 043d
000001e0: f3e5 003e fcd3 46be d0a5 453e cccc 83bd
000001f0: 87a8 183e e327 37be 6eee deba b904 d3bc
00000200: 0db7 20be b70f 8d3d 34b4 f03c 24ce a2bd
00000210: 8d18 d63d 8571 2fbe 6620 ccbc c950 8ebc
00000220: 13cc 7fbd ecb8 ce3d b0c8 54bb b78a 82bd
00000230: 845d 803d 8394 4b3c 7e8c bebb d3b8 893c
00000240: de7f 9ebd 9ab2 673d 9a6c e6bd 1283 0e3e
00000250: acc4 c5bd 2c5e f73d 4032 9f3c ab88 b83d
00000260: a878 0d3e 18e5 b63d 3041 05be f8ba 93bd
00000270: 5b0b f03d f219 6f3d 06cf f73c f457 8abd
00000280: 9ef0 8bbd 0c7a f83d 9571 2c3e 78d2 b4bd
00000290: ec87 b33d e8c9 253d 6dad 483d 9047 2dbe
000002a0: 4065 0cbe 3359 883d cf72 94bd 1572 363c
000002b0: 2aa5 873b 603f 5a3e 2a68 813e e8e1 853c
000002c0: 8664 bcbd c9d2 e5bd 15b5 003d 27f7 1f3d
000002d0: 11ce dd3d f4ba 273e d458 82bb be2d 0b3e
000002e0: 8038 283d eee3 083c 88a0 d33d fb18 26be
000002f0: a0ac cbbc 1292 9dbd b30b 663d d2fe 8cbe
00000300: daaf 87bd ed56 2d3d c0e8 633d 80e0 f73c
00000310: 5b4a ab3d 0ab1 93be beeb 193e 0376 123d
00000320: caf5 c03d 700c 493d 0e74 a4bd 55c0 07bd
00000330: 1343 db3d 1790 113e 17bf 563e 489b 17bd
00000340: b538 bf3e 1bb9 523c f835 a43d c70e a33d
00000350: 051c c83b 7c45 05bc 95cb 16be 67e3 8bbb
00000360: a8a3 c5bd c26c 46be 30d2 7b3d a158 a83d
00000370: 8aa8 353e c211 f33d b325 6b3e af91 eabc
00000380: de6e 913d 14ce 173e 3cfb 443d 561b 33bd
00000390: 64f2 b03d 6444 8f3d dedc 03bd a5e2 4b3d
000003a0: 59d6 703d e825 96bd 260e 9a3e a26e 993d
000003b0: ad83 bd3d a3ba 893d 7be6 343d 6f8e d83b
000003c0: 103c a4bd baaa 6abe 511f bd3d 66e7 37be
000003d0: f759 2fbd ddb0 ad3d 7607 133e 4681 093e
000003e0: 2f88 b63d 6206 d73d 3fae 41be 8efd 04be
000003f0: 8e2b f1bc dd93 03be 42f0 f6bc 52f8 0b3e

network.3.bias f4 [2]
-0.047115725 0.2415203
00000000: 6bfc 40bd 1951 773e

encoder.0.conv.0.weight f4 [80, 150]
0.07674789 -0.15675226 0.117516905 0.044354264 -0.0201914 0.028273087 0.032854293 0.04144562
-0.15154353 -0.04229175 -0.022552157 0.03044394 -0.021224646 0.104140736 0.08751399 -0.031850968
-0.06430614 0.07460739 0.052718863 0.014970922 -0.13255571 0.048716303 -0.14393762 0.1677025
0.006147837 -0.09168068 -0.0402305 -0.008616001 0.06816435 0.020952625 -0.10541547 -0.017888388
0.054562982 -0.008783636 -0.101943895 -0.038730685 0.07867519 -0.052501682 -0.114108615 -0.013748485
0.016845966 -0.064605124 0.042545736 0.04846392 -0.06862333 -0.010979725 0.038875356 -0.06535561
-0.05920368 0.017053539 -0.036393892 -0.044043 -0.14607595 0.051394597 -0.060661044 0.09494121
-0.114796035 0.09458316 -0.07916993 -0.11815409 -0.13528578 0.046476826 -0.045890547 0.16651082
0.038858376 0.033189025 0.05935456 -0.085080504 -0.097244486 0.07657693 -0.02790954 -0.2534553
-0.08113527 -0.22851887 0.06054798 0.040896613 -0.028904196 -0.031938218 0.118177466 -0.009726154
-0.17127083 -0.12447689 0.065275066 0.106340185 0.088534035 0.04659375 0.19445768 -0.07236706
0.15027204 -0.07986306 0.0031713378 -0.0131099755 -0.057762973 0.11849157 -0.009690554 -0.21093038
-0.08970953 -0.08915132 0.009737771 -0.20976523 0.07428532 0.015383537 0.13493107 -0.14011003
0.013171035 -0.04633349 0.1787717 0.012926592 -0.054305222 -0.11048733 0.056334164 0.2340107
-0.013322774 -0.09185849 -0.0382428 0.061781254 -0.06081382 -0.0036959385 0.07004666 -0.085041106
0.10388873 -0.18428184 0.2427703 -0.14506465 0.24813236 -0.22409555 -0.07419298 0.18497998
-0.113205254 -0.15515551 -0.0948944 -0.019557903 0.056290526 -0.037092566 -0.08803276 0.06818229
0.042302202 -0.0253015 -0.16416498 0.06930662 -0.011091106 -0.16647305 0.12968399 -0.10663514
0.042610876 -0.042748734 -0.1621991 0.10864154 0.029471206 0.029853584 -0.037262823 -0.07553048
0.07746182 0.20411734 -0.08736908 0.081394635 -0.18885006 -0.05484313 0.043408036 0.07228022
0.18679251 -0.17427722 -0.06743172 0.077860594 -0.029195786 0.03351206 -0.12213952 0.058793798
0.07901382 0.043350205 0.14320092 0.15652335 -0.0650537 -0.104935385 0.014030836 0.03922589
0.06464557 0.09318332 0.18189877 0.16160041 -0.047093764 0.01131579 0.072744824 -0.018059364
-0.10433221 0.09651379 -0.16884583 -0.12341966 0.06603656 -0.07003897 -0.20032245 -0.01783279
-0.021086028 0.05642001 0.11006521 -0.058346387 -0.014310341 0.06955476 0.007776533 0.039262068
0.028135065 -0.04665687 -0.03345168 -0.011460662 -0.17618273 0.1158695 -0.0011022276 0.15049918
0.19602518 0.06504177 -0.17816666 -0.01699215 -0.029587967 -0.017205814 -0.07981137 0.116545826
0.112316914 0.093409106 -0.08319513 0.09748314 0.006492057 -0.057945114 0.049561914 0.021721985
0.09093066 0.03721221 -0.080786735 -0.03626013 -0.022996025 -0.09210602 -0.06779319 -0.1315433
0.06333217 -0.018708445 -0.07727813 0.022932991 0.021419583 0.1499133 0.19448145 0.19717157
0.28802222 0.09976989 -0.04739558 0.14372337 0.11975159 0.14967743 -0.065049 -0.025842164
0.066941686 0.05973263 0.05913808 -0.16764492 -0.037659116 -0.1719802 0.21061796 -0.119444214
00000000: ff2d 9d3d aa83 20be b4ac f03d d1ac 353d
00000010: 6f68 a5bc f69c e73c 3992 063d e2c2 293d
00000020: 3a2e 1bbe 1d3a 2dbd 4dbf b8bc 9265 f93c
00000030: 4fdf adbc bd47 d53d 893a b33d 2976 02bd
00000040: f0b2 83bd c2cb 983d bcef 573d 9948 753c
00000050: afbc 07be bf8a 473d 6264 13be 34ba 2b3e
00000060: cb73 c93b 15c3 bbbd bdc8 24bd 212a 0dbc
00000070: c099 8b3d d7a4 ab3c 11e4 d7bd ab8a 92bc
00000080: 6f7d 5f3d 3de9 0fbc f6c7 d0bd 11a4 1ebd
00000090: 7520 a13d 010c 57bd c7b1 e9bd 5341 61bc
000000a0: 8d00 8a3c b14f 84bd 7044 2e3d 1a82 463d
000000b0: 638a 8cbd 4ee4 33bc c43b 1f3d 29d9 85bd
000000c0: 8f7f 72bd ddb3 8b3c c311 15bd 6f66 34bd
000000d0: ef94 15be 2483 523d b777 78bd 8970 c23d
000000e0: 2f1a ebbd d1b4 c13d d823 a2bd c6fa f1bd
000000f0: 5b88 0abe 7c5e 3e3d baf7 3bbd d081 2a3e
00000100: f629 1f3d 37f1 073d c41d 733d b03e aebd
00000110: 1e28 c7bd 5ed4 9c3d 8ca2 e4bc e5c4 81be
00000120: 402a a6bd da00 6abe 2901 783d 3583 273d
00000130: 7ec8 ecbc a6d1 02bd 0707 f23d 725a 1fbc
00000140: 9f61 2fbe bded febd efae 853d e2c8 d93d
00000150: 5551 b53d 17d9 3e3d ea1f 473e 2e35 94bd
00000160: eae0 193e 3e8f a3bd 38d6 4f3b 39cb 56bc
00000170: de98 6cbd b5ab f23d 21c5 1ebc 22fe 57be
00000180: a1b9 b7bd f894 b6bd 2c8b 1f3c b2cc 56be
00000190: e722 983d 3b0b 7c3c 5f2b 0a3e 0179 0fbe
000001a0: 53cb 573c 30c8 3dbd ee0f 373e 0eca 533c
000001b0: 276f 5ebd 2e47 e2bd a7be 663d 80a0 6f3e
000001c0: c447 5abc 4e20 bcbd 7ba4 1cbd 570e 7d3d
000001d0: ea17 79bd 8f37 72bb a074 8f3d 082a aebd
000001e0: 9dc3 d43d 61b4 3cbe c798 783e d48b 14be
000001f0: 6916 7e3e 4e79 65be 7df2 97bd 646b 3d3e
00000200: 28d8 e7bd 16e1 1ebe ff57 c2bd e537 a0bc
00000210: e590 663d 60ee 17bd 854a b4bd 28a3 8b3d
00000220: 1345 2d3d 1745 cfbc dd1a 28be a1f0 8d3d
00000230: 78b7 35bc e977 2abe e1cb 043e 8663 dabd
00000240: be88 2e3d 4c19 2fbd 8517 26be 757f de3d
00000250: 996d f13c 818f f43c e7a0 18bd b9af 9abd
00000260: 4da4 9e3d 2304 513e 8fee b2bd 3bb2 a63d
00000270: e961 41be 31a3 60bd a0cc 313d a707 943d
00000280: 8946 3f3e ba75 32be a419 8abd 6075 9f3d
00000290: 002c efbc f143 093d 4924 fabd c4d1 703d
000002a0: ffd1 a13d fc8f 313d 43a3 123e a847 203e
000002b0: e03a 85bd 5de8 d6bd 97e1 653c 54ab 203d
000002c0: e664 843d e5d6 be3d ac43 3a3e 947a 253e
000002d0: 64e5 40bd dd65 393c 3dfb 943d 3bf1 93bc
000002e0: 20ac d5bd 06a9 c53d ece5 2cbe 72c3 fcbd
000002f0: 2d3e 873d 9770 8fbd 5421 4dbe 1216 92bc
00000300: 9bbc acbc ab18 673d de69 e13d 9ffc 6ebd
00000310: ec75 6abc ba72 8e3d 49d2 fe3b 43d1 203d
00000320: 827b e63c 461b 3fbd a104 09bd 80c5 3bbc
00000330: 3f69 34be fd4c ed3d 9f78 90ba 751c 1a3e
00000340: d3ba 483e 9f34 853d 5271 36be 1f33 8bbc
00000350: 7762 f2bc 35f3 8cbc 2574 a3bd 94af ee3d
00000360: 6906 e63d 464d bf3d 3562 aabd 3ea5 c73d
00000370: 52bb d43b db57 6dbd 6f01 4b3d 4ef2 b13c
00000380: db39 ba3d d56b 183d 8473 a5bd 8185 14bd
00000390: 2962 bcbc 15a2 bcbd 28d7 8abd 49b3 06be
000003a0: 4cb4 813d 7442 99bc ff43 9ebd f8dd bb3c
000003b0: 1f78 af3c df82 193e 2526 473e 58e7 493e
000003c0: a677 933e 2854 cc3d de21 42bd 382c 133e
000003d0: 5240 f53d 0a45 193e 6938 85bd f2b2 d3bc
000003e0: b918 893d 34aa 743d c53a 723d 1cab 2bbe
000003f0: 7240 1abd 941b 30be 3cac 573e 2b9f f4bd

encoder.0.conv.0.bias f4 [80]
-0.0016625439 0.046688754 0.07559093 -0.12103529 0.10184385 0.009817158 -0.023607884 0.21480826
-0.14692704 0.010964045 -0.008641369 0.024496596 -0.14059293 -0.12296613 0.028217776 -0.22318618
0.05220914 -0.011328676 -0.20139007 0.02166324 -0.05993529 0.13937633 0.21336338 -0.1274141
0.18964896 0.06140131 0.014243608 0.011313139 -0.08095392 -0.14075305 0.008093226 -0.016151765
-0.07117051 0.024621947 0.09907581 -0.073536724 -0.12480467 -0.21049969 0.10839375 0.11697967
-0.009731966 -0.05064842 -0.063825995 0.22040221 0.065496564 -0.043649204 0.04086086 -0.12519453
0.1148968 0.15932357 0.053113375 0.13466369 -0.118944965 0.029386986 0.020619765 0.049921498
-0.07973363 0.19741891 -0.01233474 0.22224343 0.14908692 0.0009097672 -0.037733406 0.0058848416
-0.07007716 0.2185213 0.045708716 0.121471904 0.045065057 -0.15963274 -0.13336155 -0.116860926
0.05271296 0.18676758 -0.09533554 0.08359387 0.06772163 -0.096431 0.070081346 0.04141085
00000000: b7e9 d9ba b53c 3f3d 6bcf 9a3d 5ae1 f7bd
00000010: 8293 d03d 25d8 203c 5265 c1bc b2f6 5b3e
00000020: 0b74 16be 8aa2 333c 8794 0dbc 16ad c83c
00000030: 98f7 0fbe abd5 fbbd f728 e73c eb8a 64be
00000040: 40d9 553d e99b 39bc 3339 4ebe 1b77 b13c
00000050: b57e 75bd abb8 0e3e ee7b 5a3e d878 02be
00000060: 5633 423e f17f 7b3d 065e 693c bf5a 393c
00000070: 2bcb a5bd 9121 10be 7399 043c b550 84bc
00000080: d8c1 91bd f7b3 c93c 42e8 ca3d 6c9a 96bd
00000090: 9799 ffbd 3b8d 57be 8bfd dd3d 0a93 ef3d
000000a0: d372 1fbc b874 4fbd 34b7 82bd 1eb1 613e
000000b0: 1023 863d 82c9 32bd b85d 273d ff32 00be
000000c0: 034f eb3d b825 233e 698d 593d 47e5 093e
000000d0: 6b99 f3bd fabc f03c c8ea a83c 7c7a 4c3d
000000e0: 634b a3bd 2f28 4a3e a617 4abc c893 633e
000000f0: 3eaa 183e 717d 6e3a 588e 1abd a1d5 c03b
00000100: 9d84 8fbd 0cc4 5f3e 1039 3b3d 43c6 f83d
00000110: 2396 383d c476 23be ee8f 08be c854 efbd
00000120: 8be9 573d 0040 3f3e 483f c3bd 4333 ab3d
00000130: a3b1 8a3d 9e7d c5bd cf86 8f3d 6c9e 293d
