exomy/config/best_run_no_obstacles405k/checkpoints/615000_policy.pt (torch, 723582 bytes, 13 tensors)

log_std_parameter f4 [2]
-1.4048676 -0.8091594
00000000: b4d2 b3bf 1225 4fbf

network.0.conv.0.weight f4 [512, 5]
0.41832894 -0.28279522 -0.0012619125 -0.08139762 0.16602008 0.15631112 0.17332414 0.1474368
-0.07727071 -0.011493034 -0.020090552 0.0072962926 0.010067817 -0.25415552 0.057578485 0.093083076
-0.15926121 0.14370343 0.06327737 0.1700941 0.05215973 -0.012371635 0.082452394 0.19275008
0.12581505 0.24162564 0.47427914 0.015075593 -0.17199655 -0.027814725 -0.29346335 -0.02988719
0.055362344 -0.021665666 -0.060733583 0.0064151688 -0.033481836 0.048419155 0.095090486 -0.073632
0.0844618 -0.5362358 -0.004052422 -0.043788012 -0.020454518 -0.19532925 -0.2153504 -0.17201425
0.031374168 -0.1882414 0.012356458 0.46732485 0.066082805 0.16959614 0.0029541685 -0.008044969
0.21378392 -0.018836547 0.13806011 -0.07041405 0.27336687 -0.12781316 0.08595763 0.031247731
0.12752973 0.2906439 -0.40918124 -0.0052445834 0.1953302 0.008031695 -0.06334399 0.0018455754
-0.003094049 0.08333093 0.15233283 -0.2382318 0.4366572 0.060112055 0.15718366 -0.033174805
0.24645998 0.5667516 0.047954667 -0.14921504 0.1479129 -0.17184424 0.18083681 0.08114964
-0.11468522 0.048407566 0.26900384 0.14767572 -0.0450341 0.009422096 0.036050748 -0.49687007
-0.37818387 -0.018122308 0.051687278 -0.037449095 -0.22861679 0.018362384 -0.057953823 -0.015914375
0.078033246 -0.33417523 0.27555948 -0.057811372 -0.26309672 0.22361313 -0.13029036 -0.109030545
0.06251049 0.04703897 -0.008841028 -0.19821866 0.44649103 -0.006930135 0.006882187 -0.042142436
0.3814911 0.12962948 0.123340525 -0.018210288 -0.114848815 -0.20908903 -0.5294089 -0.02290482
0.075447835 -0.06718121 -0.49348965 0.05168592 0.09762681 -0.03159792 -0.016568763 -0.4410414
0.4622282 -0.040093824 -0.08796703 -0.07044875 0.17948623 0.15457688 -0.03620858 0.14683022
-0.014895785 0.06265155 0.33371022 0.08684502 0.057883576 -0.037817843 -0.2070594 0.15749745
0.009969441 -0.15435499 -0.20488887 -0.28605255 -0.24625242 0.07287836 0.06862063 -0.13136673
-0.27468216 -0.25923216 0.029943034 -0.17049055 0.09714167 -0.32896438 -0.055027537 0.007882541
0.018989697 -0.091203235 -0.019097716 0.5445565 0.0024019238 -0.030061716 -0.030052891 0.34938586
0.09319973 0.04485801 -0.07173431 -0.06972628 -0.34136143 0.49234247 -0.04027786 -0.13024834
0.21988826 0.36913675 0.03780954 -0.03625291 0.059964772 0.01617409 -0.14777161 -0.33379066
0.0044669583 -0.02804018 0.031024693 0.024687972 -0.7136187 -0.04975278 -0.045860913 0.12857871
0.07323254 0.40277746 0.03030898 0.11145258 0.022049593 -0.15381734 -0.36506093 0.008226852
-0.115769625 -0.07639931 -0.12197944 -0.4140363 -0.048385106 -0.039272424 -0.20591998 0.36706966
0.5351537 0.014074128 -0.07323273 0.11002427 -0.28309983 -0.16073146 0.075637795 0.08968595
-0.18027902 0.08387569 0.21341772 0.025702326 -0.070865616 0.07980679 0.49224448 -0.28037658
-0.009899495 -0.07398012 -0.12229297 0.31987825 -0.12392798 -0.030930951 -0.06389576 0.07488472
-0.1835656 0.20498079 0.013561492 -0.10554282 -0.064583145 -0.34433356 -0.46761927 -0.012245537
-0.06379356 -0.045598876 0.25401673 0.38126293 0.096509315 -0.18588334 -0.22218166 0.26610687
00000000: 362f d63e 89ca 90be c266 a5ba ccb3 a6bd
00000010: 2b01 2a3e 0610 203e e27b 313e acf9 163e
00000020: 1b40 9ebd 474d 3cbc f194 a4bc bd15 ef3b
00000030: 7cf3 243c ac20 82be 6bd7 6b3d 57a2 be3d
00000040: 5f15 23be fe26 133e 9197 813d 262d 2e3e
00000050: 71a5 553d 66b2 4abc cddc a83d 4760 453e
00000060: a9d5 003e b66c 773e b7d4 f23e 9fff 763c
00000070: dd1f 30be b5db e3bc d440 96be fbd5 f4bc
00000080: a0c3 623d 327c b1bc c7c3 78bd 5636 d23b
00000090: 4024 09bd 2a53 463d cdbe c23d 60cc 96bd
000000a0: 4ffa ac3d c046 09bf 2eca 84bb 0f5b 33bd
000000b0: 3c90 a7bc 6404 48be d184 5cbe 8124 30be
000000c0: 3382 003d 5bc2 40be be72 4a3c 3445 ef3e
000000d0: 6c56 873d 9caa 2d3e b99a 413b 0ccf 03bc
000000e0: 2cea 5a3e 1a4f 9abc a15f 0d3e 3e35 90bd
000000f0: bef6 8b3e 74e1 02be 8e0a b03d 3efb ff3c
00000100: 2797 023e 47cf 943e 3480 d1be c1da abbb
00000110: a404 483e 5f97 033c 7eba 81bd 3ce7 f13a
00000120: 87c5 4abb 68a9 aa3d 23fd 1b3e 09f3 73be
00000130: 8891 df3e 0f38 763d c1f4 203e 4ee2 07bd
00000140: 0160 7c3e a216 113f 1d6c 443d d4cb 18be
00000150: 7b76 173e f0f7 2fbe 492d 393e c831 a63d
00000160: 16e0 eabd 0347 463d dfba 893e 4e38 173e
00000170: ad75 38bd 235f 1a3c f3a9 133d c165 febe
00000180: 51a1 c1be 3c75 94bc 0ab6 533d 3964 19bd
00000190: 851a 6abe b66c 963c fd60 6dbd dd5e 82bc
000001a0: e5cf 9f3d 0419 abbe 2216 8d3e 9ecb 6cbd
000001b0: 9db4 86be d7fa 643e d66a 05be 684b dfbd
000001c0: 8005 803d efab 403d f6d9 10bc d5f9 4abe
000001d0: 799a e43e 3016 e3bb f883 e13b 8c9d 2cbd
000001e0: cd52 c33e 97bd 043e f599 fc3d be2d 95bc
000001f0: db35 ebbd 6f1b 56be 5787 07bf e4a2 bbbc
00000200: 6584 9a3d 4d96 89bd adaa fcbe 9eb4 533d
00000210: 91f0 c73d d26c 01bd 37bb 87bc 2ed0 e1be
00000220: 2da9 ec3e 6c39 24bd 0f28 b4bd 6f47 90bd
00000230: 3dcb 373e 6749 1e3e 734f 14bd a95a 163e
00000240: 730d 74bc 754f 803d 11dc aa3e cddb b13d
00000250: 5417 6d3d e2e6 1abd 6107 54be 0347 213e
00000260: de56 233c 3c0f 1ebe 63ce 51be 7b75 92be
00000270: 9829 7cbe 4041 953d f988 8c3d 0085 06be
00000280: 24a3 8cbe 14ba 84be 184b f53c 1395 2ebe
00000290: 36f2 c63d 056e a8be 8e64 61bd c625 013c
000002a0: 4890 9b3c c3c8 babd d072 9cbc 0e68 0b3f
000002b0: 9869 1d3b fd43 f6bc 7b31 f6bc b4e2 b23e
000002c0: 80df be3d 08bd 373d 70e9 92bd a7cc 8ebd
000002d0: edc6 aebe 5014 fc3e 66fa 24bd d25f 05be
000002e0: 632a 613e 7eff bc3e 2dde 1a3d ee7d 14bd
000002f0: 9f9d 753d 867f 843c 7151 17be 9ce6 aabe
00000300: 905f 923b 85b4 e5bc 7f27 fe3c 6e3e ca3c
00000310: b7af 36bf 92c9 4bbd a7d8 3bbd 23aa 033e
00000320: f1fa 953d d938 ce3e 8a4a f83c 4041 e43d
00000330: 59a1 b43c 4b82 1dbe 44e9 babe ebc9 063c
00000340: a018 edbd 3e77 9cbd 5bd0 f9bd 91fc d3be
00000350: 762f 46bd 1fdc 20bd b0dc 52be 8ef0 bb3e
00000360: d5ff 083f 2c97 663c 0bfb 95bd 6854 e13d
00000370: 76f2 90be ca96 24be fde7 9a3d 44ad b73d
00000380: 109b 38be 05c7 ab3d 2d8a 5a3e af8d d23c
00000390: fe21 91bd be71 a33d 7807 fc3e 858d 8fbe
000003a0: 7e31 22bc e482 97bd bd74 fabd 15c7 a33e
000003b0: f4cd fdbd e862 fdbc c8db 82bd 295d 993d
000003c0: 9ff8 3bbe 7ce6 513e 0531 5e3c d626 d8bd
000003d0: 2b44 84bd 7d4c b0be cb6b efbe 81a1 48bc
000003e0: 33a6 82bd e3c5 3abd 7b0e 823e e534 c33e
000003f0: ada6 c53d 3458 3ebe 9783 63be 293f 883e

network.0.conv.0.bias f4 [512]
0.05826718 -0.17873943 -0.07286315 -0.12356131 -0.31124783 0.030253902 -0.18977407 -0.19898914
0.09660179 -0.06832233 -0.07364124 -0.06793998 -0.11511967 0.03164222 -0.14258681 0.055859752
-0.014004317 -0.13110402 -0.028796695 0.06031369 0.12867388 0.041787382 -0.1446813 0.038284298
0.12036865 0.078631215 -0.0023024362 0.047634915 -0.14122826 -0.09815665 -0.00023356144 -0.17235751
0.037934378 -0.009196405 0.03159795 -0.028894544 0.03708675 -0.031897254 -0.046760064 0.034463644
0.06912314 0.09117738 -0.131874 0.03423739 -0.22983637 0.054444183 0.021445869 -0.09146537
-0.02008743 0.07356553 -0.09683412 0.032940064 0.052917458 0.07898895 0.07718188 0.13083729
-0.010981421 -0.051552236 0.037380654 -0.21297346 0.06259987 0.027577177 0.114558406 0.036962364
0.15412374 -0.04052845 0.061714053 0.0655894 -0.058770884 0.08698741 -0.0086018825 0.03443497
-0.08837021 -0.030740518 -0.1239758 -0.008744035 -0.18039444 -0.024576161 -0.05554848 -0.21788475
0.009295259 0.035505306 -0.05558633 0.16898015 0.11328846 0.009523799 0.052160423 -0.037004862
-0.0375597 -0.18592653 0.02939265 -0.17692004 0.06266093 -0.2776482 -0.12215957 0.031633332
0.056648932 0.09189194 -0.06739613 -0.0057061175 0.05818473 0.050725695 0.09418317 -0.18104468
0.032519814 0.026173081 -0.053069852 -0.045382652 -0.09624911 -0.1134948 0.002201897 0.009819228
-0.08263769 0.095502935 -0.021057434 -0.1564162 0.048919544 -0.06346713 0.018407086 0.04254091
-0.07820468 -0.02350141 0.06499362 -0.027708188 -0.17384624 -0.16960484 -0.19457637 0.059227746
-0.121055365 0.070428215 0.032464307 -0.13015345 -0.053591438 0.030007226 0.0029826243 0.020215183
0.012267073 0.011288938 0.016216608 -0.026059562 -0.19016397 -0.20907237 0.027524563 -0.07958377
-0.02791321 -0.03154672 -0.058117535 -0.10458047 0.03727828 -0.039517373 -0.024908515 -0.033705715
-0.20127861 -0.0628109 -0.14479782 0.077404626 0.00017868148 0.024427513 -0.08318749 -0.11727923
-0.029368501 0.028382339 -0.091790244 0.16682795 -0.07116663 -0.053243615 -0.003540521 0.14090952
0.0015416532 -0.23176606 -0.06682361 -0.16108787 0.16993093 -0.18323071 -0.11698254 -0.08252189
-0.018424083 -0.024125816 -0.00030067007 0.007659947 -0.0329067 0.024846561 -0.07111415 -0.23825133
-0.16657604 0.048341144 -0.09389238 -0.1965685 0.087433584 -0.16148931 0.089969635 -0.15544416
-0.13690743 -0.15183742 -0.07205662 0.090581805 -0.20121385 0.0083657345 -8.902639e-05 -0.05923338
0.016315656 -0.27239183 0.020137258 -0.06872744 -0.032602884 -0.03994346 -0.04419184 -0.124431945
-0.13241622 -0.12495815 -0.2675943 -0.20962065 -0.061328143 -0.10663517 0.0040379264 0.07083357
0.12121831 0.06418254 0.027571028 -0.13344494 -0.1197094 -0.08139705 -0.17071952 -0.25391263
-0.1788159 0.032788716 -0.05918722 -0.10729314 -0.1472632 0.027448196 -0.16342938 -0.06256756
-0.25805628 0.029514156 -0.1792648 -0.2052845 0.09974733 -0.031849064 -0.13247223 0.008294635
-0.035060905 0.015949426 -0.16457483 -0.0068928627 -0.017313443 -0.03201849 -0.012193492 0.025401702
0.011945991 -0.18707912 -0.0073028263 -0.11311389 -0.057426505 -0.039272435 -0.15391204 -0.12923512
00000000: 91a9 6e3d 7807 37be 4639 95bd b60d fdbd
00000010: e05b 9fbe 08d7 f73c 2254 42be cfc3 4bbe
00000020: 29d7 c53d 94ec 8bbd 38d1 96bd 1e24 8bbd
00000030: ddc3 ebbd 469b 013d 4702 12be 32cd 643d
00000040: 5d72 65bc 2240 06be 0ce7 ebbc 7d0b 773d
00000050: 16c3 033e 3f29 2b3d 5627 14be ffcf 1c3d
00000060: d783 f63d 6709 a13d 78e4 16bb d41c 433d
00000070: 249e 10be 5b06 c9bd 2ce8 74b9 7d7e 30be
00000080: 1461 1b3d 85ac 16bc da6c 013d 40b4 ecbc
00000090: 47e8 173d b2a6 02bd 7b87 3fbd c029 0d3d
000000a0: 6f90 8d3d 35bb ba3d fa09 07be 813c 0c3d
000000b0: 3a5a 6bbe dd00 5f3d 3faf af3c 3252 bbbd
000000c0: 658e a4bc 86a9 963d f850 c6bd 29ec 063d
000000d0: fabf 583d f5c4 a13d 8911 9e3d 36fa 053e
000000e0: 6beb 33bc 7028 53bd 751c 193d b715 5abe
000000f0: 5c34 803d 88e9 e13c 999d ea3d d965 173d
00000100: 9dd2 1d3e 2901 26bd e0c7 7c3d bc53 863d
00000110: bdb9 70bd 7526 b23d e9ee 0cbc af0b 0d3d
00000120: 71fb b4bd 8ad3 fbbc 06e7 fdbd 2443 0fbc
00000130: 52b9 38be f253 c9bc ce86 63bd 2e1d 5fbe
00000140: 244b 183c 036e 113d 7eae 63bd 2209 2d3e
00000150: c803 e83d b509 1c3c 2ba6 553d 6992 17bd
00000160: 33d8 19bd 8663 3ebe dbc8 f03c 872a 35be
00000170: 6054 803d e827 8ebe cc2e fabd f491 013d
00000180: b608 683d d731 bc3d fb06 8abd 62fa babb
00000190: 1d53 6e3d bfc5 4f3d 1be3 c03d c763 39be
000001a0: 7f33 053d ee68 d63c c65f 59bd 29e3 39bd
000001b0: 411e c5bd f66f e8bd b44d 103b d4e0 203c
000001c0: f33d a9bd 0b97 c33d a480 acbc 912b 20be
000001d0: dc5f 483d 0efb 81bd 75ca 963c 613f 2e3d
000001e0: c629 a0bd 0786 c0bc 601b 853d 48fc e2bc
000001f0: c004 32be e4ac 2dbe 073f 47be cb98 723d
00000200: e0eb f7bd ab3c 903d 4bf9 043d f246 05be
00000210: b282 5bbd b7d1 f53c 2278 433b 509a a53c
00000220: d5fb 483c 3df5 383c b1d8 843c dd7a d5bc
00000230: 58ba 42be 1117 56be 317b e13c d1fc a2bd
00000240: 3faa e4bc 2237 01bd a70c 6ebd 492e d6bd
00000250: 1cb1 183d f8dc 21bd f10c ccbc 010f 0abd
00000260: fb1b 4ebe 00a3 80bd e145 14be 5186 9e3d
00000270: 725c 3b39 351c c83c 345e aabd 1830 f0bd
00000280: 3696 f0bc 1482 e83c 86fc bbbd f2d4 2a3e
00000290: cfbf 91bd fa15 5abd 1608 68bb 964a 103e
000002a0: 4c11 ca3a 1554 6dbe d1da 88bd 38f4 24be
000002b0: 6002 2e3e d5a0 3bbe 8b94 efbd 3d01 a9bd
000002c0: 1aee 96bc 81a3 c5bc 41a3 9db9 4b00 fb3b
000002d0: 2dc9 06bd 048b cb3c 4ca4 91bd 28f8 73be
000002e0: e992 2abe 5d01 463d a64a c0bd 4149 49be
000002f0: 6110 b33d 745d 25be 0042 b83d c12c 1fbe
00000300: 7631 0cbe 457b 1bbe 6c92 93bd f482 b93d
00000310: 010b 4ebe 6f10 093c aeb3 bab8 b39e 72bd
00000320: 69a8 853c f176 8bbe e4f6 a43c f9c0 8cbd
00000330: 9a8a 05bd c19b 23bd 8102 35bd 2dd6 febd
00000340: 1e98 07be 0fea ffbd 1f02 89be cca6 56be
00000350: 3833 7bbd 8a63 dabd 9550 843b 3111 913d
00000360: 4e41 f83d 2372 833d a3dc e13c caa5 08be
00000370: 342a f5bd 7fb3 a6bd 19d1 2ebe d600 82be
00000380: 841b 37be 764d 063d 4c6e 72bd 81bc dbbd
00000390: 2acc 16be 0adb e03c 085a 27be 6c23 80bd
000003a0: f41f 84be acc7 f13c 3191 37be 1a36 52be
000003b0: 5448 cc3d 2a74 02bd cda6 07be 39e6 073c
000003c0: 069c 0fbd 5fa8 823c 4e86 28be 86dd e1bb
000003d0: ecd4 8dbc d225 03bd 36c7 47bc 3b17 d03c
000003e0: 1eb9 433c ab91 3fbe 8c4c efbb 41a8 e7bd
000003f0: 0e38 6bbd 22dc 20bd 1e9b 1dbe 3656 04be

network.1.conv.0.weight f4 [256, 512]
-0.008904991 -0.19304857 -0.054036535 0.040930916 -0.0017343158 -0.11501616 -0.1818804 -0.044690985
-0.033066332 -0.10984573 -0.22370158 0.092849754 0.14705393 -0.09166951 -0.10741311 0.32669857
-0.27683222 -0.039544996 0.02125062 0.1863286 0.09259715 0.26292294 0.08137315 0.019739797
0.13892081 -0.0759676 0.19523151 0.12843736 -0.11987393 -0.06958865 -0.17962903 0.00076737104
0.11195573 0.034031924 -0.0016710203 0.041276142 -0.06835973 -0.19303387 0.0057901307 -0.26873487
0.0021114114 0.27511784 -0.06991975 -0.38264745 0.0613021 -0.07714391 -0.18730794 -0.18187404
0.0042039896 0.002317436 -0.006597247 -0.098334976 0.13163319 0.02720758 0.2745494 -0.062566206
-0.31530324 -0.2132169 -0.24412924 -0.44536874 -0.072340466 0.11770763 -0.040611994 -0.040578555
-0.00595794 -0.29963255 -0.0988765 0.009247962 -0.105049275 -0.015334852 0.123540565 -0.08474428
0.025202414 0.30541036 -0.10221773 -0.26088506 -0.24395855 0.0149855465 0.0963174 0.12937675
0.0066510118 -0.16166374 -0.22593115 0.1059871 -0.12920849 0.075651295 -0.25515932 -0.091872886
0.18087485 0.20734607 0.21956632 0.09403015 0.32903785 -0.2941882 0.056882717 0.0062832404
-0.10158174 0.13464768 -0.03847148 -0.18696842 0.09858892 -0.0077759405 0.060341224 -0.22363073
0.21600482 -0.046956718 -0.18420646 -0.02206629 0.24160878 0.11603526 0.24308689 0.04762137
-0.054594684 0.09027596 0.2555048 -0.22203754 0.07927111 -0.15043607 -0.13526963 0.05803348
-0.0994454 0.22236589 -0.11148019 -0.04715557 -0.18660383 -0.32059905 -0.43182775 -0.0001779864
-0.007389657 -0.02192589 0.22022036 -0.02985791 -0.029358082 -0.07147089 -0.09867064 0.01297176
0.058008328 0.092472196 -0.041349426 0.019085722 -0.010923314 0.04541723 -0.25226954 0.086389475
0.042520642 -0.1108866 -0.15697914 -0.08937854 0.1595645 -0.08488575 0.025906652 0.01483318
0.059523445 0.16650204 0.022313727 0.019510427 0.20072792 0.08865448 -0.16880125 0.006933202
-0.026438592 0.0095080305 0.04591108 0.02846727 -0.12697372 0.18768553 0.10461704 0.10183072
-0.024815552 -0.061705034 -0.0084599955 -0.16643886 0.12906863 -0.025076829 0.0059902836 -0.18817538
-0.046134733 0.19395557 0.08837786 3.8990354e-05 -0.1618664 -0.018318972 -0.0003779095 -0.21689603
-0.27048826 0.08283628 0.0064185625 -0.12904137 -0.05021161 0.019654153 0.011721593 -0.22437721
-0.3337897 -0.0011084431 0.0810699 -0.0044950545 0.052570175 -0.041634005 0.16137788 -0.077469274
-0.052475717 -0.21175072 -0.06635903 -0.10266785 0.0009831277 0.10712199 0.14753473 -0.5090687
-0.0052410914 -0.30911392 0.0049830833 -0.29929286 0.102159284 0.01492726 -0.052435726 0.02153149
0.06552739 0.12429244 0.039022967 0.04114989 0.06428781 -0.022983866 -0.11548442 -0.104025885
-0.14714795 -0.01006466 0.013883051 -0.23925121 -0.22928175 -0.21106797 -0.017422065 0.09144363
-0.027601015 0.012657626 -0.026244987 -0.0149926795 -0.018733516 0.022119053 -0.13753678 0.021797152
0.05039423 0.11532602 -0.1436705 0.045512818 -0.08046859 -0.17438476 0.04290252 -0.15746264
-0.042572923 -0.41501766 0.04963862 -0.10466142 0.21982086 -0.13777713 -0.08744455 0.048005003
00000000: 3de6 11bc 86ae 45be 6a55 5dbd 2da7 273d
00000010: fb51 e3ba 988d ebbd db3e 3abe e50d 37bd
00000020: 9070 07bd ccf6 e0bd 0712 65be 0328 be3d
00000030: 4e95 163e 39bd bbbd 68fb dbbd 0945 a73e
00000040: f4bc 8dbe eff9 21bd c815 ae3c edcc 3e3e
00000050: 93a3 bd3d d69d 863e f7a6 a63d 5bb5 a13c
00000060: 4241 0e3e e794 9bbd c5ea 473e 1585 033e
00000070: 7780 f5bd 7e84 8ebd acf0 37be 6629 493a
00000080: 0c49 e53d 0f65 0b3d 2306 dbba 2c11 293d
00000090: 3000 8cbd acaa 45be 23bb bd3b 9e97 89be
000000a0: 9b5f 0a3b 3fdc 8c3e 1632 8fbd 5eea c3be
000000b0: e917 7b3d a0fd 9dbd a7cd 3fbe 303d 3abe
000000c0: 9fc1 893b 20e0 173b b82d d8bb d963 c9bd
000000d0: daca 063e 6ee2 de3c bd91 8c3e b622 80bd
000000e0: 6d6f a1be 8855 5abe 04fd 79be 5f07 e4be
000000f0: 3d27 94bd b310 f13d c358 26bd b335 26bd
00000100: d33a c3bb 7069 99be c37f cabd c484 173c
00000110: 1324 d7bd 083f 7bbc d602 fd3d 698e adbd
00000120: 4b75 ce3c bf5e 9c3e 8757 d1bd ba92 85be
00000130: 45d0 79be f085 753c 0f42 c53d 577b 043e
00000140: bbf0 d93b 2e8b 25be 7f5a 67be c40f d93d
00000150: 3b4f 04be 11ef 9a3d 3ea4 82be da27 bcbd
00000160: 4237 393e 8752 543e fed5 603e e192 c03d
00000170: a677 a83e d69f 96be dafd 683d a4e3 cd3b
00000180: 160a d0bd 15e1 093e 4594 1dbd a674 3fbe
00000190: fde8 c93d 51cd febb 5c28 773d 74ff 64be
000001a0: 5e30 5d3e b055 40bd 9ea0 3cbe 5dc4 b4bc
000001b0: 4b68 773e e5a3 ed3d c5eb 783e a00e 433d
000001c0: ad9e 5fbd 9ae2 b83d 86d1 823e cf5d 63be
000001d0: e458 a23d ea0b 1abe 1f84 0abe 84b4 6d3d
000001e0: 08aa cbbd e2b3 633e ba4f e4bd 3326 41bd
000001f0: 1315 3fbe 8f25 a4be 8718 ddbe dca1 3ab9
00000200: f024 f2bb ed9d b3bc 7281 613e 9398 f4bc
00000210: 5c80 f0bc 545f 92bd d513 cabd 8187 543c
00000220: 249a 6d3d 1062 bd3d 045e 29bd a959 9c3c
00000230: b3f7 32bc 6b07 3a3d 7929 81be f7ec b03d
00000240: 202a 2e3d 8418 e3bd 24bf 20be 190c b7bd
00000250: e064 233e 95d8 adbd 303a d43c de06 733c
00000260: dbce 733d 837f 2a3e 47cb b63c 55d4 9f3c
00000270: 9f8b 4d3e 7b90 b53d 3cda 2cbe ea2f e33b
00000280: bf95 d8bc 92c7 1b3c 420d 3c3d 3134 e93c
00000290: 6605 02be a330 403e 7541 d63d a08c d03d
000002a0: fc49 cbbc 6bbe 7cbd cb9b 0abc f36e 2abe
000002b0: 912a 043e ec6d cdbc 244a c43b 0cb1 40be
000002c0: c6f7 3cbd 4a9c 463e 74ff b43d 9389 2338
000002d0: 4ec0 25be ab11 96bc 2822 c6b9 fe19 5ebe
000002e0: 707d 8abe 11a6 a93d ce52 d23b 6c23 04be
000002f0: b0aa 4dbd bf01 a13c ed0b 403c 24c3 65be
00000300: 7ce6 aabe 2e49 91ba fa07 a63d 404b 93bb
00000310: d353 573d 6b88 2abd 3e40 253e 36a8 9ebd
00000320: c7f0 56bd 2ed5 58be 3ee7 87bd 8643 d2bd
00000330: 4bdc 803a c662 db3d 5813 173e 5452 02bf
00000340: 76bd abbb 2e44 9ebe 2249 a33b ea3c 99be
00000350: e338 d13d 7791 743c d8c6 56bd cf62 b03c
00000360: 3933 863d 098d fe3d 8cd6 1f3d c98c 283d
00000370: 54a9 833d a948 bcbc 1883 ecbd 860b d5bd
00000380: f4ad 16be 3ee6 24bc bd75 633c 45fe 74be
00000390: d6c8 6abe 3422 58be b8b8 8ebc cc46 bb3d
000003a0: 861b e2bc ee61 4f3c baff d6bc dba3 75bc
000003b0: 0877 99bc 0433 b53c 71d6 0cbe f18f b23c
000003c0: 2e6a 4e3d 0c30 ec3d 5c1e 13be a66b 3a3d
000003d0: b7cc a4bd eb91 32be 8eba 2f3d e33d 21be
000003e0: f260 2ebd 327d d4be de51 4b3d ba58 d6bd
000003f0: b818 613e 7315 0dbe 2116 b3bd e5a0 443d

network.1.conv.0.bias f4 [256]
-0.06775441 -0.03155829 0.032071877 0.013296086 -0.011763234 0.07284352 0.047310114 0.07952739
-0.08554226 0.025327392 -0.014617669 -0.16150273 0.08786543 -0.17164497 -0.12142944 -0.10075459
-0.10254363 -0.0008453769 0.021006817 -0.1725291 -0.10163393 0.17550091 -0.09615634 -0.03753668
-0.057217788 0.0076285363 -0.17001925 0.014422608 -0.14258672 0.0042077517 -0.13468388 0.006030504
-0.08390949 -0.24514703 0.16639824 -0.09668537 -0.2314897 -0.020410176 0.0062519643 -0.044047594
-0.09299767 -0.14475626 -0.2246574 0.07225772 0.022648606 0.041789617 -0.12450237 0.02514323
-0.08565173 0.033447813 -0.061204914 0.060922526 -0.058428813 -0.014647262 -0.06618785 -0.005884226
0.012751763 -0.03854355 0.029938405 0.10534488 -0.13830684 -0.067574315 -0.013657776 -0.0037693023
0.022994896 0.015175667 0.14563817 -0.05744166 -0.030886259 -0.059110027 -0.013729038 -0.09730923
0.027492702 -0.12164226 -0.13498887 -0.010878024 -0.029981773 0.006096035 -0.0046280907 0.1899724
-0.11602231 0.036507793 -0.16151273 0.044745255 -0.17614405 -0.1059874 -0.06284806 -0.090818875
0.021377144 -0.01596507 -0.011579091 0.11614117 0.055767164 0.1636717 -0.043223962 -0.01025306
-0.19185273 0.015893182 -0.036013793 0.3103724 0.013882009 -0.0695971 0.07327144 -0.19371994
-0.22033848 -0.05753561 0.11427446 -0.17275156 0.038323168 -0.056191325 0.13669033 -0.17246978
0.07503726 0.11480339 -0.13413104 0.06629187 0.05798325 -0.030663684 -0.014778603 0.15319014
0.003221772 -0.028446287 0.12019216 0.1334823 -0.11705979 -0.043737806 0.10058224 -0.23976016
-0.07661884 -0.11963985 -0.16611731 0.03812433 -0.06048592 0.009828006 0.011187374 -0.013627492
0.034070812 -0.022258414 -0.067217425 -0.008230995 -0.032038905 0.0043369844 0.0014412476 -0.0010963046
0.030956363 0.005491794 -0.18175478 0.08550646 0.15048546 -0.08327089 -0.047906734 -0.17769866
0.110797025 0.29416496 0.02716155 -0.07063587 -0.014706299 -0.0035995778 0.010382294 -0.051048014
-0.015467892 -0.08933015 0.015368963 0.16769013 -0.023914248 0.10282954 -0.0073310933 -0.058078356
0.043752544 0.06251824 0.0884185 -0.16756663 0.010778617 -0.22132352 0.04463056 -0.15704338
-0.05758682 -0.10107076 -0.04207981 0.021819135 -0.0030986762 -0.0045256685 0.0073689823 -0.12640612
-0.01663547 -0.09890945 0.046729103 -0.2208577 -0.08967829 0.10217286 -0.098865315 0.008081678
-0.0656937 -0.124418944 -0.1656374 0.059274696 -0.08398804 0.060431723 0.09778215 -0.09137989
-0.08922736 0.09677921 -0.1574951 0.14831093 -0.03550837 -0.027798895 -0.19318543 -0.13752687
-0.026539065 -0.00010438438 -0.01086564 -0.023560125 -0.19173774 0.003816619 0.025693221 0.068246804
-0.1506288 0.013739243 -0.22750324 -0.04204765 0.004684256 -0.1510942 -0.20844053 -0.09233851
0.008405085 0.009691188 0.031621236 -0.12664573 0.05272681 0.15367891 0.13663845 -0.20459715
-0.061779577 0.14007771 -0.07315746 -0.020657528 -0.02982563 0.028869487 -0.059790835 0.18195596
-0.13819374 0.06853755 -0.11265813 0.013191806 0.19958334 0.040427707 0.04833832 -0.00695937
-0.107420266 -0.029955998 -0.25734267 -0.027587026 0.048940267 0.09129914 -0.06593246 -0.095168434
00000000: d3c2 8abd 4443 01bd cd5d 033d d4d7 593c
00000010: 94ba 40bc fc2e 953d 40c8 413d 42df a23d
00000020: c830 afbd 647b cf3c f37e 6fbc f960 25be
00000030: caf2 b33d b3c3 2fbe 00b0 f8bd 6c58 cebd
00000040: 6502 d2bd 499c 5dba 7d16 ac3c 78ab 30be
00000050: 7325 d0bd 83b6 333e 9ded c4bd 10c0 19bd
00000060: 335d 6abd cdf8 f93b 8719 2ebe cd4c 6c3c
00000070: 4102 12be 2ee1 893b 92ea 09be 899b c53b
00000080: bdd8 abbd d307 7bbe 4d64 2a3e fb02 c6bd
00000090: a30b 6dbe 3e33 a7bc 47dd cc3b 406b 34bd
000000a0: 9075 bebd fc3a 14be 970c 66be dbfb 933d
000000b0: 9289 b93c 972b 2b3d 19fb febd 2df9 cd3c
000000c0: 2d6a afbd 9300 093d 01b2 7abd e689 793d
000000d0: 0d53 6fbd 12fb 6fbc 7f8d 87bd 77d0 c0bb
000000e0: c5ec 503c d7df 1dbd 6341 f53c 0ebf d73d
000000f0: 4fa0 0dbe 6764 8abd ddc4 5fbc 6606 77bb
00000100: cb5f bc3c 5ca3 783c 2c22 153e f247 6bbd
00000110: 2e05 fdbc 5b1d 72bd c2ef 60bc 104a c7bd
00000120: 6038 e13c 941f f9bd 863a 0abe bd39 32bc
00000130: 569c f5bc 3fc1 c73b 3da7 97bb 2088 423e
00000140: 1b9d edbd 3289 153d 9863 25be cd46 373d
00000150: 1b5f 34be ec0f d9bd 7cb6 80bd 3fff b9bd
00000160: 1f1f af3c 2ec9 82bc 3ab6 3dbc 6cdb ed3d
00000170: 1c6c 643d 8e99 273e 9c0b 31bd 73fc 27bc
00000180: 0b75 44be 6b32 823c 3383 13bd 22e9 9e3e
00000190: 5e71 633c ed88 8ebd 560f 963d 855e 46be
000001a0: 69a0 61be 76aa 6bbd ba08 ea3d c9e5 30be
000001b0: c1f8 1c3d e028 66bd 8df8 0b3e eb9b 30be
000001c0: 23ad 993d 0a1e eb3d a659 09be 08c4 873d
000001d0: d87f 6d3d 6832 fbbc f421 72bc e0dd 1c3e
000001e0: 5d24 533b 3008 e9bc 4f27 f63d 96af 083e
000001f0: 0bbd efbd 6a26 33bd 10fe cd3d b083 75be
00000200: 57ea 9cbd bd05 f5bd a81a 2abe 4228 1c3d
00000210: 16c0 77bd a505 213c 3f4b 373c d845 5fbc
00000220: d68d 0b3d 4757 b6bc 4aa9 89bd 4cdb 06bc
00000230: 3a3b 03bd 431d 8e3b 3fe8 bc3a e1b1 8fba
00000240: 3398 fd3c 82f4 b33b ed1d 3abe 031e af3d
00000250: dc18 1a3e ee89 aabd da39 44bd a3f6 35be
00000260: 8de9 e23d ca9c 963e e681 de3c 8aa9 90bd
00000270: b0f2 70bc e5e6 6bbb 7f1a 2a3c b917 51bd
00000280: 0b6d 7dbc baf2 b6bd 1ace 7b3c f6b6 2b3e
00000290: d0e7 c3bc 4b98 d23d ab39 f0bb 92e3 6dbd
000002a0: de35 333d 9009 803d c214 b53d 9696 2bbe
000002b0: cc98 303c a2a2 62be 89ce 363d fbcf 20be
000002c0: 28e0 6bbd 30fe cebd e15b 2cbd 0bbe b23c
000002d0: 2913 4bbb 0f4c 94bb 8177 f13b 9b70 01be
000002e0: 1c47 88bc 0a91 cabd 0467 3f3d 8528 62be
000002f0: 40a9 b7bd 0140 d13d e679 cabd 0469 043c
00000300: 6b8a 86bd 5ccf febd da9c 29be 06ca 723d
00000310: ec01 acbd 4187 773d 0242 c83d 6125 bbbd
00000320: d6bc b6bd 2e34 c63d 6546 21be d2de 173e
00000330: 3971 11bd 82ba e3bc 67d2 45be d8d3 0cbe
00000340: 7468 d9bc f0e8 dab8 cc05 32bc 2a01 c1bc
00000350: e656 44be 3e20 7a3b 977a d23c fbc4 8b3d
00000360: 703e 1abe 901a 613c 9cf6 68be 283a 2cbd
00000370: 637e 993b 70b8 1abe 6f71 55be f91b bdbd
00000380: 7bb5 093c cac7 1e3c 4585 013d 6baf 01be
00000390: 11f8 573d 015e 1d3e f3ea 0b3e ea81 51be
000003a0: 950c 7dbd 8870 0f3e 94d3 95bd fa39 a9bc
000003b0: e154 f4bc b47f ec3c 3ce7 74bd aa52 3a3e
000003c0: a982 0dbe 6a5d 8c3d 4eb9 e6bd 7222 583c
000003d0: 935f 4c3e 8697 253d 67fe 453d 6d0b e4bb
000003e0: 28ff dbbd 4866 f5bc 6bc2 83be 30fe e1bc
000003f0: 9775 483d 0bfb ba3d 9907 87bd abe7 c2bd

network.2.conv.0.weight f4 [128, 256]
0.0028868068 0.0014691708 -0.017928163 0.028617147 -0.052589964 0.08945276 0.22610858 0.20666388
-0.048312213 0.010200562 -0.10983157 -0.050843414 0.08013802 0.09486303 0.08356688 -0.09584192
0.402046 -0.11255219 -0.027547056 0.067203 0.09224849 -0.05097617 0.11635697 0.11419871
-0.23629116 0.26742917 -0.13340299 0.078071 0.17636628 -0.09906841 0.047557518 -0.210954
-0.12676123 -0.10324522 0.06082576 -0.06840898 -0.06476878 -0.016285392 0.11641244 -0.051598843
0.09626423 -0.0560401 0.008733562 0.09204589 -0.12006744 -0.09557111 0.20866123 0.0018497049
-0.21167555 0.1274472 -0.18499124 -0.047682878 -0.06337763 -0.022115327 0.03376405 -0.04048116
-0.02112429 -0.08629751 -0.19324395 -0.12421464 0.06017812 -0.082673796 0.16909935 -0.10967198
0.0002363306 0.10533274 -0.07905003 -0.022015838 -0.17504215 -0.05585182 -0.10215556 0.09774368
-0.03413763 0.02303567 -0.11897489 -0.045035046 0.047955774 -0.0022027884 0.17167477 -0.20903045
-0.272728 0.14262263 -0.029119644 -0.025454186 -0.044242114 0.09197405 -0.010088313 0.032907806
-0.08333015 0.0006157588 0.050196826 0.09428902 -0.12191853 0.013516716 -0.060190327 0.04110486
0.014713689 0.014185376 0.018239528 0.17654848 0.043174535 0.10888928 -0.012471279 0.09505691
0.053381626 0.09318964 0.024654016 0.052826732 0.086866274 -0.22984718 -0.12001944 0.09597492
-0.10562159 0.03348067 0.15011576 -0.019567283 0.0064021503 -0.24460085 0.09810452 0.017880071
-0.11559045 -0.18499887 -0.16102387 -0.06772595 0.07987701 0.006942313 -0.12745866 0.14593466
0.09635918 0.20556732 0.17040932 -0.14139017 -0.055590834 0.11653897 -0.09808733 0.07118867
0.033956263 -0.008417671 -0.0075514535 0.16288462 0.13811791 0.023481013 -0.04253838 -0.11271958
0.04300109 -0.16759048 0.059117157 -0.029699063 -0.14494589 -0.0045948494 -0.0036775894 -0.15605706
-0.058617845 -0.03628366 0.01380825 0.08377792 0.19246465 -0.11298348 0.02936082 -0.1436351
0.24179247 0.023542995 0.169329 -0.04679583 -0.066051096 -0.14396401 0.08263863 -0.076803654
-0.0018229805 -0.1273787 -0.08394913 -0.031939346 0.025897704 -0.08746942 0.1377975 -0.021931192
-0.10115042 -0.12383462 0.13688083 0.09031434 0.051417965 -0.048041537 0.14215945 -0.06154437
-0.04447387 -0.0526285 -0.108534686 -0.044491902 -0.04486264 0.014454198 0.09941173 -0.07996761
0.15965158 -0.19845933 -0.22166368 -0.17679143 0.11889693 0.06459378 0.117348194 -0.089546606
0.13618834 0.014822888 0.16866304 0.0011601225 0.017337583 -0.061325274 0.02119269 0.14563422
-0.07749181 -0.029063229 -0.2029915 -0.06519882 0.021783423 -0.032166973 -0.13057491 0.047388196
-0.008775329 0.06245334 -0.11885676 0.13134041 -0.09630269 -0.14811723 0.07613581 -0.28315583
-0.18987851 -0.03437668 -0.050954726 -0.13002557 -0.0365406 -0.13158168 -0.050664894 -0.094684176
0.02471186 0.16854161 0.1295407 -0.040567826 -0.019048452 -0.13583982 0.30751342 0.03695062
-0.11615854 -0.07952349 -0.2251074 -0.068337046 -0.10309494 0.097997084 -0.040987656 -0.020380314
0.017817864 0.17894812 0.18129918 -0.030846002 0.03493827 -0.033915915 0.11087163 -0.071847685
00000000: 9530 3d3b 3191 c03a 15de 92bc 826e ea3c
00000010: 9368 57bd 0233 b73d 0289 673e b29f 533e
00000020: 07e3 45bd 4220 273c 60ef e0bd 2f41 50bd
00000030: 671f a43d 8c47 c23d 1d25 ab3d c548 c4bd
00000040: f9d8 cd3e c381 e6bd 5daa e1bc baa1 893d
00000050: c7ec bc3d 63cc 50bd 904c ee3d 03e1 e93d
00000060: 4ff6 71be 7aec 883e cb9a 08be b0e3 9f3d
00000070: 5d99 343e 61e4 cabd accb 423d 5304 58be
00000080: b2cd 01be 3b72 d3bd 6f24 793d 021a 8cbd
00000090: 7ea5 84bd f168 85bc a569 ee3d 4f59 53bd
000000a0: 2e26 c53d 4e8a 65bd 3717 0f3c 8e82 bc3d
000000b0: ebe5 f5bd c9ba c3bd 4aab 553e cc71 f23a
000000c0: 7ac1 58be 8581 023e 586e 3dbe 1f4f 43bd
000000d0: 22cc 81bd 342b b5bc 2c4c 0a3d 93cf 25bd
000000e0: d90c adbc c0bc b0bd bee1 45be 3f64 febd
000000f0: 557d 763d e150 a9bd 6128 2d3e b49b e0bd
00000100: 83cf 7739 b1b8 d73d fbe4 a1bd 8f5a b4bc
00000110: 403e 33be e1c4 64bd ef36 d1bd d72d c83d
00000120: e6d3 0bbd 4db5 bc3c 1ba9 f3bd ab76 38bd
00000130: 466d 443d a85c 10bb 83cb 2f3e 140c 56be
00000140: 01a3 8bbe ab0b 123e 528c eebc 4c85 d0bc
00000150: 3837 35bd e45c bc3d 7449 25bc 56ca 063d
00000160: ffa8 aabd e06a 213a 309b 4d3d 9a1a c13d
00000170: 6cb0 f9bd 3775 5d3c 228a 76bd 925d 283d
00000180: af11 713c c869 683c 106b 953c 20c9 343e
00000190: c8d7 303d 5801 df3d 5654 4cbc 32ad c23d
000001a0: b1a6 5a3d 36da be3d 38f7 c93c d860 583d
000001b0: f2e6 b13d 0f5d 6bbe c1cc f5bd 808e c43d
000001c0: 2250 d8bd 0723 093d f2b7 193e 914b a0bc
000001d0: 21c9 d13b a578 7abe 06eb c83d 3a79 923c
000001e0: b0ba ecbd 5870 3dbe 71e3 24be e7b3 8abd
000001f0: 8f96 a33d 587c e33b 8684 02be e56f 153e
00000200: f657 c53d 3d80 523e c87f 2e3e 96c8 10be
00000210: 37b3 63bd fcab ee3d 03e2 c8bd 5ecb 913d
00000220: b915 0b3d 45ea 09bc 2f72 f7bb 3acb 263e
00000230: c86e 0d3e 415b c03c b93c 2ebd 86d9 e6bd
00000240: e921 303d d79c 2bbe d524 723d 734b f3bc
00000250: b26c 14be 6490 96bb b603 71bb 6ccd 1fbe
00000260: 4419 70bd 2d9e 14bd 003c 623c c293 ab3d
00000270: 7415 453e e263 e7bd 1a86 f03c 1415 13be
00000280: 7298 773e 3ddd c03c 9564 2d3e fcac 3fbd
00000290: cc45 87bd 4d6b 13be 713e a93d 3c4b 9dbd
000002a0: 13f1 eeba 906f 02be 85ed abbd d5d2 02bd
000002b0: 6c27 d43c 2b23 b3bd ca1a 0d3e 0ba9 b3bc
000002c0: f427 cfbd 019d fdbd 7d2a 0c3e baf6 b83d
000002d0: a59b 523d 34c7 44bd 3f92 113e f315 7cbd
000002e0: 3c2a 36bd fb90 57bd 6f47 debd 243d 36bd
000002f0: e3c1 37bd 4dd1 6c3c 6198 cb3d 0fc6 a3bd
00000300: b47b 233e ec38 4bbe cefb 62be d008 35be
00000310: 3c80 f33d be49 843d 4054 f03d 3664 b7bd
00000320: f574 0b3e b3db 723c 01b6 2c3e 400f 983a
00000330: 8c07 8e3c 3630 7bbd 4b9c ad3c 2321 153e
00000340: 07b4 9ebd 0216 eebc 01dd 4fbe f586 85bd
00000350: 2673 b23c 84c1 03bd 6eb5 05be 201a 423d
00000360: 66c6 0fbc 13cf 7f3d 2c6b f3bd 1a7e 063e
00000370: 583a c5bd 0bac 17be 17ed 9b3d cdf9 90be
00000380: 836f 42be 90ce 0cbd e7b5 50bd 6c25 05be
00000390: 99ab 15bd 59bd 06be fe85 4fbd c7e9 c1bd
000003a0: 8770 ca3c 2c96 2c3e 51a6 043e 732a 26bd
000003b0: 800b 9cbc 9819 0bbe 6672 9d3e 8959 173d
000003c0: 87e4 edbd 36dd a2bd 8e82 66be 4bf4 8bbd
000003d0: 7123 d3bd b2b2 c83d ace2 27bd 9ef4 a6bc
000003e0: c5f6 913c 2d3e 373e 7ea6 393e c1b0 fcbc
000003f0: 6e1b 0f3d 6aeb 0abd aa10 e33d e124 93bd

network.2.conv.0.bias f4 [128]
-0.20657788 -0.027188638 -0.15194637 0.09315183 -0.16716251 -0.19166341 0.1581652 -0.0011819883
-0.06212903 0.027253943 -0.02641208 0.038526297 0.056303356 0.10595869 -0.06129015 0.052597124
0.039122615 -0.022057304 -0.09542472 -0.28905368 -0.110797964 0.039905272 -0.0069681606 -0.10026378
-0.101064116 -0.13359365 -0.023372686 -0.12480844 -0.037682872 -0.0840275 0.1047088 -0.19166371
-0.082683206 -0.23457792 -0.06780609 0.016035989 -0.049371168 -0.21145995 0.024382064 -0.035467964
-0.12243617 0.011511656 0.046723537 -0.19678523 -0.113165855 0.031230653 0.097225 -0.11750032
-0.21934776 0.030322533 -0.034066148 0.0051585566 -0.033104185 0.12575902 -0.022370214 0.104158774
0.02547419 -0.037978765 -0.16849372 -0.30412823 -0.27951583 0.015684249 -0.09317751 0.13065389
0.0031751841 0.14444852 -0.20932853 0.16519606 -0.060301322 0.022296753 -0.10833591 -0.07300849
0.21506995 0.002134241 0.0075486107 0.016007647 -0.14331622 0.103847064 0.12396369 0.036721025
0.0069946297 -0.22197509 -0.04820478 0.16442876 -0.04275788 0.023950215 -0.17168246 0.08344852
0.016855022 0.046591565 -0.107549734 -0.18898737 -0.12336771 -0.11561033 0.007252773 -0.05432568
-0.052565116 -0.10149601 0.056404874 0.10976303 -0.121271454 -0.124930516 0.02069192 0.02735342
-0.00721896 0.09286585 -0.08897944 -0.02448506 -0.18489458 -0.15522884 -0.21524002 0.022823473
0.013583781 -0.010093116 -0.105173245 -0.13950664 -0.16129301 -0.19355652 -0.08971568 -0.044795252
0.011121866 -0.28543577 -0.06007296 -0.1971709 -0.113563776 -0.208072 0.0068543516 -0.0067166714
00000000: 2789 53be b5ba debc d497 1bbe 63c6 be3d
00000010: a62c 2bbe 6a43 44be 0ff6 213e f2ec 9aba
00000020: 027b 7ebd a943 df3c 255e d8bc c0cd 1d3d
00000030: 599e 663d df00 d93d 610b 7bbd 1570 573d
00000040: 093f 203d 85b1 b4bc 096e c3bd d8fe 93be
00000050: 0bea e2bd b673 233d 2b55 e4bb 1957 cdbd
00000060: b4fa cebd c6cc 08be 1378 bfbc 919b ffbd
00000070: 5b59 1abd 9c16 acbd 9171 d63d 7e43 44be
00000080: d055 a9bd 3235 70be ebdd 8abd e85d 833c
00000090: 6c39 4abd f588 58be e5bc c73c db46 11bd
000000a0: d1bf fabd 639b 3c3c 2e61 3f3d 1182 49be
000000b0: 80c3 e7bd 6dd7 ff3c e71d c73d 02a4 f0bd
000000c0: b39c 60be f666 f83c f288 0bbd 1c09 a93b
000000d0: 4198 07bd f9c6 003e bd41 b7bc 3251 d53d
000000e0: 40af d03c 9f8f 1bbd 9e89 2cbe b2b6 9bbe
000000f0: b31c 8fbe 417c 803c dad3 bebd 22ca 053e
00000100: c016 503b 50ea 133e 385a 56be 2829 293e
00000110: 85fe 76bd aea7 b63c 38df ddbd 7a85 95bd
00000120: 4c3b 5c3e 9fde 0b3b 565a f73b 7822 833c
00000130: 7dc1 12be c5ad d43d ade0 fd3d c968 163d
00000140: 3533 e53b 704d 63be 6072 45bd 0360 283e
00000150: e322 2fbd 3e33 c43c 87cd 2fbe 0fe7 aa3d
00000160: 8b13 8a3c ccd6 3e3d 0943 dcbd e885 41be
00000170: 36a8 fcbd 1cc5 ecbd aba8 ed3b 9b84 5ebd
00000180: 854e 57bd 24dd cfbd cc08 673d 71cb e03d
00000190: 2b5d f8bd 92db ffbd 1a82 a93c 4814 e03c
000001a0: 078d ecbb 7330 be3d da3a b6bd e494 c8bc
000001b0: 0155 3dbe 4ff4 1ebe e167 5cbe 4bf8 ba3c
000001c0: 828e 5e3c 995d 25bc 1265 d7bd d4da 0ebe
000001d0: ff29 25be ae33 46be dbbc b7bd 3a7b 37bd
000001e0: 7d38 363c a324 92be 100f 76bd 2be7 49be
000001f0: 2094 e8bd d410 55be 789a e03b 8617 dcbb

network.3.weight f4 [2, 128]
-0.013979796 0.0028014765 -0.120001175 0.057076443 0.00040965548 -0.14653905 0.1774259 -0.020660838
0.015450111 0.033026215 0.0007466932 -0.0083558615 0.036302857 -0.011116872 0.0045721433 -0.010930401
-0.09401075 -0.029070437 -0.11555158 0.13607399 0.016017718 -0.007617861 -0.008394581 -0.08355808
0.20081906 -0.046503756 0.03600115 0.019716794 -0.0052725677 0.111032754 -0.006406083 0.055621162
0.09117433 -0.18417771 0.066304825 0.1337712 -0.0045480966 -0.25144768 -0.1940719 -0.094061926
0.105108276 0.0511872 0.05551642 -0.032919906 0.097271726 -0.06371632 0.0862171 0.042582776
-0.14396144 -0.0842661 0.040545095 0.0034071691 0.06883649 -0.04312084 -0.025928166 -0.1414008
-0.007327994 -0.0028119597 0.1172323 -0.034798644 -0.014034537 0.1330325 -0.031544387 -0.06634201
0.18761963 -0.019037504 0.15114668 -0.15779117 0.014903837 0.16591777 -0.09276577 0.04458008
0.020914253 -0.19464134 0.013968231 0.1659975 -0.042889442 -0.02881536 -0.06351821 0.007140823
-0.06523055 -0.000121797115 0.023395695 -0.01752767 0.097774215 0.03767123 0.009550112 -0.20568474
0.015598383 0.10688248 0.011376991 0.007557006 -0.21539745 -0.12046582 -0.041168693 0.0067344895
0.021338794 -0.01676684 -0.031329583 -0.014222549 0.09428481 -0.017456105 0.20070195 0.0006366078
0.074950986 0.16986719 -0.009879028 -0.04371978 -0.014214578 -0.06672195 -0.05024703 0.049178824
0.07872914 0.1703458 0.12640509 -0.12621665 -6.778601e-05 0.03440924 -0.16722326 0.03210394
0.12587719 -0.19416803 0.19205764 -0.06435546 0.14908038 -0.1788631 -0.00021087352 -0.019736355
-0.17857128 0.06629794 0.029382803 -0.08589634 0.10026898 -0.17133148 -0.021685151 -0.017372506
-0.066493 0.10093865 -0.029949231 -0.04618053 0.07563787 0.012837183 -0.005815088 0.016811764
-0.081312895 0.04624494 -0.11251183 0.14990585 -0.10557154 0.13186392 0.010864097 0.09010442
0.11791109 0.07815713 -0.13013148 -0.08013277 0.106958576 0.057955667 0.055430274 -0.08369815
-0.072695054 0.121326536 0.17250954 -0.094001025 0.0846661 0.040475756 0.048993517 -0.17693086
-0.15231927 0.058537986 -0.06274448 0.03858896 0.0012583695 0.20397148 0.26349267 0.00022647364
-0.09198861 -0.1122314 0.031422693 0.034389853 0.11424811 0.1779208 -0.0039778743 0.14675233
0.054182217 0.008355124 0.10333353 -0.15538763 -0.024862587 -0.071963556 0.0561635 -0.2638938
-0.07032863 0.042748682 0.052331187 0.03218193 0.073276825 -0.2942136 0.15031335 0.026826607
0.10720184 0.049084127 -0.090951495 -0.038019672 0.1043096 0.14994396 0.2052562 -0.03835769
0.36742595 0.012861515 0.07060716 0.08843718 0.003909348 0.0023028993 -0.16424224 -0.004269052
-0.09381097 -0.19734693 0.063984096 0.08058418 0.180408 0.116388395 0.22466217 -0.02863392
0.067703895 0.14686878 0.047188442 -0.04372724 0.07713729 0.06995466 -0.014323891 0.046155766
0.062904194 -0.058080938 0.3049788 0.07491805 0.07985032 0.06725051 0.044165116 -0.003023968
-0.07705707 -0.23592125 0.09234489 -0.18191214 -0.044129383 0.08511874 0.119857095 0.1300425
0.08912694 0.10499264 -0.1934444 -0.12987348 -0.029439714 -0.12849374 -0.02419528 0.14028816
00000000: 840b 65bc fa98 373b 2dc3 f5bd fdc8 693d
00000010: 07c7 d639 550e 16be 23af 353e eb40 a9bc
00000020: 7622 7d3c 7f46 073d bbbd 433a 06e7 08bc
00000030: 4eb2 143d 8a23 36bc ebd1 953b 6d15 33bc
00000040: b588 c0bd 2025 eebc 4fa6 ecbd fb56 0b3e
00000050: 9737 833c 409f f9bb 6d89 09bc 8020 abbd
00000060: 83a3 4d3e b97a 3ebd f175 133d 1d85 a13c
00000070: 81c5 acbb 2465 e33d 1eea d1bb 04d3 633d
00000080: 9bb9 ba3d 1599 3cbe d3ca 873d 51fb 083e
00000090: 3308 95bb c0bd 80be c9ba 46be 8aa3 c0bd
000000a0: 0243 d73d aba9 513d 3065 633d 06d7 06bd
000000b0: 6636 c73d b47d 82bd 9792 b03d 476b 2e3d
000000c0: a16a 13be b493 acbd 9d12 263d d04a 5f3b
000000d0: 25fa 8c3d 7a9f 30bd 4e67 d4bc 5fcb 10be
000000e0: ab1f f0bb db48 38bb 7d17 f03d 0689 0ebd
000000f0: 1df1 65bc ac39 083e b034 01bd 52de 87bd
00000100: 5c1f 403e 8af4 9bbc 32c6 1a3e 0294 21be
00000110: 392f 743c 59e6 293e fbfb bdbd 9a99 363d
00000120: 5e54 ab3c 0f50 47be 02db 643c 40fb 293e
00000130: d7ac 2fbd 310e ecbc d615 82bd 91fd e93b
00000140: 9897 85bd 546d ffb8 54a8 bf3c 3096 8fbc
00000150: d93d c83d 264d 1a3d 1378 1c3c 059f 52be
00000160: 5c90 7f3c 34e5 da3d 8f66 3a3c c3a0 f73b
00000170: 2691 5cbe c9b6 f6bd 81a0 28bd feac dc3b
00000180: b2ce ae3c 9d5a 89bc 7353 00bd b205 69bc
00000190: 6518 c13d 1b00 8fbc d084 4d3e 07e2 263a
000001a0: e77f 993d aaf1 2d3e a6db 21bc 8313 33bd
000001b0: 43e4 68bc 85a5 88bd d4cf 4dbd bc6f 493d
000001c0: be3c a13d 216f 2e3e 5670 013e f03e 01be
000001d0: 5628 8eb8 b4f0 0c3d 933c 2bbe 6c7f 033d
000001e0: f3e5 003e fcd3 46be c2aa 443e cccc 83bd
000001f0: 87a8 183e e327 37be ee1d 5db9 23ae a1bc
00000200: 64db 36be 37c7 873d 34b4 f03c 6cea afbd
00000210: d359 cd3d 8571 2fbe 0fa5 b1bc c950 8ebc
00000220: 7b2d 88bd ecb8 ce3d 1758 f5bc cc27 3dbd
00000230: 07e8 9a3d 0c53 523c 7e8c bebb d3b8 893c
00000240: 6087 a6bd 566b 3d3d 9a6c e6bd eb80 193e
00000250: e435 d8bd 5607 073e 53ff 313c ab88 b83d
00000260: 5f7b f13d d810 a03d 3041 05be a61c a4bd
00000270: 190d db3d ec62 6d3d db0a 633d f069 abbd
00000280: 25e1 94bd 0c7a f83d 57a6 303e 9c83 c0bd
00000290: 6c65 ad3d e8c9 253d 6dad 483d 5d2d 35be
000002a0: 95f9 1bbe 87c5 6f3d 2e80 80bd 750f 1e3d
000002b0: e0ef a43a e6dd 503e 83e8 863e 8e79 6d39
000002c0: 8664 bcbd 94d9 e5bd 15b5 003d 60dc 0c3d
000002d0: eafa e93d df30 363e d458 82bb 3e46 163e
000002e0: 2cee 5d3d eee3 083c 88a0 d33d ef1d 1fbe
000002f0: a0ac cbbc a161 93bd b30b 663d 171d 87be
00000300: 7508 90bd 3e19 2f3d 3a59 563d 33d1 033d
00000310: 2912 963d 2aa3 96be beeb 193e 79c3 db3c
00000320: a38c db3d 700c 493d c744 babd 84ba 1bbd
00000330: 46a0 d53d e98a 193e ae2e 523e f41c 1dbd
00000340: 411f bc3e 1bb9 523c 7d9a 903d 8d1e b53d
00000350: fd19 803b 3dec 163b 1e2f 28be 67e3 8bbb
00000360: f71f c0bd 5015 4abe 180a 833d 5209 a53d
00000370: e0bc 383e 0a5d ee3d d70d 663e af91 eabc
00000380: 57a8 8a3d c564 163e ab48 413d 561b 33bd
00000390: 28fa 9d3d 6444 8f3d c1ae 6abc d40d 3d3d
000003a0: ead3 803d 47e6 6dbd 2e26 9c3e a26e 993d
000003b0: 9188 a33d a3ba 893d 7be6 343d c42d 46bb
000003c0: 19d0 9dbd 5795 71be 511f bd3d 2d47 3abe
000003d0: 03c1 34bd bc52 ae3d a377 f53d dc29 053e
000003e0: 2f88 b63d 6206 d73d 4a16 46be 8efd 04be
000003f0: 8e2b f1bc dd93 03be 2e35 c6bc b3a7 0f3e

network.3.bias f4 [2]
-0.04587909 0.2682068
00000000: b6eb 3bbd 6752 893e

encoder.0.conv.0.weight f4 [80, 150]
0.07674789 -0.15675226 0.117516905 0.044354264 -0.0201914 0.028273087 0.032854293 0.04144562
-0.15154353 -0.04229175 -0.022552157 0.03044394 -0.021224646 0.104140736 0.08751399 -0.031850968
-0.06430614 0.07460739 0.052718863 0.014970922 -0.13255571 0.048716303 -0.14393762 0.1677025
0.006147837 -0.09168068 -0.0402305 -0.008616001 0.06816435 0.020952625 -0.10541547 -0.017888388
0.054562982 -0.008783636 -0.101943895 -0.038730685 0.07867519 -0.052501682 -0.114108615 -0.013748485
0.016845966 -0.064605124 0.042545736 0.04846392 -0.06862333 -0.010979725 0.038875356 -0.06535561
-0.05920368 0.017053539 -0.036393892 -0.044043 -0.14607595 0.051394597 -0.060661044 0.09494121
-0.114796035 0.09458316 -0.07916993 -0.11815409 -0.13528578 0.046476826 -0.045890547 0.16651082
0.038858376 0.033189025 0.05935456 -0.085080504 -0.097244486 0.07657693 -0.02790954 -0.2534553
-0.08113527 -0.22851887 0.06054798 0.040896613 -0.028904196 -0.031938218 0.118177466 -0.009726154
-0.17127083 -0.12447689 0.065275066 0.106340185 0.088534035 0.04659375 0.19445768 -0.07236706
0.15027204 -0.07986306 0.0031713378 -0.0131099755 -0.057762973 0.11849157 -0.009690554 -0.21093038
-0.08970953 -0.08915132 0.009737771 -0.20976523 0.07428532 0.015383537 0.13493107 -0.14011003
0.013171035 -0.04633349 0.1787717 0.012926592 -0.054305222 -0.11048733 0.056334164 0.2340107
-0.013322774 -0.09185849 -0.0382428 0.061781254 -0.06081382 -0.0036959385 0.07004666 -0.085041106
0.10388873 -0.18428184 0.2427703 -0.14506465 0.24813236 -0.22409555 -0.07419298 0.18497998
-0.113205254 -0.15515551 -0.0948944 -0.019557903 0.056290526 -0.037092566 -0.08803276 0.06818229
0.042302202 -0.0253015 -0.16416498 0.06930662 -0.011091106 -0.16647305 0.12968399 -0.10663514
0.042610876 -0.042748734 -0.1621991 0.10864154 0.029471206 0.029853584 -0.037262823 -0.07553048
0.07746182 0.20411734 -0.08736908 0.081394635 -0.18885006 -0.05484313 0.043408036 0.07228022
0.18679251 -0.17427722 -0.06743172 0.077860594 -0.029195786 0.03351206 -0.12213952 0.058793798
0.07901382 0.043350205 0.14320092 0.15652335 -0.0650537 -0.104935385 0.014030836 0.03922589
0.06464557 0.09318332 0.18189877 0.16160041 -0.047093764 0.01131579 0.072744824 -0.018059364
-0.10433221 0.09651379 -0.16884583 -0.12341966 0.06603656 -0.07003897 -0.20032245 -0.01783279
-0.021086028 0.05642001 0.11006521 -0.058346387 -0.014310341 0.06955476 0.007776533 0.039262068
0.028135065 -0.04665687 -0.03345168 -0.011460662 -0.17618273 0.1158695 -0.0011022276 0.15049918
0.19602518 0.06504177 -0.17816666 -0.01699215 -0.029587967 -0.017205814 -0.07981137 0.116545826
0.112316914 0.093409106 -0.08319513 0.09748314 0.006492057 -0.057945114 0.049561914 0.021721985
0.09093066 0.03721221 -0.080786735 -0.03626013 -0.022996025 -0.09210602 -0.06779319 -0.1315433
0.06333217 -0.018708445 -0.07727813 0.022932991 0.021419583 0.1499133 0.19448145 0.19717157
0.28802222 0.09976989 -0.04739558 0.14372337 0.11975159 0.14967743 -0.065049 -0.025842164
0.066941686 0.05973263 0.05913808 -0.16764492 -0.037659116 -0.1719802 0.21061796 -0.119444214
00000000: ff2d 9d3d aa83 20be b4ac f03d d1ac 353d
00000010: 6f68 a5bc f69c e73c 3992 063d e2c2 293d
00000020: 3a2e 1bbe 1d3a 2dbd 4dbf b8bc 9265 f93c
00000030: 4fdf adbc bd47 d53d 893a b33d 2976 02bd
00000040: f0b2 83bd c2cb 983d bcef 573d 9948 753c
00000050: afbc 07be bf8a 473d 6264 13be 34ba 2b3e
00000060: cb73 c93b 15c3 bbbd bdc8 24bd 212a 0dbc
00000070: c099 8b3d d7a4 ab3c 11e4 d7bd ab8a 92bc
00000080: 6f7d 5f3d 3de9 0fbc f6c7 d0bd 11a4 1ebd
00000090: 7520 a13d 010c 57bd c7b1 e9bd 5341 61bc
000000a0: 8d00 8a3c b14f 84bd 7044 2e3d 1a82 463d
000000b0: 638a 8cbd 4ee4 33bc c43b 1f3d 29d9 85bd
000000c0: 8f7f 72bd ddb3 8b3c c311 15bd 6f66 34bd
000000d0: ef94 15be 2483 523d b777 78bd 8970 c23d
000000e0: 2f1a ebbd d1b4 c13d d823 a2bd c6fa f1bd
000000f0: 5b88 0abe 7c5e 3e3d baf7 3bbd d081 2a3e
00000100: f629 1f3d 37f1 073d c41d 733d b03e aebd
00000110: 1e28 c7bd 5ed4 9c3d 8ca2 e4bc e5c4 81be
00000120: 402a a6bd da00 6abe 2901 783d 3583 273d
00000130: 7ec8 ecbc a6d1 02bd 0707 f23d 725a 1fbc
00000140: 9f61 2fbe bded febd efae 853d e2c8 d93d
00000150: 5551 b53d 17d9 3e3d ea1f 473e 2e35 94bd
00000160: eae0 193e 3e8f a3bd 38d6 4f3b 39cb 56bc
00000170: de98 6cbd b5ab f23d 21c5 1ebc 22fe 57be
00000180: a1b9 b7bd f894 b6bd 2c8b 1f3c b2cc 56be
00000190: e722 983d 3b0b 7c3c 5f2b 0a3e 0179 0fbe
000001a0: 53cb 573c 30c8 3dbd ee0f 373e 0eca 533c
000001b0: 276f 5ebd 2e47 e2bd a7be 663d 80a0 6f3e
000001c0: c447 5abc 4e20 bcbd 7ba4 1cbd 570e 7d3d
000001d0: ea17 79bd 8f37 72bb a074 8f3d 082a aebd
000001e0: 9dc3 d43d 61b4 3cbe c798 783e d48b 14be
000001f0: 6916 7e3e 4e79 65be 7df2 97bd 646b 3d3e
00000200: 28d8 e7bd 16e1 1ebe ff57 c2bd e537 a0bc
00000210: e590 663d 60ee 17bd 854a b4bd 28a3 8b3d
00000220: 1345 2d3d 1745 cfbc dd1a 28be a1f0 8d3d
00000230: 78b7 35bc e977 2abe e1cb 043e 8663 dabd
00000240: be88 2e3d 4c19 2fbd 8517 26be 757f de3d
00000250: 996d f13c 818f f43c e7a0 18bd b9af 9abd
00000260: 4da4 9e3d 2304 513e 8fee b2bd 3bb2 a63d
00000270: e961 41be 31a3 60bd a0cc 313d a707 943d
00000280: 8946 3f3e ba75 32be a419 8abd 6075 9f3d
00000290: 002c efbc f143 093d 4924 fabd c4d1 703d
000002a0: ffd1 a13d fc8f 313d 43a3 123e a847 203e
000002b0: e03a 85bd 5de8 d6bd 97e1 653c 54ab 203d
000002c0: e664 843d e5d6 be3d ac43 3a3e 947a 253e
000002d0: 64e5 40bd dd65 393c 3dfb 943d 3bf1 93bc
000002e0: 20ac d5bd 06a9 c53d ece5 2cbe 72c3 fcbd
000002f0: 2d3e 873d 9770 8fbd 5421 4dbe 1216 92bc
00000300: 9bbc acbc ab18 673d de69 e13d 9ffc 6ebd
00000310: ec75 6abc ba72 8e3d 49d2 fe3b 43d1 203d
00000320: 827b e63c 461b 3fbd a104 09bd 80c5 3bbc
00000330: 3f69 34be fd4c ed3d 9f78 90ba 751c 1a3e
00000340: d3ba 483e 9f34 853d 5271 36be 1f33 8bbc
00000350: 7762 f2bc 35f3 8cbc 2574 a3bd 94af ee3d
00000360: 6906 e63d 464d bf3d 3562 aabd 3ea5 c73d
00000370: 52bb d43b db57 6dbd 6f01 4b3d 4ef2 b13c
00000380: db39 ba3d d56b 183d 8473 a5bd 8185 14bd
00000390: 2962 bcbc 15a2 bcbd 28d7 8abd 49b3 06be
000003a0: 4cb4 813d 7442 99bc ff43 9ebd f8dd bb3c
000003b0: 1f78 af3c df82 193e 2526 473e 58e7 493e
000003c0: a677 933e 2854 cc3d de21 42bd 382c 133e
000003d0: 5240 f53d 0a45 193e 6938 85bd f2b2 d3bc
000003e0: b918 893d 34aa 743d c53a 723d 1cab 2bbe
000003f0: 7240 1abd 941b 30be 3cac 573e 2b9f f4bd

encoder.0.conv.0.bias f4 [80]
-0.0016625439 0.046688754 0.07559093 -0.12103529 0.10184385 0.009817158 -0.023607884 0.21480826
-0.14692704 0.010964045 -0.008641369 0.024496596 -0.14059293 -0.12296613 0.028217776 -0.22318618
0.05220914 -0.011328676 -0.20139007 0.02166324 -0.05993529 0.13937633 0.21336338 -0.1274141
0.18964896 0.06140131 0.014243608 0.011313139 -0.08095392 -0.14075305 0.008093226 -0.016151765
-0.07117051 0.024621947 0.09907581 -0.073536724 -0.12480467 -0.21049969 0.10839375 0.11697967
-0.009731966 -0.05064842 -0.063825995 0.22040221 0.065496564 -0.043649204 0.04086086 -0.12519453
0.1148968 0.15932357 0.053113375 0.13466369 -0.118944965 0.029386986 0.020619765 0.049921498
-0.07973363 0.19741891 -0.01233474 0.22224343 0.14908692 0.0009097672 -0.037733406 0.0058848416
-0.07007716 0.2185213 0.045708716 0.121471904 0.045065057 -0.15963274 -0.13336155 -0.116860926
0.05271296 0.18676758 -0.09533554 0.08359387 0.06772163 -0.096431 0.070081346 0.04141085
00000000: b7e9 d9ba b53c 3f3d 6bcf 9a3d 5ae1 f7bd
00000010: 8293 d03d 25d8 203c 5265 c1bc b2f6 5b3e
00000020: 0b74 16be 8aa2 333c 8794 0dbc 16ad c83c
00000030: 98f7 0fbe abd5 fbbd f728 e73c eb8a 64be
00000040: 40d9 553d e99b 39bc 3339 4ebe 1b77 b13c
00000050: b57e 75bd abb8 0e3e ee7b 5a3e d878 02be
00000060: 5633 423e f17f 7b3d 065e 693c bf5a 393c
00000070: 2bcb a5bd 9121 10be 7399 043c b550 84bc
00000080: d8c1 91bd f7b3 c93c 42e8 ca3d 6c9a 96bd
00000090: 9799 ffbd 3b8d 57be 8bfd dd3d 0a93 ef3d
000000a0: d372 1fbc b874 4fbd 34b7 82bd 1eb1 613e
000000b0: 1023 863d 82c9 32bd b85d 273d ff32 00be
000000c0: 034f eb3d b825 233e 698d 593d 47e5 093e
000000d0: 6b99 f3bd fabc f03c c8ea a83c 7c7a 4c3d
000000e0: 634b a3bd 2f28 4a3e a617 4abc c893 633e
000000f0: 3eaa 183e 717d 6e3a 588e 1abd a1d5 c03b
00000100: 9d84 8fbd 0cc4 5f3e 1039 3b3d 43c6 f83d
00000110: 2396 383d c476 23be ee8f 08be c854 efbd
00000120: 8be9 573d 0040 3f3e 483f c3bd 4333 ab3d
00000130: a3b1 8a3d 9e7d c5bd cf86 8f3d 6c9e 293d
