exomy/config/best_run_no_obstacles405k/checkpoints/636000_policy.pt (torch, 723582 bytes, 13 tensors)

log_std_parameter f4 [2]
000000 f3 22 b5 bf b7 a3 51 bf
       -1.4151291 -0.81890434

network.0.conv.0.weight f4 [512, 5]
000000 7d 26 cd 3e b4 30 96 be e0 1f 89 bb cc b3 a6 bd
       0.40068427 -0.29334033 -0.004184708 -0.08139762
000010 2b 01 2a 3e 6d cb 2f 3e e0 6b 1b 3e af 3f e3 3d
       0.16602008 0.17167445 0.1517787 0.11096131
000020 1b 40 9e bd 47 4d 3c bc f1 94 a4 bc bd 15 ef 3b
       -0.07727071 -0.011493034 -0.020090552 0.0072962926
000030 7c f3 24 3c ac 20 82 be 6b d7 6b 3d 24 1e 90 3d
       0.010067817 -0.25415552 0.057578485 0.07036999
000040 fa 11 12 be 73 cb 22 3e 91 97 81 3d 26 2d 2e 3e
       -0.1426467 0.15897922 0.06327737 0.1700941
000050 71 a5 55 3d 66 b2 4a bc cd dc a8 3d 47 60 45 3e
       0.05215973 -0.012371635 0.082452394 0.19275008
000060 a9 d5 00 3e 98 7b 88 3e 32 60 ed 3e 78 81 87 bb
       0.12581505 0.26656795 0.46362454 -0.004135307
000070 dd 1f 30 be b5 db e3 bc 20 0e 8f be 83 4c 42 bd
       -0.17199655 -0.027814725 -0.27940464 -0.04743625
000080 93 39 22 3d 32 7c b1 bc c7 c3 78 bd 56 36 d2 3b
       0.03960569 -0.021665666 -0.060733583 0.0064151688
000090 40 24 09 bd 2a 53 46 3d cd be c2 3d 60 cc 96 bd
       -0.033481836 0.048419155 0.095090486 -0.073632
0000a0 47 47 90 3d da 00 0a bf 2a bd ec 3b 0f 5b 33 bd
       0.07044845 -0.5390755 0.0072246986 -0.043788012
0000b0 3c 90 a7 bc ea 98 50 be c3 f6 4f be 0b c1 22 be
       -0.020454518 -0.20370832 -0.20308976 -0.15893953
0000c0 33 82 00 3d 5b c2 40 be a5 70 08 3d 42 bd e6 3e
       0.031374168 -0.1882414 0.03331055 0.45066267
0000d0 ca 2e 3b 3d 9c aa 2d 3e b9 9a 41 3b 68 8d b5 bc
       0.04569892 0.16959614 0.0029541685 -0.022162154
0000e0 82 d1 5e 3e e1 77 82 bc a1 5f 0d 3e 3e 35 90 bd
       0.21759608 -0.015926303 0.13806011 -0.07041405
0000f0 c5 31 88 3e 26 5f 0b be d1 11 a4 3d 3e fb ff 3c
       0.2660047 -0.13610515 0.08011211 0.031247731
000100 27 97 02 3e aa 44 8f 3e ac 10 d6 be cc 9c cf bb
       0.12752973 0.27982074 -0.41809595 -0.0063358303
000110 a4 04 48 3e 5f 97 03 3c 7e ba 81 bd 3c e7 f1 3a
       0.1953302 0.008031695 -0.06334399 0.0018455754
000120 87 c5 4a bb 68 a9 aa 3d 23 fd 1b 3e a9 80 63 be
       -0.003094049 0.08333093 0.15233283 -0.22217049
000130 84 41 e3 3e 64 0a 84 3d c1 f4 20 3e 4e e2 07 bd
       0.44385922 0.06447294 0.15718366 -0.033174805
000140 b3 e7 86 3e f0 34 0d 3f 49 2f c7 3c d4 cb 18 be
       0.26348647 0.551589 0.02431454 -0.14921504
000150 7b 76 17 3e b5 a2 18 be 9a d9 2a 3e fb c7 57 3d
       0.1479129 -0.14905818 0.16684571 0.05268095
000160 16 e0 ea bd 03 47 46 3d 0d ab 8d 3e 37 d5 17 3e
       -0.11468522 0.048407566 0.27669564 0.14827429
000170 a7 ad 24 bd 23 5f 1a 3c f3 a9 13 3d a5 57 04 bf
       -0.04020467 0.009422096 0.036050748 -0.51696235
000180 45 bd b3 be 64 aa 87 bb 0a b6 53 3d 39 64 19 bd
       -0.3510534 -0.004140185 0.051687278 -0.037449095
000190 2e f6 78 be ec d1 1d 3d df 5e 24 bd dd 5e 82 bc
       -0.2431266 0.038530275 -0.04012954 -0.015914375
0001a0 e5 cf 9f 3d 86 e9 ac be 63 5c 97 3e 1a a8 52 bd
       0.078033246 -0.33771914 0.29562673 -0.051429845
0001b0 9d b4 86 be d7 fa 64 3e ce 62 00 be dc 45 c4 bd
       -0.26309672 0.22361313 -0.12537691 -0.09583637
0001c0 94 c5 80 3d ef ab 40 3d f6 d9 10 bc 8e 0d 3a be
       0.06287685 0.04703897 -0.008841028 -0.18169233
0001d0 9e 20 ef 3e 14 fa 00 bb f8 83 e1 3b 8c 9d 2c bd
       0.46704572 -0.0019680308 0.006882187 -0.042142436
0001e0 b9 34 c4 3e 46 b7 f7 3d d1 50 e3 3d be 2d 95 bc
       0.38321474 0.120955035 0.11099399 -0.018210288
0001f0 db 35 eb bd 55 47 64 be 0e 1e 0a bf 72 4c 25 bc
       -0.114848815 -0.22292836 -0.5395211 -0.010089027
000200 65 84 9a 3d 4d 96 89 bd 10 f5 f6 be ea d2 7d 3d
       0.075447835 -0.06718121 -0.48233843 0.06196872
000210 1f d3 c5 3d d2 6c 01 bd 37 bb 87 bc 16 9b e5 be
       0.09659409 -0.03159792 -0.016568763 -0.44844884
000220 98 f6 f8 3e 43 9b 12 bd 0f 28 b4 bd 6f 47 90 bd
       0.48625636 -0.0357926 -0.08796703 -0.07044875
000230 c4 77 35 3e 09 bd 22 3e 45 4e 32 bd a9 5a 16 3e
       0.17721468 0.15892424 -0.043531675 0.14683022
000240 73 0d 74 bc 7b 51 a7 3d fb fc a2 3e 10 58 75 3d
       -0.014895785 0.08169838 0.31833634 0.059898436
000250 54 17 6d 3d e2 e6 1a bd bd f4 4d be 61 dc 25 3e
       0.057883576 -0.037817843 -0.20112891 0.16197349
000260 45 a2 81 3c 3c 0f 1e be 63 ce 51 be 96 a5 90 be
       0.015824446 -0.15435499 -0.20488887 -0.28251332
000270 11 fa 72 be 5a 17 91 3d f9 88 8c 3d 00 85 06 be
       -0.23728205 0.07084532 0.06862063 -0.13136673
000280 c3 74 96 be d9 37 76 be f4 1b 1e 3d 13 95 2e be
       -0.29385957 -0.24044742 0.038600877 -0.17049055
000290 36 f2 c6 3d 64 8a b3 be 0a 4b e3 bc 54 e7 ca 3c
       0.09714167 -0.3506652 -0.027745742 0.024768509
0002a0 48 90 9b 3c c3 c8 ba bd 03 ca 79 ba 9a 81 0a 3f
       0.018989697 -0.091203235 -0.0009528698 0.54104006
0002b0 88 7d 93 b8 fd 43 f6 bc 7b 31 f6 bc 43 14 b6 3e
       -7.032888e-05 -0.030061716 -0.030052891 0.35562333
0002c0 27 03 bb 3d 94 06 c6 3c 70 e9 92 bd a7 cc 8e bd
       0.09131461 0.024173059 -0.07173431 -0.06972628
0002d0 9b 2d a8 be 55 ce 04 3f f3 94 11 bd d2 5f 05 be
       -0.32847294 0.5187734 -0.03554244 -0.13024834
0002e0 63 2a 61 3e 82 5e c5 3e 76 f6 40 3d bc e9 20 bd
       0.21988826 0.38548666 0.047110043 -0.039285406
0002f0 9f 9d 75 3d 86 7f 84 3c f9 24 1c be ec 9d b0 be
       0.059964772 0.01617409 -0.15248479 -0.34495485
000300 83 0e bf 3c 85 b4 e5 bc 7f 27 fe 3c 85 ea 70 3c
       0.02332235 -0.02804018 0.031024693 0.014704351
000310 32 e8 38 bf 8a 75 24 bd a7 d8 3b bd 23 aa 03 3e
       -0.722293 -0.040151156 -0.045860913 0.12857871
000320 51 3a bf 3d 4f 4b cf 3e 7a 12 f9 3c 40 41 e4 3d
       0.09337295 0.40487143 0.030404318 0.11145258
000330 59 a1 b4 3c e6 d1 2d be c9 39 b0 be cc b9 c6 3c
       0.022049593 -0.16974601 -0.34419087 0.024258517
000340 a0 18 ed bd 3e 77 9c bd d0 09 08 be 92 d3 d7 be
       -0.115769625 -0.07639931 -0.13284993 -0.42153603
000350 89 b9 63 bd 1f dc 20 bd b0 dc 52 be a2 3e c6 3e
       -0.055596862 -0.039272424 -0.20591998 0.3871966
000360 21 ac 05 3f 2f 25 32 bb 0b fb 95 bd 68 54 e1 3d
       0.5221577 -0.0027182808 -0.07323273 0.11002427
000370 6f 76 8c be a6 4e 1e be 79 8b 99 3d 44 ad b7 3d
       -0.27434108 -0.1545969 0.074973054 0.08968595
000380 10 9b 38 be a6 b5 d3 3d 4d 20 4d 3e bc 93 ad 3c
       -0.18027902 0.10337381 0.20031853 0.02118861
000390 fe 21 91 bd be 71 a3 3d 92 58 f9 3e 0a 64 93 be
       -0.070865616 0.07980679 0.48700386 -0.2878726
0003a0 15 0e 34 bc e4 82 97 bd bd 74 fa bd ac 0e af 3e
       -0.010989686 -0.07398012 -0.12229297 0.3419088
0003b0 3f 32 f6 bd 93 69 04 bd c8 db 82 bd 29 5d 99 3d
       -0.120213024 -0.032327246 -0.06389576 0.07488472
0003c0 d7 ab 2d be 3d 7a 44 3e 82 25 78 ba d6 26 d8 bd
       -0.16960083 0.19187255 -0.00094660383 -0.10554282
0003d0 2b 44 84 bd 57 98 b5 be 93 fc f0 be 9f 7b 02 3a
       -0.064583145 -0.3546779 -0.470677 0.00049775274
0003e0 33 a6 82 bd e3 c5 3a bd 3b bf 89 3e 9d 76 bb 3e
       -0.06379356 -0.045598876 0.2690371 0.36613932
0003f0 0b c4 90 3d 34 58 3e be 97 83 63 be 1d 34 95 3e
       0.07068642 -0.18588334 -0.22218166 0.29141322

network.0.conv.0.bias f4 [512]
000000 e7 d0 86 3d d2 9b 59 be 46 39 95 bd 1b 35 e9 bd
       0.06582814 -0.21250847 -0.07286315 -0.11387082
000010 e0 5b 9f be 98 19 c3 3c 1d cf 50 be cf c3 4b be
       -0.31124783 0.023815915 -0.20391507 -0.19898914
000020 cd bb d3 3d 7f d8 a9 bd 47 0a c2 bd 77 7c 88 bd
       0.103385545 -0.082932465 -0.094746165 -0.06664365
000030 e1 6b f3 bd 44 0b 0a 3d 47 02 12 be a2 0d 25 3d
       -0.11885811 0.03370215 -0.14258681 0.040296204
000040 3d 1c 04 bd 36 36 22 be e7 7f 02 bd 1d 2f 84 3d
       -0.032253493 -0.15840992 -0.03186026 0.06454299
000050 73 79 05 3e 48 54 28 3d 20 76 15 be e4 e7 0a 3d
       0.1303461 0.041096002 -0.14595842 0.033912554
000060 1d 02 ef 3d bf d9 a0 3d 10 61 a6 bc 21 3b 4c 3d
       0.11670325 0.07854032 -0.020309955 0.049861077
000070 eb ae 09 be 6c 43 f8 bd 6a 9b 28 bc f6 1d 32 be
       -0.13445632 -0.12122235 -0.01029096 -0.17394242
000080 18 a6 3a 3d 02 e9 6b bc e9 2d cb 3c 11 1f 21 bd
       0.045568556 -0.014398815 0.024802165 -0.039336268
000090 1d a1 fc 3c f1 65 e2 bc e8 a1 f4 bc 38 da 19 3d
       0.030838544 -0.0276365 -0.02986236 0.037561625
0000a0 76 c5 82 3d 0d d5 c4 3d 60 a7 00 be 36 31 0f 3d
       0.06385319 0.09610949 -0.12563848 0.03495904
0000b0 0f d9 70 be 24 d8 53 3d 3b bb e4 3c f7 90 b2 bd
       -0.23520301 0.0517198 0.02792131 -0.08719056
0000c0 c7 d2 17 bd f9 ff 92 3d 64 e8 f4 bd a3 18 f1 3c
       -0.037066247 0.07177729 -0.119583875 0.029430693
0000d0 d7 2e 35 3d f2 c8 b3 3d 22 a7 a9 3d 4a a5 01 3e
       0.044234123 0.08778562 0.08283831 0.12660709
0000e0 64 a3 d2 bc 71 2b 69 bd 89 4b 28 3d 12 c6 55 be
       -0.025712676 -0.056926195 0.04108766 -0.20876339
0000f0 9a bd 8a 3d 71 22 96 3c 76 93 fd 3d b1 34 14 3d
       0.06774445 0.01832697 0.123816416 0.036183063
000100 11 7c 27 3e 49 f4 65 bd 11 e1 98 3d a3 aa 88 3d
       0.16355921 -0.05614117 0.07464803 0.06673171
000110 5d 5f 9c bd 51 d3 b1 3d 99 9b 15 bc f7 66 14 3d
       -0.076353766 0.086828835 -0.009131336 0.036231007
000120 d6 3f d0 bd 59 71 1a bd a9 69 e6 bd a7 a9 09 bd
       -0.10168426 -0.037705753 -0.11250622 -0.03360906
000130 6d 11 43 be 5b c2 9c bc 3d 75 75 bd 2e 1d 5f be
       -0.19049616 -0.019135645 -0.05992626 -0.21788475
000140 e4 8f 14 3c b8 ae 2e 3d bb 41 67 bd 4c 6d 2b 3e
       0.009067509 0.042647094 -0.05645917 0.16740912
000150 58 97 d0 3d 3f 8b 10 3c 7f 2e 3f 3d bc 5d 81 bd
       0.101851165 0.008822261 0.0466752 -0.063167065
000160 92 61 c0 bc f8 07 3b be ea 35 cd 3c 8e 6f 38 be
       -0.023484025 -0.18264759 0.025050122 -0.18011305
000170 3e 1c 75 3d cd 61 8e be 28 b7 eb bd 69 3b c8 3c
       0.059841387 -0.2780899 -0.11509544 0.024442391
000180 8a ff 8b 3d 1d 0b c3 3d 6d 74 6e bd b1 7f 21 bc
       0.068358496 0.09523604 -0.0582165 -0.009857104
000190 b5 83 91 3d 10 02 3f 3d 06 0c de 3d 5b f4 30 be
       0.07105199 0.046632826 0.10842137 -0.17280714
0001a0 88 db 19 3d 7c ce f2 3c 16 a4 6c bd ef 77 6a bd
       0.037562877 0.029639475 -0.057773672 -0.057243284
0001b0 79 20 d8 bd 4b 96 dc bd 4f 42 21 bc 42 fe 74 3c
       -0.10553069 -0.107708536 -0.009842469 0.014953198
0001c0 57 76 cd bd 0e 74 c0 3d c4 19 fc bc 46 25 1a be
       -0.10032337 0.09397136 -0.030774005 -0.15053281
0001d0 a6 70 7a 3d ab b0 8c bd 48 65 95 3c e8 d1 32 3d
       0.061142586 -0.06869634 0.018236771 0.043657213
0001e0 56 10 c7 bd c9 8c 04 bd 75 f0 31 3d 26 1f 21 bd
       -0.09719913 -0.032360826 0.04344221 -0.039336346
0001f0 27 01 25 be 25 d0 20 be 38 a9 43 be eb cc 6e 3d
       -0.16113721 -0.15704401 -0.1910752 0.058300894
000200 84 8f 14 be f0 5e 84 3d 98 7b 06 3d b9 15 1b be
       -0.14507872 0.064634204 0.032832712 -0.15145005
000210 e2 76 62 bd 20 8f 03 3d 89 0a 15 bc ea c6 a1 3c
       -0.055289157 0.032118917 -0.00909675 0.01974817
000220 b6 17 b4 3c 1b ac be 3a e8 50 82 3c 2a ac 96 bc
       0.021983963 0.0014547141 0.01590772 -0.018392641
000230 04 0d 5c be 11 17 56 be f5 eb c2 3c de 22 d7 bd
       -0.2148934 -0.20907237 0.023794154 -0.10504697
000240 f1 f3 11 bd f4 40 63 bc 60 20 87 bd 29 8b f2 bd
       -0.03563303 -0.0138704665 -0.06597972 -0.11842949
000250 1e 77 07 3d 44 e4 11 bd 64 b9 bb bc be 5d b9 bc
       0.033072583 -0.03561808 -0.02291555 -0.022627708
000260 fb 1b 4e be 1c e9 88 bd e1 45 14 be d5 44 ac 3d
       -0.20127861 -0.06685087 -0.14479782 0.08411566
000270 cc ab 23 bc 1b 3b ce 3c 9d 3b cd bd 18 30 f0 bd
       -0.00998969 0.025174668 -0.10021136 -0.11727923
000280 1c 99 10 bd 0c 5f c6 3c 25 e2 93 bd b2 6d 32 3e
       -0.035302266 0.024215244 -0.07220868 0.17424658
000290 23 2c 9f bd 6d 72 74 bd 2e 86 73 bc 19 87 19 3e
       -0.0777209 -0.059679437 -0.014863534 0.14992942
0002a0 82 bf 92 3c 9a c1 61 be 52 02 53 bd 6a bf 34 be
       0.017913584 -0.2204651 -0.051515885 -0.17651144
0002b0 7e 0f 31 3e 9c 57 47 be f3 fa f9 bd 11 0e c5 bd
       0.17291066 -0.19467014 -0.12206068 -0.096218236
0002c0 85 d1 a8 bb 4f 4d f8 bc 75 2d c3 bb 53 60 31 3a
       -0.00515193 -0.030310301 -0.0059563466 0.00067663676
0002d0 62 0e 52 bd d5 7b c9 3c e7 e5 a1 bd 05 98 6e be
       -0.051283248 0.02459518 -0.079051785 -0.23300178
0002e0 bd de 27 be 34 bb 86 3d e4 a3 d8 bd 2e 1b 40 be
       -0.16393562 0.06578675 -0.10578135 -0.18760368
0002f0 f9 0c a9 3d b0 25 3a be 82 2e cb 3d 99 69 1a be
       0.082544275 -0.18178439 0.0992098 -0.15079345
000300 99 80 0e be 9f 4c 32 be e0 84 88 bd 17 ce db 3d
       -0.13916244 -0.17412041 -0.06665969 0.10732668
000310 42 29 59 be 98 8b b2 3c ca 5d 3e bc 71 e3 8f bd
       -0.21207145 0.02179508 -0.011619041 -0.07025803
000320 b4 c9 da 3c 1c db 92 be 2a a5 b4 3c 20 35 96 bd
       0.026707508 -0.28682792 0.022051413 -0.073343515
000330 24 40 48 bd a4 ec f8 bc 94 ab 1a bc c5 33 e4 bd
       -0.048889294 -0.030386277 -0.0094403215 -0.11142687
000340 61 2c 20 be a9 5e 00 be 1f 02 89 be f4 02 4c be
       -0.15641929 -0.1253611 -0.2675943 -0.19923002
000350 b2 67 6f bd 5e ed f5 bd e1 12 5b bb c2 c7 92 3d
       -0.0584485 -0.12008165 -0.0033428 0.07167007
000360 a3 04 f9 3d dc 43 86 3d 66 a2 c8 3c ca a5 08 be
       0.121590875 0.06555912 0.0244915 -0.13344494
000370 75 bc 02 be a0 ac c9 bd 19 d1 2e be c4 30 7c be
       -0.12767203 -0.09847379 -0.17071952 -0.24627978
000380 44 2a 3e be 25 72 d8 3c f3 62 a1 bd e8 60 c9 bd
       -0.1857081 0.026421616 -0.07880201 -0.098329365
000390 c0 f7 2d be 34 3f ef 3c 08 5a 27 be 9e f0 8c bd
       -0.1698904 0.029204942 -0.16342938 -0.068818316
0003a0 3f 59 83 be 74 6c a2 3c 31 91 37 be 8c 9d 4a be
       -0.25654027 0.019827105 -0.1792648 -0.19786662
0003b0 a2 f7 d6 3d 32 55 be bc fe 45 21 be d6 cd 0f 3c
       0.10496451 -0.023233984 -0.15749356 0.008777102
0003c0 d8 51 a7 bc 13 16 17 3c a0 f2 40 be b1 04 e0 bb
       -0.020424768 0.0092215715 -0.18842554 -0.0068364968
0003d0 ab ae ac bc fd c4 3e bd 27 ed 24 bc fd d6 be 3c
       -0.021079382 -0.04657458 -0.010066307 0.023295874
0003e0 9e 28 ce 3b ed c4 3d be ef 3b 76 ba 50 29 e0 bd
       0.006291463 -0.18532152 -0.0009393086 -0.1094538
0003f0 5b ac 41 bd 9a 37 52 bd d5 14 32 be 20 04 00 be
       -0.04728351 -0.051322557 -0.1739076 -0.12501574

network.1.conv.0.weight f4 [256, 512]
000000 3f 44 ee bb 20 2a 39 be 6a 55 5d bd 26 da 5d 3d
       -0.007271319 -0.18082476 -0.054036535 0.05416312
000010 fb 51 e3 ba 0c 77 cd bd 26 37 2e be e5 0d 37 bd
       -0.0017343158 -0.10032472 -0.17013225 -0.044690985
000020 52 b7 f9 bc 44 7e d8 bd f3 44 44 be 64 b2 b2 3d
       -0.030482922 -0.10570958 -0.19166927 0.087254316
000030 e5 fe 19 3e 1e fb b8 bd 68 fb db bd 33 62 ae 3e
       0.15038641 -0.09032272 -0.10741311 0.34059295
000040 04 1f 80 be bc fb 3e bc a6 00 9a 3c e2 44 45 3e
       -0.25023663 -0.011656698 0.018799137 0.19264558
000050 56 c7 cf 3d 22 e5 8d 3e e7 ae b0 3d ae 7f 23 3d
       0.10145442 0.27713877 0.0862711 0.039916687
000060 27 b8 0f 3e ae e8 90 bd 43 6a 58 3e 2f 6b 15 3e
       0.14035092 -0.0707563 0.21134286 0.14591669
000070 62 73 0c be 70 e7 31 bd ef 6c 21 be 71 cb fd 3a
       -0.1371589 -0.043433607 -0.15764211 0.0019362998
000080 34 2d e9 3d 47 3b 5e 3d ab 33 8a 3c 39 5e 2b 3d
       0.11385575 0.05425575 0.01687034 0.041837905
000090 ea 39 4d bd 83 7c 46 be d3 69 4a 3c 26 4b 84 be
       -0.05010406 -0.19383435 0.012354332 -0.25838584
0000a0 c4 49 68 3c 32 64 8e 3e 2c 87 a6 bd c4 61 bc be
       0.014177743 0.27810818 -0.08131251 -0.3679334
0000b0 1f 82 8a 3d e2 4c 89 bd fa 71 3a be 9a 6c 3b be
       0.067631 -0.06704117 -0.18207541 -0.18303147
0000c0 6d 56 b2 3c 03 16 ec 3b 0b a3 5d 3c a3 cf a8 bd
       0.021769727 0.0072047724 0.013527642 -0.082427286
0000d0 41 0d 19 3e 4b 7d dd 3c ca d8 94 3e e8 56 54 bd
       0.14946462 0.027037283 0.29071647 -0.051840693
0000e0 48 c5 9c be e1 39 67 be 1a db 6f be aa 0c ea be
       -0.30619264 -0.22580673 -0.23423424 -0.45712787
0000f0 92 7f 95 bd 45 d0 0b 3e 24 80 1a bd 00 23 f5 bc
       -0.07299723 0.13653667 -0.03771986 -0.029923916
000100 af da f0 ba cc 8b 93 be f0 2e c6 bd 76 60 fc 3b
       -0.001837572 -0.28817594 -0.09676921 0.0077019287
000110 7e a0 94 bd df 53 88 bc d7 ea 00 3e 45 7b 90 bd
       -0.07257174 -0.016641555 0.12589584 -0.07054762
000120 39 1b e3 3c 80 49 9e 3e 2a 8a eb bd 20 54 74 be
       0.027722942 0.3091545 -0.11500962 -0.23860216
000130 78 14 72 be 44 d1 9d 3c 5c 4b d4 3d 57 7b 04 3e
       -0.2364062 0.019264825 0.10365936 0.12937675
000140 97 cb 23 3c b6 6f 1f be dc 7e 68 be 33 f4 e9 3d
       0.00999727 -0.15569958 -0.22704643 0.114235304
000150 7e ec f4 bd a8 70 8c 3d 24 65 77 be 65 12 70 bd
       -0.1195917 0.06857425 -0.24159676 -0.058611292
000160 5b 38 39 3e 78 c1 53 3e 22 0e 76 3e e0 bf ba 3d
       0.18087904 0.20679271 0.24028829 0.091186285
000170 68 6e b1 3e 8e 0a a3 be d4 cc 97 3d 5a ae 94 3c
       0.34654546 -0.3184399 0.07412115 0.018149544
000180 cf 16 bf bd cf b5 0c 3e 7a 92 41 bd 82 f4 3c be
       -0.09330522 0.1374123 -0.04725883 -0.18452647
000190 51 49 dc 3d ff 65 fb 3b 84 f6 8c 3d ff 6c 77 be
       0.107561715 0.007672071 0.068829566 -0.24162672
0001a0 14 02 6e 3e ef 88 3f bd 45 16 44 be de c3 f7 bc
       0.2324298 -0.04676145 -0.1914912 -0.030244764
0001b0 88 62 76 3e e0 e1 fa 3d f1 ec 83 3e 5b a4 80 3d
       0.24061024 0.122501135 0.2576671 0.06281348
0001c0 ab fd 08 bd 3e 54 d4 3d 4c 32 84 3e e9 f1 78 be
       -0.03344504 0.103676304 0.25819623 -0.24311031
0001d0 af 58 a5 3d 42 f5 19 be 74 0d 05 be 62 78 8a 3d
       0.08073556 -0.15034965 -0.12993413 0.067612424
0001e0 17 87 91 bd df 92 64 3e d6 7c c9 bd 0c 2d 49 bd
       -0.071058445 0.22321652 -0.09838264 -0.049115226
0001f0 de c8 53 be 33 35 ac be 6c 1c ea be 02 5d 37 3c
       -0.20682094 -0.33634338 -0.4572481 0.011191608
000200 85 77 a9 3c d4 de 3d bc 33 c9 6d 3e fc cc 0a bc
       0.020686874 -0.011588771 0.23221283 -0.008471724
000210 07 99 c0 bc 7d 6f 69 bd c5 db aa bd 12 b9 ee 3c
       -0.02351047 -0.05699109 -0.08342699 0.029140983
000220 da 33 8c 3d b8 de cf 3d ef 49 49 bd 98 be 8e 3c
       0.068458274 0.10149902 -0.049142774 0.017424867
000230 f3 f8 c5 3b 6b 07 3a 3d a4 f6 78 be 86 82 be 3d
       0.00604164 0.04541723 -0.24312836 0.09302239
000240 01 c4 10 3d 5f 40 e8 bd f6 00 25 be ea 84 63 bd
       0.035343174 -0.11340403 -0.16113648 -0.05554668
000250 51 30 33 3e 1d 54 b0 bd 38 ec dc 3c 15 e2 96 3c
       0.174989 -0.08609793 0.026968107 0.018418351
000260 db ce 73 3d 6f 13 31 3e 47 cb b6 3c 35 41 e0 3c
       0.059523445 0.1729257 0.022313727 0.027374843
000270 7a 23 5e 3e 55 0e ab 3d b2 9d 22 be ea 2f e3 3b
       0.2169322 0.08352343 -0.15880468 0.006933202
000280 9a c3 96 bc 13 78 ea 3c 7e 92 17 3d 2c bb 0b 3d
       -0.018403817 0.028621709 0.03700494 0.034114048
000290 1d 07 f0 bd b2 31 47 3e ff 1c d9 3d 8b bf d4 3d
       -0.11720107 0.19452551 0.10601234 0.103880964
0002a0 0a 30 1a bc 25 68 9c bd ae f8 13 bc 19 b1 12 be
       -0.0094108675 -0.076370515 -0.009031458 -0.1432537
0002b0 ac f6 0b 3e 89 6d 17 bd 4d f4 7a 3c e8 8f 2a be
       0.13668317 -0.036969695 0.015317035 -0.16656458
0002c0 d5 82 39 bd ca 0a 4c 3e da c7 c1 3d 23 b3 24 3c
       -0.045290787 0.1992599 0.09461947 0.010052475
0002d0 75 e0 03 be 2e e0 b4 bc 23 d2 4c bc 01 e4 76 be
       -0.12878592 -0.022079553 -0.012501272 -0.24110414
0002e0 4c 9d 96 be cf 09 bc 3d 4a c2 31 3c ea ee 14 be
       -0.29416883 0.09181558 0.010849545 -0.14544263
0002f0 54 87 2e bd 18 a1 50 3d a8 5a 4a 3c 38 f6 65 be
       -0.042609528 0.05093488 0.012350716 -0.22457206
000300 a0 b6 b2 be 99 1f b4 3c 35 79 af 3d e1 32 39 3b
       -0.34904957 0.021987723 0.0856804 0.0028259086
000310 19 8d 40 3d 3f a1 fa bc 60 1a 2c 3e d6 dc 9b bd
       0.04700956 -0.030594466 0.16806936 -0.076104805
000320 6c 8c 71 bd 33 5d 50 be aa 9e 7a bd af 9d de bd
       -0.058971807 -0.20348053 -0.06118647 -0.108699195
000330 ec 90 0b 3d 7f 0f f1 3d 5a 39 33 3e fc bb 06 bf
       0.034073755 0.11770534 0.17502347 -0.5263059
000340 df 22 a0 3c 46 03 9e be 22 49 a3 3b 13 47 ab be
       0.019547878 -0.30861872 0.0049830833 -0.33452663
000350 0a a9 bc 3d a8 27 54 3c 19 36 02 bd 71 85 b6 3c
       0.09211929 0.012948908 -0.031789873 0.022280427
000360 4d ec 9a 3d 9c 20 0e 3e 26 10 56 3d c9 8c 28 3d
       0.07564602 0.13879627 0.052261494 0.04114989
000370 ff 18 83 3d c8 6a 6e b9 18 83 ec bd e4 16 e4 bd
       0.06401252 -0.00022737228 -0.11548442 -0.111371785
000380 77 d9 1e be 7f 39 af 3b 41 ab 36 3d ac eb 83 be
       -0.15512644 0.0053474302 0.044596914 -0.2576574
000390 99 88 52 be cc 0e 60 be b8 b8 8e bc 67 82 b6 3d
       -0.2055992 -0.21880645 -0.017422065 0.08911591
0003a0 d0 37 e1 bc 05 ae 43 3c ba ff d6 bc 61 f1 53 3b
       -0.027492434 0.011943345 -0.026244987 0.0032339918
0003b0 64 93 71 bc bf 45 da 3c 11 6a e9 bd b2 d0 f7 3c
       -0.014744613 0.026644586 -0.11397184 0.03025088
0003c0 25 40 5b 3d 28 0f 00 3e 50 28 e2 bd 0b 95 72 3d
       0.05352797 0.12505782 -0.11042845 0.05922417
0003d0 21 7c 9b bd 2b c9 10 be a0 d6 86 3d 03 ed 16 be
       -0.07592035 -0.1413924 0.06583905 -0.1473885
0003e0 88 33 3e bd 32 7d d4 be c9 52 82 3d 75 3e f2 bd
       -0.046435863 -0.41501766 0.06363446 -0.11828319
0003f0 55 5a 62 3e fa 8b 18 be db 28 a0 bd a5 cb 3c 3d
       0.22104771 -0.14897147 -0.078202926 0.046092648

network.1.conv.0.bias f4 [256]
000000 40 45 75 bd 44 43 01 bd cd 5d 03 3d d4 d7 59 3c
       -0.059880495 -0.03155829 0.032071877 0.013296086
000010 94 ba 40 bc fc 2e 95 3d 40 c8 41 3d 91 d8 bb 3d
       -0.011763234 0.07284352 0.047310114 0.09172166
000020 4a e7 88 bd bf b5 ee 3c f3 7e 6f bc f9 60 25 be
       -0.0668474 0.029139398 -0.014617669 -0.16150273
000030 9a 50 9e 3d e8 61 35 be 6f 6f f5 bd 6c 58 ce bd
       0.07730217 -0.1771313 -0.11984145 -0.10075459
000040 e6 02 b9 bd 49 9c 5d ba 2e 0d 9e 3c a8 da 32 be
       -0.09033756 -0.0008453769 0.019293394 -0.17466223
000050 73 25 d0 bd 1c 18 28 3e 5d 17 bf bd 10 c0 19 bd
       -0.10163393 0.16415447 -0.09330628 -0.03753668
000060 37 32 42 bd cd f8 f9 3b 87 19 2e be cd 4c 6c 3c
       -0.04741117 0.0076285363 -0.17001925 0.014422608
000070 41 02 12 be c9 1e cd 39 92 ea 09 be 89 9b c5 3b
       -0.14258672 0.00039123584 -0.13468388 0.006030504
000080 eb f9 a7 bd f2 94 83 be 4d 64 2a 3e 42 77 d7 bd
       -0.08201965 -0.25699574 0.16639824 -0.105207935
000090 a9 9d 6c be 9a 59 c7 bc 47 dd cc 3b 40 6b 34 bd
       -0.23107018 -0.024334718 0.0062519643 -0.044047594
0000a0 51 fd c2 bd 17 54 22 be 97 0c 66 be db fb 93 3d
       -0.095209725 -0.1585239 -0.2246574 0.07225772
0000b0 92 89 b9 3c da 89 31 3d 19 fb fe bd 78 b2 ae 3c
       0.022648606 0.043344356 -0.12450237 0.021325335
0000c0 f1 8d cb bd af af 04 3d 01 b2 7a bd e6 89 79 3d
       -0.099391825 0.032394107 -0.061204914 0.060922526
0000d0 29 ef 84 bd 12 fb 6f bc ae 65 77 bd 77 d0 c0 bb
       -0.06490929 -0.014647262 -0.060399704 -0.005884226
0000e0 9c c6 12 3d 57 d6 92 bc 9d 30 1d 3d 0e bf d7 3d
       0.03583394 -0.01792447 0.03837644 0.10534488
0000f0 4f a0 0d be 67 64 8a bd dd c4 5f bc 66 06 77 bb
       -0.13830684 -0.067574315 -0.013657776 -0.0037693023
000100 cb 5f bc 3c 5c a3 78 3c 2c 22 15 3e 60 a1 9a bd
       0.022994896 0.015175667 0.14563817 -0.07550311
000110 2e 05 fd bc 47 61 48 bd 33 98 69 bc 10 4a c7 bd
       -0.030886259 -0.048920896 -0.0142574785 -0.09730923
000120 78 23 45 3c 58 63 f0 bd 97 7c 11 be bd 39 32 bc
       0.012032382 -0.11737698 -0.14207684 -0.010878024
000130 56 9c f5 bc 8b 06 93 3c 3d a7 97 bb cc f5 3b 3e
       -0.029981773 0.017947456 -0.0046280907 0.18355483
000140 21 15 f7 bd 32 89 15 3d 98 63 25 be 00 11 2d 3d
       -0.12064577 0.036507793 -0.16151273 0.04225254
000150 1b 5f 34 be e2 bc d9 bd 46 14 77 bd 5d a0 93 bd
       -0.17614405 -0.1063173 -0.06032207 -0.07208321
000160 f0 a6 8b 3c 2e c9 82 bc 3a b6 3d bc 6c db ed 3d
       0.017047375 -0.01596507 -0.011579091 0.11614117
000170 1c 6c 64 3d b1 6e 33 3e 9c 0b 31 bd 73 fc 27 bc
       0.055767164 0.17522694 -0.043223962 -0.01025306
000180 16 0c 4a be a2 f5 6b ba 33 83 13 bd 22 e9 9e 3e
       -0.19731173 -0.0009001141 -0.036013793 0.3103724
000190 dc 7f 66 3c ed 88 8e bd 8d 9e 9c 3d f6 7f 4e be
       0.01406857 -0.0695971 0.07647429 -0.20166
0001a0 f4 2f 79 be 76 aa 6b bd 95 80 ec 3d c9 e5 30 be
       -0.24334699 -0.05753561 0.115479626 -0.17275156
0001b0 78 86 0b 3d a0 27 4c bd 92 72 0d 3e eb 9b 30 be
       0.034063786 -0.049842477 0.13813236 -0.17246978
0001c0 93 af 96 3d 51 ad de 3d 2d e4 10 be 79 4c 79 3d
       0.07357707 0.10872901 -0.14149542 0.060863946
0001d0 d8 7f 6d 3d 5c b9 f2 bc d0 eb cc bc 02 f9 27 3e
       0.05798325 -0.029629402 -0.025014788 0.16403583
0001e0 b0 7a 64 bc 30 08 e9 bc 4f 27 f6 3d 11 39 0a 3e
       -0.013945267 -0.028446287 0.12019216 0.13498332
0001f0 23 1b 0f be 6a 26 33 bd 1e 98 e9 3d 15 0f 82 be
       -0.13975196 -0.043737806 0.11405967 -0.25402132
000200 b7 7e a0 bd 75 be fd bd a8 1a 2a be 42 28 1c 3d
       -0.07836669 -0.123898424 -0.16611731 0.03812433
000210 16 c0 77 bd 76 73 a0 3c 3f 4b 37 3c d8 45 5f bc
       -0.06048592 0.019586306 0.011187374 -0.013627492
000220 d6 8d 0b 3d 47 57 b6 bc 4a a9 89 bd bf 2e 85 bc
       0.034070812 -0.022258414 -0.067217425 -0.016257642
000230 fc c9 02 bd 97 f2 3a bb c8 16 59 bc f4 26 a5 3b
       -0.03193091 -0.0028525942 -0.01325006 0.005040044
000240 20 65 f8 3b 82 f4 b3 3b d7 a7 37 be 03 1e af 3d
       0.0075804144 0.005491794 -0.1793512 0.08550646
000250 e0 57 1c 3e ee 89 aa bd da 39 44 bd 96 03 39 be
       0.15267897 -0.08327089 -0.047906734 -0.18067774
000260 d6 fd d9 3d a0 f7 95 3e 95 ea dd 3c 8a a9 90 bd
       0.106441185 0.29290485 0.027089396 -0.07063587
000270 fc 24 95 bc e5 e6 6b bb 7f 1a 2a 3c 17 75 2f bd
       -0.018206112 -0.0035995778 0.010382294 -0.042836275
000280 6d 6e ee bc 06 4e d9 bd 1a ce 7b 3c f6 b6 2b 3e
       -0.02910539 -0.10610585 0.015368963 0.16769013
000290 d0 e7 c3 bc aa 41 cd 3d ab 39 f0 bb 92 e3 6d bd
       -0.023914248 0.1002229 -0.0073310933 -0.058078356
0002a0 de 35 33 3d 90 09 80 3d bc c3 ad 3d d1 99 34 be
       0.043752544 0.06251824 0.08484599 -0.17636801
0002b0 cc 98 30 3c a2 a2 62 be 4a 27 1c 3d 66 93 35 be
       0.010778617 -0.22132352 0.038123406 -0.1773201
0002c0 e8 e7 7f bd 30 fe ce bd 4f 7d 40 bd 0b be b2 3c
       -0.062477022 -0.10107076 -0.046994504 0.021819135
0002d0 29 13 4b bb 49 e5 9c bc ac 22 72 bc 9b 70 01 be
       -0.0030986762 -0.0191523 -0.014778774 -0.12640612
0002e0 1c 47 88 bc 51 c3 d4 bd 04 67 3f 3d f8 49 59 be
       -0.01663547 -0.10388816 0.046729103 -0.21219623
0002f0 40 a9 b7 bd 1a 51 fb 3d e6 79 ca bd 04 69 04 3c
       -0.08967829 0.12271328 -0.098865315 0.008081678
000300 8f cb 92 bd 5c cf fe bd da 9c 29 be 69 2f 53 3d
       -0.07167732 -0.124418944 -0.1656374 0.051558886
000310 90 3d b2 bd f1 ac 75 3d 02 42 c8 3d 61 25 bb bd
       -0.08703148 0.059979383 0.09778215 -0.09137989
000320 d6 bc b6 bd 19 ba bd 3d 10 7d 23 be 01 87 1d 3e
       -0.08922736 0.09264011 -0.15965676 0.15383531
000330 39 71 11 bd 82 ba e3 bc 67 d2 45 be d8 d3 0c be
       -0.03550837 -0.027798895 -0.19318543 -0.13752687
000340 74 68 d9 bc f0 e8 da b8 4a f2 ae bc ac d2 d0 bc
       -0.026539065 -0.00010438438 -0.021355767 -0.025491081
000350 cb 74 33 be ce 1f 54 3b 97 7a d2 3c fb c4 8b 3d
       -0.17525022 0.003236759 0.025693221 0.068246804
000360 e8 26 28 be 05 f5 6d 3c 90 9c 5c be 20 fa 34 bd
       -0.16421092 0.014523749 -0.21544099 -0.04418385
000370 63 7e 99 3b 6d 2e 2f be 6f 71 55 be f9 1b bd bd
       0.004684256 -0.17107554 -0.20844053 -0.09233851
000380 7b b5 09 3c 7c dd 9c bb 4b 5e dc 3c 6b af 01 be
       0.008405085 -0.004787145 0.026900431 -0.12664573
000390 11 f8 57 3d a9 9b 2b 3e f3 ea 0b 3e ea 81 51 be
       0.05272681 0.16758598 0.13663845 -0.20459715
0003a0 19 1a 97 bd c8 cf 11 3e 7e 1e 9e bd fa 39 a9 bc
       -0.073780246 0.14239419 -0.0772066 -0.020657528
0003b0 e1 54 f4 bc b4 7f ec 3c 3c e7 74 bd 91 4c 30 3e
       -0.02982563 0.028869487 -0.059790835 0.17216708
0003c0 a9 82 0d be a9 fe 76 3d 6f 7b fb bd 1a 7f bb 3c
       -0.13819374 0.060301457 -0.122794025 0.022887755
0003d0 d6 37 49 3e 06 bd fd 3c cc fb f1 3c 6d 0b e4 bb
       0.19650206 0.030973922 0.029539011 -0.00695937
0003e0 ae f7 ef bd e8 6f c1 bc 6b c2 83 be 16 d1 06 bd
       -0.11717163 -0.023612931 -0.25734267 -0.032914244
0003f0 b6 c0 71 3d 0b fb ba 3d 67 41 a3 bd ab e7 c2 bd
       0.059021674 0.09129914 -0.07971459 -0.095168434

network.2.conv.0.weight f4 [128, 256]
000000 00 dc f3 bb 31 91 c0 3a 15 de 92 bc 82 6e ea 3c
       -0.0074419975 0.0014691708 -0.017928163 0.028617147
000010 93 68 57 bd 02 33 b7 3d 02 89 67 3e 62 be 44 3e
       -0.052589964 0.08945276 0.22610858 0.1921325
000020 f5 a6 58 bd 42 20 27 3c 60 ef e0 bd 2f 41 50 bd
       -0.052893598 0.010200562 -0.10983157 -0.050843414
000030 67 1f a4 3d 82 f3 c1 3d 1d 25 ab 3d c5 48 c4 bd
       0.08013802 0.094702736 0.08356688 -0.09584192
000040 2f f1 d1 3e c3 81 e6 bd 4f 24 73 3b 43 89 aa 3d
       0.4100432 -0.11255219 0.00371005 0.08326962
000050 c7 ec bc 3d 50 92 3d bd c9 d8 e4 3d 03 e1 e9 3d
       0.09224849 -0.046282113 0.11174161 0.11419871
000060 33 47 78 be 7a ec 88 3e cb 9a 08 be b0 e3 9f 3d
       -0.2424591 0.26742917 -0.13340299 0.078071
000070 5d 99 34 3e 87 56 be bd ac cb 42 3d 53 04 58 be
       0.17636628 -0.092938475 0.047557518 -0.210954
000080 f5 89 f2 bd 31 49 c6 bd 6f 24 79 3d 02 1a 8c bd
       -0.118427195 -0.09681929 0.06082576 -0.06840898
000090 6b 06 8d bd 00 06 f5 bc a5 69 ee 3d 4f 59 53 bd
       -0.0688599 -0.029910088 0.11641244 -0.051598843
0000a0 ae 47 a9 3d 12 85 4c bd 37 17 0f 3c 8e 82 bc 3d
       0.08265625 -0.049931593 0.008733562 0.09204589
0000b0 eb e5 f5 bd cb ab cf bd 4a ab 55 3e 3b fe 4d bc
       -0.12006744 -0.10140189 0.20866123 -0.01257282
0000c0 7f f9 62 be 8b ac 00 3e 58 6e 3d be 1f 4f 43 bd
       -0.22165488 0.1256582 -0.18499124 -0.047682878
0000d0 2d be 8a bd 34 2b b5 bc 2c 4c 0a 3d 93 cf 25 bd
       -0.067745544 -0.022115327 0.03376405 -0.04048116
0000e0 53 e4 8d bc c0 bc b0 bd 5c 12 51 be 3f 64 fe bd
       -0.017320788 -0.08629751 -0.2041716 -0.12421464
0000f0 55 7d 76 3d e1 50 a9 bd 61 28 2d 3e b4 9b e0 bd
       0.06017812 -0.082673796 0.16909935 -0.10967198
000100 83 cf 77 39 b1 b8 d7 3d fb e4 a1 bd 32 15 b8 bc
       0.0002363306 0.10533274 -0.07905003 -0.022471044
000110 40 3e 33 be 4f 4b 93 bd ef 36 d1 bd d7 2d c8 3d
       -0.17504215 -0.07192098 -0.10215556 0.09774368
000120 54 0b 03 bd 49 2b 5f 3c 1b a9 f3 bd ab 76 38 bd
       -0.031993225 0.01362116 -0.11897489 -0.045035046
000130 46 6d 44 3d ec bf b2 bc 83 cb 2f 3e 14 0c 56 be
       0.047955774 -0.021820031 0.17167477 -0.20903045
000140 a1 17 89 be ab 0b 12 3e 52 8c ee bc e6 2f 06 bd
       -0.2677584 0.14262263 -0.029119644 -0.032760523
000150 38 37 35 bd e4 5c bc 3d c0 75 6b ba 56 ca 06 3d
       -0.044242114 0.09197405 -0.00089820847 0.032907806
000160 9a b1 a0 bd e0 6a 21 3a 30 9b 4d 3d 9a 1a c1 3d
       -0.07846375 0.0006157588 0.050196826 0.09428902
000170 6c b0 f9 bd b8 94 c2 b9 22 8a 76 bd 92 5d 28 3d
       -0.12191853 -0.00037113368 -0.060190327 0.04110486
000180 78 f3 72 3c ef 6e 6b 3c 10 6b 95 3c 20 c9 34 3e
       0.014828555 0.01436971 0.018239528 0.17654848
000190 c8 d7 30 3d 58 01 df 3d b4 89 d2 bc e2 21 bf 3d
       0.043174535 0.10888928 -0.025700428 0.093326345
0001a0 8e 71 67 3d 36 da be 3d 18 cd a7 3c d8 60 58 3d
       0.05650478 0.09318964 0.020483539 0.052826732
0001b0 0c d2 9c 3d 23 6b 6c be 20 69 08 be 80 8e c4 3d
       0.07657251 -0.23087744 -0.13321352 0.09597492
0001c0 22 50 d8 bd 91 67 ed 3c c4 10 0f 3e 47 63 a9 bc
       -0.10562159 0.028980048 0.1397124 -0.020677222
0001d0 21 c9 d1 3b 3a a9 77 be de a1 b5 3d 59 ca 7f 3c
       0.0064021503 -0.24185649 0.08868764 0.015612208
0001e0 72 44 ec bd 58 70 3d be 71 e3 24 be 7d ff a6 bd
       -0.115364924 -0.18499887 -0.16102387 -0.08154199
0001f0 58 de 93 3d 58 7c e3 3b f4 96 f1 bd f5 5e 0f 3e
       0.07220143 0.006942313 -0.1179637 0.14001067
000200 3e 0a c4 3d 42 00 65 3e c8 7f 2e 3e 96 c8 10 be
       0.09572266 0.2236338 0.17040932 -0.14139017
000210 37 b3 63 bd f2 77 fa 3d 03 e2 c8 bd 5e cb 91 3d
       -0.055590834 0.12229909 -0.09808733 0.07118867
000220 b9 15 0b 3d 45 ea 09 bc 2f 72 f7 bb b6 af 18 3e
       0.033956263 -0.008417671 -0.0075514535 0.14910778
000230 35 93 09 3e 39 12 cf 3c 58 66 16 bd c7 d6 e6 bd
       0.13435061 0.025277244 -0.036718696 -0.11271434
000240 ea e7 13 3d d7 9c 2b be 91 d9 57 3d 73 4b f3 bc
       0.036109842 -0.16759048 0.052697722 -0.029699063
000250 b9 17 1d be 64 90 96 bb b6 03 71 bb 6c cd 1f be
       -0.1534108 -0.0045948494 -0.0036775894 -0.15605706
000260 94 01 58 bd c3 b8 5b bd 00 3c 62 3c c2 93 ab 3d
       -0.05273588 -0.053643 0.01380825 0.08377792
000270 74 15 45 3e e2 63 e7 bd 1a 86 f0 3c c5 66 1d be
       0.19246465 -0.11298348 0.02936082 -0.15371235
000280 f2 3c 6a 3e 0a 87 04 3c 95 64 2d 3e fc ac 3f bd
       0.22874811 0.008088836 0.169329 -0.04679583
000290 cc 45 87 bd 4d 6b 13 be 71 3e a9 3d 3c 4b 9d bd
       -0.066051096 -0.14396401 0.08263863 -0.076803654
0002a0 13 f1 ee ba 90 6f 02 be a7 51 b2 bd 46 74 00 bd
       -0.0018229805 -0.1273787 -0.0870698 -0.031360887
0002b0 6c 27 d4 3c 2b 23 b3 bd 79 4b 10 3e 2b 48 99 bc
       0.025897704 -0.08746942 0.1409129 -0.01871117
0002c0 fe 8c d5 bd 01 9d fd bd cf 71 0a 3e ba f6 b8 3d
       -0.10427283 -0.12383462 0.13519977 0.09031434
0002d0 a5 9b 52 3d c9 56 5f bd 5c 75 12 3e f3 15 7c bd
       0.051417965 -0.054526124 0.14302582 -0.06154437
0002e0 3c 2a 36 bd 5d 01 62 bd 6f 47 de bd 9f 29 4c bd
       -0.04447387 -0.05517708 -0.108534686 -0.04984438
0002f0 e3 c1 37 bd 4d d1 6c 3c 61 98 cb 3d 0f c6 a3 bd
       -0.04486264 0.014454198 0.09941173 -0.07996761
000300 25 4e 26 3e ec 38 4b be ce fb 62 be 10 2d 36 be
       0.16240747 -0.19845933 -0.22166368 -0.17790627
000310 8f e2 f2 3d be 49 84 3d 40 54 f0 3d 36 64 b7 bd
       0.11859619 0.06459378 0.117348194 -0.089546606
000320 f5 74 0b 3e c2 13 33 3b 5c 77 2e 3e 77 0c 60 bc
       0.13618834 0.002732501 0.1703772 -0.013674847
000330 8c 07 8e 3c 36 30 7b bd 4b 9c ad 3c 23 21 15 3e
       0.017337583 -0.061325274 0.02119269 0.14563422
000340 07 b4 9e bd 02 16 ee bc 71 aa 54 be 8b 90 70 bd
       -0.07749181 -0.029063229 -0.20768143 -0.058731597
000350 9f a6 54 3c bf cf 35 bd 6e b5 05 be 20 1a 42 3d
       0.012979179 -0.044387575 -0.13057491 0.047388196
000360 ce b7 a9 bc 2a af 51 3d 30 d1 e0 bd 99 2c f2 3d
       -0.020717528 0.05119244 -0.10977399 0.118249126
000370 58 3a c5 bd 77 58 1c be 17 ed 9b 3d cd f9 90 be
       -0.09630269 -0.15268122 0.07613581 -0.28315583
000380 83 6f 42 be aa 23 9f bc 74 22 5d bd 6c 25 05 be
       -0.18987851 -0.019426186 -0.053987935 -0.13002557
000390 99 ab 15 bd d9 3c 0b be fe 85 4f bd c7 e9 c1 bd
       -0.0365406 -0.1359743 -0.050664894 -0.094684176
0003a0 87 70 ca 3c 50 40 20 3e 16 5c fc 3d 73 2a 26 bd
       0.02471186 0.15649533 0.123222515 -0.040567826
0003b0 80 0b 9c bc 98 19 0b be 66 72 9d 3e d1 a5 a9 3c
       -0.019048452 -0.13583982 0.30751342 0.02070895
0003c0 87 e4 ed bd d4 38 b1 bd 8e 82 66 be 94 f0 3f bd
       -0.11615854 -0.08653417 -0.2251074 -0.046860293
0003d0 1f 0a e1 bd b2 b2 c8 3d 65 9a 1a bd 9e f4 a6 bc
       -0.109882586 0.097997084 -0.0377449 -0.020380314
0003e0 47 64 80 3c 06 b8 3e 3e 7e a6 39 3e 5f b1 c1 bc
       0.015672816 0.18624887 0.18129918 -0.023644147
0003f0 e8 3f dc 3c 6a eb 0a bd 2a 18 ca 3d e1 24 93 bd
       0.026885942 -0.033915915 0.0986789 -0.071847685

network.2.conv.0.bias f4 [128]
000000 af cd 63 be 0b a0 33 bc d4 97 1b be 66 4c 98 3d
       -0.22246431 -0.01096345 -0.15194637 0.07436447
000010 c6 28 31 be 6a 43 44 be cd e6 21 3e f2 ec 9a ba
       -0.1730071 -0.19166341 0.158107 -0.0011819883
000020 b6 44 91 bd a9 43 df 3c 0a 49 f9 bc 1b 4e 04 3d
       -0.07093184 0.027253943 -0.030430336 0.03230105
000030 85 9d 82 3d 20 b3 fc 3d 61 0b 7b bd 15 70 57 3d
       0.06377701 0.12338853 -0.06129015 0.052597124
000040 d5 b7 86 3d 35 6c 82 bc 41 22 d6 bd 40 1e 95 be
       0.06578032 -0.015920738 -0.10455752 -0.2912464
000050 72 ef e0 bd 58 e0 55 3d 18 bc 46 bb 19 57 cd bd
       -0.109831706 0.052215904 -0.0030324515 -0.10026378
000060 00 02 d4 bd b9 bb 0f be 13 78 bf bc 56 01 16 be
       -0.10351944 -0.14036454 -0.023372686 -0.14648947
000070 eb 6b 04 bd 82 2e 9e bd 30 1b fe 3d ed c8 40 be
       -0.03232948 -0.077237144 0.12407529 -0.18826647
000080 49 1c b2 bd 32 35 70 be 0b 4e 86 bd f6 44 d5 3b
       -0.08696801 -0.23457792 -0.06557854 0.006508465
000090 6f 47 3b bd f5 88 58 be e5 bc c7 3c a6 50 0b bd
       -0.04572242 -0.21145995 0.024382064 -0.03401246
0000a0 d2 36 03 be 1f 47 05 3c d2 22 ef 3c 92 c4 40 be
       -0.12813881 0.008134632 0.029191408 -0.18824986
0000b0 33 20 08 be 39 d4 0d 3d 9f be d3 3d 92 a6 03 be
       -0.13293533 0.03462622 0.103390925 -0.1285651
0000c0 b3 9c 60 be 41 70 1d 3d f2 88 0b bd e2 c2 76 3c
       -0.21934776 0.03843713 -0.034066148 0.015061112
0000d0 91 03 c6 bc 2d b5 0e 3e bd 41 b7 bc 34 39 e5 3d
       -0.024171622 0.139363 -0.022370214 0.11192551
0000e0 f8 3a 0c 3d c4 f0 53 bd 9e 89 2c be d5 30 9e be
       0.034235924 -0.051743284 -0.16849372 -0.3089663
0000f0 b3 1c 8f be 3e 51 68 3c da d3 be bd b0 02 f5 3d
       -0.27951583 0.014179526 -0.09317751 0.11963403
000100 1c 7b 59 bc da da 13 3e f2 4d 61 be a6 6d 2a 3e
       -0.0132739805 0.14438954 -0.2200239 0.1664339
000110 25 29 83 bd 38 1b ae 3a 38 df dd bd 5e 04 9d bd
       -0.06404332 0.0013283258 -0.10833591 -0.076668486
000120 ee 70 69 3e 9f de 0b 3b d2 10 26 bc 43 5c d8 3c
       0.22796986 0.002134241 -0.010135846 0.026411181
000130 53 b8 0d be c3 51 f1 3d a5 c9 0e 3e 1f a0 1d 3d
       -0.13839845 0.11783173 0.13944109 0.03848278
000140 8c 0e 8a 3c 70 4d 63 be 93 81 72 bd 9d 84 3c 3e
       0.01685264 -0.22197509 -0.059205603 0.18409963
000150 eb 78 46 bd 4b 1c bc 3c f4 29 34 be 0f e7 aa 3d
       -0.04845516 0.02296271 -0.17594129 0.08344852
000160 14 2e 34 bb c0 11 50 3d 43 8d eb bd 23 eb 3e be
       -0.0027493285 0.050798178 -0.11501553 -0.18644385
000170 59 54 f0 bd 1c c5 ec bd 19 01 0e 3c 9b 84 5e bd
       -0.11734838 -0.11561033 0.008667254 -0.05432568
000180 02 34 4a bd e6 8e ad bd 57 89 66 3d 71 cb e0 3d
       -0.049366005 -0.08474521 0.05628332 0.10976303
000190 df 61 f4 bd 92 db ff bd 95 e0 aa 3c 78 0e d1 3c
       -0.1193273 -0.124930516 0.020859042 0.025519595
0001a0 ad 12 8a bb 13 b8 b4 3d 8e 67 c6 bd e4 94 c8 bc
       -0.004213652 0.08824172 -0.0968772 -0.02448506
0001b0 8d 52 29 be 64 37 22 be e1 67 5c be 4e d4 a3 3c
       -0.16535397 -0.15841442 -0.21524002 0.019998696
0001c0 ff 4d b9 3c 23 a0 4d bb 12 65 d7 bd d4 2c 0e be
       0.0226202 -0.0031375967 -0.105173245 -0.13884288
0001d0 b0 b9 33 be 20 44 38 be cb 46 c2 bd 09 ea 30 bd
       -0.17551303 -0.17994738 -0.09486159 -0.043191943
0001e0 7d 38 36 3c a3 24 92 be 4d 7b 81 bd 2b e7 49 be
       0.011121866 -0.28543577 -0.06322346 -0.1971709
0001f0 20 94 e8 bd d4 10 55 be 78 9a e0 3b 46 07 3b 3b
       -0.113563776 -0.208072 0.0068543516 0.002853827

network.3.weight f4 [2, 128]
000000 b4 28 80 bb 4c d4 52 3a 2d c3 f5 bd a3 d8 69 3d
       -0.003911102 0.0008042499 -0.120001175 0.057091366
000010 8d 6e c3 bb 55 0e 16 be 7e 1a 33 3e eb 40 a9 bc
       -0.0059641064 -0.14653905 0.17490575 -0.020660838
000020 fe fb 95 3c 7f 46 07 3d 9d c2 f4 39 be ef eb ba
       0.018308636 0.033026215 0.00046684305 -0.0018000526
000030 15 32 0b 3d d2 5b d6 bc eb d1 95 3b 6d 15 33 bc
       0.03398331 -0.02616683 0.0045721433 -0.010930401
000040 9f 37 c3 bd 9f 0c 3c bd 9d fc e4 bd cd 3e 0e 3e
       -0.09532093 -0.045910474 -0.11180995 0.13891144
000050 eb 35 5b 3c 3a 3e 32 bc bd 39 85 bc 80 20 ab bd
       0.013379554 -0.010879094 -0.016262883 -0.08355808
000060 62 ce 42 3e 14 a5 5c bd f1 75 13 3d 6b 08 6f 3c
       0.19024041 -0.05386837 0.03600115 0.014589409
000070 48 85 3c bc 15 3d e7 3d 20 4a 9c bc 02 a0 4c 3d
       -0.011506386 0.11290947 -0.019078314 0.049957283
000080 fe 00 b6 3d 15 99 3c be a1 a1 8b 3d 92 8c 05 3e
       0.08886908 -0.18417771 0.06817938 0.13041905
000090 6f 1c 6e bb c0 bd 80 be c9 ba 46 be ad c1 a3 bd
       -0.0036332866 -0.25144768 -0.1940719 -0.07995925
0000a0 99 29 d3 3d 6d 47 4a 3d 01 ff 55 3d e5 8b 1b bd
       0.103106685 0.049384523 0.052245144 -0.03797521
0000b0 16 5f c5 3d 30 16 9c bd 94 91 a4 3d 84 c1 18 3d
       0.09637277 -0.076214194 0.08035579 0.037293926
0000c0 a1 6a 13 be aa d9 af bd 9d 12 26 3d 24 8f a4 bb
       -0.14396144 -0.08586438 0.040545095 -0.0050219465
0000d0 e5 28 91 3d a8 d2 48 bd 4e 67 d4 bc 60 06 14 be
       0.07087878 -0.049029022 -0.025928166 -0.14455557
0000e0 5e 03 8c bc 31 a4 61 ba 7d 17 f0 3d e2 1c 05 bd
       -0.01709145 -0.0008607535 0.1172323 -0.032498248
0000f0 1d f1 65 bc d9 ca 06 3e b0 34 01 bd 4f c6 7a bd
       -0.014034537 0.13163318 -0.031544387 -0.061224278
000100 ad fd 40 3e 2d 4c 9a bc b5 2c 1b 3e f5 36 22 be
       0.1884677 -0.018835152 0.15153773 -0.15841277
000110 df 0b 6a 3c 70 22 25 3e fb fb bd bd d6 ea 28 3d
       0.014285057 0.16126418 -0.09276577 0.041239582
000120 ce 61 74 3c 0f 50 47 be 5b 98 7b 3c f7 dc 27 3e
       0.014915897 -0.19464134 0.015356149 0.16392885
000130 2c ee 51 bd e1 ab 53 bd bc b8 81 bd b7 f2 b3 bb
       -0.05125253 -0.05167759 -0.063340634 -0.0054915803
000140 17 15 90 bd 54 6d ff b8 3a 25 a7 3c 01 6a 11 bd
       -0.070352726 -0.000121797115 0.020403493 -0.035501484
000150 a2 d9 c4 3d f7 f9 0d 3d ea 1c 47 bb 05 9f 52 be
       0.09611823 0.034662213 -0.0030382224 -0.20568474
000160 0f f3 5d 3c 1e 2f d0 3d b5 03 ad 3b 6c cc 2b 3c
       0.013546719 0.10165237 0.005279983 0.01048575
000170 c7 6f 61 be c9 b6 f6 bd 47 13 44 bd fe ac dc 3b
       -0.22015296 -0.12046582 -0.047869947 0.0067344895
000180 8f 7e c6 3c ab 55 49 bd b7 e0 e9 bc b2 05 69 bc
       0.02423027 -0.049153965 -0.028549535 -0.014222549
000190 0b 45 c9 3d 1b 00 8f bc c2 86 4d 3e e6 6f f2 b9
       0.09827622 -0.017456105 0.20070937 -0.00046241208
0001a0 b5 15 92 3d a1 2d 2c 3e 42 53 bf bc 83 13 33 bd
       0.071330465 0.16814281 -0.02335513 -0.04371978
0001b0 74 71 15 bc ab f6 5e bd d4 cf 4d bd 56 fb 36 3d
       -0.009121288 -0.05443446 -0.05024703 0.044673286
0001c0 11 7d 9c 3d c2 29 2b 3e 56 70 01 3e e9 3c 00 be
       0.07641042 0.16715148 0.12640509 -0.12523235
0001d0 18 7e fe ba 23 33 0b 3d 2c 89 23 be 24 02 f4 3c
       -0.0019416241 0.033984315 -0.15970296 0.029786177
0001e0 f3 e5 00 3e fc d3 46 be b8 cc 42 3e cc cc 83 bd
       0.12587719 -0.19416803 0.19023407 -0.06435546
0001f0 87 a8 18 3e e3 27 37 be ee 1d 5d b9 23 f7 14 bd
       0.14908038 -0.1788631 -0.00021087352 -0.0363685
000200 55 e9 29 be ce 23 8f 3d 34 b4 f0 3c 5c bd 89 bd
       -0.16592915 0.06989251 0.029382803 -0.067255706
000210 ee bd d5 3d 85 71 2f be 7d c5 cc bb c9 50 8e bc
       0.10436617 -0.17133148 -0.0062491284 -0.017372506
000220 8f 1d 67 bd ec b8 ce 3d 7b 86 f3 bc f9 e4 15 bd
       -0.056424674 0.10093865 -0.029727211 -0.03659532
000230 31 e2 b3 3d 96 23 0c 3d 7e 8c be bb d3 b8 89 3c
       0.08783377 0.034213625 -0.005815088 0.016811764
000240 d1 a2 80 bd 77 a8 2f 3d f9 c2 e8 bd 89 9c 0a 3e
       -0.06281055 0.04288527 -0.11365313 0.13536276
000250 31 0b b9 bd 9b 74 0c 3e 9c 97 b3 3c ab 88 b8 3d
       -0.09035338 0.13716356 0.021922879 0.09010442
000260 e7 38 e3 3d 61 91 89 3d 30 41 05 be bf 48 a2 bd
       0.11094838 0.06717182 -0.13013148 -0.079240315
000270 d3 ac de 3d 5a c9 6f 3d 27 98 83 3d c7 35 9d bd
       0.10872807 0.058541633 0.06425505 -0.07676273
000280 01 1d 7c bd 0c 7a f8 3d 03 05 31 3e f8 36 aa bd
       -0.061551098 0.121326536 0.17287068 -0.08311266
000290 a6 3c b0 3d e8 c9 25 3d 6d ad 48 3d ad 02 34 be
       0.08605318 0.040475756 0.048993517 -0.17579146
0002a0 1b 90 07 be 29 fd 5e 3d d8 63 37 bd e7 33 4f 3d
       -0.13238566 0.05444065 -0.044772953 0.050586607
0002b0 ff ac 73 3c b5 e2 58 3e db 0f 82 3e b2 31 92 3c
       0.014872788 0.21180232 0.25402722 0.017845962
0002c0 86 64 bc bd 24 2e d9 bd 15 b5 00 3d 33 4b 34 3d
       -0.09198861 -0.10604504 0.031422693 0.044017028
0002d0 fd c1 00 3e c1 a7 40 3e d4 58 82 bb a4 26 22 3e
       0.12574 0.18813993 -0.0039778743 0.15835053
0002e0 31 c1 6e 3d 47 5d bb 3b 88 a0 d3 3d 8e f8 17 be
       0.05828971 0.0057179066 0.10333353 -0.1484091
0002f0 a0 ac cb bc 40 14 57 bd b3 0b 66 3d cb a5 7d be
       -0.024862587 -0.052509546 0.0561635 -0.24770276
000300 7d 70 60 bd 12 a8 33 3d d8 8f 82 3d 0d 6c a9 3c
       -0.054794777 0.043861456 0.06375092 0.020681405
000310 e3 87 87 3d ee 5b 8d be be eb 19 3e 01 34 da 3c
       0.06617715 -0.276092 0.15031335 0.026636126
000320 3a ae f5 3d 70 0c 49 3d f7 76 90 bd 70 ad a9 bc
       0.11996122 0.049084127 -0.07053941 -0.020712584
000330 d2 ce e4 3d 0c 05 24 3e bc 1c 5c 3e df 0c 21 bd
       0.1117226 0.1601755 0.21495336 -0.039318915
000340 5c c3 c1 3e 1b b9 52 3c 21 cf 79 3d 80 3c e5 3d
       0.3784436 0.012861515 0.06098855 0.1119318
000350 01 3c 34 3c 52 c7 43 3c b4 39 38 be 67 e3 8b bb
       0.011000634 0.011949377 -0.17990762 -0.004269052
000360 f2 e2 a3 bd a1 da 43 be 3f a3 6e 3d b7 77 ab 3d
       -0.08002271 -0.19126369 0.058261152 0.08372443
000370 10 60 34 3e 0a 5d ee 3d 07 2e 65 3e af 91 ea bc
       0.1761477 0.116388395 0.2238084 -0.02863392
000380 33 d3 90 3d 65 f3 1e 3e 29 59 3c 3d 56 1b 33 bd
       0.07071533 0.15522535 0.045983467 -0.04372724
000390 bc c0 91 3d 64 44 8f 3d 55 93 d4 bb 74 82 2e 3d
       0.07116839 0.06995466 -0.00648729 0.04260488
0003a0 4f ee 97 3d d2 26 36 bd 2a 45 98 3e a2 6e 99 3d
       0.07418501 -0.044470616 0.29740268 0.07491805
0003b0 92 c3 ac 3d 04 1e 96 3d 7b e6 34 3d 22 c0 32 3c
       0.084357396 0.07329944 0.044165116 0.010910066
0003c0 7d a4 86 bd 76 56 66 be 51 1f bd 3d e3 37 3d be
       -0.065743424 -0.2249392 0.09234489 -0.1847835
0003d0 54 1b 5d bd b0 a2 b9 3d 4d 6b ff 3d 10 42 11 3e
       -0.05398114 0.09064233 0.12471638 0.14185357
0003e0 2f 88 b6 3d 62 06 d7 3d 74 67 36 be 8e fd 04 be
       0.08912694 0.10499264 -0.17812902 -0.12987348
0003f0 8e 2b f1 bc dd 93 03 be 2e 35 c6 bc 7b 7d 1a 3e
       -0.029439714 -0.12849374 -0.02419528 0.1508693

network.3.bias f4 [2]
000000 b8 9f 45 bd 39 cb 91 3e
       -0.048248023 0.2847536
